DATA403_final/checkpoints/Walker2d-v4_t/PPO_9372.pt (torch, 372045 bytes, 12 tensors)

actor_logstd f4 [1, 6]
0	0x3ff13e64	1.8847165
1	0x3fe55e8d	1.791948
2	0x3fde5018	1.7368193
3	0x3fd5af5a	1.6694138
4	0x3fc92ae0	1.571621
5	0x3faf2e4b	1.3686002

critic.0.weight f4 [145, 17]
0	0xbd4e9ede	-0.050444476
1	0xbd8b5063	-0.06802442
2	0x3ec1bcdb	0.37839398
3	0xbed2d380	-0.41176987
4	0x3d6677d3	0.056266617
5	0x3efebbaa	0.4975255
6	0x3ea7e6e8	0.32793355
7	0xbe25e1c5	-0.16199405
8	0xbf1433eb	-0.5789172
9	0x3dfa769f	0.122296564
10	0x3da2f051	0.07955993
11	0xbd99f371	-0.07517136
12	0x3c04d0c4	0.008106414
13	0xbc96e33e	-0.018418904
14	0xbcace4b2	-0.021105144
15	0x3d3720c9	0.044709
16	0x3d2e5b63	0.042567622
17	0xbdd29b7f	-0.10283565
18	0x3dcbfab9	0.09959931
19	0x3f0f2201	0.5591126
20	0x3db5de6d	0.08880315
21	0x3c117d71	0.008880005
22	0x3e2d5b3f	0.16929339
23	0xbf909b08	-1.1297312
24	0xbd684a85	-0.056711692
25	0x3ede1ae4	0.4337989
26	0xbebe7f2c	-0.372064
27	0xbe0985a2	-0.13429883
28	0xbc286f18	-0.010280393
29	0x3b7820f0	0.003786143
30	0x3b3ff4b4	0.0029290142
31	0xbc6bc3d8	-0.0143899545
32	0x3cf5e950	0.030018479
33	0xbc6c3529	-0.014416971
34	0x3ec5f8dd	0.3866643
35	0xbcd0d761	-0.025493326
36	0xbe89fac5	-0.26949134
37	0xbeda6d42	-0.42661482
38	0x3f1b2df0	0.6061697
39	0x3ebbb9cd	0.36665192
40	0x3e0a93f7	0.13533007
41	0x3e535177	0.20636545
42	0x3ea709da	0.32624704
43	0x3ee246c0	0.44194603
44	0xbe641af6	-0.2227591
45	0x3bd2b77e	0.0064305654
46	0xbad6389c	-0.0016343775
47	0xbbf3979c	-0.0074338447
48	0x3e6f97ec	0.23397797
49	0x3e2e5019	0.17022742
50	0x3bd92ebd	0.006627886
51	0xbe27394f	-0.16330455
52	0xbfa2b489	-1.2711345
53	0x3eba713d	0.3641452
54	0x3dc875ec	0.09788117
55	0x3cce2f45	0.025169024
56	0x3f294154	0.6611531
57	0x3fa28f8c	1.2700057
58	0x3e928e9b	0.28624424
59	0xbe3251e3	-0.1741405
60	0xbea68a26	-0.32527274
61	0x3d15b722	0.036551602
62	0x3d9cd65a	0.07658072
63	0x3cee8e66	0.029120635
64	0xbc2833ac	-0.010266226
65	0xbc8cc3f1	-0.017183276
66	0x3d8706e7	0.065931134
67	0xbd6cfc0d	-0.05785756
68	0xbdf8dfa9	-0.12152035
69	0xbf920da5	-1.1410414
70	0x3e25cb87	0.16190921
71	0x3dc9119c	0.09817812
72	0xbeac86bf	-0.33696553
73	0x3f22ccef	0.63593954
74	0xbd6b820f	-0.05749708
75	0x3df0082b	0.11720308
76	0xbdb0ed4c	-0.08639011
77	0x3d4999f1	0.049219076
78	0x3e362bff	0.1779022
79	0x3d49b64d	0.04924612
80	0x3db7467e	0.08948992
81	0x3d2f9e9d	0.042875875
82	0xbe43be8f	-0.19115661
83	0xbd9787be	-0.07398938
84	0x3cb96f79	0.022636162
85	0x3de050bd	0.109528996
86	0x3f93bc0c	1.1541762
87	0x3ed9ca65	0.42537227
88	0x3d9bd385	0.076087035
89	0xbc6d4b4c	-0.014483284
90	0xbf05da46	-0.52286184
91	0x3ec5fbd1	0.38668683
92	0x3d69befe	0.05706691
93	0x3e0cda75	0.1375521
94	0x3e5aeadb	0.21378653
95	0xbc0747b6	-0.008256843
96	0x3e215266	0.15754089
97	0x3d7cdd00	0.0617342
98	0x3c8b4f6b	0.017005643
99	0xbd9d09df	-0.076678984
100	0xbdfafa46	-0.12254767
101	0xbc171e1b	-0.009223486
102	0xbecb478f	-0.39703032
103	0x3da0812d	0.07837138
104	0xbe7c0656	-0.24611792
105	0xbdd80b50	-0.10549033
106	0x3dc74b08	0.09731108
107	0x3edded34	0.43345034
108	0x3e553809	0.20822157
109	0xbf72f647	-0.9490704
110	0xbe1da49c	-0.15394825
111	0xbe67152d	-0.22566672
112	0x3d9f613c	0.07782218
113	0x3cf2d51d	0.029642636
114	0xbc413166	-0.011791563
115	0xbc6936e1	-0.014234276
116	0xbd8cdd0e	-0.068781
117	0x3d65f002	0.056137092
118	0xbd6674f5	-0.056263883
119	0x3b3f476c	0.0029186858
120	0x3f436ee2	0.7634107
121	0x3e51b9a0	0.20480967
122	0xbef900dd	-0.4863347
123	0xbd8eac67	-0.06966477
124	0xbe8d5963	-0.2760726
125	0x3d9aee9b	0.07565042
126	0x3d7bde73	0.06149144
127	0x3efea9e6	0.49738997
128	0xbeabdd70	-0.3356738
129	0x3e20ddf3	0.15709667
130	0xbeb1591b	-0.34638295
131	0xbd86b4cc	-0.06577453
132	0xbc896fd9	-0.016776966
133	0x3dcbfb7a	0.09960075
134	0x3c81a23d	0.015824432
135	0xbcda685d	-0.026661092
136	0x3e8f3f4c	0.2797798
137	0x3efa8169	0.48926857
138	0xbe22b174	-0.15888005
139	0xbc05ab2b	-0.008158485
140	0xbda14d31	-0.07876051
141	0x3c96d8af	0.01841387
142	0x3e84ebbd	0.25961104
143	0x3da0a937	0.07844775
144	0x3f2fb0df	0.6862926
145	0xbb998134	-0.0046845917
146	0xbe81624e	-0.25270313
147	0xbc8a3488	-0.016870752
148	0x3db75049	0.0895086
149	0x39a2cd5b	0.0003105205
150	0xbdc89805	-0.097946204
151	0x3cd334d2	0.025782023
152	0x3bcb9423	0.0062127276
153	0xbe451611	-0.19246699
154	0x3e8de55b	0.27714047
155	0xbf23d515	-0.6399701
156	0x3e8a62e6	0.2702858
157	0x3e38f2b3	0.18061332
158	0x3e2964a6	0.165423
159	0x3ea975df	0.3309774
160	0x3d30ed99	0.04319534
161	0x3e54670b	0.20742433
162	0x3e11f866	0.14254913
163	0xbe1f6f52	-0.15569809
164	0x3e0456bc	0.12923712
165	0xbd42e305	-0.047579784
166	0xbc0b2d82	-0.008494737
167	0xbc940f6b	-0.018073758
168	0xbc9dd056	-0.019264381
169	0x3c5286cd	0.012849522
170	0x3e871fe1	0.2639151
171	0x3e9d1a3e	0.30684084
172	0xbf00ffc2	-0.50390255
173	0xbefff976	-0.4999501
174	0xbd21e7ec	-0.03952782
175	0xbe7d1bfb	-0.24717705
176	0xbe49fd4a	-0.19725528
177	0x3cf59c85	0.02998186
178	0x3f607adc	0.8768747
179	0xbf079fad	-0.5297802
180	0xbd9f7416	-0.077858135
181	0x3d2347d7	0.039863434
182	0x3d081f0b	0.03323273
183	0x3b3a193e	0.0028396393
184	0xbd305d83	-0.04305793
185	0xbd8b37fd	-0.06797788
186	0x3c545346	0.012959307
187	0xbcaba518	-0.020952746
188	0xbdec944e	-0.115517244
189	0x3ea7e58b	0.32792315
190	0xbeaa05f0	-0.33207655
191	0x3e7deff7	0.2479857
192	0xbf9a0f35	-1.2035891
193	0xbef68f8b	-0.4815639
194	0xbf3cd1ba	-0.7375752
195	0xbea7be32	-0.32762295
196	0xbefe507c	-0.4967078
197	0x3e651e85	0.22374924
198	0x3dd12c83	0.10213568
199	0x3d794763	0.060859095
200	0x3999d75d	0.00029342892
201	0xbe0a434c	-0.13502234
202	0xbc75f199	-0.015011215
203	0xbd1d89a2	-0.038461335
204	0xbcaa1686	-0.020762693
205	0x3e0359a0	0.12827158
206	0xbe8f489a	-0.27985078
207	0xbde858b0	-0.11345041
208	0x3e253b70	0.16135955
209	0x3fb0bf43	1.3808368
210	0x3f32ed47	0.69893306
211	0xbe9c8eba	-0.30577642
212	0x3e5f3101	0.21796037
213	0x3dc971af	0.098361365
214	0x3e0520f7	0.13000856
215	0x3d83baf0	0.0643214
216	0x3c886b7d	0.016652817
217	0xbd45135a	-0.04811416
218	0xbe3fca4e	-0.18729517
219	0xbdc7ef91	-0.097624905
220	0xbc0540b0	-0.0081330985
221	0x3e715242	0.23566535
222	0xbf638091	-0.8886805
223	0x3e17e9b0	0.14835238
224	0x3f1cc65b	0.61240166
225	0x3d3f97bc	0.046775565
226	0xbf212208	-0.6294255
227	0x3e0d4132	0.13794401
228	0x3d550379	0.052005265
229	0xbeafeccf	-0.34360358
230	0xbe470e13	-0.19438963
231	0xbe2a8e00	-0.16655731
232	0x3c7209c9	0.014772841
233	0x3c74a382	0.014931561
234	0x3b22026a	0.0024720677
235	0xba64ad60	-0.00087233447
236	0x3cc23277	0.023705704
237	0xba958259	-0.0011406644
238	0xbe17f591	-0.1483977
239	0x3f0f3e61	0.5595456
240	0xbcd62016	-0.026138347
241	0xbdc54f8b	-0.09634312
242	0x3e3c84a3	0.18409972
243	0xbdc317eb	-0.09526046
244	0xbdc86778	-0.0978536
245	0x3f4b5a79	0.79434925
246	0x3d142174	0.036164716
247	0xbd8cccff	-0.068750374
248	0xbe9294db	-0.28629193
249	0x3d79d770	0.060996473
250	0x3d2434bd	0.040089358
251	0x3b930dab	0.0044877133
252	0x3e000d9b	0.1250519
253	0x3dfcddc5	0.12346987
254	0xbd43089a	-0.047615625
255	0x3e14af82	0.14520076

critic.0.bias f4 [145]
0	0xbdb10ffd	-0.08645628
1	0xbc1120f9	-0.008857959
2	0x3e78136d	0.2422616
3	0xbd3f7feb	-0.04675285
4	0xbd9e79ed	-0.07738099
5	0xbdfbafe1	-0.122894056
6	0xbebadb57	-0.36495468
7	0xbcec8a7e	-0.028874632
8	0x3e34b869	0.17648472
9	0xbd2b929b	-0.04188786
10	0x3e5e5fc2	0.21716216
11	0xbe612c0f	-0.21989463
12	0xbe1969e7	-0.14981805
13	0x3e0d5ed6	0.13805708
14	0xbea45403	-0.32095346
15	0xbe13b234	-0.14423448
16	0x3dff70b9	0.12472672
17	0xbe4386a9	-0.19094338
18	0x3c91a4cd	0.017778778
19	0xbe8a66da	-0.27031595
20	0x3e97d10d	0.2965168
21	0xbe638b1b	-0.22221033
22	0xbdbc69d1	-0.091998704
23	0xbd9e0f46	-0.07717757
24	0xbe6aa58a	-0.2291471
25	0x3d8d9fe0	0.06915259
26	0xbedce8bb	-0.4314631
27	0x3e981856	0.29706067
28	0xbe0beea9	-0.1366526
29	0x3ccc27fb	0.024921408
30	0x3d93ba65	0.07213286
31	0x3ec6bd0f	0.38816115
32	0xbda72e16	-0.08163087
33	0x3dff35d3	0.12461438
34	0xbeb97dec	-0.36228883
35	0xbe2d001d	-0.16894574
36	0x3da4aef6	0.08041184
37	0x3d611429	0.054950867
38	0xbd19f587	-0.03758767
39	0xbeaeca2f	-0.3413863
40	0x3ed8db6a	0.423549
41	0x3cdd1d22	0.02699143
42	0x3ce93f1e	0.02847248
43	0xbdd8f59f	-0.105937235
44	0x3e578977	0.21048532
45	0xbe8df039	-0.27722338
46	0x3d708d86	0.058728717
47	0xbed4f4e6	-0.41593093
48	0xbd15b7c3	-0.036552202
49	0xbea48048	-0.3212912
50	0x3ea590a7	0.32336923
51	0xbd4754c3	-0.04866482
52	0xbd42dd91	-0.047574583
53	0xbe5e44cf	-0.21705936
54	0xbe785345	-0.24250515
55	0xbecf0a3b	-0.40437493
56	0x3de13c14	0.10997787
57	0x3df4ef9a	0.11959763
58	0xbe44e442	-0.19227698
59	0x3e3ed53c	0.1863603
60	0xbeab92f0	-0.33510542
61	0xbe5df428	-0.2167517
62	0x3ee45c0a	0.4460147
63	0xbe8ccfb5	-0.27502218
64	0xbe00fe24	-0.12596947
65	0x3ce27a66	0.027646255
66	0xbea3b54d	-0.3197426
67	0xbe834d00	-0.25644684
68	0x3d85f5c2	0.06541015
69	0x3d04c157	0.032410946
70	0x3e46f243	0.19428353
71	0x3e6275d8	0.22115266
72	0x3ed5c223	0.41749677
73	0x3e660a9a	0.22464982
74	0x3dd3e437	0.10346263
75	0xbe55eea7	-0.2089182
76	0xbf04505e	-0.5168513
77	0xbd731534	-0.059346393
78	0xbe3f5d70	-0.18687987
79	0xbf0271bd	-0.509548
80	0xbe7f5b39	-0.24937142
81	0x3e7879db	0.24265234
82	0xbe8822ff	-0.265892
83	0x3e51a085	0.2047139
84	0xbe89e730	-0.26934195
85	0x3e94b6bf	0.29045674
86	0xbd35dfd2	-0.044402905
87	0x3e33126f	0.174875
88	0x3e924d8e	0.28574795
89	0xbd346ca8	-0.044048935
90	0x3e3c1901	0.18368913
91	0x3ea10d31	0.31455377
92	0xbd86924e	-0.06570874
93	0x3dc65a4f	0.09685194
94	0x3d35d056	0.044388138
95	0x3edd56dc	0.4323033
96	0x3ef6a6e2	0.48174196
97	0xbe3c70bc	-0.1840238
98	0xbed940b1	-0.42432168
99	0xbda84bec	-0.08217606
100	0x3ecf3443	0.4046956
101	0xbe7b31f1	-0.2453077
102	0xbcfadf9d	-0.030624205
103	0xbd79c7da	-0.06098161
104	0x3ca2117d	0.01978373
105	0xbe8befc3	-0.2733136
106	0x3ead3353	0.3382822
107	0x3df5257f	0.119700424
108	0x3e0007a9	0.12502922
109	0xbed35de1	-0.4128256
110	0x3e8701c7	0.26368544
111	0xbeddb1a0	-0.4329958
112	0x3c1a2df5	0.009410371
113	0xbe540c01	-0.20707704
114	0x3c4a593b	0.012350376
115	0x3e94e07f	0.29077527
116	0x3e8a8cd6	0.27060574
117	0xbec084a1	-0.37601188
118	0x3ecb0ea4	0.39659607
119	0xbd3d8491	-0.046269003
120	0x3e0c8098	0.1372093
121	0x3dc67323	0.09689929
122	0xbd0b2925	-0.033974785
123	0x3dabf4e4	0.083963186
124	0x3db6dc23	0.089287065
125	0x3e94ee71	0.29088166
126	0xbd40205e	-0.046905868
127	0xbdac16e8	-0.084028065
128	0xbe57f1b6	-0.21088299
129	0xbe80c24d	-0.2514824
130	0x3d0e7dfc	0.034788117
131	0x3e94ec28	0.29086423
132	0x3e1e3f20	0.15453768
133	0xbed5805e	-0.416995
134	0x3dfa7b53	0.122305535
135	0x3e472524	0.19447762
136	0x3ea0f8d3	0.31439838
137	0xbc511a8d	-0.012762678
138	0x3ee38495	0.4443709
139	0x3eaa24d2	0.33231217
140	0x3dcb20ce	0.099183664
141	0x3e546c8d	0.20744534
142	0xbe50477a	-0.20339766
143	0x3d7bedc2	0.06150604
144	0xbdb1031d	-0.08643172

critic.2.weight f4 [290, 145]
0	0x3e9199e8	0.28437734
1	0xbe284f50	-0.16436505
2	0xbe7efbff	-0.24900816
3	0x3e28f219	0.16498603
4	0x3e1d7f18	0.15380514
5	0xbeb0e236	-0.34547585
6	0x3d4d0c83	0.05006076
7	0xbeb31e94	-0.34984267
8	0xbe37cb16	-0.17948565
9	0xbe20230f	-0.15638374
10	0xbf11f510	-0.5701456
11	0x3c9c5b60	0.01908654
12	0xbe2b7bcd	-0.16746445
13	0x3ce5e46f	0.028063027
14	0xbe0d8932	-0.13821867
15	0xbd84dd90	-0.06487572
16	0xbe83c79c	-0.25738227
17	0xbe1ab750	-0.1510899
18	0x3b331b0a	0.002732935
19	0xbca2548e	-0.01981571
20	0x3dde2615	0.10847107
21	0xbe994a61	-0.2993956
22	0x3eb29718	0.348809
23	0xbe8494a5	-0.25894657
24	0xbc984c68	-0.01859112
25	0x3e97bb1a	0.29634935
26	0xbe19ba01	-0.15012361
27	0xbe274415	-0.16334565
28	0xbe379c62	-0.17930749
29	0xbe1a2dc6	-0.15056524
30	0x3e890445	0.2676107
31	0x3da1d997	0.0790283
32	0x3e6420ce	0.22278139
33	0xbe0e62b9	-0.13904847
34	0x3cf973a3	0.030450648
35	0x3d863aec	0.06554207
36	0xbed31c0d	-0.4123234
37	0xbe99c88a	-0.30035812
38	0xbd2581af	-0.04040688
39	0x3e62ea8f	0.2215979
40	0x3d0b4df2	0.03400988
41	0x3ec0a849	0.3762839
42	0x3e905fc3	0.2819806
43	0x3e9ae9fc	0.3025664
44	0xbe3866da	-0.18007985
45	0xbe4c2507	-0.19936
46	0xbe99cfc8	-0.30041337
47	0xbd0c98c6	-0.034325384
48	0x3d9466d7	0.07246178
49	0xbd8f4368	-0.069952786
50	0xbe470bc3	-0.1943808
51	0x3d937d37	0.07201617
52	0xbeb0769e	-0.34465498
53	0xbd6d855f	-0.05798852
54	0x3e8013a5	0.25014988
55	0x3d251166	0.040299796
56	0x3e971b7e	0.29513162
57	0x3e7ae5bd	0.245017
58	0xbd894aa3	-0.06703689
59	0x3e603d8a	0.21898475
60	0x3e24c651	0.16091277
61	0x3d347c9d	0.044064153
62	0xbdba67a0	-0.09101796
63	0xbd85b45e	-0.06528543
64	0x3e820c8e	0.25400203
65	0x3ea26196	0.31715077
66	0xbd44096d	-0.04786055
67	0x3e2d76ff	0.16939925
68	0xbdf0d6cd	-0.1175972
69	0x3e9724c5	0.2952024
70	0x3ce4199f	0.027844248
71	0xbe84f1f9	-0.2596586
72	0x3b881ccd	0.004153824
73	0xbe44b8e8	-0.19211161
74	0xbe8f043b	-0.27932915
75	0xbe1a6573	-0.15077762
76	0x394bd151	0.00019437565
77	0xbe8fde98	-0.28099513
78	0xbe6356cf	-0.22201084
79	0x3d61b937	0.055108275
80	0x3e1a4977	0.15067087
81	0x3d23fc5d	0.040035594
82	0xbd08a519	-0.033360574
83	0xbe1894dc	-0.14900535
84	0x3e586c89	0.21135153
85	0xbe154954	-0.14578754
86	0x3d499cb7	0.04922172
87	0x3cfa03aa	0.030519325
88	0xbeaf195a	-0.3419903
89	0xbe596918	-0.21231496
90	0xbeafa9fa	-0.3430937
91	0xbcd58b6b	-0.026067456
92	0x3e5aa1cf	0.21350788
93	0xbf05bb1b	-0.52238625
94	0x3e819020	0.2530527
95	0x3d6475bd	0.055776346
96	0x3e108b6d	0.14115687
97	0x3e60f1d3	0.21967249
98	0x3da5605d	0.080750205
99	0xbe6253f8	-0.22102344
100	0xbd743e62	-0.059629805
101	0x3dd30332	0.10303344
102	0x3e230e36	0.1592339
103	0x3dd5728d	0.104222395
104	0x3b7117c5	0.003678785
105	0x3b96b8bc	0.004599659
106	0xbcf8e2b3	-0.030381536
107	0xbec7c9a9	-0.39021042
108	0xbdf42ae8	-0.11922246
109	0x3d1e6cd5	0.03867801
110	0x3e5593c1	0.20857145
111	0x3dd38f40	0.10330057
112	0xbe3ba7cf	-0.18325733
113	0xbe32bbff	-0.17454527
114	0xbe370dec	-0.17876405
115	0xbe22ad40	-0.15886402
116	0xbe31ec3a	-0.1737527
117	0x3d74284a	0.059608735
118	0xbe24e48f	-0.16102813
119	0x3ecb30a5	0.3968555
120	0xbde333d7	-0.11093872
121	0xbe9ae6b6	-0.30254143
122	0x3e526af0	0.20548606
123	0x3e050b0a	0.12992492
124	0xbe2e889e	-0.17044303
125	0xbdb2d5c3	-0.08732178
126	0x3dd54083	0.10412695
127	0x3e1bc79e	0.15212867
128	0xbe45a85b	-0.19302504
129	0x3de8763b	0.11350676
130	0x3e58031d	0.21094938
131	0xbddec4c5	-0.108773746
132	0xbeb4737f	-0.35244367
133	0xbd1b4eb5	-0.037916858
134	0xbe078184	-0.13233
135	0xbe44cd09	-0.1921884
136	0x3cab9f18	0.020949885
137	0xbe8a3dbb	-0.27000222
138	0x3df0bd15	0.117548145
139	0xbd89dc64	-0.06731489
140	0xbe0f2050	-0.1397717
141	0x3dda5083	0.10659888
142	0x3e0d9433	0.13826065
143	0x3c64f6b0	0.0139748305
144	0x3e8e512a	0.27796298
145	0x3e904995	0.2818114
146	0xbed16197	-0.40894768
147	0xbe186f0c	-0.14886111
148	0xbde13077	-0.10995572
149	0xbde54110	-0.1119405
150	0x3d8e07b1	0.06935061
151	0x3e095747	0.134122
152	0xb99ff47f	-0.00030509007
153	0xbe27507e	-0.16339299
154	0xbe7427b0	-0.23843265
155	0xbe8cb34d	-0.27480546
156	0xbe1ab184	-0.1510678
157	0x3d2592df	0.04042327
158	0xbe1c9b7e	-0.1529369
159	0xbec10f33	-0.3770691
160	0xbe600f4a	-0.21880832
161	0xbde38776	-0.111098215
162	0xbe4e0505	-0.20119102
163	0xbd9f1bdb	-0.07768985
164	0xbd2b8d5f	-0.04188287
165	0xbe4f859c	-0.20265812
166	0xbf02ca21	-0.51089674
167	0x3dd2fd21	0.10302187
168	0x3ea97f7c	0.33105075
169	0x3da7a67e	0.08186053
170	0xbea4f141	-0.32215312
171	0xbcc89cb0	-0.024488777
172	0x3d8b1c80	0.06792545
173	0xbeb8b5f5	-0.36076322
174	0xbd2e2703	-0.042517673
175	0x3e8d3c76	0.2758519
176	0x3ce62736	0.02809487
177	0xbd67889b	-0.05652676
178	0xbdbf475b	-0.09339782
179	0x3e080df5	0.13286574
180	0x3d383440	0.044971704
181	0xbe28b997	-0.16477047
182	0xbdff386b	-0.12461933
183	0x3f3a5a84	0.72794366
184	0xbe416d51	-0.18889357
185	0xbdc5c1d7	-0.09656113
186	0x3efb15c0	0.4904003
187	0x3f4e384c	0.8055465
188	0x3d1faf1c	0.038985357
189	0xbe276215	-0.16346009
190	0xbdf15d7b	-0.11785408
191	0x3e6426b3	0.22280388
192	0xbda925e1	-0.08259178
193	0x3dd9a78b	0.106276594
194	0x3e8a2630	0.2698226
195	0x3c84a62e	0.016192522
196	0x3e414838	0.18875206
197	0xbe309ac8	-0.17246544
198	0xbcc904e6	-0.024538469
199	0x3ee25881	0.44208148
200	0xbd62d4f7	-0.05537888
201	0x3ed6560b	0.4186252
202	0x3dd639d5	0.10460249
203	0xbdca5014	-0.09878555
204	0x3d3a1b1c	0.04543601
205	0xbd7e0be6	-0.062023066
206	0xbe9ce5a7	-0.3064396
207	0xbd6fdc94	-0.05855997
208	0xbe48acce	-0.1959717
209	0xb9de1a24	-0.00042362616
210	0x3f036ba3	0.51336116
211	0xbd8aab3e	-0.06770943
212	0xbe8cfabd	-0.27535048
213	0xbee7e78f	-0.45293853
214	0x3e588301	0.21143724
215	0xbe62591b	-0.22104304
216	0xbcacea89	-0.021107929
217	0xbc9ee873	-0.01939795
218	0x3cd3565c	0.025798015
219	0x3da9de0e	0.08294307
220	0xbe9b7127	-0.30359766
221	0xbe339e2a	-0.17540804
222	0xbe616e32	-0.22014692
223	0x3da651ea	0.081210926
224	0xbcfd234b	-0.030900618
225	0x3df8e75a	0.12153502
226	0xbc2dc85b	-0.0106068505
227	0x3ea7c8dd	0.32770434
228	0xbd213534	-0.03935738
229	0x3d6028b1	0.054726306
230	0xbe99b927	-0.30024073
231	0xbe25f8f3	-0.16208248
232	0x3e7bef5d	0.24603029
233	0xbc90418b	-0.017609378
234	0x3f06264e	0.524022
235	0xbdac8966	-0.08424644
236	0xbe519287	-0.20466052
237	0xbdf3a78a	-0.1189719
238	0xbe54aee0	-0.20769835
239	0x3d9c198b	0.076220594
240	0x3ec0318b	0.37537798
241	0xbae74688	-0.0017644921
242	0xbde04534	-0.109506994
243	0xbce8a6cd	-0.02839985
244	0xbe2f935b	-0.17146055
245	0x3e41dd31	0.18932034
246	0xbe3ef0cb	-0.18646543
247	0xbceb5721	-0.02872807
248	0xbd1fdf7a	-0.039031483
249	0x3ee49096	0.4464156
250	0xbcd12763	-0.025531476
251	0xbe82db81	-0.25558093
252	0x3c6d9959	0.014501893
253	0xbec35f50	-0.38158655
254	0x3d8f6aa5	0.07002763
255	0x3e002ebe	0.1251783

critic.2.bias f4 [290]
0	0xbe019793	-0.12655477
1	0xbd96298e	-0.07332145
2	0xbc9fde31	-0.019515129
3	0x3e42a859	0.19009532
4	0xbd99e58b	-0.07514485
5	0x3e2c61ed	0.1683423
6	0x3e1b34a8	0.15156806
7	0x3e0c44b2	0.1369808
8	0xbe12ce52	-0.14336517
9	0x3e31abdc	0.17350715
10	0xbd8d867a	-0.06910415
11	0xbd46147e	-0.048359387
12	0x3e25d481	0.16194345
13	0x3de88927	0.11354285
14	0x3d99d6f9	0.07511706
15	0x3d07c18b	0.03314356
16	0xbd6a7747	-0.057242658
17	0xbc850083	-0.016235596
18	0x3d915a98	0.070973575
19	0x3e600463	0.21876673
20	0xbe1da948	-0.15396607
21	0xbd01d37a	-0.03169582
22	0xbe6fdc6e	-0.23423931
23	0x3d05c7e3	0.03266133
24	0xbe28c29e	-0.1648049
25	0xbd937045	-0.07199148
26	0x3d7e998a	0.062158145
27	0x3df51d31	0.119684584
28	0xbe116342	-0.1419802
29	0x3c577dc2	0.013152542
30	0x3df77241	0.12082339
31	0xbd53e23e	-0.051729433
32	0x3dbfd7a7	0.09367304
33	0xbdb0cb01	-0.0863247
34	0xbd4c8880	-0.049934864
35	0xbe387139	-0.18011941
36	0x3e36811d	0.1782269
37	0xbe2f4504	-0.17116171
38	0x3db6e6ca	0.08930738
39	0x3df70878	0.12062162
40	0x3e74edf4	0.23918897
41	0xbd764408	-0.060123473
42	0x3df064a6	0.11737947
43	0x3e89d39f	0.26919267
44	0x3e71bdee	0.23607609
45	0x3dbb1d64	0.09136465
46	0x3d4f63fd	0.050632466
47	0xbe491058	-0.19635141
48	0xbdce8dc8	-0.100856364
49	0xbe1afd49	-0.15135683
50	0xbdf31a50	-0.11870253
51	0x3d5ca9f6	0.053873025
52	0xbdb629db	-0.08894702
53	0x3d573199	0.052537534
54	0x3e7d5fa6	0.24743518
55	0x3dbc3057	0.091889076
56	0x3d389953	0.045068096
57	0xbe01ed62	-0.1268821
58	0xbe1b2e8f	-0.1515448
59	0x3e666abf	0.22501658
60	0xbdbaf6f0	-0.09129131
61	0xbc4be0cb	-0.012443732
62	0x3e2cd8ad	0.1687953
63	0x3cbb51c0	0.02286613
64	0x3d82b136	0.063814566
65	0xbc052ae2	-0.0081279
66	0xbd10311a	-0.035203077
67	0x3d9bc99a	0.07606812
68	0x3e680bb8	0.2266072
69	0xbcbcc02b	-0.023040852
70	0x3e4ecc57	0.20195137
71	0xbc611dcd	-0.013740015
72	0x3e2f4621	0.17116596
73	0x3e1cc845	0.15310772
74	0xbe299696	-0.1656135
75	0x3dbedf7d	0.09319971
76	0x3d931333	0.07181396
77	0xbd74fb06	-0.059809707
78	0xbd577f20	-0.05261147
79	0xbdfec74a	-0.12440355
80	0xbe07b386	-0.13252077
81	0xbe0a15f3	-0.13484935
82	0x3dc04fdc	0.09390232
83	0xbe21c4bf	-0.15797709
84	0x3e14f1b2	0.14545324
85	0xbdef0d46	-0.116724536
86	0x3d83b71c	0.0643141
87	0x3da2e098	0.07952994
88	0xbdc69e58	-0.096981704
89	0x3e2d7cda	0.16942158
90	0x3e1e2a61	0.15445854
91	0x3e2a3365	0.16621168
92	0x3d98660e	0.074413404
93	0x3df42f81	0.11923123
94	0x3d6c94ae	0.05775898
95	0x3cdb986a	0.026806075
96	0x3d52aec3	0.051436197
97	0xbe0e3e4f	-0.13890956
98	0x3e266e00	0.16252899
99	0xbe82a1db	-0.2551411
100	0xbdc2f56d	-0.095194675
101	0xbdbf54f0	-0.093423724
102	0x3dccb6ef	0.09995829
103	0x3e2d09f0	0.16898322
104	0xbd8aaeb1	-0.06771601
105	0x3dbdb505	0.09263042
106	0x3e4e7faf	0.20165895
107	0x3de7245c	0.11286232
108	0x3a21bff1	0.0006170264
109	0x3db8ad88	0.090174735
110	0x3e0d52b5	0.13801081
111	0xbe0047ae	-0.12527344
112	0xbd6f5bb9	-0.058437083
113	0x3db7faa4	0.08983353
114	0xbd9dbb46	-0.07701735
115	0x3db36901	0.08760262
116	0x3e1288ec	0.14310044
117	0xbe345860	-0.17611837
118	0x3e29772e	0.1654937
119	0x3ee5484b	0.44781718
120	0xbde518c8	-0.11186367
121	0xbdb228fe	-0.08699225
122	0x3df1bb65	0.11803321
123	0xbe3da5cd	-0.18520279
124	0x3dbb0f14	0.09133735
125	0xbe13caa7	-0.14432774
126	0xbe0c73ce	-0.13716051
127	0xbe06f1c4	-0.13178164
128	0xbd3f9f13	-0.046782564
129	0x3d9befe7	0.07614117
130	0x3dd462bd	0.10370395
131	0x3e663980	0.22482872
132	0x3c9a54fe	0.018839356
133	0x3e138f37	0.14410101
134	0xbdd01469	-0.10160143
135	0xbe1b91d5	-0.1519235
136	0x3dec4a5c	0.115376204
137	0x3d76ed46	0.060284875
138	0xbdbf8842	-0.09352161
139	0x3e06f42f	0.13179086
140	0xbdc789f2	-0.09743108
141	0x3ddaf466	0.106911466
142	0x3dc1ae80	0.09457111
143	0x3dc5b029	0.096527405
144	0x3d87857f	0.06617259
145	0xbe08509c	-0.13312
146	0x3dd9b3da	0.10630007
147	0xbe32c76e	-0.17458889
148	0xbd7152a8	-0.058916718
149	0xbe19180f	-0.14950584
150	0xbe375106	-0.17902002
151	0xbdaea621	-0.0852778
152	0xbdd00ca3	-0.1015866
153	0x3d262895	0.040566046
154	0x3e4ada5b	0.19809859
155	0xbe0adf0d	-0.1356165
156	0xbd303cbc	-0.04302667
157	0x3deeac57	0.11653965
158	0x3e14f3c9	0.14546122
159	0xbdab204e	-0.08355771
160	0xbe1787b5	-0.14797862
161	0xbd9deb41	-0.07710887
162	0x3cee2172	0.029068682
163	0xbc809557	-0.01569621
164	0x3db43a1b	0.08800145
165	0x3dc27c32	0.094963446
166	0x3e04b686	0.12960252
167	0x3e0ec7ae	0.1394336
168	0xbda14c55	-0.07875887
169	0xbd7564c8	-0.059910566
170	0xbde0bf15	-0.10973946
171	0x3e135f6a	0.14391866
172	0x3daa6473	0.083199404
173	0x3e354310	0.17701364
174	0x3c290efa	0.010318512
175	0xbdd7ecd0	-0.10543215
176	0x3e08bed2	0.13354042
177	0x3e03309b	0.1281151
178	0x3e248923	0.16067939
179	0x3da24beb	0.079246365
180	0x3d651c69	0.055935297
181	0xbe2ec7c2	-0.17068389
182	0x3aecb889	0.0018060367
183	0xbe1e4eb0	-0.15459704
184	0xbe0bc768	-0.13650286
185	0xbd35e42e	-0.044407062
186	0xbe29d120	-0.16583681
187	0xbe6935e3	-0.22774462
188	0x3e27d09e	0.16388175
189	0xbe031fdd	-0.12805124
190	0xbd9978f5	-0.07493774
191	0xbd1547c9	-0.036445413
192	0x3d442c4c	0.047893807
193	0x3dd424d5	0.10358588
194	0xbd700926	-0.058602475
195	0xbe007ef9	-0.12548436
196	0xbe105612	-0.14095333
197	0xbdd2f10f	-0.102998845
198	0xbce4430b	-0.027864
199	0x3caa8a15	0.020817796
200	0xbc3211ba	-0.010868484
201	0x3daa91eb	0.08328613
202	0xbe50a1c5	-0.2037421
203	0xbd6f8a1e	-0.05848133
204	0xbd61b247	-0.05510166
205	0xbe0279ee	-0.12741825
206	0xbe63d735	-0.22250064
207	0x3d731909	0.059350047
208	0xbceb8613	-0.028750455
209	0x3ddc10cc	0.10745391
210	0xbe0afe94	-0.13573676
211	0xbde0600d	-0.1095582
212	0xbd5b192b	-0.0534908
213	0xbbbfa0bc	-0.0058480185
214	0x3d24eea7	0.04026666
215	0xbe3d9efc	-0.18517679
216	0xbdebbbd1	-0.115104325
217	0xbe163fb0	-0.14672732
218	0x3e14d585	0.14534576
219	0xbdb1b9ba	-0.08678003
220	0xbe209e83	-0.15685467
221	0xbd3f956b	-0.046773355
222	0xbe175945	-0.14780147
223	0x3d9f1cd7	0.07769173
224	0x3dda6145	0.10663084
225	0xbe8f5d88	-0.28001046
226	0xbe2ed044	-0.17071635
227	0xbdde0256	-0.10840289
228	0xbd9eadff	-0.07748031
229	0x3d9e59cf	0.077319734
230	0x3e26be97	0.16283642
231	0xbd8adbdf	-0.06780218
232	0xbd6a8dac	-0.057264015
233	0x3e0091ae	0.12555572
234	0xbe646311	-0.22303416
235	0x3d9ef1d3	0.07760968
236	0x3e0524f3	0.13002376
237	0x3e07cef8	0.13262546
238	0xbd5bb689	-0.053640876
239	0xbdba9c60	-0.091118574
240	0xbe1aec64	-0.15129238
241	0x3e01af70	0.1266458
242	0x3dc3cd93	0.095606945
243	0x3dfa10f6	0.12210266
244	0x3df856e9	0.12125952
245	0xbd283abd	-0.041071642
246	0xbd87e582	-0.06635572
247	0x3dab909d	0.08377192
248	0xbde267c4	-0.11054948
249	0xbd206bae	-0.03916519
250	0xbe07c67a	-0.13259307
251	0xbddff560	-0.109354734
252	0x3e075198	0.1321472
253	0x3e237d8a	0.15965858
254	0x3dcc7d04	0.09984782
255	0xbdb9738b	-0.09055241

critic.4.weight f4 [1, 290]
0	0xbf8839fa	-1.0642693
1	0xbf932ae0	-1.149746
2	0xbf9ee8aa	-1.2414753
3	0x3fd32a67	1.6497315
4	0xbf97f241	-1.1870805
5	0x3fe35010	1.7758808
6	0x3f80a0ef	1.0049113
7	0x3f88c481	1.0684968
8	0xbfd89450	-1.6920261
9	0x3f94cdc6	1.1625297
10	0x3fef0f84	1.867661
11	0xbfbd6d63	-1.4799007
12	0x3fec9bdd	1.8485066
13	0x3f992c84	1.196671
14	0x3f9afe8f	1.2108935
15	0xbf94dac2	-1.162926
16	0xbfd32c8b	-1.6497968
17	0xbfa07ecb	-1.2538694
18	0x3f97b854	1.1853127
19	0x3fea409f	1.8300971
20	0xbf871a25	-1.0554854
21	0xbfa1ac9c	-1.2630801
22	0xbfe5cc9f	-1.795307
23	0xbfcf6a86	-1.6204383
24	0xbf8a09bf	-1.0784224
25	0xbf9fcbb8	-1.2484045
26	0x3fe2c262	1.7715571
27	0x3fdc520f	1.7212542
28	0xbf84ea21	-1.038395
29	0x3f92f5d2	1.1481268
30	0x3fe484da	1.7853043
31	0xbf8de4eb	-1.1085485
32	0x3f84eb9b	1.0384401
33	0xbfd550f7	-1.6665334
34	0xbf8ffda4	-1.124928
35	0xbf8eea15	-1.1165186
36	0x3fc8d294	1.5689263
37	0xbff5b979	-1.9197227
38	0x3fe10362	1.7579157
39	0x3f9233a7	1.1422013
40	0x3fe27f30	1.7695065
41	0xbf978746	-1.1838157
42	0x3f94bc77	1.1620015
43	0x400c2d54	2.1902666
44	0x3fd3733d	1.6519543
45	0xc007fd13	-2.1248214
46	0x3fe251f3	1.7681259
47	0xbfd6449b	-1.6739687
48	0x3fe5e305	1.7959906
49	0xbf9f338a	-1.2437603
50	0xbf8792a8	-1.0591631
51	0xbfb07725	-1.378636
52	0xbf857507	-1.0426339
53	0x3f8f178f	1.1179065
54	0xc03d579a	-2.9584718
55	0x3fe35d7b	1.7762903
56	0xbfd0628b	-1.6280073
57	0xbf854e00	-1.0414429
58	0xbff0f10b	-1.882356
59	0x3feb5ffb	1.8388666
60	0xbfde36b9	-1.736045
61	0x3fccd999	1.6003906
62	0x3f8c0530	1.0939083
63	0x3f8f1cd1	1.1180669
64	0x3fcef070	1.6167126
65	0xbf986b28	-1.1907701
66	0xbfdad696	-1.7096736
67	0x3fd5062d	1.664251
68	0x3fefa24a	1.8721402
69	0xbfaee8e7	-1.3664826
70	0x3fd75833	1.6823791
71	0xbfa3e6b7	-1.2804784
72	0x3fec1b28	1.8445787
73	0x3fd06679	1.6281272
74	0xbf852873	-1.0402969
75	0x3fd27c1f	1.6444129
76	0x3fa02235	1.2510439
77	0xbf88f6cd	-1.0700318
78	0xbfc0d597	-1.5065182
79	0xbfaa72e4	-1.3316312
80	0xbfd45244	-1.6587605
81	0xbf9d7d44	-1.2303853
82	0x3f9146e2	1.1349757
83	0xbf9d689a	-1.2297547
84	0x3fe49024	1.7856488
85	0xbfe1246e	-1.7589242
86	0xbfe1e434	-1.7647767
87	0x3f8f3b11	1.1189901
88	0xbf90bbae	-1.1307275
89	0x3f839d0f	1.0282305
90	0x3fd8dd6c	1.6942573
91	0x3f9105fb	1.132995
92	0x3f94a643	1.1613239
93	0x3f82ecdb	1.0228533
94	0x3fd2911a	1.6450531
95	0x3f931b91	1.1492788
96	0x3f939d4e	1.153238
97	0xbfeacedd	-1.834438
98	0x3fe338a9	1.7751666
99	0xbfde2c16	-1.7357204
100	0xbf98b212	-1.1929343
101	0xbf9a573e	-1.2057874
102	0x3fe0c944	1.7561421
103	0x3f8438bb	1.0329813
104	0xbf9c0562	-1.2189143
105	0xc00c639d	-2.19358
106	0x3fe6aa56	1.8020732
107	0x3f91b3a9	1.1382953
108	0x3f8c1fb1	1.0947171
109	0x3f9aa6b6	1.2082126
110	0xc0065fdd	-2.099601
111	0xbf92ceb6	-1.1469333
112	0xbfca57aa	-1.5808003
113	0xc00a960c	-2.1654081
114	0xbfded9a3	-1.7410167
115	0x3fe0b7d3	1.7556099
116	0x3fda65e1	1.7062341
117	0xbfd60f24	-1.672337
118	0x3fdf2968	1.7434511
119	0xc012c437	-2.293226
120	0xbf8f5fc9	-1.1201106
121	0xbfc2725c	-1.519115
122	0xbff9ad56	-1.9506023
123	0xbfe0b9ba	-1.7556679
124	0xbfe0f893	-1.7575859
125	0xbfd0e53f	-1.631996
126	0xbf8ce04c	-1.100595
127	0xbfcfaaae	-1.6223962
128	0xbf93345b	-1.1500353
129	0x3fa1aea1	1.2631418
130	0x3fdc38f4	1.7204881
131	0x3fdc0d3c	1.7191539
132	0x3fd54fb1	1.6664945
133	0x3fdc1203	1.7192997
134	0xbf93fdab	-1.1561788
135	0xbf9158fa	-1.1355278
136	0x3fd7348c	1.6812911
137	0xbfd9f88e	-1.7028978
138	0xbf99966d	-1.1999031
139	0x3fec595f	1.8464774
140	0xbfdf1c0c	-1.7430434
141	0x3fccf878	1.6013327
142	0x3fc6ff64	1.5546689
143	0x3fdf1df0	1.7431011
144	0x3f9ad9e4	1.2097745
145	0xbf942846	-1.157479
146	0x3f9ab890	1.2087574
147	0xbfd276c3	-1.6442493
148	0xbf9e8f48	-1.2387476
149	0xbf89ab48	-1.0755396
150	0xbf895e48	-1.0731897
151	0xbf90343a	-1.1265938
152	0xbf9d853e	-1.2306287
153	0x3f9b7c9d	1.2147404
154	0x3fde7c06	1.7381599
155	0xbf9bb2a9	-1.2163898
156	0xbf9fbfb6	-1.248038
157	0x3f871ff6	1.0556629
158	0x3fce77a0	1.6130257
159	0xbfe7a882	-1.80983
160	0xbf88f552	-1.0699866
161	0x4004b3bf	2.0734708
162	0x3f993173	1.1968216
163	0xc01e2361	-2.4709094
164	0x3f93fe47	1.1561974
165	0x3faf0dd4	1.3676095
166	0x3fcdd897	1.6081723
167	0x3f9238c6	1.1423576
168	0xbfe3e04a	-1.7802823
169	0xbf9d9be2	-1.2313197
170	0xbf892a81	-1.0716096
171	0x3fe55a48	1.7918177
172	0x3fd8ff55	1.6952921
173	0x3f88d910	1.0691242
174	0x40278a21	2.6178057
175	0xbfe47d11	-1.7850667
176	0x3f8dafc4	1.1069264
177	0x3f8ed7fb	1.1159662
178	0x3f8baf5c	1.091289
179	0x3fc51dd7	1.5399731
180	0x3f928a70	1.1448498
181	0xbfded478	-1.740859
182	0xc00b0c91	-2.172642
183	0xbf897d44	-1.0741353
184	0xbf83bf2b	-1.0292715
185	0x3fcde006	1.6083992
186	0xbf921108	-1.1411448
187	0xbfeb0a34	-1.8362489
188	0x3fe28dc5	1.7699515
189	0xbf94e764	-1.1633115
190	0xbfe6c63e	-1.8029249
191	0xbf968e2e	-1.176214
192	0xbfabbac0	-1.3416367
193	0x3ff35557	1.9010419
194	0x4013ba27	2.3082368
195	0xbfec73b8	-1.8472815
196	0xbf89374b	-1.0719999
197	0xc00287b0	-2.0395317
198	0x40172607	2.361696
199	0x3f905e39	1.1278754
200	0xbfb88412	-1.4415305
201	0x3fd90e76	1.6957538
202	0xbfded1cf	-1.7407779
203	0x3fceecf7	1.6166066
204	0xbfa652a3	-1.2993969
205	0xbfd87447	-1.6910485
206	0xbfd7c6c1	-1.685753
207	0x3fef2acb	1.8684934
208	0x3fe66ee5	1.8002592
209	0x3f87c5f6	1.0607288
210	0xbf897706	-1.0739448
211	0xbfe3cb8f	-1.7796496
212	0xbfe0d8f7	-1.7566212
213	0x3f958c31	1.1683408
214	0x3f90d991	1.1316396
215	0xbfd71256	-1.6802471
216	0xbf972b7d	-1.1810147
217	0xbfe3a368	-1.7784243
218	0x3f8f9e70	1.1220226
219	0xbf8d319d	-1.1030766
220	0xbf91b1ff	-1.1382445
221	0xbf8a40b5	-1.0800997
222	0xbfe1727e	-1.7613065
223	0xbfdf0db8	-1.7426062
224	0x3f89286e	1.0715463
225	0xbfe1a732	-1.7629149
226	0xbfd749c1	-1.6819383
227	0xbfddc245	-1.7324911
228	0xbf92a3c8	-1.1456232
229	0x3f9a6824	1.2063031
230	0x3f8b268a	1.0871136
231	0xbf842e4f	-1.0326632
232	0x3fc364e7	1.5265168
233	0x3f8885ff	1.0665892
234	0xbfcdf0c9	-1.6089107
235	0x3fe3867e	1.7775419
236	0x3fe4ba5b	1.7869371
237	0x3f91370d	1.1344925
238	0xc00a6530	-2.162426
239	0x3fdf00c9	1.7422115
240	0xbf8ffe1c	-1.1249423
241	0x3f84256b	1.0323919
242	0x3fe427b7	1.782462
243	0x3fdb4b47	1.7132348
244	0x3f893711	1.071993
245	0xbf8b407f	-1.0879058
246	0xbfc708ee	-1.55496
247	0x3f92db78	1.1473227
248	0xbfbd7b74	-1.48033
249	0xbf95cbb8	-1.1702795
250	0xbfdeb1db	-1.7398027
251	0x4009a9af	2.1509817
252	0x3f8e7734	1.1130128
253	0x3f954f7d	1.1664883
254	0x3f85a282	1.0440218
255	0xbfa55109	-1.2915355

actor_mean.0.weight f4 [145, 17]
0	0x3ef13f0c	0.47118413
1	0xbea4f8fa	-0.32221204
2	0x3eb6c709	0.35698727
3	0xbc164ed3	-0.009174067
4	0x3ea96ae8	0.33089375
5	0xbe2722b9	-0.1632184
6	0x3e1d14b2	0.15339926
7	0xbd9cc9d6	-0.07655685
8	0x3d5b46fd	0.053534497
9	0x3df08319	0.11743755
10	0xbea6b167	-0.32557222
11	0xbd63771a	-0.055533506
12	0x3ca4ba45	0.020108351
13	0x3df63a4f	0.1202284
14	0xbd0a11bf	-0.03370833
15	0x3e4dae34	0.20085984
16	0x3d3b2beb	0.04569618
17	0xbec00b54	-0.37508643
18	0x3f735fdb	0.9506814
19	0x3b8536e1	0.00406538
20	0xbc13233f	-0.008980571
21	0xbe04f7c4	-0.1298514
22	0x3dc7a3e9	0.0974806
23	0x3e12f666	0.14351806
24	0xbf1c01a9	-0.60940033
25	0x3d43d49c	0.047810182
26	0x3e8da4ff	0.27664945
27	0x3d9f4c66	0.07778244
28	0xbd6c7765	-0.05773105
29	0x3c5bf8ed	0.013426048
30	0xbc892b44	-0.016744263
31	0x3cc69713	0.02424196
32	0xbc932bbf	-0.017965196
33	0xbd487ea0	-0.048948884
34	0xbcab5edd	-0.020919258
35	0xbe800313	-0.25002345
36	0xbde0215a	-0.10943861
37	0xbda988de	-0.082780585
38	0xbe0a5883	-0.13510327
39	0xbd65031b	-0.055911165
40	0x3e7b4c46	0.24540815
41	0xbe3bb5b8	-0.18331039
42	0x3dc634e3	0.09678056
43	0xbdd47275	-0.103733934
44	0xbd919ad2	-0.07109608
45	0x3e47f421	0.19526722
46	0xbe124191	-0.14282824
47	0x3e4a0f03	0.19732289
48	0x3dc4e930	0.096147895
49	0x3e8e695e	0.27814764
50	0x3de619b2	0.1123537
51	0xbee51815	-0.44744936
52	0x3f884d3d	1.0648571
53	0x3cdb0108	0.02673389
54	0xba155e94	-0.0005697992
55	0xbec91510	-0.39273882
56	0xbeb16cb7	-0.34653255
57	0xbf3e7417	-0.7439589
58	0xbf6266b1	-0.88437945
59	0x3e9b24af	0.30301425
60	0xbed8cb44	-0.4234258
61	0x3d66bbb9	0.05633137
62	0xbcd5e265	-0.02610893
63	0xbd328149	-0.043580327
64	0xbbe38c30	-0.006944202
65	0xbd2334ae	-0.03984516
66	0xbb788b8e	-0.0037924978
67	0x3d19bb8b	0.03753237
68	0x3e879398	0.26479793
69	0x3de02305	0.109441794
70	0x3df7880c	0.12086496
71	0x3dedf2fc	0.11618611
72	0x3ef712f3	0.48256645
73	0xbdee5e38	-0.116390646
74	0x3e53cda8	0.2068392
75	0x3f725b9b	0.9467103
76	0x3e221e23	0.15831809
77	0x3eabef33	0.33580932
78	0x3df5a91a	0.11995144
79	0x3cdd1ea2	0.026992146
80	0x3d3feb11	0.046855036
81	0x3c356704	0.011071924
82	0xbe1f31f9	-0.15546407
83	0xbdeae874	-0.11470118
84	0xbd7721f4	-0.060335115
85	0x3e94069f	0.28911301
86	0xbddeae8b	-0.10873135
87	0x3c82fab6	0.015988689
88	0xbd293d44	-0.041318193
89	0xbe4bff48	-0.19921601
90	0xbd4a2a86	-0.04935696
91	0x3a93b3ca	0.0011268791
92	0xbde2dda0	-0.11077428
93	0x3ed9f1e9	0.42567375
94	0xbe77d20b	-0.24201219
95	0x3d2b5354	0.041827515
96	0xbe92f8a1	-0.28705314
97	0x3d612a43	0.054971945
98	0xbc839494	-0.016062059
99	0x3d989a40	0.07451296
100	0x3b3e29b0	0.0029016547
101	0xbe77ca98	-0.24198377
102	0xbe15639b	-0.14588778
103	0x3ea053b6	0.31313866
104	0x3d21b529	0.03947941
105	0x3e21811a	0.15771905
106	0x3d9f9307	0.07791715
107	0x3df46a0a	0.11934288
108	0x3d1643f2	0.03668589
109	0xbd23d77e	-0.04000043
110	0xbe86980c	-0.26287878
111	0x3e10308b	0.14081018
112	0x3da50e1a	0.0805933
113	0x3d1ff488	0.039051563
114	0x3e1080bb	0.14111607
115	0x3cdc8af4	0.026921727
116	0xbdbd6588	-0.09247881
117	0xbda01fbf	-0.07818555
118	0xbebe944a	-0.3722251
119	0x3e812875	0.2522618
120	0xbd779ecb	-0.06045417
121	0x3c408e30	0.01175265
122	0xbdbaa692	-0.09113802
123	0xbea14d0c	-0.31504095
124	0x3e92ae74	0.28648722
125	0xbe024bf2	-0.12724283
126	0x3e07627c	0.13221163
127	0x3e586659	0.21132793
128	0x3e14917c	0.14508623
129	0xbe29ee02	-0.16594699
130	0x3d99ece2	0.07515885
131	0xbeb72dc5	-0.35777107
132	0x3de1455c	0.109995574
133	0xbdf14875	-0.11781398
134	0xbd7351a0	-0.059404016
135	0x3dbd7fdf	0.09252905
136	0x3ed01228	0.40638852
137	0xbf1daf10	-0.6159525
138	0x3dc5a753	0.09651055
139	0xbd995465	-0.074868
140	0x3e10a900	0.14126968
141	0x3e06ad6e	0.13152096
142	0x3bc2c2ac	0.005943617
143	0x3ded3e68	0.11584169
144	0xbdb1c601	-0.086803444
145	0x3e6f1ff1	0.23352028
146	0x3e601567	0.21883164
147	0xbe0fe0d0	-0.14050603
148	0x3dcb0073	0.09912195
149	0x3a66236d	0.00087790826
150	0x3ce93949	0.028469699
151	0xbda56289	-0.08075435
152	0x3d88df30	0.06683195
153	0x3d422962	0.047402747
154	0x3e6c3d04	0.2307015
155	0x3ea8ef8d	0.32995263
156	0x3d667226	0.056261204
157	0xbcdb9b7f	-0.026807545
158	0xbdc7d883	-0.09758093
159	0x3e1b48ac	0.15164441
160	0xbd16b020	-0.03678906
161	0x3e122134	0.14270478
162	0x3e452745	0.19253261
163	0x3dd3591a	0.10319729
164	0xbddfbc72	-0.10924615
165	0xbea37e9b	-0.3193253
166	0x3e224646	0.1584712
167	0xbd3e5e6c	-0.046476766
168	0x3e3b1410	0.18269372
169	0x3e1a6db2	0.15080908
170	0xbe888282	-0.2666207
171	0xbebf2169	-0.37330177
172	0xbb3d2630	-0.0028861873
173	0x3cb1b3d8	0.021692201
174	0xbe16fe94	-0.14745551
175	0x3cad575f	0.021159826
176	0xbe4c48c2	-0.1994963
177	0xbda34cff	-0.0797367
178	0xbd829d79	-0.06377692
179	0xbeaf5695	-0.34245744
180	0x3cd45234	0.025918104
181	0x3e3f54f0	0.18684745
182	0xbe700234	-0.2343834
183	0x3d4db35b	0.050219875
184	0xbd801644	-0.06254247
185	0x3e209ba8	0.15684378
186	0xbce5c08f	-0.02804592
187	0x3e804984	0.25056088
188	0xbe76fe0b	-0.24120347
189	0xb98a48d8	-0.00026375684
190	0xbd1adbc5	-0.037807245
191	0x3e927b84	0.2860986
192	0xbcef319e	-0.029198464
193	0x3d215dad	0.039395977
194	0x3d281d78	0.04104373
195	0x3dffe691	0.12495149
196	0xbde87b13	-0.113515995
197	0x3d56634c	0.05234079
198	0xbdae0f8f	-0.08499061
199	0xbd705949	-0.0586789
200	0xbe16d4d5	-0.14729626
201	0xbe0153a4	-0.12629563
202	0x3dd9cb43	0.10634472
203	0x3dbf32ed	0.09335885
204	0xbe8d7165	-0.27625576
205	0x3f1d8ff1	0.6154776
206	0xbca44af2	-0.020055268
207	0xbdea4900	-0.11439705
208	0xbd077bea	-0.033077158
209	0xbe2e2db7	-0.17009626
210	0xbdbe42f0	-0.09290111
211	0xbe989e90	-0.29808474
212	0xbd88ebfb	-0.06685635
213	0xbe9f0b82	-0.31063467
214	0x3e322b72	0.17399386
215	0x3e67091b	0.22562067
216	0xbdf4ce91	-0.11953462
217	0x3dc1aac6	0.094564006
218	0x3e5cb642	0.21553901
219	0xbd5a52d4	-0.053301647
220	0x3c83b2e0	0.016076505
221	0x3f0c9438	0.54913664
222	0xbe9b3464	-0.30313408
223	0x3efae6f7	0.49004337
224	0xbdb4a30b	-0.088201605
225	0x3e1a2d74	0.15056401
226	0x3e529afd	0.20566936
227	0xbd6b2b2d	-0.057414223
228	0x3d78dbbc	0.06075643
229	0x3e163a22	0.14670613
230	0x3e9ff6ce	0.31242985
231	0xbe78a91b	-0.24283259
232	0x3d02e5de	0.0319575
233	0xbd8362fd	-0.06415365
234	0xbcd72c9c	-0.026266389
235	0x3e4c194b	0.19931524
236	0xbc7afa3c	-0.01531845
237	0x3d9b3bc9	0.075797625
238	0xbd0d4236	-0.03448697
239	0xbe93b89c	-0.28851783
240	0x3ee0daa6	0.43916816
241	0xbdad4b71	-0.08461655
242	0xbea31104	-0.3184892
243	0x3d9fbf13	0.078001164
244	0x3dae8aaa	0.08522542
245	0xbdd2e8b6	-0.10298292
246	0xbe4e5d67	-0.20152818
247	0xbe40252f	-0.18764184
248	0x3e3592df	0.17731808
249	0x3dc46224	0.09589031
250	0x3e5eaf5e	0.21746585
251	0x3e5813bc	0.21101278
252	0xbafaa704	-0.0019123261
253	0x3d9a27f2	0.0752715
254	0x3e167185	0.14691742
255	0xbe5b0c23	-0.21391349

actor_mean.0.bias f4 [145]
0	0x3dce3900	0.10069466
1	0xbe074516	-0.13209948
2	0xbd541167	-0.05177441
3	0xbe0e4d88	-0.13896763
4	0x3e43d37d	0.19123645
5	0x3e227b44	0.15867335
6	0xbd92563a	-0.07145353
7	0x3ca99c82	0.020704512
8	0x3ddd2f45	0.108000316
9	0x3ca0c304	0.01962424
10	0xbe0eb20e	-0.1393511
11	0x3db1eb0f	0.08687412
12	0xbda8eabe	-0.082478985
13	0x3e6c0fb5	0.23052867
14	0xbdb73dec	-0.089473575
15	0xbd5cbbcf	-0.053890046
16	0x3de200bd	0.11035297
17	0xbd96bd9a	-0.073603824
18	0x3e8b0ae8	0.27156758
19	0xbd51de7c	-0.05123757
20	0x3bf1df26	0.0073813377
21	0xbe68990a	-0.2271463
22	0x3dbc245b	0.09186622
23	0xbe04fb4d	-0.12986489
24	0x3e5fbf26	0.21850261
25	0x3e08da62	0.13364556
26	0x3db41411	0.0879289
27	0x3d54ea14	0.051981047
28	0xbdf665c7	-0.12031131
29	0xbd7711c7	-0.06031969
30	0xbde35f27	-0.11102133
31	0x3e487f18	0.19579732
32	0xbd99ed02	-0.07515909
33	0x3d91f7b5	0.071273245
34	0xbe403f72	-0.18774202
35	0x3d08c98d	0.03339534
36	0x3e1b8b6d	0.15189905
37	0x3e0b65a0	0.13612986
38	0xbe37ce64	-0.17949826
39	0x3d44832e	0.047976665
40	0x3e04addd	0.12956949
41	0xbde5197a	-0.111865
42	0x3e2243b8	0.15846145
43	0xbcbc3f00	-0.02297926
44	0xbdc7e32c	-0.097601265
45	0x3c0a77cf	0.008451416
46	0x3b0203c9	0.0019838682
47	0x3ea3a079	0.31958368
48	0xbe61749b	-0.22017138
49	0xbe1f9342	-0.15583518
50	0xbbd74255	-0.0065691867
51	0x3e69de9e	0.22838828
52	0x3d9389d6	0.072040245
53	0x3e3a6e15	0.18206055
54	0xbc73e8db	-0.01488706
55	0xbbfd6762	-0.0077332715
56	0x3e44b4ad	0.19209547
57	0xbe44239b	-0.19154207
58	0xbc85d1ac	-0.01633533
59	0xbcb46f4f	-0.022025732
60	0x3a97ca8c	0.0011580749
61	0x3eb088c6	0.3447935
62	0xbdc5a194	-0.09649959
63	0x3d6e7a9a	0.05822239
64	0x3e4de583	0.20107083
65	0x3e12980a	0.14315811
66	0x3df31b77	0.11870473
67	0x3da41467	0.08011704
68	0x3df06de1	0.11739708
69	0x3e1e1e91	0.15441348
70	0xbe22e6fc	-0.15908426
71	0xbe5ca0b5	-0.2154568
72	0x3d816f2a	0.06320031
73	0xbd2828d1	-0.04105455
74	0x3dce9daf	0.100886695
75	0x3d9bbb05	0.076040305
76	0x3d192c74	0.03739591
77	0xbcba29a1	-0.022724928
78	0x3db6db50	0.08928549
79	0x3e102f2b	0.14080493
80	0x3cf92845	0.03041471
81	0x3e849af3	0.25899467
82	0x3e3bf4d5	0.18355115
83	0xbd110dae	-0.035413437
84	0xbd799256	-0.060930572
85	0xbdf88499	-0.12134666
86	0x3d38a83f	0.045082327
87	0xbda08a1a	-0.07838841
88	0xbea621e8	-0.32447743
89	0xbc8ebf43	-0.017425185
90	0xbd8462df	-0.06464171
91	0xbde1cd04	-0.11025432
92	0x3dee232b	0.116278015
93	0x3d26bd15	0.040707666
94	0xbdca69dc	-0.09883472
95	0xbd2d6a23	-0.042337548
96	0xbe1aa20c	-0.15100878
97	0xbe95a906	-0.29230517
98	0xbd98a52e	-0.074533805
99	0xbd932bcc	-0.07186088
100	0x3d788c5b	0.06068073
101	0x3e0434d5	0.12910779
102	0xbc2aa703	-0.010415795
103	0x3cbf6c77	0.02336715
104	0x3da466af	0.08027398
105	0xbde101ff	-0.10986709
106	0x3d952cfe	0.07283972
107	0xbd98be8f	-0.07458221
108	0xbe01fec9	-0.12694849
109	0xbb9049d1	-0.004403331
110	0x3e5aa1bc	0.2135076
111	0xbdcff309	-0.10153777
112	0x3d8a40fa	0.067506745
113	0x3e839a8a	0.2570384
114	0x3d0c7007	0.034286525
115	0x3dea6b54	0.114462525
116	0xbca24011	-0.01980594
117	0xbccd6c72	-0.025076125
118	0xbdfd5c7b	-0.12371155
119	0xbe44b41e	-0.19209334
120	0xbca59d3e	-0.02021658
121	0xbe2d2745	-0.16909511
122	0x3e33640f	0.17518638
123	0xbdc9dda6	-0.09856729
124	0x3d9bc340	0.076056
125	0xbd1dc994	-0.038522318
126	0xbdbed92a	-0.093187645
127	0x3d0c53e9	0.03425971
128	0xbeae1df9	-0.34007242
129	0x3d414245	0.04718234
130	0x3b07a3fb	0.0020697105
131	0x3e426f34	0.18987733
132	0x3d830820	0.06398034
133	0xbe6f54ec	-0.23372239
134	0x3da72d9e	0.08162998
135	0xbe187cc7	-0.14891349
136	0x3ea3d37e	0.31997293
137	0x3d13c2f8	0.03607461
138	0x3e10e62f	0.14150308
139	0xbe17e2d1	-0.14832617
140	0xbd0d4f21	-0.03449929
141	0x3dca7ec0	0.09887457
142	0x3da36ca3	0.07979705
143	0xbd369b7c	-0.044581875
144	0xbde48f41	-0.11160136

actor_mean.2.weight f4 [290, 145]
0	0x3cded965	0.027203271
1	0xbd43969f	-0.047751065
2	0xbcb065d7	-0.021532936
3	0x3de495bc	0.11161372
4	0x3c668759	0.014070355
5	0xbc35c729	-0.011094847
6	0x3c4737dc	0.012159314
7	0xbdcfae97	-0.10140722
8	0x3e142339	0.14466561
9	0x3c7004c8	0.014649577
10	0xbd7ab886	-0.06121113
11	0x3d9d0e14	0.07668701
12	0x3d929cce	0.07158814
13	0xbdd8256b	-0.10554012
14	0xbdbd2ed4	-0.092374474
15	0xbe579f9f	-0.21056984
16	0xb9d72974	-0.0004103888
17	0xbced2e21	-0.02895266
18	0x3d6034c2	0.054737814
19	0xbc19bb9b	-0.009383108
20	0xbc28f511	-0.010312335
21	0xbe0aca50	-0.13553739
22	0xbd93d65b	-0.072186194
23	0x3e6bbd8b	0.23021524
24	0x3c460287	0.0120855635
25	0x3e09e8fc	0.13467783
26	0x3c66a1d2	0.014076667
27	0xbe273758	-0.16329706
28	0xbe6b7f7c	-0.2299785
29	0x3d289aa1	0.04116309
30	0x3c40fe94	0.011779446
31	0xbc1cd026	-0.009571111
32	0xbdba7625	-0.091045655
33	0x3e584d50	0.21123242
34	0xbd1a2658	-0.037634224
35	0x3d89595e	0.067064986
36	0xbd409b79	-0.04702327
37	0xbdb915f4	-0.0903739
38	0xbe03b38e	-0.12861463
39	0x3d59c87a	0.053169705
40	0x3d1ba6f4	0.038001016
41	0x3c97032f	0.018434135
42	0xbe0c7884	-0.13717848
43	0x3d1976ae	0.037466697
44	0xbdc43f70	-0.09582412
45	0xbdc88060	-0.097901106
46	0xbced6dc7	-0.02898301
47	0x3e327168	0.17426074
48	0x3da30cc9	0.07961423
49	0x3e1907a2	0.14944318
50	0xbdd1f480	-0.10251713
51	0xbd275817	-0.040855493
52	0x3d608d41	0.05482221
53	0xbe84e849	-0.2595847
54	0x3d238a9b	0.039927106
55	0xbde97197	-0.11398619
56	0x3dc5c0ee	0.09655939
57	0xbd3af4d5	-0.045643646
58	0x3d584af7	0.052805867
59	0x3b22a96f	0.0024820229
60	0xbdfa51c7	-0.12222629
61	0x3d8bc02a	0.06823762
62	0x3dbcb3b0	0.0921396
63	0x3e122c80	0.14274788
64	0xbd1ef26e	-0.038805418
65	0xbd044f81	-0.032302383
66	0xbcb6a60d	-0.022295976
67	0xbd468ad8	-0.048472255
68	0x3e6a74f9	0.22896184
69	0xbd1f8e61	-0.038954142
70	0x3b9969d0	0.0046818033
71	0x3e536786	0.2064496
72	0x3d9e06c1	0.07716132
73	0x3d25e88c	0.040504977
74	0x3d7bf55f	0.0615133
75	0x3d461ec0	0.04836917
76	0xbdd40291	-0.10352052
77	0xbd85d49e	-0.06534694
78	0x3c9cca3f	0.019139407
79	0x3dd72dc8	0.10506779
80	0xbc8c5c31	-0.017133804
81	0xbd9502a8	-0.07275897
82	0xbd99d98c	-0.07512197
83	0x3d2328a6	0.039833687
84	0xbd0fac42	-0.035076387
85	0xbd1785ce	-0.03699284
86	0xbdf002b8	-0.117192686
87	0x3d1aa0ee	0.03775113
88	0x3e03176e	0.12801906
89	0xbd16130c	-0.03663926
90	0xbd847ef4	-0.06469527
91	0xbe416d7a	-0.18889418
92	0xbd3bc6f8	-0.04584405
93	0xbd3e5c6e	-0.046474867
94	0x3de4dc92	0.11174883
95	0xbdf2aedb	-0.11849757
96	0xbb04934f	-0.0020229404
97	0xbc04d014	-0.00810625
98	0x3da474cf	0.08030092
99	0x3d7ceb07	0.061747577
100	0x390b009e	0.00013256303
101	0x3d82149e	0.06351589
102	0x3d83576a	0.06413157
103	0xbc323274	-0.010876287
104	0x3d819934	0.06328049
105	0xbccfd2c2	-0.025369052
106	0xbde58d64	-0.11208609
107	0xbc037b28	-0.008024968
108	0x3e9ad08b	0.3023723
109	0x3e8100ec	0.25196016
110	0x3d3f4a71	0.046701852
111	0x3d1ed6d0	0.03877908
112	0x3e184b4c	0.14872473
113	0xbe8a8182	-0.27051932
114	0x3e2634ed	0.16231127
115	0xbcbf161d	-0.023325974
116	0x3bae0479	0.005310592
117	0x3e3dba3f	0.18528078
118	0xbd3bd111	-0.045853678
119	0x3bfe026d	0.007751754
120	0xbe235bbe	-0.15952966
121	0xbdbc22d6	-0.09186332
122	0x3def74bb	0.116921864
123	0xbd50e432	-0.050998874
124	0xbdfdd5d5	-0.12394301
125	0x3dd2f8ac	0.10301337
126	0xbdbbe2b3	-0.09174099
127	0x3df3f91a	0.11912747
128	0x3d861aa9	0.06548054
129	0xbc29990e	-0.0103514325
130	0x3e196289	0.14978994
131	0xbd955ece	-0.07293473
132	0x3d5af8e2	0.05346001
133	0x3e5c8fe5	0.21539266
134	0xbd312703	-0.043250095
135	0x3d261678	0.04054877
136	0xbd558d94	-0.052136973
137	0x3d2342ae	0.039858513
138	0xbe56deb1	-0.20983388
139	0xbdb883b2	-0.09009494
140	0xbdd8ea8c	-0.10591611
141	0x389a5f89	7.361087e-05
142	0xbe301abd	-0.171977
143	0x3dfc74a4	0.12326935
144	0xbb709529	-0.003671
145	0xbd493fa0	-0.049132943
146	0x3ce4dcfd	0.027937407
147	0xbe44f9a7	-0.1923586
148	0x3b338582	0.002739281
149	0x3c52d986	0.012869244
150	0xbce82db4	-0.028342105
151	0xbe1498e1	-0.14511444
152	0xbd46a4a2	-0.04849685
153	0xbd5fa1bc	-0.0545976
154	0x3da7872f	0.08180081
155	0x3d17202a	0.03689591
156	0xbd958c7f	-0.07302188
157	0x3cc7da96	0.024396222
158	0x3d870bf9	0.065940805
159	0xbde1e014	-0.11029068
160	0xbca95aa0	-0.020673096
161	0xbd1cd2b1	-0.03828687
162	0xbc61d89a	-0.013784552
163	0x3c24e16b	0.010063509
164	0x3db0d807	0.08634954
165	0x3b53f9c6	0.0032344921
166	0x3bd436a1	0.006476239
167	0xbde08282	-0.109623924
168	0xbd96ed37	-0.07369464
169	0xbcf35530	-0.029703707
170	0xbce6b879	-0.028164135
171	0xbbe7727d	-0.0070632086
172	0x3d73b142	0.059495218
173	0xbd822cc4	-0.063561946
174	0x3d9202b0	0.07129419
175	0x3dd09f55	0.1018664
176	0x3e89f221	0.26942542
177	0xbc9f0aaf	-0.019414274
178	0x3cd5ffca	0.026122946
179	0xbdfdeed3	-0.12399068
180	0xbe1cb087	-0.15301715
181	0x3d89e196	0.0673248
182	0x3da0aa97	0.078450374
183	0xbcb4d0a4	-0.022072144
184	0x3d82fb58	0.06395596
185	0x3dc5e186	0.09662156
186	0x3de3b4ee	0.11118494
187	0x3c1a7652	0.009427624
188	0xbde82f76	-0.113371775
189	0x3c12df86	0.008964425
190	0xbd3b1189	-0.04567102
191	0xbe6f7500	-0.23384476
192	0x3d944749	0.07240159
193	0xbd3d275e	-0.04618012
194	0x3deef192	0.1166717
195	0xbbe6109e	-0.007021024
196	0x3e385094	0.17999488
197	0xbd82ad66	-0.063807294
198	0xbd289fb6	-0.041167937
199	0xbe2b591a	-0.16733208
200	0x3d333e9c	0.04376088
201	0x3dc38c12	0.09548201
202	0x3d87b2bb	0.06625887
203	0x3c7dddc2	0.015494766
204	0xbc588ef2	-0.013217675
205	0x3c108637	0.008821062
206	0xbd8ef0de	-0.069795355
207	0x3d0ab245	0.033861417
208	0x3ccb0c83	0.02478624
209	0xbe15637e	-0.14588735
210	0xbd2c1d22	-0.04201997
211	0x3d0a054a	0.03369645
212	0xbd86904b	-0.065704904
213	0x3dac5c7b	0.08416077
214	0x3d9fbb27	0.07799368
215	0xbdd11d24	-0.10210636
216	0xbd4d2e61	-0.05009306
217	0xbc1b7fb2	-0.009490894
218	0xbd80b953	-0.06285348
219	0xbcaf8ad6	-0.021428507
220	0xbdaebc7f	-0.085320465
221	0xbd72b9ba	-0.059259154
222	0x3d9683b8	0.07349342
223	0xbe10b65e	-0.14132068
224	0x3d8197bc	0.06327769
225	0x3d15ab78	0.03654048
226	0xbc1e5076	-0.009662738
227	0xbd316950	-0.043313324
228	0x3d20d5a6	0.03926625
229	0xbce0620f	-0.027390508
230	0xbe339553	-0.17537431
231	0xbdaaf741	-0.08347941
232	0x3d8d84ad	0.069100715
233	0xbd36501e	-0.04451
234	0xbdc15c9f	-0.09441494
235	0x3e50db4d	0.20396157
236	0x3d8d451d	0.06897948
237	0xbd214459	-0.039371822
238	0x3dcbbbec	0.09947953
239	0xbdeadb21	-0.11467577
240	0x3d354933	0.04425926
241	0x3c0eb65e	0.008710472
242	0x3e2d5105	0.16925438
243	0xbe17e9f8	-0.14835346
244	0xbd0a9a46	-0.033838533
245	0xbdac6a2c	-0.08418688
246	0x3dc930ae	0.09823738
247	0xbd26301d	-0.04057323
248	0xbda499e1	-0.080371626
249	0xbc0fec79	-0.008784407
250	0xbe0536a3	-0.13009124
251	0x3d76860b	0.060186427
252	0x3d6a6050	0.057220757
253	0x3c978b2d	0.018498981
254	0x3beb5c88	0.0071826614
255	0xbe05e1c1	-0.130744
