DATA403_final/checkpoints/Walker2d-v4_t/PPO_15625.pt (torch, 372060 bytes, 12 tensors)

actor_logstd f4 [1, 6]
1.8113934 1.7938087 1.7432237 1.6812035 1.6013318 1.3213891
00000000: bddb e73f 869b e53f f421 df3f ad31 d73f
00000010: 71f8 cc3f 4723 a93f

critic.0.weight f4 [145, 17]
-0.044815633 -0.16920164 0.38716188 -0.5199772 0.08820803 0.5154102 0.3110912 -0.12736948
-0.6143058 0.07014 0.06926526 -0.08388911 0.022043575 -0.022388568 -0.029816097 0.049508862
0.043667257 -0.12717663 0.076658994 0.58056426 0.14552735 0.024179941 0.2801096 -1.1532571
-0.056787454 0.43082505 -0.34492737 -0.12950897 0.0046756654 0.010678816 -0.001212715 -0.03371656
0.0104481485 -0.018462257 0.3929867 -0.07769641 -0.26244256 -0.46178672 0.6462999 0.40309995
0.098900124 0.19848152 0.3472593 0.43000153 -0.204083 0.0009519955 0.008206852 -0.0035500978
0.21677794 0.16391642 0.021840926 -0.18626222 -1.3117437 0.4558661 0.1727856 0.0068055023
0.68104744 1.503598 0.2938351 -0.13656887 -0.27999347 0.047662873 0.06162212 0.039752707
0.0002839045 -0.00891364 0.07279037 -0.02537749 -0.13804518 -1.2764776 0.17762034 0.09637812
-0.38069984 0.63816315 0.014808951 0.14427732 -0.05505061 0.035370864 0.20174557 0.07276323
0.07565329 0.03273344 -0.17109796 -0.09291448 0.00945253 0.13333926 1.1652827 0.41509488
0.13150936 -0.030251287 -0.59686595 0.40572965 0.031369135 0.13464169 0.23252769 -0.015278311
0.122165956 0.042322785 0.012325174 -0.06544953 -0.10862644 0.0011689824 -0.3929789 0.124676816
-0.2551072 -0.10985883 0.09972693 0.35103434 0.22002071 -1.0256196 -0.12276322 -0.20868693
0.070001274 0.020888021 -0.015395022 -0.011897626 -0.069821276 0.050923284 -0.034694012 0.0076440363
0.82485324 0.17922527 -0.4738176 -0.04655226 -0.18664739 0.08311988 0.059134826 0.4934411
-0.32259366 0.16162318 -0.35200563 -0.044535622 -0.0039991853 0.11051226 0.03838409 -0.012304789
0.29774094 0.5726943 -0.065387264 0.093124546 -0.058118407 0.11951831 0.1998488 0.07327183
0.702149 -0.0357339 -0.27284694 -0.0030284992 0.08576019 -0.0030270207 -0.10503726 -0.013031399
0.019585103 -0.22439952 0.24390872 -0.67579144 0.28535777 0.15995666 0.2510363 0.30909678
0.031732496 0.19152382 0.13769007 -0.13477206 0.110740334 -0.04832374 -0.0037535555 -0.003141152
-0.009163791 0.0058360514 0.2675892 0.40515637 -0.4857616 -0.44287673 -0.038420536 -0.15616162
-0.0699889 0.02603343 0.9490448 -0.53367174 -0.082501896 0.041588303 0.037117563 0.011279106
-0.036954254 -0.06646101 0.021468984 -0.06847358 -0.1762408 0.3445513 -0.31954604 0.24600692
-1.2298356 -0.46268868 -0.7358468 -0.32263058 -0.50585276 0.24486019 0.074862994 0.03463009
-0.00482704 -0.16214046 -0.012354614 -0.05289152 0.011451953 0.1807436 -0.28967923 -0.17833793
0.27859554 1.5429035 0.78914565 -0.26383355 0.23047753 -0.010058738 0.10726461 0.04604251
-0.006776184 -0.027974816 -0.15473148 -0.11480527 -0.0053459085 0.24507649 -1.005926 0.17133647
0.55569917 0.083301835 -0.6128112 0.06899259 0.08016431 -0.3569325 -0.24602035 -0.14209315
0.0127952965 0.019598845 0.0010278344 -0.0030829774 0.025335068 -0.012350823 -0.11487697 0.58446366
-0.017642308 -0.10211874 0.174559 -0.125285 -0.097808085 0.83087176 0.060430687 -0.030889329
-0.27547222 0.061997242 0.04485524 0.002295496 0.1291046 0.11580773 -0.04697685 0.15278065
00000000: 9990 37bd 3243 2dbe 153a c63e 3a1d 05bf
00000010: 69a6 b43d ecf1 033f 5947 9f3e 256d 02be
00000020: 2543 1dbf 8fa5 8f3d f2da 8d3d 0ece abbd
00000030: ba94 b43c 3b68 b7bc e340 f4bc cec9 4a3d
00000040: 70dc 323d 973a 02be 64ff 9c3d dc9f 143f
00000050: 1f05 153e 0315 c63c 876a 8f3e ee9d 93bf
00000060: f699 68bd 1a95 dc3e 529a b0be 009e 04be
00000070: 5336 993b 33f6 2e3c f7f3 9eba 601a 0abd
00000080: b62e 2b3c 293e 97bc 8e35 c93e 4c1f 9fbd
00000090: df5e 86be 4f6f ecbe e973 253f 1e63 ce3e
000000a0: 268c ca3d bd3e 4b3e f9cb b13e 2929 dc3e
000000b0: 22fb 50be 568f 793a 0876 063c c2a8 68bb
000000c0: 09fb 5d3e b5d9 273e beeb b23c 86bb 3ebe
000000d0: 38e7 a7bf 4867 e93e b5ee 303e b100 df3b
000000e0: 2059 2e3f e675 c03f 8e71 963e b6d8 0bbe
000000f0: 4e5b 8fbe 253a 433d 7a67 7c3d bcd3 223d
00000100: 04d9 9439 840a 12bc 1e13 953d 74e4 cfbc
00000110: b75b 0dbe 9e63 a3bf 1be2 353e e461 c53d
00000120: 17eb c2be a95e 233f 3ea1 723c 6fbd 133e
00000130: c07c 61bd 0ae1 103d 6496 4e3e e304 953d
00000140: 1df0 9a3d 8013 063d 4e34 2fbe f249 bebd
00000150: c9de 1a3c 168a 083e fc27 953f 5187 d43e
00000160: 64aa 063e 8cd1 f7bc 35cc 18bf ccbb cf3e
00000170: ec7c 003d 83df 093e bd1b 6e3e e251 7abc
00000180: 2532 fa3d a85a 2d3d 87ef 493c 670a 86bd
00000190: 8a77 debd 8a38 993a 8834 c9be 8f56 ff3d
000001a0: 699d 82be abfd e0bd a23d cc3d c6ba b33e
000001b0: 1c4d 613e 8147 83bf 486b fbbd 07b2 55be
000001c0: d45c 8f3d 5b1d ab3c 673b 7cbc 43ee 42bc
000001d0: 75fe 8ebd ef94 503d 4f1b 0ebd d37a fa3b
000001e0: 9529 533f d486 373e 3898 f2be 95ad 3ebd
000001f0: 7e20 3fbe c13a aa3d 5c37 723d 50a4 fc3e
00000200: ff2a a5be 8c80 253e 153a b4be fc6a 36bd
00000210: 990b 83bb 4054 e23d a338 1d3d 079a 49bc
00000220: 8071 983e 189c 123f c2e9 85bd 15b8 be3d
00000230: 910d 6ebd 04c6 f43d 2aa5 4c3e 8b0f 963d
00000240: 09c0 333f b65d 12bd 98b2 8bbe c979 46bb
00000250: 0aa3 af3d fb60 46bb c61d d7bd a681 55bc
00000260: f070 a03c fdc8 65be 35c3 793e ab00 2dbf
00000270: 6a1a 923e aecb 233e d487 803e ef41 9e3e
00000280: eff9 013d d21e 443e a0fe 0c3e b001 0abe
00000290: d4cb e23d 1def 45bd 36fe 75bb c9db 4dbb
000002a0: ba23 16bc 593c bf3b 7401 893e a870 cf3e
000002b0: bfb5 f8be bdc0 e2be da5e 1dbd d5e8 1fbe
000002c0: 5756 8fbd 0f44 d53c 9af4 723f b69e 08bf
000002d0: c1f6 a8bd 7f58 2a3d 9608 183d 00cc 383c
000002e0: 585d 17bd b61c 88bd b9df af3c e03b 8cbd
000002f0: 7878 34be 0769 b03e 8a9b a3be 3de9 7b3e
00000300: 416b 9dbf 88e5 ecbe 7560 3cbf d62f a5be
00000310: 917f 01bf a1bc 7a3e c551 993d 48d8 0d3d
00000320: 252c 9ebb 2608 26be 026b 4abc c7a4 58bd
00000330: f9a0 3b3c da14 393e d650 94be 389e 36be
00000340: 13a4 8e3e dd7d c53f 7305 4a3f 3115 87be
00000350: 4d02 6c3e 68cd 24bc 8cad db3d 1297 3c3d
00000360: c00a debb 712b e5bc ee71 1ebe 071f ebbd
00000370: bb2c afbb 55f5 7a3e 2fc2 80bf d472 2f3e
00000380: 4d42 0e3f 279a aa3d 32e1 1cbf fd4b 8d3d
00000390: 302d a43d dbbf b6be c2ec 7bbe de80 11be
000003a0: 5da3 513c c28d a03c 66b8 863a c70b 4abb
000003b0: 7d8b cf3c 1b5b 4abc 9e44 ebbd 699f 153f
000003c0: 9a86 90bc a123 d1bd 98bf 323e b64a 00be
000003d0: 9b4f c8bd 03b4 543f 2b86 773d 9e0b fdbc
000003e0: b20a 8dbe d2f0 7d3d 21ba 373d 0870 163b
000003f0: ff33 043e 9a2c ed3d cc6a 40bd 8872 1c3e

critic.0.bias f4 [145]
-0.08207056 0.016161121 0.22078876 -0.07316871 -0.09222598 -0.11901123 -0.33048484 -0.021267286
0.19369559 -0.04334174 0.22296637 -0.2336016 -0.14043215 0.13336712 -0.3066324 -0.15580535
0.13763425 -0.18571994 -0.022174336 -0.23442283 0.33975965 -0.22561546 -0.10574564 -0.08301283
-0.22551058 0.07838996 -0.430607 0.2990008 -0.16677916 0.023623355 0.06869332 0.42431942
-0.10303455 0.09597245 -0.4031879 -0.1693578 0.09169188 0.024885628 -0.10141409 -0.32335117
0.4150022 0.036390014 0.03236071 -0.077987246 0.21734372 -0.30885985 0.07162165 -0.42514083
-0.100489765 -0.3146959 0.30901533 -0.047585003 -0.035002742 -0.2518849 -0.20609902 -0.37793496
0.103016324 0.10839724 -0.20954193 0.27112722 -0.32146096 -0.22837695 0.42891887 -0.26558462
-0.14955562 0.10647239 -0.30949262 -0.2779039 0.06314652 0.04578057 0.1859915 0.21427831
0.40489012 0.20074888 0.053453393 -0.22425601 -0.5176342 -0.0526969 -0.21131289 -0.49116966
-0.2431116 0.22775702 -0.2677992 0.20252961 -0.25612897 0.2968931 -0.07181617 0.14541706
0.26964715 -0.05766869 0.18775104 0.2955431 0.010485876 0.09934241 0.05717427 0.43883467
0.48114005 -0.173351 -0.43635345 -0.107035615 0.43055496 -0.25046146 -0.037776858 -0.03014819
0.037450448 -0.25960198 0.3364826 0.13469315 0.12719074 -0.38803798 0.27555233 -0.4229237
0.009887073 -0.23424599 -0.03713421 0.31421453 0.25059852 -0.37354878 0.39259654 -0.062943466
0.1458385 0.08937943 -0.052367583 0.11686108 0.11800746 0.28564408 -0.010253615 -0.10049846
-0.23444282 -0.20395374 0.0670774 0.29245973 0.13318369 -0.3883344 0.0913432 0.20728524
0.3621538 -0.049639925 0.4414095 0.3359698 0.08853365 0.21863419 -0.15737273 0.07388952
-0.04431723
00000000: 9c14 a8bd 5464 843c 7316 623e 7ad9 95bd
00000010: f9e0 bcbd 29bc f3bd 4f35 a9be bb38 aebc
00000020: 2358 463e 1c87 31bd 4c51 643e 4235 6fbe
00000030: 72cd 0fbe 6491 083e ecfe 9cbe 708b 1fbe
00000040: feef 0c3e 5e2d 3ebe f4a6 b5bc 8a0c 70be
00000050: faf4 ad3e bd07 67be 2c91 d8bd a102 aabd
00000060: 3fec 66be ea8a a03d 8578 dcbe a216 993e
00000070: 28c8 2abe c485 c13c 15af 8c3d 6540 d93e
00000080: c703 d3bd 348d c43d a56e cebe 226c 2dbe
00000090: f4c8 bb3d f2dc cb3c 31b2 cfbd 498e a5be
000000a0: 2b7b d43e b20d 153d aa8c 043d c7b7 9fbd
000000b0: 5a8f 5e3e e122 9ebe 5fae 923d 0fac d9be
000000c0: 94cd cdbd d21f a1be 4237 9e3e 7ee8 42bd
000000d0: 095f 0fbd 0ff7 80be 9f0b 53be b180 c1be
000000e0: 39fa d23d 5fff dd3d 2992 56be 30d1 8a3e
000000f0: 8896 a4be a6db 69be 419b db3e b5fa 87be
00000100: 1c25 19be 320e da3d d175 9ebe 6c49 8ebe
00000110: f652 813d 6884 3b3d 8e74 3e3e c66b 5b3e
00000120: c24d cf3e 1d91 4d3e f2f1 5a3d 5ea3 65be
00000130: ad83 04bf b4d8 57bd 6862 58be 977a fbbe
00000140: 3ff2 78be 2339 693e fa1c 89be ec63 4f3e
00000150: 5623 83be 5f02 983e 5b14 93bd 36e8 143e
00000160: 310f 8a3e 0136 6cbd cf41 403e 6d51 973e
00000170: f4cc 2b3c 0974 cb3d 912f 6a3d f0ae e03e
00000180: fd57 f63e ed82 31be b869 dfbe 7d35 dbbd
00000190: b371 dc3e 7c3c 80be e8bb 1abd 56f9 f6bc
000001a0: a465 193d 8dea 84be 7347 ac3e 00ed 093e
000001b0: 4a3e 023e eaac c6be 3215 8d3e 7589 d8be
000001c0: 64fd 213c 2ede 6fbe 0b1a 18bd bae0 a03e
000001d0: 734e 803e c941 bfbe 6a02 c93e 81e8 80bd
000001e0: b056 153e 900c b73d 647f 56bd dd54 ef3d
000001f0: e5ad f13d f13f 923e c7fe 27bc 23d2 cdbd
00000200: c711 70be 40d9 50be e05f 893d 48bd 953e
00000210: 4e61 083e c4d3 c6be 2512 bb3d 9542 543e
00000220: 396c b93e 3c53 4bbd 6d00 e23e 3c04 ac3e
00000230: 2151 b53d a4e1 5f3e 5126 21be 6353 973d
00000240: fc85 35bd

critic.2.weight f4 [290, 145]
0.31912404 -0.1759362 -0.24329889 0.17648341 0.17300093 -0.37341458 0.04871185 -0.30862078
-0.20095389 -0.18648319 -0.5516974 0.02225454 -0.15944318 0.03603493 -0.14162157 -0.063881144
-0.26779768 -0.1584527 0.013095782 -0.025427036 0.11404896 -0.30375257 0.3969438 -0.31140342
-0.029536426 0.30501023 -0.14773877 -0.1742886 -0.1832519 -0.16102172 0.26868507 0.079669915
0.24856207 -0.109765574 0.026564898 0.06842719 -0.42905486 -0.30882934 -0.051911406 0.21284477
0.039986227 0.35791743 0.28425857 0.319436 -0.1787034 -0.20337756 -0.28678626 -0.039580777
0.093796045 -0.07967682 -0.19807985 0.07599888 -0.39141893 -0.0681398 0.2748854 0.04106425
0.2838834 0.26359937 -0.058648735 0.2086201 0.17441922 0.054488055 -0.0833682 -0.06871377
0.3168128 0.282306 -0.04408635 0.15462528 -0.118048355 0.29522204 0.03501867 -0.2824502
0.013325542 -0.18737566 -0.293366 -0.10452399 -0.005617312 -0.3146252 -0.24066718 0.050946925
0.14916891 0.034746155 -0.05130178 -0.14216664 0.21438478 -0.1480408 0.05388219 0.037645005
-0.33364034 -0.24110988 -0.37621608 -0.01698383 0.21499048 -0.5416687 0.26389053 0.03783726
0.14471509 0.21127868 0.073921986 -0.19705881 -0.068686426 0.111477606 0.18691781 0.08942006
-0.0058896407 -0.0035657897 -0.016054042 -0.42058483 -0.13635585 0.036193807 0.224344 0.09845264
-0.21316892 -0.17078508 -0.16596992 -0.16713041 -0.18441819 0.053554177 -0.161606 0.42659155
-0.124942705 -0.29879922 0.21289149 0.13670851 -0.16101569 -0.08184373 0.08679142 0.1918871
-0.15652499 0.10535817 0.22230448 -0.10969247 -0.34760362 -0.0116627505 -0.10949578 -0.20318702
0.021473752 -0.26145718 0.093217716 -0.05997439 -0.119807996 0.0868851 0.13010558 0.01438278
0.3203634 0.27044114 -0.50151485 -0.17189476 -0.06055144 -0.11306706 0.10188158 0.11248221
0.004366559 -0.20678136 -0.25889152 -0.2998747 -0.12259308 -0.03934062 -0.18275978 -0.3144143
-0.25850475 -0.18575546 -0.22021876 -0.111155696 -0.05205039 -0.21449731 -0.488917 0.10399551
0.32240653 0.10495873 -0.36547223 -0.038869895 0.0912221 -0.33783355 0.028717604 0.251234
0.032467954 0.008934309 -0.13357586 0.114172734 0.07383822 -0.16988117 -0.13943808 0.79648286
-0.20386004 -0.0797857 0.456552 0.8097736 0.073891655 -0.122597255 -0.14026353 0.1392524
-0.1285568 0.11096062 0.33303216 -0.0013603636 0.1916201 -0.2094633 0.0026290142 0.56254375
-0.078607716 0.43289903 0.058636792 -0.11423854 0.009144147 -0.08405821 -0.37646303 -0.044127326
-0.22560166 0.025677847 0.41561887 -0.10021039 -0.31497288 -0.49973506 0.16660993 -0.23874919
0.010051585 -0.032854076 0.035304792 0.036020365 -0.27389866 -0.16896257 -0.22243853 0.09035828
-0.0438486 0.13873875 0.029766962 0.34544522 -0.036156874 0.019091357 -0.3148477 -0.18426059
0.20873457 -0.05332245 0.563924 -0.10325541 -0.18931285 -0.1830579 -0.1929322 0.08255513
0.3577769 -0.009215338 -0.119145565 -0.019830493 -0.14339428 0.16358718 -0.21765293 0.04216827
-0.05828421 0.5017832 -0.028928533 -0.29684475 0.004175083 -0.42316878 0.054307397 0.1471449
00000000: 3a64 a33e 9f28 34be 5823 79be 11b8 343e
00000010: 2827 313e 3230 bfbe 1486 473d 8b03 9ebe
00000020: dbc6 4dbe 73f5 3ebe 0a3c 0dbf 274f b63c
00000030: 1345 23be 5d99 133d 3f05 11be 1ed4 82bd
00000040: c71c 89be 6d41 22be b18f 563c 5c4c d0bc
00000050: 8092 e93d 7585 9bbe 383c cb3e 4570 9fbe
00000060: 60f6 f1bc 4d2a 9c3e d548 17be b678 32be
00000070: 63a6 3bbe e1e2 24be 1791 893e fb29 a33d
00000080: 0e87 7e3e c6cc e0bd a19e d93c 8e23 8c3d
00000090: 14ad dbbe e11e 9ebe 0ea1 54bd fbf3 593e
000000a0: 99c8 233d f440 b73e 578a 913e 1e8d a33e
000000b0: 06fe 36be 3542 50be a6d5 92be 741f 22bd
000000c0: 2418 c03d 9a2d a3bd 72d5 4abe 4da5 9b3d
000000d0: 1068 c8be e18c 8bbd c7bd 8c3e fd32 283d
000000e0: 2a59 913e 7ff6 863e a839 70bd 82a0 553e
000000f0: f49a 323e de2e 5f3d f2bc aabd ceb9 8cbd
00000100: 4a35 a23e 698a 903e e393 34bd 1756 1e3e
00000110: 56c3 f1bd 5827 973e bd6f 0f3d 509d 90be
00000120: 6053 5a3c 68df 3fbe 1134 96be ac10 d6bd
00000130: 6e11 b8bb 8e16 a1be 7571 76be b9ad 503d
00000140: bcbf 183e fc51 0e3d d121 52bd 2294 11be
00000150: af87 5b3e 0298 17be 92b3 5c3d a631 1a3d
00000160: e8d2 aabe 82e5 76be 659f c0be ac21 8bbc
00000170: 7726 5c3e cdaa 0abf a91c 873e 3efb 1a3d
00000180: 3130 143e 7059 583e 6964 973d c9c9 49be
00000190: 78ab 8cbd 5f4e e43d 6267 3f3e dd21 b73d
000001a0: e3fd c0bb 06b0 69bb c483 83bc e556 d7be
000001b0: dea0 0bbe f53f 143d 6fba 653e 8aa1 c93d
000001c0: f448 5abe 49e2 2ebe 05f4 29be 3c24 2bbe
000001d0: 1fd8 3cbe a05b 5b3d 0b7c 25be 356a da3e
000001e0: f6e1 ffbd 36fc 98be 3a00 5a3e 51fd 0b3e
000001f0: 4ce1 24be af9d a7bd b3bf b13d 0d7e 443e
00000200: 1648 20be 06c6 d73d c9a3 633e 72a6 e0bd
00000210: 1af9 b1be 1f15 3fbc 533f e0bd 4210 50be
00000220: b9e9 af3c b7dd 85be eee8 be3d b5a7 75bd
00000230: e55d f5bd d1f0 b13d 663a 053e c0a5 6b3c
00000240: ac06 a43e 4377 8a3e 4763 00bf 2e05 30be
00000250: c904 78bd b48f e7bd 4aa7 d03d 135d e63d
00000260: 5a15 8f3b 7ebe 53be 6e8d 84be 2d89 99be
00000270: 1512 fbbd a123 21bd 6125 3bbe e9fa a0be
00000280: bc5a 84be ae36 3ebe 0781 61be 99a5 e3bd
00000290: ca32 55bd 2fa5 5bbe 5453 fabe 99fb d43d
000002a0: 7812 a53e 9af4 d63d 2d1f bbbe 0a36 1fbd
000002b0: a7d2 ba3d 85f8 acbe 2e41 eb3c bea1 803e
000002c0: 1efd 043d 3561 123c 1cc8 08be 65d3 e93d
000002d0: 7e38 973d 54f5 2dbe dbc8 0ebe 4de6 4b3f
000002e0: b0c0 50be af66 a3bd 2fc1 e93e 534d 4f3f
000002f0: 8254 973d 4514 fbbd 3ea1 0fbe 2e98 0e3e
00000300: 65a4 03be 523f e33d 3183 aa3e 3a4e b2ba
00000310: 0f38 443e 8c7d 56be 8a4b 2c3b de02 103f
00000320: 15fd a0bd f1a4 dd3e 222d 703d e5f5 e9bd
00000330: 55d1 153c b626 acbd c3bf c0be dbbe 34bd
00000340: 1f04 67be 595a d23c ffcb d43e 1b3b cdbd
00000350: 2044 a1be 46dd ffbe cb9b 2a3e ab7a 74be
00000360: 67af 243c ff91 06bd c29b 103d 178a 133d
00000370: 723c 8cbe 8604 2dbe edc6 63be c30d b93d
00000380: 979a 33bd 8811 0e3e d8d9 f33c 32de b03e
00000390: 3b19 14bd 7a65 9c3c b833 a1be cfae 3cbe
000003a0: 84be 553e a468 5abd 535d 103f 9377 d3bd
000003b0: 3adb 41be 8873 3bbe 0590 45be aa12 a93d
000003c0: 892e b73e eefb 16bc 9702 f4bd 8f73 a2bc
000003d0: f3d5 12be 6683 273e 69e0 5ebe a3b8 2c3d
000003e0: 6cbb 6ebd dd74 003f 88fb ecbc 09fc 97be
000003f0: 22cf 883b 94a9 d8be 6f71 5e3d 27ad 163e

critic.2.bias f4 [290]
-0.122358315 -0.072855726 -0.034803066 0.1774219 -0.1095923 0.15767768 0.1505511 0.13506193
-0.14998363 0.17307612 -0.060123958 -0.055346895 0.17262511 0.12233646 0.094043866 0.02916717
-0.054847382 -0.008447557 0.07098154 0.22901733 -0.15300836 -0.025542477 -0.26947972 0.029054975
-0.15837075 -0.08801971 0.05046092 0.11109892 -0.13765703 0.001527105 0.10862435 -0.042998638
0.08984488 -0.09049509 -0.055758875 -0.195873 0.1754794 -0.17835812 0.08549973 0.10927643
0.25286245 -0.0587543 0.11795027 0.27030197 0.25193617 0.07200981 0.0437156 -0.20760557
-0.10445374 -0.16109206 -0.12790598 0.050056826 -0.052354 0.06490456 0.23811881 0.0799459
0.041145418 -0.1257752 -0.13413337 0.24117258 -0.076710925 -0.012178681 0.1801868 0.028845703
0.04225609 0.006942105 -0.027147751 0.05787033 0.23526108 -0.012667669 0.22418159 -0.017501362
0.17926015 0.1437 -0.165812 0.09337437 0.08295434 -0.061462887 -0.06367465 -0.110215
-0.11587332 -0.14661774 0.10018558 -0.16401081 0.1260413 -0.13050304 0.067240514 0.07497462
-0.09774139 0.1668408 0.13280518 0.1688879 0.070514604 0.10108775 0.05776605 0.0198511
0.050553896 -0.117691174 0.15427847 -0.27057633 -0.09907698 -0.076553196 0.08298083 0.17163563
-0.06477096 0.07660365 0.18695353 0.111616306 0.004890039 0.08924328 0.13402592 -0.13030076
-0.046287596 0.0855926 -0.05537181 0.090301685 0.12148988 -0.1790612 0.15703946 0.45373562
-0.13142774 -0.07820266 0.11794022 -0.1698817 0.082614176 -0.13885099 -0.13816607 -0.11308578
-0.04115213 0.075201534 0.103956304 0.2211021 0.014273943 0.1419097 -0.09987505 -0.1585808
0.09902359 0.05066242 -0.1003557 0.1161199 -0.08968732 0.1172668 0.08368705 0.09504122
0.08043098 -0.13519979 0.10515716 -0.1578809 -0.062110037 -0.15198562 -0.18021105 -0.0970894
-0.104847364 0.03990384 0.18452533 -0.14797579 -0.06318303 0.09299536 0.14241888 -0.09071841
-0.13994208 -0.0676796 0.016667284 -0.038275197 0.06798555 0.08566644 0.10945662 0.14849393
-0.0673158 -0.0634372 -0.10851589 0.14285292 0.06786774 0.1895552 0.029983606 -0.095064074
0.13679393 0.12466849 0.16348606 0.10083281 0.06774116 -0.15437233 -0.043750424 -0.1343796
-0.110102795 -0.048891045 -0.17500654 -0.24391317 0.16488293 -0.12674858 -0.07765112 -0.024785198
0.054561794 0.11377989 -0.06506378 -0.1265505 -0.14599985 -0.07108126 -0.020851774 0.030767782
0.009497244 0.09312605 -0.19754924 -0.07837302 -0.06444735 -0.13862129 -0.2149248 0.047950555
-0.016713295 0.07822357 -0.1347273 -0.09152434 -0.051446896 -0.020862322 0.03389723 -0.16757236
-0.11624979 -0.15243427 0.15752222 -0.0877758 -0.16113184 -0.04633306 -0.16736579 0.07783906
0.093729146 -0.2898186 -0.1868971 -0.09891026 -0.07985097 0.077955954 0.16802064 -0.05933637
-0.075863376 0.107748725 -0.23770009 0.06467456 0.1441872 0.10538205 -0.0680676 -0.08449351
-0.15885161 0.13127737 0.083419785 0.1310236 0.13009723 -0.024130331 -0.05970503 0.08883349
-0.1125309 -0.022485012 -0.14442064 -0.11007941 0.13827872 0.16428387 0.101594985 -0.1183921
00000000: ff96 fabd 6235 95bd a98d 0ebd 16ae 353e
00000010: ee71 e0bd 4276 213e 112a 1a3e ad4d 0a3e
00000020: 4f95 19be de3a 313e 8a44 76bd 6db3 62bd
00000030: a3c4 303e 8a8b fa3d 129a c03d fdef ee3c
00000040: a6a7 60bd 9f67 0abc c55e 913d 8583 6a3e
00000050: 39ae 1cbe 753e d1bc 3ff9 89be b304 ee3c
00000060: f12b 22be ad43 b4bd 1cb0 4e3d d587 e33d
00000070: f7f5 0cbe 2429 c83a 7176 de3d 571f 30bd
00000080: 9800 b83d 7d55 b9bd 6b63 64bd ef92 48be
00000090: dfb0 333e 83a3 36be 7c1a af3d 52cc df3d
000000a0: 3077 813e 59a8 70bd e98f f13d 0565 8a3e
000000b0: c7fd 803e e179 933d 210f 333d 8e96 54be
000000c0: d8eb d5bd 51f5 24be c9f9 02be 6308 4d3d
000000d0: 2671 56bd afec 843d 6bd5 733e adba a33d
000000e0: 1988 283d 37cb 00be 425a 09be f2f5 763e
000000f0: 9e1a 9dbd 1789 47bc e382 383e d34d ec3c
00000100: b914 2d3d 997a e33b f664 debc 7009 6d3d
00000110: 48e8 703e 0e8c 4fbc dc8f 653e 045f 8fbc
00000120: f98f 373e 1826 133e 9fca 29be 103b bf3d
00000130: f7e3 a93d 82c0 7bbd db67 82bd 67b8 e1bd
00000140: fe4e edbd f622 16be 192e cd3d 73f2 27be
00000150: f810 013e 97a2 05be 65b5 893d 4b8c 993d
00000160: a32c c8bd 51d8 2a3e 15fe 073e f3f0 2c3e
00000170: f669 903d 1807 cf3d 189c 6c3d c69e a23c
00000180: 9a11 4f3d 1208 f1bd 2dfb 1d3e fb88 8abe
00000190: dfe8 cabd ecc7 9cbd daf1 a93d 40c1 2f3e
000001a0: a3a6 84bd 60e2 9c3d bf70 3f3e 1797 e43d
000001b0: 9f3c a03b 2ec5 b63d 173e 093e 906d 05be
000001c0: 1098 3dbd 2c4b af3d 8dcd 62bd 17f0 b83d
000001d0: b0cf f83d d25b 37be f4ce 203e 0950 e83e
000001e0: fe94 06be b728 a0bd a48a f13d 78f5 2dbe
000001f0: 9f31 a93d f42e 0ebe 687b 0dbe 8499 e7bd
00000200: 238f 28bd 4303 9a3d 0be7 d43d 9768 623e
00000210: 42dd 693c c750 113e 4a8b ccbd 0163 22be
00000220: e1cc ca3d 6683 4f3d 4a87 cdbd 45d0 ed3d
00000230: fcad b7bd 9329 f03d 1e64 ab3d f9a4 c23d
00000240: ffb8 a43d d071 0abe a35c d73d 88ab 21be
00000250: 1867 7ebd 1ea2 1bbe 3f89 38be cfd6 c6bd
00000260: 37ba d6bd 3572 233d 35f4 3c3e f786 17be
00000270: 1b66 81bd 5a74 be3d 41d6 113e 93ca b9bd
00000280: fa4c 0fbe 9a9b 8abd d489 883c 74c6 1cbd
00000290: 023c 8b3d e371 af3d cb2a e03d cb0e 183e
000002a0: dedc 89bd 5deb 81bd 943d debd 0948 123e
000002b0: 3efe 8a3d c21a 423e 2ea0 f53c f4b0 c2bd
000002c0: b513 0c3e 3152 ff3d e468 273e 6f81 ce3d
000002d0: e1bb 8a3d c813 1ebe a533 33bd ce9a 09be
000002e0: 937d e1bd fa41 48bd ea34 33be 60c4 79be
000002f0: 12d7 283e 61ca 01be 8d07 9fbd 540a cbbc
00000300: 307c 5f3d 6e05 e93d 2940 85bd 7496 01be
00000310: fc80 15be 0d93 91bd 57d1 aabc b70c fc3c
00000320: 549a 1b3c dfb8 be3d 594a 4abe 0982 a0bd
00000330: f9fc 83bd bdf2 0dbe 3f15 5cbe cd67 443d
00000340: 52ea 88bc ae33 a03d f4f5 09be 1d71 bbbd
00000350: fbb9 52bd 76e7 aabc d2d7 0a3d 1798 2bbe
00000360: 5f14 eebd bb17 1cbe 814d 213e ccc3 b3bd
00000370: bfff 24be bcc7 3dbd f061 2bbe 166a 9f3d
00000380: 11f5 bf3d 1b63 94be f461 3fbe 7691 cabd
00000390: e888 a3bd 5fa7 9f3d 9a0d 2c3e b20a 73bd
000003a0: 425e 9bbd 5dab dc3d a767 73be 1974 843d
000003b0: cfa5 133e 8bd2 d73d 0767 8bbd ef0a adbd
000003c0: ffa9 22be 936d 063e fed7 aa3d 0d2b 063e
000003d0: 3538 053e f9ac c5bc 438d 74bd 55ee b53d
000003e0: 9a76 e6bd 7d32 b8bc 01e3 13be 5071 e1bd
000003f0: f098 0d3e 083a 283e 0811 d03d 8f77 f2bd

critic.4.weight f4 [1, 290]
-1.1299919 -1.2575544 -1.3207659 1.7776088 -1.2851558 1.8945675 1.0704001 1.1327672
-1.820217 1.2362683 1.9683652 -1.5615858 1.9725214 1.3031204 1.3179569 -1.2480513
-1.7788584 -1.3392183 1.2571996 1.9655087 -1.1222122 -1.3502073 -1.8576863 -1.7268702
-1.1459905 -1.4285564 1.8964647 1.8290116 -1.1055335 1.2460755 1.9140576 -1.182712
1.1253583 -1.7935613 -1.2156457 -1.1893246 1.6999928 -1.9516752 1.8870791 1.2189432
1.896061 -1.2525042 1.2268529 2.2316036 1.7804399 -2.2506206 1.897057 -1.7991154
1.9493259 -1.3223809 -1.1264516 -1.4935488 -1.1222569 1.2210093 -3.1861293 1.8981559
-1.7290072 -1.1086854 -2.0046258 1.9692993 -1.8586484 1.9333266 1.1658198 1.2023375
1.725846 -1.2700613 -1.8327245 1.7914605 2.0264761 -1.4662261 1.8310778 -1.3745565
1.9195663 1.7578115 -1.1105586 1.7785269 1.4641937 -1.1419624 -1.6123891 -1.4316531
-1.7753172 -1.3017883 1.2329482 -1.3355508 1.9089146 -1.8921747 -1.8513145 1.2012376
-1.2096807 1.0952818 1.8127776 1.2047447 1.3257807 1.0908304 1.7735572 1.2270795
1.2326782 -1.9460738 1.8908824 -1.8839828 -1.3282737 -1.303408 1.8837328 1.0989329
-1.3005509 -2.3331869 1.9315451 1.2120429 1.1812941 1.3062304 -2.2526712 -1.3106115
-1.6947349 -2.2633393 -1.8700299 1.8771676 1.8283958 -1.804855 1.8570073 -2.29372
-1.2208921 -1.6393759 -2.0057302 -1.8484937 -1.8493726 -1.755892 -1.1735687 -1.7512445
-1.2292972 1.3405075 1.8366265 1.8263136 1.7344503 1.851105 -1.2233921 -1.2022761
1.7991436 -1.9099773 -1.3050346 1.9730487 -1.8661084 1.7116632 1.6718509 1.8627288
1.3036953 -1.2605299 1.3534876 -1.7652149 -1.364777 -1.1424181 -1.1408478 -1.2286431
-1.3113558 1.2875029 1.869286 -1.3169045 -1.3460112 1.1230296 1.7528633 -1.9400139
-1.1355294 2.2313795 1.2861003 -2.6602113 1.2338066 1.464959 1.7359698 1.2100582
-1.9081304 -1.3256809 -1.1413859 1.9246932 1.8100302 1.1413003 2.8412826 -1.9130857
1.2668657 1.1905804 1.1585689 1.680464 1.2374188 -1.856676 -2.362879 -1.1439365
-1.1141117 1.7270216 -1.2111038 -1.984147 1.8829949 -1.2748606 -1.9297564 -1.2760307
-1.430907 2.0326252 2.5597923 -1.977522 -1.1376865 -2.110567 2.4935908 1.258229
-1.556446 1.8241942 -1.8699044 1.7321004 -1.3634214 -1.8230513 -1.8168687 1.9627835
1.9225925 1.1356883 -1.1407346 -1.8924093 -1.8901473 1.2453632 1.2129765 -1.8056619
-1.3347129 -1.9129616 1.2575494 -1.181521 -1.2067297 -1.1623777 -1.8873599 -1.8470787
1.159844 -1.8878543 -1.7823839 -1.8540872 -1.2244884 1.3157647 1.1533316 -1.1443406
1.6337488 1.1347189 -1.7229215 1.9058459 1.9182717 1.1988204 -2.1709898 1.8846134
-1.196419 1.0982537 1.8997462 1.8443184 1.1860057 -1.1622885 -1.637675 1.2257661
-1.5775938 -1.2540376 -1.8658345 2.329147 1.1838046 1.2327024 1.1380506 -1.3984982
00000000: 93a3 90bf 8bf7 a0bf db0e a9bf af88 e33f
00000010: fc7f a4bf 3081 f23f df02 893f 84fe 903f
00000020: dffc e8bf 0a3e 9e3f 64f3 fb3f 0be2 c7bf
00000030: 957b fc3f a6cc a63f d0b2 a83f 25c0 9fbf
00000040: a2b1 e3bf 816b abbf ebeb a03f ca95 fb3f
00000050: a6a4 8fbf 98d3 acbf aac8 edbf 150a ddbf
00000060: d1af 92bf f0da b6bf 5bbf f23f 0d1d ea3f
00000070: 1f82 8dbf 677f 9f3f d7ff f43f 1b63 97bf
00000080: be0b 903f 6b93 e5bf 479a 9bbf ca3b 98bf
00000090: 5d99 d93f 7ed0 f9bf cf8b f13f 5506 9c3f
000000a0: 20b2 f23f 0f52 a0bf 8409 9d3f 98d2 0e40
000000b0: 74e5 e33f 2b0a 10c0 c4d2 f23f 6a49 e6bf
000000c0: 8383 f93f c743 a9bf 912f 90bf 9b2c bfbf
000000d0: 1da6 8fbf 084a 9c3f 8be9 4bc0 c6f6 f23f
000000e0: 1c50 ddbf 67e9 8dbf ca4b 00c0 0012 fc3f
000000f0: 31e8 edbf 3f77 f73f 9539 953f 32e6 993f
00000100: 86e8 dc3f 5e91 a2bf b796 eabf 944e e53f
00000110: c9b1 0140 4cad bbbf c260 ea3f 78f1 afbf
00000120: 59b4 f53f f8ff e03f c926 8ebf c5a6 e33f
00000130: b36a bb3f d32b 92bf c462 cebf 6940 b7bf
00000140: 983d e3bf 00a1 a6bf 3fd1 9d3f 54f3 aabf
00000150: 5057 f43f c832 f2bf e0f7 ecbf 27c2 993f
00000160: d1d6 9abf 3232 8c3f 1909 e83f 1335 9a3f
00000170: 2fb3 a93f 55a0 8b3f ec03 e33f f110 9d3f
00000180: 66c8 9d3f f218 f9bf 6f08 f23f 5926 f1bf
00000190: df04 aabf 13d6 a6bf 281e f13f d5a9 8c3f
000001a0: 7478 a6bf ef52 15c0 df3c f73f 3924 9b3f
000001b0: a534 973f 8f32 a73f c42b 10c0 1ec2 a7bf
000001c0: 13ed d8bf 8dda 10c0 245d efbf 0747 f03f
000001d0: e008 ea3f 7d05 e7bf 6ab2 ed3f 4fcc 12c0
000001e0: 3146 9cbf 12d7 d1bf e25d 00c0 719b ecbf
000001f0: 3eb8 ecbf 12c1 e0bf 8037 96bf c828 e0bf
00000200: 9c59 9dbf c095 ab3f 9416 eb3f a5c4 e93f
00000210: 7802 de3f 02f1 ec3f 1d98 9cbf 2fe4 99bf
00000220: 564a e63f 237a f4bf 600b a7bf dc8c fc3f
00000230: a4dc eebf c817 db3f 36ff d53f e66d ee3f
00000240: 7ddf a63f 0b59 a1bf 153f ad3f 90f2 e1bf
00000250: 03b1 aebf c23a 92bf 4d07 92bf 2d44 9dbf
00000260: 82da a7bf e5cc a43f c344 ef3f 5490 a8bf
00000270: 184a acbf 6fbf 8f3f d35d e03f 6052 f8bf
00000280: 0759 91bf ecce 0e40 ef9e a43f e740 2ac0
00000290: 60ed 9d3f c783 bb3f 4234 de3f 30e3 9a3f
000002a0: 9e3d f4bf e9af a9bf ef18 92bf 595c f63f
000002b0: 12af e73f 2116 923f 93d7 3540 fedf f4bf
000002c0: a828 a23f f064 983f fc4b 943f 7219 d73f
000002d0: bd63 9e3f 8fa7 edbf 6939 17c0 836c 92bf
000002e0: 369b 8ebf 0b0f dd3f 7305 9bbf 87f8 fdbf
000002f0: fa05 f13f a22e a3bf 4202 f7bf f954 a3bf
00000300: f627 b7bf 8816 0240 a3d3 2340 711f fdbf
00000310: b69f 91bf 8813 07c0 fe96 1f40 a60d a13f
00000320: 9f39 c7bf 327f e93f 0759 efbf 77b5 dd3f
00000330: 9884 aebf bf59 e9bf 278f e8bf 7d3c fb3f
00000340: 8317 f63f 3c5e 913f 9703 92bf 783a f2bf
00000350: 59f0 f1bf 1068 9f3f d042 9b3f ee1f e7bf
00000360: dfd7 aabf eddb f4bf 61f7 a03f 153c 97bf
00000370: 1e76 9abf cbc8 94bf 0295 f1bf 136d ecbf
00000380: c575 943f 36a5 f1bf 2825 e4bf bb52 edbf
00000390: 09bc 9cbf fa6a a83f 5fa0 933f c179 92bf
000003a0: ae1e d13f 783e 913f b188 dcbf c2f2 f33f
000003b0: ed89 f53f f272 993f 7ff1 0ac0 033b f13f
000003c0: 4224 99bf 9493 8c3f e22a f33f a012 ec3f
000003d0: 09cf 973f dfc5 94bf 569f d1bf e7e5 9c3f
000003e0: 98ee c9bf 4e84 a0bf aad3 eebf bf10 1540
000003f0: e986 973f 31c9 9d3f a4ab 913f fd01 b3bf

actor_mean.0.weight f4 [145, 17]
0.50818896 -0.33289075 0.385568 0.013971942 0.40421286 -0.13096642 0.19445337 -0.07863931
0.05602429 0.117885515 -0.28324872 -0.008094497 0.019026278 0.11602311 -0.025240222 0.21428804
0.024027642 -0.36244968 1.0167309 0.008996141 -0.01695592 -0.06626821 0.08260441 0.1353575
-0.64670014 0.10402709 0.29413453 0.083013035 -0.05493562 0.017742041 -0.017526336 0.00561329
0.00977084 -0.026489843 -0.012465625 -0.25803903 -0.09880796 -0.078220904 -0.14977536 -0.050729763
0.2929054 -0.18018661 0.058554277 -0.08101576 -0.08501548 0.17792577 -0.17916708 0.17114818
0.13216424 0.30607444 0.05838891 -0.52647305 1.1345026 0.024698088 -0.01365735 -0.34032777
-0.44319472 -0.9061397 -0.9244331 0.27620167 -0.45492724 -0.0123492 -0.030502716 -0.038451537
-0.023119327 -0.0106885405 -0.024532782 0.016016679 0.2818617 0.10958064 0.13414556 0.12593672
0.48455033 -0.102691785 0.19278967 1.0447682 0.17130327 0.45589533 0.107032776 0.019643854
0.016856397 0.01636748 -0.12847686 -0.12836671 -0.035311967 0.3360396 -0.095356174 0.027688572
-0.053784046 -0.19967924 -0.05545554 0.051732764 -0.07695856 0.436861 -0.24081899 0.06316456
-0.28753728 0.045777403 -0.029655585 0.06505846 0.053812556 -0.26500788 -0.16765389 0.30852342
0.056254975 0.15929605 0.09373364 0.10246331 0.02702188 -0.04064712 -0.3009615 0.13768688
0.03239245 0.00423601 0.135016 0.04545751 -0.1423361 -0.098959215 -0.35307917 0.25561732
-0.06230707 0.01434015 -0.09768488 -0.36075377 0.29020342 -0.093950294 0.12700921 0.19834855
0.13303527 -0.14192596 0.13566114 -0.3891014 0.079469934 -0.07658703 -0.058360785 0.104666315
0.46777752 -0.6311922 0.07142204 -0.08140639 0.09132927 0.16018319 0.04225977 0.09304344
-0.07546123 0.27861804 0.24636443 -0.11658409 0.0782153 0.020405073 0.039768577 -0.05346184
0.098474704 0.05453402 0.22416376 0.37711087 0.052604042 -0.009929905 -0.097491875 0.1846024
-0.05461183 0.11214958 0.22355522 0.06979586 -0.110434525 -0.31776515 0.18268827 -0.068637915
0.18662287 0.1253849 -0.30068192 -0.37976092 0.009665589 0.025902186 -0.15618639 0.013987885
-0.19314276 -0.06933266 -0.096236154 -0.40541917 0.036817845 0.16935508 -0.15814291 0.029167995
-0.067260645 0.1565281 -0.046157222 0.29760754 -0.23948283 -0.027035434 -0.04077027 0.2999594
-0.02987167 0.049921356 0.029806295 0.14671187 -0.1490952 0.045963515 -0.08957712 -0.071824595
-0.10971185 -0.17421028 0.08134795 0.08129411 -0.3326501 0.6210852 -0.013999285 -0.14835426
0.024619257 -0.17610474 -0.12307825 -0.266941 -0.09329112 -0.32511422 0.1891181 0.26110998
-0.10634722 0.07396521 0.20207469 -0.011421369 0.027366621 0.572511 -0.38494208 0.5599653
-0.036263384 0.15012021 0.25309703 -0.037073787 0.005181048 0.10650715 0.40257314 -0.22525267
0.036155652 -0.011271155 -0.025354208 0.21052986 0.018410945 0.051200565 -0.0020134745 -0.2822408
0.46338707 -0.07954263 -0.3744637 0.075689755 0.10700063 -0.11207092 -0.17900977 -0.16508058
0.15361579 0.021873139 0.2947682 0.17028977 -0.065079816 0.15052018 0.09475705 -0.2092354
00000000: ac18 023f a870 aabe 2b69 c53e 92ea 643c
00000010: fdf4 ce3e 101c 06be c91e 473e a60d a1bd
00000020: ba79 653d f66d f13d fa05 91be c89e 04bc
00000030: ffdc 9b3c 869d ed3d 95c4 cebc 536e 5b3e
00000040: 9ed5 c43c 0193 b9be 3d24 823f 8d64 133c
00000050: 24e7 8abc a1b7 87bd 802c a93d 289b 0a3e
00000060: 248e 25bf 280c d53d cd98 963e bd02 aa3d
00000070: 2c04 61bd c257 913c 6493 8fbc b0ef b73b
00000080: e015 203c 3a01 d9bc 9f3c 4cbc b11d 84be
00000090: d45b cabd 4832 a0bd b65e 19be 03ca 4fbd
000000a0: b2f7 953e d782 38be 9cd6 6f3d 97eb a5bd
000000b0: 991c aebd 2c32 363e 9377 37be 7841 2f3e
000000c0: 1056 073e cab5 9c3e 3629 6f3d f0c6 06bf
000000d0: 6237 913f a553 ca3c 14c3 5fbc 713f aebe
000000e0: 6bea e2be c5f8 67bf a6a7 6cbf 4e6a 8d3e
000000f0: 39ec e8be 4d54 4abc d5e0 f9bc 5c7f 1dbd
00000100: be64 bdbc fd1e 2fbc f9f8 c8bc 6935 833c
00000110: 2d50 903e d16b e03d 745d 093e 8ef5 003e
00000120: fb16 f83e 1250 d2bd a86a 453e f7ba 853f
00000130: 206a 2f3e 1d6b e93e 0034 db3d 26ec a03c
00000140: 6d16 8a3c 1815 863c 708f 03be 9072 03be
00000150: 48a3 10bd 620d ac3e 194a c3bd 25d3 e23c
00000160: a94c 5cbd b778 4cbe 5925 63bd bce5 533d
00000170: 739c 9dbd 3fac df3e 4199 76be 6c5c 813d
00000180: 1638 93be 1681 3b3d 45f0 f2bc 5f3d 853d
00000190: 8e6a 5c3d 1daf 87be 76ad 2bbe c8f6 9d3e
000001a0: 9e6b 663d 811e 233e 6cf7 bf3d 49d8 d13d
000001b0: fd5c dd3c 987d 26bd a017 9abe cafd 0c3e
000001c0: f2ad 043d 3ace 8a3b a241 0a3e a731 3a3d
000001d0: 8ec0 11be 21ab cabd cbc6 b4be 46e0 823e
000001e0: b335 7fbd f3f2 6a3c 030f c8bd b8b4 b8be
000001f0: 8b95 943e 0369 c0bd b40e 023e e21b 4b3e
00000200: 663a 083e 0a55 11be c1ea 0a3e 4c38 c7be
00000210: 22c1 a23d a9d9 9cbd b80b 6fbd 4b5b d63d
00000220: 8980 ef3e d095 21bf b845 923d 65b8 a6bd
00000230: d70a bb3d 1007 243e 9518 2d3d 8f8d be3d
00000240: 6b8b 9abd 06a7 8e3e f546 7c3e a4c3 eebd
00000250: 582f a03d 8a28 a73c 60e4 223d cdfa 5abd
00000260: 1bad c93d 115f 5f3d 2f8b 653e ad14 c13e
00000270: 5677 573d 0ab1 22bc d2a9 c7bd 6908 3d3e
00000280: a7b0 5fbd aeae e53d a9eb 643e 22f1 8e3d
00000290: 7f2b e2bd 1db2 a2be a212 3b3e 0992 8cbd
000002a0: 111a 3f3e e664 003e fbf2 99be 0670 c2be
000002b0: 6b5c 1e3c d230 d43c 53ef 1fbe 712d 653c
000002c0: 37c7 45be 48fe 8dbd 7617 c5bd 1a93 cfbe
000002d0: 4fce 163d 6b6b 2d3e 37f0 21be b8f1 ee3c
000002e0: f3bf 89bd e748 203e 5b0f 3dbd 0460 983e
000002f0: fd3a 75be 6a79 ddbc bafe 26bd 4794 993e
00000300: 6fb5 f4bc 567a 4c3d 552c f43c a33b 163e
00000310: 69ac 18be 3d44 3c3d 3674 b7bd c618 93bd
00000320: 9bb0 e0bd 2e64 32be c199 a63d 877d a63d
00000330: 1d51 aabe 71ff 1e3f 425d 65bc 2eea 17be
00000340: 53ae c93c cd54 34be 7310 fcbd 7eac 88be
00000350: 6a0f bfbd 5f75 a6be 2da8 413e 35b0 853e
00000360: 92cc d9bd 127b 973d abec 4e3e b220 3bbc
00000370: f72f e03c 1590 123f 2117 c5be e359 0f3f
00000380: ea88 14bd 1db9 193e ef95 813e afda 17bd
00000390: c8c5 a93b 6c20 da3d 111e ce3e a3a8 66be
000003a0: f317 143d a7aa 38bc a1b3 cfbc 2495 573e
000003b0: 8dd2 963c afb7 513d 7ff4 03bb de81 90be
000003c0: 1241 ed3e 3fe7 a2bd b5b9 bfbe 3b03 9b3d
000003d0: 2523 db3d 7085 e5bd 564e 37be e20a 29be
000003e0: 754d 1d3e 4c2f b33c dceb 963e 7160 2e3e
000003f0: 9148 85bd f621 1a3e fc0f c23d ce41 56be

actor_mean.0.bias f4 [145]
0.100039825 -0.107686006 -0.05188598 -0.16188413 0.20836763 0.19743438 -0.08007199 0.014420218
0.1454671 0.013093936 -0.16687977 0.12003298 -0.11685104 0.20031194 -0.07094627 -0.03428111
0.124584086 -0.039805677 0.29211628 -0.07810663 0.044040218 -0.21324931 0.07082232 -0.09378635
0.20758581 0.16844405 0.065730914 0.09935324 -0.1358554 -0.041108802 -0.08687088 0.1987221
-0.0512992 0.080224946 -0.18785074 0.026374258 0.13774271 0.08436918 -0.18790562 -0.0009864394
0.13171802 -0.16177762 0.15064186 -0.07595588 -0.11795599 -0.022628168 -0.0062079187 0.3011227
-0.22684252 -0.15840583 0.0064942096 0.2044352 0.048963152 0.14461301 0.025413563 0.00262462
0.24681412 -0.20614617 -0.035360858 -0.007455498 -0.02381517 0.35336825 -0.116601855 0.023210382
0.20425631 0.11972157 0.11680883 0.08529114 0.08603873 0.1738499 -0.11583965 -0.2071988
0.08074035 -0.042533174 0.106498025 0.10289624 0.052004725 -0.025245186 0.019958735 0.14112073
0.04463664 0.26105422 0.15144534 -0.024700731 -0.1142373 -0.14503106 0.045764223 -0.08175737
-0.33308303 -0.01852792 -0.06065726 -0.17092149 0.13134553 0.055135395 -0.07958371 -0.025762198
-0.15295057 -0.28894868 -0.063740656 -0.08180646 0.061519556 0.08809466 -0.008609253 0.046586446
0.07167709 -0.11021484 0.06513572 -0.025960604 -0.084652126 -0.060004406 0.19142915 -0.09360038
0.060675845 0.25165716 0.044440746 0.11735914 0.0049963705 -0.03865712 -0.15248688 -0.1699018
-0.042290233 -0.1818779 0.18907985 -0.11880892 0.065187 -0.04242601 -0.09409675 0.028785478
-0.368062 0.058099262 0.01223707 0.18681048 0.088471405 -0.20968479 0.103519805 -0.1549123
0.3161323 0.042638917 0.12532191 -0.15173967 -0.026071917 0.073384024 0.10308876 -0.032690607
-0.13977586
00000000: aee1 cc3d 7b8a dcbd 6586 54bd f4c4 25be
00000010: 535e 553e 3d2c 4a3e c9fc a3bd c742 6c3c
00000020: 54f5 143e f387 563c 88e2 2abe dad3 f53d
00000030: 994f efbd 931e 4d3e 474c 91bd 596a 0cbd
00000040: f125 ff3d 470b 23bd 4490 953e 5ef6 9fbd
00000050: 8463 343d 075e 5abe 4b0b 913d 0f13 c0bd
00000060: 6091 543e 997c 2c3e ee9d 863d b679 cb3d
00000070: ae1d 0bbe b461 28bd 5ce9 b1bd ce7d 4b3e
00000080: 1c1f 52bd fa4c a43d f25b 40be d40e d83c
00000090: 6d0c 0d3e c0c9 ac3d 556a 40be 6a4b 81ba
000000a0: 17e1 063e 08a9 25be dc41 1a3e c28e 9bbd
000000b0: e992 f1bd b55e b9bc cc6b cbbb c12c 9a3e
000000c0: 6849 68be 2335 22be 61cd d43b 7657 513e
000000d0: 968d 483d 6f15 143e 1b30 d03c d101 2c3b
000000e0: d7bc 7c3e fb17 53be 8cd6 10bd 404d f4bb
000000f0: 0818 c3bc afec b43e f4cc eebd b323 be3c
00000100: 9128 513e 9530 f53d 7839 ef3d 1fad ae3d
00000110: 1335 b03d b505 323e 573d edbd ec2b 54be
00000120: 325b a53d 4437 2ebd a31b da3d 44bb d23d
00000130: e802 553d fece cebc 8080 a33c f481 103e
00000140: e9d4 363d e6a8 853e 7d14 1b3e 3059 cabc
00000150: 3ff5 e9bd 0683 14be 4473 3b3d 6870 a7bd
00000160: dc89 aabe ddc7 97bc bf73 78bd 0b06 2fbe
00000170: 717f 063e a7d5 613d c9fc a2bd 3f0b d3bc
00000180: 139f 1cbe 15f1 93be 768a 82bd 258a a7bd
00000190: eefb 7b3d f96a b43d d30d 0dbc 6ed1 3e3d
000001a0: 70cb 923d 51b8 e1bd e065 853d 55ab d4bc
000001b0: 185e adbd 2ec7 75bd 0106 443e 8eb1 bfbd
000001c0: 3c87 783d 35d9 803e 8007 363d fd59 f03d
000001d0: 98b8 a33b ee56 1ebd 8525 1cbe bdfa 2dbe
000001e0: 8638 2dbd 333e 3abe 269e 413e 1752 f3bd
000001f0: c380 853d e5c6 2dbd ccb5 c0bd 86cf eb3c
00000200: 9f72 bcbe 7ef9 6d3d fe7d 483c 3f4b 3f3e
00000210: 7f30 b53d 9cb7 56be 3102 d43d 54a1 1ebe
00000220: 18dc a13e 25a6 2e3d 6354 003e a561 1bbe
00000230: c694 d5bc 5d4a 963d 3320 d33d 96e6 05bd
00000240: 6721 0fbe

actor_mean.2.weight f4 [290, 145]
0.013148372 -0.05116264 -0.009407389 0.14630038 -0.0046966937 -0.032272134 -0.012688732 -0.08187705
0.14056753 0.024217302 -0.05047375 0.08501331 0.08529216 -0.11053658 -0.097880654 -0.19037114
0.0021330821 -0.020090936 0.059607208 0.006744282 -0.012977956 -0.14369214 -0.055471744 0.2427099
0.01809424 0.11069948 0.026559481 -0.17560446 -0.23528737 0.034388576 -0.0017657912 -0.017435197
-0.08990401 0.20566528 -0.046565436 0.05257093 -0.04971009 -0.08001367 -0.12827472 0.055680797
0.037246432 0.025221393 -0.12848943 0.033442516 -0.08847032 -0.09299605 -0.031156024 0.18915784
0.063742764 0.13888343 -0.11436857 -0.048233747 0.0449418 -0.24301411 0.06344325 -0.12735195
0.07289549 -0.07520023 0.044770323 0.030075166 -0.10211827 0.07175707 0.10289375 0.168542
-0.044824705 -0.021707999 -0.040526506 -0.068356834 0.2373089 -0.037415303 0.0058224266 0.22070178
0.08212879 0.04460403 0.06635026 0.027399005 -0.1202651 -0.07981061 0.017405136 0.10773131
-0.045271985 -0.09519077 -0.078222476 0.028524438 -0.027167952 -0.04018606 -0.096119516 0.059823092
0.15121077 -0.039222263 -0.07083722 -0.19576235 -0.038318146 -0.047749728 0.09860153 -0.11490242
-0.02246078 0.007971809 0.0886201 0.05206034 -0.028064208 0.06940657 0.07371113 -0.040263683
0.06781005 -0.013772418 -0.12984084 0.0115487045 0.28402975 0.26833946 0.060178638 0.034619223
0.13466038 -0.25732931 0.15857628 -0.017066846 -0.0058621704 0.19079092 -0.02767683 0.011627693
-0.17792197 -0.088321015 0.08464455 -0.054109238 -0.13443069 0.09926946 -0.072313696 0.117199846
0.08891477 -0.018018715 0.13860983 -0.055731863 0.064306945 0.21873951 -0.0452356 0.032821026
-0.036267698 0.062390026 -0.23660156 -0.085324965 -0.1130996 0.012612304 -0.18225236 0.113165215
-0.024798125 -0.05035906 0.022705182 -0.19695024 0.010755942 0.014386597 -0.022574468 -0.15770881
-0.04732982 -0.04760086 0.08051166 0.029845085 -0.071303144 0.018603263 0.06597799 -0.09966432
-0.022510406 -0.04764754 -0.008976149 0.009024633 0.07865613 -0.01054712 -0.0011167853 -0.09142552
-0.06276647 -0.03493632 -0.03928405 -0.0052982606 0.0477539 -0.07701986 0.06334129 0.09854282
0.27216038 -0.025496606 0.024178807 -0.11460975 -0.15489966 0.06950208 0.077756874 -0.020229572
0.063367635 0.10014873 0.10870803 0.0029725188 -0.1132153 -0.002461664 -0.041797232 -0.23145884
0.06851602 -0.05482872 0.11435334 -0.0058980426 0.17897408 -0.05777126 -0.061011136 -0.1599093
0.040685356 0.09131468 0.06286079 0.006213942 -0.010337754 0.0051078573 -0.061200824 0.032656547
0.01666613 -0.1485997 -0.04277498 0.032929312 -0.0711649 0.084799424 0.064719506 -0.11386158
-0.052328836 -0.0033869096 -0.062173203 -0.02723287 -0.08624082 -0.06766749 0.079005815 -0.14504479
0.07841535 0.028799376 -0.013658996 -0.045538284 0.040582784 -0.026771594 -0.17979904 -0.07620301
0.07402799 -0.040899597 -0.105907 0.19066013 0.056786686 -0.03946645 0.105408765 -0.12050818
0.038538426 0.00086946815 0.16495615 -0.14081924 -0.037995037 -0.07744298 0.10847411 -0.034980975
-0.09507268 0.0020569721 -0.13231012 0.050308462 0.054977924 0.021013442 0.023179045 -0.115820564
00000000: 456c 573c eb8f 51bd 7321 1abc c4cf 153e
00000010: b9e6 99bb c92f 04bd 66e4 4fbc 28af a7bd
00000020: eff0 0f3e 5d63 c63c 90bd 4ebd 751b ae3d
00000030: a8ad ae3d 0161 e2bd a775 c8bd a7f0 42be
00000040: 2ecb 0b3b bf95 a4bc b026 743d 23ff dc3b
00000050: 7ea1 54bc 0824 13be 5736 63bd f288 783e
00000060: 5f3a 943c 69b6 e23d 4593 d93c a8d1 33be
00000070: 2cef 70be 09db 0c3d 1f72 e7ba 42d4 8ebc
00000080: 981f b8bd eb99 523e 66bb 3ebd 9e54 573d
00000090: cf9c 4bbd 35de a3bd 735a 03be 8c11 643d
000000a0: b78f 183d 189d ce3c bc92 03be 05fb 083d
000000b0: ed2f b5bd b774 bebd eb3a ffbc 98b2 413e
000000c0: 918b 823d 7537 0e3e 123a eabd c090 45bd
000000d0: e514 383d b1d8 78be 89ee 813d 8d68 02be
000000e0: 3b4a 953d 9402 9abd 1661 373d 3260 f63c
000000f0: 6223 d1bd 5ff5 923d f5b9 d23d 4696 2c3e
00000100: 1c9a 37bd f9d4 b1bc 1fff 25bd abfe 8bbd
00000110: 1b01 733e ca40 19bd 0eca be3b a6ff 613e
00000120: 2433 a83d b7b2 363d a5e2 873d e173 e03c
00000130: 8c4d f6bd bf73 a3bd 3795 8e3c 3ca2 dc3d
00000140: 1e6f 39bd 61f3 c2bd 1b33 a0bd 15ac e93c
00000150: 538f debc 239a 24bd 4fda c4bd 0f09 753d
00000160: ffd6 1a3e 86a7 20bd 1b13 91bd ed75 48be
00000170: 7df3 1cbd 3895 43bd 99ef c93d f651 ebbd
00000180: abff b7bc 319c 023c 747e b53d 393d 553d
00000190: e9e6 e5bc 0825 8e3d dcf5 963d 88eb 24bd
000001a0: ffdf 8a3d b5a5 61bc fff4 04be c736 3d3c
000001b0: 596c 913e ca63 893e e07d 763d e3cc 0d3d
000001c0: 69e4 093e abc0 83be d261 223e c5cf 8bbc
000001d0: 7317 c0bb b25e 433e 85ba e2bc 1482 3e3c
000001e0: 2d31 36be a6e1 b4bd 1f5a ad3d a6a1 5dbd
000001f0: 33a8 09be c94d cb3d 3419 94bd 7906 f03d
00000200: f218 b63d fc9b 93bc bcef 0d3e 1847 64bd
00000210: 5cb3 833d 40fd 5f3e f748 39bd 576f 063d
00000220: 708d 14bd af8c 7f3d ae47 72be dbbe aebd
00000230: c3a0 e7bd d6a3 4e3c 5da0 3abe 2ac3 e73d
00000240: 7025 cbbc 4d45 4ebd 3800 ba3c 53ad 49be
00000250: b139 303c c3b5 6b3c 17ee b8bc 6b7e 21be
00000260: eadc 41bd 1ff9 42bd 4ce3 a43d ae7d f43c
00000270: 6207 92bd df65 983c 781f 873d cf1c ccbd
00000280: be67 b8bc 112a 43bd b310 13bc 0edc 133c
00000290: 7716 a13d d4cd 2cbc 1961 92ba 4e3d bbbd
000002a0: b58b 80bd 6319 0fbd 50e8 20bd 089d adbb
000002b0: 9899 433d 97bc 9dbd 14b9 813d d1d0 c93d
000002c0: 9b58 8b3e 42de d0bc a212 c63c 84b8 eabd
000002d0: 049e 1ebe 1b57 8e3d ff3e 9f3d 7db8 a5bc
000002e0: e4c6 813d c71a cd3d 51a2 de3d 97ce 423b
000002f0: 6cdd e7bd de53 21bb 9333 2bbd 8c03 6dbe
00000300: 2152 8c3d 1494 60bd 1532 ea3d 5e44 c1bb
00000310: fb44 373e 8fa1 6cbd d0e6 79bd 43bf 23be
00000320: b0a5 263d 3103 bb3d 28bd 803d 539e cb3b
00000330: af5f 29bc d05f a73b b7ad 7abd dfc2 053d
00000340: 6887 883c 852a 18be d134 2fbd e3e0 063d
00000350: e7be 91bd 52ab ad3d a98b 843d 4330 e9bd
00000360: c356 56bd eaf6 5dbb 54a9 7ebd 7817 dfbc
00000370: 079f b0bd 4195 8abd cdcd a13d 9f86 14be
00000380: 3a98 a03d abec eb3c fbc9 5fbc 5a86 3abd
00000390: 223a 263d 1a50 dbbc 3d1d 38be 5310 9cbd
000003a0: fd9b 973d 5686 27bd c5e5 d8bd 693c 433e
000003b0: 2899 683d 93a7 21bd 8de0 d73d fecc f6bd
000003c0: 78da 1d3d 05ed 633a 44ea 283e eb32 10be
000003d0: afa0 1bbd 6d9a 9ebd ad27 de3d 3648 0fbd
000003e0: 77b5 c2bd 44ce 063b 4e7c 07be 3f10 4e3d
000003f0: 8830 613d 6224 ac3c fbe1 bd3c 5533 edbd
