DATA403_final/checkpoints/Walker2d-v4_t/PPO_1562.pt (torch, 372045 bytes, 12 tensors)

actor_logstd f4 [1, 6]
00000000: e1c4 4d3f aa6c d43e a23d 253f 5c53 ff3e
00000010: 53dd 063f 46e2 c83e
0.8037854 0.41489154 0.6454717 0.49868286 0.52681464 0.39235133

critic.0.weight f4 [145, 17]
00000000: c4fa b3bc 74eb 443e 2038 7d3e 9400 9a3d
00000010: 31d4 5abd 035e 643c 9380 013d a029 66be
00000020: 7fb8 f0be a13f 263e 59b0 433d 9667 8fbd
00000030: 46d8 88bb 7682 603c b909 d3bb 6cc5 bf3c
00000040: 4997 4ebb abd4 02be 0210 1b3e 3297 c93e
00000050: 4c1a 0cbe 267d 18be fbff ad3d eeac 90be
00000060: e150 5ebe 23ef cf3e a67c a4be 92d4 d3bd
00000070: 4344 fd3b 4edf 1b3d d95f 933c 3d2c 78bd
00000080: 32d9 8bbd 393b 0dbd a97f 983e a924 c3bd
00000090: 0180 7abe 7e71 02be 51a3 b73e 8df5 8f3e
000000a0: 94a0 283e 43e4 ed3d 26ed b33e f169 cb3d
000000b0: c36b 4dbe a0ef 7dbc ef7c 053d 74af 863c
000000c0: f02a 5a3e fe3b ff3d 4329 f1bc 8a3d 99bd
000000d0: 0129 76bf ec9a 273f 3e57 4f3e 421c 2c3e
000000e0: 3e8a 3c3d 8886 8e3e 3ae8 533e 9556 b7be
000000f0: 2daf bdbe 8a51 043d 21c6 2e3d 905e 9a3d
00000100: ea50 bd3c af0a ffbc cf1c 5d3d 349d 0ebd
00000110: 9774 9fbd a79f 3abf 4e5e cc3e a747 873e
00000120: ee5d a0bd 1a60 853d 7f69 f8bc a8fb 003e
00000130: 0513 acbe ef47 d23d 969d 183e c3f5 ba3d
00000140: 938b 413e 9af2 f03d ad33 bbbd fa38 a8bd
00000150: bf3a 743d 0e81 bf3c c4a8 773f 47ea 413e
00000160: 180a 24be c909 853b 1a40 8b3e 7b3e 1a3e
00000170: 5e57 0a3d 754b 493e 0944 913d aca6 78bd
00000180: aaa0 553e 24a8 783d 2e9e 373d f9f6 e9bd
00000190: ab0e 2bbd dabd 11bd 19d0 86be 7fdc d93d
000001a0: b976 efbd ffed a03c 1770 e0bd f6ea 58be
000001b0: 6551 54be 86ca 3ebf ca97 23be c7c6 39be
000001c0: d8de e03c c3be 1b3d 3908 e63c 6654 e63c
000001d0: be6b 2dbd 930f 82bc dda4 a5bc 8436 e43c
000001e0: 14d6 233f 6034 77be e306 bfbe b64e 13be
000001f0: 89b7 2d3e 17e6 ecbd 77cc 7b3d 661b 193f
00000200: 9ff0 86be e0f3 1f3e 2345 8dbe d7ae b7bd
00000210: 9c4b 07bd 7235 8c3d 19a1 74bc a05b ddbd
00000220: 88eb 433e cae2 8f3e 9a3c 09bf c8ae 9abe
00000230: 7873 35be 0238 023e 91a8 c63d cc32 3f3d
00000240: 3654 f53e 95ff 88be f167 0fbe ab90 c33c
00000250: c799 a03d 419c 25bd eba2 fdbc 89bd 4b3c
00000260: a220 e53a b7e5 20be e781 383e 0341 cdbe
00000270: 6de1 78be e4a8 793e 7e61 6bbe 6121 2f3d
00000280: a2f0 473d 43e4 923e d27d ca3c e682 c9bd
00000290: 1987 1c3e 6881 823c 69a8 03bc 5eda b1bc
000002a0: c33a 03bd f98a b4bb a8a4 373e 04c4 003e
000002b0: a042 38bf bbb0 cbbe aa13 773b 1d43 8ebd
000002c0: 8e76 dabe 6eed 853c f99e 323f 7e1f a8be
000002d0: f38c b4bd d2a8 9d3d 751d 77bc 3213 623c
000002e0: 9cf3 7dbc b9f8 27bd e9de 1f3a b554 13bd
000002f0: 651b 833e 5eec 273e 0b04 72be e940 27be
00000300: ea0c 2cbf 9f3f 65be 931b 09bf 7bac 94be
00000310: 5ace 62be 9026 163e 6e65 973d 4e97 433d
00000320: 11b9 cc3d c1f9 e7bd 113a 1fbc e475 ce3b
00000330: 23bc 093c 208f d83d 7344 a4be f186 2cbe
00000340: 12c1 c13d 931d 693e 66d9 0f3e 31f4 3dbe
00000350: 0b9c 8f3e 284b d33e 652e 4d3d d919 e23d
00000360: afde 653d cfb9 98be acd7 e1bd 5bf9 c8bc
00000370: 8842 853d dcb4 853e 1828 16bf c2e5 0a3c
00000380: 3b47 e93d 9a9b d33d 9485 b0be 2198 7a3e
00000390: 5e14 25bd c3a3 9bbe 5b08 4dbe a6a0 2dbe
000003a0: 7d75 98bc 3999 cebc 1284 903c 03dc fb3d
000003b0: 0523 af3d 0104 463d 90ec 81be c841 f73e
000003c0: 21b3 c5bd d288 41bd 511a 653e de7d 30be
000003d0: fd2a cabd 0f61 013f 2d93 31bd 8749 23be
000003e0: 4c43 8ebe 5dab e43d c466 343d b715 bc3c
000003f0: 5b57 b13d 5111 a03d f796 5dbc c34e dd3d
-0.02197016 0.19230443 0.24728441 0.075196415 -0.053425018 0.01393843 0.03161676 -0.22476816
-0.4701576 0.1623521 0.0477756 -0.07002179 -0.0041761724 0.013702979 -0.006440368 0.023409568
-0.0031523278 -0.12776439 0.15142825 0.39373165 -0.13681906 -0.1489149 0.0849609 -0.28256935
-0.2171054 0.40612134 -0.3212635 -0.10343279 0.0077290847 0.038054757 0.01799004 -0.060589064
-0.06828536 -0.034480307 0.29784897 -0.09528477 -0.24462892 -0.12738606 0.35866788 0.28117028
0.16467506 0.11615803 0.35141867 0.09932316 -0.20060639 -0.015499026 0.03258985 0.016441084
0.21305442 0.124626145 -0.02943862 -0.07482441 -0.96156317 0.6547077 0.20248124 0.16807655
0.046030276 0.27837014 0.20694056 -0.35808244 -0.3704771 0.032304324 0.04266942 0.075375676
0.023109872 -0.031133024 0.053982552 -0.03481789 -0.077859096 -0.7289986 0.399157 0.26421854
-0.07830416 0.065124705 -0.030323742 0.12595999 -0.3360826 0.102676265 0.14903864 0.091289066
0.189009 0.117650226 -0.09140716 -0.082139924 0.059626337 0.023376968 0.9674189 0.18937026
-0.16019475 0.0040600044 0.27197343 0.15062897 0.033774726 0.19657691 0.07093055 -0.060705826
0.2086207 0.060707226 0.044828586 -0.114240594 -0.041762035 -0.035581447 -0.2633064 0.106377594
-0.116925664 0.019644735 -0.109588794 -0.2118338 -0.20734175 -0.74527776 -0.15975872 -0.18142234
0.02745001 0.03802372 0.028080093 0.028116416 -0.04233908 -0.015876567 -0.020220215 0.027858026
0.6399853 -0.24141073 -0.37309942 -0.14385495 0.16964544 -0.11567324 0.06147429 0.5980743
-0.26355454 0.15620375 -0.2759181 -0.08968895 -0.03303109 0.068461314 -0.014930987 -0.10808492
0.19132817 0.28102714 -0.53608096 -0.30211473 -0.17719829 0.12716678 0.0970012 0.046679303
0.4791581 -0.26757494 -0.14004494 0.023872694 0.07841831 -0.04043222 -0.030961474 0.012435325
0.0017481039 -0.1571263 0.18018304 -0.40088663 -0.24304743 0.24380833 -0.22986409 0.042756442
0.04881347 0.28689775 0.024718199 -0.0983942 0.1528591 0.015930846 -0.008035758 -0.02171057
-0.03203846 -0.005509731 0.17933905 0.12574774 -0.7197666 -0.39783272 0.003770093 -0.069463946
-0.42668575 0.016348567 0.69773823 -0.32836527 -0.088159464 0.076982155 -0.015082707 0.013798522
-0.0154999755 -0.041008685 0.0006098585 -0.035969455 0.25606838 0.1639876 -0.23634355 -0.16333355
-0.67207205 -0.22387551 -0.535577 -0.29037842 -0.2214903 0.14663148 0.07392393 0.047751717
0.09996236 -0.11326934 -0.009718434 0.0063006748 0.008406672 0.10574174 -0.32083473 -0.16848351
0.09460653 0.22765188 0.14047775 -0.18550183 0.2804874 0.41268277 0.050093073 0.11040086
0.05612057 -0.2982926 -0.11027464 -0.024532964 0.065068305 0.26114547 -0.5865493 0.00847763
0.11390539 0.10332413 -0.34476912 0.24472095 -0.040302627 -0.30398378 -0.20022719 -0.16955814
-0.01861071 -0.025219547 0.017641101 0.12297823 0.08551601 0.048343662 -0.25375795 0.48292375
-0.09653307 -0.047249623 0.2237332 -0.17235515 -0.098714806 0.50538725 -0.04335325 -0.15946017
-0.27785718 0.111654975 0.044043317 0.022959573 0.0865924 0.07815803 -0.013524762 0.10806038

critic.0.bias f4 [145]
00000000: d363 4fbd 9dfd 1dbe d1e7 3b3e a61e 2cbd
00000010: f4d7 24bd 2f8a 9dbd 37fa 57be accd d5bc
00000020: 24ac b03d f103 753c 916a 053e ebff 0bbe
00000030: 7d77 37bc cbb7 ae3d 16ee 3dbe 78f7 35bd
00000040: 286a 933d 2413 14be 34b9 503d d6b5 a6be
00000050: 2e87 d93d e686 c6bd c449 01bd 13de 74bd
00000060: 34b3 35be 957d 4a3c 1a5b a0be a9be 073e
00000070: 49c0 60bd 37e9 9c3b f4a8 533d a046 473e
00000080: 0044 1a3c 2373 ce3d 306d 84be e410 2abe
00000090: f31b 123d 9e33 093d 78b7 333d a1b9 71be
000000a0: 1d30 8b3e 833d 6ebc 5790 b4bc c23d 65bd
000000b0: ea8f 213e b878 04be add1 063d 5d57 a3be
000000c0: 824f 6f3c 967d 92be da41 853e cdf6 05bd
000000d0: d5a3 cdbd 7bfd c2bd b7d8 0cbe 4902 c7be
000000e0: a699 1e3d 8f18 a33d bb20 e7bd 240c f539
000000f0: 84fe 41be cc0d 1abe a07a 993e b5dc 3cbe
00000100: 007d 83bd 1118 ac3b 77dc 2cbe 47f0 ebbd
00000110: cf94 843d 3e7e 02bd 17ef 073e 5401 a13d
00000120: a1f3 a03e 9b49 c03d 514c ad3d 5047 93bd
00000130: 777c 97be e547 57bd c382 013a af38 d1be
00000140: f67a 4ebe 7161 373e b0f0 04be 0333 073e
00000150: 4213 53be 3ab3 e53d d48f 9f3c 9f1f 2f3e
00000160: e1c1 413e 9970 1bbc 7495 063e b0f6 923e
00000170: acab 10be 9589 b83d c54f 1d3c 4829 9d3e
00000180: 5783 b13e 5b59 29be f2c2 4dbe e5aa 383b
00000190: ff9b b53d 8817 41be 3ead b73b 5a7b 04be
000001a0: fc2b 673d d0e6 0bbe de37 643e a861 6b3d
000001b0: 9fd1 033e b95a acbe 43e0 223e 09c4 bdbe
000001c0: 51b9 4d3b 413d 89bd 6063 113e 9daa aa3d
000001d0: cbcf 1e3e fbbb 87be 0fcc 6f3e 17c3 c3bc
000001e0: c333 243e b768 943d 5ca7 24bd c888 a6bc
000001f0: 49d9 d7bc e92f 473e 94e5 ffbd 0f46 3ebd
00000200: e661 933d 76e1 8ebe 347e 46bc 26fb 343e
00000210: 89b4 153e 205f 8fbe ecbc ff3d e266 073e
00000220: df9e 1d3e 3e77 393d 240a 923e 4a3e 823e
00000230: ace7 943d 3be5 783d 8abe 89be ff2a 8b3d
00000240: e86f cfbd
-0.05063231 -0.15428777 0.1835015 -0.042021416 -0.04024501 -0.07692372 -0.21091543 -0.026099049
0.08626583 0.014954553 0.13028933 -0.13671844 -0.011197922 0.085311495 -0.18547854 -0.044425458
0.07197982 -0.14460427 0.050957873 -0.32560605 0.106214866 -0.096936986 -0.03156449 -0.0597821
-0.17744142 0.012359043 -0.31319505 0.13256325 -0.054870877 0.0047885436 0.051674798 0.19460535
0.0094156265 0.10080554 -0.25864553 -0.16608006 0.035671186 0.03349649 0.04387614 -0.23605968
0.27185145 -0.014541033 -0.022041483 -0.0559671 0.15777555 -0.12936676 0.032914806 -0.3190259
0.0146063585 -0.2861144 0.26026803 -0.03270607 -0.10041014 -0.09521004 -0.13754545 -0.3886893
0.03872075 0.079636686 -0.1128554 0.00046739087 -0.18944746 -0.15044326 0.29976368 -0.18443568
-0.06420326 0.0052518924 -0.16880976 -0.11520439 0.064736955 -0.031858675 0.132748 0.078615814
0.31435874 0.09389039 0.08461822 -0.07191336 -0.29587147 -0.0525588 0.00049404445 -0.4086356
-0.20164093 0.17908265 -0.1298244 0.13203053 -0.20612815 0.112158254 0.019477762 0.17101906
0.18921615 -0.009487295 0.1314295 0.28703833 -0.14127988 0.09010617 0.009601538 0.30695558
0.34670517 -0.16537993 -0.20093897 0.0028178033 0.088676445 -0.18856633 0.005605369 -0.1293768
0.05643843 -0.13662267 0.22286937 0.05746618 0.12872933 -0.33662966 0.15905862 -0.37063625
0.0031390975 -0.067011364 0.14198065 0.08333323 0.15508954 -0.26510605 0.23417686 -0.023896737
0.1603537 0.07246535 -0.04019867 -0.020328894 -0.026348727 0.1945187 -0.124949604 -0.04645353
0.07196407 -0.27906388 -0.01211505 0.1767393 0.1461965 -0.28002262 0.12487206 0.1322284
0.15392636 0.045279734 0.28523362 0.25438148 0.072707504 0.060765486 -0.26903182 0.0679531
-0.10128766

critic.2.weight f4 [290, 145]
00000000: 9eea 793e 5076 59be 17d1 5fbe c8f4 0b3e
00000010: 0600 c13d fd13 93be a4eb 4abc 92bb 91be
00000020: 0bb7 c5bd 6b9c 34be 13ba ecbe d8cb 49bd
00000030: 4c4f d7bd e824 4f3c cd3a 11be 0f16 80bd
00000040: 0152 26be a65e 5cbe bdaf b53d 379e babd
00000050: 3e06 fa3d d14f 94be 032a 983e 6107 5dbe
00000060: ffb2 11bd 0229 4c3e 2122 45be efd5 b9bd
00000070: 46f2 2abe bd4f 29be ea89 8d3e d00b db3d
00000080: dbd6 0c3e 14df 0abe 0d6b e7bc 50c8 bd3d
00000090: b429 adbe a8ca 9cbe 18c8 8d3b f950 2a3e
000000a0: b1b5 c63d 34fa 913e 5d1f 823e 00a8 853e
000000b0: 0b71 fcbd be95 81be f492 61be eae5 9fbd
000000c0: f984 933d 4fd2 0abe c935 aebd 965e 2b3e
000000d0: e7ce 83be a14c b5bd 7cff 393e 93a4 fabc
000000e0: ceeb 9b3e e267 813e fafd 33be ddbb 843e
000000f0: 0734 57bc f427 2cbd ec22 c7bc 631a babd
00000100: 00d0 163e 9ee4 7b3e 350d c6bd a5ca d93d
00000110: 752f bcbd 407c 943e 2680 4c3d 813a ddbd
00000120: 68e2 9e3d 899e 1dbe a099 35be 29d5 79be
00000130: 92a5 16bd b04c 54be a5ab 73be fc00 88bb
00000140: a2de b73d ad1a 963d 41bd 62bd 9e64 a8bd
00000150: 2212 e13d 2db3 b8bd d54b 5fbd 3221 513d
00000160: 4ead 82be f69d 2ebe bcb5 55be 11d3 f43c
00000170: b6f9 213e 4102 d7be 0cad da3d 5788 fe3d
00000180: 3994 4e3e a705 653e 7bf9 2f3d d1b0 2dbe
00000190: 5477 8bbc 78cb a3bb 6c0a 1f3e 67d8 f03d
000001a0: 07d7 113c d7dc 12bd 9811 22bb 2483 70be
000001b0: 664c 9ebd 0496 59bd b620 5c3e 196e e43c
000001c0: b49d debb a832 b5bd 2557 19be 746b 07be
000001d0: f68d adbd fa24 af3b 2bef e3bd 7fdf 873e
000001e0: fc58 893c a9cc 71be 5965 2f3e 45d6 063e
000001f0: b091 12be 8e91 8ebd 9760 713c 770a 353d
00000200: 6177 7cbe 81ba 563d d90d 4e3e fb15 82bd
00000210: 5643 4abe ed6d e7bd de3d f7bc fd1b 2dbe
00000220: 1195 273d 777d 14be 5570 d03d 1772 fabb
00000230: eaf7 2bbe cf03 c33d e61c 4b3d 591a 1a3d
00000240: 77a3 6c3e 6479 843e ca27 56be bdaf 32be
00000250: c9c4 313e f8cd c33c c4d3 86bd 6df7 0d3e
00000260: b151 33be 4f9e 58be 00ec 83be 0431 4fbe
00000270: ac12 79bd 4761 ca3c ea90 8d3d 4ecb 99be
00000280: 2ab0 60be 4edb 31be f3ce f6bd 3e66 97bd
00000290: af00 04bd fd06 1ebd 9c41 8fbe 122b 673d
000002a0: cf1a eebc c9f6 97bd f23d 6a3d da03 76bd
000002b0: 02ac 143d a570 9bbe 715b 5abe f7de 533e
000002c0: 2ded 163d c800 63bd c564 35bc 05e1 183e
000002d0: 3009 03be 668e 60be c945 1ebe bd4f 4c3d
000002e0: 9133 10be 7050 c3bd e48c bc3e 53d8 f13e
000002f0: 1723 5d3d 756c 2dbe 756f d6bd 6f60 11bd
00000300: ca46 463c b705 5e3e ac8c 943d 8d85 103d
00000310: 3903 643d bc8a 88be de32 2fbe bb66 af3d
00000320: d42c 73bd 53cd a93e 5ad6 9b3e 9a6d 0ebe
00000330: 5332 023e 342c 073d a332 17be 2d84 01bd
00000340: e52d 1cbe c7d8 d43d 2798 bd3e 5fd3 09bd
00000350: 6e06 4c3d e513 07be a493 703e ff0e 11be
00000360: 1cef cdbd fbe7 183d 9499 45bd 8fad 05bd
00000370: 3437 71be fb8c 1abe 7f34 83be 5597 07be
00000380: d66b 14bd 2dc4 eb3d 4b55 ea3b ebdd 1c3e
00000390: 2e55 e7bb 91d5 8f3d 3c53 5fbe 87b0 ebbd
000003a0: f5b7 653d f351 2b3c cbb7 ab3d 1db8 22be
000003b0: a10e 47be 9ef0 4f3d 87ff 8fbe 9b90 b63c
000003c0: a296 2c3e 9552 0bbd c440 0fbe 2900 7ebc
000003d0: aa14 ccbd 4870 09be f2b8 f0bd 83fd 84bd
000003e0: c52f 7b3e 7d21 23be 1d5a 3cbd a562 fa3c
000003f0: 6421 f3bd 765e 85be 2cb8 ea3d ee0b 703e
0.24405906 -0.21236539 -0.21857105 0.13667595 0.094238326 -0.28726187 -0.012385283 -0.28463417
-0.09654053 -0.17637794 -0.46235713 -0.049266666 -0.105131716 0.0126430765 -0.14182587 -0.06254207
-0.1624222 -0.2152048 0.0887141 -0.09112208 0.12208222 -0.28967145 0.29719552 -0.21584846
-0.035571095 0.19937518 -0.192513 -0.09074008 -0.16693982 -0.16534324 0.27644283 0.106956124
0.13753836 -0.1356166 -0.028249288 0.09266722 -0.3382088 -0.30623364 0.0043268315 0.16632451
0.09702624 0.28511202 0.25414553 0.26104736 -0.12326249 -0.25309557 -0.22028714 -0.078075245
0.07203097 -0.13556789 -0.085063525 0.167353 -0.2574379 -0.088525064 0.18163866 -0.030596053
0.30453342 0.2527457 -0.17577353 0.25924578 -0.013134963 -0.04203029 -0.024308644 -0.09087064
0.14727783 0.2459893 -0.09670488 0.106343545 -0.09188739 0.29001045 0.0499269 -0.10802174
0.07758027 -0.15392508 -0.17734385 -0.2439772 -0.036778994 -0.20732379 -0.23795946 -0.004150508
0.08978011 0.07329307 -0.055356268 -0.08222316 0.10989787 -0.0901855 -0.05451568 0.05105705
-0.25522846 -0.17052445 -0.20870107 0.0298858 0.15817913 -0.41993907 0.10677537 0.124283485
0.2017373 0.22365437 0.042962532 -0.16961981 -0.017024674 -0.0049986206 0.1553132 0.117600255
0.008901364 -0.03585514 -0.0024729725 -0.23487526 -0.077294156 -0.05312158 0.21496853 0.02788453
-0.006793702 -0.088475525 -0.14974649 -0.13224584 -0.084743425 0.005344984 -0.11129602 0.265377
0.016766064 -0.23613228 0.17128505 0.13167675 -0.14313388 -0.06961356 0.0147325015 0.044199433
-0.24654914 0.052423958 0.2012247 -0.06351849 -0.19752249 -0.113002636 -0.030180868 -0.16905208
0.040913645 -0.14500986 0.10177676 -0.007642995 -0.1679379 0.09522211 0.049588107 0.037622783
0.23109232 0.25873864 -0.20913616 -0.17449851 0.17360224 0.023901924 -0.0658336 0.13863917
-0.17511632 -0.2115414 -0.2576599 -0.20233542 -0.060808823 0.024704589 0.06912406 -0.30037922
-0.21942201 -0.17368814 -0.12051191 -0.07392548 -0.032227214 -0.038580883 -0.27979743 0.05643756
-0.029065518 -0.074201174 0.057187982 -0.060062267 0.036296852 -0.30359378 -0.21323945 0.20690523
0.036847282 -0.055420667 -0.011071389 0.14929588 -0.12796474 -0.2192932 -0.15456308 0.04988073
-0.14082171 -0.095368266 0.3682624 0.47235355 0.053988542 -0.16935904 -0.104704775 -0.035492357
0.012101838 0.21681868 0.072533935 0.035283614 0.055667136 -0.26668346 -0.17109248 0.08564516
-0.059368923 0.33164462 0.30436975 -0.13908997 0.1271451 0.03300114 -0.1476541 -0.031620193
-0.15251882 0.103929095 0.37030146 -0.033648845 0.04981082 -0.13191183 0.2349382 -0.14165877
-0.10055372 0.03733061 -0.048242167 -0.03263622 -0.23556215 -0.15092842 -0.2562599 -0.13241322
-0.036235653 0.11512027 0.007151281 0.1531903 -0.0070597148 0.070231564 -0.21809095 -0.11508279
0.05608364 0.01045655 0.08384665 -0.15890546 -0.19439174 0.05076658 -0.2812464 0.02228575
0.16854337 -0.034014303 -0.1398955 -0.015502968 -0.09964879 -0.13421738 -0.117540255 -0.06493666
0.24529941 -0.15930744 -0.045984376 0.030564616 -0.11871603 -0.2604863 0.11460909 0.23442051

critic.2.bias f4 [290]
00000000: bc4b 89bd 9388 84bd 0437 0fbd 9d8b 183e
00000010: 2c5d 19bd 0bd1 1d3e 082a ce3d bc2e 983d
00000020: efa8 03be ed2a b43d 0df9 96bd ec75 67bd
00000030: fe8c 0c3e b95a 863d ccbc d43c 790f a8bb
00000040: 5d41 a0bd 7730 f2bb 5792 ee3c e0c0 333e
00000050: 33b5 b1bd 4698 6bbd 33d7 c0bd fad9 0f3d
00000060: 12d7 bebd bdb1 5dbd fcae e23d 15dd cd3d
00000070: 4f5a 89bd 4527 843d fadc 023e 938d e9bc
00000080: 37dc c33d d04a d0bd b451 5fbd 30c2 cbbd
00000090: 3870 f63d b1c1 d3bd 89f6 163e 04fa 393d
000000a0: 3103 153e 9c64 0ebc 8047 6f3d 0dd9 1d3e
000000b0: f53e 0f3e 0c57 cc3d 9c58 db3d a1ce 06be
000000c0: ab5a a7bd ebb0 b6bd 2764 6ebd 6e98 d93c
000000d0: 0f75 76bd 651a e03d 9bcc 6d3e f0b4 d03d
000000e0: 4a76 503d fb61 9dbd 3e84 0ebe f46c 223e
000000f0: 1c23 f8bd 88c0 913c d338 af3d 75a1 293d
00000100: a7a5 153d 6168 16bd 487b bdbd 3889 d73d
00000110: 869e 293e e4a0 e8bb 6db8 073e a50d c6bc
00000120: 8730 0e3e 4013 ee3d 9be6 e7bd e3ff ca3d
00000130: 3e38 403d 88ef 22bd 3927 1e3d c3eb 9fbd
00000140: 3a69 cbbd 30d6 b6bd 65a1 833d 718a 9bbd
00000150: 8ee2 c83d 1dc8 d0bd 0c80 663d b8c5 1e3d
00000160: eea7 c1bd 3714 e63d 2a62 103e 3aa8 a13d
00000170: 7bd8 803d 0cad 653d d390 c83d 512e 453d
00000180: 99d0 143d 5468 08be a8f0 253e 308f 22be
00000190: 37f3 b5bd f8a8 bebd ecae f73d e133 f23d
000001a0: 7b59 5dbd e58a 0b3e 58a3 0e3e 268e 823d
000001b0: ad7a 403d 9213 2e3d 8e07 1b3e 6da3 b3bd
000001c0: 662a 97bd 9aa4 9a3d da96 febd 2fa7 1a3e
000001d0: 8994 293e f488 08be f1ef 183e f7c0 9e3e
000001e0: d039 a2bd b041 edbd 19a4 bb3d ea30 5bbe
000001f0: e77d 893d e9b5 b2bd 373a b9bd 22c6 d9bd
00000200: 86db e4bc 3f2d 2c3d bc62 083e 6f9a fc3d
00000210: 42d9 8c3b 52f5 f93d bbbd 38bd 89ea babd
00000220: ce8f 223e 91b0 b53c 9a39 b6bc ff50 b63d
00000230: c7bf 18be 84d8 0d3c 62e9 883c c2a2 cc3d
00000240: 4a07 d73b 004e 96bd 4927 b73d 0eb9 e9bd
00000250: 4b8a 40bd a117 acbd beb4 febd 178a 66bd
00000260: 8c92 e0bc 87b2 f03c 3247 2e3e 5625 1ebd
00000270: b3bd 8dbc 43d8 9b3d 3876 fc3d f371 e1bd
00000280: a5cf c9bd ffad c1bd 24bb 7c3d a27c ce3d
00000290: 64d0 633d 4db5 543d 8c92 cc3d 2576 613d
000002a0: acad cdbd 2e55 90bd c381 8bbd caba 003e
000002b0: c413 df3d e6ff d43d cfca c5bd a524 0abe
000002c0: 3eb4 dc3d 28b9 9b3d 0688 c33d d2dd 4ebc
000002d0: 8076 9d3d 90ac ecbd 04e0 f53d afd3 65bd
000002e0: a6bd aebd 004e 6ebd e3fa b8bd 38d2 00be
000002f0: dcc6 d83d 7ada 96bd 60f8 fbbd ed26 3abd
00000300: 013a 293c c468 dc3d 1713 9e3c c066 08be
00000310: b258 93bd 526a 1cbe e704 96bc 18d9 6a3d
00000320: 5a0e a1bd 7a48 003e 54c0 0fbe 8e3b 74bd
00000330: e25c 52bd 22b8 14be f69c 09be f625 d63d
00000340: ac5c ecbc bde1 343d 8202 86bd 794f d8bd
00000350: b4ba e7bd ad19 dd3c 0673 463d 2e98 0cbe
00000360: 6300 b7bd 510a 15be 9d33 e23d 995f a1bd
00000370: 992e d7bd 4581 d1bc c0d1 b2bd c964 4c3d
00000380: 4043 8d3d e837 35be 069e 973c 23fa 03be
00000390: 6ad5 93bd 8bb1 1e3d f433 dc3d 2337 91bd
000003a0: eb33 0abd 6327 943d 33f1 00be aefb 023e
000003b0: d4c4 d03d da4c ab3d 3c70 31bd 9ae1 c5bd
000003c0: 124d c8bd ad0f 833d fe1e 0d3e fb4d f43d
000003d0: c31d be3d 50c3 2abd 06dd 90bc 4b49 923d
000003e0: debe bbbc 4e15 33bd a58b ecbd d95d 8dbd
000003f0: 2163 943d 4aef b23d 2a58 7c3d 8d86 e5bc
-0.06703898 -0.06471362 -0.034964576 0.14897008 -0.03744237 0.15411775 0.100666106 0.07430789
-0.12857412 0.0879725 -0.073717214 -0.056508943 0.13725659 0.06560273 0.025968932 -0.0051287976
-0.07824967 -0.0073910314 0.029122515 0.17554045 -0.08677139 -0.057518266 -0.09416046 0.035119988
-0.09318365 -0.054124583 0.11068532 0.10051934 -0.06706678 0.064528026 0.12779608 -0.02850989
0.09563487 -0.10170519 -0.054521278 -0.09949148 0.12033123 -0.10339678 0.14742483 0.04540445
0.14551999 -0.008690979 0.058417797 0.1541483 0.1398886 0.099775404 0.1071026 -0.1316476
-0.081715904 -0.08920463 -0.05820098 0.026561942 -0.06017023 0.10942534 0.23222582 0.10190761
0.05089406 -0.07684704 -0.13917634 0.15861875 -0.121160716 0.017792001 0.0855576 0.041413743
0.03653493 -0.036720637 -0.0925203 0.10524219 0.16564378 -0.007099258 0.13253947 -0.024176428
0.13885699 0.116247654 -0.113232814 0.09912088 0.046928637 -0.039779216 0.038611624 -0.0780864
-0.0993218 -0.08927572 0.06427268 -0.07594765 0.09808837 -0.101944186 0.05627446 0.038762778
-0.09455858 0.112343244 0.14099947 0.07893415 0.062912904 0.056073233 0.09793248 0.048139874
0.036331747 -0.13321048 0.16205084 -0.15874934 -0.0888428 -0.09309572 0.120939106 0.11826301
-0.054040413 0.13627203 0.13929498 0.06374769 0.046991993 0.042499132 0.151396 -0.08771405
-0.07381134 0.075509265 -0.124311164 0.15102838 0.16560568 -0.13333493 0.1493528 0.31006595
-0.07921183 -0.115847945 0.091621585 -0.21405378 0.06713467 -0.08726103 -0.09044307 -0.10633494
-0.027936708 0.042035338 0.13318914 0.12334143 0.00429836 0.12204994 -0.045102816 -0.09126765
0.1587517 0.02217892 -0.022244263 0.089021675 -0.14916907 0.008657578 0.016712848 0.09991981
0.006562148 -0.07339096 0.0894304 -0.114122495 -0.047006886 -0.08402944 -0.124368176 -0.056284036
-0.027413629 0.029382003 0.17019346 -0.038609825 -0.01730237 0.07609608 0.12327236 -0.11008062
-0.09854058 -0.09457015 0.06170191 0.100823656 0.05561866 0.051930714 0.09988889 0.055044312
-0.10042891 -0.07047497 -0.068118595 0.12571254 0.10892442 0.10400371 -0.09657823 -0.13490541
0.10776566 0.07603675 0.09547429 -0.012626128 0.07688618 -0.11556351 0.12005618 -0.05611008
-0.08532266 -0.058179855 -0.09032228 -0.12580192 0.105848044 -0.0736589 -0.12303233 -0.04544728
0.010328771 0.1076217 0.019296212 -0.13320446 -0.07194652 -0.15274933 -0.018312884 0.057335943
-0.078640655 0.12527648 -0.14038211 -0.05962711 -0.05135811 -0.14523366 -0.13438782 0.10456459
-0.028852783 0.044160593 -0.06543447 -0.10562033 -0.11314908 0.026989782 0.04844954 -0.13729927
-0.08935621 -0.14554717 0.11045001 -0.07879562 -0.10506935 -0.025574336 -0.08731413 0.049900804
0.068975925 -0.17697108 0.018507969 -0.12888388 -0.0721844 0.038743537 0.10752097 -0.070905946
-0.03374092 0.07234075 -0.1259201 0.1279132 0.10193792 0.08364268 -0.043319926 -0.09662171
-0.09780325 0.06399474 0.13781354 0.11928936 0.0928302 -0.04169017 -0.017683517 0.07142886
-0.022918161 -0.04372149 -0.115500726 -0.06902666 0.0724547 0.08737047 0.061607517 -0.02801826

critic.4.weight f4 [1, 290]
00000000: b848 72bf 3502 73bf dee8 81bf a34a b43f
00000010: 4b60 7ebf 2403 bc3f 6443 623f 33dd 733f
00000020: da3b b5bf a82c 803f e397 9e3f 3435 86bf
00000030: 1e9b bc3f 191e 753f 5650 7e3f e668 7fbf
00000040: 8c6d acbf fbd7 81bf 8fc0 823f e2df c23f
00000050: 66e1 6ebf 63f6 88bf 1eab c0bf 87f8 96bf
00000060: 17e4 72bf 6b15 8abf e07f be3f 1ed8 c03f
00000070: 93c1 69bf 5734 753f 6974 ba3f ee6f 73bf
00000080: 2570 703f 36da b2bf badb 64bf 10f5 77bf
00000090: 949d ac3f 662f c7bf 81a8 b93f 254b 823f
000000a0: a7fe c03f f1ef 83bf 0188 853f 16e9 c83f
000000b0: 10c0 b23f 09b2 bfbf 52a7 ba3f d6ae b2bf
000000c0: c589 9a3f 7a18 8abf 8bbb 6ebf 3bf0 8bbf
000000d0: da27 6cbf 99e3 6e3f 082e e8bf 7081 c33f
000000e0: 4869 91bf 23e0 6abf 488b d4bf b294 c53f
000000f0: f3ae b9bf 74ba 733f c41d 743f 1656 743f
00000100: c136 b53f dbd4 79bf 3f04 bfbf ff9e ba3f
00000110: c796 c43f 88a5 86bf d1e1 b13f e71b 85bf
00000120: 63fa b83f 9478 b13f 83f0 67bf 8ae3 ac3f
00000130: f352 6d3f 659d 6bbf ac1e 8ebf 9f22 80bf
00000140: 4772 b2bf 4042 8cbf 9e4e 6e3f 03ea 7abf
00000150: 2ae4 c63f d2bc b8bf cba6 95bf da0c 6d3f
00000160: 83d9 70bf a4f0 653f d286 bb3f 8ed2 7d3f
00000170: 3ac5 7d3f 8232 633f b135 ae3f 5fd9 823f
00000180: f60f 753f c782 c9bf 982d bf3f 55dd bcbf
00000190: 58e6 87bf 73f2 72bf 27a2 c53f 40e4 673f
000001a0: d716 85bf 020d c3bf 8305 c43f 40bd 763f
000001b0: db47 733f 460c 7c3f 0b82 c2bf 693f 7ebf
000001c0: 63af afbf befa cabf b971 b7bf 4ddd bc3f
000001d0: 46e6 b53f 3275 b2bf 758e c03f f4b2 e1bf
000001e0: 02f9 64bf 82bb a3bf 67ab 91bf 8cd9 c0bf
000001f0: ba43 a1bf 6ccd b1bf 3caa 75bf 037a afbf
00000200: 2497 7fbf f8f5 8d3f 8a18 ba3f 5f3f bc3f
00000210: e518 a33f 0bb4 bb3f 8784 84bf 4ddf 80bf
00000220: d24f b43f 7380 7dbf 041f 7bbf 41ac cb3f
00000230: c857 bfbf 91ae 973f 1ba0 873f 1885 c03f
00000240: dce2 7b3f b5c1 77bf 7b07 883f 41fe b3bf
00000250: 9df9 88bf 1373 72bf 412e 71bf 320d 74bf
00000260: ea2e 8abf 7f1b 843f 90df bb3f 395b 77bf
00000270: 810b 7fbf 257b 6f3f 1b5d af3f 09cd bfbf
00000280: afca 73bf 3abb b13f e2c1 7c3f 08e0 b8bf
00000290: 7a91 803f 47f3 8b3f fdd8 ab3f 77c9 7f3f
000002a0: 7e2c c2bf 8219 82bf ee66 72bf 27d4 c23f
000002b0: 4722 bb3f 870f 6d3f 5f5c be3f 13ce babf
000002c0: 65c0 733f 05c5 743f 30b5 763f 0b44 8e3f
000002d0: 95b6 6e3f 7b91 bdbf c8ea a8bf 318f 71bf
000002e0: 9470 67bf dd6a 973f dc25 80bf 5574 c2bf
000002f0: fd77 bf3f 5b4b 73bf 964b c3bf a887 80bf
00000300: f358 82bf 5f78 ca3f d267 933f c120 cabf
00000310: cc26 73bf 9571 c6bf 2f15 d53f 5292 733f
00000320: fcab 87bf ba83 b33f e9c6 bfbf f5d2 b23f
00000330: c707 87bf e50d b1bf b10c b9bf 5e4d d03f
00000340: b4ac a93f 15d9 703f 64cb 73bf 8e49 c4bf
00000350: 4675 bdbf e608 813f d323 793f 478e b8bf
00000360: 1475 82bf 52d7 bdbf 68d9 793f 8e25 72bf
00000370: 85bb 81bf 9d7a 72bf 962a bdbf b31b 8abf
00000380: 8ef0 733f a436 bfbf 24cd a1bf 0315 c0bf
00000390: a8a4 71bf 9cc8 7c3f 81f0 743f 31e8 6ebf
000003a0: 3d13 893f 83f5 733f faff adbf b247 bf3f
000003b0: c88d c13f d857 7c3f c7f3 d7bf 7816 8d3f
000003c0: cd20 7dbf 57d6 683f 492d c23f a8ad b63f
000003d0: cdf1 6f3f f1ae 72bf 4d0a 94bf 734b 713f
000003e0: 55dc 8fbf 35e2 72bf 53cb bbbf 5cfc c63f
000003f0: d947 7a3f 21ca 843f bf4b 6d3f 0895 86bf
-0.9464221 -0.9492524 -1.014919 1.4085277 -0.9936568 1.4688458 0.8838408 0.952594
-1.415889 1.0013628 1.2390102 -1.0484986 1.4734838 0.9574905 0.9934133 -0.9976944
-1.3470931 -1.0144037 1.0215014 1.5224574 -0.9331268 -1.0700191 -1.5052221 -1.1794595
-0.9487929 -1.0787786 1.4882774 1.5065954 -0.91310996 0.9578299 1.4566776 -0.95092666
0.9392112 -1.3972843 -0.89397776 -0.9685831 1.3485589 -1.556134 1.4504548 1.0179182
1.5077714 -1.0307599 1.043213 1.5696132 1.3964863 -1.4976207 1.4582312 -1.3959606
1.2073294 -1.078872 -0.9325492 -1.0932688 -0.9224831 0.93316036 -1.8139048 1.5273876
-1.1360254 -0.91748255 -1.6605005 1.5436003 -1.4506515 0.9520638 0.9535792 0.95443857
1.4157335 -0.97590417 -1.4923171 1.4579772 1.5358514 -1.0519266 1.3897039 -1.039914
1.4451412 1.3864923 -0.90601367 1.350694 0.92704695 -0.9203704 -1.110311 -1.0010566
-1.3941125 -1.0957718 0.9308871 -0.98013324 1.553838 -1.4432623 -1.1691526 0.92597735
-0.94081897 0.89820313 1.4650519 0.99149406 0.9912907 0.88748944 1.3610135 1.0222586
0.9572748 -1.5743035 1.4935789 -1.4755045 -1.061717 -0.949012 1.544011 0.90582657
-1.0397595 -1.5238345 1.5314182 0.9638252 0.9503152 0.9845623 -1.5195936 -0.99315506
-1.3725399 -1.585777 -1.433158 1.4755036 1.4210899 -1.3942015 1.5043474 -1.7632737
-0.89442456 -1.2791598 -1.1380433 -1.506639 -1.2598794 -1.3890815 -0.9596288 -1.370911
-0.9984 1.1090689 1.4538739 1.4706839 1.2741972 1.466432 -1.0352944 -1.0068146
1.4086859 -0.9902412 -0.980942 1.5911943 -1.4948664 1.1850148 1.0595735 1.5040617
0.98393035 -0.9677995 1.0627283 -1.4061967 -1.0701176 -0.9470684 -0.942112 -0.95332634
-1.0795567 1.0320891 1.4677601 -0.9662357 -0.9962693 0.9354728 1.3700289 -1.4984447
-0.95231146 1.3885262 0.9873334 -1.4443369 1.0044396 1.0933617 1.3425595 0.99916786
-1.5169828 -1.0164034 -0.9468831 1.5220994 1.4619836 0.9260182 1.487194 -1.4594139
0.95215446 0.9561313 0.9637022 1.1114515 0.9324735 -1.4810022 -1.319665 -0.9435912
-0.90406156 1.1829487 -1.0011554 -1.5191752 1.4958493 -0.9503686 -1.5257442 -1.0041399
-1.0183395 1.5817984 1.1516058 -1.5791246 -0.94981074 -1.5503412 1.664709 0.9514514
-1.059936 1.4024575 -1.4982578 1.3970629 -1.0549248 -1.3832365 -1.4456998 1.627361
1.325583 0.9408124 -0.95232224 -1.5334947 -1.4801414 1.008084 0.9732029 -1.441842
-1.019198 -1.4831336 0.9759736 -0.94588554 -1.0135351 -0.94718343 -1.4778621 -1.0789703
0.9528893 -1.493855 -1.2640729 -1.5006412 -0.9439187 0.98743606 0.9567948 -0.93323046
1.0708996 0.95296496 -1.3593743 1.4943755 1.5121393 0.9857154 -1.687127 1.1022482
-0.98878175 0.90952057 1.517007 1.4271746 0.93728334 -0.9479819 -1.1565644 0.9425575
-1.1239115 -0.94876415 -1.4671425 1.5545764 0.9776588 1.0374185 0.92693704 -1.0514231

actor_mean.0.weight f4 [145, 17]
00000000: 1fe3 703e 8038 1e3d c791 163e 557b dcbd
00000010: 1e39 873e 96e5 4dbe 72c0 943d 61d7 afbc
00000020: 16c7 be3d 835a 03bc 7dd8 7bbe e81e c2bd
00000030: a0fa 6ebc 018a 19bc 92d5 b73c dd00 883d
00000040: 39a9 5c3d a18a 09be 18ca a13e 42e3 1fbd
00000050: b688 b03d 38ca 5ebe cef7 183e b733 41bd
00000060: 9418 85be 299d fc3b ba1c 263e dce5 a43d
00000070: 36bf 83bd 6d90 8cbc d83c 5e3c a2c4 5f3d
00000080: 3a7d a3bb ca64 2bbd 7285 a8bd 491f 1fbe
00000090: 7593 03be 371b 50bd 48dd 75bd cc19 00be
000000a0: 1548 fe3d 68c8 e1bc 7d2e 313d bf0b 84bd
000000b0: ae19 5fbe 46f2 0a3e b4fd d3bc 6a6d ac3c
000000c0: 4ded aa3d 26fe 883e adec 013e 9c1c 06be
000000d0: 72e1 953e f86a 3e3e ebb4 8b3d 5014 8fbe
000000e0: 29e9 c93d 4a51 1cbe b068 ffbe 01a4 473e
000000f0: 40d6 9fbd 77ad e33d 48d7 b4bd 3e34 ecbd
00000100: 75c2 cbbc 2f7c 08be 1d8f f4bd dadd 183c
00000110: 47e2 f23d 3b0b 7e3c f87f c4bc 6e92 42b8
00000120: cd59 8b3e 865f 69bd 23dd c8bc 2b3f 523e
00000130: e58f de3d da7b 643d c0bb 1b3e 8ef1 873c
00000140: 28ac c0bc beaf bfbc 53ee 0bbe 359c a2bd
00000150: 3d36 d0bd f303 cb3d e218 c8bd 7d7c 383d
00000160: 595f 5ebd b2bb ffbc f13c 42bd b8f0 e8bb
00000170: 3f87 89bd 25ec 5a3e 4f18 5fbe e06d 83bd
00000180: bb80 95be eafe 2a3e b44e 3ebd fc1c 883d
00000190: 4e95 953c 12dc 9f3d fcf8 7e3c 25d1 573e
000001a0: 5fe0 713d cf75 5f3e 3407 c3bc 71a3 1e3e
000001b0: 36e5 0cbd ba60 8bbd e467 08be eda7 dd3b
000001c0: 6dcc ed3c ec0e 1cbd 2f87 5fbc 3d40 883b
000001d0: 40a2 23be b261 a6bc 3a9b fbbd d191 f73d
000001e0: ec2a 823a da30 123c 2fd7 c5bd 36df 4dbe
000001f0: ea69 5f3e 2ef9 15be 4e16 d33d 9270 fc3d
00000200: 151f e23d 90c4 d9bd ae9e 113e 2c5c 12be
00000210: 62d1 ed3d 4c32 b6bd d712 0a3e ceaf f03d
00000220: a8d0 313e b53e 91be 9adf 223e 83eb d2bd
00000230: 99bd 2e3d c9e9 653d 3ef9 87bd 1035 8a3d
00000240: bfb3 48bd f6fc 3b3e dcb0 3c3e 422f 35be
00000250: 1344 df3d a5ab b73d 4bca c23c 045a 0abd
00000260: b305 b03d c942 c7bc 0518 f33d 38e5 043e
00000270: 56e1 df39 1789 77bd be0e b6bd 346b e53d
00000280: 8246 14bd 5522 b13d fbf8 d63d 0991 063d
00000290: cfbe babe 9725 10be c00a 623e 5817 adbd
000002a0: 1e19 8c3d a724 ee3d fd4c 46be 3074 8dbe
000002b0: 66a2 b23d 7b1a 493d 0e61 d43d e450 503d
000002c0: 86ba 4cbe 8489 703d 385a efbd a27d 3dbe
000002d0: 86e4 2cbd ddc6 1c3e f221 0abe 3abb 0bbe
000002e0: c7f9 9cbd e279 c63d 2267 273e e643 f03d
000002f0: b2b1 93bd e274 483d 57dc 28bd 2fbd 7c3d
00000300: 6cdf a1bd 7738 3bbc 9157 22bd 47db 643d
00000310: 37fb 183d 1f3d 993d f99d 923c 6e83 b4bd
00000320: 5bbc 09be aea3 d93c ee87 903d c6c9 fe3d
00000330: 6716 99bd 2909 973e 3e02 4fbd 9906 83bb
00000340: d80b 123d 1050 afbd 87bc df3d 2109 8fbe
00000350: 8d5c e1bd a895 babd ef0f efbb 2213 a4bd
00000360: 68f8 5b3d de69 503d 9e26 263d 72fd 71be
00000370: d74c ae3c 5def 783e 8f5a 9d3a b898 a63e
00000380: 22ef 29be d0dd 153e 0099 5c3d e345 c63d
00000390: 3130 983d 7e60 ae3d 8f7c 543e 5cfe 89be
000003a0: e00a cbbd fea3 71bc 097b 83bc 690d f63d
000003b0: 5961 343d 2011 6e3d 44fd 9abd d32c 59be
000003c0: 87a2 743e 89b1 6abd af08 4cbe b6eb 273d
000003d0: c436 3bbd 1330 383d ea70 41be f647 5bbe
000003e0: 2b0c e23d e712 0c3e 08a8 1e3e 4b60 d03d
000003f0: 33bc f4bb fcca 733c 5b95 fe3d 1c44 33be
0.2352414 0.0386281 0.14704047 -0.10765711 0.26410764 -0.20107111 0.072632685 -0.021465005
0.093153164 -0.008017185 -0.24594302 -0.09478551 -0.014586121 -0.009371282 0.022440705 0.0664079
0.05387232 -0.13431789 0.31599498 -0.03903509 0.086198255 -0.21756828 0.1493828 -0.04716846
-0.25995314 0.0077091646 0.16221896 0.08051655 -0.06432955 -0.017158711 0.013564311 0.054630883
-0.0049892934 -0.041844167 -0.08228578 -0.15539278 -0.12849219 -0.050807204 -0.060025483 -0.1250984
0.12416092 -0.027561381 0.043257225 -0.06447553 -0.2178714 0.13568982 -0.025877811 0.021048266
0.08346043 0.267564 0.12687941 -0.13096851 0.29273564 0.18595493 0.06821617 -0.27945185
0.09858925 -0.15265384 -0.49884558 0.19496156 -0.07804537 0.1111707 -0.08830124 -0.11533402
-0.024872998 -0.13328622 -0.11941359 0.009330237 0.11859565 0.015505607 -0.023986802 -4.6389578e-05
0.2721695 -0.056975864 -0.024519509 0.20531909 0.108672895 0.055782177 0.1520834 0.016594674
-0.02351959 -0.02339923 -0.13665132 -0.079399504 -0.10166595 0.09912863 -0.09770371 0.045040596
-0.05429015 -0.03121743 -0.0474214 -0.007108774 -0.06715249 0.21379144 -0.21786617 -0.06417441
-0.29199776 0.16698804 -0.046461776 0.06646153 0.01825967 0.07805647 0.015562292 0.21075876
0.059051868 0.21822284 -0.023807146 0.15492035 -0.03439828 -0.068055585 -0.13320881 0.006764403
0.029028142 -0.038100168 -0.01364307 0.0041580484 -0.15979862 -0.020310257 -0.122854665 0.12088359
0.0009931005 0.00892278 -0.09660184 -0.2010468 0.21817747 -0.14645836 0.10306989 0.123261586
0.11041085 -0.106331944 0.14220688 -0.14292973 0.11612202 -0.08896312 0.1348375 0.11752282
0.17364752 -0.28368154 0.1590561 -0.102988265 0.042661283 0.056131158 -0.06639336 0.06748402
-0.048999544 0.18358216 0.18426841 -0.17693809 0.10901656 0.089682855 0.023778101 -0.03377725
0.08594837 -0.024323838 0.11869816 0.12978065 0.00042701763 -0.060433473 -0.088895306 0.11202088
-0.036200054 0.086491264 0.10496708 0.03285316 -0.364737 -0.1407684 0.22074413 -0.08451718
0.06840728 0.11628085 -0.19365306 -0.27627707 0.08722381 0.04909752 0.10370074 0.050858393
-0.19993028 0.058724895 -0.1168713 -0.18504956 -0.042210124 0.15310235 -0.13489512 -0.1364564
-0.07664829 0.09691216 0.16347936 0.117317006 -0.07211627 0.048939593 -0.041225757 0.061703857
-0.079039425 -0.0114270365 -0.03963429 0.05587318 0.037348952 0.07482361 0.017897593 -0.08814131
-0.13450758 0.026567306 0.070571765 0.12440829 -0.07474976 0.29499176 -0.050539248 -0.0039985892
0.035655826 -0.085601926 0.109246306 -0.27936652 -0.11003981 -0.09110576 -0.0072956006 -0.08011462
0.053703696 0.050882213 0.040564172 -0.23631838 0.021276874 0.2431006 0.0012005138 0.3253839
-0.16595128 0.14635396 0.05385685 0.096812986 0.07431067 0.08514498 0.2075064 -0.26951873
-0.099141836 -0.014748571 -0.016049879 0.120142765 0.04403815 0.0581218 -0.07567838 -0.21208505
0.23890124 -0.057298217 -0.19925188 0.040996276 -0.045706525 0.044967722 -0.1889073 -0.2141417
0.11037477 0.13679086 0.15493786 0.101746164 -0.007468724 0.014879938 0.12430831 -0.1750645

actor_mean.0.bias f4 [145]
00000000: ef93 843d 931f 5abc 4d83 24bd dede 2cbd
00000010: 8fbb 283d e293 983c 8f50 863b 2619 bebc
00000020: bc07 3ebc dadf cdbb 3fb8 45bd bacc 263d
00000030: 9007 273c fcda e33d ac58 91bd 6a2f 7fbd
00000040: 059f 4c3d db15 183d aa4b 393d 9c39 e3bc
00000050: 3c56 e6bd a523 debd 196f 09bd b16a 88bb
00000060: a2d7 b43c 259a 023d ccbc 593d c109 253d
00000070: c3d1 d6bc e9c0 a2bd 8906 5bbd 5445 b03d
00000080: 5e68 d8bc be04 043d b2a4 85bd 4169 2abc
00000090: e0a3 953d 9ae2 c03d 360a 9cbc 71c9 e73c
000000a0: b623 863d 9ec6 b8bd cdb2 773d 8f49 19bc
000000b0: a713 0bbd 06a9 96bc c0fe 8c3c a795 b23d
000000c0: d064 65bd e19e 11be 5060 08bb 3227 bd3d
000000d0: 9507 253d 39cd b43d aa92 853c d1e5 3e3d
000000e0: e24a bd3d 72b4 e6bd 1e67 893d 7b8e 86bc
000000f0: d939 e13b 38e0 003e fa30 803c 422e 7a3d
00000100: cceb 5b3d 0823 123d a8bb 39bb 445a 983d
00000110: 7595 de3b 0c3f aa3d fe60 86bd 047b f7bd
00000120: efcb 1cbc 0b79 d3bc acce 76bd 3de5 623c
00000130: bd86 c0bb c96a abbc 0235 453d 3376 783d
00000140: c7a5 e9bb 6e37 3a3d 5011 bd3d bb08 4fbc
00000150: 6e26 fd3c 397e 2dbd 8454 753c d42c 483b
00000160: 5e7a 02be c206 543c f18d 09bd ef96 083d
00000170: 9a0b 5d3c e30e d63a 959b fdbd 8ece 0b3c
00000180: 6183 98bd e26a d0bd 3680 08bd 6299 203c
00000190: 1f11 0fbc bf8d c73d dcf3 a2bc f693 a0bc
000001a0: de83 0b3c e40b 5cbd 4bc0 3bbd 1a51 edbd
000001b0: 5766 96bc 3ddf ea39 59b8 d63d 4795 fbbc
000001c0: 91e5 22bd e79b bc3d 37c5 693b 9381 a63d
000001d0: e1d9 903d b662 b7bd 2664 16bd e86c debc
000001e0: 4298 00bd e010 27be 94e2 a53d eea1 2fbd
000001f0: a534 803c 38cd 993b dc82 1d3c b6f0 9cbd
00000200: edae dbbd 5522 f03b c424 39bd bb90 c93c
00000210: eb52 fe3c 836f babd 1f9e bd3c 916d bdbd
00000220: f95f c63d fe5f a5bd 1687 543c 74c8 65bd
00000230: 260d cb3c 90bd b63d a7cf dc3b 52d9 a8bc
00000240: 3aa1 c0bb
0.064735286 -0.013313192 -0.04016428 -0.04220473 0.041194495 0.018625204 0.004098959 -0.023205351
-0.011598524 -0.0062827887 -0.048271414 0.040722586 0.010194674 0.11125752 -0.07096991 -0.062301077
0.04995634 0.037130218 0.045238174 -0.027737431 -0.11246917 -0.108466424 -0.033553217 -0.004163109
0.022075478 0.031885285 0.053158566 0.040292505 -0.026223069 -0.07946951 -0.05347303 0.08606973
-0.026416954 0.032231085 -0.06525554 -0.010401071 0.07306647 0.09418221 -0.019047838 0.028294297
0.0654978 -0.09022258 0.060473252 -0.009355917 -0.03395429 -0.018391144 0.017211318 0.0871995
-0.056004345 -0.14220764 -0.002080936 0.092359915 0.040290434 0.088282056 0.016305286 0.04660589
0.092427984 -0.11264886 0.06709121 -0.016425362 0.006873351 0.12585533 0.015648354 0.06107927
0.05369167 0.03567794 -0.0028340612 0.07439092 0.006792719 0.083128065 -0.065614685 -0.1208401
-0.009570106 -0.025814554 -0.06025569 0.0138486 -0.005875437 -0.020924943 0.048146255 0.0606596
-0.007130358 0.045463018 0.09231818 -0.012636359 0.030902114 -0.042356703 0.014973763 0.0030544298
-0.12741992 0.012941064 -0.03358263 0.033347066 0.013491536 0.0016331341 -0.123831905 0.008533133
-0.074469335 -0.10176636 -0.033325396 0.009802194 -0.008732109 0.09743833 -0.019891672 -0.019601803
0.008515326 -0.053722277 -0.04583768 -0.115877345 -0.018359346 0.00044798283 0.1048438 -0.03071083
-0.039769713 0.092094235 0.0035670528 0.08130183 0.07072807 -0.089543745 -0.036716603 -0.02715154
-0.031395204 -0.16315031 0.08099857 -0.042879038 0.015650103 0.0046936534 0.009613719 -0.076630995
-0.10726724 0.0073283114 -0.045201078 0.024605146 0.031045398 -0.091033004 0.023146687 -0.09249414
0.09686274 -0.0807495 0.01297166 -0.05609937 0.024786543 0.08922875 0.0067386213 -0.020611439
-0.0058785947

actor_mean.2.weight f4 [290, 145]
00000000: f19f bd3c 287c 7ebd 2a5e 18bd f2b5 233e
00000010: f76b 803d 1e43 59bd 9fef d3bc 005d 7cbd
00000020: b4ef da3d 39b5 89bc af46 dbbd 4fde 913c
00000030: b127 003e 2003 67bd 37f4 94bd cb3a f7bd
00000040: d67a 5e3c 09f7 a4bc 55d3 263d 9783 533d
00000050: 7383 9ebd de86 27be 47b5 03be 994e 503e
00000060: 67a8 423c 6f68 0d3e ee2e 8d3c 5198 a7bd
00000070: 2592 09be 7b3e c6bc 5a48 84bc 8635 3f3d
00000080: 8e76 b8bd f837 aa3d 65a2 2bbd 2e8f 833d
00000090: 45dd babc c7dc a43c 7a30 11be a600 883d
000000a0: f893 9a3c 249d 7b3d 05a1 b8bd a7b9 4b3d
000000b0: 87a6 8dba e064 62bd a867 9dbd 2a64 273e
000000c0: 5e04 2b3c ecf0 fd3d 6a1a 11be 7e7d 91bd
000000d0: 8edb 9e3d 9b1f 04be 95a9 18bd c405 eebd
000000e0: 2c81 973d 6d0f 53bd d955 c7bb 37df 0bbd
000000f0: bb86 18be ada8 c5bc 1487 b33d 31bc 343e
00000100: 3013 f0bc 2a03 8cbd b743 aabd b58a 54bd
00000110: 7fc0 353e 2d2d 15bd 105d 7ebc 7e97 613e
00000120: b8bb 913d f5da f03c 7e86 053d 5e5d 903d
00000130: 87bf 45be 60ed 38bd 93eb 1fbd 8950 183d
00000140: 37d7 24bd 9912 26bc cf27 55bd 58ae 89bd
00000150: d2d5 cabd 2b12 31bc 46c4 c6bd 423d 203d
00000160: da53 b73d c27c acbc 619f 2c3c 4da5 eebd
00000170: a999 463d f73c c9bd 98eb ee3d b838 eebc
00000180: 41db 32bc da67 cf3b 67d1 d03d 183f 39bd
00000190: 843c 0a3c 3aa2 c53d d12b fd3d 857f 823c
000001a0: 238b 523c 773e a33d 4bfa 86bd 2ff1 803d
000001b0: 76c4 3c3e 29e9 6d3e a537 793d 9acd b53d
000001c0: f990 a73d 85b3 4ebe 7c17 f43d 44fd 893b
000001d0: 3745 0dbc faf2 213e 0621 523c eb1f 85bc
000001e0: 3fe0 04be d547 a7bd a22d 863d 2d1f 79bd
000001f0: 39b7 f8bd 0147 023e 4b61 2dbd fabd ab3d
00000200: 1607 a23d ed9f 38bd e45d 0e3e 7eb9 86bd
00000210: dcfc 8cba c414 373e 3860 a9bd ff4b b2bd
00000220: b353 32bd a99d 233d 74fb 3fbe 53ce e6bd
00000230: bf76 babd ef74 423d b883 17be e51b 203d
00000240: f195 9cbc 4715 5ebd 292c cd3c 48c5 23be
00000250: 8128 95bd 2b24 223c 4ffa 0ebd 7cee 11be
00000260: 14c7 0ebd 34b0 32bd 67a7 c93d 1788 013d
00000270: ff3e 33bd edb0 913c d1db 9f3d cbd6 f6bd
00000280: f053 d3bc 3757 13bd c5ba ebbb 86e8 763c
00000290: 9889 f63d ad75 5e3d 3f04 053c 6d3c c4bd
000002a0: e32a 6fbd a787 2abd ada0 b13c 3334 09bd
000002b0: a5f1 7b3d c969 63bd b643 cb3d 0521 cc3d
000002c0: 22af 773e 2cff c43b 1ba9 6c3d f986 e3bd
000002d0: 38c8 29be 7089 873d dd9d 293d 9253 c8bc
000002e0: 8630 653d 73eb 003e 9092 da3d a015 5abc
000002f0: 5a17 c5bd 01a9 133d d148 ab3a 1e62 48be
00000300: 3984 9d3d 7716 08bd 1f21 f53d bfc6 5bbd
00000310: 8196 423e e723 c1bd d692 9dbc 1467 34be
00000320: 9bed 06bd a52b 0e3e 98fe 653d 6e6f cf3c
00000330: 63fe 0ebd a6e2 71bb 0ef7 10bd 0be7 2e3d
00000340: 9ae5 3f3d 808c f4bd 2664 adbc 459f 9a3d
00000350: 926b 9cbd 6f00 fd3d fb70 8e3d 4ae9 d2bd
00000360: 4d00 49bd 031b feba d357 10bd 5158 e2bc
00000370: f4e3 d5bd 558e b8bb 7524 5a3d d9ee 0cbe
00000380: 0502 6d3d da86 7d3d e32a 8fbc 2d5e 23bd
00000390: c9c0 023d 901a 97bd a10e 34be 197e edbd
000003a0: dae3 573d 5edd 20bd 8eec b2bd 8aac 473e
000003b0: ea44 863d 82cf 12bc 9053 ad3d cbb7 cfbd
000003c0: c8e7 873d f1d5 80ba 9e8c 213e ee95 13be
000003d0: 3a5f ff3b 736f b2bd 958b 6d3d 5a29 1abd
000003e0: 7393 61bd c2b8 87bb 9b0c dbbd e546 a03d
000003f0: c7a7 5f3d 517e a93c 000e 113d 3c86 17be
0.023147555 -0.062130123 -0.037199177 0.15987375 0.06270593 -0.053042524 -0.025871096 -0.06161213
0.10690251 -0.016810047 -0.10706841 0.0178062 0.12515141 -0.056399465 -0.07273143 -0.12071761
0.013579091 -0.020137327 0.040728886 0.051639166 -0.07739916 -0.16360041 -0.1286212 0.20342483
0.011880971 0.1380937 0.017234292 -0.08183349 -0.13434656 -0.024199715 -0.016147781 0.046681903
-0.090069875 0.083114564 -0.04190292 0.06423794 -0.022810588 0.020124806 -0.14178649 0.06640749
0.018869385 0.061429158 -0.09015087 0.0497376 -0.0010807075 -0.055271983 -0.076857865 0.16346803
0.010438053 0.12399468 -0.14170232 -0.07104014 0.077567205 -0.12902682 -0.0372711 -0.116221935
0.073976845 -0.051528383 -0.006083232 -0.03414842 -0.14895146 -0.024128282 0.087659985 0.17649914
-0.029306024 -0.06836541 -0.08313697 -0.051890094 0.17749213 -0.036420036 -0.0155251175 0.22030446
0.07115883 0.029401282 0.032598965 0.070490584 -0.19311343 -0.045148253 -0.03904302 0.03718618
-0.040244307 -0.01013627 -0.052039918 -0.067227066 -0.09904064 -0.010807554 -0.09705405 0.03912092
0.0895154 -0.021055583 0.010536046 -0.11652622 0.048486385 -0.09826081 0.1166603 -0.02907978
-0.010916532 0.0063295187 0.1019619 -0.045226187 0.00843728 0.09650083 0.12361873 0.015929947
0.012850556 0.079708986 -0.06590708 0.06296002 0.18434319 0.23233475 0.060844082 0.08877106
0.08181948 -0.20185669 0.11918542 0.0042111 -0.008622459 0.15815344 0.012825256 -0.016250571
-0.12976168 -0.08167998 0.065516725 -0.060820747 -0.12144322 0.12722398 -0.042329114 0.083858445
0.07911508 -0.045074392 0.13903004 -0.065783486 -0.001075651 0.17879015 -0.082703054 -0.08705901
-0.043536853 0.03994528 -0.18748266 -0.11269822 -0.0910468 0.047474798 -0.1479634 0.039089102
-0.019114466 -0.05421951 0.025045471 -0.15993226 -0.07283116 0.009896318 -0.03490668 -0.14251131
-0.034857824 -0.04362507 0.098463826 0.031623926 -0.04376125 0.01778456 0.078055985 -0.12052687
-0.02579686 -0.035971846 -0.0071938955 0.015070086 0.12037963 0.054311443 0.008118688 -0.09581838
-0.05839051 -0.041633274 0.021683061 -0.033497047 0.061509747 -0.055520806 0.09925024 0.099672355
0.24187902 0.006011864 0.05777846 -0.11109728 -0.16580284 0.06618011 0.041410316 -0.024453912
0.05595448 0.12589817 0.10672486 -0.01331082 -0.096235946 0.036049847 0.0013067966 -0.19568679
0.07691235 -0.03322455 0.11969208 -0.053656336 0.19002725 -0.09430676 -0.019235056 -0.17617446
-0.032941442 0.13883837 0.056151003 0.025321689 -0.03491057 -0.0036908775 -0.03539186 0.04270081
0.046849824 -0.11940861 -0.021165919 0.075499095 -0.07637705 0.12353598 0.06955143 -0.102984026
-0.049072552 -0.0019386712 -0.035240006 -0.027630003 -0.10443869 -0.0056322017 0.053257424 -0.13762988
0.057863254 0.061896183 -0.017476505 -0.039884735 0.031922136 -0.07378113 -0.17583705 -0.11596317
0.05270753 -0.039273612 -0.087365255 0.19499412 0.06556113 -0.0089606065 0.08463204 -0.101424776
0.06636006 -0.0009829385 0.15776297 -0.14412662 0.0077933343 -0.087126635 0.057994444 -0.037637092
-0.05507226 -0.004141898 -0.10695764 0.07826022 0.054603364 0.020690115 0.035413742 -0.147973
