DATA403_final/checkpoints/Walker2d-v4_t/PPO_15620.pt (torch, 372060 bytes, 12 tensors)

actor_logstd f4 [1, 6]
1.8113935 1.7938087 1.7432237 1.6812035 1.6013318 1.3213891
00000000: bedb e73f 869b e53f f421 df3f ad31 d73f
00000010: 71f8 cc3f 4723 a93f

critic.0.weight f4 [145, 17]
-0.044816148 -0.16920307 0.38716877 -0.5199772 0.08820818 0.5154102 0.3110993 -0.12736942
-0.6143101 0.0701413 0.06926879 -0.08388359 0.022042831 -0.022387847 -0.029813334 0.049510848
0.043666422 -0.12717117 0.07666577 0.5805588 0.14552619 0.024175366 0.2801067 -1.1532664
-0.056785025 0.4308307 -0.3449278 -0.12950584 0.004679392 0.010673747 -0.0012130253 -0.03371188
0.0104465615 -0.018464532 0.39299667 -0.077685334 -0.2624538 -0.46179175 0.6462885 0.40309456
0.09888919 0.1984759 0.34726998 0.42999992 -0.20409499 0.0009423441 0.008201367 -0.00354706
0.21676958 0.1639047 0.021839596 -0.18626082 -1.3117396 0.45586082 0.17278236 0.006805347
0.6810471 1.5035905 0.2938364 -0.13656408 -0.27999666 0.04766746 0.061625283 0.039755683
0.000285453 -0.008913988 0.072795615 -0.025382299 -0.13804458 -1.2764776 0.17761572 0.09637575
-0.38070005 0.63816243 0.014803241 0.14427745 -0.055045847 0.035369486 0.20174904 0.07276649
0.075651474 0.03273446 -0.17109688 -0.09291197 0.00945433 0.13333574 1.165276 0.4151023
0.13151136 -0.030247206 -0.59686315 0.4057384 0.031370267 0.13463454 0.2325305 -0.015274341
0.12217031 0.042325575 0.012324844 -0.06544569 -0.108623676 0.0011715357 -0.39298925 0.12466808
-0.25509927 -0.10985669 0.099735245 0.35103914 0.22003053 -1.0256165 -0.12277231 -0.20868509
0.07000562 0.02089353 -0.015393658 -0.011897462 -0.06981413 0.050923813 -0.034688126 0.0076440936
0.82485324 0.17922702 -0.47381657 -0.04655181 -0.18664671 0.083122045 0.059135042 0.49344027
-0.3225928 0.16162312 -0.35200563 -0.044534847 -0.003999844 0.11051262 0.0383834 -0.012305542
0.29774094 0.5726943 -0.06539014 0.09312478 -0.058118626 0.11951746 0.19984533 0.07327206
0.70215064 -0.035732307 -0.2728456 -0.0030274875 0.08575971 -0.0030269763 -0.10503581 -0.013031754
0.019584946 -0.22439964 0.24390842 -0.67578954 0.28536046 0.159959 0.25103945 0.30909917
0.03173297 0.19152264 0.13769136 -0.13477215 0.11074097 -0.048323825 -0.0037549748 -0.0031394016
-0.009165085 0.005835854 0.2675892 0.40515637 -0.48576224 -0.44287667 -0.03842046 -0.15616165
-0.069989905 0.026033478 0.9490448 -0.53367174 -0.082502574 0.041586928 0.037117593 0.011278587
-0.036954734 -0.06646142 0.021468762 -0.06848224 -0.17624672 0.34455973 -0.31954157 0.2460122
-1.2298344 -0.46267945 -0.7358492 -0.32263917 -0.50585 0.24485447 0.07485992 0.034627657
-0.0048282 -0.16214053 -0.012360145 -0.052887708 0.011459777 0.1807504 -0.2896875 -0.17834318
0.27858755 1.5429014 0.78913635 -0.26383442 0.23048547 -0.010061016 0.1072628 0.046040133
-0.006779431 -0.027970094 -0.15473595 -0.11480761 -0.005344094 0.2450833 -1.0059173 0.17132738
0.55569404 0.083292015 -0.6128172 0.06898358 0.08015748 -0.35692433 -0.24602304 -0.14210358
0.012786785 0.019593805 0.0010300566 -0.0030925414 0.02532807 -0.012351065 -0.114887685 0.5844534
-0.017632985 -0.10211584 0.17456985 -0.12528068 -0.09779684 0.830871 0.06042048 -0.030889114
-0.27546927 0.061999694 0.044860255 0.0022937974 0.12910794 0.11580982 -0.046970252 0.15277693
00000000: 2391 37bd 9243 2dbe fc3a c63e 3a1d 05bf
00000010: 7ea6 b43d ecf1 033f 6848 9f3e 216d 02be
00000020: 6d43 1dbf 3ea6 8f3d ccdc 8d3d 29cb abbd
00000030: 2b93 b43c b866 b7bc 183b f4bc e3cb 4a3d
00000040: 90db 323d 2939 02be f102 9d3d 809f 143f
00000050: d104 153e 6b0b c63c 256a 8f3e 3c9e 93bf
00000060: 6a97 68bd d795 dc3e 609a b0be 2e9d 04be
00000070: 9655 993b f1e0 2e3c 60fe 9eba 7815 0abd
00000080: 0e28 2b3c ee42 97bc dc36 c93e 7d19 9fbd
00000090: 5860 86be f86f ecbe 2a73 253f 6962 ce3e
000000a0: 6a86 ca3d 443d 4b3e 5fcd b13e f328 dc3e
000000b0: 47fe 50be a407 773a 075f 063c cb75 68bb
000000c0: d8f8 5d3e a2d6 273e f4e8 b23c 28bb 3ebe
000000d0: 15e7 a7bf 9766 e93e dced 303e 63ff de3b
000000e0: 1a59 2e3f a775 c03f ba71 963e 74d7 0bbe
000000f0: b95b 8fbe f43e 433d cb6a 7c3d dbd6 223d
00000100: daa8 9539 fa0b 12bc de15 953d 8aee cfbc
00000110: 8f5b 0dbe 9e63 a3bf e5e0 353e a660 c53d
00000120: 1eeb c2be 9d5e 233f 4b89 723c 78bd 133e
00000130: c177 61bd 98df 103d 4d97 4e3e 9906 953d
00000140: 29ef 9a3d 9214 063d 0534 2fbe a248 bebd
00000150: 56e6 1a3c 2a89 083e c427 953f 4a88 d43e
00000160: eaaa 063e fdc8 f7bc 06cc 18bf f2bc cf3e
00000170: 1c7e 003d a3dd 093e 7a1c 6e3e 3b41 7abc
00000180: 6d34 fa3d 955d 2d3d 24ee 493c 6408 86bd
00000190: 1776 debd 378e 993a e335 c9be fa51 ff3d
000001a0: 5f9c 82be 8bfc e0bd fe41 cc3d 67bb b33e
000001b0: af4f 613e 6747 83bf 0d70 fbbd 8bb1 55be
000001c0: 1b5f 8f3d e928 ab3c ae35 7cbc 93ed 42bc
000001d0: b6fa 8ebd 7d95 503d 2315 0ebd 4e7b fa3b
000001e0: 9529 533f 4a87 373e 1698 f2be 1cad 3ebd
000001f0: 5120 3fbe e43b aa3d 9637 723d 34a4 fc3e
00000200: e22a a5be 8880 253e 153a b4be 2c6a 36bd
00000210: 2011 83bb 7154 e23d e937 1d3d 2f9d 49bc
00000220: 8071 983e 189c 123f 44eb 85bd 34b8 be3d
00000230: cc0d 6ebd 92c5 f43d 41a4 4c3e a90f 963d
00000240: 25c0 333f 0a5c 12bd 6bb2 8bbe d068 46bb
00000250: c9a2 af3d 3c60 46bb 041d d7bd 2383 55bc
00000260: 9c70 a03c 05c9 65be 21c3 793e 8b00 2dbf
00000270: c41a 923e 4bcc 233e 3e88 803e 3f42 9e3e
00000280: 6efa 013d 831e 443e f7fe 0c3e b601 0abe
00000290: 29cc e23d 34ef 45bd 0616 76bb 6bbe 4dbb
000002a0: 2729 16bc b13a bf3b 7401 893e a870 cf3e
000002b0: d4b5 f8be bbc0 e2be c65e 1dbd d7e8 1fbe
000002c0: de56 8fbd 2944 d53c 9af4 723f b69e 08bf
000002d0: 1cf7 a8bd 0e57 2a3d 9e08 183d d3c9 383c
000002e0: d95d 17bd ed1c 88bd 42df af3c 6b40 8cbd
000002f0: 057a 34be 226a b03e f49a a3be 9fea 7b3e
00000300: 376b 9dbf 52e4 ecbe 9d60 3cbf f630 a5be
00000310: 637f 01bf 21bb 7a3e 2850 993d bbd5 0d3d
00000320: e135 9ebb 2b08 26be 3582 4abc c8a0 58bd
00000330: cac1 3b3c a216 393e ec51 94be 989f 36be
00000340: 07a3 8e3e cb7d c53f d704 4a3f 4e15 87be
00000350: 6204 6c3e f6d6 24bc 99ac db3d 9494 3c3d
00000360: fd25 debb 8a21 e5bc 1a73 1ebe 4120 ebbd
00000370: 821d afbb 1ef7 7a3e e6c1 80bf 7270 2f3e
00000380: f741 0e3f 0195 aa3d 97e1 1cbf 4347 8d3d
00000390: 9b29 a43d c9be b6be 77ed 7bbe 9a83 11be
000003a0: aa7f 513c 3083 a03c f702 873a 3cac 4abb
000003b0: d07c cf3c 1f5c 4abc 3c4a ebbd bd9e 153f
000003c0: 0d73 90bc 1c22 d1bd 70c2 323e 9449 00be
000003d0: b649 c8bd f6b3 543f 777b 773d 2b0b fdbc
000003e0: 4f0a 8dbe 64f3 7d3d 63bf 373d 8953 163b
000003f0: df34 043e b32d ed3d e163 40bd 8e71 1c3e

critic.0.bias f4 [145]
-0.082071185 0.016166909 0.220799 -0.07316715 -0.09222522 -0.119014926 -0.3304956 -0.021267256
0.19369578 -0.043342177 0.22296637 -0.23361066 -0.14042401 0.13337468 -0.30664384 -0.15580934
0.13763441 -0.18572998 -0.022164864 -0.23443338 0.33976355 -0.22561981 -0.105745755 -0.08301411
-0.22552118 0.07839183 -0.43060657 0.29900932 -0.1667804 0.023627501 0.06869323 0.42432508
-0.10303858 0.09598365 -0.403199 -0.16936804 0.09169205 0.024885736 -0.101416856 -0.32336184
0.415012 0.036391474 0.03236054 -0.07799105 0.2173537 -0.3088694 0.07161889 -0.42513886
-0.10049118 -0.3147047 0.30902115 -0.04758723 -0.035003554 -0.25189096 -0.20610867 -0.37794542
0.10301658 0.1084037 -0.2095494 0.2711306 -0.32145557 -0.22837493 0.4289268 -0.26558325
-0.1495558 0.10647586 -0.30949938 -0.2779092 0.063155495 0.04578212 0.18600261 0.21428166
0.40490162 0.20075884 0.05345905 -0.22426341 -0.5176453 -0.052696098 -0.21130712 -0.49117464
-0.24312298 0.22776163 -0.26780772 0.20254028 -0.2561397 0.2968996 -0.07180438 0.14541219
0.2696578 -0.057675775 0.18775104 0.29555395 0.010478559 0.099342585 0.05717392 0.4388414
0.4811519 -0.17336157 -0.43635166 -0.10703828 0.4305532 -0.2504674 -0.03777782 -0.030159015
0.0374429 -0.25961325 0.33649123 0.13469315 0.12719157 -0.38804546 0.2755592 -0.4229296
0.009880043 -0.23424186 -0.037132535 0.31422138 0.2506031 -0.37355807 0.39260498 -0.0629425
0.14584577 0.089379996 -0.052366626 0.11686926 0.1180096 0.28565493 -0.010260584 -0.10050087
-0.23445313 -0.20396411 0.0670723 0.29246786 0.13318548 -0.38834494 0.09135441 0.20729443
0.362157 -0.049639616 0.44142175 0.33598176 0.088538446 0.21863872 -0.15738368 0.073886275
-0.04431496
00000000: f014 a8bd 7770 843c 2219 623e a9d8 95bd
00000010: 93e0 bcbd 19be f3bd b836 a9be ab38 aebc
00000020: 3058 463e 9187 31bd 4c51 643e a237 6fbe
00000030: 50cb 0fbe 5f93 083e 6c00 9dbe 7c8c 1fbe
00000040: 09f0 0c3e 0030 3ebe 1793 b5bc 4e0f 70be
00000050: 7df5 ad3e e108 67be 3b91 d8bd 4d03 aabd
00000060: 06ef 66be e58b a03d 7778 dcbe c017 993e
00000070: 7bc8 2abe 768e c13c 09af 8c3d 2341 d93e
00000080: e405 d3bd 1393 c43d 1970 cebe d16e 2dbe
00000090: 0bc9 bb3d 2cdd cb3c a4b3 cfbd af8f a5be
000000a0: 747c d43e 3a0f 153d 7c8c 043d c6b9 9fbd
000000b0: f891 5e3e 2124 9ebe edac 923d cdab d9be
000000c0: 52ce cdbd f920 a1be 0538 9e3e d4ea 42bd
000000d0: e35f 0fbd daf7 80be 270e 53be 1082 c1be
000000e0: 5bfa d23d c202 de3d 1e94 56be a1d1 8a3e
000000f0: d395 a4be 1edb 69be 4b9c db3e 87fa 87be
00000100: 2825 19be 0410 da3d b476 9ebe 1d4a 8ebe
00000110: ab57 813d 0886 3b3d 7877 3e3e a76c 5b3e
00000120: 444f cf3e ba93 4d3e e0f7 5a3d 4fa5 65be
00000130: 6784 04bf ddd7 57bd e560 58be 3e7b fbbe
00000140: 3bf5 78be 583a 693e 181e 89be b866 4f3e
00000150: be24 83be 3903 983e 2d0e 93bd efe6 143e
00000160: 9610 8a3e 6f3d 6cbd cf41 403e d952 973e
00000170: 43ae 2b3c 2074 cb3d 332f 6a3d d2af e03e
00000180: 8b59 f63e b285 31be 7c69 dfbe e336 dbbd
00000190: 7871 dc3e 433d 80be eabc 1abd 0a10 f7bc
000001a0: ba5d 193d 07ec 84be 9448 ac3e 00ed 093e
000001b0: 823e 023e e5ad c6be 1816 8d3e 3b8a d8be
000001c0: e7df 213c 19dd 6fbe 4918 18bd a0e1 a03e
000001d0: 0d4f 803e 0143 bfbe 8503 c93e ffe7 80bd
000001e0: 9858 153e dc0c b73d 637e 56bd 2759 ef3d
000001f0: 04af f13d 5d41 923e 021c 28bc 66d3 cdbd
00000200: 7b14 70be f8db 50be 345d 893d 59be 953e
00000210: c661 083e 26d5 c6be 0518 bb3d fe44 543e
00000220: a46c b93e e952 4bbd 0802 e23e cd05 ac3e
00000230: a553 b53d d4e2 5f3e 3029 21be b051 973d
00000240: 9a83 35bd

critic.2.weight f4 [290, 145]
0.31912404 -0.1759362 -0.24329889 0.17648341 0.17300093 -0.37341458 0.04871185 -0.30862078
-0.20095389 -0.18648319 -0.5516974 0.02225454 -0.15944318 0.03603493 -0.14162157 -0.063881144
-0.26779768 -0.1584527 0.013095815 -0.025427036 0.11404896 -0.30375257 0.3969438 -0.31140342
-0.029536426 0.30501023 -0.14773877 -0.1742886 -0.1832519 -0.16102172 0.26868507 0.079669915
0.24856207 -0.109765574 0.026564898 0.06842719 -0.42905486 -0.30882934 -0.051911406 0.21284477
0.039986227 0.35791743 0.28425857 0.319436 -0.1787034 -0.20337756 -0.28678626 -0.039580777
0.093796045 -0.07967682 -0.19807985 0.07599888 -0.39141893 -0.0681398 0.2748854 0.04106425
0.2838834 0.26359937 -0.058648735 0.2086201 0.17441922 0.054488055 -0.0833682 -0.06871377
0.3168128 0.282306 -0.04408635 0.15462528 -0.118048355 0.29522204 0.03501867 -0.2824502
0.013325542 -0.18737566 -0.293366 -0.10452399 -0.005617319 -0.3146252 -0.24066718 0.050946925
0.14916891 0.034746155 -0.05130178 -0.14216664 0.21438478 -0.1480408 0.05388219 0.037644982
-0.33364034 -0.24110988 -0.37621608 -0.01698383 0.21499048 -0.5416687 0.26389053 0.03783726
0.14471509 0.21127868 0.073921986 -0.19705881 -0.068686426 0.111477606 0.18691781 0.08942006
-0.0058896476 -0.0035658001 -0.016054021 -0.42058483 -0.13635585 0.036193807 0.224344 0.09845264
-0.21316892 -0.17078508 -0.16596992 -0.16713041 -0.18441819 0.053554177 -0.161606 0.42659155
-0.124942705 -0.29879922 0.21289149 0.13670851 -0.16101569 -0.08184373 0.08679142 0.1918871
-0.15652499 0.10535817 0.22230448 -0.10969247 -0.34760362 -0.011662768 -0.10949578 -0.20318702
0.021473752 -0.26145718 0.093217716 -0.05997439 -0.119807996 0.0868851 0.13010558 0.014382765
0.3203634 0.2704431 -0.50151557 -0.17189547 -0.0605503 -0.11306681 0.10188017 0.11248276
0.0043647843 -0.20678248 -0.25889176 -0.29987547 -0.122592784 -0.039341595 -0.1827593 -0.31441444
-0.25850475 -0.18575692 -0.22021818 -0.111156456 -0.052049726 -0.21449703 -0.48891598 0.103997774
0.32240558 0.10495838 -0.36547095 -0.038869187 0.09122214 -0.33783355 0.028716443 0.25123465
0.03246768 0.008936002 -0.13357545 0.11417344 0.0738374 -0.1698833 -0.13944046 0.796482
-0.20385998 -0.079786 0.45655265 0.8097736 0.073893465 -0.12259755 -0.14026362 0.13925196
-0.12855686 0.110962465 0.33303156 -0.0013603636 0.19162074 -0.20946264 0.0026291662 0.56254375
-0.07860729 0.43289897 0.058638215 -0.11423914 0.0091442 -0.084057204 -0.37646303 -0.044127412
-0.2256017 0.025679525 0.41561964 -0.10021022 -0.31497228 -0.49973473 0.16661021 -0.23874919
0.010050932 -0.032854732 0.03530399 0.036019843 -0.2738995 -0.16896273 -0.22243996 0.09035808
-0.04384792 0.13873875 0.029766947 0.3454448 -0.0361574 0.019091597 -0.31484795 -0.18425956
0.20873305 -0.053322617 0.5639229 -0.10325697 -0.18931334 -0.18305722 -0.19293417 0.08255358
0.3577769 -0.009215346 -0.11914487 -0.019829962 -0.14339519 0.16358702 -0.21765226 0.042169377
-0.058284502 0.50178266 -0.028928066 -0.29684442 0.0041731345 -0.4231709 0.054307565 0.14714494
00000000: 3a64 a33e 9f28 34be 5823 79be 11b8 343e
00000010: 2827 313e 3230 bfbe 1486 473d 8b03 9ebe
00000020: dbc6 4dbe 73f5 3ebe 0a3c 0dbf 274f b63c
00000030: 1345 23be 5d99 133d 3f05 11be 1ed4 82bd
00000040: c71c 89be 6d41 22be d48f 563c 5c4c d0bc
00000050: 8092 e93d 7585 9bbe 383c cb3e 4570 9fbe
00000060: 60f6 f1bc 4d2a 9c3e d548 17be b678 32be
00000070: 63a6 3bbe e1e2 24be 1791 893e fb29 a33d
00000080: 0e87 7e3e c6cc e0bd a19e d93c 8e23 8c3d
00000090: 14ad dbbe e11e 9ebe 0ea1 54bd fbf3 593e
000000a0: 99c8 233d f440 b73e 578a 913e 1e8d a33e
000000b0: 06fe 36be 3542 50be a6d5 92be 741f 22bd
000000c0: 2418 c03d 9a2d a3bd 72d5 4abe 4da5 9b3d
000000d0: 1068 c8be e18c 8bbd c7bd 8c3e fd32 283d
000000e0: 2a59 913e 7ff6 863e a839 70bd 82a0 553e
000000f0: f49a 323e de2e 5f3d f2bc aabd ceb9 8cbd
00000100: 4a35 a23e 698a 903e e393 34bd 1756 1e3e
00000110: 56c3 f1bd 5827 973e bd6f 0f3d 509d 90be
00000120: 6053 5a3c 68df 3fbe 1134 96be ac10 d6bd
00000130: 7d11 b8bb 8e16 a1be 7571 76be b9ad 503d
00000140: bcbf 183e fc51 0e3d d121 52bd 2294 11be
00000150: af87 5b3e 0298 17be 92b3 5c3d a031 1a3d
00000160: e8d2 aabe 82e5 76be 659f c0be ac21 8bbc
00000170: 7726 5c3e cdaa 0abf a91c 873e 3efb 1a3d
00000180: 3130 143e 7059 583e 6964 973d c9c9 49be
00000190: 78ab 8cbd 5f4e e43d 6267 3f3e dd21 b73d
000001a0: f2fd c0bb 33b0 69bb b983 83bc e556 d7be
000001b0: dea0 0bbe f53f 143d 6fba 653e 8aa1 c93d
000001c0: f448 5abe 49e2 2ebe 05f4 29be 3c24 2bbe
000001d0: 1fd8 3cbe a05b 5b3d 0b7c 25be 356a da3e
000001e0: f6e1 ffbd 36fc 98be 3a00 5a3e 51fd 0b3e
000001f0: 4ce1 24be af9d a7bd b3bf b13d 0d7e 443e
00000200: 1648 20be 06c6 d73d c9a3 633e 72a6 e0bd
00000210: 1af9 b1be 3215 3fbc 533f e0bd 4210 50be
00000220: b9e9 af3c b7dd 85be eee8 be3d b5a7 75bd
00000230: e55d f5bd d1f0 b13d 663a 053e b0a5 6b3c
00000240: ac06 a43e 8577 8a3e 5363 00bf 5e05 30be
00000250: 9703 78bd 928f e7bd 8da6 d03d 5c5d e63d
00000260: 7706 8f3b c9be 53be 768d 84be 4789 99be
00000270: ed11 fbbd a724 21bd 4125 3bbe eefa a0be
00000280: bc5a 84be 1037 3ebe e080 61be ffa5 e3bd
00000290: 1832 55bd 1ca5 5bbe 3253 fabe c9fc d43d
000002a0: 5812 a53e 6bf4 d63d 021f bbbe 4c35 1fbd
000002b0: acd2 ba3d 85f8 acbe bf3e eb3c d4a1 803e
000002c0: d4fc 043d 4f68 123c 01c8 08be c4d3 e93d
000002d0: 1038 973d e3f5 2dbe 7bc9 0ebe 3fe6 4b3f
000002e0: acc0 50be d866 a3bd 45c1 e93e 534d 4f3f
000002f0: 7555 973d 6d14 fbbd 44a1 0fbe 1198 0e3e
00000300: 69a4 03be 4a40 e33d 1d83 aa3e 3a4e b2ba
00000310: 3a38 443e 607d 56be 174e 2c3b de02 103f
00000320: dcfc a0bd efa4 dd3e a02e 703d 36f6 e9bd
00000330: 8ed1 153c 2f26 acbd c3bf c0be f2be 34bd
00000340: 2204 67be de5d d23c 19cc d43e 043b cdbd
00000350: 0c44 a1be 3bdd ffbe de9b 2a3e ab7a 74be
00000360: aaac 243c af92 06bd eb9a 103d 8b89 133d
00000370: 8e3c 8cbe 9104 2dbe 4dc7 63be a80d b93d
00000380: e099 33bd 8811 0e3e d0d9 f33c 24de b03e
00000390: c819 14bd fb65 9c3c c033 a1be 8aae 3cbe
000003a0: 1ebe 553e d168 5abd 405d 103f 6478 d3bd
000003b0: 5bdb 41be 5a73 3bbe 8990 45be da11 a93d
000003c0: 892e b73e f6fb 16bc 3a02 f4bd 7272 a2bc
000003d0: 30d6 12be 5b83 273e 3ce0 5ebe ccb9 2c3d
000003e0: bbbb 6ebd d474 003f 8dfa ecbc fefb 97be
000003f0: cabe 883b dba9 d8be 9c71 5e3d 2aad 163e

critic.2.bias f4 [290]
-0.122358315 -0.07285644 -0.034803275 0.17743047 -0.10959219 0.15768312 0.1505511 0.13506193
-0.14999405 0.17307612 -0.060123388 -0.055351954 0.17263149 0.1223366 0.09404401 0.02916697
-0.054856274 -0.0084480615 0.07098143 0.22902802 -0.15300836 -0.025543131 -0.26948482 0.029052416
-0.15837075 -0.088019826 0.050464634 0.11110699 -0.13765703 0.001527851 0.108633466 -0.042998616
0.0898451 -0.09050414 -0.055759374 -0.195873 0.17548911 -0.17836227 0.085508995 0.1092765
0.25287223 -0.058754306 0.11795027 0.27030677 0.25194615 0.072005145 0.043723907 -0.20761669
-0.10444698 -0.1610921 -0.12790598 0.050052427 -0.052353993 0.06490539 0.23811314 0.07995426
0.04113946 -0.1257752 -0.13414228 0.24118255 -0.07671815 -0.012172523 0.1801868 0.028846446
0.04226173 0.0069416966 -0.027156677 0.05788019 0.23526771 -0.012673529 0.22418861 -0.017501876
0.17926466 0.1437098 -0.165812 0.09338505 0.082954586 -0.06146283 -0.06367528 -0.110216156
-0.11587765 -0.14661774 0.10018573 -0.16401312 0.12604971 -0.13051258 0.067234755 0.07497465
-0.097741336 0.1668408 0.13281341 0.1688879 0.070514746 0.10108775 0.05777639 0.019851528
0.050554357 -0.117695145 0.15428652 -0.2705852 -0.09907724 -0.076555274 0.08299031 0.17163563
-0.064770944 0.07659834 0.18696226 0.11161619 0.004890164 0.08924309 0.13402021 -0.13030083
-0.046291426 0.08559159 -0.055379447 0.09031201 0.121496096 -0.1790721 0.15704574 0.45373255
-0.13142799 -0.07821409 0.11793363 -0.16989066 0.082613915 -0.13886102 -0.13816607 -0.11309515
-0.041152168 0.075201444 0.10396135 0.2211118 0.014279221 0.14192013 -0.09987505 -0.1585808
0.0990289 0.050656337 -0.1003558 0.11612863 -0.08969537 0.1172696 0.08368771 0.09505234
0.08043196 -0.13519979 0.105157256 -0.1578889 -0.06211018 -0.15198562 -0.18021105 -0.09708913
-0.10484738 0.039903767 0.18453448 -0.14797573 -0.0631832 0.09299536 0.1424262 -0.09072808
-0.13994208 -0.06767377 0.016667964 -0.038280144 0.06798556 0.08566906 0.10946516 0.14849393
-0.06732645 -0.063437715 -0.10851589 0.14286348 0.06786958 0.1895552 0.029989 -0.095073216
0.13679406 0.12466838 0.16348606 0.10083558 0.06774179 -0.15437743 -0.043753535 -0.1343796
-0.11010302 -0.048885718 -0.17500654 -0.24392408 0.16488925 -0.12674862 -0.07766018 -0.02478508
0.05456064 0.11378959 -0.06505738 -0.12656169 -0.14599985 -0.07108653 -0.02084763 0.030770378
0.009491874 0.09313533 -0.19755897 -0.07836945 -0.06445379 -0.1386304 -0.21493423 0.047958508
-0.016706947 0.07822371 -0.1347273 -0.091531366 -0.051457267 -0.020861877 0.03389725 -0.16758253
-0.11624996 -0.15244399 0.1575224 -0.087776475 -0.16113184 -0.046333157 -0.16737628 0.077834934
0.0937293 -0.28982764 -0.1868972 -0.09892113 -0.0798509 0.0779559 0.16802064 -0.059336692
-0.075858705 0.107748725 -0.23770879 0.06468371 0.14419723 0.1053821 -0.068072304 -0.0844882
-0.15885161 0.13127737 0.08343049 0.13103355 0.13009746 -0.024130622 -0.059708614 0.088833414
-0.11253189 -0.022485342 -0.14443116 -0.11007389 0.13827872 0.16428387 0.10159493 -0.118392274
00000000: ff96 fabd c235 95bd e18d 0ebd 55b0 353e
00000010: df71 e0bd af77 213e 112a 1a3e ad4d 0a3e
00000020: 0a98 19be de3a 313e f143 76bd bbb8 62bd
00000030: 4fc6 303e 9d8b fa3d 259a c03d 92ef ee3c
00000040: f9b0 60bd bd69 0abc b65e 913d 5286 6a3e
00000050: 39ae 1cbe d43f d1bc eaf9 89be 55ff ed3c
00000060: f12b 22be bd43 b4bd 01b4 4e3d 108c e33d
00000070: f7f5 0cbe 2c42 c83a 397b de3d 511f 30bd
00000080: b500 b83d 3c5a b9bd f163 64bd ef92 48be
00000090: 6bb3 333e 99a4 36be 571f af3d 5ccc df3d
000000a0: 7878 813e 5ba8 70bd e98f f13d a665 8a3e
000000b0: 16ff 803e 6f77 933d d717 333d 7899 54be
000000c0: 4ce8 d5bd 54f5 24be c9f9 02be c603 4d3d
000000d0: 2471 56bd 1eed 843d eed3 733e 0fbf a33d
000000e0: da81 283d 37cb 00be 985c 09be 8ff8 763e
000000f0: 681e 9dbd 436f 47bc e382 383e 624f ec3c
00000100: a31a 2d3d 2c77 e33b ae77 debc c713 6d3d
00000110: 05ea 703e a2a4 4fbc b391 653e 1860 8fbc
00000120: 2891 373e a928 133e 9fca 29be a940 bf3d
00000130: 18e4 a93d 73c0 7bbd 2f68 82bd 02b9 e1bd
00000140: 4351 edbd f622 16be 2d2e cd3d 0ef3 27be
00000150: 2d13 013e 17a5 05be 60b2 893d 4f8c 993d
00000160: 9c2c c8bd 51d8 2a3e 3d00 083e f3f0 2c3e
00000170: 096a 903d 1807 cf3d f0a6 6c3d ac9f a23c
00000180: 1612 4f3d 270a f1bd 49fd 1d3e 258a 8abe
00000190: 02e9 cabd 03c9 9cbd d3f6 a93d 40c1 2f3e
000001a0: a1a6 84bd 97df 9c3d 0973 3f3e 0797 e43d
000001b0: ab3d a03b 15c5 b63d 983c 093e 956d 05be
000001c0: 149c 3dbd a54a af3d 8fd5 62bd 81f5 b83d
000001d0: f2d2 f83d ad5e 37be 99d0 203e a24f e83e
000001e0: 0f95 06be b52e a0bd 3087 f13d d1f7 2dbe
000001f0: 7c31 a93d 9531 0ebe 687b 0dbe 6e9e e7bd
00000200: 2d8f 28bd 3703 9a3d b0e9 d43d 226b 623e
00000210: 65f3 693c 8353 113e 4a8b ccbd 0163 22be
00000220: aacf ca3d 057d 4f3d 5787 cdbd d9d4 ed3d
00000230: 35b2 b7bd 0b2b f03d 7664 ab3d cdaa c23d
00000240: 83b9 a43d d071 0abe b05c d73d a1ad 21be
00000250: 3e67 7ebd 1ea2 1bbe 3f89 38be aad6 c6bd
00000260: 39ba d6bd 2272 233d 9bf6 3c3e f386 17be
00000270: 3266 81bd 5a74 be3d 2cd8 113e a5cf b9bd
00000280: fa4c 0fbe 8c98 8abd 418b 883c a4cb 1cbd
00000290: 033c 8b3d 4373 af3d 452f e03d cb0e 183e
000002a0: 73e2 89bd a2eb 81bd 943d debd ce4a 123e
000002b0: 35ff 8a3d c21a 423e 7eab f53c bfb5 c2bd
000002c0: be13 0c3e 2352 ff3d e468 273e e282 ce3d
000002d0: 35bc 8a3d 1e15 1ebe e836 33bd ce9a 09be
000002e0: b17d e1bd 643c 48bd ea34 33be 3cc7 79be
000002f0: bad8 283e 64ca 01be 4d0c 9fbd 150a cbbc
00000300: fa7a 5f3d 840a e93d ce3c 85bd 6399 01be
00000310: fc80 15be d195 91bd a6c8 aabc 2912 fc3c
00000320: ce83 1b3c bcbd be3d e64c 4abe 2a80 a0bd
00000330: 5900 84bd 21f5 0dbe b817 5cbe 2470 443d
00000340: 02dd 88bc c133 a03d f4f5 09be cc74 bbbd
00000350: dbc4 52bd 87e6 aabc d8d7 0a3d c19a 2bbe
00000360: 7614 eebd 471a 1cbe 8d4d 213e 27c4 b3bd
00000370: bfff 24be d6c7 3dbd b064 2bbe ec67 9f3d
00000380: 26f5 bf3d 4a64 94be fb61 3fbe 2997 cabd
00000390: de88 a3bd 58a7 9f3d 9a0d 2c3e 080b 73bd
000003a0: cf5b 9bbd 5dab dc3d ef69 73be e578 843d
000003b0: 70a8 133e 92d2 d73d 7e69 8bbd 2608 adbd
000003c0: ffa9 22be 936d 063e 9bdd aa3d a92d 063e
000003d0: 4538 053e 95ad c5bc 0591 74bd 4bee b53d
000003e0: 1f77 e6bd 2e33 b8bc c3e5 13be 6b6e e1bd
000003f0: f098 0d3e 083a 283e 0111 d03d a677 f2bd

critic.4.weight f4 [1, 290]
-1.1299967 -1.2575603 -1.3207706 1.7776114 -1.2851615 1.894571 1.070405 1.1327721
-1.8202195 1.2362739 1.9683691 -1.5615904 1.9725214 1.3031261 1.3179628 -1.2480558
-1.7788612 -1.3392222 1.2572047 1.9655112 -1.1222172 -1.3502113 -1.8576859 -1.7268746
-1.1459953 -1.4285626 1.8964695 1.8290149 -1.1055385 1.2460792 1.91406 -1.1827176
1.1253643 -1.793564 -1.2156498 -1.1893303 1.6999952 -1.9516706 1.8870817 1.2189494
1.8960627 -1.25251 1.2268577 2.2316036 1.7804424 -2.2506206 1.897057 -1.7991178
1.9493283 -1.3223869 -1.1264564 -1.4935535 -1.122263 1.2210134 -3.1861293 1.8981588
-1.7290099 -1.1086904 -2.0046258 1.9693018 -1.8586519 1.9333266 1.1658251 1.2023414
1.7258508 -1.2700652 -1.8327278 1.7914634 2.0264761 -1.46623 1.8310779 -1.3745604
1.9195617 1.757814 -1.1105644 1.7785293 1.4642 -1.1419674 -1.6123929 -1.4316589
-1.7753211 -1.3017938 1.2329541 -1.3355567 1.9089172 -1.8921772 -1.8513179 1.201243
-1.2096863 1.0952866 1.812781 1.2047497 1.325787 1.0908352 1.7735597 1.2270843
1.2326826 -1.9460781 1.8908855 -1.8839852 -1.3282797 -1.3034141 1.8837353 1.0989376
-1.3005569 -2.3331869 1.9315478 1.2120486 1.1812989 1.3062361 -2.2526712 -1.3106177
-1.6947397 -2.2633393 -1.8700328 1.8771698 1.8283994 -1.8048574 1.8570106 -2.2937188
-1.2208974 -1.6393783 -2.0057302 -1.8484961 -1.8493763 -1.7558945 -1.1735746 -1.7512469
-1.2293029 1.3405132 1.83663 1.826316 1.7344527 1.8511074 -1.223397 -1.2022809
1.7991472 -1.9099783 -1.3050401 1.9730514 -1.8661118 1.7116672 1.6718569 1.8627315
1.3036997 -1.2605356 1.3534938 -1.7652177 -1.3647832 -1.1424232 -1.1408526 -1.228649
-1.3113618 1.2875086 1.8692886 -1.3169105 -1.3460159 1.1230347 1.7528657 -1.9400163
-1.1355342 2.2313795 1.2861041 -2.6602113 1.2338123 1.4649646 1.7359724 1.2100631
-1.9081328 -1.3256847 -1.1413909 1.9246956 1.810035 1.1413059 2.8412826 -1.9130882
1.2668719 1.1905854 1.1585736 1.680468 1.2374247 -1.8566799 -2.362879 -1.1439416
-1.1141176 1.727025 -1.2111095 -1.9841493 1.8829957 -1.2748666 -1.9297591 -1.2760359
-1.430911 2.0326252 2.5597923 -1.9775244 -1.1376913 -2.110567 2.4935908 1.2582349
-1.5564507 1.8241969 -1.8699068 1.7321047 -1.3634238 -1.8230538 -1.816871 1.9627837
1.9225962 1.1356944 -1.1407394 -1.8924129 -1.8901501 1.2453672 1.212982 -1.8056643
-1.3347191 -1.912964 1.2575556 -1.181525 -1.2067347 -1.1623839 -1.8873625 -1.8470833
1.1598502 -1.8878567 -1.7823899 -1.8540896 -1.224494 1.3157704 1.1533364 -1.1443468
1.6337526 1.1347244 -1.7229239 1.9058486 1.918274 1.1988261 -2.1709898 1.8846134
-1.1964246 1.0982586 1.8997487 1.8443208 1.1860117 -1.1622933 -1.6376787 1.2257717
-1.5775982 -1.2540416 -1.8658371 2.329147 1.1838098 1.2327071 1.1380562 -1.3985038
00000000: bba3 90bf bcf7 a0bf 030f a9bf c588 e33f
00000010: 2c80 a4bf 4d81 f23f 0803 893f adfe 903f
00000020: f4fc e8bf 393e 9e3f 85f3 fb3f 32e2 c7bf
00000030: 957b fc3f d6cc a63f 01b3 a83f 4bc0 9fbf
00000040: b9b1 e3bf a26b abbf 15ec a03f df95 fb3f
00000050: d0a4 8fbf b9d3 acbf a7c8 edbf 3a0a ddbf
00000060: f9af 92bf 24db b6bf 83bf f23f 291d ea3f
00000070: 4982 8dbf 867f 9f3f ebff f43f 4a63 97bf
00000080: f00b 903f 8193 e5bf 6a9a 9bbf fa3b 98bf
00000090: 7199 d93f 58d0 f9bf e58b f13f 8906 9c3f
000000a0: 2fb2 f23f 3f52 a0bf ac09 9d3f 98d2 0e40
000000b0: 89e5 e33f 2b0a 10c0 c4d2 f23f 7e49 e6bf
000000c0: 9783 f93f f943 a9bf b92f 90bf c32c bfbf
000000d0: 50a6 8fbf 2b4a 9c3f 8be9 4bc0 def6 f23f
000000e0: 3250 ddbf 91e9 8dbf ca4b 00c0 1512 fc3f
000000f0: 4ee8 edbf 3f77 f73f c239 953f 53e6 993f
00000100: aee8 dc3f 7f91 a2bf d396 eabf ac4e e53f
00000110: c9b1 0140 6dad bbbf c360 ea3f 98f1 afbf
00000120: 33b4 f53f 0d00 e13f f926 8ebf d9a6 e33f
00000130: e86a bb3f fd2b 92bf e462 cebf 9940 b7bf
00000140: b93d e3bf 2ea1 a6bf 71d1 9d3f 86f3 aabf
00000150: 6657 f43f dd32 f2bf fcf7 ecbf 55c2 993f
00000160: 00d7 9abf 5a32 8c3f 3509 e83f 3d35 9a3f
00000170: 63b3 a93f 7da0 8b3f 0104 e33f 1911 9d3f
00000180: 8bc8 9d3f 1619 f9bf 8908 f23f 6d26 f1bf
00000190: 1205 aabf 46d6 a6bf 3d1e f13f fda9 8c3f
000001a0: a678 a6bf ef52 15c0 f53c f73f 6924 9b3f
000001b0: cd34 973f bf32 a73f c42b 10c0 52c2 a7bf
000001c0: 3bed d8bf 8dda 10c0 3c5d efbf 1a47 f03f
000001d0: fe08 ea3f 9105 e7bf 86b2 ed3f 4acc 12c0
000001e0: 5e46 9cbf 26d7 d1bf e25d 00c0 859b ecbf
000001f0: 5db8 ecbf 27c1 e0bf b137 96bf dc28 e0bf
00000200: cc59 9dbf f095 ab3f b116 eb3f b9c4 e93f
00000210: 8c02 de3f 16f1 ec3f 4698 9cbf 57e4 99bf
00000220: 754a e63f 2b7a f4bf 8e0b a7bf f38c fc3f
00000230: c0dc eebf e917 db3f 68ff d53f fc6d ee3f
00000240: a2df a63f 3b59 a1bf 493f ad3f a7f2 e1bf
00000250: 37b1 aebf ec3a 92bf 7507 92bf 5f44 9dbf
00000260: b4da a7bf 15cd a43f d944 ef3f 8690 a8bf
00000270: 404a acbf 9abf 8f3f e75d e03f 7452 f8bf
00000280: 2f59 91bf ecce 0e40 0f9f a43f e740 2ac0
00000290: 90ed 9d3f f683 bb3f 5834 de3f 59e3 9a3f
000002a0: b23d f4bf 09b0 a9bf 1919 92bf 6d5c f63f
000002b0: 3aaf e73f 5016 923f 93d7 3540 13e0 f4bf
000002c0: dc28 a23f 1a65 983f 244c 943f 9319 d73f
000002d0: ef63 9e3f b0a7 edbf 6939 17c0 ae6c 92bf
000002e0: 689b 8ebf 280f dd3f a305 9bbf 9bf8 fdbf
000002f0: 0106 f13f d42e a3bf 5902 f7bf 2555 a3bf
00000300: 1728 b7bf 8816 0240 a3d3 2340 851f fdbf
00000310: de9f 91bf 8813 07c0 fe96 1f40 d70d a13f
00000320: c739 c7bf 497f e93f 1b59 efbf 9bb5 dd3f
00000330: ac84 aebf d459 e9bf 3b8f e8bf 7f3c fb3f
00000340: a217 f63f 6f5e 913f c003 92bf 963a f2bf
00000350: 70f0 f1bf 3168 9f3f ff42 9b3f 0220 e7bf
00000360: 13d8 aabf 01dc f4bf 95f7 a03f 363c 97bf
00000370: 4876 9abf ffc8 94bf 1895 f1bf 3a6d ecbf
00000380: f975 943f 4aa5 f1bf 5a25 e4bf cf52 edbf
00000390: 38bc 9cbf 2a6b a83f 87a0 933f f579 92bf
000003a0: ce1e d13f a63e 913f c588 dcbf d9f2 f33f
000003b0: 018a f53f 2273 993f 7ff1 0ac0 033b f13f
000003c0: 7124 99bf bd93 8c3f f72a f33f b412 ec3f
000003d0: 3bcf 973f 07c6 94bf 759f d1bf 16e6 9c3f
000003e0: bdee c9bf 6f84 a0bf c0d3 eebf bf10 1540
000003f0: 1487 973f 59c9 9d3f d3ab 913f 2c02 b3bf

actor_mean.0.weight f4 [145, 17]
0.50818896 -0.33289075 0.385568 0.013971956 0.40421286 -0.13096642 0.19445337 -0.07863915
0.05602433 0.11788565 -0.28324872 -0.008094433 0.019026034 0.11602238 -0.025240684 0.21428843
0.024027012 -0.36244968 1.0167309 0.00899635 -0.01695604 -0.06626826 0.08260441 0.1353578
-0.64670014 0.10402698 0.29413453 0.08301235 -0.05493626 0.017741926 -0.017526425 0.0056130895
0.009770252 -0.02648985 -0.012465495 -0.25803903 -0.09880802 -0.078220904 -0.14977536 -0.050729763
0.2929054 -0.18018661 0.058554485 -0.08101576 -0.08501561 0.17792572 -0.17916732 0.17114814
0.13216424 0.3060745 0.05838913 -0.52647334 1.1345026 0.024698626 -0.013657263 -0.3403278
-0.44319472 -0.9061397 -0.9244331 0.27620068 -0.45492724 -0.012349968 -0.030503808 -0.038450595
-0.023118302 -0.010688876 -0.02453368 0.016017778 0.28186184 0.109580636 0.13414535 0.12593672
0.48455027 -0.10269183 0.19278948 1.0447682 0.17130387 0.45589507 0.107033275 0.01964401
0.016856616 0.016367445 -0.1284766 -0.12836686 -0.03531115 0.3360396 -0.095356174 0.027688669
-0.05378403 -0.19967924 -0.05545554 0.05173289 -0.07695856 0.436861 -0.24081899 0.06316445
-0.28753728 0.045777366 -0.029655661 0.065058485 0.05381254 -0.26500794 -0.16765389 0.30852342
0.056255125 0.15929605 0.09373364 0.10246331 0.027021917 -0.04064728 -0.30096167 0.13768688
0.03239184 0.004235185 0.13501672 0.045456942 -0.1423363 -0.09896018 -0.3530786 0.25561732
-0.062307008 0.014339931 -0.09768488 -0.36075377 0.29020342 -0.09395044 0.12700921 0.19834936
0.13303536 -0.14192596 0.13566114 -0.3891014 0.07946883 -0.07658693 -0.058360558 0.10466606
0.46777752 -0.6311922 0.07142188 -0.08140639 0.09132926 0.16018319 0.042259593 0.09304359
-0.07546063 0.27861804 0.24636464 -0.11658388 0.0782148 0.020404546 0.039768722 -0.053461775
0.098474085 0.05453399 0.22416376 0.37711087 0.052604042 -0.009929792 -0.097491875 0.1846024
-0.054611765 0.11214958 0.22355522 0.069795646 -0.11043468 -0.31776512 0.18268816 -0.06863795
0.18662296 0.125385 -0.30068192 -0.37976092 0.00966542 0.025902187 -0.15618639 0.013987885
-0.19314276 -0.06933266 -0.09623562 -0.40541917 0.036817655 0.16935487 -0.15814275 0.029168485
-0.06726088 0.15652843 -0.046157707 0.29760754 -0.23948283 -0.027035546 -0.04077027 0.2999594
-0.02987167 0.049921196 0.029806301 0.1467121 -0.1490952 0.045963768 -0.089576654 -0.07182554
-0.109711625 -0.17421019 0.08134791 0.081294045 -0.3326501 0.6210852 -0.013999118 -0.14835426
0.024619298 -0.17610474 -0.12307814 -0.266941 -0.09329149 -0.32511422 0.1891181 0.26110995
-0.10634726 0.0739658 0.2020747 -0.011421395 0.027366465 0.572511 -0.38494208 0.5599653
-0.03626338 0.15012059 0.25309703 -0.03707372 0.0051811337 0.106506966 0.40257314 -0.2252527
0.036155898 -0.011271566 -0.025355102 0.2105298 0.018411176 0.05119987 -0.0020135283 -0.2822408
0.46338707 -0.07954263 -0.3744637 0.075689755 0.10700063 -0.11207096 -0.17901006 -0.16508044
0.15361573 0.02187321 0.29476792 0.17028996 -0.06508022 0.15052079 0.094756715 -0.2092354
00000000: ac18 023f a870 aabe 2b69 c53e a2ea 643c
00000010: fdf4 ce3e 101c 06be c91e 473e 900d a1bd
00000020: c579 653d 086e f13d fa05 91be 839e 04bc
00000030: 7cdc 9b3c 249d ed3d 8dc5 cebc 6d6e 5b3e
00000040: 4cd4 c43c 0193 b9be 3d24 823f 6d65 133c
00000050: 65e7 8abc a7b7 87bd 802c a93d 3c9b 0a3e
00000060: 248e 25bf 190c d53d cd98 963e 6102 aa3d
00000070: d804 61bd 8457 913c 9493 8fbc 02ee b73b
00000080: 6813 203c 3e01 d9bc 133c 4cbc b11d 84be
00000090: dc5b cabd 4832 a0bd b65e 19be 03ca 4fbd
000000a0: b2f7 953e d782 38be d4d6 6f3d 97eb a5bd
000000b0: aa1c aebd 2932 363e a377 37be 7541 2f3e
000000c0: 1056 073e ccb5 9c3e 7129 6f3d f5c6 06bf
000000d0: 6237 913f c654 ca3c b6c2 5fbc 723f aebe
000000e0: 6bea e2be c5f8 67bf a6a7 6cbf 2d6a 8d3e
000000f0: 39ec e8be 8557 4abc 1fe3 f9bc 5f7e 1dbd
00000100: 9862 bdbc 6520 2fbc dbfa c8bc b737 833c
00000110: 3250 903e d06b e03d 665d 093e 8ef5 003e
00000120: f916 f83e 1850 d2bd 9b6a 453e f7ba 853f
00000130: 486a 2f3e 146b e93e 4334 db3d 7aec a03c
00000140: e316 8a3c 0515 863c 5f8f 03be 9a72 03be
00000150: 6da2 10bd 620d ac3e 194a c3bd 59d3 e23c
00000160: a54c 5cbd b778 4cbe 5925 63bd dee5 533d
00000170: 739c 9dbd 3fac df3e 4199 76be 5d5c 813d
00000180: 1638 93be 0c81 3b3d 6ef0 f2bc 623d 853d
00000190: 8a6a 5c3d 1faf 87be 76ad 2bbe c8f6 9d3e
000001a0: c66b 663d 811e 233e 6cf7 bf3d 49d8 d13d
000001b0: 115d dd3c c37d 26bd a617 9abe cafd 0c3e
000001c0: 4ead 043d 4fc7 8a3b d341 0a3e 0f31 3a3d
000001d0: 9bc0 11be a3ab cabd b8c6 b4be 46e0 823e
000001e0: a235 7fbd 08f2 6a3c 030f c8bd b8b4 b8be
000001f0: 8b95 943e 1769 c0bd b40e 023e 181c 4b3e
00000200: 6c3a 083e 0a55 11be c1ea 0a3e 4c38 c7be
00000210: 8ec0 a23d 9cd9 9cbd 7b0b 6fbd 295b d63d
00000220: 8980 ef3e d095 21bf a245 923d 65b8 a6bd
00000230: d60a bb3d 1007 243e 6518 2d3d a38d be3d
00000240: 1a8b 9abd 06a7 8e3e 0347 7c3e 87c3 eebd
00000250: 152f a03d 6f27 a73c 87e4 223d bcfa 5abd
00000260: c8ac c93d 085f 5f3d 2f8b 653e ad14 c13e
00000270: 5677 573d 91b0 22bc d2a9 c7bd 6908 3d3e
00000280: 96b0 5fbd aeae e53d a9eb 643e 05f1 8e3d
00000290: 942b e2bd 1cb2 a2be 9b12 3b3e 0e92 8cbd
000002a0: 171a 3f3e ed64 003e fbf2 99be 0670 c2be
000002b0: b65b 1e3c d330 d43c 53ef 1fbe 712d 653c
000002c0: 37c7 45be 48fe 8dbd 2e17 c5bd 1a93 cfbe
000002d0: 1cce 163d 5d6b 2d3e 2cf0 21be bff2 ee3c
000002e0: 12c0 89bd fd48 203e dd0f 3dbd 0460 983e
000002f0: fd3a 75be a679 ddbc bafe 26bd 4794 993e
00000300: 6fb5 f4bc 2b7a 4c3d 582c f43c b23b 163e
00000310: 69ac 18be 8144 3c3d f773 b7bd 4519 93bd
00000320: 7db0 e0bd 2864 32be bc99 a63d 7e7d a63d
00000330: 1d51 aabe 71ff 1e3f 8e5c 65bc 2eea 17be
00000340: 69ae c93c cd54 34be 6410 fcbd 7eac 88be
00000350: 9c0f bfbd 5f75 a6be 2da8 413e 34b0 853e
00000360: 98cc d9bd 627b 973d acec 4e3e cd20 3bbc
00000370: a32f e03c 1590 123f 2117 c5be e359 0f3f
00000380: e988 14bd 36b9 193e ef95 813e 9dda 17bd
00000390: 80c6 a93b 5320 da3d 111e ce3e a5a8 66be
000003a0: 3518 143d 60ac 38bc 81b5 cfbc 2095 573e
000003b0: 09d3 963c f4b6 513d 66f5 03bb de81 90be
000003c0: 1241 ed3e 3fe7 a2bd b5b9 bfbe 3b03 9b3d
000003d0: 2523 db3d 7685 e5bd 6a4e 37be d90a 29be
000003e0: 714d 1d3e 722f b33c d2eb 963e 7e60 2e3e
000003f0: c748 85bd 1f22 1a3e cf0f c23d ce41 56be

actor_mean.0.bias f4 [145]
0.10003991 -0.107686065 -0.051885888 -0.161885 0.20836785 0.19743438 -0.08007207 0.01442055
0.14546742 0.0130938925 -0.16687977 0.12003303 -0.11685106 0.20031193 -0.07094635 -0.034281205
0.124584086 -0.03980568 0.29211628 -0.07810657 0.044040505 -0.21324931 0.07082232 -0.09378616
0.20758581 0.16844484 0.065730914 0.09935337 -0.1358554 -0.041108776 -0.08687125 0.1987221
-0.051299475 0.08022511 -0.18785074 0.026373701 0.13774271 0.08436912 -0.18790562 -0.0009863917
0.13171832 -0.16177759 0.15064186 -0.07595588 -0.11795599 -0.022628186 -0.006208139 0.3011227
-0.22684252 -0.15840583 0.006494163 0.2044352 0.048963226 0.14461301 0.025413655 0.0026245634
0.24681427 -0.20614617 -0.035360772 -0.0074554803 -0.02381513 0.35336825 -0.116601706 0.023210345
0.20425636 0.11972157 0.11680883 0.085291035 0.086038806 0.1738499 -0.11583974 -0.2071988
0.08074035 -0.042532947 0.10649807 0.10289624 0.052004814 -0.025245287 0.0199587 0.14112073
0.04463709 0.26105422 0.15144534 -0.02470085 -0.11423742 -0.14503154 0.04576427 -0.08175759
-0.33308303 -0.018527849 -0.060657497 -0.17092155 0.13134569 0.055135395 -0.07958372 -0.025762193
-0.15295087 -0.28894868 -0.06374056 -0.08180608 0.061519463 0.08809457 -0.008609161 0.046586916
0.07167709 -0.11021484 0.065135635 -0.025960384 -0.084652126 -0.060004286 0.1914291 -0.09360038
0.06067585 0.25165716 0.044441022 0.117359385 0.0049964264 -0.038657006 -0.15248688 -0.16990194
-0.04229032 -0.1818779 0.18908073 -0.11880853 0.06518697 -0.04242601 -0.09409675 0.028785631
-0.368062 0.058099426 0.012237289 0.18681048 0.088471405 -0.20968479 0.103519835 -0.1549123
0.3161323 0.042639006 0.12532191 -0.15173967 -0.026072022 0.073384024 0.10308876 -0.0326902
-0.13977605
00000000: b9e1 cc3d 838a dcbd 4c86 54bd 2ec5 25be
00000010: 625e 553e 3d2c 4a3e d3fc a3bd 2c44 6c3c
00000020: 69f5 143e c487 563c 88e2 2abe e1d3 f53d
00000030: 9c4f efbd 921e 4d3e 524c 91bd 736a 0cbd
00000040: f125 ff3d 480b 23bd 4490 953e 56f6 9fbd
00000050: d163 343d 075e 5abe 4b0b 913d f512 c0bd
00000060: 6091 543e ce7c 2c3e ee9d 863d c879 cb3d
00000070: ae1d 0bbe ad61 28bd 8ee9 b1bd ce7d 4b3e
00000080: 661f 52bd 104d a43d f25b 40be a90d d83c
00000090: 6d0c 0d3e b8c9 ac3d 556a 40be d049 81ba
000000a0: 2be1 063e 06a9 25be dc41 1a3e c28e 9bbd
000000b0: e992 f1bd bf5e b9bc a56d cbbb c12c 9a3e
000000c0: 6849 68be 2335 22be fdcc d43b 7657 513e
000000d0: aa8d 483d 6f15 143e 4c30 d03c de00 2c3b
000000e0: e1bc 7c3e fb17 53be 75d6 10bd 1a4d f4bb
000000f0: f317 c3bc afec b43e e0cc eebd 9f23 be3c
00000100: 9428 513e 9530 f53d 7839 ef3d 11ad ae3d
00000110: 1d35 b03d b505 323e 633d edbd ec2b 54be
00000120: 325b a53d 0737 2ebd a91b da3d 44bb d23d
00000130: 0003 553d 34cf cebc 6d80 a33c f481 103e
00000140: 62d5 363d e6a8 853e 7d14 1b3e 7059 cabc
00000150: 4ff5 e9bd 2683 14be 5173 3b3d 8670 a7bd
00000160: dc89 aabe b7c7 97bc ff73 78bd 0f06 2fbe
00000170: 7c7f 063e a7d5 613d cafc a2bd 3c0b d3bc
00000180: 279f 1cbe 15f1 93be 698a 82bd f289 a7bd
00000190: d5fb 7b3d ed6a b43d 700d 0dbc ecd1 3e3d
000001a0: 70cb 923d 51b8 e1bd d565 853d dfaa d4bc
000001b0: 185e adbd 0ec7 75bd fd05 443e 8eb1 bfbd
000001c0: 3d87 783d 35d9 803e ca07 363d 1e5a f03d
000001d0: 10b9 a33b cf56 1ebd 8525 1cbe c6fa 2dbe
000001e0: 9d38 2dbd 333e 3abe 619e 413e e351 f3bd
000001f0: bf80 853d e5c6 2dbd ccb5 c0bd d8cf eb3c
00000200: 9f72 bcbe aaf9 6d3d e97e 483c 3f4b 3f3e
00000210: 7f30 b53d 9cb7 56be 3502 d43d 54a1 1ebe
00000220: 18dc a13e 3da6 2e3d 6354 003e a561 1bbe
00000230: fe94 d5bc 5d4a 963d 3320 d33d 29e6 05bd
00000240: 7421 0fbe

actor_mean.2.weight f4 [290, 145]
0.0131483255 -0.05116264 -0.009407424 0.14630038 -0.00469671 -0.032272134 -0.012688674 -0.08187705
0.14056753 0.02421728 -0.05047375 0.08501331 0.08529216 -0.11053658 -0.097880654 -0.19037114
0.002133109 -0.020090913 0.059607208 0.0067442497 -0.012977917 -0.14369214 -0.055471744 0.2427099
0.018094255 0.11069948 0.026559487 -0.17560446 -0.23528737 0.034388572 -0.0017657826 -0.017435182
-0.08990401 0.20566528 -0.04656546 0.05257093 -0.04971009 -0.08001367 -0.12827472 0.055680826
0.037246432 0.025221417 -0.12848943 0.033442516 -0.08847032 -0.09299605 -0.031156024 0.18915784
0.063742764 0.13888343 -0.11436857 -0.048233747 0.044941794 -0.24301411 0.06344325 -0.12735195
0.07289549 -0.07520023 0.04477027 0.03007517 -0.10211827 0.07175707 0.10289375 0.168542
-0.044824705 -0.021708045 -0.040526494 -0.068356834 0.2373089 -0.037415233 0.005822458 0.22070178
0.08212879 0.044604007 0.06635026 0.027399039 -0.1202651 -0.07981061 0.017405156 0.10773131
-0.04527199 -0.09519077 -0.078222476 0.028524483 -0.027167948 -0.04018606 -0.096119516 0.059823092
0.15121077 -0.039222263 -0.07083722 -0.19576235 -0.038318094 -0.047749724 0.09860153 -0.11490242
-0.022460774 0.007971835 0.0886201 0.05206034 -0.02806421 0.06940657 0.07371113 -0.04026369
0.06781005 -0.013772427 -0.12984084 0.011548785 0.28402975 0.26833946 0.060178638 0.034619268
0.13466038 -0.25732931 0.15857628 -0.017066805 -0.0058621643 0.19079092 -0.027676782 0.011627718
-0.17792197 -0.088321015 0.08464455 -0.054109238 -0.13443069 0.09926946 -0.072313696 0.117199846
0.08891477 -0.018018784 0.13860983 -0.05573184 0.064306945 0.21873951 -0.045235656 0.032820966
-0.036267698 0.062390026 -0.23660156 -0.085324965 -0.1130996 0.012612316 -0.18225236 0.113165215
-0.024798136 -0.05035906 0.022705182 -0.19695024 0.010755936 0.01438659 -0.022574482 -0.15770881
-0.04732982 -0.04760086 0.08051166 0.029845055 -0.071303144 0.018603245 0.06597799 -0.09966432
-0.022510454 -0.04764754 -0.008976128 0.009024605 0.07865613 -0.010547098 -0.0011167733 -0.09142552
-0.06276647 -0.03493636 -0.03928405 -0.0052982615 0.0477539 -0.07701986 0.06334129 0.09854282
0.27216038 -0.025496606 0.02417881 -0.11460975 -0.15489966 0.06950208 0.077756874 -0.020229526
0.063367635 0.10014873 0.10870803 0.0029724503 -0.1132153 -0.002461643 -0.041797232 -0.23145884
0.06851602 -0.054828685 0.11435334 -0.0058980165 0.17897408 -0.05777126 -0.061011136 -0.1599093
0.040685356 0.09131468 0.06286079 0.006213922 -0.010337754 0.005107774 -0.061200824 0.032656554
0.016666112 -0.1485997 -0.04277498 0.032929312 -0.0711649 0.084799424 0.064719506 -0.11386158
-0.052328836 -0.0033869303 -0.062173203 -0.027232923 -0.08624082 -0.06766749 0.079005815 -0.14504479
0.07841535 0.028799392 -0.013658987 -0.045538284 0.040582784 -0.026771646 -0.17979904 -0.07620301
0.07402799 -0.040899597 -0.105907 0.19066013 0.056786686 -0.03946645 0.105408765 -0.12050818
0.038538426 0.0008694827 0.16495615 -0.14081924 -0.037995007 -0.07744298 0.10847411 -0.034980975
-0.09507268 0.0020569637 -0.13231012 0.050308462 0.054977924 0.02101349 0.023178983 -0.115820564
00000000: 136c 573c eb8f 51bd 9921 1abc c4cf 153e
00000010: dce6 99bb c92f 04bd 28e4 4fbc 28af a7bd
00000020: eff0 0f3e 5163 c63c 90bd 4ebd 751b ae3d
00000030: a8ad ae3d 0161 e2bd a775 c8bd a7f0 42be
00000040: a1cb 0b3b b395 a4bc b026 743d defe dc3b
00000050: 54a1 54bc 0824 13be 5736 63bd f288 783e
00000060: 673a 943c 69b6 e23d 4893 d93c a8d1 33be
00000070: 2cef 70be 08db 0c3d d571 e7ba 3ad4 8ebc
00000080: 981f b8bd eb99 523e 6cbb 3ebd 9e54 573d
00000090: cf9c 4bbd 35de a3bd 735a 03be 9411 643d
000000a0: b78f 183d 259d ce3c bc92 03be 05fb 083d
000000b0: ed2f b5bd b774 bebd eb3a ffbc 98b2 413e
000000c0: 918b 823d 7537 0e3e 123a eabd c090 45bd
000000d0: e314 383d b1d8 78be 89ee 813d 8d68 02be
000000e0: 3b4a 953d 9402 9abd 0861 373d 3460 f63c
000000f0: 6223 d1bd 5ff5 923d f5b9 d23d 4696 2c3e
00000100: 1c9a 37bd 12d5 b1bc 1cff 25bd abfe 8bbd
00000110: 1b01 733e b740 19bd 51ca be3b a6ff 613e
00000120: 2433 a83d b1b2 363d a5e2 873d f373 e03c
00000130: 8c4d f6bd bf73 a3bd 4295 8e3c 3ca2 dc3d
00000140: 1f6f 39bd 61f3 c2bd 1b33 a0bd 2dac e93c
00000150: 518f debc 239a 24bd 4fda c4bd 0f09 753d
00000160: ffd6 1a3e 86a7 20bd 1b13 91bd ed75 48be
00000170: 6ff3 1cbd 3795 43bd 99ef c93d f651 ebbd
00000180: a8ff b7bc 4d9c 023c 747e b53d 393d 553d
00000190: eae6 e5bc 0825 8e3d dcf5 963d 8aeb 24bd
000001a0: ffdf 8a3d bfa5 61bc fff4 04be 1d37 3d3c
000001b0: 596c 913e ca63 893e e07d 763d efcc 0d3d
000001c0: 69e4 093e abc0 83be d261 223e afcf 8bbc
000001d0: 6617 c0bb b25e 433e 6bba e2bc 2f82 3e3c
000001e0: 2d31 36be a6e1 b4bd 1f5a ad3d a6a1 5dbd
000001f0: 33a8 09be c94d cb3d 3419 94bd 7906 f03d
00000200: f218 b63d 219c 93bc bcef 0d3e 1247 64bd
00000210: 5cb3 833d 40fd 5f3e 0649 39bd 476f 063d
00000220: 708d 14bd af8c 7f3d ae47 72be dbbe aebd
00000230: c3a0 e7bd e3a3 4e3c 5da0 3abe 2ac3 e73d
00000240: 7625 cbbc 4d45 4ebd 3800 ba3c 53ad 49be
00000250: aa39 303c bbb5 6b3c 1fee b8bc 6b7e 21be
00000260: eadc 41bd 1ff9 42bd 4ce3 a43d 9e7d f43c
00000270: 6207 92bd d565 983c 781f 873d cf1c ccbd
00000280: d867 b8bc 112a 43bd 9c10 13bc f0db 133c
00000290: 7716 a13d bccd 2cbc b260 92ba 4e3d bbbd
000002a0: b58b 80bd 6e19 0fbd 50e8 20bd 0a9d adbb
000002b0: 9899 433d 97bc 9dbd 14b9 813d d1d0 c93d
000002c0: 9b58 8b3e 42de d0bc a412 c63c 84b8 eabd
000002d0: 049e 1ebe 1b57 8e3d ff3e 9f3d 64b8 a5bc
000002e0: e4c6 813d c71a cd3d 51a2 de3d 71cd 423b
000002f0: 6cdd e7bd 8453 21bb 9333 2bbd 8c03 6dbe
00000300: 2152 8c3d 0b94 60bd 1532 ea3d 2644 c1bb
00000310: fb44 373e 8fa1 6cbd d0e6 79bd 43bf 23be
00000320: b0a5 263d 3103 bb3d 28bd 803d 289e cb3b
00000330: af5f 29bc 1d5f a73b b7ad 7abd e1c2 053d
00000340: 5f87 883c 852a 18be d134 2fbd e3e0 063d
00000350: e7be 91bd 52ab ad3d a98b 843d 4330 e9bd
00000360: c356 56bd 43f7 5dbb 54a9 7ebd 9417 dfbc
00000370: 079f b0bd 4195 8abd cdcd a13d 9f86 14be
00000380: 3a98 a03d b4ec eb3c f2c9 5fbc 5a86 3abd
00000390: 223a 263d 3650 dbbc 3d1d 38be 5310 9cbd
000003a0: fd9b 973d 5686 27bd c5e5 d8bd 693c 433e
000003b0: 2899 683d 93a7 21bd 8de0 d73d fecc f6bd
000003c0: 78da 1d3d ffed 633a 44ea 283e eb32 10be
000003d0: a7a0 1bbd 6d9a 9ebd ad27 de3d 3648 0fbd
000003e0: 77b5 c2bd 20ce 063b 4e7c 07be 3f10 4e3d
000003f0: 8830 613d 7c24 ac3c dae1 bd3c 5533 edbd
