DATA403_final/checkpoints/Walker2d-v4_t/PPO_6248.pt (torch, 372045 bytes, 12 tensors)

actor_logstd f4 [1, 6]
0	0x3fe5da00	1.7957153
1	0x3fd84fa0	1.68993
2	0x3fe2ac3b	1.770881
3	0x3fc96f2b	1.5737051
4	0x3fc2aac1	1.520836
5	0x3faef29b	1.3667787

critic.0.weight f4 [145, 17]
0	0xbd33bd11	-0.04388148
1	0x3d908745	0.070570506
2	0x3e97bd17	0.29636452
3	0xbea64b92	-0.3247953
4	0x3c9b02c2	0.018922213
5	0x3eed87cf	0.46392676
6	0x3e625e65	0.22106321
7	0xbe4c9bf5	-0.19981368
8	0xbf0914d2	-0.53547394
9	0x3e4675f8	0.19380939
10	0x3dbc206f	0.09185874
11	0xbd91dfbc	-0.07122752
12	0xbb220193	-0.0024720177
13	0xbc93bf0c	-0.018035434
14	0xbce266fc	-0.027636997
15	0x3d58710b	0.05284218
16	0x3d033020	0.032028317
17	0xbd867a6d	-0.065663196
18	0x3ddbb0f6	0.10727112
19	0x3efc1346	0.49233454
20	0xbc19cb1b	-0.009386803
21	0xb93e5f88	-0.000181554
22	0x3d9a68bd	0.075395085
23	0xbf772d26	-0.96553266
24	0xbd87eb23	-0.06636646
25	0x3eed1c84	0.46310818
26	0xbed4d09d	-0.4156541
27	0xbde562e2	-0.11200501
28	0xbb183ba7	-0.0023228915
29	0x3c1c71c4	0.009548608
30	0x3bfc2d01	0.0076957946
31	0xbc3a56c9	-0.01137323
32	0x3cf7290a	0.030170936
33	0xbcbe9a46	-0.023266923
34	0x3eb7f718	0.35930705
35	0x3da3e599	0.08002777
36	0xbe8ed687	-0.27898046
37	0xbea886b1	-0.3291526
38	0x3f06bfe6	0.52636564
39	0x3efbef48	0.49205995
40	0x3e3005db	0.17189734
41	0x3e645701	0.22298814
42	0x3ea1a8b3	0.3157402
43	0x3ef4f1bf	0.47840688
44	0xbe799a32	-0.24375227
45	0x39d053a3	0.00039735166
46	0x3c94126e	0.018075194
47	0x3c16003a	0.009155327
48	0x3e74e282	0.23914531
49	0x3e3a38fb	0.18185799
50	0xbc35a991	-0.011087791
51	0xbe00dc8f	-0.12584136
52	0xbf9fa0ef	-1.2470988
53	0x3ea52e1e	0.32261747
54	0x3c8cd4ca	0.01719131
55	0x3de2574b	0.11051806
56	0x3f06df66	0.5268463
57	0x3f82508b	1.018083
58	0x3e8f8a0d	0.28035012
59	0xbe5c8c52	-0.21537903
60	0xbec148e3	-0.3775092
61	0x3cfeece8	0.031118825
62	0x3d8ae8f2	0.06782712
63	0x3d071151	0.0329755
64	0xbca70edd	-0.02039283
65	0xbc28a70f	-0.010293736
66	0x3d6892f2	0.056780763
67	0xbd87d009	-0.066314764
68	0xbdc03f09	-0.09387023
69	0xbf6de102	-0.9292146
70	0x3e43e176	0.19128975
71	0x3e55964e	0.20858118
72	0xbe5d2af3	-0.21598415
73	0x3f002b7e	0.50066364
74	0x3d100450	0.035160363
75	0x3deb7f21	0.11498857
76	0xbe2fc0e7	-0.1716343
77	0x3d78754b	0.060658734
78	0x3e212ed3	0.15740518
79	0x3d7a2758	0.061072677
80	0x3df0b640	0.117535114
81	0x3d219fff	0.039459225
82	0xbe43d58e	-0.19124433
83	0xbdc0f783	-0.09422209
84	0x3d2739a3	0.04082645
85	0x3d973cf5	0.073846735
86	0x3f9546cb	1.1662229
87	0x3ecc8284	0.39943326
88	0x3d394d03	0.04523946
89	0x39d43d88	0.00040481635
90	0xbe3f9106	-0.18707666
91	0x3eb820fd	0.35962668
92	0x3d3e4535	0.04645272
93	0x3df317b2	0.11869754
94	0x3e51c6c0	0.20485973
95	0xbccbec13	-0.024892842
96	0x3e51f9e5	0.20505483
97	0x3d917b55	0.07103602
98	0x3cc14bf4	0.023595788
99	0xbdc6ad11	-0.097009785
100	0xbde90ed7	-0.113797836
101	0xbc43a1d4	-0.011940438
102	0xbec0662d	-0.37577954
103	0x3d732c72	0.05936856
104	0xbe680735	-0.22659
105	0xbdcaaf4a	-0.09896715
106	0x3dc84c18	0.09780139
107	0x3ed37ea5	0.4130756
108	0x3e5695c8	0.20955575
109	0xbf75657a	-0.95857966
110	0xbe3aa686	-0.18227586
111	0xbe53eece	-0.20696566
112	0x3d81147c	0.06302735
113	0x3cfb1415	0.030649224
114	0xba18bda4	-0.00058265985
115	0x3c29e3e2	0.010369273
116	0xbd920f9d	-0.07131884
117	0x3cd2e2cc	0.02574291
118	0xbd1210cb	-0.035660546
119	0x3bea32f1	0.007147186
120	0x3f2bea1f	0.67154115
121	0x3e028baa	0.1274859
122	0xbf08e74d	-0.53477937
123	0xbd96927b	-0.07352158
124	0xbe9c4851	-0.30523923
125	0xbd61e624	-0.05515112
126	0x3d926a87	0.07149225
127	0x3f0bafa9	0.5456491
128	0xbeb81e72	-0.35960728
129	0x3e2b8dd4	0.16753322
130	0xbead425c	-0.3383969
131	0xbd9d1edb	-0.07671901
132	0xbc80dfdb	-0.015731743
133	0x3da50d54	0.08059183
134	0x3b5fb8cb	0.0034137245
135	0xbd74b817	-0.059745874
136	0x3e88a2f2	0.26686817
137	0x3ed591e7	0.41712877
138	0xbe715ba6	-0.23570117
139	0xbe09f6b0	-0.1347301
140	0xbdec0012	-0.11523451
141	0xbd87d0cc	-0.06631622
142	0x3e750af2	0.23929957
143	0x3da6a549	0.081369944
144	0x3f20b406	0.62774694
145	0xbd907b62	-0.070547834
146	0xbe79073e	-0.24319169
147	0xbc8946f4	-0.016757466
148	0x3de9d79e	0.11418079
149	0xbc48639a	-0.012230778
150	0xbd6cfadf	-0.057856437
151	0x3b3fbae9	0.0029255694
152	0x3c79067b	0.015199299
153	0xbe390791	-0.18069293
154	0x3e85fbe8	0.26168752
155	0xbf12ea96	-0.573892
156	0x3e7d9a9a	0.24766007
157	0x3e4c0477	0.19923578
158	0xbd8d692d	-0.06904826
159	0x3ea71cfa	0.32639295
160	0x3ca061a5	0.01957781
161	0x3e6a9fea	0.22912565
162	0x3dff6110	0.12469685
163	0xbe1e9cf9	-0.15489568
164	0x3e13e7da	0.14443913
165	0xbd15fffe	-0.036621086
166	0xbbd12b80	-0.0063833594
167	0xbc4258e1	-0.011862011
168	0xbcb730d2	-0.022362147
169	0x3b9c0255	0.00476102
170	0x3e697d68	0.22801745
171	0x3e5e0810	0.21682763
172	0xbf036789	-0.5132986
173	0xbef740fc	-0.48291767
174	0xbcbef185	-0.023308525
175	0xbeafc54d	-0.34330216
176	0xbeb41f7b	-0.35180268
177	0x3c4dcb35	0.012560655
178	0x3f53dddb	0.827604
179	0xbf0d026d	-0.55081826
180	0xbd89c8fa	-0.06727786
181	0x3d5f4b52	0.05451519
182	0x3d1383a8	0.03601423
183	0xbb482566	-0.003053987
184	0xbd408935	-0.04700585
185	0xbd8ae9f6	-0.06782906
186	0x3c4914d3	0.012273031
187	0x3cbaa263	0.02278251
188	0x3c1dd521	0.009633333
189	0x3e9dfb9c	0.30856025
190	0xbec8d99c	-0.39228523
191	0x3e3b4b52	0.18290451
192	0xbf894fdc	-1.0727496
193	0xbee60a36	-0.44929665
194	0xbf3c6e92	-0.73606217
195	0xbea2a45d	-0.31766024
196	0xbeeaad0a	-0.45835143
197	0x3e51aa91	0.20475222
198	0x3dd8410e	0.10559283
199	0x3d89ee33	0.06734886
200	0xbca8ac3a	-0.020589937
201	0xbe0edc93	-0.1395133
202	0xbcecd4c8	-0.028910056
203	0xbcfa4738	-0.030551538
204	0xbd79e89e	-0.061012857
205	0x3db1b9ad	0.08677993
206	0xbe72e314	-0.23719436
207	0xbe2320ac	-0.15930432
208	0x3dc7cd7a	0.097559884
209	0x3f8ea6ec	1.114469
210	0x3f078ec1	0.529522
211	0xbea575e9	-0.3231652
212	0x3e5e19d6	0.21689543
213	0x3e39da06	0.18149576
214	0x3dfbc184	0.122927696
215	0x3dbfcedf	0.093656294
216	0x3caaa6a5	0.020831415
217	0xbde3959b	-0.11112519
218	0xbe2764a5	-0.16346987
219	0xbdb30f69	-0.08743174
220	0xbcd97691	-0.026545795
221	0x3e7a3c8c	0.2443716
222	0xbf4c49ab	-0.7979991
223	0x3ddf4efa	0.109037355
224	0x3f0bc6fe	0.54600513
225	0xbc7878cb	-0.015165518
226	0xbf1025ee	-0.56307876
227	0x3e4edc82	0.20201305
228	0x3d28cbf9	0.04121015
229	0xbe9cc61a	-0.3061989
230	0xbe54edaf	-0.20793794
231	0xbe40b27f	-0.18818091
232	0x3cf1150b	0.02942898
233	0x3adf3311	0.0017028769
234	0x3ba969b5	0.005170072
235	0x3d04875c	0.03235565
236	0x3d08f8de	0.033440463
237	0x3c365098	0.0111276135
238	0xbe313e61	-0.17308952
239	0x3f0a4d08	0.5402379
240	0xbd1c5777	-0.03816935
241	0xbdaa6551	-0.08320106
242	0x3e2cedd5	0.168876
243	0xbdf7f98c	-0.12108144
244	0xbdffe07b	-0.12493988
245	0x3f3d58d7	0.73963684
246	0x3cf54563	0.029940313
247	0xbdc3a811	-0.095535405
248	0xbe9c7364	-0.30556786
249	0x3d999e0e	0.0750085
250	0x3d40a863	0.047035586
251	0xbb4fceb7	-0.0031708905
252	0x3e182f32	0.14861754
253	0x3df7fb5e	0.12108491
254	0xbd6c7040	-0.057724237
255	0x3e05d196	0.13068232

critic.0.bias f4 [145]
0	0xbd98c6d4	-0.074597985
1	0xbd3a4d49	-0.04548386
2	0x3e84c2e0	0.25929928
3	0xbcd1123e	-0.025521394
4	0xbd578fd4	-0.0526274
5	0xbdffdf42	-0.12493755
6	0xbeb7dae2	-0.35909182
7	0xbce9a4a2	-0.028520886
8	0x3e257c03	0.16160588
9	0xbd2ed69c	-0.042685136
10	0x3e3756a9	0.17904152
11	0xbe3771b5	-0.1791447
12	0xbe0beeed	-0.13665362
13	0x3e0871c8	0.13324654
14	0xbe96c5fc	-0.29447925
15	0xbe004527	-0.1252638
16	0x3de62ebe	0.11239384
17	0xbe319ee5	-0.1734577
18	0x3d149787	0.03627732
19	0xbe95781e	-0.29193205
20	0x3e615d6f	0.22008298
21	0xbe461ae5	-0.19346197
22	0xbdacb9a2	-0.08433844
23	0xbd84e078	-0.064881265
24	0xbe59547e	-0.21223637
25	0x3d5c5d54	0.053799942
26	0xbedaef48	-0.42760682
27	0x3e8fe19b	0.2810181
28	0xbdeae051	-0.11468566
29	0x3aeab7df	0.0017907581
30	0x3d8e2bb7	0.06941932
31	0x3eb41e8f	0.35179564
32	0xbd89d39c	-0.067298144
33	0x3e00fad1	0.12595679
34	0xbea68b21	-0.32528022
35	0xbe304640	-0.17214298
36	0x3d978c5f	0.073998205
37	0x3d56a280	0.052401066
38	0x3be6692c	0.0070315804
39	0xbea6038b	-0.32424578
40	0x3ed19c4f	0.40939566
41	0x3b906f77	0.004407819
42	0x3b9c0a01	0.0047619347
43	0xbdd539c0	-0.104114056
44	0x3e43a523	0.19105963
45	0xbe7c6622	-0.24648336
46	0x3d0c4fc4	0.034255758
47	0xbec8fe56	-0.39256543
48	0x3cca8413	0.024721181
49	0xbea64f53	-0.32482395
50	0x3e98f752	0.2987619
51	0xbd4f7f4b	-0.050658505
52	0xbd208dd4	-0.039197758
53	0xbe479e55	-0.19493993
54	0xbe7b46fa	-0.24538794
55	0xbed4c3d0	-0.41555643
56	0x3dc33dfc	0.09533307
57	0x3dfff39b	0.12497636
58	0xbe32776a	-0.17428365
59	0x3dc17826	0.094467446
60	0xbe9d80b9	-0.3076227
61	0xbe5782fd	-0.21046062
62	0x3ed9fdd0	0.42576456
63	0xbe7e430e	-0.24830267
64	0xbdc3f3ac	-0.09567961
65	0xbbcad079	-0.0061894027
66	0xbe93686b	-0.28790602
67	0xbe36de59	-0.17858256
68	0x3d72a9e7	0.059244063
69	0x3c974d6f	0.01846954
70	0x3e35473c	0.17702955
71	0x3e38d90c	0.18051547
72	0x3ed1ee03	0.410019
73	0x3e60bd53	0.21947221
74	0x3e020979	0.12698926
75	0xbe3b79b5	-0.18308146
76	0xbeeb2048	-0.45923066
77	0xbd92d6eb	-0.071698986
78	0xbe0a58d1	-0.13510443
79	0xbefa9da3	-0.48948392
80	0xbe6d9ad3	-0.23203592
81	0x3e770844	0.24124247
82	0xbe80f595	-0.25187364
83	0x3e402317	0.18763386
84	0xbe8b13f0	-0.2716365
85	0x3e88aab8	0.26692748
86	0xbd63d0f7	-0.055619206
87	0x3e678dc9	0.2261268
88	0x3e906bae	0.28207153
89	0xbce4f97c	-0.027950995
90	0x3e31eb16	0.17374834
91	0x3e9fd6b2	0.31218487
92	0xbde67588	-0.11252886
93	0x3db6b8b4	0.08921948
94	0x3d829e07	0.063777976
95	0x3ed25f25	0.41088215
96	0x3ee4cd69	0.44687966
97	0xbe33f170	-0.1757257
98	0xbecb4176	-0.3969838
99	0xbd5a51e9	-0.05330077
100	0x3eac919f	0.3370485
101	0xbe775cd9	-0.24156512
102	0xbcf5f8d9	-0.030025886
103	0xbd4d7baf	-0.050166782
104	0x3abafe3a	0.0014266439
105	0xbe8984cc	-0.26859128
106	0x3e9ca3dd	0.30593768
107	0x3dc7a52d	0.09748302
108	0x3df4423c	0.11926696
109	0xbed322e3	-0.41237554
110	0x3e76f740	0.24117756
111	0xbed49e2b	-0.41526923
112	0x3c0ab5a4	0.008466158
113	0xbe1bbdd3	-0.15209131
114	0x3d6146fd	0.05499934
115	0x3e85ae4b	0.26109537
116	0x3e82b925	0.2553188
117	0xbeb1f851	-0.34759763
118	0x3ebe0c48	0.37118745
119	0xbcd490a5	-0.025947878
120	0x3df0c9fb	0.11757275
121	0x3db95e99	0.09051246
122	0xbcedade3	-0.02901358
123	0x3d3256aa	0.04353968
124	0x3d498838	0.049202174
125	0x3e809c4b	0.25119242
126	0xbddbe2b4	-0.107365996
127	0xbd893025	-0.06698636
128	0xbe23166a	-0.15926519
129	0xbe93863c	-0.2881335
130	0x3c197b3b	0.009367759
131	0x3e859024	0.26086533
132	0x3e2771ed	0.16352053
133	0xbecf5b84	-0.40499508
134	0x3e189e45	0.14904125
135	0x3e3d6464	0.18495327
136	0x3e9d3b86	0.30709475
137	0x3c532288	0.012886651
138	0x3edaf821	0.42767432
139	0x3e9d2d74	0.3069874
140	0x3db3662e	0.087597236
141	0x3e290089	0.1650411
142	0xbe79261e	-0.24330947
143	0x3d9a7c5c	0.07543251
144	0xbdf51641	-0.11967135

critic.2.weight f4 [290, 145]
0	0x3e85fe4d	0.2617058
1	0xbe2220b6	-0.1583279
2	0xbe7fbd2e	-0.2497451
3	0x3e01c6af	0.12673448
4	0x3dbbeceb	0.09176048
5	0xbeae5651	-0.3405023
6	0x3d1fdec6	0.039030813
7	0xbea45c7e	-0.32101816
8	0xbe15afbe	-0.14617822
9	0xbe1e1529	-0.1543776
10	0xbf0cd479	-0.5501171
11	0xbcadb0a0	-0.021202385
12	0xbe3434ce	-0.17598268
13	0x3d0924f2	0.0334825
14	0xbe186155	-0.14880879
15	0xbd787566	-0.060658835
16	0xbe6108fa	-0.2197608
17	0xbe1a6e3b	-0.15081112
18	0x3bdae06b	0.0066795847
19	0xbcaadd92	-0.020857606
20	0x3dd130f4	0.10214415
21	0xbeb5ab7d	-0.35482398
22	0x3e8e76f1	0.2782512
23	0xbe58d455	-0.21174748
24	0x3b776e30	0.0037754886
25	0x3e723a24	0.23654991
26	0xbe28dd2f	-0.16490625
27	0xbe0f630e	-0.1400263
28	0xbe210623	-0.15724997
29	0xbe19d270	-0.15021682
30	0x3e8b9067	0.27258608
31	0x3d901425	0.07035092
32	0x3e20cca8	0.1570307
33	0xbe289cc7	-0.16466056
34	0x3cc560a4	0.024093933
35	0x3daa6abd	0.0832114
36	0xbeb895a0	-0.36051655
37	0xbe9901e8	-0.29884267
38	0xbc62b2ba	-0.013836557
39	0x3e648572	0.2231653
40	0x3d149590	0.036275446
41	0x3ebd111a	0.3692711
42	0x3e9d28bb	0.30695137
43	0x3e9fdc0d	0.31222573
44	0xbe31b7ed	-0.17355318
45	0xbe4fd24e	-0.20295069
46	0xbe85da29	-0.26143005
47	0xbd1d01f8	-0.038331956
48	0x3db31230	0.08743703
49	0xbda319c7	-0.07963901
50	0xbe31b0cc	-0.17352599
51	0x3d9d490c	0.07679948
52	0xbea8e532	-0.32987362
53	0xbd1ba879	-0.038002465
54	0x3e61a612	0.22036007
55	0x3d03ad4b	0.032147687
56	0x3ea7a5de	0.32743734
57	0x3e82d845	0.25555626
58	0xbdb33b57	-0.087515526
59	0x3e7b075f	0.2451453
60	0x3dd1af6c	0.10238537
61	0x3c713a04	0.014723305
62	0xbdb52f5b	-0.08846923
63	0xbd8d0309	-0.068853445
64	0x3e6397f8	0.2222594
65	0x3eb52c25	0.35385242
66	0xbd621e8a	-0.055204906
67	0x3e32fabc	0.1747846
68	0xbe14c7a2	-0.14529279
69	0x3e9c312c	0.30506265
70	0x3c8b708b	0.017021438
71	0xbe4b4e4a	-0.19854084
72	0xbab6cf74	-0.0013947324
73	0xbe46a4eb	-0.19398849
74	0xbe86794c	-0.26264417
75	0xbe483936	-0.19553074
76	0xbb5001ed	-0.003173943
77	0xbe785883	-0.24252515
78	0xbe6a6185	-0.22888763
79	0x3d46fc34	0.048580363
80	0x3e1400bf	0.1445341
81	0x3d034a34	0.032053187
82	0xbd195b09	-0.037440334
83	0xbe10aa05	-0.14127357
84	0x3e3bf566	0.18355331
85	0xbe0997a7	-0.13436757
86	0xbc40ee89	-0.011775621
87	0x3d808d7e	0.062769875
88	0xbeaea6de	-0.34111685
89	0xbe34a39e	-0.1764054
90	0xbe91819c	-0.28419197
91	0xbcfbabde	-0.030721601
92	0x3e52ea6c	0.20597237
93	0xbeefff26	-0.4687435
94	0x3e701e76	0.2344912
95	0x3dd8fcef	0.10595118
96	0x3e159d09	0.14610685
97	0x3e77f880	0.24215889
98	0x3dabdcbf	0.08391713
99	0xbe850949	-0.25983647
100	0xbd289cb4	-0.04116507
101	0x3d77470c	0.06037049
102	0x3e004d38	0.12529457
103	0x3e0d1830	0.13778758
104	0x3ca59aa9	0.02021535
105	0x3b8b46c9	0.0042503816
106	0xbd3fba31	-0.046808425
107	0xbeb20582	-0.34769827
108	0xbda75221	-0.08169962
109	0x3c2d3ed3	0.0105740605
110	0x3e38a8b4	0.18033105
111	0x3dd9d2b7	0.10635894
112	0xbdf79b79	-0.12090201
113	0xbe2eb645	-0.17061718
114	0xbe3aee32	-0.18254927
115	0xbe131bb0	-0.1436603
116	0xbe1c0dde	-0.15239665
117	0x3d7a5a07	0.061121013
118	0xbe240816	-0.1601871
119	0x3ebca823	0.36847028
120	0xbdad4f7d	-0.08462427
121	0xbe8984af	-0.26859042
122	0x3e5b2d70	0.21404052
123	0x3df80159	0.12109632
124	0xbe390e0e	-0.18071768
125	0xbdc621ed	-0.096744396
126	0x3dcdd720	0.100507975
127	0x3dd51642	0.10404636
128	0xbe638fca	-0.2222282
129	0x3df18678	0.11793226
130	0x3e332e99	0.17498244
131	0xbdcbb001	-0.099456795
132	0xbea27bce	-0.3173508
133	0xbd7c05f5	-0.06152912
134	0xbe0b5591	-0.1360686
135	0xbe47c048	-0.19506943
136	0x3d1cf06f	0.038315233
137	0xbe7dcc67	-0.24785005
138	0x3df39e48	0.11895424
139	0xbd87d027	-0.06631499
140	0xbe2b2821	-0.16714527
141	0x3df3b8b3	0.11900463
142	0x3e07c518	0.13258779
143	0x3d21831d	0.03943168
144	0x3e72c1cf	0.23706745
145	0x3e8d0d59	0.27549246
146	0xbebf37ee	-0.37347358
147	0xbdd8784d	-0.105698206
148	0xbcedd881	-0.029033901
149	0xbe0bca9a	-0.13651505
150	0x39dc6670	0.00042037992
151	0x3dea8f77	0.11453145
152	0xbd005247	-0.031328466
153	0xbe2f2eb2	-0.17107657
154	0xbe3981ee	-0.1811597
155	0xbe83b58e	-0.25724453
156	0xbe2a0595	-0.16603692
157	0x3df59e6c	0.11993107
158	0xbddb6f21	-0.107145555
159	0xbec294db	-0.38004193
160	0xbe81c77d	-0.2534751
161	0xbdb73adc	-0.089467734
162	0xbe5111a5	-0.20416887
163	0xbcde5803	-0.027141577
164	0xbd84b254	-0.06479326
165	0xbe39662f	-0.18105386
166	0xbf0c32d5	-0.54765064
167	0x3df111af	0.11770951
168	0x3e92acf4	0.28647578
169	0x3d9529b0	0.07283342
170	0xbe8e967b	-0.27849182
171	0xbd114ba4	-0.035472527
172	0x3d98409e	0.074342
173	0xbeb6e18d	-0.35718957
174	0xbdee6171	-0.11639679
175	0x3e896f80	0.2684288
176	0x3d962130	0.07330549
177	0xbd7d3564	-0.061818495
178	0xbd217148	-0.039414674
179	0x3e00c123	0.12573676
180	0x3c8c22da	0.017106462
181	0xbe2e13fa	-0.16999808
182	0xbe05e06a	-0.13073888
183	0x3f22fa40	0.636631
184	0xbe49f595	-0.19722588
185	0xbdabd927	-0.08391028
186	0x3ee5ffdd	0.4492177
187	0x3f4e38a3	0.8055517
188	0x3c271d4a	0.010199854
189	0xbe2da957	-0.1695913
190	0xbe022c5d	-0.12712236
191	0x3e6c792f	0.23093103
192	0xbd068248	-0.03283909
193	0x3e21ebcf	0.1581261
194	0x3e1fd888	0.15609944
195	0x3c28c6c0	0.010301292
196	0x3e471892	0.19442967
197	0xbe590380	-0.21192741
198	0xbdf14f5a	-0.11782713
199	0x3ebac54c	0.3647865
200	0xbd88d2c1	-0.06680823
201	0x3eeac571	0.4585376
202	0x3deb54bb	0.114907704
203	0xbdd0e2da	-0.101995185
204	0x3db772e2	0.08957459
205	0xbd12288d	-0.035683203
206	0xbe89b184	-0.26893246
207	0xbced90f4	-0.028999783
208	0xbe1d96dd	-0.15389581
209	0xbb3c1720	-0.0028700307
210	0x3f10f60a	0.56625426
211	0xbd92ae9d	-0.07162211
212	0xbe6fbfda	-0.2341303
213	0xbebcdcba	-0.3688715
214	0x3e81ef1b	0.25377735
215	0xbe4a4fcd	-0.19757004
216	0xbd4d7ac3	-0.050165903
217	0x3cc5b2bc	0.024133079
218	0x3cd5b1ca	0.026085753
219	0x3e1b9b1f	0.15195893
220	0xbea0038d	-0.3125271
221	0xbe26e699	-0.16298904
222	0xbe5e8477	-0.21730219
223	0x3d8ae088	0.06781107
224	0xbd50d9fc	-0.050989136
225	0x3de403fe	0.11133574
226	0xbce4e483	-0.027940994
227	0x3e96633c	0.29372585
228	0xbc5258d4	-0.012838561
229	0x3d839fe0	0.06426978
230	0xbe854a47	-0.26033232
231	0xbe2fb27b	-0.17157929
232	0x3e83de90	0.2575574
233	0x3c9e4370	0.019319266
234	0x3ee74f29	0.45177582
235	0xbda2c086	-0.07946877
236	0xbe3269bc	-0.17423147
237	0xbdcfb1a5	-0.10141305
238	0xbe543c3f	-0.20726107
239	0x3d9154d3	0.07096257
240	0x3ec00511	0.37503865
241	0x3c2f6081	0.010704161
242	0xbe22fb14	-0.15916091
243	0xbc691f38	-0.014228635
244	0xbe494429	-0.19654907
245	0x3e089505	0.13338096
246	0xbe432a9d	-0.19059224
247	0xbd637ac8	-0.055537015
248	0xbd96212d	-0.073305465
249	0x3e9f0169	0.31055763
250	0xbd4097e0	-0.04701984
251	0xbe3cbe68	-0.18432009
252	0xbc253c5c	-0.010085192
253	0xbe99d28b	-0.30043444
254	0x3da8d61f	0.08243965
255	0x3dff8bd3	0.12477841

critic.2.bias f4 [290]
0	0xbdf5a1d9	-0.119937606
1	0xbd45d9f0	-0.048303545
2	0xbcf6dcf7	-0.030134661
3	0x3e38d9ad	0.18051787
4	0xbd57a018	-0.05264291
5	0x3e3a04f1	0.18165947
6	0x3e167b2f	0.14695428
7	0x3e022c0f	0.1271212
8	0xbe07c39e	-0.13258216
9	0x3e17ac63	0.14811854
10	0xbdbe23e4	-0.09284189
11	0xbd40980b	-0.04702
12	0x3e242562	0.16029885
13	0x3dc728b5	0.09724561
14	0x3d60906a	0.054825224
15	0x3ccffb9b	0.02538853
16	0xbd4b3573	-0.04961152
17	0xbbb95a4a	-0.0056565152
18	0x3d8ec10b	0.06970414
19	0x3e4d7ea2	0.20067838
20	0xbe19e51a	-0.15028802
21	0xbd35bbbf	-0.0443685
22	0xbe466340	-0.19373798
23	0x3d00402b	0.031311195
24	0xbe1eec58	-0.15519845
25	0xbd7bfb9d	-0.061519254
26	0x3dbbaa0f	0.091632955
27	0x3dc0372f	0.093855254
28	0xbe0eb21d	-0.13935132
29	0x3d1d42ff	0.03839397
30	0x3ddfe00a	0.10931404
31	0xbd7ff28b	-0.062487166
32	0x3dc855e8	0.0978201
33	0xbda00cdb	-0.07814952
34	0xbd4b3a94	-0.04961641
35	0xbe17b68e	-0.14815733
36	0x3e29d846	0.16586408
37	0xbe2681c0	-0.16260433
38	0x3da718b7	0.08159011
39	0x3dc0de5d	0.094174124
40	0x3e4c461d	0.19948621
41	0xbd329227	-0.043596413
42	0x3de4cc56	0.111717865
43	0x3e7bcf3a	0.2459077
44	0x3e500035	0.20312579
45	0x3dd65603	0.10465624
46	0x3d14c3d1	0.036319558
47	0xbe332f29	-0.17498459
48	0xbdb94e85	-0.090481795
49	0xbe0ad104	-0.13556296
50	0xbde9bf73	-0.11413469
51	0x3db4c885	0.088273086
52	0xbdb43563	-0.08799245
53	0x3d858155	0.06518809
54	0x3e787203	0.24262242
55	0x3db346eb	0.08753761
56	0x3d55acf6	0.0521669
57	0xbde5c702	-0.11219598
58	0xbe1786cc	-0.14797515
59	0x3e4653d8	0.19367921
60	0xbde30300	-0.110845566
61	0xbd2c9501	-0.04213429
62	0x3e1d2876	0.15347466
63	0x3c984ca3	0.01859123
64	0x3d78db73	0.060756158
65	0xbca7e66e	-0.02049562
66	0xbd2e2413	-0.04251487
67	0x3dc0b8fc	0.09410283
68	0x3e50fbbd	0.2040853
69	0xbc5488c8	-0.012972064
70	0x3e377b23	0.17918067
71	0xbc7d8a66	-0.015474891
72	0x3e3c2d18	0.18376577
73	0x3e1dfbd1	0.15428092
74	0xbe26d60b	-0.16292588
75	0x3d92497d	0.07142923
76	0x3d862e16	0.06551759
77	0xbd94b261	-0.072605856
78	0xbcf5b339	-0.029992687
79	0xbdebb88c	-0.11509809
80	0xbe0cc9de	-0.13748881
81	0xbe0c7cc9	-0.13719477
82	0x3d99df39	0.075132795
83	0xbe1ed4ef	-0.15510915
84	0x3e119c1c	0.14219707
85	0xbdd087dd	-0.10182164
86	0x3d89390b	0.06700333
87	0x3d752db0	0.059858024
88	0xbdcec9a7	-0.10097056
89	0x3e255fa2	0.16149762
90	0x3e24d0e3	0.16095309
91	0x3e1a0aaa	0.1504313
92	0x3d8caf1e	0.068693385
93	0x3db613bd	0.088904835
94	0x3d48db9d	0.049037565
95	0x3d164e7a	0.036695935
96	0x3d38cb90	0.045116007
97	0xbe21c0b1	-0.15796162
98	0x3e2f0403	0.17091374
99	0xbe5caffc	-0.21551508
100	0xbdac7bd9	-0.084220596
101	0xbd9b43f2	-0.07581319
102	0x3dd93a3c	0.106068105
103	0x3e28a633	0.1646965
104	0xbd9e839a	-0.07739945
105	0x3de94cd9	0.11391611
106	0x3e478b4a	0.19486728
107	0x3dd81fe2	0.10552956
108	0x3d102e8b	0.035200637
109	0x3da7307b	0.08163544
110	0x3e197ec2	0.1498976
111	0xbde8a8c6	-0.11360316
112	0xbd8043e1	-0.06262947
113	0x3dc0e1b1	0.09418047
114	0xbdc872b9	-0.097875066
115	0x3db82111	0.08990682
116	0x3e2e3dee	0.17015812
117	0xbe1d8c3a	-0.15385523
118	0x3e302e68	0.17205203
119	0x3ed401d2	0.4140764
120	0xbdc3bcf5	-0.09557525
121	0xbd9d8838	-0.07691997
122	0x3df374e7	0.11887532
123	0xbe37c728	-0.17947066
124	0x3d8c444d	0.06848965
125	0xbe0a948b	-0.13533227
126	0xbe04c83f	-0.12967013
127	0xbe05a427	-0.130509
128	0xbd478ca2	-0.048718102
129	0x3db677c2	0.08909561
130	0x3e06686c	0.13125771
131	0x3e403c67	0.18773042
132	0x3d0afb5f	0.033931132
133	0x3e0d0178	0.13770092
134	0xbdd2fbcc	-0.10301933
135	0xbe189af9	-0.14902867
136	0x3e099874	0.13437063
137	0x3d88fd1c	0.06688902
138	0xbdba1dfa	-0.09087749
139	0x3e0341cc	0.12818068
140	0xbdd7dc71	-0.10540093
141	0x3dc008e0	0.09376693
142	0x3dd825c1	0.10554076
143	0x3dc8c0bb	0.098023854
144	0x3d129d10	0.035794318
145	0xbdf3746b	-0.11887439
146	0x3dbb4c03	0.091453575
147	0xbe2d0d01	-0.16899492
148	0xbd553697	-0.052054014
149	0xbe11f3fb	-0.14253227
150	0xbe33b92f	-0.1755111
151	0xbdb0328d	-0.08603392
152	0xbdce8424	-0.100837976
153	0x3d2e5ab2	0.042566963
154	0x3e45182d	0.19247504
155	0xbdf316bf	-0.11869573
156	0xbcffb430	-0.03121385
157	0x3ddba192	0.107241765
158	0x3dee0947	0.11622863
159	0xbd7322e6	-0.059359454
160	0xbe0cc068	-0.13745272
161	0xbdc11b19	-0.094289966
162	0x3cdf45c8	0.027254954
163	0x3c861fc8	0.016372576
164	0x3dd59f73	0.10430803
165	0x3dc9b268	0.098484814
166	0x3e00d095	0.12579568
167	0x3e00cca3	0.12578063
168	0xbda1026d	-0.07861791
169	0xbd76c035	-0.060241897
170	0xbde36e0e	-0.11104976
171	0x3e085fec	0.13317841
172	0x3dcba179	0.09942908
173	0x3e230813	0.15921049
174	0xbbf79dd1	-0.007556655
175	0xbdabce53	-0.083889626
176	0x3dfef5f2	0.12449254
177	0x3e09fdca	0.13475719
178	0x3e229395	0.1587661
179	0x3d43915d	0.04774605
180	0x3d521d8a	0.051297702
181	0xbe2a364b	-0.16622274
182	0x3d4e3b4d	0.050349522
183	0xbe055510	-0.1302073
184	0xbdf66c9a	-0.12032433
185	0xbd6e321a	-0.05815325
186	0xbe0f2a5f	-0.13981007
187	0xbe3b8f4d	-0.18316384
188	0x3e18fee6	0.14940986
189	0xbdf21a41	-0.11821414
190	0xbd96026e	-0.07324682
191	0xbd743eb9	-0.05963013
192	0x3d49b24d	0.049242307
193	0x3daed839	0.08537335
194	0xbd78df1d	-0.060759652
195	0xbde9c142	-0.11413814
196	0xbe08db7d	-0.13364978
197	0xbe0f8d62	-0.14018777
198	0xbd1b5e99	-0.037932012
199	0xbae5a9c5	-0.0017521909
200	0xbbe1ba77	-0.0068886834
201	0x3d91822c	0.071049064
202	0xbe4908d3	-0.19632272
203	0xbd579c95	-0.052639563
204	0xbd154f04	-0.03645231
205	0xbddf63a3	-0.10907676
206	0xbe4fad25	-0.20280893
207	0x3d7a5c69	0.061123285
208	0xbd1a3521	-0.037648324
209	0x3dc3e9e6	0.09566097
210	0xbe0c216a	-0.13684621
211	0xbdf45163	-0.11929586
212	0xbd5c1b4b	-0.053736966
213	0x3bb1d48f	0.0054269503
214	0x3d36b1c1	0.044603113
215	0xbe3cf2bb	-0.1845197
216	0xbdc48397	-0.09595411
217	0xbdf47a3f	-0.11937379
218	0x3e025d15	0.1273082
219	0xbd73d86d	-0.05953257
220	0xbe20727e	-0.15668675
221	0xbd2efebd	-0.042723406
222	0xbe06eefd	-0.13177104
223	0x3d9f05b5	0.077647604
224	0x3dfb2d33	0.122644804
225	0xbe7f5703	-0.24935536
226	0xbe0582af	-0.13038133
227	0xbdcf401f	-0.10119652
228	0xbd9cd6e1	-0.076581724
229	0x3da4db8d	0.080496885
230	0x3e1b6220	0.1517415
231	0xbdabbe2e	-0.08385883
232	0xbd7c71e7	-0.061632063
233	0x3de33742	0.11094524
234	0xbe457564	-0.19283062
235	0x3da67dd6	0.0812947
236	0x3dcccff3	0.10000601
237	0x3df7c07d	0.12097261
238	0xbd4b6c71	-0.049663965
239	0xbdd9e7ce	-0.10639916
240	0xbe0ec5e0	-0.13942671
241	0x3dfe5411	0.12418378
242	0x3db970b1	0.09054697
243	0x3dbf6a9d	0.09346507
244	0x3deb6c1d	0.1149523
245	0xbceced23	-0.02892167
246	0xbd7fb730	-0.06243056
247	0x3d9984c8	0.07496029
248	0xbdbf3f3b	-0.09338232
249	0xbd58ebf4	-0.052959397
250	0xbdf35041	-0.118805416
251	0xbdc9a704	-0.09846309
252	0x3df8ead6	0.121541664
253	0x3e1c5682	0.15267375
254	0x3dbcfecd	0.09228287
255	0xbd9ef492	-0.07761492

critic.4.weight f4 [1, 290]
0	0xbf7fabd1	-0.99871546
1	0xbf895d5c	-1.0731616
2	0xbf94d082	-1.1626132
3	0x3fc23028	1.5170946
4	0xbf8df2ad	-1.1089684
5	0x3fd1aac7	1.6380242
6	0x3f708995	0.93959934
7	0x3f808a50	1.004221
8	0xbfc656df	-1.5495261
9	0x3f8b421a	1.0879548
10	0x3fe224b6	1.7667453
11	0xbfb6bd3b	-1.4276499
12	0x3fda5a7b	1.7058862
13	0x3f8b9e89	1.0907756
14	0x3f8eeea7	1.1166581
15	0xbf8b3b85	-1.0877539
16	0xbfc08242	-1.5039752
17	0xbf9750e2	-1.1821558
18	0x3f8f159c	1.117847
19	0x3fd6a7c1	1.6769944
20	0xbf7d41d2	-0.9892856
21	0xbf97cf21	-1.1860086
22	0xbfdcf66e	-1.7262704
23	0xbfc59751	-1.5436803
24	0xbf81b1f9	-1.0132438
25	0xbf92ba6a	-1.1463139
26	0x3fd0775d	1.6286427
27	0x3fcddf0e	1.6083696
28	0xbf791ed9	-0.97312695
29	0x3f88821f	1.066471
30	0x3fd13838	1.6345282
31	0xbf854746	-1.0412376
32	0x3f7c0bbd	0.9845541
33	0xbfc35723	-1.5260967
34	0xbf843e5d	-1.0331532
35	0xbf853811	-1.0407735
36	0x3fb86b0d	1.4407669
37	0xbfea870b	-1.8322462
38	0x3fcd7da5	1.6053969
39	0x3f8951a9	1.0728046
40	0x3fd3ca40	1.6546097
41	0xbf8f323e	-1.1187208
42	0x3f8c6d5f	1.0970877
43	0x40034a38	2.051405
44	0x3fc1a799	1.5129272
45	0xc001a991	-2.0259745
46	0x3fd0a3cd	1.6299988
47	0xbfc440c5	-1.5332266
48	0x3fd2f462	1.648083
49	0xbf94b33c	-1.1617198
50	0xbf7e3726	-0.993029
51	0xbfab33e5	-1.3375212
52	0xbf7a90d2	-0.9787723
53	0x3f832172	1.0244582
54	0xc02f5736	-2.739698
55	0x3fd2de17	1.6474026
56	0xbfbdec1d	-1.4837681
57	0xbf798a0f	-0.97476286
58	0xbfe23081	-1.7671052
59	0x3fd8301b	1.6889681
60	0xbfcbe1d0	-1.5928288
61	0x3fa7ad03	1.3099674
62	0x3f831694	1.0241265
63	0x3f87dc0f	1.0614032
64	0x3fbfca11	1.4983541
65	0xbf8e00c3	-1.1093982
66	0xbfc9ad28	-1.5755968
67	0x3fc56448	1.5421228
68	0x3fdf215a	1.7432053
69	0xbfa7d8f9	-1.311309
70	0x3fc6390c	1.5486159
71	0xbf996745	-1.198464
72	0x3fe1dcb8	1.7645483
73	0x3fc08dc3	1.5043262
74	0xbf78b7c2	-0.9715539
75	0x3fbee367	1.4913148
76	0x3f84c1ba	1.0371621
77	0xbf802848	-1.0012293
78	0xbfb4c4a0	-1.4122505
79	0xbfa0d3cb	-1.2564634
80	0xbfc3445d	-1.5255238
81	0xbf94b04c	-1.1616302
82	0x3f86a763	1.0519832
83	0xbf8ef496	-1.1168392
84	0x3fd42d2d	1.6576287
85	0xbfccfdb9	-1.601493
86	0xbfdab466	-1.7086303
87	0x3f8525b3	1.040213
88	0xbf862886	-1.0481117
89	0x3f767771	0.96276003
90	0x3fc95255	1.5728251
91	0x3f880e4d	1.0629364
92	0x3f8943f9	1.0723869
93	0x3f75aac5	0.959637
94	0x3fbfdf2f	1.4989985
95	0x3f8c6742	1.0969012
96	0x3f8b8a6a	1.0901616
97	0xbfda0cc8	-1.703515
98	0x3fd1306d	1.6342903
99	0xbfcd6be8	-1.6048555
100	0xbf8ed19a	-1.1157715
101	0xbf91324d	-1.1343476
102	0x3fd0669e	1.6281316
103	0x3f77d595	0.96810275
104	0xbf91e2d6	-1.139735
105	0xc0067d3c	-2.1013937
106	0x3fd5e746	1.6711204
107	0x3f883d75	1.0643755
108	0x3f83fccd	1.0311524
109	0x3f8e5eaf	1.1122645
110	0xbffd16a6	-1.9772537
111	0xbf8769d1	-1.0579168
112	0xbfba4bdf	-1.4554404
113	0xc0051060	-2.0791245
114	0xbfcb4a99	-1.588214
115	0x3fce7a8e	1.6131151
116	0x3fc7ad0d	1.5599686
117	0xbfc33a25	-1.5252119
118	0x3fcf1f97	1.6181515
119	0xc00edeec	-2.232356
120	0xbf82125c	-1.0161853
121	0xbfb175b8	-1.386405
122	0xbfe84b75	-1.8148028
123	0xbfd26eb1	-1.644003
124	0xbfd27daf	-1.6444606
125	0xbfc125fa	-1.5089715
126	0xbf841c88	-1.0321207
127	0xbfbee64d	-1.4914032
128	0xbf8a4793	-1.0803093
129	0x3f98360e	1.1891496
130	0x3fca8d8b	1.5824445
131	0x3fcdc0be	1.6074445
132	0x3fcc4bf4	1.5960679
133	0x3fca3fb1	1.5800687
134	0xbf8b7ea9	-1.0898029
135	0xbf88f0fe	-1.0698545
136	0x3fc50bd9	1.5394241
137	0xbfc300e7	-1.523465
138	0xbf8ed116	-1.1157558
139	0x3fdc164e	1.7194307
140	0xbfcd5d91	-1.6044179
141	0x3fc04c47	1.5023278
142	0x3fb814ed	1.4381386
143	0x3fce7fd8	1.6132765
144	0x3f908e9d	1.1293522
145	0xbf88f7ef	-1.0700663
146	0x3f903d19	1.1268646
147	0xbfc2be4a	-1.5214322
148	0xbf938da0	-1.1527596
149	0xbf8113c0	-1.0084152
150	0xbf80fe7b	-1.0077661
151	0xbf84b8d0	-1.03689
152	0xbf951d3a	-1.1649544
153	0x3f916047	1.1357507
154	0x3fccaa55	1.5989481
155	0xbf8fbc84	-1.1229405
156	0xbf94df9e	-1.1630743
157	0x3f7deba7	0.991877
158	0x3fbe787f	1.4880522
159	0xbfd481c0	-1.6602097
160	0xbf80d938	-1.006629
161	0x3ffce767	1.9758118
162	0x3f8f3c16	1.1190212
163	0xc012877e	-2.2895198
164	0x3f8b2a86	1.0872352
165	0x3fa5fe70	1.2968273
166	0x3fbc3e63	1.4706539
167	0x3f89775f	1.0739554
168	0xbfd2767c	-1.6442409
169	0xbf929209	-1.1450816
170	0xbf806b06	-1.0032661
171	0x3fd27c8b	1.6444257
172	0x3fc8a56a	1.567548
173	0x3f7fe339	0.9995609
174	0x401dce54	2.4657183
175	0xbfd2a7a4	-1.645741
176	0x3f82a3dc	1.0206256
177	0x3f85b9a5	1.0447279
178	0x3f83463f	1.0255812
179	0x3fb6b851	1.4274999
180	0x3f880d41	1.0629045
181	0xbfce842d	-1.6134087
182	0xc00334ce	-2.050098
183	0xbf80d1e3	-1.0064052
184	0xbf77aff8	-0.9675288
185	0x3fc551bf	1.5415572
186	0xbf8937f0	-1.0720196
187	0xbfd738a2	-1.6814158
188	0x3fd01bea	1.6258519
189	0xbf8828af	-1.0637416
190	0xbfd43312	-1.6578085
191	0xbf8c536c	-1.0962958
192	0xbfa209d8	-1.2659254
193	0x3fdfc03c	1.748054
194	0x4007c12f	2.121166
195	0xbfda47a7	-1.7053117
196	0xbf80d994	-1.00664
197	0xbff5c874	-1.9201798
198	0x400fe114	2.2481127
199	0x3f842983	1.0325168
200	0xbfb361bd	-1.4014202
201	0x3fc5d0b1	1.5454313
202	0xbfce0eeb	-1.6098303
203	0x3fbf9f22	1.4970438
204	0xbfa20942	-1.2659075
205	0xbfc45d74	-1.534102
206	0xbfc7c45a	-1.5606797
207	0x3fe13d74	1.7596879
208	0x3fdac686	1.7091835
209	0x3f7f6898	0.9976897
210	0xbf81159a	-1.0084717
211	0xbfd3ee28	-1.6557055
212	0xbfcd8653	-1.6056617
213	0x3f8c33e8	1.095334
214	0x3f8924cf	1.0714358
215	0xbfc5ad82	-1.5443575
216	0xbf8b83f6	-1.0899646
217	0xbfd0a33c	-1.6299815
218	0x3f84dce5	1.0379912
219	0xbf84a599	-1.0363036
220	0xbf896539	-1.0734016
221	0xbf81b5bc	-1.0133586
222	0xbfcf9a40	-1.6218948
223	0xbfd054fb	-1.6275934
224	0x3f802f6c	1.0014472
225	0xbfd06eec	-1.6283851
226	0xbfca3f47	-1.5800561
227	0xbfcc6723	-1.5968975
228	0xbf87b9ab	-1.0603536
229	0x3f8d561b	1.1041902
230	0x3f82ce4a	1.0219204
231	0xbf7a5cdc	-0.9779794
232	0x3fb25a2b	1.3933767
233	0x3f803fba	1.0019448
234	0xbfbebf2d	-1.4902092
235	0x3fd09c72	1.6297743
236	0x3fd2044c	1.6407561
237	0x3f896f15	1.0737025
238	0xc00705f1	-2.1097376
239	0x3fd14f4b	1.6352323
240	0xbf8758be	-1.0573957
241	0x3f778b78	0.9669719
242	0x3fd2a197	1.6455563
243	0x3fc808e3	1.5627712
244	0x3f8033ce	1.001581
245	0xbf81dfd5	-1.0146433
246	0xbfbbf75a	-1.4684861
247	0x3f87de55	1.0614725
248	0xbfb32f2e	-1.3998773
249	0xbf8bfbc2	-1.0936205
250	0xbfcc6581	-1.5968477
251	0x40017404	2.022706
252	0x3f85bead	1.0448815
253	0x3f8cedec	1.1010108
254	0x3f79f53b	0.97639817
255	0xbf977c08	-1.1834726

actor_mean.0.weight f4 [145, 17]
0	0x3edaaa44	0.42708027
1	0xbe66817e	-0.22510335
2	0x3ea05f10	0.31322527
3	0xbd3a5585	-0.045491714
4	0x3e8944f1	0.2681041
5	0xbe3d8e82	-0.18511394
6	0x3dbda82c	0.09260592
7	0x3b585c83	0.0033014126
8	0x3da9c165	0.0828884
9	0x3ce663be	0.028123733
10	0xbeaadc27	-0.33371088
11	0xbd231d4b	-0.039822858
12	0xbcd7d693	-0.026347434
13	0x3c97a2b6	0.018510204
14	0x3d452f5a	0.04814086
15	0x3e425842	0.1897898
16	0x3d31cf2a	0.043410458
17	0xbea6053c	-0.3242587
18	0x3f4e436a	0.80571616
19	0xbd43ce37	-0.047804084
20	0xbccce08e	-0.02500942
21	0xbe61f824	-0.22067314
22	0x3d7a5ecc	0.06112556
23	0x3db44cee	0.08803736
24	0xbef7e6b5	-0.48418203
25	0x3d776d54	0.060406998
26	0x3e1f906c	0.15582436
27	0x3dd484d5	0.10376898
28	0xbd1da7fa	-0.038490273
29	0xbcfb1e30	-0.030654043
30	0xbc00b6ac	-0.007856052
31	0x3cd7af01	0.026328566
32	0x3c95164f	0.018199114
33	0xbbf873f9	-0.0075821844
34	0xbc7cac71	-0.015421973
35	0xbe738adc	-0.2378344
36	0xbdfff9e8	-0.12498838
37	0xbd5263fc	-0.051364884
38	0xbdecc27c	-0.115605325
39	0xbd8e91a9	-0.06961376
40	0x3e4688d5	0.19388135
41	0xbe07be1c	-0.13256115
42	0x3dc8d440	0.098061085
43	0xbd995fc1	-0.07488967
44	0xbdecdeb5	-0.115659155
45	0x3e39b159	0.18134059
46	0xbe4ccfe8	-0.20001185
47	0x3e443e77	0.19164453
48	0x3dc16b0b	0.09444245
49	0x3e8387ea	0.25689632
50	0x3d96e761	0.07368351
51	0xbeab7cf7	-0.33493778
52	0x3f6610cb	0.89869374
53	0x3d481428	0.048847347
54	0xbc332a08	-0.010935314
55	0xbebce7e8	-0.3689568
56	0xbe7cc8f2	-0.2468603
57	0xbeee2e03	-0.4651948
58	0xbf466706	-0.7750095
59	0x3e9d52ef	0.30727336
60	0xbecd123d	-0.40052977
61	0x3dcf3312	0.10117163
62	0xbd09f56d	-0.033681322
63	0xbd41a4ae	-0.04727619
64	0x3aa3b8f9	0.0012491039
65	0xbde40bfc	-0.11135098
66	0xbd39447f	-0.04523134
67	0x3da7d1f7	0.081943445
68	0x3e6ee764	0.23330456
69	0x3dd572f3	0.104223154
70	0x3d44a9ca	0.048013486
71	0x3d43f77a	0.047843434
72	0x3ee8c24f	0.45460746
73	0xbdcd7ef4	-0.1003398
74	0x3e003b87	0.12522708
75	0x3f31e867	0.6949524
76	0x3e2cf593	0.16890554
77	0x3e5e75ef	0.21724676
78	0x3e0259fc	0.12729639
79	0xbce2e8c9	-0.027698891
80	0x3d5bb320	0.053637624
81	0xbc4f431f	-0.01265028
82	0xbe1e1ba4	-0.15440232
83	0xbe256e16	-0.16155276
84	0xbe2c3284	-0.16816145
85	0x3e851303	0.25991067
86	0xbdeec76f	-0.11659133
87	0xbb832f30	-0.004003428
88	0xbd51c815	-0.051216204
89	0xbe3ad9e0	-0.18247175
90	0xbd7742c8	-0.060366422
91	0xbc2fbf81	-0.01072681
92	0xbe0c0980	-0.13675499
93	0x3edb1cb4	0.42795336
94	0xbe81928d	-0.25307122
95	0x3d1696f6	0.03676506
96	0xbe8873ef	-0.2665095
97	0x3d927b0e	0.07152377
98	0xbcc3d645	-0.023905883
99	0x3d9c2c55	0.07625643
100	0x3c09f4a9	0.008420148
101	0xbdf10593	-0.11768641
102	0xbd3959fc	-0.04525183
103	0x3ea03d86	0.3129694
104	0x3c50d846	0.012746876
105	0x3e2ef9dc	0.17087501
106	0x3dac9ef3	0.08428755
107	0x3e084d18	0.13310659
108	0x3c8d5767	0.01725359
109	0xbc536a8f	-0.0129038235
110	0xbe495891	-0.19662692
111	0x3daf6af9	0.08565325
112	0x3e0baa3f	0.13639162
113	0x3d4a7c57	0.049434986
114	0x3e270a17	0.16312443
115	0xbbd0592e	-0.0063582873
116	0xbda9f92d	-0.0829948
117	0xbdbe85b8	-0.093028486
118	0xbe9ea3df	-0.309844
119	0x3e48b37c	0.19599718
120	0xbd6140bb	-0.054993372
121	0x3cf26c1f	0.029592572
122	0xbdd116dd	-0.10209439
123	0xbe708a93	-0.23490362
124	0x3e87e2ae	0.2654013
125	0xbe03c541	-0.12868215
126	0x3e1ac440	0.15113926
127	0x3e486a94	0.19571906
128	0x3e068bcd	0.13139267
129	0xbddf26c4	-0.10896066
130	0x3df9201d	0.12164328
131	0xbe91f069	-0.2850373
132	0x3e6b4eca	0.22979274
133	0xbca52d9b	-0.020163348
134	0xbcf9b7b4	-0.030483104
135	0x3e0367a9	0.12832512
136	0x3ea74f38	0.32677627
137	0xbf0ac519	-0.54207
138	0x3deadead	0.11468253
139	0xbdaaa882	-0.083329216
140	0x3d685fc6	0.05673196
141	0x3dc10c10	0.09426129
142	0xbd88fed7	-0.06689232
143	0x3d9ed223	0.07754924
144	0xbd8e6480	-0.069527626
145	0x3e68915e	0.22711703
146	0x3e5c75a5	0.21529253
147	0xbe3ae7ba	-0.18252459
148	0x3dcea8b8	0.10090774
149	0xbaa57745	-0.0012624046
150	0x3c6eed89	0.014583
151	0xbc71b762	-0.0147531945
152	0x3d28d891	0.04122216
153	0xbc842754	-0.016132034
154	0x3e55b802	0.20870975
155	0x3eb0997f	0.34492108
156	0x3d30bb4e	0.043147378
157	0xbd2c7c17	-0.04211053
158	0xbdd4662c	-0.1037105
159	0x3e1daa04	0.15396887
160	0xbc515dff	-0.012778758
161	0x3d4a9480	0.049458027
162	0x3e1f332f	0.15546869
163	0x3cd3976b	0.025829038
164	0xbdf6b145	-0.1204553
165	0xbe9fa961	-0.31183913
166	0x3df72e43	0.120693706
167	0xbe0250a3	-0.12726073
168	0x3e1b6e6d	0.15178843
169	0x3e2d7d9f	0.16942452
170	0xbe8208d8	-0.25397372
171	0xbeb82250	-0.35963678
172	0x3bc7257b	0.006077466
173	0x3bd3d2fa	0.0064643594
174	0xbdf59911	-0.11992086
175	0x3cd1a2af	0.025590269
176	0xbe510337	-0.20411383
177	0xbdd47c63	-0.103752874
178	0xbd19b158	-0.037522644
179	0xbe7a1e91	-0.24425723
180	0x3d671c8d	0.056423713
181	0x3e54a9d5	0.20767911
182	0xbe8e24a4	-0.2776233
183	0x3d3199b0	0.04335946
184	0xbcf1f103	-0.029533869
185	0x3e1b9224	0.15192467
186	0x3db0dda5	0.08636025
187	0x3e8f4a3d	0.27986327
188	0xbe60642b	-0.21913211
189	0x3cc187df	0.023624359
190	0xbc88ba15	-0.016690293
191	0x3e4b68d8	0.19864213
192	0xbd1cdd09	-0.038296733
193	0xbc90861b	-0.017642071
194	0x3d9b2d85	0.075770415
195	0x3e038fea	0.12847868
196	0xbd4090b7	-0.04701301
197	0x3cbb1edc	0.022841863
198	0xbd4dee8d	-0.050276328
199	0xbdc008d6	-0.09376685
200	0xbdc808cd	-0.097673036
201	0xbdcf214f	-0.10113775
202	0x3e2cefea	0.16888395
203	0x3df07d0d	0.117426015
204	0xbe5ab22d	-0.21357031
205	0x3f111a7b	0.5668103
206	0xbd90cf76	-0.0707082
207	0xbdc246e0	-0.094861746
208	0xbd651669	-0.055929575
209	0xbe18e7dd	-0.14932199
210	0xbd15ca33	-0.036569785
211	0xbeac8835	-0.33697668
212	0xbdaa4990	-0.08314812
213	0xbe93cd5d	-0.28867617
214	0x3e15b3f6	0.14619431
215	0x3de664ad	0.11249671
216	0xbdabaa2f	-0.08382069
217	0x3d781bd6	0.06057342
218	0x3e7895c9	0.24275889
219	0xbe0447f8	-0.12918079
220	0x3d8e0c33	0.069359206
221	0x3eebd6a2	0.4606219
222	0xbe59f501	-0.21284868
223	0x3ee3005a	0.44336206
224	0xbdd9a987	-0.10628038
225	0x3e2717e7	0.16317712
226	0x3e34b0d9	0.17645587
227	0xbc169fc9	-0.009193369
228	0x3e0818ea	0.13290754
229	0x3dea495f	0.11439776
230	0x3e82d89e	0.2555589
231	0xbe7cf286	-0.2470189
232	0x3c6ba6e7	0.014383054
233	0xbc94cd74	-0.018164374
234	0xbbe939a5	-0.0071174675
235	0x3e884fcf	0.2662339
236	0xbd0176c3	-0.0316074
237	0x3d69a6f5	0.05704399
238	0xbe25310a	-0.16131988
239	0xbe8f7004	-0.2801515
240	0x3ef500e4	0.47852242
241	0xbd2bda26	-0.04195609
242	0xbe6c1457	-0.23054634
243	0x3d8d62d4	0.069036156
244	0x3e0a8670	0.13527846
245	0xbcdb6c8e	-0.026785161
246	0xbea68eaa	-0.3253072
247	0xbdedfcbd	-0.116204716
248	0x3d954658	0.07288808
249	0x3d185b2e	0.03719633
250	0x3e87f8a6	0.2655689
251	0x3df38c27	0.11891966
252	0x3ab80e70	0.0014042389
253	0x3d0f7ab6	0.035029136
254	0xbc8f32b1	-0.017480226
255	0xbe4a90aa	-0.19781747

actor_mean.0.bias f4 [145]
0	0x3e017999	0.12644042
1	0xbdc2386d	-0.094834186
2	0xbd060be9	-0.032726202
3	0xbdba0ee3	-0.09084871
4	0x3e28a99f	0.16470955
5	0x3e0ad307	0.13557063
6	0x3c12a2d6	0.008949956
7	0xbc0aff3b	-0.008483703
8	0x3d82f1f9	0.06393809
9	0xbc96947c	-0.01838135
10	0xbe035bf5	-0.12828048
11	0x3dfab868	0.12242204
12	0xbd5b08f4	-0.053475335
13	0x3e536f81	0.20648004
14	0xbe3984bf	-0.18117045
15	0xbd510e51	-0.051039044
16	0x3e1451aa	0.14484277
17	0xbbd3e41a	-0.006466401
18	0x3e5c5ffc	0.2152099
19	0xbd3af1b2	-0.045640655
20	0xbc2b7ca8	-0.010466732
21	0xbe6ec4c1	-0.23317243
22	0x3cd20658	0.02563779
23	0xbdf42614	-0.11921325
24	0x3e104681	0.14089395
25	0x3dd076b6	0.10178892
26	0x3deb61b6	0.11493246
27	0x3d1f1d7d	0.03884648
28	0xbdc317d6	-0.09526031
29	0xbd1a0297	-0.037600126
30	0xbdf38494	-0.11890522
31	0x3e449907	0.19199
32	0xbe00ade8	-0.1256634
33	0x3d5b22e4	0.05350007
34	0xbe1de16d	-0.15418024
35	0x3b4fc8d9	0.0031705408
36	0x3df0d5ed	0.11759553
37	0x3dfffe1c	0.124996394
38	0xbe2a70ec	-0.16644639
39	0x3d333c66	0.043758772
40	0x3dc4a765	0.096022405
41	0xbdedee3a	-0.11617704
42	0x3e090b3f	0.13383196
43	0xbc3d0cc2	-0.011538686
44	0xbdec23c7	-0.115302615
45	0xbdb47fd3	-0.08813443
46	0x3d74ddd7	0.059781875
47	0x3eaaaa8b	0.3333324
48	0xbe366af3	-0.17814235
49	0xbe33164d	-0.17488976
50	0x3c1176e2	0.0088784415
51	0x3e782e28	0.24236357
52	0x3d75c54c	0.06000261
53	0x3e260444	0.16212565
54	0x3cf87191	0.03032759
55	0x3d44faf4	0.04809089
56	0x3e08020f	0.13282035
57	0xbe15cef7	-0.14629732
58	0xbcc2f806	-0.023799907
59	0xbc802571	-0.015642853
60	0x3b2a7b08	0.0026013274
61	0x3ea0c3dc	0.3139943
62	0xbda46531	-0.08027113
63	0x3daecc99	0.08535118
64	0x3e2d1fc6	0.16906652
65	0x3e334369	0.17506184
66	0x3d94aee2	0.07259919
67	0x3e2e3445	0.17012127
68	0x3d5c4955	0.053780872
69	0x3e2460e2	0.16052583
70	0xbe0cbbcc	-0.13743514
71	0xbe5bb1fa	-0.21454611
72	0x3d8f0e5c	0.06985161
73	0xbd70dca6	-0.058804177
74	0x3d48ecff	0.049054142
75	0x3d7a7de7	0.061155226
76	0x3d4f3b32	0.050593562
77	0xbca95d62	-0.020674411
78	0x3d392cda	0.04520879
79	0x3e1e7c18	0.15477026
80	0xbbdd72cd	-0.00675807
81	0x3e46fd6c	0.1943261
82	0x3e68e6a9	0.2274424
83	0xbd90e54b	-0.07074984
84	0xbc971714	-0.018443622
85	0xbddfd4e9	-0.10929281
86	0x3d7139e9	0.058893118
87	0xbd4b625b	-0.049654346
88	0xbe9aa4a3	-0.30203733
89	0xbc86b1dc	-0.016442232
90	0xbd62d838	-0.055381984
91	0xbdacc2a6	-0.08435564
92	0x3de5d247	0.11221748
93	0x3cab9d84	0.020949133
94	0xbe09b616	-0.13448367
95	0xbd822ea0	-0.06356549
96	0xbe145fb1	-0.14489628
97	0xbe940675	-0.28911176
98	0xbd4d5a55	-0.050134975
99	0xbd70f7f5	-0.05883022
100	0x3d859b25	0.06523732
101	0x3e213e5b	0.15746443
102	0x39a00121	0.0003051842
103	0xbc9a0b31	-0.018804165
104	0x3db89504	0.090127975
105	0xbdc83326	-0.09775381
106	0xbae09dcb	-0.001713687
107	0xbd8fa03e	-0.07012986
108	0xbdb24566	-0.08704643
109	0x3c809d51	0.015700014
110	0x3e56f0e8	0.20990336
111	0xbdce3459	-0.10068578
112	0x3d5c2fd3	0.053756546
113	0x3e676492	0.22596958
114	0x3c967997	0.018368525
115	0x3d55a76e	0.052161627
116	0x3d307dbc	0.04308866
117	0xbc8c14b4	-0.017099716
118	0xbdfdf9e1	-0.12401176
119	0xbe26f7bd	-0.16305442
120	0xbc1cd37f	-0.009571909
121	0xbe4f2108	-0.20227444
122	0x3e1f5a57	0.15561806
123	0xbdd2ede5	-0.10299281
124	0x3dc76691	0.0973636
125	0xbcef979f	-0.029247103
126	0xbda2ae8d	-0.07943449
127	0x3d16e2dd	0.036837447
128	0xbeadb364	-0.33925927
129	0xbc562e66	-0.013072586
130	0x3c09560f	0.008382334
131	0x3e360eb1	0.17779042
132	0x3db9e3af	0.0907663
133	0xbe370b13	-0.17875318
134	0x3dfa8dab	0.12234052
135	0xbdeebbde	-0.116569266
136	0x3e9a945e	0.3019132
137	0x3d0ce855	0.034401257
138	0x3dd0e901	0.10200692
139	0xbe0b747f	-0.13618658
140	0xbc4634cb	-0.012097548
141	0x3dd9a527	0.106272034
142	0x3dc4698f	0.09590446
143	0xbbe5375e	-0.0069951257
144	0xbdad1d17	-0.08452814

actor_mean.2.weight f4 [290, 145]
0	0x3d3300d6	0.04370197
1	0xbd803f05	-0.0626202
2	0xbd06adb6	-0.032880507
3	0x3deb0d1e	0.11477111
4	0xbccc1a28	-0.024914816
5	0xbcb948f2	-0.02261779
6	0xbc4f3ede	-0.012649266
7	0xbdad7307	-0.08469205
8	0x3e0c5c93	0.1370719
9	0x3d08a8fe	0.03336429
10	0xbd612d77	-0.054975
11	0x3da3150e	0.07963
12	0x3dcfe727	0.10151511
13	0xbdb777d2	-0.08958401
14	0xbdd77463	-0.10520246
15	0xbe47c4c5	-0.19508655
16	0x39898c2e	0.00026235118
17	0xbd1111be	-0.03541731
18	0x3d6c9d2e	0.057767086
19	0x3c2bed5c	0.010493603
20	0xbc938324	-0.018006869
21	0xbe28c79b	-0.16482393
22	0xbd085e51	-0.033293072
23	0x3e724b1c	0.23661464
24	0xbac9b610	-0.0015389342
25	0x3e00fc92	0.12596348
26	0x3cd4bf14	0.02597002
27	0xbe3cc59f	-0.18434761
28	0xbe5eede8	-0.21770442
29	0x3d4e401d	0.050354112
30	0xbc785994	-0.015158076
31	0xbc2455e4	-0.010030244
32	0xbd94f6dd	-0.07273648
33	0x3e5a3f16	0.21313128
34	0xbcd8e0fc	-0.026474468
35	0x3d0b5655	0.03401788
36	0xbd287058	-0.041122764
37	0xbda5c72d	-0.080946304
38	0xbe0de564	-0.13857037
39	0x3d13710d	0.035996486
40	0x3d4be960	0.04978311
41	0x3cca6081	0.02470422
42	0xbe0770b2	-0.13226584
43	0x3d53c4a7	0.051701214
44	0xbd8816d7	-0.06644981
45	0xbdb02865	-0.08601455
46	0xbc4da49d	-0.012551454
47	0x3e298a91	0.16556765
48	0x3d92840c	0.07154092
49	0x3e192728	0.14956343
50	0xbdcaf46d	-0.09909902
51	0xbd406e1f	-0.04698002
52	0x3d5b6eed	0.053572584
53	0xbe6e9c01	-0.23301698
54	0x3d36c5a6	0.044622086
55	0xbde1376a	-0.109968975
56	0x3dd19e24	0.10235241
57	0xbd70d210	-0.05879408
58	0x3d87ad5f	0.06624865
59	0x3d09d623	0.033651482
60	0xbe17c179	-0.14819898
61	0x3d45c371	0.04828209
62	0x3db0e252	0.08636917
63	0x3e38bad6	0.18040022
64	0xbc9a9b3f	-0.018872855
65	0xbce4be54	-0.027922787
66	0xbccad527	-0.024759842
67	0xbd4c43dd	-0.049869407
68	0x3e8079b1	0.25092843
69	0xbd11ed6f	-0.035626825
70	0xbc7afa98	-0.015318535
71	0x3e47456d	0.19460078
72	0x3d9c5812	0.076339856
73	0x3d376efa	0.04478357
74	0x3d1934b0	0.037403762
75	0x3d10d014	0.03535469
76	0xbe0018bb	-0.12509434
77	0xbd960ddc	-0.07326862
78	0x3cfc804c	0.030822895
79	0x3db993f6	0.090614244
80	0xbc6609fe	-0.014040468
81	0xbdc10d31	-0.09426344
82	0xbd6cbbbd	-0.05779623
83	0x3c776ba2	0.015101345
84	0xbd6bc096	-0.05755671
85	0xbd3cefc2	-0.04612709
86	0xbde92c5b	-0.11385413
87	0x3d323999	0.04351196
88	0x3df431e2	0.11923577
89	0xbd673d88	-0.056455165
90	0xbd0964ab	-0.03354327
91	0xbe594d12	-0.21220806
92	0xbd7066bf	-0.058691736
93	0xbd2e0083	-0.042480957
94	0x3e1150a9	0.14190926
95	0xbdc038ff	-0.09385871
96	0xbc6f7c09	-0.014616975
97	0x3c9943f8	0.018709168
98	0x3d6df14e	0.058091454
99	0x3da7ccc6	0.08193354
100	0xbd181276	-0.03712698
101	0x3d5ff55e	0.05467736
102	0x3d6ef65d	0.05834042
103	0xbc18d7bc	-0.009328779
104	0x3d90999f	0.07060551
105	0x3cc2975e	0.023753818
106	0xbe0dea25	-0.1385885
107	0xba63e7e8	-0.00086939195
108	0x3e9a3f85	0.30126587
109	0x3e82fc6a	0.25583202
110	0x3d79bb2b	0.060969513
111	0x3ccc58d6	0.024944704
112	0x3dfe8b65	0.12428931
113	0xbe845a98	-0.25850368
114	0x3e0f50f1	0.1399572
115	0xbbc96fb0	-0.0061473474
116	0x3bd69cfc	0.0065494757
117	0x3e2ed1cc	0.17072219
118	0xbcebe167	-0.028794004
119	0xbbee5dac	-0.00727435
120	0xbe20bed5	-0.15697797
121	0xbdc4fc96	-0.096184894
122	0x3df362c0	0.118840694
123	0xbd36e47f	-0.044651505
124	0xbe044445	-0.12916668
125	0x3dcea907	0.10090833
126	0xbd8942aa	-0.06702168
127	0x3dfad6a3	0.1224797
128	0x3da6ca4b	0.08144053
129	0xbcd95c0b	-0.026533147
130	0x3e1c423b	0.1525964
131	0xbd50bc18	-0.05096063
132	0x3d531e6b	0.05154268
133	0x3e3dbd00	0.18529129
134	0xbd1f17d6	-0.03884109
135	0x3d650107	0.055909183
136	0xbd7ebe7b	-0.062193375
137	0x3d69fec4	0.05712773
138	0xbe7ffe33	-0.24999313
139	0xbe03e23f	-0.12879275
140	0xbde46efc	-0.11153981
141	0x3c20c716	0.009813091
142	0xbe3e5723	-0.18587928
143	0x3dd3b7b7	0.10337775
144	0xbd021f34	-0.03176804
145	0xbd4bb569	-0.049733553
146	0x3cf6864b	0.030093333
147	0xbe3814a7	-0.17976628
148	0xbc33b886	-0.010969287
149	0x3bb0c5cc	0.005394673
150	0xbce626e4	-0.028094716
151	0xbe297915	-0.16550095
152	0xbd0bed45	-0.034161825
153	0xbd666d36	-0.056256495
154	0x3dcded5b	0.100550376
155	0x3d183f81	0.037169937
156	0xbd940e54	-0.072292954
157	0x3d285ab9	0.041102145
158	0x3da16446	0.07880454
159	0xbdd540be	-0.10412739
160	0xbcaa1340	-0.020761132
161	0xbd37a9c7	-0.044839647
162	0xbb6b2917	-0.0035882646
163	0x3c6795e8	0.0141348615
164	0x3dd3f7ef	0.10350024
165	0x3c70953f	0.014684021
166	0x3c2a5d4a	0.010398218
167	0xbdb786ef	-0.089612834
168	0xbd9b9f92	-0.07598795
169	0xbd31db19	-0.04342184
170	0xbcafaa15	-0.021443406
171	0xbc0b3a74	-0.008497823
172	0x3d81d814	0.06340042
173	0xbd781148	-0.060563356
174	0x3d87ecef	0.06636988
175	0x3dce0fa4	0.10061577
176	0x3e86f621	0.26359656
177	0xbc9bd344	-0.019021638
178	0x3cb89bf9	0.022535311
179	0xbdec05df	-0.11524557
180	0xbe1ed220	-0.15509844
181	0x3d93b916	0.07213037
182	0x3da1575a	0.07877989
183	0xbc565423	-0.013081583
184	0x3d85aedf	0.06527495
185	0x3dbd55d3	0.09244885
186	0x3ded3725	0.115827836
187	0x3b259239	0.0025264157
188	0xbde82875	-0.113358416
189	0x3c07b898	0.008283757
190	0xbce4a9fc	-0.027913086
191	0xbe6a146e	-0.22859356
192	0x3d8ea08b	0.06964215
193	0xbd5c00a2	-0.05371154
194	0x3ded0b8c	0.11574468
195	0xbcacd335	-0.021096805
196	0x3e3b43fb	0.18287651
197	0xbd60d364	-0.054889098
198	0xbcdb8963	-0.02679891
199	0xbe300dd7	-0.1719278
200	0x3d0eb829	0.034843598
201	0x3dbe8acf	0.093038194
202	0x3d4f8b07	0.050669696
203	0xbab6bfc8	-0.0013942653
204	0xbc249b94	-0.010046858
205	0x3a428bd9	0.00074213516
206	0xbd71749a	-0.05894909
207	0x3d012ac3	0.03153492
208	0x3cf41e80	0.0297997
209	0xbe0e31ce	-0.13886186
210	0xbd0d75a4	-0.03453602
211	0x3cba788c	0.02276256
212	0xbd9b7d36	-0.075922415
213	0x3db1b469	0.08676989
214	0x3d9191f1	0.07107914
215	0xbdecfedb	-0.11572047
216	0xbd17aeca	-0.037031926
217	0x3b9d26e4	0.004795896
218	0xbd773bf4	-0.06035991
219	0xbc8bcaea	-0.01706453
220	0xbdc3b8dc	-0.095567435
221	0xbd7750a2	-0.06037963
222	0x3d86440c	0.06555948
223	0xbe1bad09	-0.15202726
224	0x3d893f86	0.06701569
225	0x3d2a1bdd	0.04153048
226	0xbc9b048c	-0.018923067
227	0xbd57051d	-0.05249511
228	0x3ccc5775	0.024944047
229	0xbd09bcf5	-0.03362747
230	0xbe316e71	-0.17327286
231	0xbda81b89	-0.08208377
232	0x3d8e7b21	0.06957079
233	0xbd0f171b	-0.034934144
234	0xbddc5c6c	-0.107598156
235	0x3e4e3a71	0.20139481
236	0x3d7afd2e	0.061276607
237	0xbd08fe19	-0.03344545
238	0x3dcc9687	0.09989648
239	0xbdeebae4	-0.1165674
240	0x3d408d36	0.04700967
241	0x3c8147ac	0.015781246
242	0x3e2a7e8c	0.16649836
243	0xbe156d6c	-0.14592522
244	0xbce0c58d	-0.02743795
245	0xbd980c3c	-0.074242085
246	0x3dc1c963	0.094622396
247	0xbcfb0b73	-0.030645108
248	0xbd9bf38e	-0.07614814
249	0x3c1aea7a	0.009455318
250	0xbdff15f4	-0.12455359
251	0x3d3042c8	0.043032438
252	0x3d9d83f3	0.07691183
253	0x3c37190b	0.011175404
254	0x3c65f37e	0.014035104
255	0xbe127620	-0.14302874
