DATA403_final/checkpoints/Walker2d-v4_t/PPO_10934.pt (torch, 372060 bytes, 12 tensors)

actor_logstd f4 [1, 6]
1.8428932 1.8020219 1.7446525 1.6985444 1.7042301 1.410617
00000000: ede3 eb3f a7a8 e63f c650 df3f e769 d93f
00000010: 3624 da3f 198f b43f

critic.0.weight f4 [145, 17]
-0.048377324 -0.13680622 0.4020466 -0.47476456 0.06205096 0.48524213 0.32311323 -0.14560118
-0.59348017 0.10305283 0.08059625 -0.082598165 0.01568589 -0.021058824 -0.025578422 0.046932492
0.04310205 -0.111319326 0.09376219 0.55574214 0.14658275 0.021044666 0.2378163 -1.1493163
-0.05897313 0.43599257 -0.3424726 -0.1413417 -0.0044064806 0.015975831 -0.006621352 -0.034197807
0.021663005 -0.024157453 0.38830304 -0.04891996 -0.26934028 -0.45048058 0.62237906 0.3866742
0.105956376 0.18980409 0.33621016 0.41921946 -0.2165846 0.0045860973 0.0012241487 0.0030797543
0.22770397 0.1726347 0.01251621 -0.17173022 -1.3179059 0.39105308 0.13498451 0.0048977053
0.63373154 1.354563 0.29229364 -0.14680988 -0.28636393 0.040879536 0.07015781 0.03758658
-0.002863249 -0.01813325 0.06847801 -0.037184488 -0.13192917 -1.2487065 0.18349813 0.08612286
-0.36091337 0.6490116 -0.008660043 0.12692241 -0.07999257 0.060680065 0.18543473 0.06404838
0.07443491 0.031572383 -0.17917743 -0.0895015 0.017327031 0.12177303 1.1661625 0.41400233
0.13560592 -0.006329599 -0.55350643 0.38504538 0.046494804 0.13350108 0.20079747 -0.011246236
0.15061396 0.04636771 0.007481046 -0.07974247 -0.11395942 0.0011006363 -0.3953761 0.095937
-0.2510102 -0.07979603 0.09480236 0.3926437 0.20842764 -0.9903817 -0.1444227 -0.21800202
0.07221132 0.025316095 -0.013744667 -0.014512712 -0.073148295 0.054663725 -0.042142343 0.0047285245
0.8292756 0.15456794 -0.4577303 -0.05722107 -0.22474179 0.069824114 0.053247157 0.5027066
-0.3430405 0.1629984 -0.34849143 -0.043097883 -0.006641452 0.106074534 0.022991812 -0.01639
0.28953284 0.56102765 -0.14630197 0.050275452 -0.053868845 0.073201194 0.262641 0.08158533
0.71591717 -0.0149153005 -0.25602084 0.0077875047 0.072515845 -0.0053844424 -0.09649025 0.0055035576
0.01817713 -0.20556156 0.25669998 -0.6573411 0.25269017 0.17813812 0.20127028 0.3136189
0.0356944 0.20168066 0.15503085 -0.14573038 0.11655933 -0.04549641 -0.0068120197 -0.009908998
-0.01535683 0.007213294 0.25844333 0.3638136 -0.51145154 -0.46782154 -0.0326222 -0.20276941
-0.11222463 0.024857469 0.913167 -0.5473763 -0.075483985 0.041502006 0.040361077 0.0072125853
-0.044300556 -0.06430095 0.027322024 -0.054918617 -0.14513867 0.33882153 -0.30526844 0.2584694
-1.1991912 -0.45091492 -0.7320577 -0.33097574 -0.5045049 0.22929128 0.083831936 0.06320209
-8.8074536e-05 -0.13937163 -0.007934919 -0.05386012 0.0028915284 0.17189544 -0.28743657 -0.15159169
0.22042926 1.4786558 0.7366309 -0.2873878 0.23405698 0.068509154 0.118340656 0.053389147
0.00254198 -0.030989837 -0.17856078 -0.11586047 -0.004007923 0.23298623 -0.9690476 0.15992151
0.6060761 0.05861145 -0.67286825 0.096233904 0.07195736 -0.3568305 -0.22227858 -0.1549184
0.007370086 0.027367873 -0.0020186917 0.0019060979 0.02288703 -0.011844537 -0.13094954 0.56674653
-0.01808994 -0.08625734 0.18610963 -0.13532881 -0.09678237 0.82116127 0.04405265 -0.052157305
-0.27942732 0.06099834 0.035272617 0.003640059 0.12982789 0.117406994 -0.051012374 0.14571384
00000000: 4d27 46bd ee16 0cbe 0dd9 cd3e 5714 f3be
00000010: 2629 7e3d a871 f83e 196f a53e 7a18 15be
00000020: 51ee 17bf 5d0d d33d a60f a53d 3a29 a9bd
00000030: b27f 803c 8e83 acbc d789 d1bc 493c 403d
00000040: c68b 303d 63fb e3bd 6406 c03d 1e45 0e3f
00000050: ca19 163e dd65 ac3c 1e86 733e cc1c 93bf
00000060: cf8d 71bd 6b3a df3e 9258 afbe e1bb 10be
00000070: 3d64 90bb bfdf 823c edf7 d8bb 0013 0cbd
00000080: 9d76 b13c dae5 c5bc a8cf c63e 4c60 48bd
00000090: f8e6 89be 64a5 e6be 3c54 1f3f 29fa c53e
000000a0: a8ff d83d 015c 423e bd23 ac3e efa3 d63e
000000b0: 5ac8 5dbe f946 963b 9d73 a03a b4d5 493b
000000c0: 3b2b 693e 27c7 303e ca10 4d3c 0cda 2fbe
000000d0: 24b1 a8bf 1c38 c83e 6139 0a3e ee7c a03b
000000e0: 3b3c 223f 5262 ad3f 83a7 953e 5455 16be
000000f0: 4b9e 92be 4d71 273d e6ae 8f3d 63f4 193d
00000100: 59a5 3bbb 2e8c 94bc 333e 8c3d c34e 18bd
00000110: 7118 07be 9dd5 9fbf efe6 3b3e 2f61 b03d
00000120: a3c9 b8be a025 263f dae2 0dbc f3f7 013e
00000130: 25d3 a3bd a98b 783d 9ae2 3d3e cc2b 833d
00000140: 5571 983d 0b52 013d 4a7a 37be 904c b7bd
00000150: 6bf1 8d3c 2364 f93d d044 953f 1df8 d33e
00000160: 47dc 0a3e 8668 cfbb 99b2 0dbf ab24 c53e
00000170: 5671 3e3d 82b4 083e da9d 4d3e 2242 38bc
00000180: 8c3a 1a3e 11ec 3d3d 9023 f53b 0550 a3bd
00000190: 8e63 e9bd 3a43 903a bc6e cabe 9e7a c43d
000001a0: 6984 80be 1a6c a3bd bd27 c23d 9808 c93e
000001b0: 0e6e 553e a889 7dbf 8be3 13be ec3b 5fbe
000001c0: 87e3 933d b363 cf3c 5031 61bc bac6 6dbc
000001d0: c6ce 95bd 12e7 5f3d 739d 2cbd bdf1 9a3b
000001e0: 684b 543f 0f47 1e3e a05b eabe a460 6abd
000001f0: b622 66be f2ff 8e3d b119 5a3d 61b1 003f
00000200: 01a3 afbe 0de9 263e 786d b2be 6887 30bd
00000210: 8aa0 d9bb 9b3d d93d 5359 bc3c 5244 86bc
00000220: a63d 943e 829f 0f3f 2fd0 15be a2ed 4d3d
00000230: 94a5 5cbd 82ea 953d e278 863e 3616 a73d
00000240: 5946 373f 4e5f 74bc 2a15 83be 532e ff3b
00000250: 3083 943d fa6f b0bb ae9c c5bd 3057 b43b
00000260: 34e8 943c bb7e 52be 2e6e 833e 8247 28bf
00000270: 9b60 813e d769 363e cc19 4e3e a892 a03e
00000280: 4b34 123d 6085 4e3e 68c0 1e3e 583a 15be
00000290: a8b6 ee3d 725a 3abd 5d37 dfbb 5a59 22bc
000002a0: 379b 7bbc 7f5d ec3b af52 843e c745 ba3e
000002b0: 7dee 02bf 4e86 efbe db9e 05bd c9a2 4fbe
000002c0: 07d6 e5bd e4a1 cb3c 50c5 693f da20 0cbf
000002d0: 5997 9abd 02fe 293d a851 253d 8d57 ec3b
000002e0: 8074 35bd 37b0 83bd 70d2 df3c 58f2 60bd
000002f0: 3b9f 14be 047a ad3e 254c 9cbe 1a56 843e
00000300: 197f 99bf 52de e6be 2268 3bbf a775 a9be
00000310: 3c27 01bf 55cb 6a3e 14b0 ab3d 1970 813d
00000320: a8b4 b8b8 70b7 0ebe 7601 02bc 6e9c 5cbd
00000330: cc7f 3d3b 5c05 303e e32a 93be da3a 1bbe
00000340: 35b8 613e 9844 bd3f d893 3c3f 7e24 93be
00000350: a2ac 6f3e 874e 8c3d 965c f23d 94ae 5a3d
00000360: 5997 263b 66de fdbc a3d8 36be 4148 edbd
00000370: e554 83bb f193 6e3e 8113 78bf 77c2 233e
00000380: ce27 1b3f 8f12 703d 1841 2cbf 4816 c53d
00000390: 615e 933d 7db2 b6be ff9c 63be eea2 1ebe
000003a0: c380 f13b 9732 e03c 074c 04bb 08d6 f93a
000003b0: 957d bb3c 970f 42bc a317 06be 4d16 113f
000003c0: 5b31 94bc b0a7 b0bd 8693 3e3e a393 0abe
000003d0: d635 c6bd a037 523f 8d70 343d e6a2 55bd
000003e0: 1911 8fbe 65d9 793d 057a 103d 0e8e 6e3b
000003f0: 9af1 043e 1473 f03d 5af2 50bd 0236 153e

critic.0.bias f4 [145]
-0.08444725 0.0031655938 0.23172508 -0.052081212 -0.08816884 -0.120810986 -0.35163474 -0.026975626
0.18523407 -0.043804612 0.21174113 -0.24324402 -0.13392012 0.13095821 -0.31570125 -0.15316729
0.13240454 -0.19136584 -0.0021706151 -0.26040176 0.3101375 -0.21816617 -0.09537519 -0.076470554
-0.2275545 0.06745935 -0.4320317 0.29416132 -0.15824063 0.016799845 0.073725715 0.40980366
-0.09749102 0.11014223 -0.38652775 -0.16537368 0.08439627 0.032469563 -0.080116265 -0.3335381
0.42217615 0.034055125 0.027652511 -0.08461792 0.21276174 -0.28972244 0.06707732 -0.41486594
-0.061949693 -0.31802183 0.3219412 -0.053321715 -0.050561152 -0.2425493 -0.22440171 -0.39263967
0.106929384 0.10937449 -0.20410669 0.22934571 -0.32048556 -0.22521544 0.44380027 -0.26089486
-0.13923764 0.07825494 -0.31492564 -0.2616634 0.06469008 0.044837195 0.19044581 0.21931541
0.41577438 0.21073775 0.068819806 -0.21565612 -0.515113 -0.052517585 -0.18888813 -0.5050702
-0.25104067 0.22573471 -0.26086512 0.21163933 -0.2613577 0.29145005 -0.057418883 0.15924112
0.2747723 -0.05002296 0.18005444 0.3122224 -0.033840343 0.09350385 0.050995436 0.4325933
0.48107293 -0.17949598 -0.42066687 -0.10026173 0.42461497 -0.25931168 -0.033974532 -0.052754287
0.024753222 -0.27098468 0.33830982 0.12453105 0.12574667 -0.39982122 0.25996187 -0.4318276
0.009543626 -0.20745347 -0.0038623768 0.30347267 0.2649652 -0.37517014 0.3934864 -0.05323721
0.13468203 0.08797567 -0.03932273 0.10309153 0.092028104 0.2876917 -0.031053206 -0.0887043
-0.2336193 -0.23878132 0.044142906 0.2887987 0.14040945 -0.39516458 0.107937925 0.20765714
0.34314993 -0.035912722 0.44248107 0.3338209 0.081869125 0.21773136 -0.18625148 0.06752153
-0.056337938
00000000: aef2 acbd da75 4f3b 5749 6d3e 1c53 55bd
00000010: dd91 b4bd c06b f7bd 7809 b4be fdfb dcbc
00000020: 00ae 3d3e 776c 33bd abd2 583e f614 79be
00000030: 5b22 09be e919 063e 98a3 a1be e3d7 1cbe
00000040: 0e95 073e 68f5 43be e140 0ebb 6153 85be
00000050: 58ca 9e3e f466 5fbe 1154 c3bd 989c 9cbd
00000060: 0c04 69be 2128 8a3d 4233 ddbe 509c 963e
00000070: d509 22be d49f 893c 82fd 963d c9d1 d13e
00000080: 5fa9 c7bd 4092 e13d f7e6 c5be b857 29be
00000090: f4d7 ac3d cefe 043d ff13 a4bd 81c5 aabe
000000a0: 7927 d83e 637d 0b3d 8587 e23c 294c adbd
000000b0: 37de 593e 8056 94be d55f 893d 4f69 d4be
000000c0: f6be 7dbd c2d3 a2be 7ad5 a43e df67 5abd
000000d0: 3619 4fbd d85e 78be 90c9 65be 1108 c9be
000000e0: cbfd da3d bcff df3d 5801 51be 9ad9 6a3e
000000f0: af16 a4be e09e 66be ca39 e33e 0394 85be
00000100: 5094 0ebe 2044 a03d ef3d a1be bff8 85be
00000110: 3c7c 843d 35a7 373d 3a04 433e 3894 603e
00000120: 61e0 d43e a3cb 573e 66f1 8c3d f5d4 5cbe
00000130: 72de 03bf ae1c 57bd e46b 41be 484c 01bf
00000140: 6788 80be 0027 673e 1d90 85be fbb7 583e
00000150: add0 85be f138 953e 1030 6bbd 1b10 233e
00000160: f4ae 8c3e e0e4 4cbd 3160 383e 9ddb 9f3e
00000170: 2c9c 0abd f27e bf3d 97e0 503d de7c dd3e
00000180: 314f f63e cbcd 37be a661 d7be 0656 cdbd
00000190: 2267 d93e 80c4 84be e128 0bbd e114 58bd
000001a0: 45c7 ca3c 81be 8abe f236 ad3e 230a ff3d
000001b0: bcc3 003e 5eb5 ccbe b919 853e 8218 ddbe
000001c0: de5c 1c3c af6e 54be ee1f 7dbb c560 9b3e
000001d0: 85a9 873e 4d16 c0be 0d77 c93e 430f 5abd
000001e0: 16ea 093e 972c b43d df10 21bd a721 d33d
000001f0: 3b79 bc3d 544c 933e 4b63 febc 9aaa b5bd
00000200: e639 6fbe 1783 74be 31cf 343d 6cdd 933e
00000210: 7fc7 0f3e 0353 cabe 8f0e dd3d 13a4 543e
00000220: 59b1 af3e 3819 13bd e18c e23e 93ea aa3e
00000230: 00ab a73d f8f4 5e3e b5b8 3ebe ba48 8a3d
00000240: 9cc2 66bd

critic.2.weight f4 [290, 145]
0.30502787 -0.16550702 -0.24793224 0.17072976 0.17478001 -0.36818677 0.049593233 -0.31237358
-0.17585044 -0.18608917 -0.5541748 0.006124403 -0.16239981 0.037966393 -0.13940074 -0.073290244
-0.26910836 -0.16581112 0.005196604 -0.021514274 0.11069472 -0.30945417 0.3760923 -0.28794515
-0.027490947 0.29154754 -0.15374392 -0.16651545 -0.17574759 -0.14058305 0.2660868 0.07687635
0.22421497 -0.12618452 0.028561873 0.068721175 -0.40992463 -0.2986457 -0.034862727 0.21782446
0.03841045 0.37680447 0.29300743 0.31749967 -0.17909919 -0.19989279 -0.2975942 -0.03597251
0.085501336 -0.081046 -0.1853669 0.062470905 -0.37923598 -0.06288148 0.24044077 0.041092996
0.28694528 0.26127306 -0.06735766 0.20590536 0.15233947 0.048819974 -0.08654234 -0.06548971
0.28682512 0.28176856 -0.049810585 0.1461683 -0.11034874 0.29957482 0.03267428 -0.27725264
0.00945158 -0.19152476 -0.28652495 -0.1350531 -0.0037771757 -0.2921798 -0.23411222 0.05333807
0.14931738 0.03473853 -0.03665886 -0.14537457 0.21213083 -0.14510332 0.05528356 0.04628284
-0.34042183 -0.22661708 -0.37376875 -0.019358393 0.21050754 -0.5384202 0.25913256 0.049135994
0.14077838 0.21694453 0.076307766 -0.20282131 -0.08195823 0.09896706 0.18043402 0.086659774
0.0011662149 0.0005538679 -0.01817826 -0.40420604 -0.1397854 0.042335097 0.21970908 0.10358657
-0.20056689 -0.1662309 -0.15343168 -0.15959182 -0.17663684 0.05574641 -0.15608895 0.41177985
-0.124929056 -0.30511597 0.21202411 0.13304177 -0.15937103 -0.07357364 0.08632165 0.1539304
-0.1811237 0.10691592 0.21811949 -0.110609606 -0.36177215 -0.023923025 -0.109023236 -0.20044728
0.024316253 -0.2638226 0.111813635 -0.06198985 -0.1372816 0.09799035 0.13147047 0.02181236
0.29811996 0.2805238 -0.44888276 -0.15848096 -0.103975005 -0.12602463 0.09499985 0.123613864
-0.0020989287 -0.20172663 -0.23213948 -0.28641993 -0.14587331 -0.004026893 -0.16054086 -0.3287005
-0.23889028 -0.14167559 -0.20279542 -0.12237316 -0.04393224 -0.21391627 -0.4919135 0.10048336
0.34187675 0.10121421 -0.35595408 -0.023635868 0.10262671 -0.3429578 0.010315316 0.2641834
0.022794254 -0.043675784 -0.11971865 0.12414771 0.06472688 -0.16611864 -0.1535946 0.74455273
-0.19142014 -0.0835088 0.488232 0.8373812 0.065866366 -0.14473723 -0.12373916 0.20369919
-0.10616886 0.11780138 0.3209381 0.01178862 0.17750873 -0.17112759 -0.013625137 0.48047936
-0.069300026 0.41381428 0.06807975 -0.09274512 0.031831052 -0.07034228 -0.34391025 -0.055222657
-0.21211247 0.008473815 0.46184403 -0.09260867 -0.2856122 -0.48003253 0.15891533 -0.23606868
-0.006892986 -0.033376075 0.026677825 0.03065752 -0.27246967 -0.16875686 -0.19470385 0.092235416
-0.03505883 0.13461384 0.009651698 0.3405268 -0.035122696 0.035575252 -0.30681583 -0.16757338
0.21647726 -0.035893433 0.5459216 -0.09246892 -0.20619014 -0.13776325 -0.20505215 0.05519462
0.3345027 -0.0095286295 -0.09584093 -0.015404765 -0.18293703 0.1512266 -0.17941126 0.011188803
-0.04766775 0.47974375 -0.025236014 -0.29891288 0.006150331 -0.4076882 0.06356579 0.12022204
00000000: 9d2c 9c3e ac7a 29be f3e1 7dbe c8d3 2e3e
00000010: 88f9 323e fa82 bcbe 4622 4b3d 6eef 9fbe
00000020: 2312 34be 298e 3ebe 66de 0dbf 37af c83b
00000030: 234c 26be a682 1b3d 11bf 0ebe 3219 96bd
00000040: 92c8 89be 64ca 29be 4648 aa3b b43e b0bc
00000050: eab3 e23d c770 9ebe 2c8f c03e 8c6d 93be
00000060: b234 e1bc b845 953e 0c6f 1dbe 0783 2abe
00000070: 2df7 33be 01f5 0fbe 873c 883e 5971 9d3d
00000080: 9c98 653e 8436 01be 97fa e93c b0bd 8c3d
00000090: a4e1 d1be 17e8 98be 38cc 0ebd 600d 5f3e
000000a0: 4754 1d3d 84ec c03e 1205 963e 518f a23e
000000b0: c765 37be b2b0 4cbe 445e 98be e957 13bd
000000c0: 531b af3d 72fb a5bd d2d0 3dbe 7ee1 7f3d
000000d0: 382b c2be 01c8 80bd 1b36 763e 2151 283d
000000e0: 7eea 923e 95c5 853e d0f2 89bd dbd8 523e
000000f0: e1fe 1b3e 74f7 473d 1c3d b1bd 781f 86bd
00000100: beda 923e f843 903e 2f06 4cbd 25ad 153e
00000110: 85fe e1bd df61 993e 77d5 053d 0ff4 8dbe
00000120: cdda 1a3c 111f 44be 66b3 92be 5c4b 0abe
00000130: 7e8a 77bb 9798 95be 1dbb 6fbe 0579 5a3d
00000140: a8e6 183e fd49 0e3d 9a27 16bd 12dd 14be
00000150: d338 593e f795 14be 0471 623d 1393 3d3d
00000160: c54b aebe 4f0e 68be 9e5e bfbe 7e95 9ebc
00000170: 4a8f 573e e8d5 09bf 06ad 843e d342 493d
00000180: 3528 103e b526 5e3e 3f47 9c3d 64b0 4fbe
00000190: b7d9 a7bd 3eaf ca3d b2c3 383e ae7a b13d
000001a0: aedb 983a 7231 113a 93ea 94bc 18f4 cebe
000001b0: e723 0fbe 9167 2d3d 6bfb 603e 3225 d43d
000001c0: 6861 4dbe 6f38 2abe 321d 1dbe 0a6c 23be
000001d0: 4ae0 34be 5956 643d c8d5 1fbe cfd4 d23e
000001e0: ceda ffbd 2938 9cbe d91c 593e 1a3c 083e
000001f0: 2932 23be c7ad 96bd 68c9 b03d ee9f 1d3e
00000200: 7e78 39be bcf6 da3d b75a 5f3e 4a87 e2bd
00000210: 333a b9be 38fa c3bc 9347 dfbd 0d42 4dbe
00000220: e132 c73c c113 87be 8cfe e43d 12e9 7dbd
00000230: 8c93 0cbe 2aaf c83d 32a0 063e d6af b23c
00000240: 2ea3 983e d1a0 8f3e f6d3 e5be d548 22be
00000250: d9f0 d4bd 9a0c 01be 488f c23d 4429 fd3d
00000260: 2e8e 09bb 6d91 4ebe f9b5 6dbe a2a5 92be
00000270: d05f 15be 07f4 83bb d364 24be 6f4b a8be
00000280: a79f 74be 6813 11be 9aa9 4fbe c89e fabd
00000290: 4bf2 33bd de0c 5bbe 16dc fbbe 38ca cd3d
000002a0: 780a af3e 6549 cf3d 9d3f b6be 02a0 c1bc
000002b0: f42d d23d 2a98 afbe 9201 293c 0c43 873e
000002c0: 04bb ba3c 61e5 32bd 0d2f f5bd 2841 fe3d
000002d0: 878f 843d 011b 2abe e747 1dbe 029b 3e3f
000002e0: a403 44be a906 abbd 8bf9 f93e 9d5e 563f
000002f0: f2e4 863d ff35 14be f56a fdbd 8596 503e
00000300: 0f6f d9bd da41 f13d 0052 a43e 0e25 413c
00000310: d9c4 353e 123c 2fbe f73b 5fbc 6401 f63e
00000320: 2ced 8dbd 77df d33e 656d 8b3d 27f1 bdbd
00000330: 4761 023d 9d0f 90bd 0115 b0be 2731 62bd
00000340: 0334 59be c2d5 0a3c d276 ec3e 9da9 bdbd
00000350: c33b 92be d3c6 f5be b3ba 223e fdbb 71be
00000360: 8fde e1bb 5ab5 08bd 748b da3c 7b25 fb3c
00000370: 2581 8bbe 99ce 2cbe 7260 47be ece5 bc3d
00000380: d999 0fbd 36d8 093e 2822 1e3c 8759 ae3e
00000390: d1dc 0fbd 5bb7 113d f716 9dbe 5b98 2bbe
000003a0: 37ac 5d3e fe04 13bd 85c1 0b3f 5860 bdbd
000003b0: 8223 53be cf11 0dbe 31f9 51be c113 623d
000003c0: f043 ab3e f81d 1cbc 4048 c4bd 4464 7cbc
000003d0: d853 3bbe 25db 1a3e 96b7 37be 3e51 373c
000003e0: 423f 43bd f9a0 f53e c2bb cebc 1c0b 99be
000003f0: b788 c93b 82bc d0be c82e 823d f936 f63d

critic.2.bias f4 [290]
-0.12414722 -0.07335387 -0.026927328 0.18465059 -0.097546935 0.16366763 0.15147182 0.13237892
-0.14668447 0.17458966 -0.06622573 -0.043583903 0.16038346 0.11278419 0.07793856 0.035096556
-0.05095409 -0.01642167 0.07061918 0.22212456 -0.14844647 -0.031277407 -0.24738568 0.029546017
-0.1594567 -0.07431809 0.066141725 0.10957193 -0.13724144 0.005564919 0.114446335 -0.035085652
0.08528962 -0.08656012 -0.053289343 -0.18867685 0.17809126 -0.17289199 0.083854534 0.1014179
0.24829264 -0.059424106 0.12200573 0.27085415 0.24467683 0.082725786 0.051183876 -0.20475751
-0.10425143 -0.15444767 -0.12448935 0.054310404 -0.06425217 0.05951961 0.2436194 0.090666644
0.04666312 -0.11820711 -0.14275801 0.23119178 -0.09044844 -0.01324134 0.16948421 0.022850415
0.049288426 0.01001961 -0.03589525 0.071307294 0.23780203 -0.019185942 0.21490544 -0.01422039
0.17263582 0.15093186 -0.15697168 0.0925903 0.079223864 -0.06322173 -0.056954198 -0.11342807
-0.12856448 -0.13981631 0.1057074 -0.15098284 0.13521966 -0.12236389 0.06713421 0.07468459
-0.09072923 0.15888396 0.14621983 0.16521437 0.069314554 0.10172273 0.055743847 0.011390596
0.049357448 -0.12791969 0.16806695 -0.26839086 -0.08815476 -0.09431464 0.09516042 0.16475871
-0.066021845 0.08438064 0.1948677 0.11456961 0.00061691634 0.09360437 0.13481458 -0.12125868
-0.046923067 0.08155345 -0.07563617 0.09270791 0.13942313 -0.1808252 0.16212985 0.4503527
-0.109916255 -0.08390268 0.12109297 -0.18427026 0.0728339 -0.14507139 -0.124885686 -0.12312726
-0.047323443 0.07469187 0.10410189 0.21734276 0.016291829 0.1413882 -0.10177376 -0.15673903
0.10933989 0.055248108 -0.09122271 0.12617202 -0.089380994 0.1004162 0.095763996 0.09678797
0.05551563 -0.13824488 0.10555366 -0.16676739 -0.05625227 -0.14420187 -0.17745529 -0.09808451
-0.095058516 0.03526629 0.19044341 -0.14365488 -0.06441939 0.09400659 0.14754273 -0.0867312
-0.13235262 -0.07080737 0.034330744 -0.030932829 0.07805249 0.08568614 0.11989721 0.14380509
-0.07457795 -0.06282119 -0.10096164 0.14646167 0.07419912 0.17638193 0.024260622 -0.09763923
0.13070905 0.124920055 0.15968747 0.08411565 0.058638696 -0.1657659 -0.020531358 -0.12806661
-0.10828228 -0.046973437 -0.16787802 -0.23625 0.16041386 -0.13509196 -0.07838151 -0.036335777
0.03765881 0.107333 -0.06138658 -0.13076745 -0.14282905 -0.10157145 -0.027093003 0.021619346
-0.0019567362 0.086210154 -0.20333895 -0.06639792 -0.047305644 -0.13005221 -0.2177529 0.05749375
-0.025817411 0.06890859 -0.1399396 -0.104357734 -0.051411673 -0.018317165 0.019952513 -0.17891337
-0.1130815 -0.14824183 0.14629953 -0.085305505 -0.15600169 -0.045101628 -0.15847997 0.07621951
0.098407894 -0.28792903 -0.17805824 -0.10562692 -0.07745405 0.081016466 0.16394189 -0.063594475
-0.06409364 0.106449224 -0.22352935 0.068363816 0.13604666 0.112521164 -0.065305315 -0.091132
-0.15122272 0.12944473 0.09322432 0.1251126 0.11998552 -0.02531358 -0.05731915 0.0921495
-0.11177035 -0.035101365 -0.13710165 -0.10596742 0.13192812 0.1628312 0.09638342 -0.10393843
00000000: e640 febd 8e3a 96bd b396 dcbc 0b15 3d3e
00000010: b0c6 c7bd 7d98 273e 6e1b 1b3e 578e 073e
00000020: 7434 16be a2c7 323e 5ba1 87bd 0985 32bd
00000030: 903b 243e 66fb e63d 409e 9f3d 68c1 0f3d
00000040: 3cb5 50bd bd86 86bc caa0 903d 9f74 633e
00000050: 5a02 18be bd1c 00bd ac52 7dbe 7d0a f23c
00000060: 9e48 23be 1534 98bd 5075 873d 3f67 e03d
00000070: 0589 0cbe ed59 b63b d762 ea3d f9b5 0fbd
00000080: 53ac ae3d 6f46 b1bd ed45 5abd 8134 41be
00000090: 8e5d 363e 990a 31be edbb ab3d 30b4 cf3d
000000a0: 6d40 7e3e b166 73bd 24de f93d 65ad 8a3e
000000b0: 908c 7a3e 236c a93d 2fa6 513d f4ab 51be
000000c0: c681 d5bd 8827 1ebe 46f4 febd 9674 5e3d
000000d0: a496 83bd d6ca 733d 5d77 793e 6faf b93d
000000e0: d421 3f3d 9216 f2bd 282f 12be 8abd 6c3e
000000f0: 083d b9bd 35f2 58bc 458d 2d3e cb30 bb3c
00000100: a9e2 493d 4a29 243c e606 13bd 8f09 923d
00000110: 6082 733e d62b 9dbc 2c10 5c3e a3fc 68bc
00000120: 72c7 303e e28d 1a3e 2fbd 20be fc9f bd3d
00000130: 1f40 a23d 657a 81bd ce48 69bd fa4c e8bd
00000140: 68a6 03be 022c 0fbe 1f7d d83d 3f9b 1abe
00000150: 0677 0a3e eb99 fabd a97d 893d 3cf4 983d
00000160: 3fd0 b9bd 7ab2 223e a7ba 153e f52d 293e
00000170: caf4 8d3d 0254 d03d a953 643d 9f9f 3a3c
00000180: 092b 4a3d 61fd 02be be19 2c3e 876a 89be
00000190: 7c8a b4bd 0928 c1bd 77e3 c23d 82b6 283e
000001a0: 7636 87bd c2cf ac3d 668b 473e 79a3 ea3d
000001b0: 8eb8 213a a6b3 bf3d d50c 0a3e 7956 f8bd
000001c0: 6732 40bd 7f05 a73d 23e7 9abd a5dd bd3d
000001d0: f0c4 0e3e 3e2a 39be 5e05 263e a194 e63e
000001e0: c61b e1bd 2bd5 abbd 97ff f73d 58b1 3cbe
000001f0: f129 953d 988d 14be 11c4 ffbd 252a fcbd
00000200: 3ad6 41bd 0df8 983d 5f33 d53d 1a8f 5e3e
00000210: 7176 853c 11c8 103e c36e d0bd 3280 20be
00000220: 98ed df3d d74b 623d f9d2 babd 3d33 013e
00000230: 620d b7bd 02a7 cd3d ea1f c43d c538 c63d
00000240: 5b64 633d 1190 0dbe 842c d83d 12c5 2abe
00000250: c868 66bd a8a9 13be d7b6 35be 88e0 c8bd
00000260: 0aae c2bd 6373 103d 9903 433e 441a 13be
00000270: 50ee 83bd 8786 c03d 7115 173e 21a0 b1bd
00000280: 7287 07be 7403 91bd 659e 0c3d d866 fdbc
00000290: fcd9 9f3d 377c af3d ab8c f53d a441 133e
000002a0: 53bc 98bd 65a8 80bd fac4 cebd 0cfa 153e
000002b0: b5f5 973d 779d 343e 36be c63c 14f7 c7bd
000002c0: 98d8 053e 16d6 ff3d 1d85 233e d344 ac3d
000002d0: 212f 703d 89be 29be 6131 a8bc e523 03be
000002e0: 1ac3 ddbd 3867 40bd 37e8 2bbe 85eb 71be
000002f0: 8843 243e 8c55 0abe 7c86 a0bd d3d4 14bd
00000300: 2040 1a3d 67d1 db3d 7f70 7bbd e7e7 05be
00000310: c741 12be b104 d0bd 25f2 ddbc 0e1b b13c
00000320: 963c 00bb f38e b03d 1638 50be a2fb 87bd
00000330: 90c3 41bd 682c 05be 9efa 5ebe 917e 6b3d
00000340: 097f d3bc f21f 8d3d 544c 0fbe 82b9 d5bd
00000350: 0c95 52bd e10d 96bc 7473 a33c 1135 37be
00000360: 4697 e7bd b5cc 17be 8bcf 153e a7b4 aebd
00000370: e8be 1fbe 7cbc 38bd 9348 22be f918 9c3d
00000380: 148a c93d 6f6b 93be e654 36be ed52 d8bd
00000390: 3ba0 9ebd f6eb a53d 62e0 273e d23d 82bd
000003a0: 8743 83bd 0d02 da3d e1e4 64be 5402 8c3d
000003b0: d14f 0b3e 7f71 e63d cbbe 85bd 6aa3 babd
000003c0: 21da 1abe 298d 043e 64ec be3d 841d 003e
000003d0: f8ba f53d 6d5e cfbc 7cc7 6abd e1b8 bc3d
000003e0: dae7 e4bd 73c6 0fbd 6064 0cbe 7205 d9bd
000003f0: 2a18 073e 39bd 263e ac64 c53d acdd d4bd

critic.4.weight f4 [1, 290]
-1.0617294 -1.1721927 -1.2540892 1.6654803 -1.209989 1.791814 1.0023062 1.0651774
-1.7088969 1.164753 1.8997817 -1.4983381 1.8789726 1.2218575 1.2367091 -1.1789892
-1.6678734 -1.2785268 1.188422 1.8501625 -1.0533134 -1.2897583 -1.7962652 -1.6583428
-1.0773673 -1.3333282 1.7922127 1.7295045 -1.0368521 1.1761537 1.804268 -1.1157702
1.0530418 -1.68217 -1.1471301 -1.1180401 1.5859046 -1.9264779 1.776456 1.1460384
1.786175 -1.1845105 1.159077 2.1995084 1.6675206 -2.1841443 1.7891876 -1.6894063
1.8620198 -1.2496235 -1.0582283 -1.4171518 -1.0549109 1.143893 -3.0494578 1.7891095
-1.6613204 -1.0402422 -1.8979259 1.8559831 -1.7541938 1.7335094 1.0936633 1.1313958
1.6287224 -1.2084905 -1.7262855 1.6843868 1.9091245 -1.3866211 1.7106844 -1.3043971
1.864094 1.6436676 -1.03973 1.6628348 1.359424 -1.0758935 -1.5395665 -1.3495526
-1.6746453 -1.2305897 1.1515077 -1.2482104 1.7998776 -1.7784598 -1.7898401 1.1291101
-1.1378151 1.0268861 1.7084037 1.1341488 1.2347195 1.0224013 1.6619512 1.161657
1.1674178 -1.8490065 1.7885164 -1.759074 -1.2418833 -1.2215363 1.7751812 1.0309571
-1.2269964 -2.250052 1.8169047 1.1409763 1.1143204 1.2309644 -2.1616933 -1.2170321
-1.5957336 -2.1945398 -1.7609445 1.767232 1.7263664 -1.6903492 1.7560766 -2.3043196
-1.1468531 -1.5319154 -1.9686759 -1.7601932 -1.7909782 -1.6458149 -1.1010996 -1.6379557
-1.1608417 1.2718619 1.735949 1.7265543 1.6746722 1.7363088 -1.1544672 -1.13363
1.6983938 -1.7952704 -1.223647 1.8606032 -1.7598956 1.6327839 1.6037526 1.7572198
1.2292709 -1.1798904 1.2675233 -1.6568621 -1.2801807 -1.073394 -1.0722829 -1.14865
-1.2407461 1.2177846 1.7533523 -1.2385943 -1.2734579 1.0538999 1.6350178 -1.8281434
-1.0682659 2.1424747 1.2239723 -2.553572 1.165398 1.3946003 1.623167 1.1402277
-1.79457 -1.2594743 -1.0718844 1.8094825 1.7095065 1.0688337 2.6972604 -1.8048152
1.1720917 1.1192292 1.0903376 1.5903522 1.1619 -1.7535893 -2.2595646 -1.0749574
-1.0390579 1.6441537 -1.1401657 -1.8612915 1.7875667 -1.1887761 -1.8189402 -1.1978431
-1.3693777 1.9198576 2.3950624 -1.8634189 -1.0699255 -2.0779917 2.400083 1.1685331
-1.4628474 1.7121767 -1.7566242 1.6324978 -1.3009956 -1.7099242 -1.7023641 1.8757527
1.8441672 1.064912 -1.072433 -1.7929 -1.7746302 1.1857679 1.1471461 -1.698979
-1.2401018 -1.7970169 1.1659129 -1.1155778 -1.1365426 -1.0914451 -1.7767538 -1.7784028
1.0805084 -1.777347 -1.7091812 -1.7467753 -1.1520756 1.2339767 1.0854278 -1.0637844
1.5407461 1.0654736 -1.6243341 1.7943321 1.803844 1.133896 -2.1694272 1.8068762
-1.1245508 1.0301381 1.7941246 1.7296498 1.1020057 -1.0965074 -1.5763564 1.1534399
-1.5051028 -1.1932747 -1.755536 2.2142718 1.1123842 1.1644483 1.0630429 -1.3223656
00000000: c0e6 87bf 690a 96bf ff85 a0bf 752e d53f
00000010: ebe0 9abf 295a e53f 924b 803f bc57 883f
00000020: 22bd dabf a016 953f 0c2c f33f 8bc9 bfbf
00000030: 2d82 f03f d465 9c3f 7c4c 9e3f 1ee9 96bf
00000040: e07c d5bf c4a6 a3bf 361e 983f 20d2 ec3f
00000050: f9d2 86bf cd16 a5bf 05ec e5bf 9444 d4bf
00000060: 2ce7 89bf 80aa aabf 3a67 e53f 6760 dd3f
00000070: 92b7 84bf 348c 963f 41f2 e63f 8fd1 8ebf
00000080: 13ca 863f 5951 d7bf 29d5 92bf f01b 8fbf
00000090: ecfe ca3f d496 f6bf e962 e33f 63b1 923f
000000a0: 62a1 e43f 0a9e 97bf a35c 943f bfc4 0c40
000000b0: 5171 d53f 05c9 0bc0 1904 e53f 773e d8bf
000000c0: aa56 ee3f aaf3 9fbf 0674 87bf 3b65 b5bf
000000d0: 5207 87bf 166b 923f 512a 43c0 8a01 e53f
000000e0: 26a6 d4bf a826 85bf 3cef f2bf db90 ed3f
000000f0: 6c89 e0bf a3e3 dd3f 29fd 8b3f 94d1 903f
00000100: fa79 d03f d1af 9abf ecf6 dcbf fd99 d73f
00000110: 315e f43f cd7c b1bf b5f7 da3f 7cf6 a6bf
00000120: a29a ee3f b363 d23f df15 85bf c5d7 d43f
00000130: 9b01 ae3f e1b6 89bf 8410 c5bf 24be acbf
00000140: c75a d6bf f783 9dbf 9b64 933f 5cc5 9fbf
00000150: 6462 e63f 92a4 e3bf 7b19 e5bf ae86 903f
00000160: eda3 91bf 0171 833f f9ac da3f ca2b 913f
00000170: 4a0b 9e3f 0cde 823f d1ba d43f 2db1 943f
00000180: f26d 953f 3fac ecbf 1bee e43f 5629 e1bf
00000190: 08f6 9ebf 4d5b 9cbf 2339 e33f 67f6 833f
000001a0: 380e 9dbf da00 10c0 5590 e83f 830b 923f
000001b0: 0da2 8e3f 3e90 9d3f 2f59 0ac0 b5c7 9bbf
000001c0: 0041 ccbf 5773 0cc0 a166 e1bf a834 e23f
000001d0: 93f9 dc3f 5d5d d8bf 1ec7 e03f f979 13c0
000001e0: 15cc 92bf ce15 c4bf 92fd fbbf 034e e1bf
000001f0: c63e e5bf 10aa d2bf d5f0 8cbf 88a8 d1bf
00000200: 7696 94bf 5fcc a23f 9433 de3f bbff dc3f
00000210: a95b d63f 5e3f de3f 95c5 93bf ca1a 91bf
00000220: f864 d93f 6ccb e5bf 77a0 9cbf 3f28 ee3f
00000230: 4244 e1bf 10ff d03f c447 cd3f 94ec e03f
00000240: c058 9d3f a606 97bf 343e a23f 0f14 d4bf
00000250: f6dc a3bf f964 89bf 9140 89bf f706 93bf
00000260: c5d0 9ebf 5ee0 9b3f d96d e03f 428a 9ebf
00000270: ab00 a3bf 31e6 863f 4348 d13f 9a00 eabf
00000280: f0bc 88bf 4e1e 0940 20ab 9c3f b96d 23c0
00000290: c32b 953f 4382 b23f f0c3 cf3f fbf2 913f
000002a0: 78b4 e5bf 7436 a1bf 8233 89bf 1f9d e73f
000002b0: 1cd1 da3f 8bcf 883f ea9f 2c40 2f04 e7bf
000002c0: 1a07 963f e742 8f3f 2f90 8b3f a990 cb3f
000002d0: 24b9 943f 9d75 e0bf b59c 10c0 3498 89bf
000002e0: d9ff 84bf a173 d23f f3f0 91bf cd3e eebf
000002f0: fcce e43f d129 98bf 08d3 e8bf ec52 99bf
00000300: c547 afbf e5bd f53f b448 1940 8384 eebf
00000310: 52f3 88bf d1fd 04c0 f69a 1940 7e92 953f
00000320: 953e bbbf 9b28 db3f 10d9 e0bf b0f5 d03f
00000330: 0687 a6bf ccde dabf 11e7 d9bf aa18 f03f
00000340: ac0d ec3f 094f 883f 7c45 89bf bf7d e5bf
00000350: 1527 e3bf 3ec7 973f afd5 923f 2578 d9bf
00000360: a8bb 9ebf a604 e6bf a23c 953f 41cb 8ebf
00000370: 3a7a 91bf 79b4 8bbf ab6c e3bf b4a2 e3bf
00000380: 194e 8a3f 1b80 e3bf 73c6 dabf 5596 dfbf
00000390: 3777 93bf f3f2 9d3f 4cef 8a3f 162a 88bf
000003a0: 2b37 c53f 7061 883f 2eea cfbf adac e53f
000003b0: 5ce4 e63f 8123 913f e5d7 0ac0 b847 e73f
000003c0: 48f1 8fbf 91db 833f e0a5 e53f 2a65 dd3f
000003d0: 860e 8d3f 5b5a 8cbf 0cc6 c9bf eba3 933f
000003e0: 35a7 c0bf 3abd 98bf 67b5 e0bf a1b6 0d40
000003f0: 9b62 8e3f a40c 953f ca11 883f 4743 a9bf

actor_mean.0.weight f4 [145, 17]
0.46903375 -0.33630687 0.3923731 0.008602199 0.39215982 -0.1528275 0.19318189 -0.053807583
0.024531629 0.12296575 -0.26286733 0.033941004 -0.012935068 0.11629716 -0.008496384 0.23555419
0.056649957 -0.38329732 0.96209556 0.013155505 -0.015323432 -0.102587044 0.10244788 0.13934827
-0.64073485 0.06037182 0.30997846 0.09396739 -0.060418308 0.020400722 -0.0034019845 0.03823027
-0.0018818324 -0.009263114 -0.025836786 -0.25315568 -0.09044404 -0.07969096 -0.121973604 -0.0553214
0.2881548 -0.15988047 0.063832335 -0.103362836 -0.0731651 0.18462211 -0.16583064 0.1811238
0.098062485 0.3177152 0.056849044 -0.4753235 1.1038827 0.008436259 -0.029702313 -0.34711096
-0.37255117 -0.84193623 -0.90652215 0.31099457 -0.42121175 0.030755429 -0.015298396 -0.050341982
-0.016342815 -0.027682232 -0.021169825 0.043157406 0.2980481 0.12207146 0.08950905 0.108584255
0.45293686 -0.11773934 0.17242675 0.9720128 0.19646569 0.41221577 0.094077766 0.0084580835
0.023076078 0.04327606 -0.14231344 -0.11508074 -0.11235104 0.29341537 -0.10896186 0.044735454
-0.04504579 -0.19658142 -0.05627811 0.040096775 -0.10124103 0.40216118 -0.24081707 0.011357617
-0.32330486 0.0712807 -0.054553837 0.053138383 -0.007534361 -0.2621682 -0.14189716 0.31615794
0.034374177 0.151647 0.09157948 0.112550244 0.024253089 -0.0406166 -0.27392203 0.15505749
0.05182776 0.025878042 0.12523974 0.050069924 -0.09447694 -0.13779296 -0.3664103 0.25128916
-0.06407275 0.014086651 -0.0895864 -0.32339895 0.28621376 -0.107278414 0.13582806 0.21045846
0.14087859 -0.1302403 0.119687155 -0.37690294 0.11307337 -0.08416786 -0.051503085 0.099133775
0.44608542 -0.621596 0.06538701 -0.07417412 0.10120161 0.13183764 0.025442706 0.1228771
-0.073363855 0.2512124 0.24294555 -0.13178015 0.090648934 0.011947083 0.045783114 -0.053089306
0.10111258 0.034832705 0.22365804 0.35734445 0.056064095 -0.030470131 -0.09979172 0.17260179
-0.052171085 0.1108756 0.22963533 0.08350465 -0.116839506 -0.2939626 0.19248536 -0.059171107
0.18877268 0.14507607 -0.29631206 -0.3833071 0.011766944 0.029042875 -0.14560959 0.016929729
-0.1970964 -0.086701274 -0.094663955 -0.3557312 0.021926554 0.17994288 -0.18654236 0.04341224
-0.08052859 0.16339968 -0.037476394 0.2700066 -0.24797392 -0.00013384144 -0.028546458 0.29519352
-0.03395476 0.06265045 0.046786986 0.109635696 -0.13171735 0.046230264 -0.095733054 -0.06112798
-0.11714351 -0.16539858 0.08763217 0.11210348 -0.29722324 0.6130743 -0.03449384 -0.14470626
-0.014584373 -0.16983542 -0.12550937 -0.29860422 -0.0688044 -0.31648815 0.1730025 0.23446782
-0.11827122 0.09531796 0.18238273 -0.02208464 0.017540084 0.5676424 -0.33713308 0.51442873
-0.06321674 0.16977988 0.22218394 -0.041552946 0.07138565 0.13860092 0.31933543 -0.18761902
0.056482974 -0.02332445 -0.051087618 0.23916946 0.024295973 0.027990766 -0.038324017 -0.2936875
0.4865616 -0.07302848 -0.32735816 0.075300366 0.12369379 -0.101116255 -0.23169188 -0.16116516
0.15603347 0.03233747 0.26998174 0.18381602 -0.025695791 0.102741554 0.109503426 -0.20231707
00000000: 3125 f03e 6a30 acbe 21e5 c83e 3df0 0c3c
00000010: 2cc9 c83e d07e 1cbe 79d1 453e 5765 5cbd
00000020: 8ef6 c83c 78d5 fb3d 8c96 86be b905 0b3d
00000030: 9ced 53bc 352d ee3d 6b34 0bbc 1e35 713e
00000040: c909 683d 8c3f c4be e54b 763f 308a 573c
00000050: 220f 7bbc 2819 d2bd 32d0 d13d 50b1 0e3e
00000060: 3307 24bf 7148 773d 7fb5 9e3e fa71 c03d
00000070: 3079 77bd 6a1f a73c d4f3 5ebb 5897 1c3d
00000080: d1a7 f6ba 51c4 17bc aba7 d3bc 9f9d 81be
00000090: ba3a b9bd 0435 a3bd 4ccd f9bd b198 62bd
000000a0: 0789 933e b5b7 23be 87ba 823d e5af d3bd
000000b0: 95d7 95bd 940d 3d3e 82cf 29be 8478 393e
000000c0: fcd4 c83d 91ab a23e 8bda 683d 9a5d f3be
000000d0: 074c 8d3f 3c38 0a3c 4452 f3bc 87b8 b1be
000000e0: 07bf bebe 2289 57bf d611 68bf ae3a 9f3e
000000f0: 11a9 d7be cff2 fb3c 20a6 7abc 6533 4ebd
00000100: 5ee1 85bc d9c5 e2bc 576c adbc d2c5 303d
00000110: c399 983e 9a00 fa3d 8550 b73d 6c61 de3d
00000120: 57e7 e73e 5321 f1bd a390 303e d5d5 783f
00000130: 4d2e 493e f20d d33e d8ab c03d c693 0a3c
00000140: 0b0a bd3c 3d42 313d 9dba 11be 73af ebbd
00000150: 4d18 e6bd 8a3a 963e 6527 dfbd 863c 373d
00000160: ef81 38bd a44c 49be e083 66bd 843c 243d
00000170: 7557 cfbd 12e8 cd3e c098 76be 4c15 3a3c
00000180: 3788 a5be 9efb 913d d873 5fbd a2a7 593d
00000190: cde2 f6bb e93a 86be 7d4d 11be 74df a13e
000001a0: f0cb 0c3d 5a49 1b3e 068e bb3d be80 e63d
000001b0: 6aae c63c 985d 26bd 823f 8cbe 64c7 1e3e
000001c0: 5849 543d 30fe d33c d93e 003e 1f16 4d3d
000001d0: 207d c1bd 9919 0dbe 219a bbbe f9a8 803e
000001e0: 9338 83bd b2cb 663c 1379 b7bd 8c94 a5be
000001f0: 9c8a 923e c9b4 dbbd 8316 0b3e 6c82 573e
00000200: 7a42 103e b75d 05be 8a1e f53d 6cf9 c0be
00000210: 0393 e73d 3360 acbd e6f4 52bd a606 cb3d
00000220: 4f65 e43e ea20 1fbf a0e9 853d 9ae8 97bd
00000230: ca42 cf3d 7200 073e 396d d03c fda6 fb3d
00000240: ca3f 96bd e99e 803e b8c6 783e 60f1 06be
00000250: 26a6 b93d b3bd 433c 1387 3b3d 2c74 59bd
00000260: 1d14 cf3d bdac 0e3d 9d06 653e daf5 b63e
00000270: 77a3 653d 7f9c f9bc 9a5f ccbd 86be 303e
00000280: 59b1 55bd bf12 e33d 8625 6b3e 7c04 ab3d
00000290: 8d49 efbd 4482 96be e21a 453e 675d 72bd
000002a0: a04d 413e d28e 143e 37b6 97be d440 c4be
000002b0: 24ca 403c 53eb ed3c ae1a 15be 37b0 8a3c
000002c0: a4d3 49be 7090 b1bd 2ddf c1bd 6622 b6be
000002d0: 519f b33c f242 383e f604 3fbe 08d1 313d
000002e0: 2cec a4bd 3f52 273e d980 19bd 4e3e 8a3e
000002f0: e0ec 7dbe ca57 0cb9 43da e9bc 9b23 973e
00000300: 2514 0bbd e14e 803d b6a3 3f3d ae88 e03d
00000310: eae0 06be f25b 3d3d b10f c4bd 5561 7abd
00000320: f0e8 efbd 3f5e 29be 7f78 b33d 8296 e53d
00000330: a52d 98be 70f2 1c3f 6a49 0dbd e12d 14be
00000340: 4bf3 6ebc 56e9 2dbe 8785 00be a7e2 98be
00000350: 52e9 8cbd bc0a a2be 9127 313e 5518 703e
00000360: 2e38 f2bd 1036 c33d 8ac2 3a3e d9ea b4bc
00000370: 39b0 8f3c 0351 113f b59c acbe 9ab1 033f
00000380: c777 81bd c7da 2d3e 3084 633e 6c33 2abd
00000390: a432 923d 66ed 0d3e ef7f a33e 331f 40be
000003a0: b15a 673d eb12 bfbc 4041 51bd d7e8 743e
000003b0: 5908 c73c e44c e53c a5f9 1cbd 355e 96be
000003c0: 9a1e f93e f58f 95bd 7d9b a7be 1437 9a3d
000003d0: 2b53 fd3d 0a16 cfbd a340 6dbe 7b08 25be
000003e0: 3dc7 1f3e 4c74 043d 0c3b 8a3e 443a 3c3e
000003f0: fb7f d2bc 2a6a d23d 5543 e03d 352c 4fbe

actor_mean.0.bias f4 [145]
0.08060735 -0.13734218 -0.060061425 -0.14093399 0.22834887 0.16026956 -0.060978245 0.012895923
0.13726185 0.0016522384 -0.16546822 0.097564206 -0.093632534 0.22469014 -0.100787774 -0.034125436
0.10769235 -0.03929287 0.29668447 -0.06804214 0.021424644 -0.2251566 0.060019866 -0.12160239
0.21087386 0.15591857 0.086576775 0.07075126 -0.13212736 -0.055225823 -0.10459958 0.19247603
-0.06539562 0.08648502 -0.18656811 0.041307855 0.13257459 0.10488333 -0.19271019 0.013648893
0.117312744 -0.15742536 0.14130753 -0.032423705 -0.10722472 -0.015400592 0.030845415 0.30436614
-0.22180603 -0.15944077 0.011860056 0.21856837 0.067507066 0.16870958 0.026442686 0.0024904676
0.22398095 -0.18142904 -0.024662256 -0.052395556 0.008783945 0.35642603 -0.1163039 0.040174253
0.20673093 0.11589951 0.1114215 0.08615826 0.08326591 0.16913947 -0.13073009 -0.21780263
0.07942752 -0.021904562 0.10671712 0.09252429 0.03366472 -0.019589934 0.053400498 0.14288189
0.04746399 0.27940065 0.1752166 -0.020194847 -0.1360675 -0.129744 0.034943044 -0.08988556
-0.3488797 -0.03598419 -0.070607714 -0.15227059 0.1331917 0.04454812 -0.09443223 -0.02868671
-0.17639753 -0.30366054 -0.09273219 -0.07940678 0.07014621 0.102861054 -0.011521617 0.043959286
0.059418794 -0.10798765 0.076946646 -0.06039824 -0.10971724 -0.036234807 0.20574471 -0.10747603
0.071837045 0.2550081 0.04219115 0.11993578 -0.011911745 -0.04111877 -0.14603148 -0.17972675
-0.029487366 -0.19212481 0.18021725 -0.11459623 0.09955454 -0.050173514 -0.084872276 0.017900066
-0.3771351 0.06675437 0.022626087 0.17861654 0.079010166 -0.22993745 0.10494745 -0.14229123
0.32605982 0.05830944 0.12442259 -0.1453879 -0.03303835 0.072857335 0.0907526 -0.039774857
-0.13441478
00000000: 7715 a53d 6ea3 0cbe f802 76bd 0051 10be
00000010: 49d4 693e b41d 243e 53c4 79bd 6c49 533c
00000020: 5f8e 0c3e ec8f d83a 8070 29be becf c73d
00000030: 6ac2 bfbd 2c15 663e d269 cebd 1dc7 0bbd
00000040: cf8d dc3d 8ff1 20bd 07e7 973e ad59 8bbd
00000050: bc82 af3c 748f 66be 64d7 753d ad0a f9bd
00000060: 51ef 573e 1ea9 1f3e 2a4f b13d 09e6 903d
00000070: 654c 07be 7934 62bd 4e38 d6bd 7018 453e
00000080: 24ee 85bd 0f1f b13d b60b 3fbe 6d32 293d
00000090: a2c1 073e 12cd d63d d255 45be 9b9f 5f3c
000000a0: aa41 f03d 1d34 21be ecb2 103e b8ce 04bd
000000b0: a298 dbbd c452 7cbc 86af fc3c e1d5 9b3e
000000c0: 1f21 63be 7144 23be ae50 423c 63d0 5f3e
000000d0: 2541 8a3d 34c2 2c3e 559e d83c 1d37 233b
000000e0: 435b 653e 89c8 39be 8008 cabc b99c 56bd
000000f0: 89ea 0f3c 797d b63e bd30 eebd c28d 243d
00000100: 46b1 533e b95c ed3d f530 e43d be73 b03d
00000110: 5187 aa3d e632 2d3e 1cde 05be a707 5fbe
00000120: e5aa a23d 3271 b3bc 818e da3d 607d bd3d
00000130: 04e4 093d 127b a0bc 7bba 5a3d a14f 123e
00000140: 9a69 423d 9a0d 8f3e fb6b 333e aa6f a5bc
00000150: 4755 0bbe 9cdb 04be 7020 0f3d ec15 b8bd
00000160: 5ca0 b2be 2864 13bd c79a 90bd d2ec 1bbe
00000170: 6863 083e 1778 363d af65 c1bd 6400 ebbc
00000180: 8ea1 34be 6579 9bbe 60ea bdbd 06a0 a2bd
00000190: d1a8 8f3d d1a8 d23d 2ac5 3cbc a70e 343d
000001a0: 1f61 733d a128 ddbd 3496 9d3d 2564 77bd
000001b0: 6fb3 e0bd f36a 14bd beae 523e 651c dcbd
000001c0: 4d1f 933d 6c90 823e a1d0 2c3d e4a0 f53d
000001d0: 7b29 43bc 286c 28bd 4789 15be 4a0a 38be
000001e0: 7d8f f1bc 5ebc 44be df8a 383e 6eb1 eabd
000001f0: 40e3 cb3d be82 4dbd 84d1 adbd 29a3 923c
00000200: da17 c1be 84b6 883d 585a b93c 41e7 363e
00000210: 15d0 a13d b974 6bbe b0ee d63d cbb4 11be
00000220: 50f1 a63e e1d5 6e3d 45d1 fe3d 91e0 14be
00000230: 3953 07bd 3a36 953d 80dc b93d f6ea 22bd
00000240: 07a4 09be

actor_mean.2.weight f4 [290, 145]
0.022331141 -0.047770794 -0.017756782 0.13028552 0.0077038426 -0.01957224 0.0032254937 -0.09246287
0.13634774 0.0136001315 -0.054279543 0.09005074 0.076088764 -0.108573824 -0.0981737 -0.20977594
0.0026824214 -0.029889727 0.056833368 -0.005650897 -0.016274825 -0.14595047 -0.063487455 0.22455639
0.021190098 0.12101156 0.01836813 -0.16848569 -0.23883304 0.046141487 0.015458487 -0.015851412
-0.0830692 0.20331311 -0.046515927 0.06635712 -0.05468765 -0.08849461 -0.11598644 0.05720725
0.040430795 0.021635542 -0.14385462 0.029056793 -0.100254856 -0.09843734 -0.03137999 0.183663
0.07736585 0.13767855 -0.10893327 -0.053669143 0.04610659 -0.256379 0.058877476 -0.1193268
0.08591196 -0.056599904 0.058830682 0.0076322146 -0.10982885 0.06979055 0.10610753 0.15203415
-0.04894525 -0.031276114 -0.027059237 -0.054604847 0.22880195 -0.033136237 0.008151626 0.21685006
0.07280392 0.055216257 0.06048017 0.030861394 -0.10864136 -0.06987868 0.023091635 0.107313894
-0.03735094 -0.07860795 -0.07587499 0.044042118 -0.022096675 -0.03393399 -0.11346743 0.050433498
0.13985077 -0.047249578 -0.07595102 -0.1968436 -0.046688784 -0.034426324 0.1034482 -0.11727931
-0.0033977716 -0.0033944247 0.07896016 0.06306761 -0.018524203 0.057108104 0.070952885 -0.024117785
0.058112103 -0.02567191 -0.11466732 0.0013250225 0.29189843 0.2610893 0.048323255 0.032598127
0.1487521 -0.25718257 0.14735027 -0.01992377 -0.0074718385 0.1801681 -0.03120786 0.013423895
-0.17483626 -0.076272115 0.09917047 -0.049262613 -0.1287703 0.11283349 -0.077681325 0.11690028
0.074846484 -0.02013957 0.13771681 -0.05522793 0.049306188 0.22905904 -0.04698282 0.035504345
-0.04251088 0.046816543 -0.2198189 -0.07722289 -0.11323195 -0.006812578 -0.17542213 0.1292854
-0.013956129 -0.049940594 0.02724247 -0.19007966 0.01374809 0.009645622 -0.028488558 -0.15119314
-0.045215193 -0.05251185 0.08610666 0.0351769 -0.075157925 0.020596622 0.06749025 -0.10729621
-0.020305548 -0.043904692 -0.0142729115 0.009754873 0.08303711 -0.00069433014 0.0026320722 -0.09952155
-0.06686113 -0.034795634 -0.038678303 -0.007021788 0.054674644 -0.0679774 0.063223444 0.10123257
0.2722076 -0.02282513 0.0224257 -0.11824258 -0.15523075 0.06942993 0.079306796 -0.020039065
0.06704039 0.096957564 0.10919728 0.0076568783 -0.11449444 0.002561319 -0.03692354 -0.23085377
0.070007265 -0.047513258 0.122096315 -0.0056584203 0.18118241 -0.06735772 -0.052702323 -0.1667126
0.040200382 0.090596914 0.061629694 0.007558952 -0.006669947 0.0074964445 -0.06414706 0.03550579
0.020905346 -0.14965282 -0.037179034 0.030009493 -0.07121644 0.0885829 0.07211378 -0.10830283
-0.049472716 -0.0035797292 -0.06130034 -0.025234273 -0.08360518 -0.062577985 0.07862697 -0.14402543
0.0690503 0.029480232 -0.015856715 -0.047815003 0.038191352 -0.027652184 -0.17694044 -0.079105526
0.07365377 -0.0400369 -0.100618534 0.19504201 0.06659967 -0.033291165 0.10262555 -0.117994666
0.040190533 0.0057891076 0.16902664 -0.14101185 -0.035205927 -0.077497855 0.1041722 -0.035411518
-0.08803562 -0.0034938576 -0.1311253 0.05609397 0.061418254 0.023352837 0.013361002 -0.1243333
00000000: ccef b63c 4fab 43bd ac76 91bc 9169 053e
00000010: 8470 fc3b f655 a0bc ce62 533b 2c5d bdbd
00000020: be9e 0b3e 16d3 5e3c 3a54 5ebd 866c b83d
00000030: 6dd4 9b3d f45b debd 4b0f c9bd 81cf 56be
00000040: 90cb 2f3b 4ddb f4bc 1bca 683d 292b b9bb
00000050: c852 85bc 0a74 15be b605 82bd 1cf2 653e
00000060: db96 ad3c e9d4 f73d c378 963c 8387 2cbe
00000070: a690 74be dbfe 3c3d 9845 7d3c d2da 81bc
00000080: 2f20 aabd 5031 503e 7c87 3ebd 3ee6 873d
00000090: 2800 60bd a93c b5bd 4c8a edbd 2652 6a3d
000000a0: c39a 253d 053d b13c a04e 13be 8308 ee3c
000000b0: 6b52 cdbd 8499 c9bd 4e88 00bd 2712 3c3e
000000c0: fd71 9e3d 9bfb 0c3e 6818 dfbd 2dd4 5bbd
000000d0: 44da 3c3d 1c44 83be 8229 713d 9c61 f4bd
000000e0: 9cf2 af3d 4dd5 67bd 71f8 703d a817 fa3b
000000f0: f3ed e0bd 59ee 8e3d e84e d93d d7ae 1b3e
00000100: d17a 48bd 621b 00bd 55ab ddbc 55a9 5fbd
00000110: 0f4b 6a3e ddb9 07bd 668e 053c f10d 5e3e
00000120: 391a 953d 712a 623d 0eba 773d 09d1 fc3c
00000130: 5d7f debd 8e1c 8fbd ab2a bd3c 63c7 db3d
00000140: 4dfd 18bd 34fd a0bd 5964 9bbd 8265 343d
00000150: 1604 b5bc 5efe 0abd 9d61 e8bd 5b93 4e3d
00000160: 0a35 0f3e c688 41bd 358c 9bbd 5e91 49be
00000170: bd3c 3fbd 9e02 0dbd a6dc d33d 2330 f0bd
00000180: 26ad 5ebb ff74 5ebb ddb5 a13d 9729 813d
00000190: 12c0 97bc 30ea 693d bf4f 913d a992 c5bc
000001a0: f506 6e3d e64d d2bc b3d6 eabd 61ac ad3a
000001b0: b673 953e 7fad 853e 9bee 453d 9d85 053d
000001c0: 7852 183e 6fad 83be fde2 163e 2d37 a3bc
000001d0: 53d6 f4bb fd7d 383e a0a7 ffbc e6ef 5b3c
000001e0: 4708 33be 8e34 9cbd e319 cb3d 98c7 49bd
000001f0: 5ddc 03be 3f15 e73d 6317 9fbd 6a69 ef3d
00000200: 1d49 993d bdfb a4bc a305 0d3e af36 62bd
00000210: 49f5 493d 748e 6a3e 0f71 40bd 016d 113d
00000220: e31f 2ebd b4c2 3f3d 3518 61be 0927 9ebd
00000230: 27e6 e7bd 0c3c dfbb dca1 33be 6463 043e
00000240: 3fa8 64bc 828e 4cbd 9a2b df3c 3ea4 42be
00000250: ab3f 613c ac08 1e3c d660 e9bc 60d2 1abe
00000260: 9133 39bd aa16 57bd b058 b03d a715 103d
00000270: 66ec 99bd 3fba a83c 5438 8a3d 1ebe dbbd
00000280: d257 a6bc 68d5 33bd eed8 69bc e7d2 1f3c
00000290: 5c0f aa3d b503 36ba d87e 2c3b f4d1 cbbd
000002a0: 7dee 88bd de85 0ebd 246d 1ebd 0717 e6bb
000002b0: 85f2 5f3d bc37 8bbd 4b7b 813d 0653 cf3d
000002c0: cb5e 8b3e c4fb babc 1ab6 b73c 2a29 f2bd
000002d0: cff4 1ebe 4731 8e3d 9a6b a23d f728 a4bc
000002e0: 794c 893d b091 c63d d3a2 df3d 8de6 fa3b
000002f0: 107c eabd cddb 273b 233d 17bd ee64 6cbe
00000300: f85f 8f3d 439d 42bd a20d fa3d 456a b9bb
00000310: e287 393e d8f2 89bd 64de 57bd b5b6 2abe
00000320: 28a9 243d e08a b93d 6b6f 7c3d 16b1 f73b
00000330: 928f dabb bca4 f53b 895f 83bd 856e 113d
00000340: b041 ab3c 973e 19be 0b49 18bd 78d6 f53c
00000350: edd9 91bd f46a b53d 64b0 933d e0cd ddbd
00000360: e7a3 4abd e499 6abb 1116 7bbd 1bb8 cebc
00000370: 3139 abbd e328 80bd 2d07 a13d 677b 13be
00000380: 3e6a 8d3d 8780 f13c f1e5 81bc aad9 43bd
00000390: 896e 1c3d d586 e2bc e02f 35be 1402 a2bd
000003a0: cad7 963d bcfd 23bd 1711 cebd 18b9 473e
000003b0: 6865 883d 515c 08bd 582d d23d 30a7 f1bd
000003c0: d49e 243d 8eb2 bd3b 5215 2d3e 6965 10be
000003d0: 1734 10bd 32b7 9ebd 3c58 d53d ab0b 11bd
000003e0: 054c b4bd 34f9 64bb b645 06be cac2 653d
000003f0: b591 7b3d 734e bf3c 1be8 5a3c 75a2 febd
