DATA403_final/checkpoints/Walker2d-v4_t/PPO_0.pt (torch, 372000 bytes, 12 tensors)

actor_logstd f4 [1, 6]
0	0x00000000	0.0
1	0x00000000	0.0
2	0x00000000	0.0
3	0x00000000	0.0
4	0x00000000	0.0
5	0x00000000	0.0

critic.0.weight f4 [145, 17]
0	0x3cdf2454	0.027239002
1	0xbceca523	-0.028887337
2	0x3c4050f6	0.011738053
3	0xbdd08e24	-0.10183361
4	0xbc3a44ec	-0.011368971
5	0xbbb1699a	-0.0054142
6	0xbe050e34	-0.129937
7	0xbe0c2023	-0.13684134
8	0xbe5ba3db	-0.21449225
9	0x3bf0a02b	0.0073433123
10	0x3d11c74e	0.035590462
11	0xbd64b04b	-0.05583219
12	0xbc858f00	-0.01630354
13	0x3d16fcd3	0.036862206
14	0x3c961190	0.018318921
15	0x3d4fb13b	0.05070613
16	0xbca2a3bd	-0.019853467
17	0x3d2aa748	0.041663438
18	0x3c8bcb27	0.017064644
19	0x3e71c623	0.2361074
20	0x3ce0c3fc	0.027437203
21	0x3e0c6308	0.13709652
22	0x3dee76f7	0.116437845
23	0xbe4b83c5	-0.19874485
24	0xbd41df2e	-0.04733198
25	0x3da447f5	0.08021537
26	0x3d672a0b	0.05643658
27	0xbc5b30db	-0.013378347
28	0xbe15150f	-0.14558814
29	0x3dc6758a	0.096903875
30	0xbdafe9ba	-0.08589502
31	0xbe518b8a	-0.20463386
32	0xbe988c52	-0.29794556
33	0xbca5d6d1	-0.020244034
34	0x3dc959e8	0.098316014
35	0x3d7d89ce	0.061899
36	0xbcc266f5	-0.023730734
37	0x3c64601e	0.013938932
38	0x3e37211a	0.17883721
39	0xbd31d9a4	-0.04342045
40	0xbd37441d	-0.044742692
41	0xbd698cd0	-0.057019055
42	0x3dc7a91a	0.097490504
43	0xbd85f075	-0.06540004
44	0xbe584f92	-0.21124104
45	0xbdb90be4	-0.09035471
46	0x3de974eb	0.113992535
47	0xbde46930	-0.111528754
48	0x3e8f2bda	0.27963144
49	0x3d8a26a6	0.06745653
50	0xbc6e90d7	-0.0145609
51	0xbb1a9307	-0.002358617
52	0xbdb4a218	-0.088199794
53	0x3e336f5a	0.17522946
54	0xbe1e727d	-0.15473361
55	0x3da0ee02	0.078578964
56	0xbd07dc45	-0.03316905
57	0x3e02f5e2	0.1278911
58	0x3e63c996	0.22244868
59	0xbd173731	-0.03691787
60	0xbe138bef	-0.14408849
61	0xbd87757f	-0.066142075
62	0xbddaacd6	-0.10677497
63	0x3e496885	0.19668777
64	0x3df7cc51	0.12099517
65	0xbe198f61	-0.14996101
66	0x3dde7297	0.108617
67	0x3c443805	0.011976247
68	0xbce5517b	-0.027992954
69	0xbe47494d	-0.19461556
70	0xbdfbded3	-0.1229836
71	0xbd9f7691	-0.077862866
72	0xbe163b50	-0.14671063
73	0x3d4efaea	0.05053226
74	0x3c18a3bf	0.009316384
75	0x3e07ab72	0.13248995
76	0xbd9a1a24	-0.07524517
77	0x3d9eeadc	0.077596396
78	0x3da02d33	0.07821121
79	0x3d4df253	0.050279927
80	0x3e448236	0.19190297
81	0x3e2e04d8	0.16994035
82	0xbda2838f	-0.07935249
83	0xbe3c7f24	-0.18407875
84	0x3e1f73b4	0.15571481
85	0x3da1a6a5	0.07893113
86	0x3dc112c5	0.09427408
87	0x3e51110f	0.20416664
88	0xbc6eb45f	-0.014569371
89	0x3e1468d0	0.14493108
90	0x3de9bbd3	0.11412778
91	0x3da94ba4	0.082663804
92	0x3e1caacd	0.1529953
93	0x3de0e4cd	0.1098114
94	0x3c6522a3	0.013985309
95	0x3de5c653	0.11219468
96	0x3e580335	0.21094973
97	0x3de230f1	0.11044491
98	0x3d8ed03a	0.0697331
99	0xbd8d4c40	-0.06899309
100	0x3c931e5a	0.017958809
101	0x3c7a2190	0.015266791
102	0xbd944398	-0.07239455
103	0xbe20bcd4	-0.15697032
104	0xbd8aae2a	-0.067715004
105	0xbd86614c	-0.06561527
106	0xbd873ec2	-0.06603767
107	0x3d0d819d	0.034547437
108	0xbcd75c72	-0.026289199
109	0xbe81d405	-0.2535707
110	0xbd69b429	-0.05705658
111	0xbdbbe142	-0.09173824
112	0x3cf6452e	0.030062284
113	0x3cc6aac1	0.024251344
114	0x3def8144	0.11694577
115	0x3db38e74	0.08767405
116	0x3d230cd0	0.03980714
117	0xbdf43567	-0.11924248
118	0xbd8501c7	-0.064944796
119	0x3d6defad	0.0580899
120	0x3d80875f	0.0627582
121	0xbd2fb963	-0.042901408
122	0xbd78b194	-0.060716227
123	0xbdd42382	-0.10358335
124	0x3d1b5092	0.037918635
125	0xbd98b6eb	-0.07456764
126	0x3d90d1ee	0.07071291
127	0x3e35721f	0.17719315
128	0xbdb20f2f	-0.08694302
129	0x3e01469a	0.12624589
130	0xbe776778	-0.24160564
131	0xbd63dd9a	-0.055631258
132	0x3d78bd16	0.0607272
133	0x3deefb1d	0.1166899
134	0xbe577858	-0.21042001
135	0xbe65137b	-0.22370712
136	0x3dc2d83f	0.09513902
137	0xbc3844a4	-0.011246834
138	0xbd85e2a2	-0.065373674
139	0xbc39c0b6	-0.01133745
140	0xbe2c4b09	-0.16825499
141	0x3d96a834	0.07356301
142	0x3e2444bf	0.1604185
143	0x3c9fc5e4	0.019503541
144	0x3e1ad7eb	0.15121429
145	0xbdcbf584	-0.09958938
146	0x3d3cf756	0.046134315
147	0xbc397314	-0.011318941
148	0x3e127724	0.14303261
149	0xbd0d3d95	-0.034482557
150	0xba0f0c30	-0.0005456833
151	0xbd03e0ed	-0.032196928
152	0x3e38be69	0.18041386
153	0xbe39ce21	-0.18145038
154	0xbbd0770f	-0.006361849
155	0xbda0b946	-0.07847838
156	0xbcda5a75	-0.026654461
157	0x3e42fe21	0.19042255
158	0xbdafbb35	-0.08580629
159	0x3e11995a	0.14218655
160	0xbd7e645b	-0.062107425
161	0x3db7d10d	0.0897542
162	0xbdca2765	-0.09870795
163	0xbd385984	-0.045007244
164	0x3df21071	0.11819542
165	0x3c767cec	0.015044432
166	0x3c83cb8f	0.016088275
167	0xbd691d48	-0.05691269
168	0x3c24db01	0.01006198
169	0xbd0f76bc	-0.035025343
170	0x3d3b5b01	0.045741085
171	0xbdd7cff0	-0.10537708
172	0xbd39ecb3	-0.04539175
173	0xbc45b5ad	-0.012067241
174	0xb8cce002	-9.769203e-05
175	0x3c9b698d	0.018971229
176	0xbe6167a7	-0.22012196
177	0xbd12cb69	-0.03583852
178	0x3e976bf2	0.29574543
179	0xbcd898a9	-0.026439982
180	0x3db66d0b	0.08907517
181	0x3e324ea4	0.17412812
182	0x3cb7fcfc	0.0224595
183	0x3dc2e200	0.09515762
184	0x3e0748dd	0.13211389
185	0xbd72f2e5	-0.059313674
186	0x3d450e87	0.048109557
187	0x3d635f54	0.055510834
188	0x3dc744d5	0.097299255
189	0x3db0227d	0.08600328
190	0xbe6f4a05	-0.2336808
191	0xbd805209	-0.06265647
192	0xbe4dad67	-0.20085679
193	0x3e142572	0.14467409
194	0xbe617b4b	-0.22019689
195	0xbe241612	-0.16024044
196	0xbd06312e	-0.032761745
197	0x3de1df4d	0.11028919
198	0x3e23f8d2	0.16012886
199	0xbdbeb117	-0.09311121
200	0x3e71541d	0.23567243
201	0xbd4dd5d0	-0.050252736
202	0x3d34f47e	0.04417848
203	0xbd8c99a8	-0.06865245
204	0x3cac1b8d	0.021009231
205	0x3d80bcc8	0.06286007
206	0xbd9edb06	-0.07756619
207	0x3c849612	0.01618484
208	0x3deb683e	0.11494492
209	0xbde0e9e6	-0.109821126
210	0xbb8bdff5	-0.004268641
211	0xbdc47bb4	-0.09593907
212	0x3cc9aaf8	0.024617657
213	0x3e20f774	0.15719396
214	0x3e191d03	0.14952473
215	0x3d6be13c	0.057587847
216	0x3db7cfa5	0.08975152
217	0xbe86bfe1	-0.26318267
218	0xbbaefed6	-0.0053404374
219	0xbe0b9f7d	-0.13635059
220	0x3d323e01	0.043516163
221	0x3e29ff07	0.16601191
222	0x3dd1f1f0	0.10251224
223	0xbd2d809b	-0.042358976
224	0x3cb8b6c0	0.02254808
225	0x3ddddcbc	0.10833117
226	0xbe34bac1	-0.17649366
227	0x3e52216f	0.20520566
228	0xbd145e45	-0.036222715
229	0xbdae4c51	-0.0851065
230	0xbcb9aefa	-0.022666443
231	0xbe40883f	-0.18801974
232	0xbe06f5f0	-0.13179755
233	0xbd9eb1ab	-0.07748731
234	0xbd1908b3	-0.03736181
235	0xbd3c1fc8	-0.045928746
236	0x3dc49123	0.09597995
237	0x3d9dad54	0.07699075
238	0xbd874216	-0.06604402
239	0x3d206c79	0.039165948
240	0x3cb8871b	0.02252536
241	0x3db72299	0.08942146
242	0xbcfcf3ed	-0.030878032
243	0x3d57ddf9	0.052701924
244	0xbcdba6db	-0.026812961
245	0x3e0b235e	0.1358771
246	0xbc68a73a	-0.014200026
247	0xbe961ae1	-0.29317382
248	0xbd9da5ac	-0.07697615
249	0x3cedc6ca	0.029025454
250	0x3d2adfb4	0.041717246
251	0xbca325da	-0.01991551
252	0xbc6bb829	-0.014387169
253	0x3db28f03	0.087186836
254	0x3da0daab	0.078542076
255	0x3dcfe1e8	0.1015051

critic.0.bias f4 [145]
0	0x00000000	0.0
1	0x00000000	0.0
2	0x00000000	0.0
3	0x00000000	0.0
4	0x00000000	0.0
5	0x00000000	0.0
6	0x00000000	0.0
7	0x00000000	0.0
8	0x00000000	0.0
9	0x00000000	0.0
10	0x00000000	0.0
11	0x00000000	0.0
12	0x00000000	0.0
13	0x00000000	0.0
14	0x00000000	0.0
15	0x00000000	0.0
16	0x00000000	0.0
17	0x00000000	0.0
18	0x00000000	0.0
19	0x00000000	0.0
20	0x00000000	0.0
21	0x00000000	0.0
22	0x00000000	0.0
23	0x00000000	0.0
24	0x00000000	0.0
25	0x00000000	0.0
26	0x00000000	0.0
27	0x00000000	0.0
28	0x00000000	0.0
29	0x00000000	0.0
30	0x00000000	0.0
31	0x00000000	0.0
32	0x00000000	0.0
33	0x00000000	0.0
34	0x00000000	0.0
35	0x00000000	0.0
36	0x00000000	0.0
37	0x00000000	0.0
38	0x00000000	0.0
39	0x00000000	0.0
40	0x00000000	0.0
41	0x00000000	0.0
42	0x00000000	0.0
43	0x00000000	0.0
44	0x00000000	0.0
45	0x00000000	0.0
46	0x00000000	0.0
47	0x00000000	0.0
48	0x00000000	0.0
49	0x00000000	0.0
50	0x00000000	0.0
51	0x00000000	0.0
52	0x00000000	0.0
53	0x00000000	0.0
54	0x00000000	0.0
55	0x00000000	0.0
56	0x00000000	0.0
57	0x00000000	0.0
58	0x00000000	0.0
59	0x00000000	0.0
60	0x00000000	0.0
61	0x00000000	0.0
62	0x00000000	0.0
63	0x00000000	0.0
64	0x00000000	0.0
65	0x00000000	0.0
66	0x00000000	0.0
67	0x00000000	0.0
68	0x00000000	0.0
69	0x00000000	0.0
70	0x00000000	0.0
71	0x00000000	0.0
72	0x00000000	0.0
73	0x00000000	0.0
74	0x00000000	0.0
75	0x00000000	0.0
76	0x00000000	0.0
77	0x00000000	0.0
78	0x00000000	0.0
79	0x00000000	0.0
80	0x00000000	0.0
81	0x00000000	0.0
82	0x00000000	0.0
83	0x00000000	0.0
84	0x00000000	0.0
85	0x00000000	0.0
86	0x00000000	0.0
87	0x00000000	0.0
88	0x00000000	0.0
89	0x00000000	0.0
90	0x00000000	0.0
91	0x00000000	0.0
92	0x00000000	0.0
93	0x00000000	0.0
94	0x00000000	0.0
95	0x00000000	0.0
96	0x00000000	0.0
97	0x00000000	0.0
98	0x00000000	0.0
99	0x00000000	0.0
100	0x00000000	0.0
101	0x00000000	0.0
102	0x00000000	0.0
103	0x00000000	0.0
104	0x00000000	0.0
105	0x00000000	0.0
106	0x00000000	0.0
107	0x00000000	0.0
108	0x00000000	0.0
109	0x00000000	0.0
110	0x00000000	0.0
111	0x00000000	0.0
112	0x00000000	0.0
113	0x00000000	0.0
114	0x00000000	0.0
115	0x00000000	0.0
116	0x00000000	0.0
117	0x00000000	0.0
118	0x00000000	0.0
119	0x00000000	0.0
120	0x00000000	0.0
121	0x00000000	0.0
122	0x00000000	0.0
123	0x00000000	0.0
124	0x00000000	0.0
125	0x00000000	0.0
126	0x00000000	0.0
127	0x00000000	0.0
128	0x00000000	0.0
129	0x00000000	0.0
130	0x00000000	0.0
131	0x00000000	0.0
132	0x00000000	0.0
133	0x00000000	0.0
134	0x00000000	0.0
135	0x00000000	0.0
136	0x00000000	0.0
137	0x00000000	0.0
138	0x00000000	0.0
139	0x00000000	0.0
140	0x00000000	0.0
141	0x00000000	0.0
142	0x00000000	0.0
143	0x00000000	0.0
144	0x00000000	0.0

critic.2.weight f4 [290, 145]
0	0xbca72c39	-0.02040683
1	0xbdbc6d70	-0.09200561
2	0xbdbb682e	-0.0915073
3	0xbcefab4d	-0.029256487
4	0x3c488169	0.012237885
5	0xbdcba9fe	-0.09944533
6	0xbde3d42c	-0.11124453
7	0xbd2db23a	-0.0424063
8	0x3e25a255	0.16175206
9	0x3d62345d	0.05522572
10	0xbe2b3bd3	-0.1672204
11	0xbd598251	-0.053102795
12	0xbb37478a	-0.0027966225
13	0xbdf4ce03	-0.11953356
14	0xbcec27ed	-0.028827632
15	0x3e1a0fc9	0.15045084
16	0xbd07c1c2	-0.033143766
17	0xbe07a3fe	-0.13246152
18	0x3e1d6f0a	0.1537439
19	0xbddc0889	-0.107438155
20	0x3d6be425	0.057590622
21	0xbdc74f5f	-0.09731936
22	0x3e66b489	0.22529806
23	0xbdfe8f78	-0.12429708
24	0x3ba3efe4	0.0050029624
25	0xbd2a7f70	-0.04162544
26	0xbe25cb7b	-0.16190903
27	0xbe1ab57e	-0.15108296
28	0x3d594b8f	0.053050574
29	0x3d7e5e2e	0.062101535
30	0x3d43c9b2	0.047799774
31	0x3bf974d8	0.007612806
32	0x3d54d951	0.05196506
33	0xbd3358cf	-0.043785866
34	0xbdacd8e6	-0.084398076
35	0x3de9ce92	0.11416353
36	0xbdaa7565	-0.083231725
37	0xbe05091e	-0.12991759
38	0x3e2457fc	0.16049188
39	0x3e053517	0.13008533
40	0x3d831a5d	0.06401513
41	0xbc7193f5	-0.014744748
42	0xbd8353f4	-0.06412497
43	0x3db5521d	0.088535525
44	0xbcd18ad8	-0.025578901
45	0xbe04bf2b	-0.1296355
46	0xbcd70b80	-0.0262506
47	0xbd121926	-0.035668515
48	0xbde82982	-0.11336042
49	0xbdc70f7f	-0.097197525
50	0xbd869aee	-0.06572519
51	0x3d55d739	0.052207205
52	0xbdd31241	-0.10306216
53	0xbc90081e	-0.017581996
54	0x3de13b67	0.10997658
55	0xbc677655	-0.014127334
56	0x3deee5f9	0.116649576
57	0x3db1b270	0.086766124
58	0xbc4d0b66	-0.012514925
59	0x3bdaeeb0	0.006681286
60	0xbda8317b	-0.08212563
61	0x3d31500f	0.04328924
62	0xbc83ec6e	-0.01610395
63	0xbc38b20e	-0.01127292
64	0x3ccfd0f2	0.025368188
65	0xbe0c3c8e	-0.13694975
66	0xbcb123e7	-0.021623565
67	0xbcf25172	-0.029579852
68	0x3de6e7c0	0.112746716
69	0xbd44131d	-0.04786979
70	0x3d948b65	0.0725315
71	0x3d137f91	0.03601033
72	0x3d853788	0.06504732
73	0xbd00675e	-0.03134858
74	0xbd997fd8	-0.074950874
75	0xbdb5131a	-0.08841534
76	0x3d4135af	0.047170337
77	0xbc9c2631	-0.01906118
78	0xbd87dfef	-0.06634509
79	0x3c7e3d63	0.015517565
80	0x3d79afd1	0.060958687
81	0x3d0e9c42	0.034816988
82	0x3d3da54f	0.04630023
83	0xbda1ead5	-0.07906119
84	0x3d7ccad2	0.061716862
85	0x3d8a2740	0.067457676
86	0xbccd8b05	-0.025090704
87	0x3dd91700	0.1060009
88	0xbe4e994a	-0.20175663
89	0xbe0564f2	-0.13026789
90	0x3d91b55e	0.07114671
91	0x3dc4b4cd	0.096047975
92	0x3dd52163	0.10406759
93	0xbe697d1f	-0.22801636
94	0xbd08cea6	-0.0334002
95	0x3c774c7c	0.015093919
96	0x3e46aed5	0.1940263
97	0x3e11422e	0.14185402
98	0x3c95613b	0.01823484
99	0x3ca3e927	0.020008637
100	0x3d0c0642	0.034185655
101	0x3e01fec0	0.12694836
102	0x3c84b6dd	0.016200477
103	0x3be4bd17	0.006980549
104	0x3e1abb62	0.15110543
105	0xbd3e8df4	-0.046522096
106	0x3c40e5df	0.011773556
107	0x3d892e46	0.06698279
108	0x3e0c73d5	0.13716061
109	0xbc928087	-0.017883552
110	0x3dd4e536	0.10395281
111	0x3d40ebed	0.047099996
112	0xbd48e68a	-0.049047984
113	0x3ae20f35	0.0017246964
114	0xbd41489f	-0.047188397
115	0xbd04393c	-0.032281145
116	0x3d571f88	0.052520305
117	0x3c4fa715	0.012674113
118	0xbd8b91ff	-0.06814956
119	0xbd387446	-0.045032762
120	0xbd8cfa2b	-0.06883653
121	0xbcd276fc	-0.025691502
122	0xbda19f2a	-0.07891686
123	0xbd1211f7	-0.035661664
124	0x3da9c708	0.08289915
125	0xbd951f61	-0.07281376
126	0xbd73ed4b	-0.059552472
127	0x3c70c8fe	0.014696358
128	0xbd9f1c3d	-0.07769058
129	0x3d9ff2b5	0.078099646
130	0x3db70a8c	0.089375585
131	0xbcd1bf6f	-0.025603978
132	0x3ce7bd87	0.028288616
133	0xbd3ad473	-0.045612764
134	0xbce9ee48	-0.028556004
135	0xbdce6ed8	-0.100797355
136	0x3dc15459	0.09439916
137	0x3c04f27c	0.008114453
138	0xbd041bbf	-0.032253023
139	0x3bb51de0	0.005527243
140	0x3d27d6dd	0.040976394
141	0xbdaa6828	-0.083206475
142	0xbc510b67	-0.012759066
143	0xbe241710	-0.16024423
144	0x3d5c1c8f	0.053738173
145	0xbc5cb6e0	-0.013471335
146	0xbdc917d9	-0.09819002
147	0xbd1d53e8	-0.038410097
148	0x3d5c1bd3	0.053737473
149	0xbd874e93	-0.06606784
150	0x3d571ae2	0.05251587
151	0x3d69752f	0.05699652
152	0xbd459a72	-0.048242994
153	0xbc00b018	-0.007854484
154	0x3c7d1fa8	0.015449442
155	0x3d703f9f	0.058654424
156	0xbdaec636	-0.085338995
157	0x3dcd60b8	0.10028213
158	0x3c12e2d9	0.0089652175
159	0xbdea75e4	-0.11448267
160	0xbcd72cc0	-0.026266456
161	0xbd80eb9d	-0.0629494
162	0xbdf382eb	-0.11890205
163	0xbd3faa44	-0.046793237
164	0xbc307896	-0.010770937
165	0xbdc35842	-0.09538318
166	0xbd2088ac	-0.03919284
167	0x3b054df5	0.0020340655
168	0x3b3777b0	0.0027994923
169	0xbd117976	-0.035516225
170	0xbd6adad7	-0.05733761
171	0xbd7561e4	-0.05990781
172	0xbd450305	-0.048098583
173	0xbdbd918b	-0.09256276
174	0xbdca2890	-0.09871018
175	0x3d19babf	0.03753161
176	0xbd5891f2	-0.05287356
177	0xbd2c53db	-0.04207216
178	0x3dae2f4a	0.085051134
179	0x3de04b7f	0.109519
180	0xbdd133cc	-0.102149576
181	0xbdad566d	-0.0846375
182	0xbd67f6c4	-0.05663182
183	0x3e10436f	0.14088224
184	0xbe241297	-0.16022716
185	0xbe0eea90	-0.13956666
186	0x3c90282e	0.017597284
187	0x3df981ec	0.12182984
188	0xbd71f23a	-0.059068896
189	0xbdbe352f	-0.09287488
190	0x3cb55dbc	0.022139423
191	0x3dcb1a34	0.09917107
192	0x3d661c76	0.056179486
193	0x3db9cb41	0.09071971
194	0x3e04f43b	0.12983792
195	0x3ce5a97f	0.028034924
196	0xbb02d7e5	-0.001996511
197	0xbe0b3f65	-0.13598402
198	0xbdd850f5	-0.10562316
199	0x3c9dae01	0.01924801
200	0xbd7517b0	-0.059837043
201	0x3e1dfd0f	0.15428565
202	0x3db1c1f6	0.08679573
203	0xbd0306b4	-0.031988814
204	0xbdd50c99	-0.104027934
205	0x3d22e6e8	0.03977099
206	0xbdbbcaba	-0.091695264
207	0xbcf24897	-0.02957563
208	0xbd824dff	-0.06362533
209	0x3d6994df	0.05702674
210	0x3d73822c	0.059450313
211	0x3d7e5964	0.06209697
212	0xbd1d5c5f	-0.03841817
213	0x3d5dc6b4	0.054144576
214	0xbde0d6eb	-0.10978492
215	0xbdf4a6a8	-0.1194585
216	0x3d3ee44f	0.04660445
217	0x3d30ba5e	0.043146484
218	0x3d8352c4	0.06412271
219	0x3d81505a	0.06314154
220	0xbd457f43	-0.04821707
221	0xbd3ea59f	-0.046544667
222	0xbdbface0	-0.09359145
223	0xbdab303d	-0.0835881
224	0xbceea7c2	-0.029132728
225	0x3ddbf422	0.10739924
226	0xb9d3e03b	-0.0004041212
227	0x3e3c4968	0.18387377
228	0xbcea78bb	-0.028622022
229	0x3d5eec0c	0.05442433
230	0xbdc65f16	-0.09686105
231	0xbd6876d6	-0.056753956
232	0x3cb7ff88	0.022460714
233	0x3d815f0d	0.063169576
234	0x3dc63f17	0.09680002
235	0x3df09950	0.11747992
236	0xbe0f376e	-0.13985988
237	0x3ce66cec	0.02812811
238	0xbdb73fea	-0.089477375
239	0xbe0385b4	-0.12843972
240	0x3d95d69c	0.07316324
241	0xbd400f85	-0.0468898
242	0xbe503cf2	-0.20335749
243	0xbc9e5e80	-0.01933217
244	0x3d5fcb7d	0.05463742
245	0xbc196be9	-0.009364107
246	0x3d0214fa	0.031758286
247	0xbe42a731	-0.19009091
248	0x3e29a015	0.16564973
249	0xbd69abef	-0.057048734
250	0xbcd7d9f1	-0.02634904
251	0x3ce5bd82	0.028044466
252	0x3ddf997c	0.10917947
253	0xbc94092c	-0.01807078
254	0x3e07ae89	0.13250174
255	0x3e080dc3	0.132865

critic.2.bias f4 [290]
0	0x00000000	0.0
1	0x00000000	0.0
2	0x00000000	0.0
3	0x00000000	0.0
4	0x00000000	0.0
5	0x00000000	0.0
6	0x00000000	0.0
7	0x00000000	0.0
8	0x00000000	0.0
9	0x00000000	0.0
10	0x00000000	0.0
11	0x00000000	0.0
12	0x00000000	0.0
13	0x00000000	0.0
14	0x00000000	0.0
15	0x00000000	0.0
16	0x00000000	0.0
17	0x00000000	0.0
18	0x00000000	0.0
19	0x00000000	0.0
20	0x00000000	0.0
21	0x00000000	0.0
22	0x00000000	0.0
23	0x00000000	0.0
24	0x00000000	0.0
25	0x00000000	0.0
26	0x00000000	0.0
27	0x00000000	0.0
28	0x00000000	0.0
29	0x00000000	0.0
30	0x00000000	0.0
31	0x00000000	0.0
32	0x00000000	0.0
33	0x00000000	0.0
34	0x00000000	0.0
35	0x00000000	0.0
36	0x00000000	0.0
37	0x00000000	0.0
38	0x00000000	0.0
39	0x00000000	0.0
40	0x00000000	0.0
41	0x00000000	0.0
42	0x00000000	0.0
43	0x00000000	0.0
44	0x00000000	0.0
45	0x00000000	0.0
46	0x00000000	0.0
47	0x00000000	0.0
48	0x00000000	0.0
49	0x00000000	0.0
50	0x00000000	0.0
51	0x00000000	0.0
52	0x00000000	0.0
53	0x00000000	0.0
54	0x00000000	0.0
55	0x00000000	0.0
56	0x00000000	0.0
57	0x00000000	0.0
58	0x00000000	0.0
59	0x00000000	0.0
60	0x00000000	0.0
61	0x00000000	0.0
62	0x00000000	0.0
63	0x00000000	0.0
64	0x00000000	0.0
65	0x00000000	0.0
66	0x00000000	0.0
67	0x00000000	0.0
68	0x00000000	0.0
69	0x00000000	0.0
70	0x00000000	0.0
71	0x00000000	0.0
72	0x00000000	0.0
73	0x00000000	0.0
74	0x00000000	0.0
75	0x00000000	0.0
76	0x00000000	0.0
77	0x00000000	0.0
78	0x00000000	0.0
79	0x00000000	0.0
80	0x00000000	0.0
81	0x00000000	0.0
82	0x00000000	0.0
83	0x00000000	0.0
84	0x00000000	0.0
85	0x00000000	0.0
86	0x00000000	0.0
87	0x00000000	0.0
88	0x00000000	0.0
89	0x00000000	0.0
90	0x00000000	0.0
91	0x00000000	0.0
92	0x00000000	0.0
93	0x00000000	0.0
94	0x00000000	0.0
95	0x00000000	0.0
96	0x00000000	0.0
97	0x00000000	0.0
98	0x00000000	0.0
99	0x00000000	0.0
100	0x00000000	0.0
101	0x00000000	0.0
102	0x00000000	0.0
103	0x00000000	0.0
104	0x00000000	0.0
105	0x00000000	0.0
106	0x00000000	0.0
107	0x00000000	0.0
108	0x00000000	0.0
109	0x00000000	0.0
110	0x00000000	0.0
111	0x00000000	0.0
112	0x00000000	0.0
113	0x00000000	0.0
114	0x00000000	0.0
115	0x00000000	0.0
116	0x00000000	0.0
117	0x00000000	0.0
118	0x00000000	0.0
119	0x00000000	0.0
120	0x00000000	0.0
121	0x00000000	0.0
122	0x00000000	0.0
123	0x00000000	0.0
124	0x00000000	0.0
125	0x00000000	0.0
126	0x00000000	0.0
127	0x00000000	0.0
128	0x00000000	0.0
129	0x00000000	0.0
130	0x00000000	0.0
131	0x00000000	0.0
132	0x00000000	0.0
133	0x00000000	0.0
134	0x00000000	0.0
135	0x00000000	0.0
136	0x00000000	0.0
137	0x00000000	0.0
138	0x00000000	0.0
139	0x00000000	0.0
140	0x00000000	0.0
141	0x00000000	0.0
142	0x00000000	0.0
143	0x00000000	0.0
144	0x00000000	0.0
145	0x00000000	0.0
146	0x00000000	0.0
147	0x00000000	0.0
148	0x00000000	0.0
149	0x00000000	0.0
150	0x00000000	0.0
151	0x00000000	0.0
152	0x00000000	0.0
153	0x00000000	0.0
154	0x00000000	0.0
155	0x00000000	0.0
156	0x00000000	0.0
157	0x00000000	0.0
158	0x00000000	0.0
159	0x00000000	0.0
160	0x00000000	0.0
161	0x00000000	0.0
162	0x00000000	0.0
163	0x00000000	0.0
164	0x00000000	0.0
165	0x00000000	0.0
166	0x00000000	0.0
167	0x00000000	0.0
168	0x00000000	0.0
169	0x00000000	0.0
170	0x00000000	0.0
171	0x00000000	0.0
172	0x00000000	0.0
173	0x00000000	0.0
174	0x00000000	0.0
175	0x00000000	0.0
176	0x00000000	0.0
177	0x00000000	0.0
178	0x00000000	0.0
179	0x00000000	0.0
180	0x00000000	0.0
181	0x00000000	0.0
182	0x00000000	0.0
183	0x00000000	0.0
184	0x00000000	0.0
185	0x00000000	0.0
186	0x00000000	0.0
187	0x00000000	0.0
188	0x00000000	0.0
189	0x00000000	0.0
190	0x00000000	0.0
191	0x00000000	0.0
192	0x00000000	0.0
193	0x00000000	0.0
194	0x00000000	0.0
195	0x00000000	0.0
196	0x00000000	0.0
197	0x00000000	0.0
198	0x00000000	0.0
199	0x00000000	0.0
200	0x00000000	0.0
201	0x00000000	0.0
202	0x00000000	0.0
203	0x00000000	0.0
204	0x00000000	0.0
205	0x00000000	0.0
206	0x00000000	0.0
207	0x00000000	0.0
208	0x00000000	0.0
209	0x00000000	0.0
210	0x00000000	0.0
211	0x00000000	0.0
212	0x00000000	0.0
213	0x00000000	0.0
214	0x00000000	0.0
215	0x00000000	0.0
216	0x00000000	0.0
217	0x00000000	0.0
218	0x00000000	0.0
219	0x00000000	0.0
220	0x00000000	0.0
221	0x00000000	0.0
222	0x00000000	0.0
223	0x00000000	0.0
224	0x00000000	0.0
225	0x00000000	0.0
226	0x00000000	0.0
227	0x00000000	0.0
228	0x00000000	0.0
229	0x00000000	0.0
230	0x00000000	0.0
231	0x00000000	0.0
232	0x00000000	0.0
233	0x00000000	0.0
234	0x00000000	0.0
235	0x00000000	0.0
236	0x00000000	0.0
237	0x00000000	0.0
238	0x00000000	0.0
239	0x00000000	0.0
240	0x00000000	0.0
241	0x00000000	0.0
242	0x00000000	0.0
243	0x00000000	0.0
244	0x00000000	0.0
245	0x00000000	0.0
246	0x00000000	0.0
247	0x00000000	0.0
248	0x00000000	0.0
249	0x00000000	0.0
250	0x00000000	0.0
251	0x00000000	0.0
252	0x00000000	0.0
253	0x00000000	0.0
254	0x00000000	0.0
255	0x00000000	0.0

critic.4.weight f4 [1, 290]
0	0xbd0ea81f	-0.0348283
1	0xbcfd5b89	-0.030927436
2	0xbdc8de68	-0.098080456
3	0xbcf376cd	-0.029719735
4	0xbc6edee3	-0.0145795075
5	0x3cc40101	0.02392626
6	0xbc18b9aa	-0.0093216095
7	0x3cecfbe5	0.028928706
8	0xbd0549ac	-0.032540962
9	0x3dd8f10b	0.1059285
10	0x3e01cedb	0.12676565
11	0xbde4e3db	-0.111762725
12	0x3db3d60e	0.08781062
13	0x3d974de4	0.07387903
14	0x3d160722	0.036627896
15	0xbd3d7078	-0.046249837
16	0xbd24884a	-0.040169038
17	0xbda28f22	-0.07937457
18	0x3df483fe	0.11939238
19	0x3d7c835a	0.061648704
20	0xbd1a1ff6	-0.037628137
21	0xbe38aef4	-0.1803549
22	0xbd85faf6	-0.065420076
23	0xbdc1c252	-0.09460892
24	0xbd8105d0	-0.06299937
25	0xbe264d82	-0.16240504
26	0x3d3bac01	0.045818333
27	0x3df0dd6b	0.11760982
28	0xbcb1eb78	-0.021718726
29	0x3ca9f7a7	0.020747973
30	0x3d0e53d2	0.034747906
31	0xbd5ef573	-0.054433297
32	0x3d5c11bb	0.053727847
33	0xbdcb9841	-0.099411495
34	0xbc9b2bb4	-0.018941738
35	0xbd7e0470	-0.06201595
36	0xbd2ad6f2	-0.041708894
37	0xbe16a0b9	-0.14709748
38	0x3d65ef86	0.05613663
39	0x3d83bbba	0.064322904
40	0x3d3465c9	0.044042382
41	0xbdd36980	-0.10322857
42	0x3dd53346	0.1041017
43	0x3ca2df01	0.019881727
44	0x3d09e21c	0.0336629
45	0xbe07a058	-0.1324476
46	0x3db53461	0.08847881
47	0xbce52154	-0.027969994
48	0x3d6653d5	0.056232292
49	0xbe1fe74e	-0.1561558
50	0xbd53797f	-0.05162954
51	0xbca38d49	-0.019964831
52	0xbcbef76f	-0.023311345
53	0x3d871b6a	0.06597026
54	0xbe0f1f6e	-0.13976833
55	0x3dcad00b	0.09902962
56	0xbdb1874c	-0.08668384
57	0xbd57b0b1	-0.05265874
58	0xbe463479	-0.19355954
59	0x3d679fee	0.056549005
60	0xbd81a415	-0.06330124
61	0x3d431a03	0.04763223
62	0x3d70390f	0.058648165
63	0x3d456f08	0.04820159
64	0x3e2e1024	0.16998345
65	0xbaeb479f	-0.0017950422
66	0xbe3391f9	-0.17536153
67	0x3d98af10	0.074552655
68	0x3c8b6cc1	0.017019631
69	0xbc0ff7ee	-0.008787138
70	0x3c79a463	0.015236947
71	0xbe0ab266	-0.13544616
72	0x3c532e64	0.012889478
73	0xbcd62d45	-0.026144633
74	0xbc4e3b03	-0.012587312
75	0x3d8c3f61	0.06848026
76	0x3c924f04	0.017859943
77	0xbcc8e203	-0.024521833
78	0xbd871148	-0.06595093
79	0xbca8008a	-0.02050807
80	0xbd802e96	-0.062588856
81	0xbe26e243	-0.1629725
82	0x3c3dce9d	0.011584905
83	0xbd9c2428	-0.07624084
84	0x3e47154e	0.19441721
85	0xbd21a4ae	-0.03946369
86	0xbe17515c	-0.1477713
87	0x3d8a6b0c	0.06758699
88	0xbd9ead16	-0.07747857
89	0x3cee987c	0.029125445
90	0x3c557e4a	0.013030598
91	0x3d9a7b0a	0.07542999
92	0x3e040a62	0.12894586
93	0x3cdc2d6b	0.026877126
94	0x3d73da97	0.059534635
95	0x3b4d60c2	0.003133819
96	0x3d80c12d	0.06286845
97	0xbdbabbfb	-0.09117886
98	0x3c6b2cea	0.01435397
99	0x3c971d64	0.018446632
100	0xbe11475d	-0.14187379
101	0xbd120c3d	-0.035656203
102	0x3e435f3a	0.19079295
103	0x3d21913c	0.039445147
104	0xbdc00deb	-0.09377655
105	0xbd0c37eb	-0.034233015
106	0x3c6f48d0	0.014604762
107	0x3c8d03b8	0.017213687
108	0x3c95558d	0.01822927
109	0x3cc771d9	0.024346279
110	0xbd6a448e	-0.057194285
111	0xbdda458e	-0.10657798
112	0xbd85313f	-0.065035336
113	0xbdebe4f2	-0.11518277
114	0xbd552b52	-0.052043267
115	0x3cf42425	0.029802391
116	0x3b7b1bf3	0.003831622
117	0xbcef38c7	-0.029201878
118	0x3cd11bf3	0.025526023
119	0xbcb996e4	-0.022654958
120	0xbc1dce0f	-0.009631648
121	0xbc29bd98	-0.010360144
122	0xbcbdfc35	-0.02319155
123	0x39f4c74d	0.00046687797
124	0xbc9bd412	-0.019022021
125	0xbd0cced6	-0.03437694
126	0xbcecd5f1	-0.028910609
127	0xbcc90aae	-0.024541225
128	0xbd8eac92	-0.06966509
129	0x3e6dfeb0	0.23241687
130	0x3d1364d5	0.035984833
131	0x3d059cc0	0.03262019
132	0x3e21bd11	0.1579478
133	0x3d540e09	0.051771197
134	0xbdfd7865	-0.12376479
135	0xbdf74125	-0.12072972
136	0x3ce42fda	0.027854849
137	0xbd10a915	-0.0353175
138	0xbc915923	-0.017742699
139	0x3e42415f	0.1897025
140	0xbd4bbde3	-0.049741637
141	0x3da08098	0.07837027
142	0x3d6829b3	0.056680392
143	0x3e17b920	0.14816713
144	0x3dc258a2	0.094895616
145	0xbd865592	-0.0655929
146	0x3e39284a	0.18081775
147	0xbcd9b39f	-0.026574908
148	0xbe466e84	-0.19378096
149	0xbc652eff	-0.0139882555
150	0xbd4e14fa	-0.050312974
151	0xbacf1cee	-0.0015801468
152	0xbe2a625d	-0.16639085
153	0x3c5fafdd	0.013652769
154	0xbb8822e5	-0.0041545504
155	0xbcec9023	-0.028877323
156	0xbcf948cd	-0.030430222
157	0x3c9eb39d	0.019372756
158	0x3cffbcbc	0.031217925
159	0xbda596ad	-0.0808538
160	0xbd93fa25	-0.07225446
161	0x3e25139e	0.16120765
162	0x3df7ca68	0.12099153
163	0xbd521147	-0.05128601
164	0x3c081b26	0.008307254
165	0x3cffab27	0.031209541
166	0x3c87ab15	0.01656107
167	0x3db555ad	0.08854232
168	0xbda9d9d5	-0.08293501
169	0xbe13fc58	-0.1445173
170	0xbd3cd807	-0.046104457
171	0x3d437ea7	0.047728207
172	0x3d844a6a	0.06459506
173	0x3c33204c	0.010932993
174	0x3db56473	0.0885705
175	0xbd7a4263	-0.061098468
176	0x3d395587	0.04524758
177	0x3d70793b	0.058709364
178	0x3d04dd6f	0.032437738
179	0x3d3fb87e	0.046806805
180	0x3d1767ee	0.03696435
181	0xbdb1d76b	-0.08683666
182	0xbc77470b	-0.015092622
183	0xbc819e65	-0.015822599
184	0xbb9990fb	-0.0046864725
185	0x3c9d59c5	0.019207845
186	0xbdd07396	-0.10178296
187	0xbdba91bf	-0.0910983
188	0x3e081cc3	0.13292222
189	0xbc39786b	-0.011320214
190	0xbda0aaf1	-0.078451045
191	0xbc1a6435	-0.009423305
192	0xbc0bc168	-0.008529998
193	0x3dd257ec	0.10270676
194	0x3c504ea6	0.012714064
195	0xbe1324fa	-0.14369574
196	0xbcf4fb7b	-0.029905071
197	0xbc942f76	-0.018089037
198	0x3e0124c0	0.12611675
199	0x3d0da875	0.03458448
200	0xbd68f2cb	-0.05687217
201	0x3d1d2c4e	0.03837233
202	0xbdb612c1	-0.08890296
203	0x3d60fcc9	0.054928575
204	0xbbcd2ccb	-0.0062614433
205	0xbb7b389f	-0.003833331
206	0xbd73bf5c	-0.059508666
207	0x3e24475c	0.16042846
208	0x3e3748c1	0.17898847
209	0x3d0a56fc	0.03377436
210	0xbd590e75	-0.052992303
211	0xbdcfe6b2	-0.101514235
212	0xbdd82c4c	-0.10555324
213	0x3da94635	0.08265344
214	0x3d4db253	0.05021889
215	0xbcd185dc	-0.025576524
216	0xbda486e4	-0.08033541
217	0xbdc8bfa8	-0.098021805
218	0x3dc6bb1e	0.097036585
219	0xbd39fe43	-0.0454085
220	0xbdb5babb	-0.08873507
221	0xbd079b13	-0.033106875
222	0xbdb7890f	-0.08961689
223	0xbd942ac9	-0.07234723
224	0x3cfc7655	0.030818144
225	0xbc96366e	-0.018336501
226	0xbe24a19f	-0.16077279
227	0xbe2f4c15	-0.17118867
228	0xbd3be8bd	-0.045876253
229	0x3c8a7fe8	0.016906694
230	0x3c7f27db	0.015573467
231	0xbd6533e1	-0.05595768
232	0x3d819117	0.06326502
233	0x3d7c8549	0.061650548
234	0xbd258439	-0.0404093
235	0x3d2f3a9b	0.0427805
236	0x3da22e15	0.07918946
237	0xbb5266c1	-0.0032104703
238	0xbe036533	-0.12831573
239	0x3cc4bf90	0.024017125
240	0xbd90b29b	-0.07065316
241	0x3ccd068d	0.025027538
242	0x3d9b2366	0.07575111
243	0x3dce6de9	0.100795574
244	0x3d22913d	0.03968929
245	0xbd8acdd8	-0.06777543
246	0xbe2aa118	-0.16663015
247	0x3d8b0d87	0.067896895
248	0xbcbd5539	-0.023111926
249	0xbd8d1e0f	-0.06890499
250	0xbd41bcb3	-0.0472991
251	0x3e35614e	0.177129
252	0x3dc097fa	0.09403987
253	0x3dc2fb20	0.095205545
254	0x3c270176	0.010193219
255	0xbda83d40	-0.082148075

actor_mean.0.weight f4 [145, 17]
0	0x3e0b38b3	0.13595848
1	0x3d7f3925	0.062310357
2	0x3cd5ff58	0.026122734
3	0xbdaa33c0	-0.08310652
4	0x3e52eb4b	0.2059757
5	0xbe6a208f	-0.22863983
6	0x3d109e79	0.03530738
7	0xbdbda351	-0.09259666
8	0x3db0ef0c	0.086393446
9	0xbbee0957	-0.007264297
10	0xbe2bcdb5	-0.1677769
11	0xbce4c59b	-0.027926257
12	0xbd6b0ff6	-0.05738827
13	0xbd05b0f3	-0.032639455
14	0xbd701dab	-0.058622044
15	0x3e11abc4	0.1422568
16	0x3da6b198	0.08139342
17	0xbd75532c	-0.059893772
18	0x3dc042c2	0.09387733
19	0x3cdafc72	0.026731703
20	0x3cd520f2	0.026016686
21	0xbddc3088	-0.10751444
22	0x3dce698c	0.10078725
23	0xbd3f31d3	-0.046678375
24	0xbde8545c	-0.11344215
25	0xbd28e281	-0.041231636
26	0x3e64fa2a	0.22361055
27	0x3be81000	0.0070819855
28	0xbd80b6b9	-0.062848516
29	0xbd22abe7	-0.03971472
30	0x3c127eb3	0.00894134
31	0x3d1b2db5	0.037885386
32	0x3c8ddff2	0.0173187
33	0x3b8c9888	0.004290644
34	0xbd80ef14	-0.062956005
35	0xbe11cf22	-0.14239171
36	0xbdeefd88	-0.11669451
37	0xbd8e9dc7	-0.069636874
38	0x3c1a8697	0.009431503
39	0xbe5054a2	-0.20344785
40	0x3d8d87a4	0.06910637
41	0x3bd1f145	0.0064069354
42	0x3d3a25f1	0.04544634
43	0xbca83040	-0.02053082
44	0xbe4c6f2a	-0.1996428
45	0x3dc94647	0.098278575
46	0xbc8aef00	-0.016959667
47	0x3d17bddf	0.03704631
48	0x3c5ff679	0.0136696035
49	0x3e6715dd	0.22566934
50	0x3dee645a	0.11640234
51	0xbc7405e8	-0.014893986
52	0x3d4cd492	0.05000741
53	0x3e8a4cc5	0.27011696
54	0x3d2fa2c2	0.042879827
55	0xbdd325a2	-0.10309912
56	0x3e0df036	0.13861164
57	0xbe03707c	-0.12835878
58	0xbe95e32b	-0.29274878
59	0x3e221cc9	0.15831293
60	0xbdfa4770	-0.12220657
61	0x3cb79081	0.022407772
62	0xbda4d77d	-0.08048914
63	0xbe10fca4	-0.14158875
64	0xbd92423d	-0.0714154
65	0xbdb9bc6e	-0.09069143
66	0xbdf3cb52	-0.11904015
67	0x3d450fed	0.04811089
68	0x3da718b0	0.08159006
69	0xbcc8eaeb	-0.02452608
70	0x3d1cfa2e	0.038324527
71	0x3dc36d90	0.09542382
72	0x3e516805	0.20449837
73	0x3d6391ad	0.05555885
74	0xbd3d2e25	-0.046186585
75	0x3e15c128	0.14624465
76	0x3d4cfcab	0.05004565
77	0xbcaa5578	-0.020792708
78	0x3ddf4dd6	0.10903518
79	0xbd793789	-0.060843978
80	0x3c9642f1	0.018342467
81	0xbc87bfa8	-0.016570881
82	0xbe35522f	-0.17707132
83	0x3c8a4bad	0.016881788
84	0xbe09d97f	-0.13461874
85	0x3d834a52	0.0641066
86	0xbde358aa	-0.11100896
87	0xbc34f8f8	-0.011045687
88	0xbd96b306	-0.07358365
89	0xbb0d6364	-0.0021574134
90	0xbdbd6b2c	-0.09248957
91	0xbbc9c785	-0.006157818
92	0xbdca83ed	-0.09888444
93	0x3e29b7b0	0.16573977
94	0xbe54d283	-0.20783429
95	0xbccd8527	-0.025087906
96	0xbe376036	-0.17907795
97	0x3e156a13	0.14591245
98	0xbd141a90	-0.036158144
99	0x3d9a7e09	0.075435705
100	0x3cec8b83	0.028875118
101	0x3e2c004c	0.16796988
102	0x3d1ae7f5	0.037818868
103	0x3e1105cf	0.14162372
104	0x3d774ae5	0.06037416
105	0x3e7d07e1	0.24710037
106	0xbca71e5f	-0.020400224
107	0x3e30b1fc	0.17255396
108	0xbca75364	-0.020425506
109	0xbd90e921	-0.07075716
110	0xbdbb5d62	-0.09148671
111	0xbd871e33	-0.06597557
112	0x39149f07	0.00014173622
113	0xbd0d55a1	-0.03450549
114	0xbd283c05	-0.041072864
115	0x3d1f6301	0.038912777
116	0xbe1bd09c	-0.15216297
117	0x3d5a82d9	0.053347442
118	0xbdc8c366	-0.09802894
119	0x3df9adeb	0.12191375
120	0x3d8ebefb	0.069700204
121	0x3cb28573	0.02179215
122	0xbd92ec46	-0.07173972
123	0xbe2e5c25	-0.17027338
124	0x3e759884	0.23983961
125	0xbdf620b7	-0.120179586
126	0x3d96ab48	0.07356888
127	0x3e268fb3	0.16265754
128	0x3d62f04e	0.055404954
129	0xbd7c145f	-0.061542865
130	0x3ddb51e1	0.107089765
131	0xbe08e2a7	-0.13367711
132	0x3e0347d5	0.1282037
133	0xbdec1a85	-0.11528496
134	0x3e52c58a	0.20583168
135	0x3d96e77c	0.07368371
136	0x3e22388f	0.15841888
137	0xbe5e87b1	-0.2173145
138	0x3d48b1c9	0.048997674
139	0xbde83e09	-0.11339957
140	0x3d3b89d2	0.045785733
141	0x3d995175	0.0748624
142	0x3bd76a0d	0.0065739215
143	0x3de339b4	0.110949904
144	0xbd1e4406	-0.03863909
145	0x3e04f9cd	0.12985916
146	0x3e56f74f	0.20992778
147	0xbe0a3610	-0.13497186
148	0x3d795074	0.06086774
149	0x3de4fd77	0.11181157
150	0x3ce6f49c	0.02819281
151	0xbd3b35bb	-0.04570554
152	0x3d5a7b65	0.053340334
153	0x3bc581be	0.0060274294
154	0x3d104f5f	0.035231944
155	0x3e0c1ed0	0.13683629
156	0xbd18b374	-0.037280515
157	0x3d0311d0	0.03199941
158	0xbc7dd7c2	-0.015493335
159	0x3d0d2b22	0.034464963
160	0xbcc2362b	-0.02370747
161	0x3dced329	0.10098869
162	0x3d79c3ac	0.060977623
163	0x3d5b8328	0.053591877
164	0xbe9062b6	-0.2820031
165	0xbde3d7d4	-0.1112515
166	0x3e4f1450	0.20222592
167	0xbd60bb3f	-0.05486607
168	0xbd924b4b	-0.07143267
169	0x3dc97c5e	0.09838174
170	0xbe34f681	-0.17672159
171	0xbe1d3c80	-0.1535511
172	0x3c3e1538	0.011601739
173	0x3d4b7a0b	0.049676936
174	0x3dec3747	0.11533981
175	0x3db251a9	0.08706982
176	0xbe60ee8b	-0.21965997
177	0x3d81126c	0.06302342
178	0xbdbea043	-0.09307911
179	0xbe354735	-0.17702945
180	0x3b4f56f8	0.003163753
181	0x3e0c9419	0.1372837
182	0xbdb0aca0	-0.086266756
183	0xbdf31b2c	-0.11870417
184	0xbd583ebe	-0.05279421
185	0x3d34ed24	0.044171467
186	0x3e29f91c	0.16598934
187	0x3d381bd6	0.04494842
188	0x3ccb7663	0.024836725
189	0xbc5dbee1	-0.013534279
190	0xbdc2cd57	-0.09511822
191	0x3d80629e	0.0626881
192	0x3cab704e	0.020927574
193	0xbcace9d9	-0.021107601
194	0xbdaaa923	-0.083330415
195	0x3e02ffe9	0.12792934
196	0xbc467f1a	-0.012115264
197	0x3d9f52e6	0.077794835
198	0xbc38b283	-0.011273029
199	0xbda2e06f	-0.079529636
200	0xbe0641f2	-0.13111094
201	0x3cd86402	0.026414875
202	0xbd199211	-0.037492815
203	0x3dfd8848	0.12379509
204	0xbd412b6a	-0.047160544
205	0x3e85e134	0.2614838
206	0xbd205e13	-0.039152216
207	0xbce1c329	-0.02755888
208	0x3d49e239	0.04928801
209	0x3b53ba08	0.0032306928
210	0x3e08e104	0.13367087
211	0xbe80ba02	-0.25141913
212	0xbdb67e0f	-0.089107625
213	0xbdc0f3f1	-0.09421528
214	0xbd38337a	-0.044970967
215	0xbd748453	-0.059696507
216	0x3e0cdc65	0.13755949
217	0x3cde25d9	0.027117657
218	0x3d94a441	0.072578914
219	0xbda88355	-0.082281746
220	0x3da71536	0.081583425
221	0x3dcac492	0.09900774
222	0xbd0734ff	-0.033009525
223	0x3e2abcb0	0.16673541
224	0xbe2362d9	-0.15955676
225	0x3dbee8b5	0.09321729
226	0x3d8e5b22	0.06950976
227	0x3d9736e3	0.07383516
228	0x3d62e3a9	0.055392895
229	0x3c27ccef	0.010241731
230	0x3e8fb6d5	0.28069177
231	0xbe881df1	-0.26585343
232	0xbdb46796	-0.0880882
233	0xbd0c6647	-0.034277227
234	0x3cab13a5	0.02088339
235	0x3dcb39f6	0.099231645
236	0x3c2ef5ab	0.010678689
237	0x3d923746	0.07139449
238	0x3b9e6179	0.004833397
239	0xbe229373	-0.1587656
240	0x3e5c8fcf	0.21539234
241	0xbe091c63	-0.13389735
242	0xbe32dd37	-0.174672
243	0xbc6e9294	-0.014561314
244	0xbd9d080a	-0.07667549
245	0x3e0ef6c3	0.1396132
246	0xbe24daa0	-0.16099024
247	0xbe19fe68	-0.15038455
248	0x3d3e897b	0.04651783
249	0x3d9ffb55	0.0781161
250	0x3debe2a7	0.1151784
251	0x3e46b470	0.19404769
252	0xbd4bbb47	-0.04973915
253	0x3d9284bb	0.071542226
254	0x3da2d603	0.07950976
255	0xbda486a1	-0.08033491

actor_mean.0.bias f4 [145]
0	0x00000000	0.0
1	0x00000000	0.0
2	0x00000000	0.0
3	0x00000000	0.0
4	0x00000000	0.0
5	0x00000000	0.0
6	0x00000000	0.0
7	0x00000000	0.0
8	0x00000000	0.0
9	0x00000000	0.0
10	0x00000000	0.0
11	0x00000000	0.0
12	0x00000000	0.0
13	0x00000000	0.0
14	0x00000000	0.0
15	0x00000000	0.0
16	0x00000000	0.0
17	0x00000000	0.0
18	0x00000000	0.0
19	0x00000000	0.0
20	0x00000000	0.0
21	0x00000000	0.0
22	0x00000000	0.0
23	0x00000000	0.0
24	0x00000000	0.0
25	0x00000000	0.0
26	0x00000000	0.0
27	0x00000000	0.0
28	0x00000000	0.0
29	0x00000000	0.0
30	0x00000000	0.0
31	0x00000000	0.0
32	0x00000000	0.0
33	0x00000000	0.0
34	0x00000000	0.0
35	0x00000000	0.0
36	0x00000000	0.0
37	0x00000000	0.0
38	0x00000000	0.0
39	0x00000000	0.0
40	0x00000000	0.0
41	0x00000000	0.0
42	0x00000000	0.0
43	0x00000000	0.0
44	0x00000000	0.0
45	0x00000000	0.0
46	0x00000000	0.0
47	0x00000000	0.0
48	0x00000000	0.0
49	0x00000000	0.0
50	0x00000000	0.0
51	0x00000000	0.0
52	0x00000000	0.0
53	0x00000000	0.0
54	0x00000000	0.0
55	0x00000000	0.0
56	0x00000000	0.0
57	0x00000000	0.0
58	0x00000000	0.0
59	0x00000000	0.0
60	0x00000000	0.0
61	0x00000000	0.0
62	0x00000000	0.0
63	0x00000000	0.0
64	0x00000000	0.0
65	0x00000000	0.0
66	0x00000000	0.0
67	0x00000000	0.0
68	0x00000000	0.0
69	0x00000000	0.0
70	0x00000000	0.0
71	0x00000000	0.0
72	0x00000000	0.0
73	0x00000000	0.0
74	0x00000000	0.0
75	0x00000000	0.0
76	0x00000000	0.0
77	0x00000000	0.0
78	0x00000000	0.0
79	0x00000000	0.0
80	0x00000000	0.0
81	0x00000000	0.0
82	0x00000000	0.0
83	0x00000000	0.0
84	0x00000000	0.0
85	0x00000000	0.0
86	0x00000000	0.0
87	0x00000000	0.0
88	0x00000000	0.0
89	0x00000000	0.0
90	0x00000000	0.0
91	0x00000000	0.0
92	0x00000000	0.0
93	0x00000000	0.0
94	0x00000000	0.0
95	0x00000000	0.0
96	0x00000000	0.0
97	0x00000000	0.0
98	0x00000000	0.0
99	0x00000000	0.0
100	0x00000000	0.0
101	0x00000000	0.0
102	0x00000000	0.0
103	0x00000000	0.0
104	0x00000000	0.0
105	0x00000000	0.0
106	0x00000000	0.0
107	0x00000000	0.0
108	0x00000000	0.0
109	0x00000000	0.0
110	0x00000000	0.0
111	0x00000000	0.0
112	0x00000000	0.0
113	0x00000000	0.0
114	0x00000000	0.0
115	0x00000000	0.0
116	0x00000000	0.0
117	0x00000000	0.0
118	0x00000000	0.0
119	0x00000000	0.0
120	0x00000000	0.0
121	0x00000000	0.0
122	0x00000000	0.0
123	0x00000000	0.0
124	0x00000000	0.0
125	0x00000000	0.0
126	0x00000000	0.0
127	0x00000000	0.0
128	0x00000000	0.0
129	0x00000000	0.0
130	0x00000000	0.0
131	0x00000000	0.0
132	0x00000000	0.0
133	0x00000000	0.0
134	0x00000000	0.0
135	0x00000000	0.0
136	0x00000000	0.0
137	0x00000000	0.0
138	0x00000000	0.0
139	0x00000000	0.0
140	0x00000000	0.0
141	0x00000000	0.0
142	0x00000000	0.0
143	0x00000000	0.0
144	0x00000000	0.0

actor_mean.2.weight f4 [290, 145]
0	0x3d46b214	0.048509672
1	0xbd0a5467	-0.0337719
2	0x3acb943e	0.001553185
3	0x3e4804f4	0.1953314
4	0x3dc4260d	0.0957757
5	0xbcf7b56a	-0.030237872
6	0x3b28e58c	0.0025771586
7	0xbd4cd65f	-0.050009128
8	0x3cbc32d0	0.022973448
9	0xbbdf6a3e	-0.006818085
10	0xbdf315c1	-0.118693836
11	0xbc1db6f5	-0.00962614
12	0x3e03c878	0.12869442
13	0xbd97a07d	-0.074036576
14	0xbd94229f	-0.07233166
15	0xbdee061c	-0.11622259
16	0x3cb2cbdc	0.021825723
17	0xbd3b0fd3	-0.045669388
18	0x3d9011f1	0.07034672
19	0x3db45af6	0.08806412
20	0xbceca598	-0.028887555
21	0xbe37e936	-0.17960057
22	0xbe39549f	-0.18098687
23	0x3e23d579	0.15999402
24	0x3c117adf	0.008879392
25	0x3dc5e1ad	0.09662185
26	0x3d60732d	0.05479734
27	0xbd5c4b74	-0.053782895
28	0xbe000ec2	-0.1250563
29	0x3cd58bbd	0.026067609
30	0x3ca60928	0.020268038
31	0x3d85bba0	0.06529927
32	0xbd918c27	-0.0710681
33	0x3db58efc	0.08865163
34	0xbd1630e9	-0.036667738
35	0x3d3c9546	0.046040796
36	0x3cf433aa	0.029809792
37	0x3d2c3eea	0.042052187
38	0xbe067ae0	-0.1313281
39	0x3d4e03f5	0.050296742
40	0x3d0fb0a9	0.035080586
41	0x3ca23562	0.019800846
42	0xbd05696c	-0.03257124
43	0x3c851c1c	0.016248755
44	0x3b055351	0.002034385
45	0xbd375cc6	-0.04476621
46	0xbdcad3a4	-0.099036485
47	0x3e14951f	0.1451001
48	0xba3f3358	-0.00072937226
49	0x3dde0063	0.108399175
50	0xbdae5572	-0.08512391
51	0xbd4224ec	-0.047398493
52	0x3d4f98e8	0.050682932
53	0xbe123116	-0.14276537
54	0xbd927d27	-0.07152777
55	0xbdb6545f	-0.08902811
56	0x3d823334	0.063574225
57	0xbc95a48c	-0.018266939
58	0x3c135691	0.008992807
59	0xbc190469	-0.00933943
60	0xbe1c3838	-0.15255821
61	0x3cdf2e9c	0.027243905
62	0x3dd81557	0.10550945
63	0x3e0f9337	0.14021002
64	0xbcf0a03c	-0.02937328
65	0xbd3b96f1	-0.045798246
66	0xbdada79f	-0.08479237
67	0xbd3948cf	-0.04523545
68	0x3e0d5d90	0.13805223
69	0xbd88775a	-0.066633895
70	0xbd365880	-0.044517994
71	0x3e41e977	0.18936716
72	0x3da44687	0.080212645
73	0x3cf1876d	0.029483521
74	0xbb584e76	-0.003300575
75	0x3da4c7d4	0.08045927
76	0xbe08ad54	-0.1334737
77	0xbcac53af	-0.021035997
78	0xbd071705	-0.032980938
79	0x3d937aaf	0.072011344
80	0xbd26e107	-0.040741947
81	0xbcf0f128	-0.029411867
82	0xbd39bf02	-0.045348175
83	0xbcd3d8ae	-0.025860157
84	0xbd36c0b3	-0.044617366
85	0x3c9c34ad	0.019068087
86	0xbd3dcd4b	-0.04633836
87	0x3d1c9293	0.03822572
88	0x3d894ecb	0.06704482
89	0x3ba6f392	0.005094954
90	0x3d182d82	0.037152775
91	0xbd6c14d7	-0.057637062
92	0x3d3fbd19	0.046811197
93	0xbd62900f	-0.055313166
94	0x3dcb1d46	0.09917693
95	0xbd7eef50	-0.062239945
96	0x3d92289c	0.07136652
97	0x3cc25527	0.023722244
98	0x3d871bab	0.06597074
99	0xbd7982f3	-0.0609159
100	0x3cf519cc	0.029919527
101	0x3dff03dd	0.12451909
102	0x3dbd0cbe	0.09230946
103	0xbc8a3e9e	-0.016875561
104	0xbd44080d	-0.04785924
105	0x3d2b6795	0.04184683
106	0xbdc4f69b	-0.09617349
107	0x3d5e3600	0.054250717
108	0x3e2f07ff	0.17092894
109	0x3e5429f0	0.20719123
110	0x3cf2fc96	0.029661458
111	0x3e046aed	0.12931414
112	0x3dab766e	0.08372198
113	0xbe40b65c	-0.18819565
114	0x3df6ff3d	0.120604016
115	0x3d0b5836	0.03401967
116	0xbcc88bca	-0.02448072
117	0x3e109ded	0.14122744
118	0xbcd15d75	-0.02555726
119	0xbc0da12a	-0.008644382
120	0xbde67f19	-0.11254711
121	0xbd9c1a85	-0.07622246
122	0x3d2bd3d1	0.04195005
123	0xbd73d749	-0.059531484
124	0xbdc2b9e8	-0.09508115
125	0x3daf2cbf	0.085534565
126	0xbd2db8d1	-0.042412583
127	0x3d51369c	0.05107747
128	0x3d4a1276	0.049334012
129	0xbd8b48af	-0.06800973
130	0x3de7cdb1	0.113185294
131	0xbc9f183a	-0.019420732
132	0x3c104b9b	0.008807088
133	0x3e1bd142	0.15216544
134	0xbd73296c	-0.059365675
135	0xbdc097c4	-0.09403947
136	0xbc9ec39a	-0.01938038
137	0x3c1583e3	0.0091256825
138	0xbdd8ff0f	-0.105955236
139	0xbdd78125	-0.10522679
140	0xbda8fadf	-0.08250975
141	0x3daaf8c8	0.083482325
142	0xbdca9c01	-0.09893037
143	0x3d82a26d	0.063786365
144	0xbc98443f	-0.01858723
145	0xbdd1942b	-0.10233339
146	0x3cc95bbb	0.024579873
147	0xbe532f70	-0.20623565
148	0xbdbc75fc	-0.09202191
149	0x3d75fdf1	0.06005663
150	0xbd1f3b93	-0.038875174
151	0xbe062d4f	-0.13103221
152	0xbd4e6f9a	-0.0503994
153	0xbc90526e	-0.01761743
154	0x3daf4ba9	0.08559353
155	0xbc8e1d28	-0.017347887
156	0xbd9f7cc4	-0.07787469
157	0x3b52fff9	0.0032196029
158	0x3d0ecfcc	0.03486614
159	0xbe042959	-0.12906398
160	0xbd035b80	-0.032069683
161	0xbd0ca826	-0.034340046
162	0xbca8a1d4	-0.020584978
163	0x3ccf322e	0.025292482
164	0x3d727283	0.059191238
165	0x3d91642c	0.070991844
166	0x3d2cb115	0.042161066
167	0xbdaab2c9	-0.08334882
168	0xbd6dbf44	-0.058043733
169	0xbcaa802b	-0.020813068
170	0x3ca23c1b	0.019804051
171	0xbcf253eb	-0.02958103
172	0x3d4391f3	0.04774661
173	0xbdb16f7b	-0.08663841
174	0x3dad1767	0.08451729
175	0x3e0625ca	0.13100353
176	0x3e70eaf2	0.23527125
177	0xbbd192a2	-0.006395654
178	0x3d65ff61	0.05615175
179	0xbd9c8ec6	-0.07644419
180	0xbe08fa51	-0.13376738
181	0x3ccd21fa	0.025040615
182	0xbc6766a2	-0.014123591
183	0xbccf116b	-0.02527686
184	0x3dbbf408	0.09177405
185	0x3dc14e81	0.094388016
186	0x3e031ae1	0.12803222
187	0xbd59fa46	-0.053217195
188	0xbddab533	-0.10679092
189	0x3d2b890d	0.04187875
190	0xbb84cc9a	-0.0040527107
191	0xbe422dc0	-0.18962765
192	0x3d930aa8	0.07179767
193	0x3c017be0	0.007903069
194	0x3e0cc295	0.13746102
195	0xbd49029a	-0.049074747
196	0x3e4272d7	0.1898912
197	0xbdcc6347	-0.09979873
198	0xbc686972	-0.014185296
199	0xbe253912	-0.16135052
200	0xbd86b017	-0.06576555
201	0x3e03dae5	0.1287647
202	0x3d30358f	0.043019827
203	0x3cf00845	0.029300818
204	0xbcd76cee	-0.026297059
205	0x3c96abbf	0.018392442
206	0xbc4ac7a6	-0.012376701
207	0x3d5e356a	0.05425016
208	0x3d16e34a	0.036837853
209	0xbe0b7445	-0.13618572
210	0xbd25e4a3	-0.040501248
211	0x3d94c63d	0.072643735
212	0xbdc12e07	-0.09432607
213	0x3e19b7cc	0.15011519
214	0x3da4f73a	0.08054967
215	0xbe0c7c94	-0.13719398
216	0xbd57f927	-0.052727845
217	0x3cdaa049	0.026687758
218	0xbd16e5db	-0.0368403
219	0xbc8252da	-0.015908647
220	0xbd118df7	-0.03553578
221	0x3caad718	0.020854518
222	0x3cc4adf4	0.024008729
223	0xbe1a8ca2	-0.1509271
224	0x3d2c1e37	0.042021003
225	0x3d39730e	0.04527574
226	0x3c63b5ba	0.013898307
227	0xbda491c2	-0.080356136
228	0x3d2cb7f0	0.042167604
229	0xbdd42e4c	-0.10360393
230	0xbe10f23e	-0.14154908
231	0xbdec9e9f	-0.11553692
232	0x3d1075a5	0.035268445
233	0xbd8695ef	-0.06571566
234	0xbd8f766f	-0.07005011
235	0x3e1d3e11	0.15355708
236	0x3c9ebafd	0.019376272
237	0xbd728cea	-0.059216417
238	0x3d914386	0.07092957
239	0xbda287c0	-0.079360485
240	0x3d81deb4	0.063413054
241	0xbce24b24	-0.02762372
242	0x3e12f18b	0.14349954
243	0xbe0a30e3	-0.13495211
244	0x3db3d551	0.08780921
245	0xbc0b1e6e	-0.008491142
246	0x3caf8160	0.021423995
247	0xbd254cc1	-0.0403564
248	0xbd3060db	-0.04306112
249	0x3a8131bf	0.0009856744
250	0xbdd149ed	-0.10219178
251	0x3dc5e001	0.09661866
252	0x3cc5b74f	0.02413526
253	0x3cbb3bcc	0.022855662
254	0xbb9e091d	-0.0048228637
255	0xbe295357	-0.16535698

actor_mean.2.bias f4 [290]
0	0x00000000	0.0
1	0x00000000	0.0
2	0x00000000	0.0
3	0x00000000	0.0
4	0x00000000	0.0
5	0x00000000	0.0
6	0x00000000	0.0
7	0x00000000	0.0
8	0x00000000	0.0
9	0x00000000	0.0
10	0x00000000	0.0
11	0x00000000	0.0
12	0x00000000	0.0
13	0x00000000	0.0
14	0x00000000	0.0
15	0x00000000	0.0
16	0x00000000	0.0
17	0x00000000	0.0
18	0x00000000	0.0
19	0x00000000	0.0
20	0x00000000	0.0
21	0x00000000	0.0
22	0x00000000	0.0
23	0x00000000	0.0
24	0x00000000	0.0
25	0x00000000	0.0
26	0x00000000	0.0
27	0x00000000	0.0
28	0x00000000	0.0
29	0x00000000	0.0
30	0x00000000	0.0
31	0x00000000	0.0
32	0x00000000	0.0
33	0x00000000	0.0
34	0x00000000	0.0
35	0x00000000	0.0
36	0x00000000	0.0
37	0x00000000	0.0
38	0x00000000	0.0
39	0x00000000	0.0
40	0x00000000	0.0
41	0x00000000	0.0
42	0x00000000	0.0
43	0x00000000	0.0
44	0x00000000	0.0
45	0x00000000	0.0
46	0x00000000	0.0
47	0x00000000	0.0
48	0x00000000	0.0
49	0x00000000	0.0
50	0x00000000	0.0
51	0x00000000	0.0
52	0x00000000	0.0
53	0x00000000	0.0
54	0x00000000	0.0
55	0x00000000	0.0
56	0x00000000	0.0
57	0x00000000	0.0
58	0x00000000	0.0
59	0x00000000	0.0
60	0x00000000	0.0
61	0x00000000	0.0
62	0x00000000	0.0
63	0x00000000	0.0
64	0x00000000	0.0
65	0x00000000	0.0
66	0x00000000	0.0
67	0x00000000	0.0
68	0x00000000	0.0
69	0x00000000	0.0
70	0x00000000	0.0
71	0x00000000	0.0
72	0x00000000	0.0
73	0x00000000	0.0
74	0x00000000	0.0
75	0x00000000	0.0
76	0x00000000	0.0
77	0x00000000	0.0
78	0x00000000	0.0
79	0x00000000	0.0
80	0x00000000	0.0
81	0x00000000	0.0
82	0x00000000	0.0
83	0x00000000	0.0
84	0x00000000	0.0
85	0x00000000	0.0
86	0x00000000	0.0
87	0x00000000	0.0
88	0x00000000	0.0
89	0x00000000	0.0
90	0x00000000	0.0
91	0x00000000	0.0
92	0x00000000	0.0
93	0x00000000	0.0
94	0x00000000	0.0
95	0x00000000	0.0
96	0x00000000	0.0
97	0x00000000	0.0
98	0x00000000	0.0
99	0x00000000	0.0
100	0x00000000	0.0
101	0x00000000	0.0
102	0x00000000	0.0
103	0x00000000	0.0
104	0x00000000	0.0
105	0x00000000	0.0
106	0x00000000	0.0
107	0x00000000	0.0
108	0x00000000	0.0
109	0x00000000	0.0
110	0x00000000	0.0
111	0x00000000	0.0
112	0x00000000	0.0
113	0x00000000	0.0
114	0x00000000	0.0
115	0x00000000	0.0
116	0x00000000	0.0
117	0x00000000	0.0
118	0x00000000	0.0
119	0x00000000	0.0
120	0x00000000	0.0
121	0x00000000	0.0
122	0x00000000	0.0
123	0x00000000	0.0
124	0x00000000	0.0
125	0x00000000	0.0
126	0x00000000	0.0
127	0x00000000	0.0
128	0x00000000	0.0
129	0x00000000	0.0
130	0x00000000	0.0
131	0x00000000	0.0
132	0x00000000	0.0
133	0x00000000	0.0
134	0x00000000	0.0
135	0x00000000	0.0
136	0x00000000	0.0
137	0x00000000	0.0
138	0x00000000	0.0
139	0x00000000	0.0
140	0x00000000	0.0
141	0x00000000	0.0
142	0x00000000	0.0
143	0x00000000	0.0
144	0x00000000	0.0
145	0x00000000	0.0
146	0x00000000	0.0
147	0x00000000	0.0
148	0x00000000	0.0
149	0x00000000	0.0
150	0x00000000	0.0
151	0x00000000	0.0
152	0x00000000	0.0
153	0x00000000	0.0
154	0x00000000	0.0
155	0x00000000	0.0
156	0x00000000	0.0
157	0x00000000	0.0
158	0x00000000	0.0
159	0x00000000	0.0
160	0x00000000	0.0
161	0x00000000	0.0
162	0x00000000	0.0
163	0x00000000	0.0
164	0x00000000	0.0
165	0x00000000	0.0
166	0x00000000	0.0
167	0x00000000	0.0
168	0x00000000	0.0
169	0x00000000	0.0
170	0x00000000	0.0
171	0x00000000	0.0
172	0x00000000	0.0
173	0x00000000	0.0
174	0x00000000	0.0
175	0x00000000	0.0
176	0x00000000	0.0
177	0x00000000	0.0
178	0x00000000	0.0
179	0x00000000	0.0
180	0x00000000	0.0
181	0x00000000	0.0
182	0x00000000	0.0
183	0x00000000	0.0
184	0x00000000	0.0
185	0x00000000	0.0
186	0x00000000	0.0
187	0x00000000	0.0
188	0x00000000	0.0
189	0x00000000	0.0
190	0x00000000	0.0
191	0x00000000	0.0
192	0x00000000	0.0
193	0x00000000	0.0
194	0x00000000	0.0
195	0x00000000	0.0
196	0x00000000	0.0
197	0x00000000	0.0
198	0x00000000	0.0
199	0x00000000	0.0
200	0x00000000	0.0
201	0x00000000	0.0
202	0x00000000	0.0
203	0x00000000	0.0
204	0x00000000	0.0
205	0x00000000	0.0
206	0x00000000	0.0
207	0x00000000	0.0
208	0x00000000	0.0
209	0x00000000	0.0
210	0x00000000	0.0
211	0x00000000	0.0
212	0x00000000	0.0
213	0x00000000	0.0
214	0x00000000	0.0
215	0x00000000	0.0
216	0x00000000	0.0
217	0x00000000	0.0
218	0x00000000	0.0
219	0x00000000	0.0
220	0x00000000	0.0
221	0x00000000	0.0
222	0x00000000	0.0
223	0x00000000	0.0
224	0x00000000	0.0
225	0x00000000	0.0
226	0x00000000	0.0
227	0x00000000	0.0
228	0x00000000	0.0
229	0x00000000	0.0
230	0x00000000	0.0
231	0x00000000	0.0
232	0x00000000	0.0
233	0x00000000	0.0
234	0x00000000	0.0
235	0x00000000	0.0
236	0x00000000	0.0
237	0x00000000	0.0
238	0x00000000	0.0
239	0x00000000	0.0
240	0x00000000	0.0
241	0x00000000	0.0
242	0x00000000	0.0
243	0x00000000	0.0
244	0x00000000	0.0
245	0x00000000	0.0
246	0x00000000	0.0
247	0x00000000	0.0
248	0x00000000	0.0
249	0x00000000	0.0
250	0x00000000	0.0
251	0x00000000	0.0
252	0x00000000	0.0
253	0x00000000	0.0
254	0x00000000	0.0
255	0x00000000	0.0
