DATA403_final/checkpoints/Walker2d-v4/PPO_3905.pt (torch, 48717 bytes, 12 tensors)

actor_logstd f4 [1, 6]
0.8800157 0.7527882 0.112339556 0.88914955 0.7956422 0.54737175
00000000: b548 613f bab6 403f 4812 e63d 4e9f 633f
00000010: 35af 4b3f 8e20 0c3f

critic.0.weight f4 [64, 17]
-0.526616 0.032396812 -0.2298404 -0.54927903 -0.25150034 0.28263533 -0.20717806 -0.39903757
0.9392369 0.4365432 0.05490405 -0.09856799 -0.07049572 0.011554883 -0.0038123634 -0.007768084
0.016331121 -0.28320828 0.21228887 0.027940031 -0.38018492 -0.26039827 0.23513035 -0.40013576
-0.45620942 -0.52278316 -0.046610925 0.22974111 0.004532745 0.07824595 -0.0060758516 -0.2142186
0.0782253 0.007034402 -0.20947413 0.9002767 0.95922405 0.38109425 0.04907541 0.55526143
0.044634722 0.23494205 0.17092536 0.22552818 -0.12488859 0.00010803041 0.08153082 0.041503195
-0.014463225 0.08389477 -0.0048909304 -0.4366008 -0.25841317 0.57695436 0.652852 0.37430498
1.3200686 1.1932957 0.41278818 -0.103632 0.62121314 0.48643252 -0.15574728 -0.07979825
-0.006039155 -0.19838174 -0.13514273 -0.01895694 0.2645915 -0.102622 0.25031197 0.6460728
0.28625467 0.2864577 0.2315578 -0.17748843 -0.64666426 0.22854589 -0.095794454 -0.018694809
0.033243153 0.06130422 0.15081571 0.11568164 0.037790515 0.7847634 0.004768976 0.6339742
0.16102067 -0.10767876 -0.23112437 0.08293464 1.02257 0.29035327 0.22744177 -0.20041506
0.05876227 0.010273137 -0.0027823427 0.15869582 0.06841251 0.0017990385 0.6801463 0.08855742
-0.29683 -0.7638407 -0.63447976 -0.86136025 -0.5438008 -0.19647321 -0.3783836 0.2417937
0.28660068 -0.27778327 -0.114381045 0.045360416 -0.035161577 0.003557217 0.024610205 0.35363975
-0.6925737 -0.109942764 0.04050342 0.5992265 -0.18313143 -0.39549166 -0.56057155 -0.67118573
-0.24314249 0.2744727 -0.04070846 -0.090297215 -0.04264494 0.0059687323 -0.04979308 0.031660963
0.107926235 -1.0000991 -0.018781472 -0.11177387 -0.060797658 0.5745133 0.43266985 0.10655101
-0.22000219 0.27351087 -0.06800072 0.016396664 0.024332238 0.019229896 0.09859762 0.07375644
0.013565192 -0.34855816 -0.334635 -0.027106011 0.26246175 -0.28521657 0.77630424 0.44859797
-0.3392628 -0.51060325 0.1432096 0.3090304 -0.087450355 -0.045648873 -0.08523758 -0.16911815
-0.08959864 -0.040132225 0.10014949 0.9856068 -0.6114791 -0.81233007 0.033476535 -0.7491514
-0.30885988 -0.31490272 0.02476864 -0.27182335 0.18477426 -0.17913325 -0.075413235 0.06943865
0.015165049 0.010422993 0.05170729 -0.43032828 1.1049268 -0.8070033 -0.22298628 0.40097302
-0.24165855 -0.045374155 -0.30415145 -0.041326124 -0.21968412 -0.15475987 -0.016823255 -0.0064181685
-0.0023550792 0.15244655 0.046499662 0.021589547 0.1356834 1.4530685 0.067962505 -0.04525385
0.05952588 0.15224557 0.037705474 0.14163232 0.5480112 0.11258518 -0.18976592 -0.025884692
-0.055088677 0.0010435336 0.11384269 0.0132685825 0.016128357 0.7465065 -0.46096873 -0.2793353
0.28966027 0.7817762 -0.57690173 -0.4725933 0.47883043 0.40385604 0.3040963 -0.06001909
-0.21976386 -0.14020476 0.013676025 0.24155413 0.102039926 0.0048772627 0.14386404 -0.5616827
0.34429085 0.5953425 0.53494406 0.32526234 0.08773504 -0.115762725 0.4270794 0.30638683
-0.20010272 0.25853103 0.09214574 0.060971763 -0.111363865 -0.10521711 0.025705675 0.70063686
00000000: 4ed0 06bf 85b2 043d 485b 6bbe 8d9d 0cbf
00000010: a7c4 80be 94b5 903e 7c26 54be a74e ccbe
00000020: d471 703f 9782 df3e 12e3 603d 04de c9bd
00000030: 0f60 90bd b150 3d3c d8d8 79bb 698b febb
00000040: d8c8 853c ad00 91be 4162 593e 7ee2 e43c
00000050: 99a7 c2be ec52 85be 03c6 703e 98de ccbe
00000060: 4894 e9be 1ed5 05bf 19eb 3ebd 4141 6b3e
00000070: 6c87 943b 6a3f a03d f017 c7bb 1f5c 5bbe
00000080: 9634 a03d d780 e63b 6380 56be 8978 663f
00000090: b58f 753f c91e c33e 4c03 493d 9d25 0e3f
000000a0: e6d2 363d a694 703e 0f07 2f3e dcf0 663e
000000b0: 97c5 ffbd 628e e238 a1f9 a63d 41ff 293d
000000c0: 2af7 6cbc 05d1 ab3d 1944 a0bb 248a dfbe
000000d0: bb4e 84be 48b3 133f 4f21 273f e7a4 bf3e
000000e0: 02f8 a83f eabd 983f f958 d33e 043d d4bd
000000f0: d307 1f3f af0d f93e 377c 1fbe 446d a3bd
00000100: 1be4 c5bb 9524 4bbe db62 0abe 964b 9bbc
00000110: 8978 873e 7c2b d2bd e428 803e 0765 253f
00000120: f98f 923e 95aa 923e 7d1d 6d3e 87bf 35be
00000130: ca8b 25bf ef07 6a3e e22f c4bd db25 99bc
00000140: f929 083d 221a 7b3d 6f6f 1a3e 7fea ec3d
00000150: 3aca 1a3d 41e6 483f 1245 9c3b 224c 223f
00000160: 9ae2 243e af86 dcbd deab 6cbe a3d9 a93d
00000170: 93e3 823f 2fa9 943e 7fe6 683e 9b39 4dbe
00000180: b5b0 703d a950 283c f757 36bb 2881 223e
00000190: dc1b 8c3d b7cd eb3a 111e 2e3f 985d b53d
000001a0: 1afa 97be 108b 43bf 446d 22bf 1b82 5cbf
000001b0: 8736 0bbf 4630 49be 7fbb c1be c598 773e
000001c0: 53bd 923e 9c39 8ebe 9c40 eabd d8cb 393d
000001d0: 9605 10bd 3320 693b 579b c93c 4510 b53e
000001e0: 834c 31bf ac29 e1bd eae6 253d e866 193f
000001f0: ce86 3bbe e27d cabe 9e81 0fbf d4d2 2bbf
00000200: 58fa 78be b087 8c3e eabd 26bd bfed b8bd
00000210: 76ac 2ebd 5b95 c33b d4f3 4bbd edae 013d
00000220: 6e08 dd3d 3f03 80bf 9adb 99bc b3e9 e4bd
00000230: f706 79bd 4e13 133f e786 dd3e 6a37 da3d
00000240: 4148 61be 9e09 8c3e f643 8bbd 4c52 863c
00000250: 6754 c73c 0488 9d3c 8ded c93d 9e0d 973d
00000260: 8a40 5e3c 3776 b2be 4755 abbe 6d0d debc
00000270: 6361 863e e807 92be e0bb 463f a2ae e53e
00000280: dbb3 adbe e5b6 02bf 8aa5 123e 3c39 9e3e
00000290: 2c19 b3bd 50fa 3abd 0a91 aebd 4f2d 2dbe
000002a0: 7e7f b7bd b061 24bd 2d1b cd3d ba50 7c3f
000002b0: e589 1cbf ddf4 4fbf b11e 093d 63c8 3fbf
000002c0: e222 9ebe ee3a a1be 9ae7 ca3c 6e2c 8bbe
000002d0: 7735 3d3e b56e 37be 4172 9abd da35 8e3d
000002e0: d376 783c 34c5 2a3c 06cb 533d fd53 dcbe
000002f0: 3e6e 8d3f c597 4ebf 8456 64be 564c cd3e
00000300: 5775 77be 40da 39bd bdb9 9bbe 9545 29bd
00000310: e0f4 60be 5f79 1ebe ecd0 89bc 804f d2bb
00000320: ac57 1abb f31a 1c3e 6e76 3e3d 90dc b03c
00000330: 97f0 0a3e 26fe b93f ed2f 8b3d 1a5c 39bd
00000340: 69d1 733d 43e6 1b3e 0e71 1a3d 1008 113e
00000350: 764a 0c3f 0f93 e63d ff51 42be 220c d4bc
00000360: aaa4 61bd 2dc7 883a 5b26 e93d 7864 593c
00000370: 9e1f 843c 0d1b 3f3f 1804 ecbe 0905 8fbe
00000380: 5a4e 943e 7c22 483f d5af 13bf c0f7 f1be
00000390: 4329 f53e 38c6 ce3e 83b2 9b3e 94d6 75bd
000003a0: c709 61be d691 0fbe 6811 603c f759 773e
000003b0: 4ffa d03d 72d1 9f3b 1851 133e 70ca 0fbf
000003c0: e446 b03e 5e68 183f 18f2 083f c988 a63e
000003d0: 6eae b33d 0215 edbd 27aa da3e bcde 9c3e
000003e0: bae7 4cbe 2e5e 843e e8b6 bc3d 87bd 793d
000003f0: bd12 e4bd 117c d7bd b594 d23c f05c 333f

critic.0.bias f4 [64]
-0.21746734 -0.3048106 -0.4128828 -0.017825257 0.10893766 0.40161812 0.3082383 -0.25116208
0.41757333 0.25440007 -0.43260822 -0.5332097 -0.059521206 0.4885318 0.3378611 0.56148887
-0.049292654 0.20968267 0.09159299 -0.35786897 0.24786758 -0.3898584 -0.59640604 0.2044756
-0.5993333 0.5503662 0.051592693 -0.10086525 -0.45506346 0.014215498 -0.19075678 -0.05099275
-0.51285845 -0.06893665 0.23389132 -0.23877576 -0.74637884 0.0766077 -0.6504855 -0.17161353
-0.45826775 -0.20250835 -0.42460462 -0.50314397 -0.05669425 0.05632482 0.2500155 -0.26427892
0.44341052 -0.43710876 0.1094448 0.14919819 0.8091163 0.521485 -0.12246296 -0.1632097
-0.07729751 -0.2774577 0.54575336 0.3909572 -0.46456978 -0.38426083 -0.005573752 -0.18992066
00000000: c2af 5ebe 2310 9cbe 6065 d3be 4606 92bc
00000010: b51a df3d e4a0 cd3e 69d1 9d3e 5198 80be
00000020: 2ccc d53e ba40 823e d37e ddbe 6e80 08bf
00000030: 82cc 73bd d720 fa3e 21fc ac3e bcbd 0f3f
00000040: 18e7 49bd 0eb7 563e 1b95 bb3d 9a3a b7be
00000050: 00d1 7d3e 859b c7be 11ae 18bf 0d62 513e
00000060: e86d 19bf cde4 0c3f dc52 533d 7192 cebd
00000070: 14fe e8be 1fe8 683c bf55 43be c6dd 50bd
00000080: b14a 03bf a92e 8dbd 3581 6f3e a281 74be
00000090: af12 3fbf 7fe4 9c3d 3886 26bf 75bb 2fbe
000000a0: 12a2 eabe 595e 4fbe c765 d9be 0bce 00bf
000000b0: 3b38 68bd dbb4 663d 0802 803e 914f 87be
000000c0: b406 e33e b8cc dfbe 9824 e03d 69c7 183e
000000d0: 3f22 4f3f 0a80 053f dccd fabd 7220 27be
000000e0: 284e 9ebd f00e 8ebe 7eb6 0b3f 8b2b c83e
000000f0: 17dc edbe d6bd c4be 05a4 b6bb 907a 42be

critic.2.weight f4 [64, 64]
0.091160275 0.2628078 -0.14400674 0.5596753 0.46572217 -0.40224135 0.073693626 -0.046159673
0.0051166094 0.24293576 0.053397965 0.2527433 -1.0090753 -0.3306202 0.33123896 0.13014306
0.0669881 0.106460005 0.19367349 0.12055996 0.089800715 -0.0013874082 0.14548597 0.12044804
0.3431947 -0.12818012 0.313536 -0.022285173 0.02420247 -0.4851681 -0.1171179 -0.8798207
0.23014873 -0.5748904 -0.16870303 -0.5195752 0.24224815 0.60816324 -0.16444041 -0.4341144
0.20225051 0.42056155 -0.14678839 0.36480188 0.6010235 0.21950668 0.49533516 -0.07322759
-0.122123495 0.14990011 -0.5323474 -0.07365768 0.09852513 0.16309483 0.23284197 -0.4420923
0.46758026 0.50304985 -0.061475083 -0.07622089 0.22360146 -0.16961552 0.19364777 0.8074881
-0.43875164 -0.0872425 0.043164995 -0.5153324 0.49802327 -0.15504478 0.13344195 -0.056475136
0.6843119 -0.17470294 -0.27545074 -0.07205155 -0.41407996 -0.10010374 0.008740385 0.51011777
-0.20776962 -0.10172095 0.756337 -0.13213183 0.8162717 0.056586783 -0.0371304 0.70690614
0.14572836 0.21561414 0.5585529 -0.23880756 -0.09744556 -0.13349219 -0.07448791 0.10004038
-0.16631322 0.46688628 -0.23009968 -0.14207016 -0.056563113 0.22469464 0.24541153 -0.037964486
0.02444227 -0.274498 -0.68495566 -0.40325275 -0.21164024 0.09540613 0.30113322 0.043479964
0.21647757 -0.029319512 -0.088068925 0.40954715 0.079554334 0.66553694 0.106809296 -1.5195956
0.18459344 0.34839955 0.21644394 0.006682287 -0.18694797 -0.24918732 0.07274788 0.32095593
-0.22702076 0.13090433 -0.16628788 0.7229778 0.0700007 -0.04483529 -0.18501648 -0.39557305
0.049271375 -0.023320027 0.132564 0.011962064 -0.5665793 -0.10360642 0.25024578 -0.2925982
0.029608084 0.3088935 0.36435184 0.0036283464 0.034704722 0.4341617 0.17232965 0.49420917
0.24732554 0.14667486 -0.009290669 0.030690337 0.3813644 -0.40263608 -0.41949338 -0.3413906
0.3435841 -0.13864133 -0.28959978 -0.17462766 0.14610712 0.20827313 -0.0146197835 -0.043173976
0.17612535 0.08644448 -0.21583398 -0.17154196 0.61354727 0.0924701 0.70796466 -0.1344169
0.0652001 0.026494874 -0.4661168 0.24859744 0.06340168 0.017168028 0.09071405 -0.04407805
0.49628782 0.4379288 0.07022456 -0.004008603 0.043998398 0.031216491 0.3015776 0.35338673
0.1050377 -0.39972574 0.58380497 0.083044305 -0.63662237 0.029808473 -0.61253464 -0.019546567
-0.0067854845 -0.11111092 -0.107436106 -0.23528957 0.73648286 0.13882555 0.530964 0.13959664
-0.29089096 0.3439308 0.5499637 0.16511512 -0.42028892 0.044476572 0.5084524 0.40507466
0.042729642 -0.04173815 -0.45277452 -0.34331113 -0.11113832 -0.05481951 0.38200772 0.48435804
-0.009384371 -0.28172 0.09849743 -0.040986065 -0.13088678 0.08955166 -0.100410186 0.83447284
-0.29451126 0.10193465 0.42449844 0.07764855 -0.0150935985 0.071345635 -0.52793723 0.42751575
-0.009586632 -0.502398 0.031113788 0.749841 0.26059857 0.16290335 -0.51644784 0.36503893
0.09043095 -0.36118063 0.26410794 -0.38032526 0.09580849 -0.053912036 -0.28316978 -0.17065111
00000000: 3db2 ba3d be8e 863e 8176 13be e146 0f3f
00000010: 2373 ee3e 94f2 cdbe afec 963d ed11 3dbd
00000020: 3ba9 a73b 27c4 783e d3b7 5a3d 9267 813e
00000030: 6129 81bf 0d47 a9be 2798 a93e 3944 053e
00000040: 0f31 893d b407 da3d 5852 463e 24e8 f63d
00000050: 70e9 b73d b2d9 b5ba 46fa 143e 76ad f63d
00000060: 37b7 af3e a641 03be ca87 a03e 658f b6bc
00000070: 4244 c63c f467 f8be 82db efbd ee3b 61bf
00000080: 1cac 6b3e 042c 13bf 7dc0 2cbe e102 05bf
00000090: e60f 783e 96b0 1b3f 1163 28be 3e44 debe
000000a0: c21a 4f3e d853 d73e b24f 16be 50c7 ba3e
000000b0: addc 193f 5cc6 603e 929c fd3e 59f8 95bd
000000c0: e21b fabd 6a7f 193e eb47 08bf d6d9 96bd
000000d0: 8bc7 c93d 5502 273e 206e 6e3e ec59 e2be
000000e0: ae66 ef3e e0c7 003f 4ccd 7bbd b319 9cbd
000000f0: c8f7 643e b1af 2dbe 9a4b 463e 8ab7 4e3f
00000100: 0ea4 e0be 32ac b2bd c7cd 303d d3ec 03bf
00000110: e8fc fe3e 0fc4 1ebe 02a5 083e 7952 67bd
00000120: 112f 2f3f 54e5 32be e107 8dbe c38f 93bd
00000130: 4a02 d4be 3103 cdbd d533 0f3c 1497 023f
00000140: 8fc1 54be 1353 d0bd 4d9f 413f 914d 07be
00000150: 2ff7 503f 8bc7 673d 0c16 18bd cdf7 343f
00000160: d139 153e f4c9 5c3e 53fd 0e3f f889 74be
00000170: 8a91 c7bd 2db2 08be 1e8d 98bd f9e1 cc3d
00000180: 034e 2abe b80b ef3e 409f 6bbe d77a 11be
00000190: b9ae 67bd 5a16 663e 294d 7b3e a680 1bbd
000001a0: 283b c83c 008b 8cbe 4159 2fbf 2577 cebe
000001b0: 38b8 58be 4a64 c33d 222e 9a3e 0c18 323d
000001c0: 4cac 5d3e 792f f0bc 7b5d b4bd 2ab0 d13e
000001d0: 62ed a23d a160 2a3f d5be da3d 1c82 c2bf
000001e0: 1006 3d3e 6d61 b23e 7ba3 5d3e 16f7 da3b
000001f0: 4a6f 3fbe f62a 7fbe d7fc 943d 5654 a43e
00000200: 2178 68be c90b 063e 5f47 2abe 1315 393f
00000210: 875c 8f3d 36a5 37bd f674 3dbe 8d88 cabe
00000220: c8d0 493d a409 bfbc dbbe 073e 88fc 433c
00000230: 570b 11bf 9a2f d4bd 3720 803e 6ecf 95be
00000240: a78c f23c 4a27 9e3e 538c ba3e 8dc9 6d3b
00000250: 8a26 0e3d 714a de3e 2f77 303e fc08 fd3e
00000260: e842 7d3e ef31 163e e437 18bc 4d6a fb3c
00000270: 3242 c33e 5126 cebe d6c7 d6be c0ca aebe
00000280: 41ea af3e fef7 0dbe 6c46 94be 98d1 32be
00000290: 1b9d 153e 8d45 553e d187 6fbc 32d7 30bd
000002a0: 345a 343e ce09 b13d 9503 5dbe b2a8 2fbe
000002b0: 6f11 1d3f f760 bd3d 2c3d 353f 95a4 09be
000002c0: a187 853d c70b d93c dca6 eebe 5490 7e3e
000002d0: bdd8 813d f7a3 8c3c 4ac8 b93d 2f8b 34bd
000002e0: 7019 fe3e 3438 e03e e5d1 8f3d 995a 83bb
000002f0: aa37 343d bab9 ff3c 6168 9a3e 1bef b43e
00000300: 011e d73d daa8 ccbe 3e74 153f 2213 aa3d
00000310: aff9 22bf e630 f43c 12cf 1cbf 1f20 a0bc
00000320: c558 debb 1f8e e3bd 7607 dcbd c0ef 70be
00000330: 248a 3c3f 4928 0e3e 42ed 073f 6cf2 0e3e
00000340: a9ef 94be b317 b03e 6cca 0c3f f013 293e
00000350: 1c30 d7be 112d 363d f029 023f f265 cf3e
00000360: 4705 2f3d 9ff5 2abd 10d2 e7be 7ac6 afbe
00000370: 7d9c e3bd 6c8a 60bd 8496 c33e c7fd f73e
00000380: e8c0 19bc 9b3d 90be 05b9 c93d 01e1 27bd
00000390: 2f07 06be dc66 b73d dba3 cdbd 03a0 553f
000003a0: 2eca 96be 1dc3 d03d dc57 d93e 3406 9f3d
000003b0: 244b 77bc a91d 923d e526 07bf 58e3 da3e
000003c0: 4011 1dbc 289d 00bf 58e2 fe3c 94f5 3f3f
000003d0: 2d6d 853e 23d0 263e ed35 04bf 62e6 ba3e
000003e0: dd33 b93d abec b8be 2839 873e feb9 c2be
000003f0: 3e37 c43d ded2 5cbd a1fb 90be 2abf 2ebe

critic.2.bias f4 [64]
-0.30906355 -0.058508538 -0.18752894 -0.06436524 -0.22452237 0.25318 0.122076266 -0.1423917
0.31127402 -0.09931282 -0.2508301 -0.13605025 -0.2052824 -0.23253419 0.31484452 -0.32375157
-0.19004206 0.11833305 0.12328174 -0.22662745 -0.3091431 0.12303203 0.3387659 0.22717623
-0.26027015 0.2971279 -0.25815788 -0.32810485 -0.21151942 0.3639737 0.27887467 -0.0118099665
0.2432121 -0.04697599 0.15732616 0.1280512 0.31503442 -0.019654261 -0.007291723 0.20193842
-0.5714161 0.29625016 0.15859789 0.0840372 -0.3177886 0.1650377 -0.03747214 -0.28633612
-0.20208256 -0.20350643 -0.27116364 0.270081 -0.352901 0.18977289 0.0905338 -0.118224636
-0.043288548 -0.2596465 0.21727228 -0.3317761 -0.29165673 -0.20638874 -0.08871412 -0.17895785
00000000: 943d 9ebe a6a6 6fbd 9607 40be ecd1 83bd
00000010: 31e9 65be cfa0 813e 1f03 fa3d 21cf 11be
00000020: 4f5f 9f3e 8564 cbbd ce6c 80be c250 0bbe
00000030: 8d35 52be 711d 6ebe 4d33 a13e c4c2 a5be
00000040: 639a 42be 9958 f23d 237b fc3d 0711 68be
00000050: 0148 9ebe 38f8 fb3d b972 ad3e e3a0 683e
00000060: 2142 85be 2621 983e 452d 84be 5cfd a7be
00000070: 8c98 58be c35a ba3e a9c8 8e3e 977e 41bc
00000080: 980c 793e e569 40bd 1c1a 213e db1f 033e
00000090: 314c a13e f901 a1bc 68ef eebb f2c8 4e3e
000000a0: 5348 12bf 1aae 973e 7c67 223e b21b ac3d
000000b0: 30b5 a2be a5ff 283e 637c 19bd a69a 92be
000000c0: bbee 4ebe fd63 50be f6d5 8abe 0f48 8a3e
000000d0: 71af b4be d353 423e c969 b93d c21f f2bd
000000e0: 554f 31bd 63f0 84be a07c 5e3e 8fde a9be
000000f0: 0854 95be 9257 53be c0af b5bd ba40 37be

critic.4.weight f4 [1, 64]
-3.8109136 -4.1768684 -3.8962185 4.343592 -3.8335216 6.577802 6.594926 -3.892741
3.8441215 -3.99867 -3.82511 -3.9835618 -6.709532 -3.907956 3.899014 -6.644164
-6.5595083 3.9638686 3.990715 -6.7072964 -3.7681124 3.9114068 3.7779236 3.9226825
-3.9521432 3.8340905 -6.5764656 -6.838007 -3.874638 -4.526605 3.8003004 6.6040826
3.7756896 -4.0799294 6.681788 4.101817 3.8630176 5.8995185 4.0825987 3.9082212
4.916773 -4.4512086 3.8689957 4.9808183 -3.772429 6.7897587 -4.1532283 -6.679281
-6.6273212 -6.7452097 -4.010689 3.8417094 -6.553536 6.5277653 3.9108176 -3.986813
4.913128 -3.9225028 3.9757133 -6.724979 -3.7907653 -3.939615 -3.9752452 -6.626476
00000000: 02e6 73c0 e8a8 85c0 a55b 79c0 b5fe 8a40
00000010: 6b58 75c0 5b7d d240 a209 d340 ab22 79c0
00000020: 1606 7640 36ea 7fc0 9ace 74c0 adf2 7ec0
00000030: 7cb4 d6c0 f31b 7ac0 7289 7940 fe9c d4c0
00000040: 7ee7 d1c0 06b0 7d40 e067 7f40 2ca2 d6c0
00000050: c128 71c0 7d54 7a40 80c9 7140 3b0d 7b40
00000060: eaef 7cc0 bd61 7540 6872 d2c0 f4d0 dac0
00000070: 12fa 77c0 f3d9 90c0 1f38 7340 a554 d340
00000080: e6a4 7140 c88e 82c0 35d1 d540 1642 8340
00000090: ae3b 7740 dbc8 bc40 a6a4 8240 4c20 7a40
000000a0: 3456 9d40 4d70 8ec0 a09d 7740 dd62 9f40
000000b0: 7a6f 71c0 b445 d940 3fe7 84c0 acbc d5c0
000000c0: 0413 d4c0 c2d8 d7c0 9057 80c0 91de 7540
000000d0: 91b6 d1c0 74e3 d040 d64a 7a40 f227 7fc0
000000e0: 5838 9d40 490a 7bc0 1672 7e40 0733 d7c0
000000f0: e69b 72c0 a722 7cc0 6b6a 7ec0 170c d4c0

actor_mean.0.weight f4 [64, 17]
0.4282068 -0.60310334 0.055218782 -0.22378755 -0.02166176 0.11911127 -0.0318181 -0.015481014
-0.26291332 0.279063 -0.17681141 -0.26807576 0.31802955 -0.14632997 -0.119578145 0.006236274
-0.18446393 0.17406796 -0.0364097 0.16510688 -0.04520803 0.59643155 0.1666907 0.027671106
0.3015962 0.38089523 -0.075164616 0.21376981 -0.16746391 0.27352205 0.23974608 -0.14309618
-0.024527034 0.087416396 0.084742405 -0.034069408 0.16382933 -0.09310582 -0.35312665 -0.3367235
0.16518284 -0.28056479 -0.30542344 -0.3829397 0.02204205 0.22975397 -0.22208668 0.24270046
0.01797114 0.17101261 0.12753525 0.16605648 -0.2238904 -0.25616202 -0.11555199 -0.24655642
-0.24270603 0.1778565 -0.06850464 -0.27397048 0.23550665 0.29728952 0.12159282 0.16623886
-0.04943265 0.19107036 0.3306927 -0.29833987 0.37573215 -0.18209212 -0.1771102 -0.053291596
-0.07152486 0.38733378 -0.1527305 0.2077718 -0.16197903 0.33239013 0.042985573 -0.19134289
-0.009471794 0.24646805 -0.23923914 0.26495588 -0.0025870933 -0.1377001 -0.18604864 0.18297741
-0.03468274 -0.45165873 0.23177266 0.15779385 -0.082878396 -0.29854295 0.17774963 -0.093730375
0.24365228 0.25517362 0.17119604 0.0001564299 0.06861444 0.7098113 -0.12497579 -0.026158413
0.20777076 -0.06377585 0.24186715 0.22227293 0.2599408 -0.15205683 -0.44339278 0.15485615
-0.07774809 0.06045351 0.13129033 0.10396566 0.11646217 0.19783168 -0.033370826 -0.6188514
0.5396396 0.10822803 0.2800542 0.008751125 0.23613185 0.22890627 -0.3444722 0.109321125
-0.1160697 0.086736955 0.054011643 -0.049930025 -0.037792277 -0.12045363 0.14677626 -0.0075953375
-0.23443978 0.044130515 -0.081799746 0.049157165 0.52537024 0.015519638 0.12209312 0.24987286
-0.19595644 -0.093053535 0.06375602 -0.045300156 -0.006235002 0.33838978 0.12587883 0.23832004
-0.15257075 -0.6729942 0.37126338 0.04051888 0.19744685 -0.53145707 0.32527888 0.0012184817
-0.29788658 0.16844283 0.19552347 -0.21532558 0.12236501 0.047349744 -0.08100882 -0.02488351
-0.17092854 -0.119280756 0.00679845 0.77987754 -0.24795154 0.0041006035 -0.42260808 0.1710727
0.0403918 -0.019343974 0.2632252 -0.12657396 -0.006670671 -0.44217095 0.25298542 -0.00416113
0.083585575 0.10139962 0.019162364 0.6495745 -0.7960266 -0.3370433 -0.18185703 0.25675708
0.22997196 -0.0069704265 0.47795406 -0.27510253 0.0101144165 -0.110632546 -0.14773327 -0.11768144
-0.0002011098 0.20940167 -0.053764347 -0.07106211 -0.029065069 -0.012915227 -0.4807843 -0.315237
-0.07387109 -0.12675604 0.15495953 0.11899647 -0.08561766 0.11279626 0.21085991 0.3170499
0.14143574 0.3534573 -0.08077464 -0.37879667 -0.19702952 -0.27016315 0.6962617 -0.0070339725
0.24715762 -0.37199846 -0.17652589 0.47154427 0.16763572 0.43319386 0.34999466 0.07940424
0.12704895 0.1947381 -0.03190812 0.030168073 0.17951341 -0.10386391 -0.0034053088 -0.099229075
0.33841696 0.064384535 0.21032721 0.29391733 -0.15310901 0.2007903 -0.27489477 0.31370798
0.036434103 0.3634316 -0.05786505 -0.2375571 -0.059062157 -0.055038862 -0.054683678 -0.1542124
00000000: ec3d db3e fb64 1abf 172d 623d 9028 65be
00000010: 0174 b1bc 9cf0 f33d b253 02bd 14a4 7dbc
00000020: 939c 86be 58e1 8e3e 0d0e 35be 3a41 89be
00000030: c5d4 a23e 86d7 15be 63e5 f4bd a859 cc3b
00000040: 1de4 3cbe df3e 323e 5622 15bd c711 293e
00000050: 0e2c 39bd bdaf 183f f8b0 2a3e 84ae e23c
00000060: d16a 9a3e b304 c33e e8ef 99bd 79e6 5a3e
00000070: a97b 2bbe 150b 8c3e ff7f 753e ce87 12be
00000080: ebec c8bc 5e07 b33d 6d8d ad3d 5d8c 0bbd
00000090: e0c2 273e 44ae bebd 04cd b4be 0667 acbe
000000a0: b125 293e 30a6 8fbe 7660 9cbe ac10 c4be
000000b0: 8791 b43c a044 6b3e b16a 63be 7886 783e
000000c0: 3638 933c ee1d 2f3e 9a98 023e b60a 2a3e
000000d0: 8643 65be ab27 83be 86a6 ecbd 4979 7cbe
000000e0: ee87 78be 0420 363e 294c 8cbd dc45 8cbe
000000f0: a828 713e 5536 983e a805 f93d 853a 2a3e
00000100: e479 4abd f3a7 433e 8e50 a93e 01c0 98be
00000110: f75f c03e 5b76 3abe 605c 35be 4a48 5abd
00000120: a07b 92bd 9d50 c63e 6265 1cbe 21c2 543e
00000130: d5dd 25be 0a2f aa3e a411 303d 64ef 43be
00000140: 952f 1bbc 1f62 7c3e 1bfb 74be 4ca8 873e
00000150: 398c 29bb 4101 0dbe 8983 3ebe 6e5e 3b3e
00000160: 7d0f 0ebd d03f e7be d055 6d3e b694 213e
00000170: 26bc a9bd 9fda 98be 0004 363e b6f5 bfbd
00000180: fc7f 793e 1ea6 823e 044e 2f3e 5507 2439
00000190: ba85 8c3d 31b6 353f 4ff3 ffbd 2b4a d6bc
000001a0: dcc1 543e ea9c 82bd 06ac 773e 849b 633e
000001b0: f616 853e c9b4 1bbe 6104 e3be 9c92 1e3e
000001c0: 643a 9fbd 1a9e 773d f970 063e f3eb d43d
000001d0: b883 ee3d 6394 4a3e d9af 08bd 0c6d 1ebf
000001e0: d225 0a3f a8a6 dd3d 4463 8f3e e160 0f3c
000001f0: 8ccc 713e 6866 6a3e a95e b0be c1e3 df3d
00000200: f3b5 edbd 25a3 b13d 503b 5d3d 6d83 4cbd
00000210: 13cc 1abd 65b0 f6bd 844c 163e 4fe2 f8bb
00000220: fb10 70be 33c2 343d a086 a7bd 0659 493d
00000230: aa7e 063f 1446 7e3c f50b fa3d acde 7f3e
00000240: cea8 48be da92 bebd 8492 823d a88c 39bd
00000250: fd4e ccbb 6d41 ad3e 61e6 003e 2b0a 743e
00000260: 823b 1cbe 5949 2cbf 3c16 be3e 20f7 253d
00000270: 822f 4a3e 920d 08bf f48a a63e 76b5 9f3a
00000280: 9784 98be 477c 2c3e 4e37 483e 4f7e 5cbe
00000290: 829a fa3d cef1 413d f4e7 a5bd 81d8 cbbc
000002a0: e407 2fbe 7849 f4bd 88c5 de3b 0ea6 473f
000002b0: 02e7 7dbe 5b5e 863b 1660 d8be af2d 2f3e
000002c0: df71 253d 4177 9ebc 74c5 863e 9b9c 01be
000002d0: a595 dabb 3b64 e2be 4e87 813e 175a 88bb
000002e0: ea2e ab3d 9baa cf3d 64fa 9c3c 844a 263f
000002f0: 66c8 4bbf f090 acbe bb38 3abe aa75 833e
00000300: c57d 6b3e 2d68 e4bb 65b6 f43e 3dda 8cbe
00000310: f0b6 253c 5193 e2bd 6447 17be f802 f1bd
00000320: 00e1 52b9 646d 563e 0138 5cbd 0389 91bd
00000330: de19 eebc 639a 53bc 5c29 f6be be66 a1be
00000340: ba49 97bd 56cc 01be b6ad 1e3e 6cb4 f33d
00000350: 5058 afbd ba01 e73d a9eb 573e 5d54 a23e
00000360: 88d4 103e 5bf8 b43e 2d6d a5bd a3f1 c1be
00000370: 1bc2 49be d352 8abe 353e 323f 3d7d e6bb
00000380: e316 7d3e 9576 bebe 34c3 34be 406e f13e
00000390: b3a8 2b3e 96cb dd3e 8032 b33e b19e a23d
000003a0: 1f19 023e 6d69 473e 17b2 02bd 0923 f73c
000003b0: 5dd2 373e 9ab6 d4bd 9a2b 5fbb 9d38 cbbd
000003c0: fd44 ad3e 0adc 833d 0460 573e 557c 963e
000003d0: 9cc8 1cbe f99b 4d3e 02bf 8cbe 559e a03e
000003e0: ed3b 153d b513 ba3e e703 6dbd 2b42 73be
000003f0: 29eb 71bd 6e70 61bd fefb 5fbd dbe9 1dbe

actor_mean.0.bias f4 [64]
0.24343827 0.10414732 0.0006606729 -0.11499205 0.09281558 -0.052685887 -0.28680336 -0.22355151
0.027897807 -0.25092748 0.08359758 0.12258323 0.04611682 -0.08991913 -0.06774344 -0.08018449
-0.18636134 -0.041323643 -0.24052927 0.018192492 0.19448152 -0.10681935 0.14917727 -0.0579571
-0.18093555 0.30119506 0.11265978 -0.014543503 0.11357226 0.1314319 -0.21760999 0.00530364
-0.19542466 0.05001285 -0.1374311 0.21483563 -0.22872184 -0.0058520907 -0.1772354 0.036635924
-0.022686271 0.24445806 0.02929428 -0.11463138 -0.16179447 -0.29283732 -0.2479553 0.035293635
-0.10369026 0.042045493 -0.13183026 -0.13224307 -0.031744413 0.19782418 -0.16525468 0.117899284
0.039290063 -0.13612178 -0.025062272 -0.07617943 0.043451726 0.053908274 0.06112912 -0.21158847
00000000: e247 793e 314b d53d 0231 2d3a f480 ebbd
00000010: 1816 be3d 28cd 57bd e4d7 92be b0ea 64be
00000020: f189 e43c 9179 80be 3535 ab3d eb0c fb3d
00000030: fee4 3c3d 8527 b8bd 13bd 8abd c437 a4bd
00000040: 82d5 3ebe fb42 29bd 4e4d 76be 6c08 953c
00000050: 2a26 473e 1ac4 dabd edc1 183e 6d64 6dbd
00000060: 2b47 39be 3d36 9a3e 2cba e63d df47 6ebc
00000070: 9398 e83d 1696 063e 27d5 5ebe 28ca ad3b
00000080: 671d 48be 46da 4c3d bdba 0cbe dffd 5b3e
00000090: 0f36 6abe e5c2 bfbb 327d 35be 8d0f 163d
000000a0: 8fd8 b9bc 3753 7a3e 8ffa ef3c dbc3 eabd
000000b0: 73ad 25be c6ee 95be ffe7 7dbe 0f90 103d
000000c0: 8f5b d4bd e537 2c3d 83fe 06be ba6a 07be
000000d0: 6e06 02bd 6c92 4a3e 8638 29be 2e75 f13d
000000e0: 9eee 203d 8263 0bbe 654f cdbc f603 9cbd
000000f0: 70fa 313d ecce 5c3d 8762 7a3d a6aa 58be

actor_mean.2.weight f4 [64, 64]
0.5310365 -0.029859534 0.041823648 0.23329802 -0.06700909 -0.121754676 0.37951976 -0.4084415
-0.30913427 -0.3541445 0.15543683 -0.042029046 0.11551854 -0.32550827 0.12451051 0.08977889
-0.2645249 -0.054655187 -0.0477204 -0.12722102 -0.054390214 0.12974219 0.0778694 -0.16701475
-0.2340516 0.07176918 -0.44761866 0.05012351 0.27939454 -0.014548356 -0.17721893 0.18371518
0.13781819 -0.031500008 -0.10538365 -0.31872815 -0.09760182 -0.19894159 0.108742446 0.10861184
0.1321562 -0.12504025 0.12188055 -0.08030607 -0.21233967 -0.2207807 0.11981601 0.107428476
-0.05045134 -0.5261917 -0.22729357 -0.18292071 0.009338821 -0.24010117 -0.023004789 -0.08766092
-0.049961157 0.28594702 -0.15424357 0.2232623 0.027812526 0.05207793 0.17339094 -0.059273414
0.13649595 0.15538357 0.106151916 0.24138409 0.045766037 -0.15548639 0.1003212 -0.26023334
-0.3484984 0.20801012 -0.0025511994 -0.052909534 -0.40306962 0.13975756 0.17279243 0.14035939
-0.3142772 0.21435988 0.014837976 -0.010658805 -0.18281408 0.103551164 -0.32727197 -0.41944522
0.15706028 -0.09888443 -0.102667384 0.2810759 -0.35246295 0.09363773 -0.0061596273 0.39585456
-0.15527801 0.18878163 0.18547143 0.16743912 0.053353988 -0.03791901 -0.059902236 -0.4062715
0.17044127 -0.029499872 0.051437948 0.15872994 -0.31789285 -0.240027 0.17892087 -0.045241818
0.41523448 0.098642066 0.010814121 -0.04688599 -0.084139444 -0.11008905 0.13253061 -0.04460058
-0.16580562 0.16977206 0.35553262 0.32841104 0.06790019 0.33223727 -0.28423214 0.30781102
0.007957184 -0.032704704 0.52889144 -0.10104253 -0.15303963 -0.0026403456 -0.119492255 0.11261161
-0.23104297 -0.3008162 0.03723578 -0.04839337 -0.026513701 -0.23481764 0.05420733 -0.46862075
-0.12272915 -0.25547782 -0.25019756 -0.22174473 -0.28866023 -0.048256766 0.07351576 0.25158218
0.31828487 -0.03908822 0.05333125 0.027522434 0.260516 0.1703767 -0.22449446 -0.02235019
0.033305947 0.09323812 0.20397152 0.26407492 -0.102764696 0.27562603 0.08142047 0.0956295
-0.26907393 -0.3687328 -0.17159383 0.068846114 0.4081521 0.21320409 0.13823207 0.29376724
0.047967058 0.009592712 0.18171696 -0.052395027 -0.1814923 0.3668452 -0.24051565 -0.12529926
-0.23425668 -0.05328302 0.3994034 0.015245252 -0.18635213 -0.08182927 -0.022532793 0.39890617
0.25271767 0.24257961 -0.036146425 -0.0009095801 0.010050756 -0.12962125 -0.30635613 -0.4313033
0.12449928 -0.21086118 0.19917105 0.25818145 -0.024331057 -0.14335966 -0.109257534 -0.111737065
-0.3421476 -0.015515062 -0.02599699 0.35842076 -0.011097311 0.35654926 0.08047167 -0.08957043
-0.038662057 0.21210165 0.34891936 0.20530413 0.040361088 0.27982715 0.016448868 0.055391863
0.15103962 0.1585244 0.09480727 -0.1004258 -0.12576364 0.47690195 0.01565178 0.30129027
-0.038953204 -0.040887825 -0.28937873 0.10544651 -0.0996596 -0.15935035 -0.47363618 0.005104348
-0.09706848 -0.15027454 -0.5355582 0.05103758 0.14482477 0.3713927 0.010625495 0.1215987
-0.19926037 -0.079427674 -0.16044179 0.22606589 0.24031042 0.09751388 0.21619645 -0.12957358
00000000: 02f2 073f fb9b f4bc 464f 2b3d ade5 6e3e
00000010: 103c 89bd 845a f9bd 6a50 c23e 3f1f d1be
00000020: d946 9ebe 6e52 b5be d52a 1f3e a626 2cbd
00000030: fc94 ec3d 05a9 a6be 5eff fe3d ffdd b73d
00000040: cf6f 87be 1ede 5fbd 7776 43bd 3a46 02be
00000050: 46c8 5ebd 23db 043e fe79 9f3d ea05 2bbe
00000060: 39ab 6fbe b8fb 923d 462e e5be 4f4e 4d3d
00000070: cd0c 8f3e 3a5c 6ebc e178 35be d51f 3c3e
00000080: 3620 0d3e 2706 01bd 62d3 d7bd 5630 a3be
00000090: 77e3 c7bd 58b7 4bbe 5cb4 de3d e26f de3d
000000a0: f453 073e 8d0a 00be 839c f93d 8277 a4bd
000000b0: 926f 59be 5614 62be 1962 f53d 7603 dc3d
000000c0: 10a6 4ebd 80b4 06bf a5bf 68be 914f 3bbe
000000d0: db01 193c 15dd 75be 8a74 bcbc 9287 b3bd
000000e0: 12a4 4cbd a667 923e 07f2 1dbe df9e 643e
000000f0: 18d7 e33c ab4f 553d 658d 313e aec8 72bd
00000100: 98c5 0b3e df1c 1f3e 2d66 d93d 642d 773e
00000110: 2b75 3b3d d337 1fbe 3475 cd3d 4e3d 85be
00000120: 626e b2be 9b00 553e 0632 27bb abb7 58bd
00000130: 245f cebe 9b1c 0f3e 80f0 303e 5fba 0f3e
00000140: f1e8 a0be 2881 5b3e fb1a 733c 45a2 2ebc
00000150: 9d33 3bbe a212 d43d 3190 a7be 86c1 d6be
00000160: 69d4 203e ec83 cabd 4743 d2bd 2ee9 8f3e
00000170: 0676 b4be 23c5 bf3d b3d6 c9bb 73ad ca3e
00000180: 3301 1fbe f94f 413e 39ec 3d3e 2975 2b3e
00000190: b689 5a3d f750 1bbd 0c5c 75bd d102 d0be
000001a0: 2888 2e3e b7a9 f1bc 99b0 523d 1a8a 223e
000001b0: dac2 a2be a3c9 75be 0837 373e 7c4f 39bd
000001c0: 9d99 d43e da04 ca3d b62d 313c 860b 40bd
000001d0: 4d51 acbd 5e76 e1bd 1bb6 073e 19af 36bd
000001e0: f3c8 29be bad8 2d3e 5f08 b63e 7e25 a83e
000001f0: 410f 8b3d 011b aa3e e086 91be 6899 9d3e
00000200: d95e 023c 5ef5 05bd 6e65 073f 63ef cebd
00000210: 6cb6 1cbe a609 2dbb 5bb8 f4bd eaa0 e63d
00000220: 8796 6cbe 9504 9abe 8c84 183d 2038 46bd
00000230: 4333 d9bc 0974 70be 8108 5e3d 0fef efbe
00000240: 6c59 fbbd fdcd 82be e519 80be 0d11 63be
00000250: 46cb 93be e3a8 45bd 6e8f 963d 61cf 803e
00000260: 3cf6 a23e f81a 20bd de71 5a3d ba76 e13c
00000270: 5a62 853e 3b77 2e3e e0e1 65be bf17 b7bc
00000280: d16b 083d a1f3 be3d e9dd 503e d434 873e
00000290: 4c76 d2bd db1e 8d3e c6bf a63d 66d9 c33d
000002a0: 0fc4 89be 8cca bcbe 4bb6 2fbe 31ff 8c3d
000002b0: 50f9 d03e 2c52 5a3e b58c 0d3e a968 963e
000002c0: 1b79 443d c02a 1d3c 0314 3a3e 2b9c 56bd
000002d0: 1ed9 39be 22d3 bb3e bc49 76be 734e 00be
000002e0: fce0 6fbe 4c3f 5abd 9a7e cc3e 39c7 793c
000002f0: 18d3 3ebe 1b96 a7bd b196 b8bc 6e3d cc3e
00000300: 3664 813e ca66 783e 460e 14bd e370 6eba
00000310: edab 243c 6fbb 04be b6da 9cbe c9d3 dcbe
00000320: 7af9 fe3d feeb 57be 7ff3 4b3e 5c30 843e
00000330: ed51 c7bc e0cc 12be 6ac2 dfbd 67d6 e4bd
00000340: f82d afbe e332 7ebc a4f7 d4bc ed82 b73e
00000350: 7fd1 35bc a08d b63e 55ce a43d b470 b7bd
00000360: 1b5c 1ebd 2d31 593e 8fa5 b23e 3f3b 523e
00000370: ab51 253d 8145 8f3e c7bf 863c 94e2 623d
00000380: 21aa 1a3e 3854 223e 502a c23d 0bac cdbd
00000390: 2fc8 00be 7e2c f43e 2938 803c b842 9a3e
000003a0: 658d 1fbd fe79 27bd 7329 94be 57f4 d73d
000003b0: 551a ccbd bd2c 23be 7180 f2be 6042 a73b
000003c0: d7cb c6bd 92e1 19be 581a 09bf c80c 513d
000003d0: f24c 143e 2f27 be3e 8e16 2e3c bd08 f93d
000003e0: e90a 4cbe faaa a2bd da4a 24be d17d 673e
000003f0: ef13 763e 5bb5 c73d 9a62 5d3e f0ae 04be

actor_mean.2.bias f4 [64]
0.23629762 -0.033195455 -0.055269245 0.28248274 -0.19525756 0.007325396 0.20964503 -0.22008716
0.15539445 0.22754976 -0.0933991 -0.2918989 0.19264348 -0.011118002 0.0512707 -0.15624997
0.16416042 0.21552776 0.13809699 -0.28332397 -0.29008487 0.20481662 0.11393813 0.08746721
0.14062133 0.04531255 0.24287108 0.21016484 -0.17872071 0.26825398 -0.23969568 -0.06569362
-0.12006321 0.07433555 0.12348077 0.2211809 0.22611281 -0.12180741 -0.041246712 0.08169637
-0.18929805 0.1702995 0.27199328 0.36225688 -0.020340296 0.13295579 0.080165744 0.16490409
-0.21506499 0.3361021 -0.19909263 -0.23907177 -0.17937611 -0.17943545 -0.10984856 -0.21698561
0.06446933 -0.18590553 -0.07124561 0.13554507 -0.061093315 -0.20955463 0.21372016 -0.04809333
00000000: 01f8 713e f5f7 07bd 0162 62bd 94a1 903e
00000010: 99f1 47be e009 f03b 30ad 563e 875e 61be
00000020: b91f 1f3e ce02 693e 0748 bfbd c673 95be
00000030: 5544 453e 4828 36bc 3a01 523d feff 1fbe
00000040: ab19 283e 4fb3 5c3e 4c69 0d3e d70f 91be
00000050: 0186 94be 73bb 513e 6558 e93d 0222 b33d
00000060: 0aff 0f3e a799 393d 32b3 783e 7435 573e
00000070: 9002 37be 9658 893e c972 75be 608a 86bd
00000080: b3e3 f5bd 3d3d 983d 7ce3 fc3d 3f7d 623e
00000090: 1e8a 673e 2a76 f9bd 50f2 28bd 6d50 a73d
000000a0: 59d7 41be fe62 2e3e b442 8b3e bc79 b93e
000000b0: b1a0 a6bc 9025 083e f02d a43d 9edc 283e
000000c0: ff39 5cbe 9315 ac3e f0de 4bbe 3bcf 74be
000000d0: 5fae 37be edbd 37be 48f8 e0bd 7a31 5ebe
000000e0: 7f08 843d 055e 3ebe 38e9 91bd 54cc 0a3e
000000f0: fc3c 7abd 7d95 56be 75d9 5a3e 83fd 44bd

actor_mean.4.weight f4 [6, 64]
0.20988879 0.15407544 -0.08278984 0.18752688 -0.1504844 0.116761394 0.13539012 -0.1263612
0.095825545 0.043054305 -0.13245665 0.004920509 0.00040433754 0.05957388 0.04396623 -0.0046583246
0.13354793 0.12094317 -0.10814606 0.08937917 0.118017204 0.019279398 0.026090218 0.086522885
0.037567556 -0.04441077 0.21801984 0.068147324 -0.074504524 0.22929613 -0.07281248 0.06795984
-0.019270832 -0.18029162 0.27931926 0.23786618 0.35588643 0.07933246 0.24906048 0.2601306
-0.283402 0.072358176 0.15027344 0.2621025 -0.049648974 -0.044776484 0.15235677 -0.03931445
-0.027216192 0.24957371 -0.115530625 -0.17072748 -0.37449908 -0.12860906 -0.062127177 0.117563695
0.06678137 -0.07010901 -0.046695143 -0.05312739 -0.10214344 -0.18728969 0.06583331 -0.078548074
0.004470666 0.17024344 -0.14925955 -0.067955256 -0.40313622 -0.111865915 -0.03939592 -0.19961813
-0.15350525 0.21971525 -0.05916331 -0.10394857 0.20717023 0.12903503 -0.104160264 -0.3041288
0.30672717 0.05228866 -0.11491059 -0.1585362 -0.20184253 0.027666725 0.15856862 0.028279291
-0.14248978 0.11839456 -0.060292073 -0.11067295 -0.33872592 0.071975864 -0.11887667 -0.10251568
-0.17338124 0.19506039 0.11432972 -0.039605677 0.110518776 0.02538294 -0.13769262 0.038777422
0.09658227 -0.051517516 0.09488654 0.15043274 -0.050261825 0.012363691 0.019543007 0.16832595
-0.10182936 0.21095844 -0.02510593 0.14719224 0.07542824 -0.18150717 -0.29508448 -0.14837387
-0.077594385 0.012548588 0.018949812 0.10060597 -0.24746631 -0.0147692375 0.07896213 -0.07848515
-0.061323553 0.27785632 0.17974913 0.019985044 0.056459967 0.16618174 -0.3096409 -0.17198107
0.1038144 0.22168203 0.18979868 -0.36522523 0.333107 0.37089404 0.5265566 0.11465244
-0.020151518 0.26644793 0.19640644 -0.33488336 -0.40034935 0.24417864 -0.21396534 -0.038064178
-0.10990586 0.1352102 -0.3590814 0.15000616 0.107781716 -0.10237192 -0.25859162 -0.036796704
0.24303174 0.034100786 -0.25511876 -0.20061065 -0.19470493 0.14076412 0.05592982 -0.53615344
0.15531243 -0.30208495 0.07175345 0.11692924 0.060521904 0.50605434 -0.088563025 -0.18563254
-0.2614956 -0.010950166 -0.27321243 0.16645418 0.06445625 -0.16931961 0.0073040645 -0.2594642
-0.16406998 0.378493 0.039508577 0.1759764 -0.15353778 0.22687066 0.25141898 -0.04486063
0.117937215 0.022424584 0.024909528 0.15763244 -0.07869501 0.22189084 0.031648632 -0.2017847
0.010854557 0.086869895 -0.17825122 -0.22526649 0.011434144 -0.017990125 0.009912883 -0.103013314
0.107413724 0.14795187 0.13746746 -0.19697247 -0.32329232 0.13930734 -0.00091085327 -0.21014236
0.05108864 0.20799333 -0.079337515 0.07670083 -0.09268596 0.20603769 -0.314577 -0.04082716
0.06215133 -0.027148915 -0.15933289 0.017940342 0.08413726 0.059148584 -0.035719078 0.06975799
-0.10530065 0.152296 0.101528496 0.09693653 -0.1762522 0.008655094 -0.09330561 0.006902707
-0.30430615 0.14710401 -0.16314602 -0.16918014 -0.17695339 -0.15433511 -0.07915025 -0.22532871
-0.025385251 -0.07752153 -0.14596544 0.23790978 -0.13319829 -0.055450648 0.17345232 0.0030816523
00000000: 16ed 563e f4c5 1d3e b88d a9bd 0c07 403e
00000010: 9518 1abe 9920 ef3d b5a3 0a3e d564 01be
00000020: 2f40 c43d b659 303d b7a2 07be 393c a13b
00000030: 44fd d339 be03 743d ef15 343d dca4 98bb
00000040: cac0 083e 0db1 f73d ae7b ddbd 6d0c b73d
00000050: 01b3 f13d d4ef 9d3c 27bb d53c e932 b13d
00000060: 70e0 193d 11e8 35bd 9840 5f3e d390 8b3d
00000070: d495 98bd 9bcc 6a3e b61e 95bd 872e 8b3d
00000080: dddd 9dbc 5e9e 38be ef02 8f3e 3193 733e
00000090: bf36 b63e 0f79 a23d b609 7f3e d72f 853e
000000a0: 111a 91be 8630 943d 48e1 193e 4d32 863e
000000b0: b95c 4bbd 8c67 37bd 6a03 1c3e 3008 21bd
000000c0: 7ef4 debc 4090 7f3e 529b ecbd 2fd3 2ebe
000000d0: 58be bfbe 18b2 03be 1179 7ebd 3cc5 f03d
000000e0: acc4 883d 5095 8fbd 6843 3fbd 1b9c 59bd
000000f0: 9430 d1bd dec8 3fbe 9dd3 863d d0dd a0bd
00000100: aa7e 923b 4c54 2e3e 7fd7 18be 202c 8bbd
00000110: df67 cebe f519 e5bd 9e5d 21bd b268 4cbe
00000120: 7b30 1dbe 09fd 603e 3a55 72bd fde2 d4bd
00000130: 6f24 543e c221 043e fa51 d5bd c5b6 9bbe
00000140: 580b 9d3e a22c 563d 3e56 ebbd 5057 22be
00000150: cfaf 4ebe 54a5 e23c d05f 223e f9a9 e73c
00000160: d7e8 11be d978 f23d d2f4 76bd 80a8 e2bd
00000170: 7c6d adbe 1568 933d 9d75 f3bd bef3 d1bd
00000180: da8a 31be e9bd 473e b325 ea3d 9039 22bd
00000190: ab57 e23d e2ef cf3c 4bff 0cbe 13d5 1e3d
000001a0: edcc c53d 0804 53bd e053 c23d 0a0b 1a3e
000001b0: 58df 4dbd 1491 4a3c a818 a03c a35d 2c3e
000001c0: e98b d0bd 7d05 583e f4aa cdbc 90b9 163e
000001d0: 1f7a 9a3d 04dd 39be 5015 97be 52ef 17be
000001e0: cee9 9ebd 9898 4d3c a33c 9b3c 810a ce3d
000001f0: cf67 7dbe acfa 71bc e6b6 a13d d3bc a0bd
00000200: 682e 7bbd 2f43 8e3e 2810 383e adb7 a33c
00000210: 9142 673d 8c2b 2a3e 4189 9ebe ce1b 30be
00000220: a59c d43d 9d00 633e 965a 423e cdfe babe
00000230: 008d aa3e d3e5 bd3e 6acc 063f e6ce ea3d
00000240: cc14 a5bc dd6b 883e c51e 493e d575 abbe
00000250: 97fa ccbe f709 7a3e bb19 5bbe 2fe9 1bbd
00000260: 5316 e1bd 8b74 0a3e 84d9 b7be 379b 193e
00000270: a9bc dc3d 5fa8 d1bd 1f66 84be 24b8 16bd
00000280: 50dd 783e 44ad 0b3d ed9e 82be e16c 4dbe
00000290: bb60 47be 7824 103e ab16 653d 5a41 09bf
000002a0: 390a 1f3e e1aa 9abe 79f3 923d 9978 ef3d
000002b0: d1e5 773d c78c 013f 8860 b5bd 7516 3ebe
000002c0: c0e2 85be 5368 33bc 80e2 8bbe f772 2a3e
000002d0: a301 843d 1f62 2dbe ef56 ef3b 7ed8 84be
000002e0: f601 28be d6c9 c13e bfd3 213d 2833 343e
000002f0: 0239 1dbe c850 683e fdb9 803e c8bf 37bd
00000300: 1189 f13d c3b3 b73c 110f cc3c 666a 213e
00000310: d92a a1bd 5a37 633e ffa1 013d a6a0 4ebe
00000320: 50d7 313c d8e8 b13d 7d87 36be 42ac 66be
00000330: 4756 3b3c 0760 93bc a569 223c a5f8 d2bd
00000340: bafb db3d b280 173e 45c4 0c3e 27b3 49be
00000350: 9286 a5be 95a6 0e3e 54c6 6eba 8f2f 57be
00000360: 5242 513d 34fc 543e b57b a2bd 5315 9d3d
00000370: 23d2 bdbd 8bfb 523e 3d10 a1be 613a 27bd
00000380: 6592 7e3d 6767 debc 2928 23be a0f7 923c
00000390: 2850 ac3d c945 723d 2b4e 12bd 47dd 8e3d
000003a0: dea7 d7bd 7cf3 1b3e 2cee cf3d a986 c63d
000003b0: 757b 34be 18ce 0d3c 0317 bfbd 1a30 e23b
000003c0: 04ce 9bbe 6fa2 163e c00f 27be 8f3d 2dbe
000003d0: 4533 35be 060a 1ebe 8719 a2bd 92bc 66be
000003e0: bbf4 cfbc 9cc3 9ebd f777 15be 9f9e 733e
000003f0: 2265 08be 3820 63bd 7c9d 313e 8cf5 493b

actor_mean.4.bias f4 [6]
0.27949163 0.14263934 -0.0066139563 0.14700617 0.15421622 0.023059446
00000000: 8719 8f3e 0c10 123e e3b9 d8bb c988 163e
00000010: dbea 1d3e 2ae7 bc3c
