DATA403_final/checkpoints/Walker2d-v4/PPO_4686.pt (torch, 48717 bytes, 12 tensors)

actor_logstd f4 [1, 6]
00000000: 50f8 5b3f 427c 4c3f 5dde 9d3d a301 783f
00000010: cdae 583f 95f2 0d3f
0.8592577 0.798771 0.07708428 0.968775 0.84641725 0.55448276

critic.0.weight f4 [64, 17]
00000000: 67b2 1bbf db58 203d 27b5 9cbe b5fe 1bbf
00000010: 71b1 87be c1c2 2e3e efa5 90be c90a dfbe
00000020: e9c7 683f 8133 e83e 8a23 163c b019 afbd
00000030: 1947 54bd e665 9a3c 05c1 273c fb94 a8bc
00000040: 6d58 47bc 3ee4 a7be e3db 153e 12ab 873d
00000050: e42a c6be 516a 9ebe 2992 993e c8bc ccbe
00000060: 7b1a 05bf 1428 0bbf 3724 8eb9 7723 5c3e
00000070: ae14 76bc 0516 713d e72b 4c3c bbee 58be
00000080: 02ae 8f3d 2685 09bd cd47 1fbe 5f0c 683f
00000090: 3129 663f f18b eb3e 2670 243d 6b15 2d3f
000000a0: 1f4f b23d dc83 823e c5bd 263e 6276 403e
000000b0: 3763 fabd 0358 4cbc 5a24 863d 2bcb 963c
000000c0: 5cc4 94bb 0f3a 943d cd96 c0bb 1462 0abf
000000d0: 6a73 36be 57c4 003f 0461 173f 70a7 b13e
000000e0: 6c54 9c3f 50be 913f 6e6b c23e 1764 09be
000000f0: 860d 163f d179 043f bc5d 13be 17e4 b0bd
00000100: 921d 8dba 37df 5bbe 63c3 06be a757 c6bb
00000110: 5752 903e ea6b c7bd d3cb cd3e dd2d 483f
00000120: 43f9 993e c856 9c3e 5b7b 8b3e fe81 0bbe
00000130: 8262 24bf fe4a 6e3e e047 f3bd 824f e53b
00000140: f148 593d 9673 703d 6b7b 113e 37f4 b13d
00000150: 2a2a c53c 6822 573f c2ef e83c 286e 203f
00000160: 7c68 193e 4879 d7bd 663e 95be 00d5 4d3d
00000170: 0c39 8a3f e106 8f3e a278 6e3e 1350 5fbe
00000180: 1ae2 8a3d ea6c 283d d008 41bc caab 243e
00000190: 4bf0 893d 804b 803c ec1b 253f 48a2 bd3d
000001a0: 4074 86be 1192 3dbf 4500 20bf 2520 5dbf
000001b0: 3f85 0ebf 60f9 4bbe bee9 d3be 3515 693e
000001c0: 20e6 933e a01d 81be 9b58 b2bd 60a7 223d
000001d0: 175a dcbc a70a a3bb 19df 0b3d c87c e73e
000001e0: 1808 2ebf 9fdf 17be cdf2 f33d c3bf 2c3f
000001f0: bfd8 d8bd 06a7 a5be 05a3 febe e99e 24bf
00000200: 14fb 88be e5da 8a3e 5554 41bd 119a a1bd
00000210: e124 0abd db56 c1bc 60ab 4cbd 4bd5 2dbd
00000220: 1ed1 5a3d abb8 6dbf 7d66 6fbd 9a7a 2cbe
00000230: 6081 4dbd 0580 063f b201 f23e 1803 ff3d
00000240: 6025 65be 0720 8a3e 8920 64bd f9ba b63c
00000250: f989 dc3c e8aa 233c d67e c33d a242 a23d
00000260: 5a59 303c 3a50 c6be e9d6 5fbe 0f48 d4bd
00000270: 2792 6d3e 4d55 94be 2a83 543f 99f8 ff3e
00000280: 7740 9fbe 0bda 04bf 5069 1c3e cefb af3e
00000290: b4fe d4bd 4fc8 69bd 2403 8abd 53d9 2fbe
000002a0: 7771 d0bd e481 58bd 3d4d 213e 44b5 7b3f
000002b0: 53f3 2ebf 01b0 53bf 7704 823d 0bad 41bf
000002c0: 9d0f b9be edd8 9abe cade 7a3b 828f 99be
000002d0: 9ad4 5a3e b2a7 45be 0793 b5bd 5d8d 683d
000002e0: c94e 17bc ec88 28bc c555 223d eac5 dfbe
000002f0: 15ad 873f 0d1b 4bbf a39b 6dbe d5fb c53e
00000300: b30e 68be bbc1 2dbd e9ea 8bbe 4b57 84bd
00000310: 4922 70be eb23 22be 22b6 4abb 0beb 93ba
00000320: 4a9a 663b 9126 1b3e 1212 693d 1205 b63c
00000330: 05fe 133e c499 bc3f 06a3 44bd 09b9 86bd
00000340: b20a 8e3d fb5f 413e b1b9 683b 21f4 1f3e
00000350: f322 143f 3b76 003e 2a58 3abe 7b40 02bd
00000360: 148e 21bd 6baf bcbb 53c1 ea3d 188b f73c
00000370: 47c8 0a3c 8f1a 4a3f ff0d debe 2b17 5cbe
00000380: 042e 9b3e e26e 4f3f e855 02bf 9879 eebe
00000390: 7577 063f 618e d23e 7218 873e f070 21bd
000003a0: 0e50 73be 5d63 e9bd 39b7 ca3c 4bf5 743e
000003b0: 49f9 fd3d 7195 d83b 63d9 c43d 8cbe 09bf
000003c0: 5804 9d3e 487c 123f 059d 013f 5735 9a3e
000003d0: 9610 9a3d fc03 fcbd c2d3 d83e 161e a43e
000003e0: bef8 3cbe 7f57 823e c582 a73d 9965 873d
000003f0: 4d19 b2bd 0401 b3bd 7019 7f3d 6fc8 373f
-0.60819095 0.03914724 -0.30606958 -0.6093553 -0.26502565 0.1706648 -0.28251597 -0.43562916
0.9093004 0.45351794 0.009163747 -0.085498214 -0.051825617 0.018847417 0.010238891 -0.020578852
-0.012167078 -0.32791322 0.14634661 0.06624426 -0.38704598 -0.30940488 0.29994324 -0.3998778
-0.5199353 -0.5435803 -0.00027111333 0.21497904 -0.015019579 0.05885889 0.012461639 -0.21184818
0.07015611 -0.033574246 -0.15554734 0.90643877 0.89906603 0.46005204 0.040146016 0.67610806
0.087064974 0.25491226 0.16283329 0.1879516 -0.12225955 -0.0124721555 0.06549902 0.018407425
-0.0045400094 0.07237636 -0.005877352 -0.54055905 -0.17817464 0.5029959 0.5913241 0.34698057
1.2213264 1.1386204 0.37972587 -0.13417087 0.58614385 0.5174838 -0.14391226 -0.08637255
-0.0010766259 -0.21471868 -0.13160472 -0.0060529294 0.2818782 -0.0973738 0.40194568 0.7819498
0.30072984 0.3053496 0.2724255 -0.13623807 -0.6421281 0.23270795 -0.118789434 0.0069980035
0.053048078 0.05870398 0.14207236 0.086891584 0.024067957 0.84036875 0.028434638 0.62668085
0.14981264 -0.105211794 -0.2914917 0.05025196 1.0798659 0.27934936 0.23288205 -0.2180789
0.06781407 0.041119494 -0.011781886 0.16081157 0.06735285 0.015661001 0.6449573 0.09259468
-0.26260567 -0.74051005 -0.6250041 -0.86377174 -0.5567207 -0.19919348 -0.4138927 0.22761996
0.2888651 -0.25217915 -0.087083064 0.039710402 -0.026898427 -0.004975635 0.03414831 0.45212388
-0.679811 -0.14831398 0.11911545 0.67480105 -0.10588216 -0.3235399 -0.4973375 -0.6430498
-0.26754057 0.27120128 -0.047199566 -0.07890714 -0.033726577 -0.023600986 -0.049968123 -0.04243974
0.053422086 -0.92859906 -0.05844735 -0.16843644 -0.05017221 0.5253909 0.47266918 0.12451762
-0.22377539 0.2697756 -0.05569509 0.022305952 0.02692126 0.009989478 0.095456764 0.079228655
0.010763491 -0.38733083 -0.21859325 -0.103653066 0.23200284 -0.2897133 0.8301264 0.49994352
-0.3110387 -0.5189521 0.15274549 0.343718 -0.10400143 -0.057075795 -0.0673888 -0.17172746
-0.10177892 -0.05285825 0.1575212 0.98323464 -0.68340033 -0.82690436 0.06348508 -0.7565467
-0.36144724 -0.30243626 0.0038279765 -0.299923 0.21370164 -0.19302252 -0.08865934 0.05677544
-0.009235092 -0.010286551 0.039632577 -0.43705684 1.0599695 -0.7933815 -0.23203902 0.38668695
-0.22661857 -0.042421084 -0.2732766 -0.06461962 -0.23450579 -0.15834014 -0.0030931314 -0.0011285258
0.0035187178 0.1515143 0.056902 0.022219215 0.1445237 1.4734426 -0.048007034 -0.065782614
0.06935634 0.1888427 0.0035511071 0.15620472 0.5786583 0.12545101 -0.18197694 -0.031799775
-0.039442137 -0.005758216 0.11462655 0.030217692 0.008470601 0.78946775 -0.43370053 -0.21493213
0.30308545 0.8102857 -0.5091233 -0.46577144 0.52526027 0.4112425 0.26385838 -0.039414346
-0.23761007 -0.11395905 0.02474557 0.23921697 0.12401063 0.0066096117 0.09611776 -0.53806376
0.30667377 0.5722089 0.5063022 0.3011882 0.07522695 -0.123054475 0.42349058 0.32054204
-0.18454263 0.2545738 0.08179239 0.06611175 -0.08696232 -0.08740428 0.06228012 0.7179021

critic.0.bias f4 [64]
00000000: 29f0 4fbe 81fd b9be fba7 ddbe 8d2c d43c
00000010: ddce d83d a9d9 cf3e ee38 a33e 6dc7 89be
00000020: 5041 f03e 4bda ae3e ed7b f0be 8cae 14bf
00000030: 114d 3fbd 9027 003f 64cb b93e 77db 173f
00000040: e928 44bd 63e5 803e 86bd f93d c135 83be
00000050: 3017 863e ccd9 bbbe f2fc 22bf d468 6f3e
00000060: bede 22bf fcba 113f 18e8 393d dbdb 03be
00000070: 5e98 e7be 71fa 1bbd 54d4 85be 62a8 4bbd
00000080: 6fe2 0fbf a35e cabd 61d9 843e b2a7 8fbe
00000090: f142 44bf a30d a93d 130e 35bf 4e1b 2bbe
000000a0: bafb f4be 181b 26be a633 efbe c180 0cbf
000000b0: 961c cbbc 9213 dd3d db8d 903e f2ac 84be
000000c0: 2465 de3e a667 f0be 092b 8b3d 82bc 383e
000000d0: 5a6b 5f3f 897c 153f 76db edbd c789 1ebe
000000e0: 634a c0bd 8e51 9fbe af69 183f b26f b83e
000000f0: 3515 f4be f79f d3be 5d1d dcbb d5e6 48be
-0.20306458 -0.3632622 -0.4329222 0.02590015 0.10586331 0.4059575 0.3187937 -0.26909962
0.4692483 0.3415092 -0.46969548 -0.5807884 -0.046704356 0.5006037 0.36287987 0.5931925
-0.047890577 0.25175008 0.12194352 -0.25626948 0.26189566 -0.36689603 -0.63667214 0.23379833
-0.6362113 0.5692594 0.045387357 -0.12876837 -0.45233434 -0.038080636 -0.26138556 -0.04972113
-0.56204885 -0.09881332 0.25947097 -0.2805763 -0.76664644 0.08254554 -0.707246 -0.16709635
-0.47848302 -0.16221273 -0.46719092 -0.5488396 -0.024793904 0.10794748 0.28233227 -0.25913197
0.4343654 -0.46954077 0.06795318 0.1804066 0.8727318 0.5839315 -0.116141245 -0.15482245
-0.09389188 -0.3111691 0.5953626 0.36022717 -0.4767243 -0.4133298 -0.0067173676 -0.19619305

critic.2.weight f4 [64, 64]
00000000: bccc cd3d 246b 893e 776c 14be 6ee4 0f3f
00000010: 561a ea3e 5aaa d2be bace 753d f80c 33bd
00000020: 2381 36bb 2200 703e 7ee7 783d a2ff 843e
00000030: 46e5 81bf d00e acbe 38f4 b13e 075a fa3d
00000040: 94fb 833d 1b87 e23d a48d 333e 693e ea3d
00000050: 95de a63d c658 1e3c b216 1d3e 9a4a d73d
00000060: 2944 b43e bb6a 0cbe 431d a33e 46b8 9dbc
00000070: c451 f93c d62e f7be 5688 eebd 5ea2 62bf
00000080: 36cb 733e 627a 12bf 01f2 20be 58e9 04bf
00000090: 9d58 803e dcde 193f 5210 24be fee8 dbbe
000000a0: d3ee 553e 5ff3 d93e c3b7 0fbe 5739 bf3e
000000b0: 0cfe 1d3f 59f2 663e f65a fe3e bb2b 86bd
000000c0: 6a14 03be 361c 1d3e cd10 03bf 35b1 94bd
000000d0: 6a0e b73d a6db 1e3e e2ad 623e 516f dfbe
000000e0: e216 ea3e 8e0e 013f 47f5 88bd 8261 8dbd
000000f0: f607 653e 5d20 27be 19ad 3f3e 5a53 533f
00000100: b7d8 d9be af15 58bd 0407 ed3d 9174 dabe
00000110: 055a 0c3f 9fb0 39be 4973 933d 0cf8 f1bc
00000120: 002c 323f 3f25 6cbe d097 8fbe c3dc 8fbd
00000130: 5629 e3be 6396 fdbd df95 4f3c b79c f33e
00000140: 8e2a 88bd 1880 00be 17aa 433f e101 33be
00000150: 612a 573f 9c34 b23d 3698 563d 9cf5 363f
00000160: c980 2d3e c78f 403e b892 163f cf4a 53be
00000170: 0a97 cabd 14ce 1dbe 7add 10be 8fe8 b03c
00000180: 0e10 28be 4b40 f83e f08d 88be 702f d4bd
00000190: 1702 78bc d8f6 3d3e c7a6 303e cdc4 cbbd
000001a0: 283e 8b3c 48a1 5cbe 6b1a 18bf a654 f5be
000001b0: 60aa 42be b06f 8f3d f7a8 a53e e447 a43d
000001c0: cadd 4d3e 6fd3 6bbd 16de e8bd 5159 c53e
000001d0: 9cf7 613d 17c1 163f 0b25 f03d 9fa4 c3bf
000001e0: bf5b 4d3e 96df 0c3f 4333 273e 9ed1 95bb
000001f0: a8fa 2dbe 3946 44be 90f8 e83d e73d b43e
00000200: 6f23 5dbe 7415 153e 28e4 1bbe 1826 2f3f
00000210: f5eb a13d 6a0c 68bd e850 3dbe 058d d0be
00000220: d7c0 273d b2c3 2bbc 53d7 103e baa5 a73c
00000230: cc7e 14bf 1906 ecbd 9234 793e 877c 9abe
00000240: 9028 6e3c 18e8 a23e b269 b73e e3fc bcbb
00000250: 128f ce3c 65ac ed3e 0b94 353e 4e68 f63e
00000260: 6063 843e d896 0a3e cf0b 633c 6ad5 a3bb
00000270: 7a55 c53e 63c7 dabe fbd2 cebe 0a03 b4be
00000280: a43e b53e fe41 1fbe 57ac a2be 9f1e 36be
00000290: b692 213e f820 533e ec2f 32bc 62d1 92bc
000002a0: ba5e 3e3e a8c0 cb3d 5758 54be 48df 2abe
000002b0: fffe 1c3f 42e8 f63d b2bd 2e3f 3680 f2bd
000002c0: 5ed4 5c3d da11 183d b1f5 e8be 2c55 813e
000002d0: 34e9 533d a64d 3f3c af3a 0f3e bbc7 20bd
000002e0: 4f4f 0a3f a3ca d43e 62ef 833d 6516 c4bc
000002f0: aabb 913d 3621 e93c 20da a43e 331e c03e
00000300: 37f3 c83d 58f2 c6be b5a4 1a3f 5656 973d
00000310: fa59 21bf 6496 2d3d ed77 15bf f3e3 87bc
00000320: 5313 f03b 1fa9 e6bd 8589 d7bd 0967 81be
00000330: 0ffe 3d3f 221e 063e fbc1 fa3e aaf5 1e3e
00000340: 25e8 94be e2dc b13e ab05 163f 484f 263e
00000350: 47cc e0be ef3a 693d ef13 043f da2f d83e
00000360: 5a29 d73c 0412 abbc bf7f f4be e36f 93be
00000370: 08ba e1bd b715 0cbd 0f92 c73e 18c6 fa3e
00000380: e02b bfbb 0fd0 94be 5b25 ec3d d6a7 e0bc
00000390: 4e6c 15be a987 0a3e 0eaa d1bd 14fa 523f
000003a0: c6d2 9bbe ff6f 063e c3c1 e43e 11e7 9d3d
000003b0: c426 85bc f98e 303d a247 ffbe 20f4 e13e
000003c0: 098f 873c 657e 04bf f0d1 213c aad7 3b3f
000003d0: dc12 923e 05a2 073e 1f32 01bf 2fe3 b83e
000003e0: da97 dd3d d6ee b8be 780b 7d3e 8245 c7be
000003f0: 286b de3d 2791 efbc 60a8 95be 7d81 2dbe
0.100488156 0.26839554 -0.14494501 0.5620793 0.45723218 -0.41145593 0.060011603 -0.04371354
-0.0027847968 0.2343755 0.060767643 0.25976282 -1.0148094 -0.3360505 0.34756637 0.122242026
0.06444469 0.110609256 0.175345 0.11437685 0.08147923 0.00966472 0.15340689 0.10512276
0.35208252 -0.1371259 0.31858262 -0.019252907 0.030434497 -0.4827792 -0.11647098 -0.88529
0.23807988 -0.5721799 -0.15717317 -0.51918554 0.25067607 0.6010568 -0.1602185 -0.42951196
0.20891885 0.4256849 -0.14034943 0.37348434 0.6171577 0.22553386 0.49678773 -0.0655131
-0.12800756 0.15342793 -0.5119751 -0.07260362 0.08938296 0.15513477 0.22136644 -0.43639615
0.45720583 0.50412834 -0.06687408 -0.06903364 0.22366318 -0.1632094 0.18718375 0.8254906
-0.42548153 -0.052755054 0.11573604 -0.42667058 0.5482486 -0.18133782 0.07199723 -0.029537223
0.6959839 -0.23061083 -0.2804551 -0.07024529 -0.44367474 -0.123821996 0.012670009 0.475805
-0.06648742 -0.12548864 0.7643141 -0.17481185 0.8404904 0.08701441 0.052391253 0.7146852
0.16943659 0.18804847 0.58817625 -0.20634006 -0.0989209 -0.15410644 -0.14146987 0.021595268
-0.16412374 0.48486552 -0.2667079 -0.103606105 -0.015137217 0.18551195 0.1725112 -0.09949646
0.016997412 -0.21545899 -0.5941531 -0.47916144 -0.19010305 0.070037246 0.32355472 0.080215245
0.20104137 -0.057574686 -0.113704845 0.38544706 0.05516778 0.5888838 0.117258154 -1.5284613
0.2005453 0.55028665 0.16328149 -0.0045721075 -0.16990149 -0.19167413 0.113755345 0.35203478
-0.21595548 0.14558965 -0.15223753 0.684175 0.07906333 -0.056652464 -0.18487895 -0.4073259
0.04095539 -0.010483669 0.1414464 0.020464767 -0.58005977 -0.115246005 0.2433646 -0.30173132
0.014536038 0.31817698 0.35822827 -0.005767451 0.025214706 0.4642059 0.17732255 0.48126453
0.25857067 0.13534105 0.013857796 -0.004999806 0.38541776 -0.42730245 -0.4039534 -0.3515857
0.35399354 -0.15552518 -0.3177211 -0.17785119 0.15778622 0.20618045 -0.010875683 -0.017922107
0.18590823 0.09948856 -0.20736824 -0.16686738 0.61326593 0.120560184 0.682582 -0.118408605
0.053913467 0.0371264 -0.45499948 0.25260293 0.05173607 0.011676228 0.1398723 -0.039252978
0.54027265 0.4156085 0.06442143 -0.02393646 0.07115872 0.028458219 0.32197666 0.3752304
0.098120145 -0.3885677 0.60407573 0.07389514 -0.6302792 0.04237975 -0.5838612 -0.016588187
0.0073265224 -0.11262726 -0.10524277 -0.25273922 0.7421579 0.13097432 0.4897612 0.15523401
-0.29083362 0.34738833 0.586024 0.16241181 -0.4390585 0.05694097 0.51592916 0.42224008
0.026264835 -0.020882614 -0.47753713 -0.287963 -0.11021811 -0.034200396 0.3897862 0.4897926
-0.0058340877 -0.29064986 0.115305625 -0.02742378 -0.14592096 0.13528313 -0.102375135 0.8241284
-0.30434245 0.1312866 0.44679078 0.07710088 -0.016253836 0.0431051 -0.4985934 0.44131565
0.016547697 -0.5175536 0.009876713 0.7337595 0.28530014 0.132454 -0.50467104 0.36110827
0.10819979 -0.36119717 0.24711406 -0.38920218 0.10860282 -0.029244019 -0.29230022 -0.16943927

critic.2.bias f4 [64]
00000000: 80f8 a2be 383b aabd c603 4cbe 6f34 87bd
00000010: 8581 70be 6113 873e d22e e33d a24b 1fbe
00000020: 9a92 a43e 19b5 cbbd 1418 85be 0249 22be
00000030: 3c17 35be 6156 75be 7d04 a13e 2829 bbbe
00000040: 1c02 5cbe e78d 043e ebea eb3d e62a 5ebe
00000050: ba02 a3be ae8f fb3d d0b7 b13e da4b 6f3e
00000060: 7199 88be ada5 993e 458c 94be a73a b7be
00000070: ed62 5dbe 5c60 ab3e e92e 913e d513 75bb
00000080: dc47 803e 66ee e6bc 4920 1a3e 975e f23d
00000090: 500c 9b3e 4847 12bd 9547 9bbb c80b 733e
000000a0: ffe5 0ebf 11d2 8e3e 28d8 2b3e a0b5 9c3d
000000b0: bc75 a8be cc9f 4a3e 7982 13bd 0ae6 a4be
000000c0: 024a 5fbe 5e94 59be 1894 8dbe 9c53 893e
000000d0: 1874 b5be f9c6 483e 3132 873d 7c35 f4bd
000000e0: cf22 1abd 5f8b 8bbe aa2d 5c3e f41f bbbe
000000f0: f1a8 8fbe 3772 3fbe 2c63 c1bd c769 39be
-0.31830215 -0.08312076 -0.19923314 -0.06601798 -0.23486908 0.26381972 0.11092915 -0.15556195
0.32143098 -0.09946651 -0.25994933 -0.15848163 -0.17684644 -0.23958732 0.31448737 -0.36554837
-0.2148518 0.12944756 0.115194164 -0.21696052 -0.31838018 0.12283264 0.3471055 0.23368779
-0.26679567 0.30009213 -0.29013267 -0.35786936 -0.21619768 0.33471954 0.28356102 -0.0037395854
0.25054824 -0.02818985 0.15051378 0.11834448 0.3028283 -0.03571251 -0.004738758 0.23734963
-0.55819696 0.27894643 0.16781676 0.0765183 -0.32902324 0.1978752 -0.0360131 -0.32206756
-0.21805575 -0.21248004 -0.2765205 0.268216 -0.35440135 0.19607152 0.0660137 -0.11924264
-0.037630852 -0.2725477 0.21501794 -0.36547816 -0.2805858 -0.18695913 -0.09442744 -0.18106757

critic.4.weight f4 [1, 64]
00000000: 89d4 74c0 da8c 87c0 0236 7ac0 5dce 8a40
00000010: 4247 76c0 844f d440 36b5 d440 b3a7 79c0
00000020: 3bf3 7640 d877 80c0 1fbd 75c0 1cab 80c0
00000030: 883e d8c0 f0db 7ac0 3678 7a40 78c5 d6c0
00000040: d19a d3c0 a563 7e40 b128 8040 4137 d8c0
00000050: 6f17 72c0 f9d5 7a40 ddb6 7240 0ebc 7b40
00000060: 08de 7dc0 bf4f 7640 3959 d4c0 aa05 ddc0
00000070: 46a2 78c0 d28f 97c0 fa16 7440 5262 d740
00000080: a791 7240 f32e 83c0 3a8f d740 7504 8440
00000090: b02f 7840 4540 be40 f61b 8540 94e9 7a40
000000a0: d932 9e40 3121 94c0 427f 7840 95c3 a040
000000b0: bb5b 72c0 0641 db40 d7b2 86c0 7448 d7c0
000000c0: 2dda d5c0 5da3 d9c0 4acf 80c0 29cd 7640
000000d0: fa8e d3c0 9a80 d240 7794 7b40 9a36 7fc0
000000e0: 16b4 a140 9ef7 7bc0 de60 7f40 5ecd d8c0
000000f0: 138e 73c0 d30b 7dc0 516e 7ec0 e38f d5c0
-3.825472 -4.235944 -3.9095464 4.337691 -3.8480992 6.6347065 6.6471205 -3.9008605
3.8585956 -4.0146294 -3.839668 -4.0208874 -6.757633 -3.919674 3.913587 -6.711605
-6.6126485 3.9748318 4.004967 -6.756745 -3.7826803 3.9193099 3.792411 3.933353
-3.9666767 3.8486173 -6.6358914 -6.9069414 -3.8849044 -4.736306 3.8139024 6.730752
3.79014 -4.099481 6.7362337 4.125544 3.8779106 5.9453454 4.159663 3.9205065
4.943707 -4.6290517 3.8827672 5.0238748 -3.7868488 6.8516874 -4.209331 -6.7275944
-6.682883 -6.801192 -4.025304 3.856272 -6.611203 6.5781984 3.9309366 -3.9877076
5.053233 -3.9369884 3.9902873 -6.775069 -3.8055465 -3.9538467 -3.9754832 -6.6738143

actor_mean.0.weight f4 [64, 17]
00000000: b0ed d53e 6181 27bf e1fd f73c 188c 6ebe
00000010: 050c 19bd 9262 0c3e bd30 acbd 9584 34bd
00000020: 14f8 8ebe 851f 7d3e f0b1 31be 3c8f 88be
00000030: 38af 963e 46e7 f4bd d094 39be cb87 ac3d
00000040: 3f98 57be d18e f33d 6bd0 7fbd 91d8 3b3e
00000050: 23fa 02bd 3c90 183f 85c7 3a3e 9f91 003d
00000060: 24f0 963e 3a33 a13e 311e 76bd 9861 3b3e
00000070: 0a9e 4cbe 6e6d 8f3e b6fa 8c3e 499b 1fbe
00000080: 6f29 51bc 242b 083e 2f71 033e 91da c1bc
00000090: ad8c 093e d587 f4bd e22f cbbe c86f b6be
000000a0: 10b9 e33d 5948 b1be 46a8 62be 9f0e bbbe
000000b0: bd39 fa3b 88b6 713e 6d09 6ebe 7937 4f3e
000000c0: e6d2 eabc bf52 5b3e dee3 c43d 1cee 273e
000000d0: 3a8e 8fbe 019c 7dbe ff2a d7bd b791 85be
000000e0: b4fd 6ebe fac8 443e 31c2 a0bd 4451 a3be
000000f0: 6997 a63e 10be 923e b825 b93d cb4a 593e
00000100: 0896 8a3c 8e2d 393e e941 9b3e 2f7d 96be
00000110: 64dd b13e 2e7c 67be 5ec9 49be 488b 4bbd
00000120: 96d0 abbd 102c c33e dcec 27be b24f 303e
00000130: 7339 51be 095e b53e 289e 5b3d 71b4 35be
00000140: 10cf bb3a 2c23 7b3e 1321 74be 9b98 8a3e
00000150: 84bb c0bb 556e 01be 0071 36be 86af 3a3e
00000160: f695 8dbd 3c85 f1be 4f98 5f3e 7593 113e
00000170: 404f dcbd ebc7 81be 824f 3d3e 992c 48bd
00000180: d02f 963e 2657 6c3e 6d24 323e f8a2 e63d
00000190: 9dba 8abd c62b 393f a4f5 9dbd e68e a2bc
000001a0: 3cfc 583e 792a c1bd 084e 973e 4d48 5c3e
000001b0: 1cf9 773e f811 e1bd f20f e6be 3d70 e73d
000001c0: 5223 99bd 7f38 4e3d d5b0 243e b4de 3b3d
000001d0: ee2d de3d 4bd7 623e b405 88bd d3cf 23bf
000001e0: 918e 133f 3e18 003e 9367 9c3e eae0 2a3d
000001f0: b983 823e a1d2 4e3e b2a7 a2be 45d2 a23d
00000200: 5815 0abe aab8 df3d 1373 a43d 9a12 19bd
00000210: b49b 31bd 6521 d3bd 0d4c 103e 746a 833c
00000220: 4649 84be df86 df3b 24d2 7ebd b368 973d
00000230: 49ee 103f 49d1 5c3d 5257 f53d 000e 933e
00000240: 9384 82be 237f 01bd 9b67 f23d 053a b43c
00000250: fa5a f1bb bead 983e 3757 193e e835 8b3e
00000260: f9de 1bbe aecb 36bf b320 c83e 8ab2 2b3d
00000270: b980 523e 4a44 0dbf 06ae 9e3e 2080 943c
00000280: 0fe2 a8be 4ee0 f93d 40a8 633e 1129 65be
00000290: 98b5 033e 47f5 813d 519f 33bd 894a b13a
000002a0: c4d6 3ebe f000 a0bd 3ad7 05bc c03a 533f
000002b0: 9355 71be 3472 c43c c133 e9be c450 293e
000002c0: de59 3b3d 5ebf e7bc aa1d 883e d659 e1bd
000002d0: 2ec6 9fbd f45f f9be 6eb6 393e fc9f 7abd
000002e0: 476f c83d eaea c43c 16ff c2bc 042c 2e3f
000002f0: 9cae 4fbf 888b bbbe a2fa 5fbe 291a 693e
00000300: 1db4 5f3e b583 d137 dd91 ec3e debf 70be
00000310: 9e8a 2abc 0466 cabd 6ab9 14be 2b0a 04be
00000320: 1e73 cc3c 624a 6e3e 1eb5 a4bd 858a 81bd
00000330: 2b64 e9bc d1f4 06bd ec0c fcbe 3e16 a9be
00000340: b38c b1bd 8ab7 f0bd 3d58 d33d c591 d23d
00000350: 190e debd 9410 163e 7cdf 473e 1703 a83e
00000360: b47b 213e ebc4 b23e f212 d2bd 3f45 b5be
00000370: f4b5 39be f4ec 84be d620 403f c1ee 1c3c
00000380: 6a19 843e 5c9f b8be e4ff 38be c9ec 053f
00000390: 7287 363e 8c16 ee3e 5358 af3e edb2 c43d
000003a0: 58a4 283e 06ef 0b3e 525c e83c 3efa 8d3d
000003b0: 803a 3d3e 3f72 4bbd c1d8 233d b921 96bd
000003c0: 553e a33e a3f7 903c 410f 483e bd0a 923e
000003d0: 77d5 3cbe 18c9 383e 53bc 54be 2df4 963e
000003e0: 900f 7b3d 3f19 c93e bf66 b1bd cbcf 86be
000003f0: 6689 cfbc d316 dcbd 636c 89bd 71a8 20be
0.41782904 -0.6543179 0.030272426 -0.23295629 -0.03736498 0.13709477 -0.084077336 -0.044071753
-0.27923644 0.24719055 -0.17353034 -0.2667178 0.29430556 -0.119581744 -0.18123174 0.08424338
-0.21054171 0.118924744 -0.062454622 0.18344332 -0.03197683 0.59595084 0.18240173 0.031388875
0.29480088 0.31484395 -0.060087387 0.18298948 -0.19982162 0.28013176 0.27535027 -0.1558658
-0.012766226 0.13297707 0.12836145 -0.02366379 0.1343257 -0.119399704 -0.3968497 -0.35632157
0.11119282 -0.3462551 -0.22134504 -0.36534593 0.0076362775 0.23604786 -0.23245783 0.20236005
-0.028665017 0.21418284 0.09613775 0.16399425 -0.28038198 -0.24766542 -0.10506248 -0.26087734
-0.23338968 0.19217291 -0.07849539 -0.31897938 0.32537392 0.2866063 0.090403974 0.21219938
0.016917244 0.18083784 0.30323723 -0.29392383 0.3473922 -0.22605965 -0.19705722 -0.049693376
-0.08389394 0.38119555 -0.16398948 0.17217901 -0.20432071 0.35423306 0.053617626 -0.17744614
0.0014328677 0.24525136 -0.23840742 0.27069554 -0.0058817286 -0.12639745 -0.17816544 0.1823102
-0.069133684 -0.47171962 0.21835445 0.14216407 -0.10757303 -0.25347838 0.18487361 -0.048870657
0.29333353 0.2308012 0.17396708 0.112615526 -0.06773875 0.7233242 -0.07712868 -0.01984353
0.2118997 -0.09431929 0.2955172 0.21511956 0.24216121 -0.109897554 -0.4493404 0.11300705
-0.0747744 0.050346848 0.16083081 0.045866683 0.10848604 0.2215244 -0.06641713 -0.6398899
0.57639414 0.12509248 0.3054777 0.0417184 0.2549112 0.20197536 -0.31768566 0.07950262
-0.13484704 0.10923894 0.08029761 -0.037371255 -0.04336138 -0.10309104 0.14091511 0.016041972
-0.25837153 0.006821498 -0.062212124 0.07393017 0.56613594 0.053910527 0.11979546 0.2872162
-0.2549177 -0.031615388 0.118361674 0.022000322 -0.0073655816 0.29820055 0.14974676 0.27189565
-0.15221776 -0.7140454 0.39087448 0.041918315 0.20556916 -0.55182326 0.30992144 0.018127501
-0.3298497 0.12200986 0.22232151 -0.22378947 0.12862241 0.06345611 -0.043853108 0.0013526242
-0.18636614 -0.07812679 -0.00816899 0.8251152 -0.235678 0.023980238 -0.45547298 0.16534716
0.04574 -0.028289493 0.26585132 -0.11003463 -0.07801472 -0.4870602 0.18135998 -0.06118773
0.097868495 0.024037797 -0.023803275 0.6803591 -0.8112581 -0.3662989 -0.21872953 0.22763886
0.21846052 2.4976072e-05 0.46205035 -0.23510692 -0.0104090255 -0.09882739 -0.14523855 -0.12894504
0.024957236 0.23270562 -0.08042358 -0.06325249 -0.028490147 -0.03294832 -0.4922861 -0.33024782
-0.08669414 -0.11753757 0.103195645 0.102817096 -0.10842533 0.14654762 0.19518846 0.32814857
0.15769845 0.3491586 -0.1025752 -0.35404393 -0.18135816 -0.2596203 0.75050104 0.009578408
0.2580064 -0.36059082 -0.18066365 0.5231443 0.17825106 0.46501577 0.34247074 0.0960444
0.16468942 0.13665399 0.028364334 0.069324955 0.18479347 -0.0496695 0.040001635 -0.07330651
0.31883493 0.017696207 0.19537069 0.28523818 -0.18440805 0.18045461 -0.20774965 0.29483166
0.06129414 0.39277074 -0.086621754 -0.26330408 -0.025334071 -0.10746541 -0.06710126 -0.15689255

actor_mean.0.bias f4 [64]
00000000: d828 6a3e 7b99 5a3d b720 e83c 82d3 01be
00000010: 2bf5 923d b879 26bd 21f1 6fbe 9256 66be
00000020: 4074 f63b 43cd 8fbe d8e9 983d 0744 0a3e
00000030: ad3d 353d f033 9ebd 9eae c5bc 1421 acbd
00000040: 46cd 53be b5b2 c6bc 208c 56be 8a90 c23c
00000050: 5d8d 4f3e dd89 25be a98c 1a3e e7ef 0bbd
00000060: 26b0 34be 17ad 9a3e 9bc0 093e 1e0b ba3c
00000070: d1b0 ea3d 1b7a 083e dd7a 86be 67d5 68bc
00000080: 509c 6ebe 1046 c33c 97d4 51be bf54 7e3e
00000090: 9759 72be bf95 763b a491 40be 56cc 5a3d
000000a0: 4f67 2f3c 5793 7b3e 5ab7 943c b6f6 a1bd
000000b0: 20d4 44be 87fc 92be b0b3 8abe e26a 043d
000000c0: 9e46 e7bd 3397 2e3d 4e33 01be 089a 15be
000000d0: 1abc e03b f782 3b3e 0ca6 f7bd 7c30 093e
000000e0: 02ec 063d 4338 36be ac6f c2bc 84b0 79bd
000000f0: b7c5 093d 48e2 083d 0872 0f3d ae45 7fbe
0.22867143 0.053369027 0.028335912 -0.1267834 0.07175668 -0.040643424 -0.23431827 -0.22493961
0.0075211823 -0.2808629 0.07466477 0.13502513 0.04424827 -0.0772475 -0.024131116 -0.08404747
-0.20683774 -0.024255136 -0.20951891 0.023750562 0.2026877 -0.16165872 0.1509272 -0.034164336
-0.1764532 0.30210182 0.1345238 0.02271038 0.11459506 0.1332783 -0.26265612 -0.014211035
-0.23301816 0.02383712 -0.20491253 0.24837016 -0.23666988 0.0037625877 -0.18805557 0.053417526
0.010705783 0.24567924 0.018153835 -0.079083845 -0.19221544 -0.28708288 -0.27090216 0.032328494
-0.11292766 0.042624664 -0.12617227 -0.1460954 0.006858361 0.18311678 -0.12092218 0.13397402
0.03293992 -0.177949 -0.02373489 -0.060959354 0.03363582 0.033418924 0.035020858 -0.24928924

actor_mean.2.weight f4 [64, 64]
00000000: 201e 0e3f 687f 31bd 906a 2d3d 1e92 633e
00000010: 70b1 4ebd e5f1 d6bd 6737 c23e 4ad1 dcbe
00000020: 4682 a3be 53d7 babe 3574 2a3e 24dd 86bd
00000030: b112 e13d 3b88 b0be c3cb e53d 27c4 193e
00000040: c95b 84be d81a 8fbd 4653 83bd e82a 27be
00000050: 7e6b d2bd 7f20 1e3e c837 6c3d b293 42be
00000060: 4792 66be decd a73d 5f01 d0be cf22 763d
00000070: 7285 913e d62b 1cbd 251d 31be 2ef8 4e3e
00000080: da0e c83d d8e8 cbbc 65bc 0dbe 1eb2 bdbe
00000090: 63b1 cebd 7387 4dbe cae8 ff3d 844f d83d
000000a0: 7abf 373e 0372 16be ff2f 173e 55ef 54bd
000000b0: faa9 6dbe 9121 5abe ad32 213e a0ce 043e
000000c0: 5d8d 86bd 971c 0abf 3e03 59be c2e0 15be
000000d0: ff68 9b3c d7fa 61be 070f 03bc d62a e3bd
000000e0: 43ac afbc d1a7 893e 20b5 09be 71d3 593e
000000f0: d2fa 93bc 2394 c63d 3e26 2d3e 32bc 0fbd
00000100: 8967 2c3e 3b5c 353e f19d b73d b763 6f3e
00000110: 4a70 8f3d 3e51 13be 3232 af3d a688 95be
00000120: 9cc4 b4be d13e 3c3e b566 5f3d 39bf c7bc
00000130: e9e3 d3be 71f9 093e f40f 1a3e 1438 0a3e
00000140: 866f afbe b50d 653e d68c 5c3b 2956 43bc
00000150: 90c6 39be 4c21 b93d bc41 a4be 55bd edbe
00000160: 74dc 103e 41d0 9ebd 24d4 b6bd 4230 903e
00000170: 741f b1be 4253 bb3d 2a8f 4cbd 5af5 e73e
00000180: 125b 3fbe a802 373e 84c0 103e 365b 423e
00000190: 1cce 073d 534e cdbc fd62 35bd ede9 c4be
000001a0: 6605 743e 8048 69bd b573 b73c 54a4 253e
000001b0: d4c7 bfbe 3846 89be eaed 2f3e 326d 54bd
000001c0: 12a6 d53e 2437 083e 50ce fe3c a048 babd
000001d0: 0fad b4bd 3c64 c5bd 2781 023e 0e58 b1bd
000001e0: f7b9 1fbe c857 0d3e 2249 bf3e 7f86 963e
000001f0: a881 623d 40c3 9d3e a297 79be c97a 913e
00000200: 9378 e1bb 2456 a8bd 5419 003f b3ad 0fbe
00000210: db1c 6cbe e55d 3ebb 1043 18be 3265 e73d
00000220: 65f3 adbe 4771 84be f5bf 2b3d 0c98 76bd
00000230: 439e 53bd 09a9 81be d9b0 d23d a009 f7be
00000240: a4f3 eebd e5eb 74be b33c 87be b1d4 43be
00000250: 9265 7abe da9a b83b e07c ba3d 0721 6e3e
00000260: 4205 b33e 7535 4bbd f1cb 673d 2523 aebc
00000270: 23ef 633e 3c64 3b3e a399 72be cb85 a839
00000280: e23e 803d 3723 0a3e 98cc 6a3e e2eb 873e
00000290: f2b5 93bd 3e70 8b3e 7d30 063e 6f33 f53d
000002a0: 250e 8cbe 3dc6 b8be 9760 19be 0fca 413d
000002b0: 60a6 e93e 6810 863e cd38 e93d b583 983e
000002c0: 6324 813d bab7 d43c bb94 733e 2809 32bd
000002d0: 68a3 f8bd 3ff5 bf3e 1abd 46be 086d cdbd
000002e0: a780 56be 5371 cebd 063f c53e 208d 1bbd
000002f0: 81c9 1fbe fa0d 03be 364b f3bc a123 bb3e
00000300: c51e 943e c2fd 7c3e a23e 53bd ca74 ac3c
00000310: afb1 f63b 83e6 15be 08b0 97be 8a9b e5be
00000320: 170f 0f3e 7d96 3dbe 7524 4c3e ae8f a03e
00000330: c355 e8bb 0a8c 24be 52d6 01be c15d dfbd
00000340: db26 c6be 05bc 8c3b 5ba4 7ebb 8ed9 b33e
00000350: d4bf 0bbc b88d c33e 3fda b13d f8b6 cebd
00000360: 5c56 2fbd b087 443e be0d ad3e 24fc 4d3e
00000370: d5ac 4c3d a36a 9d3e 8160 153d 6589 153d
00000380: 9fe7 233e a69a 023e 8ca5 e53d 1e90 afbd
00000390: 2431 24be fa38 eb3e 75d5 c8bc 3953 8e3e
000003a0: 9619 46bd 2d5f b6bc 744d 8ebe 4a25 f43d
000003b0: 326f ebbd 042d 52be 2610 f2be 66ea d3bb
000003c0: b44d b2bd 6c65 41be 91c6 09bf fb6d aa3d
000003d0: ce6f 3f3e b17c ae3e 1f1f 713c 97d6 003e
000003e0: 992e 1ebe 413e 54bd 9110 13be bda5 743e
000003f0: bd8c 7c3e 0fac b83d cf82 473e 0fa5 01be
0.5551472 -0.043334395 0.042337954 0.22223708 -0.050462186 -0.104953565 0.37932894 -0.43128425
-0.31935328 -0.36492404 0.16645892 -0.06585148 0.10989893 -0.34478936 0.11220505 0.15016232
-0.25851277 -0.06987542 -0.064123675 -0.16324961 -0.10274409 0.15442084 0.057670385 -0.19001654
-0.22516738 0.08193563 -0.40626046 0.06009179 0.28422123 -0.038127743 -0.17296274 0.2021186
0.09768458 -0.024891302 -0.13841398 -0.37049955 -0.100924276 -0.20071201 0.12495573 0.105620414
0.17944136 -0.1469193 0.14764403 -0.051986057 -0.23209372 -0.21301867 0.15741988 0.12969446
-0.06569932 -0.53949875 -0.21192643 -0.1463652 0.018970964 -0.22068344 -0.007999188 -0.11092155
-0.021444445 0.26885846 -0.13448 0.21272065 -0.018063936 0.096962236 0.1690912 -0.035091586
0.1683637 0.17710964 0.08965672 0.23377882 0.07003839 -0.1438646 0.08554496 -0.29205817
-0.3530625 0.18383338 0.05454131 -0.024383174 -0.4138482 0.1347406 0.15045148 0.13497955
-0.34264773 0.2236851 0.003365328 -0.011922398 -0.18142152 0.09039554 -0.320814 -0.4643351
0.14146596 -0.07754565 -0.08927181 0.28161818 -0.3459431 0.091467395 -0.04994122 0.45304376
-0.18687084 0.17872107 0.14135939 0.18980107 0.033155546 -0.025061762 -0.044283856 -0.3845972
0.23830184 -0.056953907 0.02239404 0.16175967 -0.37457144 -0.26811385 0.17180601 -0.05186195
0.41728264 0.13302284 0.031104237 -0.09095883 -0.08822071 -0.09638259 0.1274458 -0.08659373
-0.15598284 0.13803017 0.37360483 0.29399487 0.05529943 0.30813026 -0.2437425 0.2841399
-0.0068808286 -0.08219555 0.5003865 -0.14031105 -0.23057882 -0.0029047665 -0.14869332 0.11298598
-0.33974758 -0.25867674 0.04193111 -0.060203597 -0.051664602 -0.25324276 0.10287637 -0.4824953
-0.116675645 -0.23918112 -0.26413497 -0.19124104 -0.24452808 0.005633694 0.09105849 0.23254786
0.3496495 -0.049611527 0.056590978 -0.021256993 0.22259192 0.18299955 -0.2369142 0.0003214314
0.06261994 0.13489996 0.22929609 0.26547152 -0.07212438 0.27234071 0.13104434 0.11972701
-0.2735454 -0.36088744 -0.14978252 0.04731184 0.45634747 0.26184392 0.11387787 0.29787984
0.06305768 0.025966514 0.23787205 -0.043465763 -0.12140542 0.37491795 -0.19408074 -0.10030562
-0.20947514 -0.10080209 0.38524646 -0.037976384 -0.15604211 -0.127983 -0.02969895 0.3655062
0.28929725 0.24706176 -0.051573403 0.021051783 0.0075285058 -0.14638714 -0.2962649 -0.4484523
0.139706 -0.18514438 0.19935782 0.3135962 -0.0070903017 -0.16069046 -0.12679413 -0.10906554
-0.3870152 0.0042948746 -0.0038855288 0.3512692 -0.008529622 0.3819406 0.08684205 -0.10093492
-0.042806968 0.19192386 0.33799547 0.20115715 0.049969513 0.3074542 0.036468986 0.036507983
0.16006325 0.12754306 0.11213216 -0.0857241 -0.1603437 0.45941907 -0.024515847 0.2779787
-0.048364244 -0.02226218 -0.27793467 0.11921175 -0.11495818 -0.20524985 -0.47277945 -0.0064671515
-0.08706227 -0.18886346 -0.53818613 0.08321758 0.18694994 0.34079507 0.0147168925 0.1258186
-0.15447463 -0.051817182 -0.14361788 0.23891349 0.24663062 0.090171926 0.19483493 -0.12660621

actor_mean.2.bias f4 [64]
00000000: eb49 813e 50f8 413c 6ee5 33bd c5b0 8a3e
00000010: 2333 7ebe 3494 08bc a50c 683e 00b3 71be
00000020: 9d98 0d3e 02e5 7e3e c9c3 bcbd e800 95be
00000030: f30e 363e 31b7 94bc 9991 7b3d 1397 2fbe
00000040: 0f1b 3f3e 88f0 533e d048 0a3e 8905 99be
00000050: 571a 8ebe bf7d 563e c2f4 bf3d 4a22 af3d
00000060: 7e92 e73d fd4b 7a3d cd4a 883e ca5e 253e
00000070: b760 52be bd66 873e 3ed7 75be cb86 9fbd
00000080: e8ba 02be 708a 8e3d 4d70 263e 186d 913e
00000090: 283d 903e 3f59 a9bd e5d9 15bd 2b13 cc3d
000000a0: ab7d 67be 5fcb 443e 07a1 943e 365b b83e
000000b0: 7a19 c7bc 622f d83d 4d82 a63d c352 2b3e
000000c0: a2e1 6bbe d166 bc3e 89dd 40be 8440 80be
000000d0: 995a 61be 9c2b 2fbe 384b 05be a83b 75be
000000e0: ab14 d13c 4de3 02be 6fb1 55bd dcb4 1b3e
000000f0: d408 8bbd 10c2 6ebe 7def 683e acdb c9bc
0.25251707 0.0118389875 -0.043919973 0.2708799 -0.24824195 -0.008336116 0.22661074 -0.2360344
0.13827749 0.24892047 -0.092170306 -0.29102254 0.1777914 -0.018153759 0.06141815 -0.17147474
0.18662666 0.20697224 0.13504338 -0.29887035 -0.2775447 0.20946406 0.09372856 0.08551462
0.11307238 0.061107624 0.26619568 0.1614944 -0.20544706 0.2644557 -0.2400789 -0.077893816
-0.12766612 0.069599986 0.16253777 0.28403544 0.2817166 -0.082689755 -0.036584754 0.099645935
-0.22606532 0.19218205 0.29029104 0.36007088 -0.02430414 0.105559126 0.08130322 0.1673079
-0.23035291 0.36797193 -0.18834509 -0.25049222 -0.22007217 -0.1710648 -0.13016975 -0.23948538
0.02552255 -0.12782021 -0.052171167 0.15205711 -0.06788793 -0.23316216 0.22747608 -0.02464088

actor_mean.4.weight f4 [6, 64]
00000000: 2461 893e 835e 463e 4f78 afbd a466 803e
00000010: 92de 31be ff21 e93d dee3 1d3e 10f5 30be
00000020: 508d b83d 26e6 cc3d 03d4 23be f7af 90bd
00000030: c79f 1e3d a941 933d ef96 493d 388a 0abd
00000040: 3ee7 6c3e c206 273e 0ee9 ddbd c15f 543d
00000050: bef2 a03d 5ddd 923d 289c ce3c accb a33d
00000060: fcbd 133d b554 163c 6137 263e 3906 643d
00000070: ec03 bebd c284 863e ab23 0ebe d53f 0d3d
00000080: 5f0d 45ba bbef 4fbe 7864 7d3e 383a 873e
00000090: 5ae6 d53e 8d2f dd3d 4db8 813e 41ce 973e
000000a0: 71c7 a1be 38e2 873d 2ec0 213e 0c46 9b3e
000000b0: 6160 b8bd 68ef 3fbd 22c4 3b3e 1f63 33bd
000000c0: 6792 abbd 0b26 903e 8ce6 3fbe 7d4f 58be
000000d0: 6f2f cebe d1c3 38be e496 03be 612e 6b3d
000000e0: 1f50 243d 350b c1bd b351 9abd ef67 3b3c
000000f0: 8403 babd 34bd 61be c5a6 113e abfe 8ebd
00000100: 5b4a c83d 166b 313e 89ae 26be e787 0e3c
00000110: e7b7 d8be 4bc4 0ebe 0cd1 0e3d 8593 51be
00000120: 907f 06be 65a9 503e fd2b afbd 69c8 82bd
00000130: 016c 263e e0ec f43d 789f 7ebd e0b5 a0be
00000140: 18aa 993e 5e71 dd3d 701d f3bd 6d67 12be
00000150: 1ad0 1fbe b907 fc3c a1ca 1d3e 9728 1b3d
00000160: 46d2 eebd a4f1 b13d 1fe0 31bd e89f abbd
00000170: 8cda b2be 7b1a 023e 91d0 1bbe 04c6 cebd
00000180: 81b0 49be 0d1b 2d3e 7194 2f3e bee4 9d3c
00000190: 73ed 333e ad47 893c 8f6b babd ed37 bc3d
000001a0: e813 ae3c 23f4 d4bc e7bf 173e a644 4a3e
000001b0: 4730 36bd d606 05bd 3f6b 323d d9d9 243e
000001c0: ca1a 96bd 0c03 8b3e 78ae e8bc ddc2 d63d
000001d0: 8656 413b 8331 26be 9be7 5fbe d6bc 07be
000001e0: a122 9bbd 778c d2bc 90c3 103d 362d bf3d
000001f0: b96c 86be 643b 89bd e8df 983d 3a50 abbd
00000200: 5069 ccbd 9175 9b3e 7c91 593e 63ba 463d
00000210: e3b8 723d b195 573e 8cfd 95be 5790 53be
00000220: 9b9f f93d 8ed7 783e 4e9b 743e fbad c5be
00000230: 8adf b93e 27ec bf3e e8f0 173f 40cd fd3d
00000240: d968 00bd 4087 a33e 68db 893e 5311 bbbe
00000250: da06 ddbe a61f 7e3e 1ed8 81be ce38 a2bd
00000260: 739e e2bd f30d 113e 58e0 bdbe 6f42 3f3e
00000270: a2da c73d e84b a7bd c785 76be fa14 5fbd
00000280: 8dc5 833e a44d c83c 0883 90be 7b77 3fbe
00000290: 916b 67be 7c3a 383e 2589 cc3d 6916 16bf
000002a0: a9f7 183e 2a34 9bbe 4dde d53d c304 093e
000002b0: 1cde 7f3d 52dd 073f 27c9 0cbe 8ffd 63be
000002c0: 8b4c 8ebe 8fad bdbc 7faf 86be 294e 513e
000002d0: f50e ad3d edf0 56be 48c1 093c 8ac1 8cbe
000002e0: 9c45 46be 6337 ba3e a4b1 483c 4c4f 3d3e
000002f0: 0f83 63be 2114 4c3e 7d74 8c3e 1513 5ebd
00000300: aa42 353e b489 7f3d 6d91 3dbd 5f6c 2e3e
00000310: 82f8 acbd 806a 133e bef5 ab3d 8b68 4ebe
00000320: 2d7c 81bd 59c3 ab3d f012 0ebe 3a83 48be
00000330: 7fe7 b23c 71f9 b1bb 4968 6abd 3001 d8bd
00000340: 18c9 e93d e803 043e be4b de3d cb89 25be
00000350: 8b16 83be efc8 e13d a35b 1fbc 1fe1 15be
00000360: 5a3b 7e3d 57bf 1b3e ddda 70bc 05d8 f639
00000370: a6d7 b0bd 6e0b 5e3e 6570 9bbe 58c2 69bd
00000380: b65b ad3d e514 82bd 35fa c0bd 2b41 0b3d
00000390: 810c 213e 969b ef39 4eed 8dbb 410f 9c3d
000003a0: 08f2 1fbe 2910 df3d 6b2b 143e 9dd6 f43d
000003b0: a7e3 08be bcb6 543c 131a 0ebd 15a9 99bd
000003c0: 2e33 87be 0adb 3b3e ea91 17be 6ac1 0bbe
000003d0: c261 64be 1477 27be e7ed 4ebd ed1c 11be
000003e0: ac98 fa3c b637 efbb e493 c2bd f3d6 4a3e
000003f0: a029 3bbe 1565 96bd e6e2 1f3e 2d98 603d
0.26831925 0.19371991 -0.08567869 0.2507831 -0.1737006 0.11383437 0.15418956 -0.17280984
0.09011328 0.10004835 -0.15998845 -0.07064813 0.038726594 0.07190258 0.049216207 -0.033823222
0.23135087 0.16311172 -0.10835467 0.05184913 0.078587994 0.07171128 0.025220945 0.07997832
0.036069855 0.009175469 0.16232063 0.055669997 -0.09278092 0.2627316 -0.13880794 0.034484703
-0.0007516946 -0.20306294 0.24745357 0.26411605 0.41777307 0.10800085 0.25335923 0.29649547
-0.31597474 0.06634945 0.15795967 0.3032688 -0.09002758 -0.046859175 0.18336537 -0.0437957
-0.083775334 0.28154024 -0.1874029 -0.21124072 -0.40270564 -0.18043448 -0.12850529 0.057417277
0.040115472 -0.09425966 -0.07535114 0.011438354 -0.09082702 -0.22044832 0.14223774 -0.06982168
0.09779807 0.17326006 -0.16277517 0.008699394 -0.42327806 -0.13942067 0.03486733 -0.2046643
-0.13134599 0.20377119 -0.08553312 -0.063858815 0.16252138 0.11959243 -0.0621638 -0.3138876
0.30012584 0.10812639 -0.11870849 -0.14297266 -0.15606728 0.030765401 0.15409328 0.037880506
-0.116612 0.086886674 -0.04342663 -0.08380109 -0.34932363 0.12705414 -0.1521628 -0.10096362
-0.19696237 0.1690485 0.1714647 0.019274112 0.17571048 0.01675781 -0.091025464 0.091903545
0.021249726 -0.02599532 0.14819299 0.1975275 -0.044479635 -0.032477222 0.04355931 0.16098727
-0.07329328 0.27150762 -0.028403506 0.10486386 0.0029501035 -0.16229825 -0.21865694 -0.13255629
-0.07574964 -0.025701744 0.035342753 0.09334795 -0.26254824 -0.06700781 0.07464582 -0.083649114
-0.09981024 0.30363134 0.21246904 0.048517596 0.059258353 0.21053196 -0.29295003 -0.2066053
0.121886455 0.24300978 0.23887369 -0.386093 0.3630336 0.37484857 0.5935197 0.12392664
-0.03134999 0.31939125 0.26925206 -0.36536655 -0.4316929 0.2481676 -0.25360197 -0.07920991
-0.11065378 0.14165477 -0.37085223 0.18677686 0.09758498 -0.08168775 -0.2407447 -0.054463364
0.25736657 0.024451084 -0.2822497 -0.18697922 -0.22599627 0.1799106 0.09987096 -0.58627945
0.14938225 -0.30313236 0.10442791 0.13380723 0.06246768 0.53072083 -0.13748609 -0.22264694
-0.27792773 -0.023154048 -0.26305768 0.20439972 0.084501185 -0.20990343 0.008407898 -0.2749141
-0.19362491 0.36370382 0.012249384 0.1848728 -0.22217964 0.19929554 0.27432624 -0.054217417
0.17701212 0.062387183 -0.046281267 0.17033528 -0.084458366 0.14396095 0.08396481 -0.20157067
-0.06322513 0.08386869 -0.13874412 -0.19581309 0.021838902 -0.005431347 -0.05722836 -0.105471015
0.11415309 0.12892115 0.108542904 -0.16165845 -0.25603136 0.11024653 -0.009726438 -0.14636658
0.06206832 0.15209709 -0.014700619 0.00047081723 -0.08634882 0.21684048 -0.30359188 -0.057070106
0.08464758 -0.063516416 -0.09422723 0.033997696 0.15727426 0.00045701553 -0.0043312674 0.07620097
-0.15619671 0.10891754 0.14469688 0.11954997 -0.13368092 0.01298302 -0.034692835 -0.07502953
-0.26406235 0.18345276 -0.14801756 -0.13648 -0.22302917 -0.16354018 -0.05051985 -0.1417119
0.030590378 -0.0073003424 -0.09500864 0.19808559 -0.18277597 -0.073434986 0.15613899 0.054832626

actor_mean.4.bias f4 [6]
00000000: abf9 9f3e 4363 513e b85c 02bc 3e91 383e
00000010: 5451 243e 44e2 313d
0.3124517 0.20448022 -0.007956676 0.18024155 0.16046649 0.043428674
