DATA403_final/checkpoints/Walker2d-v4/PPO_5467.pt (torch, 48717 bytes, 12 tensors)

actor_logstd f4 [1, 6]
000000 34 d1 68 3f 8a 6c 5c 3f 8e 3a e9 3d 9b 45 85 3f
       0.9094422 0.8610312 0.113881215 1.0411867
000010 57 fb 6c 3f 9d ba 25 3f
       0.92571014 0.64737874

critic.0.weight f4 [64, 17]
000000 56 ed 1f bf 39 25 95 3d ce 7f a2 be 78 57 13 bf
       -0.6247152 0.0728249 -0.31738132 -0.5755534
000010 cf 1f 6a be ad 65 1a 3e c5 43 a2 be a9 ee df be
       -0.22863697 0.15077849 -0.3169233 -0.4373677
000020 c5 2f 6d 3f aa b9 fd 3e 88 39 1a bc ef 08 89 bd
       0.92651016 0.49555713 -0.009413131 -0.06691157
000030 5c f6 3c bd 03 d0 21 3c 95 84 04 3d 2f cc 9b bc
       -0.046133384 0.009876254 0.032353003 -0.01901826
000040 7e d4 8c bc d4 d9 b8 be 7a 98 01 3e 06 9b a4 3d
       -0.017191168 -0.3610369 0.12655821 0.08037381
000050 c8 b9 d1 be c1 01 ad be 84 98 b8 3e e9 71 e0 be
       -0.40962052 -0.337904 0.3605386 -0.43836907
000060 28 be 0b bf a2 f5 0d bf b4 3e 8f bb ea 1d 65 3e
       -0.5458703 -0.5545293 -0.0043714885 0.22374693
000070 e8 5f d9 bc f2 b2 5d 3d 78 2b ba 3b b7 64 60 be
       -0.02653499 0.054125734 0.0056814514 -0.2191342
000080 3e f3 91 3d 4c 95 81 bc 55 3d e9 bd 9f cc 66 3f
       0.07126473 -0.01581826 -0.11388651 0.90155977
000090 41 a2 5c 3f 31 40 db 3e 14 fe 14 3d b8 53 34 3f
       0.8618508 0.42822412 0.03637512 0.70440245
0000a0 b0 9d f7 3d 46 c0 98 3e 64 5f 3d 3e 5b d1 3c 3e
       0.120906234 0.29834193 0.1849342 0.18439238
0000b0 eb 4b 10 be b4 70 90 3c 2f 1a 82 3d a7 c4 86 3c
       -0.1409146 0.017631866 0.063526504 0.016451193
0000c0 5a 6f 1c 3b 0b bc 9c 3d 21 14 09 3c de 2c 15 bf
       0.0023870082 0.07653054 0.0083666155 -0.58271587
0000d0 37 7a fe bd 81 06 00 3f 3c 44 19 3f 10 79 bf 3e
       -0.124256544 0.50009924 0.5986974 0.3739705
0000e0 d7 7b 99 3f 25 fd 8a 3f 74 c8 c0 3e 37 23 29 be
       1.1990918 1.0858504 0.37652934 -0.1651734
0000f0 12 39 0c 3f 8a 4a 00 3f 66 c3 0c be 93 f4 d7 bd
       0.5477458 0.5011374 -0.13746414 -0.10544696
000100 ce 43 67 bc c9 bc 3d be 1f f8 0f be 50 18 9e bb
       -0.014115287 -0.18529047 -0.14059494 -0.0048246756
000110 bf 91 a2 3e d3 f1 66 bd 58 ef e9 3e 96 3e 4f 3f
       0.3175182 -0.056382965 0.45690417 0.80954874
000120 1e 70 aa 3e 1a f9 96 3e 35 0c 92 3e 78 81 c5 bd
       0.33288664 0.29486924 0.28524938 -0.09643835
000130 a2 66 1d bf d8 06 5a 3e ce a3 16 be 66 5f 3f 3c
       -0.6148473 0.21291673 -0.14710924 0.01168046
000140 43 59 07 3d 8d 74 55 3d fc 58 19 3e ed 39 b5 3d
       0.03304411 0.052113105 0.14975351 0.08848939
000150 54 87 e3 3c 4b cf 5f 3f 0a 47 d1 3b da 14 2c 3f
       0.02777449 0.8742568 0.0063866423 0.67219317
000160 ae 16 26 3e 13 ff f6 bd 36 59 b3 be cf bd 13 3d
       0.16219589 -0.1206037 -0.35029 0.036069687
000170 ee 11 8f 3f 1b 4b 87 3e 75 ec 5d 3e f0 6e 7a be
       1.1177347 0.26424488 0.21672232 -0.24456382
000180 f8 bb a6 3d a6 68 07 3d fc 42 12 3b 02 fc 1f 3e
       0.08141321 0.033058785 0.0022317758 0.15623477
000190 ef e7 88 3d 9f e4 87 3b a7 7e 24 3f d2 fa 10 3e
       0.06684863 0.004147127 0.64255756 0.1415818
0001a0 fa 26 97 be d1 3a 44 bf 21 ea 1c bf a8 bb 64 bf
       -0.29521924 -0.76652247 -0.6129475 -0.8934884
0001b0 09 e0 1c bf ff 09 51 be dc 12 d7 be d4 93 37 3e
       -0.6127935 -0.2041397 -0.42006576 0.17927486
0001c0 bb dd 94 3e a7 91 6f be db b4 c6 bd 78 d1 20 3d
       0.29075417 -0.23395406 -0.09702464 0.039262265
0001d0 33 87 f0 bc 3d 02 95 3c 5e 3d 16 3d cb f1 04 3f
       -0.029361343 0.018189544 0.036679618 0.51931447
0001e0 c1 8f 2a bf e7 05 10 be b2 3e 06 3e 0f 1f 36 3f
       -0.666256 -0.14064752 0.13109854 0.7114114
0001f0 82 aa aa bd 06 84 8f be 92 65 f1 be 4c c4 1f bf
       -0.08333303 -0.28030413 -0.47147804 -0.624089
000200 41 e8 89 be 46 3b 85 3e 6d 86 57 bd d3 73 49 bd
       -0.26935008 0.26021785 -0.052618433 -0.049182724
000210 04 12 e7 bb bb e2 38 bd eb 61 6b bd 56 56 82 bd
       -0.007051708 -0.045138102 -0.05746643 -0.063641235
000220 3d da e0 3c 93 94 5d bf 9b b1 93 bd da da 22 be
       0.027447814 -0.8655483 -0.0721161 -0.15903798
000230 8f e0 50 bd 94 73 11 3f c8 04 09 3f 9e c2 f2 3d
       -0.050995406 0.56816983 0.5352292 0.118535265
000240 d1 7c 74 be b4 4d 7b 3e 55 79 4f bd 5d 09 b5 3c
       -0.23875739 0.2454136 -0.05065282 0.022099191
000250 59 a6 c2 3c ff 61 46 3c 7e 26 b8 3d a3 33 97 3d
       0.023760961 0.012108325 0.08991717 0.07382896
000260 97 fd 42 3c 9f c7 d8 be a8 ab 2a be 39 c9 1f be
       0.011901281 -0.423398 -0.16667044 -0.15604104
000270 7d 3a 55 3e 3b f3 ae be 5c 38 6d 3f 3b 76 fe 3e
       0.20823093 -0.34169945 0.9266412 0.49699578
000280 61 3d b8 be 45 8b 0b bf ac 1b 44 3e 7f 88 ae 3e
       -0.35984328 -0.54509383 0.19151181 0.34088513
000290 48 1e d5 bd cd cb 36 bd 1b eb 56 bd 7b ba 31 be
       -0.10406166 -0.044627953 -0.052470308 -0.17356293
0002a0 56 41 ab bd 46 91 46 bd 21 a1 43 3e 78 b7 7d 3f
       -0.08362071 -0.048478387 0.19104435 0.99108076
0002b0 eb 1e 3f bf 9f 5f 65 bf ff e2 bb 3d b0 79 59 bf
       -0.7465655 -0.8959903 0.091741554 -0.84951305
0002c0 9b 9e be be 5f 52 8a be a5 3d 2f 3c 96 c3 94 be
       -0.3723038 -0.2701597 0.01069585 -0.2905547
0002d0 99 a5 65 3e 83 ef 4a be 8c 56 d3 bd 59 60 54 3d
       0.22426452 -0.19817929 -0.10319242 0.051849697
0002e0 9b 16 c3 bc 4a 6d 8d bc 8c dc 05 3d 12 54 e9 be
       -0.02381449 -0.017264027 0.032681033 -0.45571953
0002f0 37 0b 85 3f 3f 19 50 bf 09 5b 8a be 7c 86 b9 3e
       1.0394047 -0.8128852 -0.2702258 0.36235416
000300 ea 27 63 be 8b 02 3e bd d1 b4 89 be 4e d3 90 bd
       -0.22183195 -0.046389144 -0.26895764 -0.07071553
000310 92 93 85 be 3f cf 25 be 15 68 2c 3b 66 e4 98 bb
       -0.2608915 -0.1619234 0.0026307155 -0.004665899
000320 9e 6b 92 3b 84 c1 14 3e 12 50 80 3d 52 4e 5c 3c
       0.0044683954 0.14526945 0.06265272 0.013446407
000330 51 81 1b 3e 15 af c2 3f 46 24 1e be 01 6f e3 bd
       0.15186049 1.5209681 -0.15443525 -0.11105157
000340 f9 53 a8 3d 6d 6a 88 3e 9b 7c 13 3d a3 51 2f 3e
       0.082191415 0.26643696 0.036007505 0.17120986
000350 13 26 12 3f 3e f1 06 3e d4 71 43 be bd 13 be bc
       0.57089347 0.13177964 -0.1908639 -0.023202771
000360 b9 7f e9 bc 6e 68 e5 bb 14 0f df 3d d7 72 d0 3c
       -0.028503286 -0.0070009744 0.10891548 0.025445385
000370 d1 2a 0a 3a 10 4d 56 3f 42 8d dc be ff f0 32 be
       0.00052706624 0.8371134 -0.4307652 -0.17474745
000380 fd 02 bb 3e 83 55 4e 3f 6e 75 e8 be a8 31 ed be
       0.36525717 0.8059923 -0.45402092 -0.46326947
000390 c0 87 06 3f c9 60 dc 3e e2 7d 8a 3e 71 97 3e bd
       0.5255089 0.4304259 0.27049166 -0.046531145
0003a0 d3 23 5b be b1 9c 03 be be a0 82 3c f9 d8 74 3e
       -0.21400385 -0.12852742 0.015945788 0.23910893
0003b0 32 af db 3d 03 05 11 3c f2 d5 95 3d ff 3a 09 bf
       0.10726775 0.008851293 0.073161975 -0.53605646
0003c0 c6 1f b5 3e 33 34 0f 3f 66 13 00 3f c8 ef 98 3e
       0.35375804 0.55939025 0.500296 0.2987044
0003d0 c1 7c a3 3d da 66 0c be 17 82 d7 3e 2c 18 b9 3e
       0.07982779 -0.1371111 0.42091438 0.36151254
0003e0 f0 e8 3b be bb 68 76 3e 2e 48 ad 3d 7f 89 82 3d
       -0.18350577 0.24063389 0.08461033 0.063738815
0003f0 66 c7 c5 bd 34 bf 52 bd ae 89 84 3d a0 b4 3f 3f
       -0.09657173 -0.051451877 0.06471573 0.74884987

critic.0.bias f4 [64]
000000 81 8e 32 be 91 2f ca be be 6e e1 be 55 33 7a 3d
       -0.17437173 -0.39489415 -0.44029802 0.06108411
000010 23 8b 07 3e a2 58 c8 3e 13 08 b3 3e 38 de 93 be
       0.1323667 0.3913012 0.34967098 -0.28880477
000020 2a 0c 03 3f b2 60 bf 3e d1 00 f7 be 25 aa 1b bf
       0.51190436 0.3737846 -0.4824281 -0.60806495
000030 99 d5 0c bd c3 52 02 3f 4e 80 c1 3e 8f 9c 1f 3f
       -0.03438339 0.50907534 0.377932 0.62348264
000040 22 d1 d8 bc 0b cb 91 3e 0d 67 e2 3d 54 c3 59 be
       -0.02646691 0.28475222 0.110548116 -0.21265918
000050 ad 04 9d 3e c9 c6 aa be e6 e4 30 bf 13 a9 6d 3e
       0.3066763 -0.33354786 -0.6909927 0.23209028
000060 c1 c1 26 bf fc 07 0e 3f 2e ca 65 3d 8d 9d 06 be
       -0.65139395 0.55480933 0.056101017 -0.13146038
000070 d1 1c f0 be 41 5e 52 bd 50 9f 92 be 42 e5 4a bd
       -0.46896985 -0.05135942 -0.2863717 -0.049535044
000080 fb ca 12 bf 4b 6d 01 be bd f5 89 3e c5 88 98 be
       -0.57340974 -0.12639348 0.26945296 -0.29791847
000090 2f 4d 4a bf 78 ed b8 3d 29 54 46 bf 30 db 3b be
       -0.7902402 0.090296686 -0.7747217 -0.18345332
0000a0 6f 25 fd be 25 8c 08 be 70 44 03 bf d6 71 1c bf
       -0.49442622 -0.13334711 -0.512763 -0.611112
0000b0 69 33 e4 bc ae 06 ec 3d 09 ae 9f 3e 7f a1 8a be
       -0.027856546 0.115247115 0.31187466 -0.27076337
0000c0 06 7f db 3e ff 09 fb be 78 ed 7b 3d 87 e0 41 3e
       0.4287035 -0.49031064 0.061505765 0.18933307
0000d0 58 cf 62 3f dc 30 20 3f 18 95 ce bd 4b 0f 2a be
       0.8859763 0.62574553 -0.10087031 -0.16607396
0000e0 57 f5 d3 bd 38 04 a7 be 34 26 20 3f 89 2f b6 3e
       -0.10349529 -0.32620406 0.62558293 0.3558314
0000f0 43 fa f5 be 06 e7 df be 77 8f 41 bc cb 53 4f be
       -0.48042497 -0.43730944 -0.01181399 -0.20246808

critic.2.weight f4 [64, 64]
000000 c7 3f d7 3d 4d 05 8a 3e 5a b3 16 be 0d e9 0a 3f
       0.105102114 0.2695717 -0.14716855 0.5426186
000010 7b 23 e6 3e 20 8c d4 be 45 f4 43 3d cd 38 49 bd
       0.44948944 -0.41513157 0.047840375 -0.049126435
000020 04 68 a1 bb a0 4d 67 3e fa 53 52 3d 26 63 85 3e
       -0.0049257297 0.22588205 0.051349618 0.26052207
000030 4d b3 83 bf 2a 83 ad be 68 b9 ba 3e c2 30 f4 3d
       -1.0289093 -0.33889133 0.3646958 0.11923362
000040 40 d2 4d 3d 69 da 03 3e 29 4d 31 3e 27 b1 ee 3d
       0.05024934 0.12876286 0.1731459 0.11654883
000050 34 90 9c 3d fd 9c 42 3c 09 c2 20 3e 40 79 d9 3d
       0.07644692 0.011878249 0.15699019 0.1061883
000060 68 fd b5 3e b2 e6 0f be 13 97 a8 3e 94 d6 2f bd
       0.35544896 -0.14052847 0.3292776 -0.042929247
000070 95 bc 05 3d 70 e5 fa be d4 83 d1 bd 8a 34 60 bf
       0.03265055 -0.49003172 -0.10230222 -0.8758017
000080 0b 52 77 3e ac 1f 16 bf 52 9c 10 be ab 9f 05 bf
       0.2415239 -0.5864208 -0.14122131 -0.5219676
000090 1b 18 82 3e 43 e7 18 3f 56 77 25 be 8b b0 d8 be
       0.25409016 0.5972788 -0.16158804 -0.42322192
0000a0 d4 c9 58 3e c6 8d e2 3e cb b6 10 be 9e 2a c3 3e
       0.21170741 0.4424879 -0.1413223 0.38118452
0000b0 a6 a8 21 3f a9 4a 82 3e 76 58 f2 3e 4d 46 94 bd
       0.6314796 0.25447586 0.47333115 -0.07239971
0000c0 92 1c 05 be 0d ff 1e 3e e4 c9 02 bf 26 fe 61 bd
       -0.1299918 0.15526982 -0.5108931 -0.055174015
0000d0 89 5e af 3d 33 7f 1f 3e 69 ec 31 3e 37 99 dd be
       0.08562953 0.15575866 0.1737534 -0.43280956
0000e0 3e f1 e1 3e 2c b3 fd 3e ef a7 86 bd 3c b5 92 bd
       0.44129366 0.4955076 -0.065749995 -0.07163474
0000f0 1e 50 6b 3e 3e 1d 30 be 7e c1 37 3e f4 7e 5b 3f
       0.22979781 -0.17198655 0.17944905 0.8574059
000100 a8 2c e2 be 5b a9 26 bd e2 a8 be 3d a8 a2 bd be
       -0.44174695 -0.040688854 0.093095556 -0.3703816
000110 f2 5c fe 3e f7 a8 4e be 11 90 87 3d ee a9 b7 bb
       0.49680287 -0.20181642 0.06619275 -0.005604974
000120 46 e6 22 3f 54 fe 7d be be 2c 82 be b5 51 a8 bd
       0.6363262 -0.2480405 -0.2542476 -0.082187094
000130 bb ec f6 be de 22 12 be 85 4b 31 bc fb 6c e8 3e
       -0.48227486 -0.14271113 -0.010821228 0.45395645
000140 47 a1 54 3b 07 4b 95 bd 7f 97 33 3f a4 34 03 be
       0.0032444762 -0.07289701 0.7015304 -0.1281305
000150 cc ad 5e 3f 2b 0d df 3d cf ae 4b 3d da 73 35 3f
       0.86983943 0.108911835 0.049727257 0.708799
000160 2a 1b 42 3e 81 46 2b 3e c0 8a 1f 3f bd 6d fb bd
       0.18955675 0.16726114 0.6232109 -0.1227679
000170 5d ee e9 bd f7 4a b0 bd e4 4f 11 be a0 01 88 bd
       -0.11422417 -0.086080484 -0.14190632 -0.06640935
000180 ec 79 2a be fa 4e dc 3e c2 c2 92 be da cb e4 bd
       -0.16648072 0.43029004 -0.28664213 -0.11171694
000190 96 7c 3f bc 85 85 5d 3e 3c c0 cb 3d 9e 4c 21 be
       -0.011687418 0.21632965 0.09948775 -0.15751883
0001a0 e8 4b 8f 3c cc 8e e9 bd 98 81 1c bf 9e 32 ff be
       0.01749225 -0.114041895 -0.61135244 -0.49843305
0001b0 d9 ab 13 be 97 d8 55 bb 3a 03 bf 3e 02 90 bf 3d
       -0.14421023 -0.0032630318 0.3730715 0.09353639
0001c0 ea 44 3e 3e 45 85 aa bd dc a1 01 be f2 c7 b7 3e
       0.18580976 -0.083262004 -0.126594 0.35894734
0001d0 93 ed 0c 3d 6b 60 0f 3f d8 8c f2 3d cf 73 c5 bf
       0.034406256 0.560065 0.1184327 -1.5425967
0001e0 ad f5 62 3e c0 71 24 3f 82 31 17 3e 8f 15 16 3b
       0.2216403 0.6423607 0.1476498 0.0022901034
0001f0 39 4b 25 be ec 51 63 be 66 7b 19 3e 74 17 c9 3e
       -0.16141976 -0.2219922 0.14988479 0.39275706
000200 ca 4e 5c be c3 6c 16 3e 93 df 10 be 1b 83 2b 3f
       -0.2151443 0.14689927 -0.14147787 0.66996926
000210 c1 9f ae 3d a1 f1 68 bd ea 6a 4c be ff 0d d3 be
       0.085265644 -0.05687106 -0.1996266 -0.41221616
000220 3b 3d 3d 3d ee 0b ca bc fd 1a 02 3e 69 35 a8 3c
       0.046200972 -0.024663892 0.12705608 0.02053328
000230 64 6d 17 bf a9 13 ec bd 3a 0f 89 3e 2d ff 99 be
       -0.5915129 -0.115271874 0.2676943 -0.30077496
000240 90 f2 ed 3b 4f 13 ad 3e 2d 8f bc 3e 59 dc 81 3c
       0.0072615817 0.33803794 0.36827984 0.01585214
000250 89 0d d0 3c c7 96 ef 3e b0 66 38 3e 68 87 fb 3e
       0.025397079 0.4679472 0.18007922 0.49126744
000260 00 44 84 3e a9 59 0a 3e 20 1d 58 3c 89 6f e4 bc
       0.2583313 0.13510765 0.013190538 -0.027885215
000270 21 7d c7 3e 66 6d dc be 7e 88 ce be 17 56 ae be
       0.38962653 -0.43052214 -0.4033851 -0.34050056
000280 e0 60 b4 3e 74 dd 2e be ec 73 a2 be 95 2a 36 be
       0.3523016 -0.17076665 -0.31729066 -0.17789681
000290 0d cb 22 3e ae 82 51 3e af ac 74 bc 65 65 62 bb
       0.1589777 0.20460007 -0.014933749 -0.00345453
0002a0 70 d9 3c 3e aa 46 d0 3d e4 23 59 be dd 17 2a be
       0.18442321 0.10169728 -0.21205097 -0.16610666
0002b0 ba f5 1f 3f 2c af 1d 3e b0 56 25 3f 45 95 ff bd
       0.62484324 0.15398854 0.645854 -0.12479643
0002c0 5e b2 5f 3d f7 d2 15 3d e3 76 ed be 85 b0 8d 3e
       0.054613464 0.036578145 -0.46379766 0.27673736
0002d0 13 d4 51 3d 55 92 3f 3c 2f ca 06 3e 0d 2c 31 bd
       0.05122764 0.011692603 0.13163064 -0.0432549
0002e0 ac fd 0d 3f 7c 15 dd 3e 5f ea 8a 3d 79 6c e5 bc
       0.554652 0.43180454 0.06782984 -0.028005825
0002f0 89 ea 99 3d 5b be a9 3c dc d0 a4 3e 28 54 c9 3e
       0.07515437 0.020720651 0.32190597 0.3932202
000300 d8 16 93 3d 21 3a c8 be 1b 2b 21 3f 7d ad a7 3d
       0.071820915 -0.3910685 0.629564 0.08187387
000310 66 ad 17 bf b4 d2 74 3d c0 65 11 bf 19 9a ce bc
       -0.5924896 0.059771255 -0.56795883 -0.025219964
000320 9a 32 50 3d fe 4c 0e be c0 c9 0b be 4c 42 8f be
       0.050829507 -0.13896558 -0.1365118 -0.27980268
000330 37 dd 3c 3f 70 7a 10 3e ac c6 01 3f 0e 0d 33 3e
       0.7377505 0.14109206 0.50693774 0.17485449
000340 2c d6 90 be a1 a0 c5 3e cf 3f 1d 3f 27 9d 1f 3e
       -0.282884 0.38599113 0.6142549 0.15587293
000350 51 ec d3 be 69 71 7c 3d f2 0e ff 3e 83 b7 e7 3e
       -0.41391233 0.061631594 0.4981609 0.45257196
000360 85 2f 15 3c 17 cc 21 bb 83 c0 f7 be 50 b9 96 be
       0.009105568 -0.0024688297 -0.48389062 -0.29438257
000370 f6 be 0c be dc 9c 4e bd a7 f8 bc 3e 3c 51 e6 3e
       -0.13744721 -0.05044256 0.36908457 0.44983852
000380 90 e8 06 bd a1 db 9b be cf 7d fb 3d ac 83 73 bd
       -0.032936633 -0.30441 0.122798555 -0.059451744
000390 c9 c0 1e be 54 a3 30 3e 19 ea 03 be 3a 05 4b 3f
       -0.15503229 0.17249805 -0.1288227 0.7930485
0003a0 b8 e9 ae be 2e 19 12 3e 1b b5 e9 3e a4 96 6a 3d
       -0.34162688 0.14267418 0.45645985 0.05727257
0003b0 c7 89 df 3a 88 19 0d 3d 1d 6f f6 be ba bb f4 3e
       0.0017054611 0.034448177 -0.48131648 0.47799474
0003c0 1a fd 24 3d f8 eb 0b bf 4d b7 23 3c 58 ae 40 3f
       0.04028044 -0.54656935 0.009992433 0.7526603
0003d0 2f f5 9c 3e 8b 4f 18 3e 8b 33 fa be 9b 23 b0 3e
       0.3065581 0.14874093 -0.4886745 0.34402165
0003e0 0d dd f3 3d 24 8f b8 be 62 b3 93 3e 8d fd c4 be
       0.119073965 -0.36046708 0.28847796 -0.38474694
0003f0 9e d3 eb 3d d8 27 64 bd e7 9c 8d be e8 86 1f be
       0.11514972 -0.05570206 -0.2765877 -0.15578806

critic.2.bias f4 [64]
000000 e7 ea a4 be 77 c1 d3 bd 63 ab 4c be a5 fe 78 bd
       -0.32210466 -0.10339635 -0.19987254 -0.060789723
000010 3c 46 70 be dd d7 82 3e 36 a9 d2 3d 66 60 16 be
       -0.23464292 0.25555316 0.10286181 -0.1468521
000020 8d a4 aa 3e a4 3b de bd 25 04 8b be 7e e9 3f be
       0.33328667 -0.10851219 -0.271516 -0.18741414
000030 f9 7f 35 be 29 b3 74 be 3e 82 a4 3e 49 8f c3 be
       -0.17724599 -0.23896469 0.32130617 -0.38195255
000040 41 35 63 be 57 02 fe 3d 8a 77 e6 3d 67 80 5a be
       -0.22188284 0.1240279 0.11253269 -0.21338044
000050 e6 c9 a5 be 54 fd fd 3d f6 8e b6 3e bf a1 76 3e
       -0.323806 0.12401834 0.35655946 0.24085139
000060 8d a4 8a be 0c 23 9e 3e f8 87 9a be 7e 7e be be
       -0.27078667 0.30886114 -0.3018186 -0.3720588
000070 f4 c6 58 be b6 02 ab 3e eb 20 93 3e 76 4c 8a bc
       -0.21169645 0.33400506 0.28736052 -0.016882163
000080 0e 0a 7c 3e 50 39 54 bc 40 be 13 3e a3 3c fc 3d
       0.2461321 -0.0129531175 0.14428043 0.12316253
000090 b6 37 98 3e 93 7a 26 bd ee 5f 8a bc 22 d2 77 3e
       0.29730004 -0.04064424 -0.016891446 0.24201253
0000a0 bf 66 10 bf 2a 56 99 3e 7e 9e 2d 3e bf 41 9f 3d
       -0.5640678 0.2994855 0.16954991 0.07776212
0000b0 c1 1b ae be 27 44 59 3e 16 bc 09 bd f9 9e ac be
       -0.3400555 0.21217404 -0.03362664 -0.33715037
0000c0 36 cb 62 be 1c a9 46 be 11 2e 8d be 91 39 88 3e
       -0.22147831 -0.19400448 -0.27574208 0.2660642
0000d0 4c 6d bb be 92 66 36 3e 7b 9a 44 3d 4d f5 f9 bd
       -0.36606824 0.17812565 0.047998887 -0.122049905
0000e0 84 fa 80 bd fe 6b 84 be b9 e9 5c 3e f9 17 c2 be
       -0.06297782 -0.25863642 0.21573533 -0.37908915
0000f0 87 89 8b be 03 82 42 be b5 15 c1 bd 21 70 3a be
       -0.27253363 -0.18994908 -0.094279684 -0.18206836

critic.4.weight f4 [1, 64]
000000 75 2f 7c c0 a1 57 8e c0 22 cc 80 c0 36 67 8f 40
       -3.9403965 -4.448197 -4.0249186 4.481349
000010 a4 a4 7d c0 6f f8 d8 40 8e 6b d9 40 b5 de 80 c0
       -3.9631739 6.7803264 6.794379 -4.027186
000020 9f 47 7e 40 ca 5f 84 c0 e4 14 7d c0 32 25 87 c0
       3.9731214 -4.136693 -3.9544 -4.2232904
000030 3e 03 dd c0 2f 40 81 c0 e7 e7 80 40 74 78 dc c0
       -6.906646 -4.039085 4.0283084 -6.8897038
000040 89 98 d8 c0 84 40 83 40 ce f4 83 40 92 ff dc c0
       -6.76862 4.1016254 4.1236334 -6.9061975
000050 45 71 79 c0 ce 52 81 40 9f 0a 7a 40 67 b6 81 40
       -3.8975384 4.041358 3.9068983 4.053516
000060 ac 9c 82 c0 00 a3 7d 40 33 7e d9 c0 60 aa e2 c0
       -4.081625 3.9630737 -6.796655 -7.0832977
000070 01 1d 80 c0 33 ca 9f c0 58 b2 7b 40 de 51 dd 40
       -4.0035405 -4.9934325 3.9327602 6.9162436
000080 45 f2 79 40 72 4a 88 c0 03 60 dc 40 ea 0c 89 40
       3.905412 -4.2590876 6.88672 4.2828264
000090 01 92 7f 40 8e e8 c2 40 29 94 8c 40 8f 29 81 40
       3.9932864 6.090888 4.393086 4.036323
0000a0 80 e3 a2 40 b7 72 9c c0 cf f5 7f 40 99 69 a6 40
       5.090271 -4.8890033 3.999378 5.2003903
0000b0 c5 ae 79 c0 b2 98 e0 40 38 5f 8d c0 d9 ae dc c0
       -3.901292 7.0186396 -4.4178734 -6.8963437
0000c0 bc f6 da c0 dd 5b de c0 e2 7e 84 c0 0e 2e 7e 40
       -6.842619 -6.948714 -4.1404886 3.971561
0000d0 cc db d8 c0 83 45 d7 40 f1 ca 82 40 57 34 83 c0
       -6.7768307 6.7272353 4.087273 -4.100139
0000e0 85 5c a8 40 dd ac 81 c0 95 5f 83 40 5e 47 de c0
       5.261294 -4.0523515 4.1054177 -6.946212
0000f0 e0 e9 7a c0 d0 63 82 c0 e6 b8 82 c0 d7 4f da c0
       -3.9205246 -4.074684 -4.0850706 -6.822246

actor_mean.0.weight f4 [64, 17]
000000 38 9a ce 3e 98 8f 2e bf 26 1d 31 3d 9b 14 51 be
       0.40352035 -0.68187857 0.04324069 -0.20418017
000010 31 93 88 bd ae ad 1d 3e cc 65 99 bd 0b 2e 7e bd
       -0.066686995 0.15398285 -0.07490119 -0.06205563
000020 86 d3 a1 be bc 15 85 3e 2d 69 30 be d1 57 59 be
       -0.31606692 0.25993145 -0.17227621 -0.21224906
000030 38 5c 64 3e 74 a7 2c be 9f 70 23 be 1b 45 85 3d
       0.22300804 -0.16860753 -0.1596093 0.065073214
000040 db 66 79 be f8 cf 03 3e 6c 85 81 bd 6a b9 36 3e
       -0.24355642 0.12872303 -0.06324276 0.17844167
000050 d4 25 0f bd 16 e5 19 3f 91 79 3c 3e ec c6 b0 3c
       -0.034948185 0.6011518 0.18405749 0.021579228
000060 6f b2 9d 3e e3 64 9d 3e e9 19 10 bd a0 79 1f 3e
       0.30800197 0.30741033 -0.03518096 0.1557374
000070 6a 23 63 be 42 51 8c 3e 96 fc 8b 3e 15 13 3b be
       -0.22181478 0.27405745 0.27341145 -0.18268998
000080 cc 6a 9e bb 72 91 0a 3e 0f 89 ea 3d d8 f3 1e bd
       -0.0048345085 0.13532045 0.11451923 -0.038806766
000090 9b 49 1a 3e 25 81 07 be 22 85 d3 be c0 1b b6 be
       0.15067141 -0.13232858 -0.4131251 -0.35568047
0000a0 99 f9 df 3d 52 51 b4 be ab 38 6b be ba 03 be be
       0.10936279 -0.35218292 -0.22970836 -0.37112218
0000b0 0b f6 69 bc cb ff 60 3e f7 dd 71 be 16 c1 6a 3e
       -0.014279853 0.21972577 -0.23619829 0.22925219
0000c0 ac 1d e5 bc 1c 45 2d 3e c3 43 85 3d 59 15 42 3e
       -0.02796825 0.16920894 0.06507065 0.18953456
0000d0 06 db 8f be 82 5b 7d be d0 e1 e8 bd 14 cd 70 be
       -0.2809679 -0.24741939 -0.11371195 -0.23515731
0000e0 77 0e 6b be 2a dd 40 3e 21 8e 50 bd 4a d6 9e be
       -0.22954737 0.18834367 -0.050916795 -0.31022865
0000f0 a7 e4 98 3e d0 65 9f 3e 91 7d e4 3d 91 44 4a 3e
       0.29861948 0.31132364 0.111567624 0.19752719
000100 86 44 13 bd e6 e4 42 3e 8a 36 97 3e 9d 90 9d be
       -0.03595402 0.1903263 0.29533798 -0.30774394
000110 ae 6d ab 3e 6a 79 83 be 6f 33 4f be ba 5a 49 bd
       0.33482116 -0.2567857 -0.20234464 -0.04915879
000120 fe 10 92 bd 2c a1 c7 3e ff 83 25 be 4c 12 3f 3e
       -0.07132147 0.38990152 -0.16163634 0.18659323
000130 a8 7e 62 be 5d 25 ae 3e d4 7c db 3d ad 6b 28 be
       -0.22118628 0.3401288 0.107171685 -0.16447325
000140 6b 67 5f 3d 1c a3 95 3e 93 17 47 be ce a7 66 3e
       0.054541986 0.29226005 -0.19442587 0.2252495
000150 44 71 2e 3d ad a3 0d be b8 4f 42 be 7f cc 41 3e
       0.042588487 -0.13831969 -0.18975723 0.18925665
000160 33 bf 75 bd 2d 28 f7 be 3e 06 58 3e b5 f2 1b 3e
       -0.059996795 -0.4827284 0.21096131 0.15229304
000170 e1 4e e7 bd b8 2b 8c be be 3a 3b 3e e2 ef e9 bc
       -0.11294342 -0.27377105 0.18284127 -0.028556768
000180 33 86 a6 3e 25 1f 3b 3e 25 47 35 3e c2 12 33 3e
       0.3252426 0.182736 0.1770292 0.17487624
000190 be 6b 28 be f2 13 2d 3f 1c ff d7 bd 01 32 11 bd
       -0.1644735 0.6760856 -0.10546705 -0.035448078
0001a0 71 2a 62 3e b2 a9 b5 bd d8 e6 94 3e e5 7b 62 3e
       0.22086503 -0.088702574 0.2908237 0.22117575
0001b0 92 5a 64 3e e0 60 f0 bd b4 3f f2 be f5 f4 d2 3d
       0.22300175 -0.117372274 -0.47314227 0.10300628
0001c0 b6 e2 51 bd ad a8 a6 3d 57 d9 14 3e f2 b8 a7 3c
       -0.0512416 0.08137641 0.14536034 0.020473931
0001d0 0e d4 fb 3d 5a dd 45 3e 4c 23 9b bd 43 42 26 bf
       0.122963056 0.1932272 -0.07575092 -0.6494486
0001e0 b1 aa 17 3f ac 83 95 3d 93 90 85 3e 62 10 8b 3d
       0.5924483 0.07300505 0.26086864 0.06790234
0001f0 79 77 60 3e 18 bc 30 3e b6 cd a7 be 93 4b d2 3d
       0.21920575 0.17259252 -0.32774132 0.10268321
000200 04 98 26 be 97 18 07 3e 9e 03 a4 3d bf e6 0e bd
       -0.16268927 0.13192974 0.080085024 -0.034888025
000210 3d 2b c8 bc 5f 3a be bd 6d e1 00 3e 4e c0 41 3c
       -0.02443468 -0.09288477 0.12585993 0.011825634
000220 de ef 67 be dc 8d 13 3d ae b8 a9 bd df e7 84 3d
       -0.22650096 0.03602396 -0.08287178 0.064895384
000230 d0 12 14 3f 24 a4 47 3d 72 b1 98 3d be aa 8b 3e
       0.57841206 0.04874052 0.0745572 0.27278703
000240 11 99 56 be 3b 33 59 bd d6 17 05 3e 7a 3d 57 3c
       -0.20956828 -0.053027373 0.12997374 0.013137216
000250 fe 57 e0 3c e8 db 8e 3e b6 ef 1a 3e cf 04 93 3e
       0.027385708 0.2790215 0.15130505 0.28714606
000260 9c b6 2f be 3a 59 41 bf 72 2a c8 3e 45 0d 13 3d
       -0.17159504 -0.75526774 0.39094883 0.035901327
000270 18 fe 43 3e 0e 23 0c bf c9 1e 99 3e 39 c6 8a 3c
       0.19139898 -0.5474099 0.299063 0.016940223
000280 bb 64 ac be 2a a9 db 3d 9c c6 4b 3e 06 c2 3f be
       -0.336706 0.10725625 0.19899982 -0.18726358
000290 9b bf 28 3e dc 74 71 3d f1 25 46 bd a2 da e0 3c
       0.16479342 0.058949336 -0.048376027 0.027448002
0002a0 44 0d 27 be 7a 8a a4 bd 15 27 78 39 e9 4c 55 3f
       -0.16313654 -0.08034225 0.00023665682 0.8332048
0002b0 c6 7f 6c be a1 b2 95 3c ad f7 e9 be b3 af 1c 3e
       -0.23095617 0.018273653 -0.45696774 0.15301399
0002c0 5a 36 84 3d 0b d7 c1 bc 7e cb 8e 3e 9a 00 8f bd
       0.06455679 -0.02366211 0.27889627 -0.069825366
0002d0 ea e1 07 be 6d b4 0d bf ca 50 16 3e d7 08 bb bc
       -0.13269773 -0.5535343 0.14679256 -0.022831364
0002e0 1c 2f b6 3d f6 c0 8d 3c cf 12 e4 bc 0f e5 2e 3f
       0.08895704 0.017303925 -0.027841 0.68318266
0002f0 dd 2e 55 bf e5 cc b3 be 5c 57 43 be 5c b2 58 3e
       -0.8327463 -0.3511726 -0.19076294 0.21161789
000300 c0 25 65 3e 5a 24 c4 3c a7 ee ef 3e 10 12 82 be
       0.22377682 0.023943115 0.46861765 -0.25404406
000310 b5 7e 6d bc 40 03 dc bd 7f 2f 1b be 86 c7 ff bd
       -0.014495541 -0.107428074 -0.15154837 -0.12489228
000320 ec 9f 56 3c 45 d9 5d 3e 9f 4e 7c bd de 3f 83 bd
       0.013099652 0.21664913 -0.061598416 -0.06408666
000330 fa b8 48 bd fd 73 13 bd 0f cc f8 be 0b aa a3 be
       -0.049004532 -0.035999287 -0.48593184 -0.3196567
000340 b1 a4 be bd fe f2 d3 bd 21 65 ee 3d 15 17 aa 3d
       -0.09308756 -0.103490815 0.116403826 0.08305184
000350 09 f1 ff bd ae b8 26 3e 9b 0e 3e 3e 2d 50 b3 3e
       -0.12497146 0.16281387 0.18560259 0.35022107
000360 5d 3b c6 3d 53 80 96 3e 99 e4 d9 bd ff 89 b7 be
       0.096792914 0.2939478 -0.10639305 -0.3584747
000370 e3 27 79 be 7b 75 8b be ad 2c 40 3f 70 d2 d2 3c
       -0.24331622 -0.27238068 0.7506817 0.02573511
000380 9b df 84 3e dd ca b2 be d3 e7 46 be 55 ee 0d 3f
       0.25951847 -0.34920397 -0.19424371 0.5544179
000390 aa 03 2f 3e 1a cb ed 3e 78 42 c1 3e c7 3a bd 3d
       0.17091241 0.46444017 0.37746024 0.092397265
0003a0 38 77 25 3e ab e3 0a 3e fb 4b be 3c d6 20 c0 3d
       0.1615876 0.13563411 0.02322959 0.09381263
0003b0 fd ce 2c 3e 52 aa 66 bd b0 3d 41 3d cf 4d a0 bd
       0.16875835 -0.056314774 0.04717797 -0.07827341
0003c0 6f 49 a4 3e 1f b3 51 3c f9 63 44 3e bd 99 95 3e
       0.32087275 0.012799053 0.19178762 0.29218856
0003d0 73 e0 49 be 04 77 30 3e 07 6c 54 be a9 48 a4 3e
       -0.19714527 0.17232901 -0.20744334 0.32086685
0003e0 41 8d 83 3d 03 ed c5 3e 39 c7 97 bd e0 2c 86 be
       0.064234264 0.38657388 -0.074110456 -0.26206112
0003f0 94 6c 82 bc 20 69 0d be b2 c1 8e bd 86 a9 4b be
       -0.015920915 -0.13809633 -0.06970538 -0.19888887

actor_mean.0.bias f4 [64]
000000 9e b7 5d 3e 1c 61 85 3d 0f 00 4d 3c 87 83 d4 bd
       0.21652076 0.06512663 0.012512221 -0.10376649
000010 d9 a1 7d 3d 9b 12 43 bd 91 be 85 be 89 45 6d be
       0.061921928 -0.047625165 -0.26121953 -0.23171057
000020 da d2 24 3d 7d 48 a1 be 9c ce ac 3d 4b 95 0d 3e
       0.040240146 -0.31500617 0.08437845 0.13826482
000030 83 45 eb 3c 8f f5 c2 bd 98 c9 9c bc 0e f0 f8 bd
       0.02871967 -0.09519493 -0.019139096 -0.12155162
000040 60 65 44 be 1b 66 28 bd 0e 68 67 be 0e 3c 20 3d
       -0.19179296 -0.041113 -0.22598287 0.039119773
000050 0c 89 55 3e ee d7 2f be a9 93 13 3e 39 62 04 bc
       0.2085306 -0.17172214 0.14411797 -0.008080059
000060 63 6a 39 be 6e 69 b3 3e 75 be 16 3e c9 d6 02 3d
       -0.1810699 0.35041374 0.14721091 0.031943116
000070 89 1c e1 3d 58 c6 30 3e f2 94 83 be 59 fd 10 3c
       0.10991771 0.17263162 -0.25699574 0.008849465
000080 5e c8 77 be 8d 5b a1 bb aa 72 69 be d7 17 8f 3e
       -0.24197528 -0.004924244 -0.22797647 0.27947876
000090 f4 c9 83 be 99 81 90 39 9f 7c 3b be 72 58 8d 3d
       -0.25740016 0.00027562378 -0.18309258 0.06901635
0000a0 43 8c 49 3b 52 7a 74 3e e3 47 7f 3c eb 72 c4 bd
       0.0030753769 0.23874786 0.015581104 -0.09592231
0000b0 fa 4c 5d be 37 10 94 be b0 7e 89 be 19 e3 16 3c
       -0.21611395 -0.2891862 -0.26854467 0.009209418
0000c0 66 6b 02 be db 64 91 3d a8 38 1e be 2d 49 24 be
       -0.12736282 0.07099315 -0.154513 -0.1604354
0000d0 56 50 37 bc cf 1b 3f 3e 9d 12 03 be 59 79 22 3e
       -0.011188587 0.18662952 -0.12800069 0.15866603
0000e0 be c9 b8 3c fb f5 42 be 54 70 53 bd 73 cb 7e bd
       0.022557136 -0.19039147 -0.051620796 -0.062205743
0000f0 29 85 0e 3d 06 0e 21 3d cf 8e 4c 3d 46 2f 7a be
       0.03479496 0.039320014 0.04994088 -0.24432096

actor_mean.2.weight f4 [64, 64]
000000 16 4a 13 3f 96 88 7c bd f5 7c 3b 3d c5 13 5d 3e
       0.5753492 -0.061653696 0.045773465 0.21589573
000010 15 d0 88 bd fa ee cd bd 71 79 c4 3e c7 69 df be
       -0.066803135 -0.10055347 0.38373902 -0.4363539
000020 63 1c b7 be a4 2a b8 be 6b b0 28 3e 3b 56 6b bd
       -0.35763845 -0.35970032 0.16473548 -0.057455283
000030 db f0 9f 3d 7a b4 cb be 79 c5 07 3e 7c 94 3b 3e
       0.078096114 -0.3978613 0.13258924 0.18318361
000040 e2 f8 89 be 4d 9b 91 bd 0f b6 98 bd f8 ef 39 be
       -0.26947695 -0.071096994 -0.074566 -0.18157947
000050 81 f2 e8 bd 98 3c 34 3e 86 97 59 3d 82 24 4c be
       -0.11374379 0.1760124 0.05312302 -0.19935802
000060 84 40 57 be c5 e0 97 3d 98 0f b7 be e9 6a 2f 3d
       -0.21020705 0.07415918 -0.35754085 0.042826567
000070 d8 94 84 3e 15 80 5a bc ae ae 14 be 6b cc 40 3e
       0.2589481 -0.013336201 -0.1451976 0.1882798
000080 51 ab ce 3d 50 22 f9 3b d8 de 0f be fc 3b c5 be
       0.1009127 0.0076029673 -0.14049852 -0.38522327
000090 87 da c0 bd 56 6c 57 be e9 12 09 3e 73 2d aa 3d
       -0.09416681 -0.2103742 0.1338612 0.0830945
0000a0 36 3e 2a 3e 7e 90 0c be 81 73 35 3e be 2d d9 bc
       0.16625294 -0.13726994 0.17719842 -0.02651107
0000b0 aa 86 51 be 3c eb 56 be 12 2b 32 3e 55 e4 0a 3e
       -0.20461527 -0.20988172 0.17399243 0.13563664
0000c0 d2 2f 08 bd 3e ae 10 bf f6 e1 50 be 10 1a e3 bd
       -0.03324873 -0.5651587 -0.20398697 -0.110889554
0000d0 85 29 33 3d e8 c5 74 be e0 d0 35 3d 88 81 e4 bd
       0.043740768 -0.2390362 0.04438865 -0.111575186
0000e0 43 4b 5d 3c 1e 07 8e 3e e9 a2 0f be 5d e9 5b 3e
       0.013506713 0.27739805 -0.14026989 0.2147574
0000f0 8e 8e 36 bc 45 98 9d 3d 4f db 02 3e 78 02 6d bb
       -0.011142386 0.07695059 0.12778972 -0.0036164802
000100 e9 5c 3d 3e f6 5a 31 3e e9 e7 c9 3d dd cd 84 3e
       0.18492474 0.17319855 0.098586865 0.2593831
000110 db 47 a4 3d 7b de 15 be e8 01 d8 3d fa 11 85 be
       0.08021518 -0.14635651 0.105472386 -0.25990278
000120 37 21 ab be f5 66 2b 3e 7e 67 c8 3c 53 ee 7c bd
       -0.33423778 0.16738494 0.024463411 -0.06175072
000130 40 eb e3 be c9 32 14 3e bc 1f 16 3e bf 78 31 3e
       -0.4451542 0.14472498 0.14660543 0.17331217
000140 29 21 ad be 01 7f 61 3e 30 c2 bf 3c 0b 0b 1e bd
       -0.33814362 0.22021104 0.023408026 -0.03858475
000150 fc 86 43 be a7 06 dd 3d f6 32 ab be 05 98 fe be
       -0.19094461 0.107922845 -0.33437318 -0.49725357
000160 bf fb 2f 3e 55 3e ab bd 02 f2 51 bd 86 f6 89 3e
       0.17185877 -0.08361498 -0.051256187 0.26945895
000170 54 b3 b8 be 7a 69 99 3d de 0f 26 bd 3f 5d e4 3e
       -0.36074317 0.07490821 -0.040542476 0.4460239
000180 22 5e 38 be f3 a8 60 3e fa 4c 0d 3e f6 b0 27 3e
       -0.18004659 0.21939449 0.13798895 0.16376099
000190 c6 ac 08 3d 99 1c 1d bd a0 56 15 bd 46 3a cc be
       0.033367895 -0.03835735 -0.036459565 -0.3988821
0001a0 df c2 8e 3e 33 88 64 bd e6 b6 7d 3d 73 49 1f 3e
       0.2788305 -0.055793952 0.061942004 0.15555362
0001b0 de 96 be be c7 56 86 be 4f 81 32 3e 6a ff 44 bd
       -0.37224478 -0.2623808 0.1743214 -0.048095144
0001c0 e6 bc d5 3e bf 15 05 3e 8f de 74 3d d5 a4 b6 bd
       0.4174568 0.12996577 0.05978256 -0.08918158
0001d0 64 18 a2 bd ed f3 9b bd 25 89 d8 3d ca 88 7e bd
       -0.079148084 -0.076148845 0.10573033 -0.06214217
0001e0 89 28 18 be ff a2 26 3e 1b af c4 3e 8f 5e 99 3e
       -0.14859213 0.16273116 0.38414845 0.29954955
0001f0 2d d3 28 3d 88 62 95 3e 25 14 80 be 50 c5 96 3e
       0.041217018 0.29176736 -0.2501537 0.29447412
000200 7e 70 d0 bb 5e f5 d8 bd 20 06 fd 3e e4 81 2f be
       -0.0063610664 -0.10593675 0.49418736 -0.17139393
000210 07 f2 6e be 6a af 91 bb 28 0b 20 be b8 5c c7 3d
       -0.23334514 -0.00444596 -0.15629256 0.097344816
000220 db df ab be a3 29 84 be 6c 12 4b 3d f5 f5 ee bc
       -0.33569226 -0.25813016 0.049578115 -0.029170016
000230 e9 a8 58 bd e8 6f 82 be 02 7a ec 3d 27 ca f8 be
       -0.05289546 -0.25476003 0.11546709 -0.4859173
000240 f5 40 d7 bd 88 88 6d be c8 d1 81 be 2b 82 4b be
       -0.105104364 -0.23196614 -0.25355363 -0.19873874
000250 5f 21 7b be b6 74 9e 3b d9 4e ad 3d 83 b2 82 3e
       -0.24524449 0.0048356904 0.084623046 0.2552682
000260 4a fe b9 3e bf 03 99 bd 5d c7 ad 3d 10 b4 2f bd
       0.3632682 -0.07471418 0.08485291 -0.04289633
000270 83 5b 6c 3e 9d b4 3b 3e 33 a5 7f be 39 94 03 bb
       0.23081784 0.18330617 -0.24965362 -0.0020077361
000280 bb 5d 81 3d c5 d9 f5 3d f9 a9 60 3e d5 1f 92 3e
       0.06316706 0.12004427 0.2193984 0.2853991
000290 49 7b ae bd c7 39 88 3e 02 9a ef 3d 47 90 f5 3d
       -0.085196085 0.2660658 0.116992965 0.11990409
0002a0 e8 8c 9b be 1e 3b b6 be 67 2a 18 be 8d 2d 83 3d
       -0.3038094 -0.35591978 -0.14859925 0.064051725
0002b0 f1 32 ed 3e 2b 89 7e 3e 16 7e e2 3d fb 57 8c 3e
       0.46327928 0.24857013 0.11059205 0.27410874
0002c0 73 c2 80 3d 07 d6 7e 3c 50 2c 78 3e fc bf 1b bd
       0.06287088 0.015553958 0.24235654 -0.038024887
0002d0 a3 cc bc bd b7 23 b9 3e fc e1 49 be 50 32 d8 bd
       -0.09218719 0.3616006 -0.19715112 -0.10556471
0002e0 23 f2 54 be 53 59 d7 bd 08 b4 c4 3e 46 42 19 bd
       -0.20795493 -0.10515084 0.38418603 -0.03741672
0002f0 ad f0 0a be fb b8 19 be b6 a2 38 bd de 60 b6 3e
       -0.13568373 -0.1501197 -0.04507705 0.3562078
000300 c8 88 9b 3e 31 3f 79 3e cf 85 58 bd 81 39 ae 3c
       0.30377793 0.24340512 -0.052861985 0.021267654
000310 67 7b 44 3c 6a b1 27 be e1 30 9b be 53 d1 e4 be
       0.011992312 -0.16376272 -0.3031073 -0.44690952
000320 e2 be e6 3d ee 39 46 be c9 57 5a 3e 3d 3d a0 3e
       0.11266877 -0.19358036 0.2132255 0.3129672
000330 42 dc 3f bd 76 a4 3a be 81 6c f8 bd ee f5 95 bd
       -0.046840914 -0.182268 -0.121300705 -0.07322298
000340 55 26 d1 be 57 86 96 3c 81 9c fc bb 91 21 ae 3e
       -0.40849558 0.018374605 -0.0077090864 0.34009984
000350 c6 a5 9f bc ff 18 bd 3e ec eb 9d 3d 40 eb f4 bd
       -0.019488227 0.36933133 0.07711014 -0.11958933
000360 8e 0e 27 bd b5 8e 51 3e 71 0e b6 3e 1b ab 2e 3e
       -0.040785365 0.20464595 0.35557893 0.17057459
000370 2e b0 c4 3c 2b ad a6 3e 11 83 22 3d 2c be 16 3d
       0.02400979 0.32553992 0.039675776 0.036802456
000380 12 47 23 3e 19 60 1c 3e 68 2c b7 3d c7 58 a7 bd
       0.1594508 0.15271033 0.08944017 -0.0817123
000390 7b f9 22 be e3 95 eb 3e 2f 18 4a bc d5 ac 8c 3e
       -0.15915482 0.46012792 -0.012334867 0.2747561
0003a0 bc af 3a bd c3 37 ef bb 04 85 85 be fb 3d e3 3d
       -0.04557775 -0.0073003485 -0.26078045 0.11095806
0003b0 6c f6 e8 bd 29 d7 5c be 86 5c f6 be 01 2c 7a bc
       -0.11375126 -0.21566452 -0.48117465 -0.01526928
0003c0 2a da a4 bd f5 c1 2d be 86 3b 05 bf 99 cb bf 3d
       -0.08049424 -0.1696852 -0.5204395 0.09365005
0003d0 24 63 44 3e 2f d4 b7 3e 62 10 e1 3c 44 36 02 3e
       0.19178444 0.3590407 0.027473632 0.12716013
0003e0 b9 4d 1b be ed 31 3b bd ba 1c 19 be 2d dd 77 3e
       -0.15166368 -0.04570191 -0.14952365 0.24205466
0003f0 77 1f 77 3e e2 19 9a 3d c9 be 49 3e e3 ba 04 be
       0.24133097 0.07524468 0.19701685 -0.12961917

actor_mean.2.bias f4 [64]
000000 37 9a 78 3e 32 73 32 3c e5 66 bf bc b6 06 94 3e
       0.24277578 0.0108917225 -0.023364494 0.2891137
000010 5f ba 82 be 0f 78 4c 3c 97 cc 72 3e 0e b6 83 be
       -0.25532815 0.012479796 0.23710857 -0.25724834
000020 3e de dc 3d e8 b9 82 3e ab a0 bf bd 29 e3 91 be
       0.10784577 0.2553246 -0.09356817 -0.28493622
000030 ed d5 23 3e 40 2e d9 3b d7 ad c6 3d bc a8 44 be
       0.15999575 0.006627828 0.09701126 -0.19204992
000040 3e 4c 42 3e 9e 5d 5d 3e de 13 23 3e 8e 9e a5 be
       0.18974397 0.21617743 0.15925547 -0.3234753
000050 0d dd 96 be b1 cc 73 3e f7 50 d6 3d 40 90 5a 3d
       -0.29465523 0.23808552 0.104646616 0.053360224
000060 25 54 03 3e 75 57 c0 3c c6 aa 82 3e eb c7 0e 3e
       0.12825067 0.023479203 0.25520915 0.1394345
000070 2c ab 68 be b4 74 8b 3e 69 7c 7b be 06 85 cf bd
       -0.22721547 0.27237475 -0.24559177 -0.10132794
000080 e9 41 0f be aa c0 98 3d 11 13 03 3e 5a 04 94 3e
       -0.13989986 0.07458623 0.12800242 0.2890957
000090 64 97 8e 3e d3 b7 b6 bd 53 ea 0c bd d9 8c fc 3d
       0.27849877 -0.089217804 -0.034403156 0.12331552
0000a0 d9 87 79 be 04 82 33 3e 75 1f 8e 3e c6 d1 c5 3e
       -0.24368228 0.17530066 0.27758375 0.38636607
0000b0 33 7b 91 3c 98 c4 d2 3d a5 55 9a 3d 93 66 3c 3e
       0.017758941 0.102914035 0.07535867 0.18398504
0000c0 32 a5 72 be 92 2e b7 3e 99 bd 41 be ba 27 77 be
       -0.2369583 0.35777718 -0.18919982 -0.24136248
0000d0 ad 63 77 be a8 a1 34 be 90 35 1e be b9 4b 86 be
       -0.24159117 -0.17639792 -0.1545012 -0.26229647
0000e0 0f 22 12 3b 67 30 30 be 04 6f 89 bd bf 00 3f 3e
       0.0022298133 -0.17205964 -0.06710628 0.18652628
0000f0 37 ed ab bd a3 7b 7a be 02 c3 6a 3e bf 7c 60 bd
       -0.083948545 -0.24461226 0.22925952 -0.054806467

actor_mean.4.weight f4 [6, 64]
000000 2d 29 97 3e 3e e9 58 3e 58 42 07 be af 0d 87 3e
       0.29523602 0.21182725 -0.13208902 0.26377627
000010 a8 43 41 be 7b ee d7 3d 17 21 35 3e 9a 6f 2b be
       -0.18873465 0.105435334 0.17688404 -0.16741791
000020 01 3d 4a 3d ee cf 8b 3d fa d2 40 be b2 21 b0 bc
       0.049374584 0.06826769 -0.18830481 -0.021500442
000030 45 cf 58 3c f5 fd 75 3d fc 09 03 3d 7c 0e a2 bc
       0.013233011 0.060056645 0.031991944 -0.019782297
000040 2b 94 85 3e 03 d6 27 3e 7a c6 ef bd 58 9d d7 3d
       0.26089606 0.16390233 -0.11707778 0.10528058
000050 e8 22 1c 3e 69 00 43 ba 5c e2 10 3b 00 43 af 3d
       0.1524769 -0.0007438721 0.0022107577 0.08557701
000060 92 87 85 3d 01 f9 d5 3b 28 d6 3f 3e 08 88 df 3c
       0.065199986 0.0065299277 0.18734038 0.027286544
000070 b1 d9 b2 bd b0 80 88 3e ea 50 04 be 3a a8 74 3d
       -0.087329276 0.2666068 -0.12921491 0.059730746
000080 a8 42 23 bc a1 78 6e be fc 4c 8b 3e 61 45 8f 3e
       -0.009964623 -0.23288204 0.27207172 0.2798262
000090 7a ab f1 3e 9d 4a d0 3d 37 90 8a 3e 2a 9b 98 3e
       0.4720114 0.10170481 0.27063152 0.2980588
0000a0 1f 00 a2 be ec 77 63 3d 37 67 0d 3e b1 3d 9d 3e
       -0.31640717 0.05553429 0.13808905 0.3071113
0000b0 29 73 a0 bd 70 b8 a6 bd be e8 3c 3e f9 7d 6b bd
       -0.07834465 -0.081406474 0.18448159 -0.057493184
0000c0 fb 96 c0 bc 0e 43 93 3e 9e 3e 00 be 80 1f 50 be
       -0.023509493 0.28762096 -0.12523887 -0.20324516
0000d0 e6 89 d1 be 06 7f 15 be 22 07 c6 bd 61 df eb 3d
       -0.4092552 -0.14599237 -0.09669329 0.115172155
0000e0 aa 53 ae 3d 11 bf dc bd 6c 87 d5 bd 86 a3 4d bd
       0.085120514 -0.107786305 -0.1042622 -0.050204776
0000f0 f7 1e f5 bd 38 b4 6b be da 8e b3 3d f9 d7 9a bd
       -0.11968797 -0.23017967 0.08767481 -0.07560725
000100 d2 97 d4 3d d5 e5 52 3e d5 1b 07 be ca 55 fe 3b
       0.1038052 0.20595486 -0.13194211 0.0077616917
000110 28 7e db be b5 41 f1 bd e4 4b 21 3d 31 6d 3b be
       -0.42869687 -0.11780111 0.039379016 -0.18303372
000120 23 cc f8 bd 66 a3 81 3e f3 2a f9 bc 00 4e a7 bd
       -0.12148311 0.25319976 -0.030415988 -0.08169174
000130 48 62 08 3e 5d 29 d1 3d ac d5 bc bc 06 17 97 be
       0.13318741 0.102129675 -0.023051105 -0.29509753
000140 66 91 a7 3e 24 4b 0c 3e 88 16 a2 bd ae d0 0a be
       0.32728118 0.13700539 -0.07914454 -0.13556167
000150 8b 97 2d be 0d 9c 18 3d 83 34 db 3d c3 8c b2 3b
       -0.1695234 0.037258197 0.10703375 0.005448909
000160 1d b9 6e bd 02 3c b2 3d ad 5a c8 bc 3e b9 61 bd
       -0.058282007 0.08702852 -0.0244573 -0.0551083
000170 9b 25 b9 be d0 76 16 3e 1a 61 38 be b3 22 e0 bd
       -0.36161503 0.14693761 -0.18005791 -0.10944118
000180 da ca 24 be ba df 19 3e d6 29 3a 3e 93 bc 9d 3c
       -0.16093007 0.15026751 0.18180022 0.019254958
000190 91 b7 2e 3e 1f 8d aa 3c 2e 9e 93 bd ae 67 86 3d
       0.17062213 0.020819245 -0.07207905 0.06562744
0001a0 a8 1c 02 3d 34 68 0e 3b 94 fb f3 3d da d1 5b 3e
       0.03176561 0.002172959 0.11913219 0.21466771
0001b0 42 8e 5a bd 11 c1 6c bd 18 ce 2a bc 13 41 0e 3e
       -0.053358324 -0.05780131 -0.010425113 0.13892011
0001c0 78 6f 98 bd 2e 48 9b 3e b4 d7 41 bd b1 24 b2 3d
       -0.07443136 0.30328506 -0.04732485 0.086984046
0001d0 81 81 05 3c 42 2e 02 be ff 70 84 be 78 5b 13 be
       0.008148552 -0.12712958 -0.2586746 -0.14390361
0001e0 fc 40 a8 bd f9 2a ad bc 65 14 04 bc 0e 60 b9 3d
       -0.0821552 -0.021138655 -0.008061503 0.09051524
0001f0 0a 24 98 be 76 4c 87 bd 86 14 97 3d 6c b9 46 bd
       -0.29714996 -0.06606381 0.073769614 -0.048516676
000200 5a 46 c2 bd 52 21 b4 3e 64 17 55 3e a2 f7 f2 3c
       -0.09486075 0.3518167 0.20809704 0.029659096
000210 44 4a 77 3d 22 d7 64 3e 28 5b 8f be f0 b4 4d be
       0.06037356 0.22347692 -0.27999234 -0.20088553
000220 8d ad f9 3d 86 3e 83 3e fd 45 89 3e 98 0e d0 be
       0.12191305 0.2563364 0.2681121 -0.40636134
000230 f8 b8 bd 3e 7d f8 cb 3e 60 cc 1c 3f 95 ac 0d 3e
       0.37055182 0.3983802 0.6124935 0.13835366
000240 9f 0c 3d bb 8a 5b b7 3e 65 9c 96 3e fc 95 c8 be
       -0.0028846634 0.35812026 0.29416195 -0.3917693
000250 dd 1b ed be 6d d2 84 3e fb a6 7c be 02 e5 a8 bd
       -0.4631032 0.25941792 -0.24673073 -0.08246805
000260 b5 42 c2 bd 86 cf 10 3e c4 d2 b8 be 51 35 41 3e
       -0.094853796 0.14141664 -0.360983 0.18867995
000270 2e 1a b0 3d b0 d2 92 bd 46 8b 83 be a4 15 81 bd
       0.085987434 -0.07169092 -0.25692195 -0.06302956
000280 41 f5 84 3e 1e 60 e4 3c 5d 97 7d be 06 48 3a be
       0.25968364 0.027877863 -0.24764772 -0.18191537
000290 2f c0 48 be 3b aa 48 3e 3c f8 c4 3d e9 1d 19 bf
       -0.19604562 0.19596188 0.096176594 -0.59811264
0002a0 1a c1 18 3e 51 3e a3 be 4c d2 ee 3d fd ca 12 3e
       0.14917412 -0.3188348 0.11661205 0.14335246
0002b0 29 8a 47 3c a6 0c 08 3f 29 20 12 be 23 da 65 be
       0.012178936 0.531443 -0.1427008 -0.22446494
0002c0 1f e8 99 be 9f a9 79 bb 05 8f 90 be de 99 5a 3e
       -0.30059907 -0.0038095487 -0.28234115 0.21347758
0002d0 1d 2a b4 3d 17 69 59 be f5 ec 03 bc 5e bf 95 be
       0.08797095 -0.21231495 -0.0080521 -0.29247564
0002e0 77 03 5e be 39 47 c8 3e 97 a7 15 3b 24 2d 49 3e
       -0.21681009 0.3911684 0.0022835487 0.19646126
0002f0 62 be 5d be 18 54 47 3e 7e 63 92 3e a7 f6 5b bd
       -0.21654657 0.19465673 0.28591532 -0.053702023
000300 03 66 2a 3e b9 73 af 3d eb e4 7e bc c5 a0 2c 3e
       0.16640477 0.08566994 -0.015557508 0.16858204
000310 1f e4 bc bd 77 9f 17 3e 3c 0b 3f 3d b6 81 4c be
       -0.09223198 0.14806925 0.046641573 -0.19971356
000320 11 7f 45 bd 59 51 db 3d b1 74 99 bd 09 a8 5a be
       -0.048216883 0.10708875 -0.0749296 -0.21353163
000330 85 8e 75 3c a7 03 76 bb 11 4f 08 bd 5d ca c8 bd
       0.014987593 -0.0037538798 -0.03327853 -0.09804223
000340 3c ab 08 3e 76 96 f4 3d c0 d9 d4 3d 0f 4c 2b be
       0.1334657 0.11942761 0.10393095 -0.16728233
000350 dd 77 8f be 69 65 f0 3d c2 c2 01 bc 31 6b 17 be
       -0.28021136 0.117380925 -0.007919969 -0.14786984
000360 58 cc a3 3d 92 85 33 3e 6e 4e 07 bd 95 fc 7e 3c
       0.0799796 0.17531422 -0.03303378 0.01556315
000370 ec 0c d1 bd d4 bb 5b 3e 8c 72 9a be 26 c0 83 bd
       -0.10207543 0.2145837 -0.30165517 -0.06433134
000380 5c 3e df 3d 2a 37 27 bd 28 33 ed bd f3 5d 22 3c
       0.10900566 -0.040824093 -0.11582023 0.009910095
000390 d6 5e 1e 3e df f2 89 3c 69 b1 de bc ad 93 cc 3c
       0.15465865 0.016839443 -0.027184205 0.024972761
0003a0 69 99 0a be f4 a5 fc 3d 21 a9 e9 3d 2e 97 e7 3d
       -0.13535084 0.123363405 0.11409212 0.11308132
0003b0 72 c8 23 be ed 88 4f 3c c3 f2 53 bd a4 b2 8f bd
       -0.15994433 0.012666923 -0.051745187 -0.07016495
0003c0 0e 43 8b be 97 08 41 3e 08 71 2a be b5 63 11 be
       -0.27199596 0.18850933 -0.1664468 -0.14198191
0003d0 e7 0c 45 be 0b c7 1c be e4 d1 87 bd 71 91 21 be
       -0.19243203 -0.15310304 -0.0663183 -0.15778138
0003e0 2d 25 ca 3c f1 26 a2 3b 07 0f e7 bd 04 12 5d 3e
       0.02467593 0.00494849 -0.11282163 0.21588904
0003f0 a3 41 45 be 7a 93 80 bd f0 7c 34 3e 61 3a 4e 3d
       -0.1926332 -0.06278129 0.17625785 0.050348643

actor_mean.4.bias f4 [6]
000000 55 b5 a1 3e 50 ff 56 3e 73 2f 66 3c 80 f7 33 3e
       0.31583658 0.20995831 0.014049399 0.17574883
000010 42 e7 5a 3e e7 da 5e 3c
       0.2137728 0.013601995
