DATA403_final/checkpoints/Acrobot-v1/PPO_11718.pt (torch, 5789 bytes, 10 tensors)

critic.0.weight f4 [24, 6]
0	0x3ed5e791	0.41778234
1	0xc0651906	-3.5796523
2	0x3ebbff63	0.36718282
3	0xbf530b41	-0.8243905
4	0xbf14b607	-0.5809025
5	0xbe96e321	-0.2947016
6	0x3f47000d	0.7773445
7	0x3f8ba91a	1.0910981
8	0x3f7166ab	0.94297284
9	0x3ea01d60	0.3127241
10	0x3dd3066a	0.10303958
11	0xbe0588fe	-0.1304054
12	0xbd9245c3	-0.07142212
13	0xc03cc66c	-2.9496107
14	0x3e6a9ff0	0.22912574
15	0xbf0e310a	-0.5554358
16	0xbeed5e59	-0.46361044
17	0xbe8b90ba	-0.27258855
18	0x3f5dd41b	0.8665177
19	0x405e98c2	3.4780736
20	0x3fb9f912	1.4529135
21	0x3f46ae6d	0.776099
22	0x3effdaf8	0.49971747
23	0xbd5478cc	-0.051873013
24	0x3dbd12b5	0.09232084
25	0xc0365331	-2.8488276
26	0x3f19c91e	0.60072505
27	0xbedf0481	-0.43558124
28	0xbe6fb5e1	-0.23409225
29	0xbe6d907b	-0.23199646
30	0x3eaa7e98	0.33299708
31	0xc037c98c	-2.8716764
32	0x3e8aeceb	0.2713388
33	0xbe8a7a38	-0.2704637
34	0xbe253d54	-0.16136676
35	0xbe38167e	-0.1797733
36	0x3da53e9b	0.08068582
37	0xbfcfdd49	-1.6239406
38	0x3e853dbe	0.26023668
39	0xbf742c42	-0.9538003
40	0xbfb24769	-1.3928043
41	0xbf4bc3a6	-0.7959541
42	0x3ec42469	0.3830903
43	0xc09a00e0	-4.812607
44	0x3db9125d	0.09036706
45	0xbf887701	-1.0661317
46	0xbe84a642	-0.25908095
47	0xbe03482d	-0.12820502
48	0x3f8128d7	1.0090588
49	0x40799eb4	3.9003115
50	0x3fa7d5cf	1.3112124
51	0x3f8ecb68	1.1155825
52	0x3eeaf5b5	0.45890585
53	0xbdddb590	-0.10825646
54	0x3eb15a70	0.3463931
55	0xc01de715	-2.4672291
56	0x3beff40f	0.007322795
57	0xbeaac65e	-0.33354467
58	0xbe6d75d3	-0.23189478
59	0xbe544a46	-0.20731458
60	0x3ee95504	0.45572674
61	0xc057cb6c	-3.371791
62	0x3e466821	0.1937566
63	0x3e424e7c	0.18975252
64	0x3f7692f2	0.9631797
65	0x3ea2d875	0.3180577
66	0x405f24fd	3.4866326
67	0x4185302e	16.648525
68	0x4065d005	3.5908215
69	0x4042cf7f	3.0439146
70	0x3fb3e24b	1.4053434
71	0xbd655d5f	-0.05599725
72	0x3d99028f	0.07471191
73	0xbff19c53	-1.8875831
74	0x3e7ce558	0.24696863
75	0xbf6187ef	-0.88098043
76	0xbf8ef5cb	-1.116876
77	0xbf2c5f77	-0.6733317
78	0x3f0064e9	0.50153977
79	0xc0025e35	-2.037
80	0x3e33e687	0.17568408
81	0x3e077b0b	0.13230531
82	0xbd426bd9	-0.047466133
83	0xbe1650b3	-0.14679222
84	0x3deb92c1	0.115026005
85	0xc01c8860	-2.4458237
86	0xbe113a02	-0.14182284
87	0xbe2ac6b3	-0.1667736
88	0xbe48199b	-0.19541018
89	0xbe794cbe	-0.24345681
90	0x3ea3ad46	0.31968135
91	0xc011cd97	-2.2781732
92	0x3ee446af	0.44585177
93	0xbe8a9849	-0.2706931
94	0xbde882b0	-0.11353052
95	0xbe1214ac	-0.14265698
96	0x3edaece7	0.42758867
97	0xc013fa68	-2.3121586
98	0xbd004ca1	-0.03132308
99	0xbf2406d2	-0.64072907
100	0xbf093a82	-0.536049
101	0xbec83a2c	-0.39106882
102	0x3e8e48da	0.27789956
103	0xc01b1e84	-2.4237375
104	0x3da98076	0.08276455
105	0x3c3a660f	0.011376872
106	0xbe159013	-0.14605741
107	0xbe5fb62b	-0.21846835
108	0x3e9e6648	0.3093741
109	0xc024942c	-2.5715437
110	0x3e944e02	0.28965765
111	0xbf14d704	-0.5814059
112	0xbecc6d8e	-0.39927334
113	0xbea4e25d	-0.3220395
114	0x409d3b90	4.913521
115	0x418a8e91	17.319613
116	0x408893b2	4.268029
117	0x40644037	3.5664194
118	0x407e0b8e	3.9694552
119	0x3f99ea8a	1.2024701
120	0x3f668ea5	0.9006141
121	0xbf212095	-0.6294034
122	0x3f0a4a38	0.540195
123	0x3e1ae634	0.15126878
124	0x3e35a6f3	0.17739467
125	0xbe163cfa	-0.14671698
126	0x3db60d49	0.08889253
127	0xc0637b40	-3.5543976
128	0x3f0f259c	0.5591676
129	0xbeef5149	-0.46741703
130	0x3e43829f	0.19092797
131	0x3cc2dd4f	0.023787169
132	0x3da670dc	0.08126995
133	0xc02e608d	-2.724643
134	0x3ec48063	0.383792
135	0xbec1ba45	-0.37837425
136	0xbe4f0582	-0.20216945
137	0xbe59b39e	-0.21259925
138	0x3e50a965	0.20377119
139	0xc02f313d	-2.7373803
140	0x3e91547b	0.28384766
141	0xbe4753c1	-0.19465543
142	0xbdfdf19e	-0.123996004
143	0xbe273ac8	-0.16331017

critic.0.bias f4 [24]
0	0x3ccd7c51	0.025083693
1	0x3ee8593b	0.45380577
2	0x3f0dd07c	0.55396247
3	0x3f8d8511	1.1056234
4	0xbd1098da	-0.03530202
5	0x3e295ab4	0.16538507
6	0x3d34ee75	0.044172723
7	0xbd61d2af	-0.055132564
8	0x3f81e040	1.0146561
9	0x3eb6b054	0.35681403
10	0x3ed277e8	0.41107106
11	0x4051c85b	3.2778537
12	0x3e0f271f	0.13979767
13	0x3e19b9db	0.15012304
14	0x3cce33c5	0.02517117
15	0xbb4cf94e	-0.0031276527
16	0x3e16c9ab	0.14725368
17	0x3ec596ad	0.3859152
18	0xbd706728	-0.058692127
19	0x40951877	4.6592364
20	0x3f05004c	0.5195358
21	0x3de83d86	0.1133986
22	0x3e4b008c	0.19824427
23	0x3e855c3e	0.26046938

critic.1.weight f4 [24]
0	0x3f900a3d	1.1253124
1	0x3f315f36	0.69285905
2	0x3fc250d7	1.518092
3	0x3fac0ee9	1.344205
4	0x4007900b	2.1181667
5	0x40773e16	3.8631644
6	0x3fc8230b	1.5635694
7	0x40150bb8	2.3288403
8	0x3f9f3237	1.2437199
9	0x4095df51	4.6835103
10	0x4091e689	4.5593915
11	0x4041df73	3.0292633
12	0x40381033	2.8759887
13	0x401d2ece	2.4559817
14	0x406ee371	3.732632
15	0x3f5f2d61	0.8717862
16	0x403e7199	2.9756835
17	0x40761a86	3.8453689
18	0x3f960849	1.1721278
19	0x4067bbae	3.62083
20	0x3f27b707	0.6551365
21	0x3fbbf5f6	1.4684436
22	0x3f872505	1.0558172
23	0x403ea75f	2.9789655

critic.1.bias f4 [24]
0	0xbed76432	-0.4206863
1	0x401a14e3	2.4075248
2	0xbe70bb42	-0.23508933
3	0x4017a6ea	2.3695626
4	0xbe6ac5e6	-0.22927055
5	0xbe683e09	-0.22679915
6	0xbe370a09	-0.17874922
7	0xbf15b21e	-0.5847491
8	0x401b9a65	2.4312985
9	0x3e2608e2	0.16214326
10	0x3c613fc0	0.013748109
11	0x4020616f	2.5059469
12	0xbcb7f723	-0.022456711
13	0xbb31743e	-0.0027077342
14	0xbe89a821	-0.26886085
15	0xbdab0f64	-0.08352545
16	0x3db13906	0.086534545
17	0xbd6f66d4	-0.058447674
18	0xbf100272	-0.5625373
19	0x402618a2	2.5952535
20	0x400bc594	2.1839342
21	0xbd74baa8	-0.05974832
22	0xbe290ab5	-0.1650799
23	0xbd314e1e	-0.04328739

critic.3.weight f4 [1, 24]
0	0x3dca4d69	0.09878046
1	0xbfc807eb	-1.5627416
2	0x3f3b2a7c	0.731117
3	0xbfce9d5e	-1.6141775
4	0x3f9cbae4	1.2244534
5	0x401e28be	2.4712367
6	0x3ec5fdde	0.38670248
7	0x3fdc6614	1.7218652
8	0xbfc6aa44	-1.5520711
9	0x3f5199e8	0.8187547
10	0x404a73d0	3.1633186
11	0xc01bbd6b	-2.4334362
12	0xbdfc39c1	-0.12315703
13	0x3e9b6531	0.3035064
14	0x401d4b51	2.457722
15	0x3c9f74e3	0.019464916
16	0x3fdddc06	1.7332771
17	0x402d907a	2.7119431
18	0x3f4ad123	0.7922537
19	0xc030b438	-2.7609997
20	0xbfd2d6b9	-1.6471778
21	0x3e355893	0.1770957
22	0x3eb56a96	0.3543288
23	0x4012740a	2.2883325

actor_logit.0.weight f4 [24, 6]
0	0x3c952890	0.018207818
1	0xbe9358f8	-0.28778815
2	0xbe6620bb	-0.22473423
3	0xbe73990d	-0.23788853
4	0x3e0edd80	0.13951683
5	0xbe791e89	-0.24328054
6	0xbc11ee00	-0.008906841
7	0x3c8cb100	0.017174244
8	0x3e86bdba	0.26316625
9	0xbe9e0139	-0.30860308
10	0xbe8f7f38	-0.28026748
11	0xbe72be4f	-0.2370541
12	0x3e924d62	0.28574663
13	0xbe1645e4	-0.14675099
14	0x3eb04f04	0.34435284
15	0x3e172b30	0.14762568
16	0x3d53be00	0.05169487
17	0xbb472a00	-0.0030390024
18	0xbda547b4	-0.08070317
19	0x3d51cd90	0.05122143
20	0xbdbeead4	-0.09322134
21	0xbb3bfe00	-0.0028685331
22	0x3d555bf0	0.05208963
23	0xbea37fbc	-0.3193339
24	0xbe5b1c76	-0.21397576
25	0x3ea8c8e0	0.32965755
26	0xbea9a1cd	-0.33131257
27	0xbcf02580	-0.029314756
28	0x3ecec616	0.40385503
29	0x3e170388	0.14747441
30	0x3c3d60e0	0.011558741
31	0xbeb5243b	-0.35379204
32	0x3e4f1744	0.20223719
33	0xbe94e216	-0.2907874
34	0xbded5638	-0.115887105
35	0xbe0c42e8	-0.13697398
36	0xbd77a128	-0.060456425
37	0x3b9253c0	0.00446555
38	0x3eac6762	0.33672625
39	0x3d50c0f0	0.05096525
40	0x3ebb3874	0.36566508
41	0x3e7fb960	0.24973059
42	0xbe8425b8	-0.25810027
43	0x3e3b7ed8	0.18310106
44	0xbe93c1f4	-0.28858912
45	0xbe312db3	-0.17302589
46	0x3df5e9f0	0.12007511
47	0x3e0a091c	0.13480037
48	0x3e9cd0a4	0.3062793
49	0xbe069362	-0.1314216
50	0x3a2b5200	0.0006535351
51	0x3e573858	0.21017587
52	0xbeca2507	-0.39481375
53	0x3e971ea2	0.29515558
54	0xbeacd88e	-0.33758968
55	0x3bb86000	0.0056266785
56	0xbd8e2654	-0.06940904
57	0xbe5c2c75	-0.21501334
58	0x3d5d03b0	0.053958595
59	0x3eacd85c	0.3375882
60	0xbdf467fc	-0.11933896
61	0xbe78310d	-0.24237461
62	0xbe1a9c18	-0.15098608
63	0xbecf2c45	-0.40463462
64	0x3e3cb41c	0.18428081
65	0xbe48c5bf	-0.19606684
66	0xbe8b7d54	-0.27244055
67	0xbe70d649	-0.23519243
68	0x3e705bb4	0.23472482
69	0x3e5d62e4	0.21619755
70	0x3ea06e08	0.31333947
71	0x3e17a294	0.14808112
72	0xbe0b9c50	-0.13633847
73	0xbde9a500	-0.114084244
74	0x3df701b8	0.12060875
75	0x3eabd304	0.3355943
76	0x3de353b8	0.110999525
77	0xbe45cbf1	-0.19316079
78	0xbe44839c	-0.1919083
79	0xbec59ff9	-0.38598612
80	0x3db4a2d8	0.088201225
81	0xbe6a99aa	-0.2291018
82	0xbeba5c27	-0.36398432
83	0x3eb74998	0.35798335
84	0xbe87bdf2	-0.26512104
85	0xbd3e3af8	-0.046442956
86	0x3def8900	0.116960526
87	0x3c5517a0	0.013006121
88	0xbe8ca5d9	-0.27470282
89	0xbea8f53b	-0.32999596
90	0x3ea69bd2	0.32540756
91	0x3d8825f0	0.06647861
92	0x3ead6924	0.33869278
93	0xbe0c2566	-0.13686141
94	0x3df64690	0.120251775
95	0xbdbf31c8	-0.09335667
96	0xbc94ba60	-0.018155277
97	0xbe7e9bd1	-0.24864127
98	0x3e0d6234	0.13806993
99	0x3e042c08	0.12907422
100	0xbc09faa0	-0.00842157
101	0xbdbc09fc	-0.09181592
102	0xbe80d91c	-0.2516564
103	0x3e908c82	0.282322
104	0xbe9b9a14	-0.3039099
105	0x3e2b4254	0.16724521
106	0xbe0c91cc	-0.13727492
107	0xbe49b1a7	-0.19696675
108	0x3d96332c	0.07333979
109	0xbe592835	-0.21206744
110	0x3dc0a3c8	0.09406239
111	0x3da4314c	0.08017215
112	0xbe9b328e	-0.30312008
113	0x3d8b354c	0.06797275
114	0x3e320ee0	0.17388487
115	0x3e2579c4	0.16159731
116	0xbd527e10	-0.051389754
117	0xbeab5ac6	-0.33467692
118	0xbd80e318	-0.06293315
119	0x3e1130d0	0.14178777
120	0xbe188918	-0.14896047
121	0x3e1eaeb4	0.15496331
122	0x3e8b339a	0.27187806
123	0xbe5a4895	-0.2131675
124	0x3b83ed40	0.004026085
125	0x3e2cdc98	0.16881025
126	0x3d030ff0	0.03199762
127	0x3d0bae20	0.034101605
128	0x3d50cc50	0.050976098
129	0xbea452b4	-0.32094347
130	0x3d036a00	0.03208351
131	0x3e90be02	0.28269964
132	0x3ebc5a86	0.36787814
133	0x3e75b504	0.23994833
134	0x3d6013f0	0.054706514
135	0x3e433bc8	0.19065773
136	0xbe4b5efa	-0.1986045
137	0xbead370d	-0.33831063
138	0xbeb3be50	-0.35106134
139	0x3ed08604	0.40727246
140	0x3e84af88	0.2591517
141	0xbe907bdd	-0.282195
142	0x3e238eb8	0.15972412
143	0x3e9dd8f6	0.3082959

actor_logit.0.bias f4 [24]
0	0x3ed0f150	0.40809107
1	0x3eb6c4ce	0.35697025
2	0x3ea1f104	0.31629193
3	0xbdbfae94	-0.0935947
4	0xbe12b5b8	-0.14327133
5	0x3eab9e42	0.3351918
6	0x3e6a43bc	0.22877401
7	0xbe7b924b	-0.24567525
8	0x3ebbea58	0.36702228
9	0x3e49fb90	0.1972487
10	0x3e63e450	0.22255063
11	0xbe8302c0	-0.25588036
12	0x3defdff0	0.117126346
13	0xbe128d24	-0.14311653
14	0x3ea35254	0.3189875
15	0xbd96726c	-0.07346043
16	0x3e22c028	0.15893614
17	0x3d948220	0.07251382
18	0x3e31dd8c	0.1736967
19	0xbe0e104a	-0.13873401
20	0x3e4bd3d0	0.19905019
21	0xbe91ff20	-0.28514957
22	0x3dbcd5f0	0.09220493
23	0xbe8d6c61	-0.2762175

actor_logit.1.weight f4 [24]
0	0x3f800000	1.0
1	0x3f800000	1.0
2	0x3f800000	1.0
3	0x3f800000	1.0
4	0x3f800000	1.0
5	0x3f800000	1.0
6	0x3f800000	1.0
7	0x3f800000	1.0
8	0x3f800000	1.0
9	0x3f800000	1.0
10	0x3f800000	1.0
11	0x3f800000	1.0
12	0x3f800000	1.0
13	0x3f800000	1.0
14	0x3f800000	1.0
15	0x3f800000	1.0
16	0x3f800000	1.0
17	0x3f800000	1.0
18	0x3f800000	1.0
19	0x3f800000	1.0
20	0x3f800000	1.0
21	0x3f800000	1.0
22	0x3f800000	1.0
23	0x3f800000	1.0

actor_logit.1.bias f4 [24]
0	0x00000000	0.0
1	0x00000000	0.0
2	0x00000000	0.0
3	0x00000000	0.0
4	0x00000000	0.0
5	0x00000000	0.0
6	0x00000000	0.0
7	0x00000000	0.0
8	0x00000000	0.0
9	0x00000000	0.0
10	0x00000000	0.0
11	0x00000000	0.0
12	0x00000000	0.0
13	0x00000000	0.0
14	0x00000000	0.0
15	0x00000000	0.0
16	0x00000000	0.0
17	0x00000000	0.0
18	0x00000000	0.0
19	0x00000000	0.0
20	0x00000000	0.0
21	0x00000000	0.0
22	0x00000000	0.0
23	0x00000000	0.0

actor_logit.3.weight f4 [1, 24]
0	0xbe4e358c	-0.20137614
1	0xbe27db74	-0.16392308
2	0x3e25047c	0.16114992
3	0x3de22d8c	0.110438436
4	0x3e441bda	0.1915125
5	0x3e2773f0	0.1635282
6	0xbe3aaaca	-0.18229213
7	0xbe0ea4d6	-0.13930067
8	0xbd071918	-0.032982916
9	0xbe07bf12	-0.13256481
10	0x3e11251a	0.1417431
11	0xbe1e05eb	-0.15431945
12	0xbdcbf723	-0.09959247
13	0xbe49ef7a	-0.1972026
14	0xbded580b	-0.115890585
15	0x3e2beab4	0.16788751
16	0x3e2b23ca	0.16712871
17	0x3e15a06c	0.14611977
18	0x3e216478	0.15760982
19	0x3e39dc4c	0.18150443
20	0xbd5617a4	-0.05226864
21	0x3db7f0f4	0.08981505
22	0x3e3a399e	0.18186042
23	0x3d8a4c2c	0.0675281
