DATA403_final/checkpoints/Acrobot-v1/PPO_781.pt (torch, 5825 bytes, 11 tensors)

critic.0.weight f4 [24, 6]
000000 19 2b b6 3f 26 22 5c 3e 29 bd b5 be 3a 43 ec 3d
       1.4231902 0.21497402 -0.3549588 0.1153626
000010 7e 88 d8 be 59 be 1f be 9e 2e 5d be c9 38 1d bf
       -0.42291635 -0.15599956 -0.21599814 -0.6141477
000020 81 aa ba 3e 6a 73 bd 3f 9e 12 65 bc fa ed 5d bd
       0.3645821 1.4800847 -0.013981489 -0.05418203
000030 8e c3 a3 bf 01 06 5e 3f 51 56 ca be d9 40 1c bf
       -1.2794054 0.8672791 -0.3951898 -0.6103645
000040 4d dc 49 bf 11 9d 4d be 95 51 9d bf ac d4 b2 3e
       -0.7885178 -0.20079447 -1.2290522 0.3492788
000050 c8 d7 43 be 2b 8d 1a bf b5 39 e6 3d 5c dd 57 3e
       -0.19125283 -0.60371655 0.112414755 0.21080536
000060 d5 9e 83 be f7 3c 86 bf e6 7c 3f 3e 4e 75 8b bf
       -0.25707117 -1.0487355 0.18699989 -1.0895174
000070 71 a5 ca bc c1 31 06 bd 28 09 a0 3e 2d 3a 84 3e
       -0.024737092 -0.032762293 0.31256986 0.25825635
000080 01 3c fc 3e 2e 0e b6 bb 8a cd 44 bf 8e c8 da be
       0.4926453 -0.0055558896 -0.7687613 -0.42731136
000090 de ab 91 3f ee fd 35 3f 02 0c 48 3f e4 e4 d0 3c
       1.1380575 0.7109059 0.7814332 0.025499769
0000a0 a4 22 ed be 71 e8 87 be dd 40 4a 3e 7e 1c 31 3e
       -0.4631549 -0.26544526 0.19751306 0.17296025
0000b0 c4 5a 07 bf f1 ad 54 3d b1 db 8f be 60 24 29 3e
       -0.5287287 0.051923696 -0.280973 0.16517782
0000c0 20 af 1a 3f 2d 6d 9b 3f ce 60 e2 3e 10 2c 4c bf
       0.6042347 1.2142693 0.4421448 -0.79754734
0000d0 14 8e 2c 3e c8 16 6d 3e 58 81 a5 bf ad 41 99 3e
       0.16851074 0.23153222 -1.2930098 0.2993292
0000e0 a1 9b 64 bf bd 69 b2 3e d4 5c 49 bd ae 8e 05 3d
       -0.8929997 0.34846297 -0.049160793 0.032606773
0000f0 4e b7 5a bf f3 2c 45 3f a6 e2 2b bd fb 14 49 bf
       -0.8543595 0.7702171 -0.041964196 -0.7854764
000100 f3 01 08 3e 37 5e 2c bd 73 b9 c8 3f fe b4 1a bf
       0.13281994 -0.042082038 1.5681595 -0.6043242
000110 c6 75 0b 3f c2 f9 25 3e 86 87 c6 3e 6c 1f 4d 3e
       0.54476583 0.16208556 0.3877527 0.20031518
000120 73 b0 f2 bf 71 70 58 bf 04 89 20 be 52 5f d0 bb
       -1.8960098 -0.8454657 -0.15677267 -0.0063590193
000130 30 6e 7e be ea d1 6f be 57 bd 09 3d 16 62 cb be
       -0.2484672 -0.2341992 0.033627834 -0.3972327
000140 1a 60 34 bf f9 1e 8d 3e 4a 9d ac 3d 7e a4 9f bc
       -0.7045914 0.27562693 0.08428438 -0.019487616
000150 0b 7b 82 bf 66 d2 fb be 78 80 0b bf a4 01 ec 3e
       -1.01938 -0.4918396 -0.544929 0.46095002
000160 2c 39 33 3f cd 6e d4 3d 88 6a 57 be 1b aa 6f 3f
       0.7000911 0.10372696 -0.21036732 0.93618935
000170 27 82 9e 3d cd 53 9e 3d 60 a5 a5 3e 13 76 cd 3e
       0.07739668 0.077308275 0.32352734 0.40129146
000180 4d 9a 35 3f bf a5 6b 3e 05 7a 20 bf 40 13 e0 3d
       0.7093857 0.23012446 -0.6268619 0.10941172
000190 ef 74 2c 3e f7 c8 39 be 0b a8 31 bf 9e ce 1c bd
       0.16841482 -0.18143068 -0.6939704 -0.038282983
0001a0 a4 08 49 be c5 75 bc 3e 4f 3a 20 be e8 b8 dd be
       -0.19632202 0.368086 -0.15647243 -0.43305135
0001b0 7d 35 32 3e 41 7d 1f be 18 e1 0e bf b2 75 85 3d
       0.17403217 -0.15575124 -0.55812216 0.06516589
0001c0 6d 91 79 3e 15 d8 3f be cf ba ae 3f 27 5d 29 bf
       0.24371882 -0.18734773 1.365076 -0.66157764
0001d0 fa 04 93 3f 48 0f 85 3e fc 37 89 be e7 de a0 be
       1.1485894 0.2598822 -0.26800525 -0.3142006
0001e0 d0 d2 93 3e 34 c6 6a 3f c4 4c 66 be 7d da 13 bf
       0.28871775 0.91708684 -0.22490221 -0.5775526
0001f0 a4 3e 91 ba 7e 3d 2b be 8c 9f ea bd ca 31 1b bf
       -0.001108129 -0.16722676 -0.114562124 -0.6062285
000200 16 f7 fe 3d 72 ce 92 3f e8 a9 89 bf 75 3e 84 be
       0.12449472 1.1469252 -1.0754976 -0.258289
000210 70 39 d0 3d 55 de 12 3d 70 7e 20 3f 75 fa 04 3e
       0.10167205 0.035856564 0.6269293 0.12986167
000220 08 c8 f4 3e eb 11 e9 3d ff 06 ff 3e 01 1b 07 3f
       0.47808862 0.11380371 0.49810025 0.5277558
000230 fd 55 58 3f 22 59 cc 3d 5c 16 87 3e fe c6 79 be
       0.8450621 0.09977938 0.26384246 -0.24392316

critic.0.bias f4 [24]
000000 37 61 3a 3e 85 4a c9 3e aa 2d e8 3e bf f9 24 3f
       0.18201147 0.39314666 0.4534734 0.6444358
000010 ae 37 77 be e0 f1 06 bf 9a 7a 2a 3e 6a ec 66 bf
       -0.24142334 -0.5271282 0.16648331 -0.9020449
000020 13 93 a8 3e cd e8 6c 3f b6 e2 06 3f 1d 54 21 3d
       0.3292471 0.92542726 0.52689683 0.039386857
000030 96 bb 63 bd fb 25 13 3f 7a 8f 4c 3e 29 1f 2b be
       -0.055598818 0.5747983 0.19976607 -0.16711105
000040 26 57 81 bf c6 3b 87 bd 74 6c cb 3e c9 64 92 3f
       -1.010472 -0.06603198 0.3973118 1.1437007
000050 47 25 e3 3e f5 60 c7 3d fb 9d 54 bf 93 d3 14 3f
       0.44364378 0.0973529 -0.8305356 0.58135337

critic.1.weight f4 [24]
000000 c0 4d 67 40 08 ed 2e 40 28 03 28 40 43 e7 6d 40
       3.6141205 2.7332172 2.6251926 3.71724
000010 38 11 83 40 1e 3a 89 40 1b a5 4e 40 1a ea 86 40
       4.095852 4.2883444 3.2288272 4.216077
000020 f4 47 7f 40 55 a8 d2 3f 7d 16 02 3e ad 1f 6a 40
       3.9887667 1.6457621 0.12703891 3.6581833
000030 35 d9 34 40 fd ec 36 40 bc 35 45 40 b4 f0 8c 40
       2.8257573 2.8582146 3.0814047 4.4043827
000040 48 fd 9c 40 64 21 84 40 d7 04 4e 40 5f 4b 4a 40
       4.905918 4.129076 3.2190454 3.1608503
000050 c2 1a 31 40 c2 07 22 40 57 eb 8b 40 3e 4c 11 40
       2.7672582 2.5317235 4.372478 2.2702785

critic.1.bias f4 [24]
000000 f1 0d 96 3f d9 da d4 3f fb a1 ac 3f 40 08 89 3f
       1.1723005 1.6629287 1.3486933 1.0705643
000010 04 31 83 3f 4e c5 f6 bf 6b aa 5d bf f8 2c da bf
       1.0249333 -1.9278963 -0.8658816 -1.7044973
000020 cd 1a 10 bf eb f2 2d 3f 0c 4d 4c 3f b7 ea 5a be
       -0.56290895 0.6794879 0.79805064 -0.21378599
000030 f5 66 27 3f eb ca a6 3f b3 5c 96 3f d2 b1 8e 3f
       0.65391475 1.3030676 1.174704 1.1148016
000040 44 ff 60 bf 88 39 be bf 45 71 85 3f 3f b7 d5 bf
       -0.87889504 -1.4861307 1.0425192 -1.6696547
000050 7f e9 a0 3f 0e c3 86 ba c2 c7 81 bf 57 46 ba 3e
       1.2571257 -0.001028152 -1.0139086 0.3638179

critic.3.weight f4 [1, 24]
000000 29 fe 0e c0 50 f4 bd bf 1e db d5 3f 8a 16 05 c0
       -2.2342627 -1.4840183 1.6707494 -2.0795007
000010 f2 71 2f 40 c2 d4 97 40 88 66 02 c0 7e 3e 89 40
       2.7413297 4.7447214 -2.037508 4.2888784
000020 b6 97 11 c0 f1 e7 18 bf 59 87 62 3e aa 07 10 c0
       -2.2748847 -0.59728914 0.22121944 -2.2504678
000030 c3 35 dd bf ea f6 c2 bf c0 d0 fd 3f 5e ee 25 40
       -1.7282032 -1.5231602 1.982933 2.5926738
000040 82 af 86 40 fc 45 86 40 aa e2 d0 bf 59 62 fa bf
       4.2089243 4.196043 -1.6319172 -1.9561263
000050 c9 e4 d1 bf 26 d6 b7 3f 9f c8 8b 40 f2 ff 9b 3f
       -1.6397945 1.4362228 4.36824 1.2187483

actor_logit.0.weight f4 [24, 6]
000000 38 9f b5 3e 2a bc 08 bf da b2 13 bf 64 7f 1e bf
       0.35473037 -0.53412116 -0.5769478 -0.6191313
000010 58 4f 86 3d ec 3e c0 bd 9a 1c 11 bf 73 0c 7b be
       0.06558102 -0.093870014 -0.5668427 -0.24516468
000020 ae 15 0e 3f 96 06 49 3e fe 40 02 bf d9 65 d3 be
       0.5550183 0.19631419 -0.5088042 -0.4128864
000030 a3 a8 26 be 6d 6e 97 be 44 d8 0f 3f cb 7a 04 3e
       -0.16275267 -0.29576436 0.5618937 0.12937467
000040 3b b1 7f be 53 99 3b be 2e aa a9 3d f8 4d db bc
       -0.24969952 -0.18320207 0.08284412 -0.026770577
000050 eb 70 e6 be 51 49 44 3d d6 1e 3b bf 08 c9 69 3d
       -0.45008025 0.047921482 -0.73093927 0.057076484
000060 f1 4d a3 3e f0 dd 63 3f 5f c3 0c bf 73 f4 3c bf
       0.31895402 0.89010525 -0.5498561 -0.738105
000070 c5 48 65 3e 6f 5d b1 bd 00 e2 86 be 5d b0 fe be
       0.2239104 -0.08660399 -0.263443 -0.4974393
000080 08 dc c5 3e 1a 4b 0f 3d d1 15 58 be 13 26 5d bf
       0.38644433 0.03498373 -0.21102072 -0.8638622
000090 9f c8 70 3d ef 1e 8e be 3d a5 0d 3e 14 49 13 bf
       0.058785077 -0.27757975 0.13832565 -0.57533383
0000a0 1d 88 9f be 49 8a 73 bd 7b ee 07 3e 37 92 87 3f
       -0.31158534 -0.05945805 0.13274567 1.0591496
0000b0 5c 99 a0 3d 25 5e cf bd ae f5 51 be be 07 2e 3f
       0.07841751 -0.101253785 -0.20503876 0.67980564
0000c0 96 3e 59 3e c6 5b 18 bf 9f 2a 76 be 7b ba 0d 3e
       0.21215281 -0.59515035 -0.24039696 0.13840668
0000d0 9c 64 fd be 79 fc 9d 3c d8 ae c1 3e 71 07 08 3f
       -0.4949082 0.019285427 0.37828708 0.53136355
0000e0 d6 6a 0d 3f 61 e0 33 ba 38 de 1c be ef 49 c6 3e
       0.55241144 -0.0006861743 -0.15319145 0.38728282
0000f0 bf 68 be be 9f ea 7d be f2 82 20 bf 49 66 89 bf
       -0.3718929 -0.24796532 -0.62699807 -1.073434
000100 72 bf a8 3c 88 68 74 be 91 ef 0f be a0 7b ef 3d
       0.0205991 -0.23868 -0.14056231 0.116935015
000110 8a f2 7a 3e 88 a2 fd bd cb ac 33 3e 91 33 94 3e
       0.24506584 -0.12384516 0.17546384 0.28945592
000120 f7 22 0d 3f 71 fc 0c bf b9 af 26 be b1 9c ea 3e
       0.5513148 -0.55072695 -0.1627797 0.4582267
000130 e2 aa 37 3e 41 0b 4b be 92 94 6a 3d c6 ab 25 3f
       0.1793628 -0.19828512 0.057270594 0.6471523
000140 55 1f 0b 3f 39 2d 03 bf ea ce ea 3d a3 a6 c3 3e
       0.54344684 -0.5124088 0.11465247 0.3821307
000150 43 21 22 bf 29 9b ee bd 9a 99 f0 3e fc f7 05 3f
       -0.63332003 -0.11650688 0.4699219 0.5233152
000160 df ad 2e bf 8f 9c 08 bf 77 ce 3d 3f 17 29 22 bf
       -0.68234056 -0.5336389 0.74143165 -0.6334395
000170 eb 9b 50 bc 4f c0 49 be 76 a0 d6 3e ba 3e 29 bd
       -0.012732486 -0.19702266 0.41919297 -0.041319586
000180 1d c4 b8 be e4 ab 59 bf a8 66 e4 3e 39 f7 eb 3e
       -0.36087123 -0.8502791 0.4460957 0.46087053
000190 c7 ee 11 bc 61 47 7f be 0b 0e 57 bd 8f 4f 0c be
       -0.008907027 -0.24929573 -0.052503627 -0.13702224
0001a0 fd fe 5c be 5d a0 c8 3c eb 06 ec be ad ab 44 be
       -0.21581645 0.02449053 -0.46099028 -0.19206114
0001b0 aa ab 25 3e 48 d5 f2 be 5c 2f 06 bf 84 2f 89 be
       0.16178766 -0.47428346 -0.52416015 -0.26794064
0001c0 23 13 a3 3e 47 d2 a4 bd fb 4d 2e 3f 9a 85 30 3f
       0.31850538 -0.0804792 0.6808774 0.6895386
0001d0 13 8e 19 3e 75 48 a1 be ae d6 7f 3d 9d ba cd 3d
       0.14995603 -0.31500593 0.062460594 0.10045359
0001e0 b6 dc 02 bf 3d ad 06 3f 3c 3d 4d bf 4b c7 3a bf
       -0.5111803 0.5260809 -0.8017156 -0.72960347
0001f0 6e c1 3c be e8 2d 00 3e 05 4b 3d be a0 e2 9a 3d
       -0.18433163 0.12517512 -0.18485649 0.075627565
000200 ce 1f 38 bd 10 ab 1e bf c0 e4 26 3f 84 06 be 3e
       -0.044952206 -0.6197977 0.65192795 0.37114346
000210 9d d8 29 3e 06 9e d0 be 3b 99 56 3e cd 23 da 3e
       0.16586538 -0.40745562 0.2095689 0.4260544
000220 08 11 53 be 09 1c 2a bf 49 6d 3d be a6 bf 4d 3f
       -0.20611966 -0.6644903 -0.1849872 0.8037056
000230 d8 f9 fb 3e 69 25 f3 be d7 a6 6f be 68 23 06 3f
       0.49214053 -0.4748948 -0.23403488 0.52397776

actor_logit.0.bias f4 [24]
000000 65 1d 0c 3f a7 b3 a3 be 87 fc 8e be 3b c4 b1 3e
       0.5473235 -0.31973 -0.27927038 0.34720024
000010 52 86 1a 3f 98 a5 b9 3e c0 c6 a6 be 78 7e 55 3d
       0.60361207 0.3625915 -0.3257351 0.052122563
000020 28 8c b6 3e 2c f4 a2 be 0b 53 bb bb 2d 8f d3 be
       0.35653806 -0.31826913 -0.0057166866 -0.41320172
000030 02 5d 12 3f b4 59 04 3e af 8b a6 be f6 fb 99 3e
       0.5717317 0.12924844 -0.32528445 0.30075043
000040 9c 92 32 3e db 2c 0f 3e 87 77 51 3e 08 5b c9 be
       0.1743874 0.13981955 0.20455752 -0.39327264
000050 c0 4f 84 3f f7 c9 87 be 3f 23 57 3e a7 e7 94 3e
       1.0336838 -0.26521274 0.21009539 0.29082987

actor_logit.1.weight f4 [24]
000000 fc 97 a8 3f 4b 56 b0 3f b6 15 82 3f 6a 8f ca 3f
       1.3171382 1.3776335 1.0162876 1.5825016
000010 81 53 dc 3f 63 39 ea 3f bb 23 9f 3f 7b 22 17 40
       1.7212983 1.8298763 1.2432779 2.3614795
000020 8d 6b d9 3f 74 e7 01 40 9c 46 d2 3f b8 01 b7 3f
       1.6985947 2.0297518 1.6427798 1.42974
000030 25 5a d5 3f 24 39 b4 3f 5b f8 c1 3f 54 11 e3 3f
       1.6668135 1.4079938 1.5153917 1.7739663
000040 14 82 d7 3f 51 ce 7d 3f 6c fc ae 3f 3c 88 b7 3f
       1.6836572 0.9914294 1.3670783 1.433845
000050 0b 08 e0 3f fc 50 f4 3f cc 65 d8 3f d0 58 ce 3f
       1.7502455 1.9087214 1.6906066 1.6120853

actor_logit.1.bias f4 [24]
000000 f8 32 80 3e e6 7d 13 be ba 4f 0c bf 99 b8 f1 bd
       0.25038886 -0.14403495 -0.54809153 -0.11802787
000010 bc c9 bf 3d 3b 5e c5 3e 45 fe c4 be af 34 df 3e
       0.0936465 0.38548455 -0.38475242 0.43594882
000020 cf ff 5e bd 01 2c d5 bd ab da 3b bd fe bd 95 3e
       -0.054443177 -0.10408784 -0.045862835 0.29246515
000030 a3 ca 6f 3c 4f e1 98 3e a4 0a 55 be 3e b2 84 3d
       0.014635715 0.29859397 -0.2080484 0.064793095
000040 cd 30 ab bc 81 95 3f 3e 13 ce c2 bd 14 a3 47 3d
       -0.020897293 0.18709375 -0.09511962 0.048739508
000050 f1 59 71 3e 77 e3 92 3e 2a 4d 11 3e 0d 8c ac 3e
       0.23569466 0.28689167 0.14189592 0.337006

actor_logit.3.weight f4 [3, 24]
000000 3b cb 02 3f 23 38 15 bf 8a b8 28 3f d1 a8 d4 3e
       0.51091355 -0.5828878 0.65906584 0.41535047
000010 3c 41 28 3e 42 13 2b 3e 20 70 09 3f 59 1b c0 bf
       0.16431135 0.16706565 0.53686714 -1.5008346
000020 9b ae 0c 3f 72 98 c6 bf d7 64 6c 3f 16 4e 48 be
       0.54953927 -1.5515273 0.9234137 -0.19561037
000030 94 13 25 3f 00 b2 4e bf 52 bb 00 bf ca ae 39 3f
       0.64483 -0.80740356 -0.5028583 0.7253233
000040 4d ee 2f 3e c9 f0 a7 3e 0c 26 1d 3f e8 01 ec 3e
       0.17180748 0.32800892 0.6138618 0.46095204
000050 f8 2e aa 3e f0 79 86 bf b2 b2 88 3e 87 ee 2f bf
       0.3323896 -1.0505962 0.26698834 -0.6872334
000060 e4 6d 16 bf 89 51 0e 3f 64 63 30 be 93 3e 49 bf
       -0.5876143 0.5559316 -0.17225415 -0.78611106
000070 51 4b 28 bf 93 f9 f6 3e 3b e7 6f be 48 59 02 3e
       -0.65739924 0.48237285 -0.23428051 0.1272937
000080 b1 da 56 bf 70 09 f3 3e f8 a4 ce be 5e fe 28 3f
       -0.83927447 0.47468138 -0.40360236 0.66013134
000090 f3 0f 34 bf 97 90 7f 3e 86 3a 4a 3f 8a ae 0c bf
       -0.70336837 0.249575 0.7899555 -0.54953825
0000a0 34 54 d0 3e 8c 7a 82 bd 9c c5 e4 be 92 aa f4 3e
       0.40689242 -0.0637103 -0.44682014 0.47786385
0000b0 df b0 7a bf 92 f0 62 3f 18 51 cc 3e ce 57 eb bd
       -0.97926134 0.8864833 0.3990562 -0.11491357
0000c0 ab 69 4b 3e 6f 78 a0 be d0 28 b3 be 3b 1a f1 3e
       0.19864528 -0.31341884 -0.34992075 0.47090325
0000d0 da df 3b 3f 03 5c a8 bf 80 97 17 bf 37 a8 fd 3e
       0.73388445 -1.315308 -0.59215546 0.495424
0000e0 ae 74 06 3e 6e 5c 1e 3d c5 0d 9d bd 8e 11 c7 be
       0.13130447 0.038662367 -0.07668642 -0.3888058
0000f0 00 ab 91 be 44 89 64 3e 84 54 91 be a1 82 b3 3e
       -0.28450775 0.22317988 -0.28384793 0.350606
000100 7b 9b 88 bf a5 57 37 be 86 d8 03 3e 8a aa 16 bf
       -1.0672449 -0.17904527 0.12875566 -0.5885397
000110 ff 6c 2d 3f 0b ce 5d 3e 1d 8a 20 bf e1 a4 10 3f
       0.6774444 0.2166063 -0.62710744 0.56501585

actor_logit.3.bias f4 [3]
000000 3b 0d be 3d 1d b8 ec bd 78 61 13 be
       0.09279867 -0.11558554 -0.1439265
