DATA403_final/checkpoints/Acrobot-v1/PPO_0.pt (torch, 5797 bytes, 11 tensors)

critic.0.weight f4 [24, 6]
000000 80 4f 48 bb 1c 42 60 3e 15 09 ac be 0a d4 99 be
       -0.0030564964 0.21900219 -0.3360068 -0.30044585
000010 28 03 21 be 50 34 e0 3d 80 86 04 bc 74 bb a5 3e
       -0.1572386 0.10947478 -0.008088708 0.32369578
000020 80 65 14 bd 98 3d dd 3d 98 ad fc bd cc 58 a4 bd
       -0.03622961 0.10802764 -0.12337798 -0.08024749
000030 a0 b0 c7 be aa 6e 8a be 0d 54 2c be 60 c6 77 3c
       -0.39001942 -0.27037555 -0.16828938 0.01512298
000040 b8 44 25 3e 58 d6 7a 3e 93 b4 8d be 2a 0b 36 be
       0.16139495 0.24495828 -0.2767683 -0.17777696
000050 70 d7 17 3e fe 91 ad 3e 68 11 ac bd 1a 6a 9c 3e
       0.14828277 0.33900446 -0.084017575 0.305497
000060 a4 c3 86 bd d8 f0 30 3d f6 43 bd 3e 92 e7 c1 be
       -0.06580284 0.043198436 0.36965913 -0.37871987
000070 86 96 83 be 68 ab d3 bd 54 f4 22 be 9e 98 b4 3e
       -0.25700778 -0.103354275 -0.15913516 0.35272688
000080 0b 7c 87 be c0 70 40 be 32 08 92 be 4e c3 c3 be
       -0.26461825 -0.1879301 -0.28521878 -0.38234943
000090 d0 07 74 be 06 ad b3 3e 38 8a 3a 3e 94 9d 4a 3e
       -0.23831105 0.35092944 0.18216789 0.19786674
0000a0 c0 e2 af 3c 4f 53 56 be 3c 74 8d 3d ee 29 c3 be
       0.021470428 -0.20930217 0.069069356 -0.38117927
0000b0 77 08 97 be f0 83 57 be 70 e1 83 3e 00 1c 75 3e
       -0.29498646 -0.21046424 0.25757933 0.23936462
0000c0 c5 66 39 be 80 58 71 bc d8 ae 85 3e fc cb cf 3e
       -0.1810561 -0.014730573 0.26109958 0.40585315
0000d0 44 ea 25 3e 78 e6 61 3d ac 25 8c 3e 89 25 76 be
       0.16202646 0.055151433 0.2737249 -0.24037756
0000e0 04 cd 9b 3d 8a 0e a2 be fc de 90 be b1 f4 57 be
       0.07607463 -0.31651717 -0.28295124 -0.21089436
0000f0 98 27 3d 3e 24 1f 28 3e 79 a1 77 be e8 96 fc 3d
       0.18472135 0.16418129 -0.2418269 0.123334706
000100 e8 7e 65 3e 10 0f 53 bd e0 62 7f 3c 00 ba c1 3d
       0.22411692 -0.051528037 0.0155875385 0.09459305
000110 4e ac 81 3e ea b3 c8 3e 02 14 a1 be 88 33 19 be
       0.2532677 0.39199764 -0.31460577 -0.14961064
000120 dc 4b 24 3e 9c 2f ad 3e ba e4 b5 3e d8 6e b8 3e
       0.16044563 0.33825386 0.35526067 0.36022067
000130 04 65 a6 3d 4d c3 b5 be 18 d4 19 3d 18 c4 82 be
       0.08124736 -0.35500565 0.037555784 -0.25540233
000140 cb cc c2 be 2a b7 b9 3e ca ee 9e 3e a5 81 d0 be
       -0.3804687 0.36272556 0.31041557 -0.4072391
000150 40 7e 9c 3d 20 d9 8c bd a0 96 89 bd 12 5d 3f be
       0.07641268 -0.06877351 -0.067181826 -0.18687847
000160 24 c3 20 3e 3b 9c 77 be 8c 40 19 3e cc 68 53 3e
       0.1569944 -0.24180691 0.14966029 0.20645446
000170 3c a2 95 3e e8 4f 1c 3e a8 e0 ce be b8 97 87 be
       0.29225338 0.15264857 -0.40405774 -0.2648294
000180 9c bc 50 3e cc fe ae 3d 3c 0e a3 be 1d b8 70 be
       0.20384449 0.085446924 -0.31846797 -0.23507734
000190 6c a3 c4 3e f2 d7 8c 3e 58 47 36 be 88 6e d2 bd
       0.3840593 0.27508503 -0.17800653 -0.102749884
0001a0 73 1d c7 be c0 72 f0 bb 20 68 9d be 3d 3b a1 be
       -0.38889655 -0.007337898 -0.30743504 -0.31490508
0001b0 00 46 b8 bc 00 12 7b 3d de 33 2b be 2c 0f 78 3e
       -0.022494316 0.061296463 -0.16719005 0.24224538
0001c0 c3 65 7e be 4e a9 bd 3e 58 3e 8f 3e 01 44 b0 be
       -0.24843507 0.37043232 0.27977252 -0.34426883
0001d0 20 17 d0 bd 20 e8 96 3c 40 f9 73 3d b8 4c c6 3d
       -0.10160661 0.018421233 0.059563875 0.09682602
0001e0 9c 0d 24 3e 10 54 c8 3c 0f fa 4b be 9c d0 45 3e
       0.16020817 0.024454147 -0.19919609 0.1931786
0001f0 55 81 c8 be 60 c7 77 be 84 4c d1 bd cc a2 4b be
       -0.39161173 -0.2419715 -0.10219672 -0.19886321
000200 1c 3f 12 be e4 51 ab be 7c d9 b1 bd 5c b8 b2 3d
       -0.14281887 -0.33460915 -0.0868406 0.0872657
000210 e2 2b 88 be 80 a1 ab bc 20 a1 95 3e a8 e6 2b bd
       -0.2659598 -0.020951033 0.2922449 -0.041968018
000220 20 e5 39 3c f0 41 10 bd a4 35 a9 3d b8 e7 84 3e
       0.011346132 -0.035219133 0.08262184 0.25958037
000230 12 ff c5 3e ca bd 84 3e 0c 73 c6 3e d0 de f1 bc
       0.38671166 0.25926048 0.3875965 -0.02952519

critic.0.bias f4 [24]
000000 1d c5 bb be ac 2f 46 be 30 53 8e 3e 80 70 2d bb
       -0.36673823 -0.19354123 0.27797842 -0.002646476
000010 d3 c9 4f be 48 2d a0 be 5f 9d c3 be d0 6a b0 be
       -0.20291834 -0.31284547 -0.38206002 -0.3445649
000020 1c 97 a9 bd 54 42 65 3e 54 03 62 3e ad 96 c9 be
       -0.08280775 0.22388583 0.22071582 -0.3937277
000030 88 62 82 3e 05 90 a3 be 30 c2 b0 bd 9e 81 29 be
       0.25465798 -0.31945816 -0.08630788 -0.16553351
000040 50 0b a1 bd 20 29 a4 bd 20 91 bb be 7e 7a b4 be
       -0.07863486 -0.080156565 -0.3663416 -0.35249704
000050 d0 d4 82 bd 00 00 ad 3b 6e e8 3d be 4c 7a 1d 3e
       -0.06388247 0.005279541 -0.18545696 0.15378684

critic.1.weight f4 [24]
000000 00 00 80 3f 00 00 80 3f 00 00 80 3f 00 00 80 3f
       1.0 1.0 1.0 1.0
000010 00 00 80 3f 00 00 80 3f 00 00 80 3f 00 00 80 3f
       1.0 1.0 1.0 1.0
000020 00 00 80 3f 00 00 80 3f 00 00 80 3f 00 00 80 3f
       1.0 1.0 1.0 1.0
000030 00 00 80 3f 00 00 80 3f 00 00 80 3f 00 00 80 3f
       1.0 1.0 1.0 1.0
000040 00 00 80 3f 00 00 80 3f 00 00 80 3f 00 00 80 3f
       1.0 1.0 1.0 1.0
000050 00 00 80 3f 00 00 80 3f 00 00 80 3f 00 00 80 3f
       1.0 1.0 1.0 1.0

critic.1.bias f4 [24]
000000 00 00 00 00 00 00 00 00 00 00 00 00 00 00 00 00
       0.0 0.0 0.0 0.0
000010 00 00 00 00 00 00 00 00 00 00 00 00 00 00 00 00
       0.0 0.0 0.0 0.0
000020 00 00 00 00 00 00 00 00 00 00 00 00 00 00 00 00
       0.0 0.0 0.0 0.0
000030 00 00 00 00 00 00 00 00 00 00 00 00 00 00 00 00
       0.0 0.0 0.0 0.0
000040 00 00 00 00 00 00 00 00 00 00 00 00 00 00 00 00
       0.0 0.0 0.0 0.0
000050 00 00 00 00 00 00 00 00 00 00 00 00 00 00 00 00
       0.0 0.0 0.0 0.0

critic.3.weight f4 [1, 24]
000000 0e 22 3c be d0 b3 61 bc aa d1 37 3e 89 84 aa bd
       -0.18372366 -0.013775781 0.17951074 -0.0832606
000010 a0 bf 3c 3e a4 65 97 3d 9d a2 3c be 96 3f 04 3e
       0.18432474 0.07392433 -0.18421407 0.12914881
000020 00 f6 c0 bc 64 9e ba bd 62 25 27 3e 1d e9 28 be
       -0.023554802 -0.09112242 0.16322854 -0.16495176
000030 08 6f b3 3c 38 0d 2f bd 1c 44 15 3e 00 64 69 3d
       0.02190353 -0.042737216 0.14576763 0.056980133
000040 9c df c8 3d 04 a3 93 3d 20 0f 49 bd b8 d5 2f bd
       0.09808275 0.07208827 -0.04908669 -0.042928427
000050 88 40 2c be 14 84 e2 3d b4 f5 25 3e d2 04 0f 3e
       -0.16821492 0.11060348 0.1620701 0.13966683

actor_logit.0.weight f4 [24, 6]
000000 90 28 95 3c f8 58 93 be bb 20 66 be 0d 99 73 be
       0.018207818 -0.28778815 -0.22473423 -0.23788853
000010 80 dd 0e 3e 89 1e 79 be 00 ee 11 bc 00 b1 8c 3c
       0.13951683 -0.24328054 -0.008906841 0.017174244
000020 ba bd 86 3e 39 01 9e be 38 7f 8f be 4f be 72 be
       0.26316625 -0.30860308 -0.28026748 -0.2370541
000030 62 4d 92 3e e4 45 16 be 04 4f b0 3e 30 2b 17 3e
       0.28574663 -0.14675099 0.34435284 0.14762568
000040 00 be 53 3d 00 2a 47 bb b4 47 a5 bd 90 cd 51 3d
       0.05169487 -0.0030390024 -0.08070317 0.05122143
000050 d4 ea be bd 00 fe 3b bb f0 5b 55 3d bc 7f a3 be
       -0.09322134 -0.0028685331 0.05208963 -0.3193339
000060 76 1c 5b be e0 c8 a8 3e cd a1 a9 be 80 25 f0 bc
       -0.21397576 0.32965755 -0.33131257 -0.029314756
000070 16 c6 ce 3e 88 03 17 3e e0 60 3d 3c 3b 24 b5 be
       0.40385503 0.14747441 0.011558741 -0.35379204
000080 44 17 4f 3e 16 e2 94 be 38 56 ed bd e8 42 0c be
       0.20223719 -0.2907874 -0.115887105 -0.13697398
000090 28 a1 77 bd c0 53 92 3b 62 67 ac 3e f0 c0 50 3d
       -0.060456425 0.00446555 0.33672625 0.05096525
0000a0 74 38 bb 3e 60 b9 7f 3e b8 25 84 be d8 7e 3b 3e
       0.36566508 0.24973059 -0.25810027 0.18310106
0000b0 f4 c1 93 be b3 2d 31 be f0 e9 f5 3d 1c 09 0a 3e
       -0.28858912 -0.17302589 0.12007511 0.13480037
0000c0 a4 d0 9c 3e 62 93 06 be 00 52 2b 3a 58 38 57 3e
       0.3062793 -0.1314216 0.0006535351 0.21017587
0000d0 07 25 ca be a2 1e 97 3e 8e d8 ac be 00 60 b8 3b
       -0.39481375 0.29515558 -0.33758968 0.0056266785
0000e0 54 26 8e bd 75 2c 5c be b0 03 5d 3d 5c d8 ac 3e
       -0.06940904 -0.21501334 0.053958595 0.3375882
0000f0 fc 67 f4 bd 0d 31 78 be 18 9c 1a be 45 2c cf be
       -0.11933896 -0.24237461 -0.15098608 -0.40463462
000100 1c b4 3c 3e bf c5 48 be 54 7d 8b be 49 d6 70 be
       0.18428081 -0.19606684 -0.27244055 -0.23519243
000110 b4 5b 70 3e e4 62 5d 3e 08 6e a0 3e 94 a2 17 3e
       0.23472482 0.21619755 0.31333947 0.14808112
000120 50 9c 0b be 00 a5 e9 bd b8 01 f7 3d 04 d3 ab 3e
       -0.13633847 -0.114084244 0.12060875 0.3355943
000130 b8 53 e3 3d f1 cb 45 be 9c 83 44 be f9 9f c5 be
       0.110999525 -0.19316079 -0.1919083 -0.38598612
000140 d8 a2 b4 3d aa 99 6a be 27 5c ba be 98 49 b7 3e
       0.088201225 -0.2291018 -0.36398432 0.35798335
000150 f2 bd 87 be f8 3a 3e bd 00 89 ef 3d a0 17 55 3c
       -0.26512104 -0.046442956 0.116960526 0.013006121
000160 d9 a5 8c be 3b f5 a8 be d2 9b a6 3e f0 25 88 3d
       -0.27470282 -0.32999596 0.32540756 0.06647861
000170 24 69 ad 3e 66 25 0c be 90 46 f6 3d c8 31 bf bd
       0.33869278 -0.13686141 0.120251775 -0.09335667
000180 60 ba 94 bc d1 9b 7e be 34 62 0d 3e 08 2c 04 3e
       -0.018155277 -0.24864127 0.13806993 0.12907422
000190 a0 fa 09 bc fc 09 bc bd 1c d9 80 be 82 8c 90 3e
       -0.00842157 -0.09181592 -0.2516564 0.282322
0001a0 14 9a 9b be 54 42 2b 3e cc 91 0c be a7 b1 49 be
       -0.3039099 0.16724521 -0.13727492 -0.19696675
0001b0 2c 33 96 3d 35 28 59 be c8 a3 c0 3d 4c 31 a4 3d
       0.07333979 -0.21206744 0.09406239 0.08017215
0001c0 8e 32 9b be 4c 35 8b 3d e0 0e 32 3e c4 79 25 3e
       -0.30312008 0.06797275 0.17388487 0.16159731
0001d0 10 7e 52 bd c6 5a ab be 18 e3 80 bd d0 30 11 3e
       -0.051389754 -0.33467692 -0.06293315 0.14178777
0001e0 18 89 18 be b4 ae 1e 3e 9a 33 8b 3e 95 48 5a be
       -0.14896047 0.15496331 0.27187806 -0.2131675
0001f0 40 ed 83 3b 98 dc 2c 3e f0 0f 03 3d 20 ae 0b 3d
       0.004026085 0.16881025 0.03199762 0.034101605
000200 50 cc 50 3d b4 52 a4 be 00 6a 03 3d 02 be 90 3e
       0.050976098 -0.32094347 0.03208351 0.28269964
000210 86 5a bc 3e 04 b5 75 3e f0 13 60 3d c8 3b 43 3e
       0.36787814 0.23994833 0.054706514 0.19065773
000220 fa 5e 4b be 0d 37 ad be 50 be b3 be 04 86 d0 3e
       -0.1986045 -0.33831063 -0.35106134 0.40727246
000230 88 af 84 3e dd 7b 90 be b8 8e 23 3e f6 d8 9d 3e
       0.2591517 -0.282195 0.15972412 0.3082959

actor_logit.0.bias f4 [24]
000000 50 f1 d0 3e ce c4 b6 3e 04 f1 a1 3e 94 ae bf bd
       0.40809107 0.35697025 0.31629193 -0.0935947
000010 b8 b5 12 be 42 9e ab 3e bc 43 6a 3e 4b 92 7b be
       -0.14327133 0.3351918 0.22877401 -0.24567525
000020 58 ea bb 3e 90 fb 49 3e 50 e4 63 3e c0 02 83 be
       0.36702228 0.1972487 0.22255063 -0.25588036
000030 f0 df ef 3d 24 8d 12 be 54 52 a3 3e 6c 72 96 bd
       0.117126346 -0.14311653 0.3189875 -0.07346043
000040 28 c0 22 3e 20 82 94 3d 8c dd 31 3e 4a 10 0e be
       0.15893614 0.07251382 0.1736967 -0.13873401
000050 d0 d3 4b 3e 20 ff 91 be f0 d5 bc 3d 61 6c 8d be
       0.19905019 -0.28514957 0.09220493 -0.2762175

actor_logit.1.weight f4 [24]
000000 00 00 80 3f 00 00 80 3f 00 00 80 3f 00 00 80 3f
       1.0 1.0 1.0 1.0
000010 00 00 80 3f 00 00 80 3f 00 00 80 3f 00 00 80 3f
       1.0 1.0 1.0 1.0
000020 00 00 80 3f 00 00 80 3f 00 00 80 3f 00 00 80 3f
       1.0 1.0 1.0 1.0
000030 00 00 80 3f 00 00 80 3f 00 00 80 3f 00 00 80 3f
       1.0 1.0 1.0 1.0
000040 00 00 80 3f 00 00 80 3f 00 00 80 3f 00 00 80 3f
       1.0 1.0 1.0 1.0
000050 00 00 80 3f 00 00 80 3f 00 00 80 3f 00 00 80 3f
       1.0 1.0 1.0 1.0

actor_logit.1.bias f4 [24]
000000 00 00 00 00 00 00 00 00 00 00 00 00 00 00 00 00
       0.0 0.0 0.0 0.0
000010 00 00 00 00 00 00 00 00 00 00 00 00 00 00 00 00
       0.0 0.0 0.0 0.0
000020 00 00 00 00 00 00 00 00 00 00 00 00 00 00 00 00
       0.0 0.0 0.0 0.0
000030 00 00 00 00 00 00 00 00 00 00 00 00 00 00 00 00
       0.0 0.0 0.0 0.0
000040 00 00 00 00 00 00 00 00 00 00 00 00 00 00 00 00
       0.0 0.0 0.0 0.0
000050 00 00 00 00 00 00 00 00 00 00 00 00 00 00 00 00
       0.0 0.0 0.0 0.0

actor_logit.3.weight f4 [3, 24]
000000 8c 35 4e be 74 db 27 be 7c 04 25 3e 8c 2d e2 3d
       -0.20137614 -0.16392308 0.16114992 0.110438436
000010 da 1b 44 3e f0 73 27 3e ca aa 3a be d6 a4 0e be
       0.1915125 0.1635282 -0.18229213 -0.13930067
000020 18 19 07 bd 12 bf 07 be 1a 25 11 3e eb 05 1e be
       -0.032982916 -0.13256481 0.1417431 -0.15431945
000030 23 f7 cb bd 7a ef 49 be 0b 58 ed bd b4 ea 2b 3e
       -0.09959247 -0.1972026 -0.115890585 0.16788751
000040 ca 23 2b 3e 6c a0 15 3e 78 64 21 3e 4c dc 39 3e
       0.16712871 0.14611977 0.15760982 0.18150443
000050 a4 17 56 bd f4 f0 b7 3d 9e 39 3a 3e 2c 4c 8a 3d
       -0.05226864 0.08981505 0.18186042 0.0675281
000060 9a f4 50 3e 38 d3 d8 3d 5a f0 01 3e 1c 50 92 bd
       0.20405808 0.10587162 0.12689343 -0.07144186
000070 10 97 c8 3d 20 25 c0 3c 64 ac 47 bd 24 a8 eb bd
       0.09794438 0.023455203 -0.04874839 -0.1150668
000080 9c 92 ea bd dc d6 20 be d6 52 0c 3e e0 99 14 3e
       -0.11453745 -0.15706962 0.13703474 0.14511824
000090 e0 50 be bc e3 ea f1 bd 1c 8e 21 3e 00 ab 05 3e
       -0.023231924 -0.11812379 0.15776867 0.13053513
0000a0 c0 99 78 3c d9 5f c5 bd 2e 1a 40 3e c4 f4 aa 3d
       0.015173376 -0.09637422 0.18759987 0.083474666
0000b0 cf ad 1e be 6e 0d 48 3e 08 ba 1e 3e c2 5f 98 bd
       -0.1549599 0.19536373 0.15500653 -0.07440139
0000c0 b0 01 eb 3d 80 87 ed bd 14 07 03 bd 56 7b 31 3e
       0.11474931 -0.1159811 -0.031989172 0.17332205
0000d0 c0 2f 0a 3c 30 d3 13 be 8e b9 8b bd 08 f4 62 bd
       0.008434236 -0.1443603 -0.06822501 -0.055408508
0000e0 6c 4e 21 bd 78 07 a0 3c 90 4f 41 3e 10 0f 33 3c
       -0.03938143 0.019534811 0.18878007 0.010928884
0000f0 2a 0f 01 be d0 69 2b 3c a4 72 c8 3d 24 5e cf 3d
       -0.12603441 0.010462239 0.09787491 0.10125378
000100 c7 08 3f be c8 9c 15 bd 9b 55 1b be d3 5f b2 bd
       -0.18655692 -0.03652647 -0.15169375 -0.08709683
000110 8c 9e 96 3d 03 6f 14 be 28 66 9b 3d 0e 6a 31 3e
       0.07354459 -0.14495473 0.07587844 0.17325613

actor_logit.3.bias f4 [3]
000000 10 5a 5b 3c b4 4f 0b be 9a c7 95 bd
       0.013388172 -0.13604623 -0.073134616
