DATA403_final/checkpoints/Acrobot-v1/PPO_15624.pt (torch, 5789 bytes, 10 tensors)

critic.0.weight f4 [24, 6]
0.47817212 -2.8146129 0.29174092 -0.52011895 -0.070813365 -0.102816984 0.80899394 -1.3166773
0.9311673 -0.4680412 0.037620943 -0.15228716 -0.002653024 -2.283983 0.3950169 -0.37455544
-0.20668533 -0.17917398 0.52995807 -0.40775037 1.2166654 -0.23531382 -0.12883669 -0.2160727
0.16041346 -2.9169827 0.77373165 -0.5691354 -0.07279264 -0.11943911 0.40405685 -2.209242
0.38644794 -0.2705749 0.015338578 -0.014105506 0.21542498 -2.2890296 0.3800143 -1.1433
-1.5790337 -0.77523357 0.564609 -3.4642723 0.15735036 -0.59135807 0.07751784 0.01490354
0.65367025 1.2164967 1.274754 0.3461509 -0.21174467 -0.23081608 0.45621863 -2.0384645
0.1782514 -0.067059375 -0.10959397 -0.11110323 0.44679165 -4.9576545 0.3415078 -0.52787644
1.0022107 0.42296308 3.8937624 16.837868 4.091091 3.4958255 1.9453841 0.2911841
0.17904904 -2.4334786 0.31769153 -1.0979697 -1.4407295 -0.69861484 0.5052886 -2.738688
0.24281095 -0.6595874 -0.28829068 -0.21018854 0.65574783 0.26837108 0.10784908 1.0637132
0.26284364 -0.22744279 0.43803275 -2.9725175 0.68810314 -0.61102104 -0.3097027 -0.28357646
0.55289805 -3.0011582 0.12714079 -0.48177278 -0.023736412 -0.07000427 0.3300132 -2.7131393
0.2598206 -0.31032634 0.08232939 -0.03916191 0.35716674 -3.3198955 0.39302784 -1.0337121
-0.31845692 -0.14561242 6.0864244 19.101492 5.2892423 3.855284 4.765607 1.6022552
1.0160995 -0.13656417 0.75305086 -0.047643304 0.14837906 -0.044591997 0.10651955 -3.4376273
0.5651975 -0.94576955 -0.13013662 -0.059520576 0.118291184 -3.268131 0.39410484 -0.9691374
-0.35535273 -0.16208895 0.2929338 -1.9093127 0.4698296 -0.096152954 -0.024728773 -0.08354112
00000000: fad2 f43e 9e22 34c0 115f 953e 8426 05bf
00000010: 9906 91bd b691 d2bd 3a1a 4f3f e288 a8bf
00000020: fb60 6e3f 19a3 efbe 6b18 1a3d 2af1 1bbe
00000030: 5bde 2dbb c72c 12c0 a83f ca3e bbc5 bfbe
00000040: 52a5 53be 6279 37be 55ab 073f a8c4 d0be
00000050: b1bb 9b3f 1bf6 70be c4ed 03be 2942 5dbe
00000060: 6d43 243e d8af 3ac0 4713 463f dcb2 11bf
00000070: 4f14 95bd 7e9c f4bd 8ae0 ce3e 3964 0dc0
00000080: 81dc c53e cb88 8abe a94e 7b3c c81a 67bc
00000090: 5e98 5c3e 767f 12c0 3c91 c23e a857 92bf
000000a0: c71d cabf b575 46bf 378a 103f a3b6 5dc0
000000b0: 7420 213e 3e63 17bf acc1 9e3d fa2d 743c
000000c0: ef56 273f 2ab6 9b3f 242b a33f b13a b13e
000000d0: 98d3 58be 0d5b 6cbe 7d95 e93e 3476 02c0
000000e0: 8987 363e 6d56 89bd ce72 e0bd 178a e3bd
000000f0: e0c1 e43e 1ba5 9ec0 1cda ae3e e922 07bf
00000100: 7148 803f 9e8e d83e 6733 7940 f4b3 8641
00000110: 38ea 8240 9bbb 5f40 5902 f93f 1516 953e
00000120: a258 373e 1dbe 1bc0 77a8 a23e 458a 8cbf
00000130: d369 b8bf 6cd8 32bf 985a 013f aa46 2fc0
00000140: 6fa3 783e b8da 28bf d69a 93be aa3b 57be
00000150: 17df 273f ef67 893e fadf dc3d c127 883f
00000160: 7193 863e c3e6 68be d445 e03e ba3d 3ec0
00000170: 8727 303f e06b 1cbf 5a91 9ebe ef30 91be
00000180: ba8a 0d3f fa12 40c0 3231 023e ecaa f6be
00000190: dd72 c2bc 665e 8fbd 7df7 a83e 13a4 2dc0
000001a0: 3507 853e 18e3 9ebe 509c a83d 3d68 20bd
000001b0: 8fde b63e 2b79 54c0 f23a c93e ae50 84bf
000001c0: c90c a3be 6c1b 15be fdc3 c240 dbcf 9841
000001d0: 7941 a940 f9bc 7640 da7f 9840 b316 cd3f
000001e0: 8c0f 823f 7ad7 0bbe f1c7 403f a025 43bd
000001f0: aef0 173e 19a6 36bd ec26 da3d 1602 5cc0
00000200: c9b0 103f f41d 72bf 8942 05be d9cb 73bd
00000210: a642 f23d 0f29 51c0 1cc8 c93e 6319 78bf
00000220: cbf0 b5be a5fa 25be 6bfb 953e 5c64 f4bf
00000230: 818d f03e d7eb c4bd ff93 cabc 9b17 abbd

critic.0.bias f4 [24]
0.17924568 0.42716312 0.62606394 0.63370436 0.05540751 0.22772728 0.21179013 0.21306108
0.511924 0.4739744 0.34173942 3.6449127 0.28186038 0.12258072 0.6409448 0.08096879
0.27816564 0.40057355 -0.0076215337 5.9275994 0.6257935 0.14899346 0.25545356 0.35138312
00000000: 2e8c 373e 20b5 da3e ba45 203f 733a 223f
00000010: fcf2 623d 5731 693e 83df 583e af2c 5a3e
00000020: 740d 033f c6ac f23e 78f8 ae3e 4046 6940
00000030: 0150 903e 9a0b fb3d f514 243f f7d2 a53d
00000040: ba6b 8e3e fa17 cd3e 0fbe f9bb e5ae bd40
00000050: 0134 203f be91 183e cfca 823e 7de8 b33e

critic.1.weight f4 [24]
1.1253124 0.5545571 1.518092 0.5645922 2.1181667 3.8631644 1.5635694 2.3288403
0.5973963 4.8171372 4.2112455 2.9275396 2.8759887 2.4559817 3.732632 0.8717862
2.9860556 3.8453689 1.1721278 3.68859 0.59892064 1.4684436 1.0558172 2.9789655
00000000: 3d0a 903f 74f7 0d3f d750 c23f 1d89 103f
00000010: 0b90 0740 163e 7740 0b23 c83f b80b 1540
00000020: f7ee 183f fd25 9a40 86c2 8640 cf5c 3b40
00000030: 3310 3840 ce2e 1d40 71e3 6e40 612d 5f3f
00000040: 891b 3f40 861a 7640 4908 963f dc11 6c40
00000050: dd52 193f f6f5 bb3f 0525 873f 5fa7 3e40

critic.1.bias f4 [24]
-0.4206863 2.2996535 -0.23508933 2.2724407 -0.22927055 -0.22679915 -0.17874922 -0.5847491
2.3320453 -0.008394457 -0.46626553 2.5550048 -0.022456711 -0.0027077342 -0.26886085 -0.08352545
0.0887969 -0.058447674 -0.5625373 2.6599965 2.0920303 -0.05974832 -0.1650799 -0.04328739
00000000: 3264 d7be 862d 1340 42bb 70be ab6f 1140
00000010: e6c5 6abe 093e 68be 090a 37be 1eb2 15bf
00000020: 3b40 1540 e888 09bc 5bba eebe 3385 2340
00000030: 23f7 b7bc 3e74 31bb 21a8 89be 640f abbd
00000040: 26db b53d d466 6fbd 7202 10bf 623d 2a40
00000050: d3e3 0540 a8ba 74bd b50a 29be 1e4e 31bd

critic.3.weight f4 [1, 24]
0.09878046 -1.5495777 0.731117 -1.5578432 1.2244534 2.4712367 0.38670248 1.7218652
-1.507893 0.7898207 3.0069861 -2.4097805 -0.12315703 0.3035064 2.457722 0.019464916
1.7417328 2.7119431 0.7922537 -2.8696144 -1.5950253 0.1770957 0.3543288 2.2883325
00000000: 694d ca3d 9058 c6bf 7c2a 3b3f 6867 c7bf
00000010: e4ba 9c3f be28 1e40 defd c53e 1466 dc3f
00000020: a302 c1bf b031 4a3f 7672 4040 d839 1ac0
00000030: c139 fcbd 3165 9b3e 514b 1d40 e374 9f3c
00000040: 1af1 de3f 7a90 2d40 23d1 4a3f c3a7 37c0
00000050: ca29 ccbf 9358 353e 966a b53e 0a74 1240

actor_logit.0.weight f4 [24, 6]
0.018207818 -0.28778815 -0.22473423 -0.23788853 0.13951683 -0.24328054 -0.008906841 0.017174244
0.26316625 -0.30860308 -0.28026748 -0.2370541 0.28574663 -0.14675099 0.34435284 0.14762568
0.05169487 -0.0030390024 -0.08070317 0.05122143 -0.09322134 -0.0028685331 0.05208963 -0.3193339
-0.21397576 0.32965755 -0.33131257 -0.029314756 0.40385503 0.14747441 0.011558741 -0.35379204
0.20223719 -0.2907874 -0.115887105 -0.13697398 -0.060456425 0.00446555 0.33672625 0.05096525
0.36566508 0.24973059 -0.25810027 0.18310106 -0.28858912 -0.17302589 0.12007511 0.13480037
0.3062793 -0.1314216 0.0006535351 0.21017587 -0.39481375 0.29515558 -0.33758968 0.0056266785
-0.06940904 -0.21501334 0.053958595 0.3375882 -0.11933896 -0.24237461 -0.15098608 -0.40463462
0.18428081 -0.19606684 -0.27244055 -0.23519243 0.23472482 0.21619755 0.31333947 0.14808112
-0.13633847 -0.114084244 0.12060875 0.3355943 0.110999525 -0.19316079 -0.1919083 -0.38598612
0.088201225 -0.2291018 -0.36398432 0.35798335 -0.26512104 -0.046442956 0.116960526 0.013006121
-0.27470282 -0.32999596 0.32540756 0.06647861 0.33869278 -0.13686141 0.120251775 -0.09335667
-0.018155277 -0.24864127 0.13806993 0.12907422 -0.00842157 -0.09181592 -0.2516564 0.282322
-0.3039099 0.16724521 -0.13727492 -0.19696675 0.07333979 -0.21206744 0.09406239 0.08017215
-0.30312008 0.06797275 0.17388487 0.16159731 -0.051389754 -0.33467692 -0.06293315 0.14178777
-0.14896047 0.15496331 0.27187806 -0.2131675 0.004026085 0.16881025 0.03199762 0.034101605
0.050976098 -0.32094347 0.03208351 0.28269964 0.36787814 0.23994833 0.054706514 0.19065773
-0.1986045 -0.33831063 -0.35106134 0.40727246 0.2591517 -0.282195 0.15972412 0.3082959
00000000: 9028 953c f858 93be bb20 66be 0d99 73be
00000010: 80dd 0e3e 891e 79be 00ee 11bc 00b1 8c3c
00000020: babd 863e 3901 9ebe 387f 8fbe 4fbe 72be
00000030: 624d 923e e445 16be 044f b03e 302b 173e
00000040: 00be 533d 002a 47bb b447 a5bd 90cd 513d
00000050: d4ea bebd 00fe 3bbb f05b 553d bc7f a3be
00000060: 761c 5bbe e0c8 a83e cda1 a9be 8025 f0bc
00000070: 16c6 ce3e 8803 173e e060 3d3c 3b24 b5be
00000080: 4417 4f3e 16e2 94be 3856 edbd e842 0cbe
00000090: 28a1 77bd c053 923b 6267 ac3e f0c0 503d
000000a0: 7438 bb3e 60b9 7f3e b825 84be d87e 3b3e
000000b0: f4c1 93be b32d 31be f0e9 f53d 1c09 0a3e
000000c0: a4d0 9c3e 6293 06be 0052 2b3a 5838 573e
000000d0: 0725 cabe a21e 973e 8ed8 acbe 0060 b83b
000000e0: 5426 8ebd 752c 5cbe b003 5d3d 5cd8 ac3e
000000f0: fc67 f4bd 0d31 78be 189c 1abe 452c cfbe
00000100: 1cb4 3c3e bfc5 48be 547d 8bbe 49d6 70be
00000110: b45b 703e e462 5d3e 086e a03e 94a2 173e
00000120: 509c 0bbe 00a5 e9bd b801 f73d 04d3 ab3e
00000130: b853 e33d f1cb 45be 9c83 44be f99f c5be
00000140: d8a2 b43d aa99 6abe 275c babe 9849 b73e
00000150: f2bd 87be f83a 3ebd 0089 ef3d a017 553c
00000160: d9a5 8cbe 3bf5 a8be d29b a63e f025 883d
00000170: 2469 ad3e 6625 0cbe 9046 f63d c831 bfbd
00000180: 60ba 94bc d19b 7ebe 3462 0d3e 082c 043e
00000190: a0fa 09bc fc09 bcbd 1cd9 80be 828c 903e
000001a0: 149a 9bbe 5442 2b3e cc91 0cbe a7b1 49be
000001b0: 2c33 963d 3528 59be c8a3 c03d 4c31 a43d
000001c0: 8e32 9bbe 4c35 8b3d e00e 323e c479 253e
000001d0: 107e 52bd c65a abbe 18e3 80bd d030 113e
000001e0: 1889 18be b4ae 1e3e 9a33 8b3e 9548 5abe
000001f0: 40ed 833b 98dc 2c3e f00f 033d 20ae 0b3d
00000200: 50cc 503d b452 a4be 006a 033d 02be 903e
00000210: 865a bc3e 04b5 753e f013 603d c83b 433e
00000220: fa5e 4bbe 0d37 adbe 50be b3be 0486 d03e
00000230: 88af 843e dd7b 90be b88e 233e f6d8 9d3e

actor_logit.0.bias f4 [24]
0.40809107 0.35697025 0.31629193 -0.0935947 -0.14327133 0.3351918 0.22877401 -0.24567525
0.36702228 0.1972487 0.22255063 -0.25588036 0.117126346 -0.14311653 0.3189875 -0.07346043
0.15893614 0.07251382 0.1736967 -0.13873401 0.19905019 -0.28514957 0.09220493 -0.2762175
00000000: 50f1 d03e cec4 b63e 04f1 a13e 94ae bfbd
00000010: b8b5 12be 429e ab3e bc43 6a3e 4b92 7bbe
00000020: 58ea bb3e 90fb 493e 50e4 633e c002 83be
00000030: f0df ef3d 248d 12be 5452 a33e 6c72 96bd
00000040: 28c0 223e 2082 943d 8cdd 313e 4a10 0ebe
00000050: d0d3 4b3e 20ff 91be f0d5 bc3d 616c 8dbe

actor_logit.1.weight f4 [24]
1.0 1.0 1.0 1.0 1.0 1.0 1.0 1.0
1.0 1.0 1.0 1.0 1.0 1.0 1.0 1.0
1.0 1.0 1.0 1.0 1.0 1.0 1.0 1.0
00000000: 0000 803f 0000 803f 0000 803f 0000 803f
00000010: 0000 803f 0000 803f 0000 803f 0000 803f
00000020: 0000 803f 0000 803f 0000 803f 0000 803f
00000030: 0000 803f 0000 803f 0000 803f 0000 803f
00000040: 0000 803f 0000 803f 0000 803f 0000 803f
00000050: 0000 803f 0000 803f 0000 803f 0000 803f

actor_logit.1.bias f4 [24]
0.0 0.0 0.0 0.0 0.0 0.0 0.0 0.0
0.0 0.0 0.0 0.0 0.0 0.0 0.0 0.0
0.0 0.0 0.0 0.0 0.0 0.0 0.0 0.0
00000000: 0000 0000 0000 0000 0000 0000 0000 0000
00000010: 0000 0000 0000 0000 0000 0000 0000 0000
00000020: 0000 0000 0000 0000 0000 0000 0000 0000
00000030: 0000 0000 0000 0000 0000 0000 0000 0000
00000040: 0000 0000 0000 0000 0000 0000 0000 0000
00000050: 0000 0000 0000 0000 0000 0000 0000 0000

actor_logit.3.weight f4 [1, 24]
-0.20137614 -0.16392308 0.16114992 0.110438436 0.1915125 0.1635282 -0.18229213 -0.13930067
-0.032982916 -0.13256481 0.1417431 -0.15431945 -0.09959247 -0.1972026 -0.115890585 0.16788751
0.16712871 0.14611977 0.15760982 0.18150443 -0.05226864 0.08981505 0.18186042 0.0675281
00000000: 8c35 4ebe 74db 27be 7c04 253e 8c2d e23d
00000010: da1b 443e f073 273e caaa 3abe d6a4 0ebe
00000020: 1819 07bd 12bf 07be 1a25 113e eb05 1ebe
00000030: 23f7 cbbd 7aef 49be 0b58 edbd b4ea 2b3e
00000040: ca23 2b3e 6ca0 153e 7864 213e 4cdc 393e
00000050: a417 56bd f4f0 b73d 9e39 3a3e 2c4c 8a3d
