DATA403_final/checkpoints/Acrobot-v1/PPO_1423.pt (torch, 5967 bytes, 11 tensors)

critic.0.weight f4 [24, 6]
0	0x3ff67811	1.9255391
1	0x3ec214da	0.37906533
2	0xbf1a921f	-0.60379213
3	0x3eaa743a	0.332918
4	0xbf0e3143	-0.5554392
5	0xbe24c8d7	-0.1609224
6	0xbeba10eb	-0.36341032
7	0xbf52a012	-0.822755
8	0x3f2be88d	0.6715172
9	0x3ffc0158	1.968791
10	0x3de22c90	0.11043656
11	0xbcec01e7	-0.0288095
12	0xbfd4f17c	-1.6636195
13	0x3f434725	0.7628043
14	0xbe2f8118	-0.17139089
15	0xbf145888	-0.5794759
16	0xbf8fabcf	-1.1224307
17	0xbe8c89ad	-0.27448788
18	0xbfb5a2ec	-1.4190345
19	0x3ed2c339	0.41164568
20	0xbe392c8b	-0.18083398
21	0xbf24247b	-0.64118165
22	0x3dc5c2e1	0.09656311
23	0x3e6895ff	0.22713469
24	0xbdee208e	-0.11627303
25	0xbfb2ece0	-1.3978539
26	0x3da6a553	0.08137002
27	0xbfa0cc4e	-1.2562349
28	0xbd75b438	-0.059986323
29	0xbdf13073	-0.11776819
30	0x3ef3a20d	0.47584572
31	0x3e7db82d	0.24777289
32	0x3ece49fc	0.4029082
33	0x3e7088fb	0.23489754
34	0xbf5ee262	-0.8706418
35	0xbefbbf24	-0.49169266
36	0x3fd872ee	1.6910074
37	0x3f6f0c03	0.93377703
38	0x3f55f223	0.83572596
39	0x3e5e30a0	0.21698236
40	0xbf1fa0d6	-0.6235479
41	0xbecb643b	-0.39724907
42	0x3d9ff49a	0.07810326
43	0x3ef7dd5f	0.4841108
44	0xbf41550e	-0.7552041
45	0x3ebf840d	0.37405434
46	0xbeebff88	-0.46093392
47	0x3e6b2a70	0.22965407
48	0x3f2ea800	0.682251
49	0x3fba41b5	1.4551302
50	0x3f0a82e2	0.5410596
51	0xbf7d0625	-0.988375
52	0x3e2ae2ec	0.16688126
53	0x3e966178	0.29371238
54	0xc00ae809	-2.1704123
55	0x3fef3986	1.868943
56	0xbfb65089	-1.4243327
57	0x3fd44843	1.6584553
58	0xbe649ac3	-0.22324662
59	0x3e0ad272	0.13556841
60	0xbf8b9554	-1.0904946
61	0x3f859aa0	1.0437813
62	0xbdc19646	-0.094524905
63	0xbfd8f3b1	-1.6949369
64	0x3e0e6297	0.13904797
65	0xbead66ec	-0.33867586
66	0x3fe10110	1.7578449
67	0xbf5a02a9	-0.8516031
68	0x3f36b88e	0.7137536
69	0x3e11f1f5	0.14252456
70	0x3f101b72	0.5629188
71	0x3e57c42a	0.21070924
72	0xbfd2195f	-1.6413993
73	0xbf261c17	-0.6488661
74	0xbde4b1e7	-0.11166745
75	0xbe48d908	-0.19614041
76	0xbedabf96	-0.42724293
77	0xbe8c9570	-0.27457762
78	0x3e2ef165	0.17084272
79	0xbf6deda7	-0.92940754
80	0xbf89a15a	-1.0752366
81	0x3e408684	0.18801314
82	0x3d8f339d	0.06992266
83	0xbdc19790	-0.094527364
84	0xbfc99ec8	-1.5751581
85	0xbf47f310	-0.7810526
86	0xbf5305a1	-0.82430464
87	0x3ed54b7f	0.4165916
88	0x3f83a339	1.0284187
89	0x3e62343b	0.22090237
90	0xbd1edfb9	-0.038787577
91	0x3f9ced92	1.2260001
92	0x3d979972	0.07402314
93	0xbdbd5355	-0.0924441
94	0x3edeeeb7	0.435415
95	0x3ef70008	0.4824221
96	0x3f5ffbf7	0.8749384
97	0x3e8a9ecb	0.27074274
98	0xbf308398	-0.68950796
99	0x3dfe7c3b	0.12426039
100	0x3e53d83b	0.20687954
101	0xbe7e367b	-0.2482547
102	0xbf201e3d	-0.6254614
103	0xbe1d1335	-0.15339358
104	0xbeacc198	-0.3374145
105	0x3ebeedeb	0.37290892
106	0xbe238e3f	-0.15972231
107	0xbf028882	-0.50989544
108	0x3eb5572b	0.35418066
109	0xbf148be9	-0.58025986
110	0xbf15a248	-0.58450747
111	0xbea1c934	-0.31598818
112	0x3f00a341	0.50249106
113	0xbeae044c	-0.33987653
114	0x3f80952f	1.0045527
115	0xbf22fae9	-0.6366411
116	0x3f8127b0	1.0090237
117	0x3dc8dbf8	0.09807581
118	0xbe8a515d	-0.270152
119	0xbeaa575d	-0.33269778
120	0x3e777506	0.24165735
121	0x3fa0a1a1	1.2549325
122	0xbdca3d33	-0.09874954
123	0xbf02d7be	-0.51110446
124	0xbdccce89	-0.10000331
125	0xbe3a1538	-0.18172157
126	0xbe37443f	-0.17897128
127	0xbf5f307e	-0.8718337
128	0x3ef3d88d	0.47626153
129	0x3fbcff1c	1.4765353
130	0xbf933d33	-1.1503052
131	0xbea74c50	-0.3267541
132	0xbe1be2b6	-0.15223202
133	0x3dad5e60	0.08465266
134	0x3f71bf05	0.944321
135	0x3d9fb516	0.07798211
136	0x3ef042b8	0.46925902
137	0x3e155df7	0.14586626
138	0x3f7eb4b7	0.994945
139	0x3ee8bc44	0.45456135
140	0x3f8417b6	1.0319736
141	0x3f25d2b8	0.64774656
142	0x3e84efa3	0.25964078
143	0xbe92c0df	-0.28662774

critic.0.bias f4 [24]
0	0x3e28bcf4	0.1647833
1	0x3eb555bc	0.35416973
2	0x3edc302f	0.4300551
3	0x3f20b4f6	0.62776124
4	0xbd419778	-0.047263592
5	0xbebe8c16	-0.37216252
6	0x3f417ceb	0.75581235
7	0xbf6466bb	-0.89219254
8	0x3f2384ee	0.6387471
9	0x3f974557	1.1818036
10	0x3f2c03c9	0.67193276
11	0x3ed94f9e	0.42443556
12	0xbf623723	-0.8836538
13	0x3e9d1707	0.3068163
14	0x3eb4dbef	0.35324046
15	0xbe04984e	-0.12948725
16	0xbf9c998b	-1.2234358
17	0xbe9d04d7	-0.30667755
18	0x3ef041e5	0.46925274
19	0x4008b0e1	2.1357958
20	0x3e0181c7	0.12647162
21	0x3ea2a08e	0.31763119
22	0xbf634831	-0.8878203
23	0x3f57b5f6	0.84262025

critic.1.weight f4 [24]
0	0x406fb778	3.745573
1	0x4036d9bf	2.8570402
2	0x4047575f	3.1147077
3	0x40842887	4.129947
4	0x408bc869	4.368214
5	0x407ff876	3.9995399
6	0x40533753	3.3002517
7	0x40817da9	4.0465894
8	0x4088db9d	4.2768083
9	0x3fe17a5e	1.7615469
10	0xbe240bc1	-0.16020109
11	0x407a7976	3.9136634
12	0x40670fc9	3.6103384
13	0x40296b3a	2.6471696
14	0x4046363c	3.0970602
15	0x409f8aa9	4.9856763
16	0x409df0e7	4.935657
17	0x4087edc7	4.2477756
18	0x404e8a11	3.227177
19	0x4052e1c2	3.2950292
20	0x4022c3c0	2.5431976
21	0x402973c0	2.6476898
22	0x408f913d	4.4864793
23	0x404f984a	3.24367

critic.1.bias f4 [24]
0	0x3f862a98	1.0481749
1	0x401361af	2.3028371
2	0x3fc14212	1.5098288
3	0x3fb806bd	1.4377056
4	0x3f3f493e	0.74721134
5	0xc0104470	-2.254177
6	0xbfd316dd	-1.6491352
7	0xbfee175b	-1.8600878
8	0xbf101fd9	-0.56298596
9	0x3f9ae50a	1.2101147
10	0x3f6cd0df	0.9250621
11	0xbe482c02	-0.19548038
12	0x3fec3c35	1.8455874
13	0x3fc487eb	1.5353979
14	0x3fb90e81	1.4457551
15	0x3f860db6	1.0472934
16	0xbf8c6759	-1.0969039
17	0xbf96fc2f	-1.179571
18	0x3fbb74ea	1.4645054
19	0xc00cfda3	-2.2029808
20	0x3faab704	1.3337102
21	0xbe8e4ca0	-0.27792835
22	0xbfa0b217	-1.2554349
23	0x3c636d9b	0.013881112

critic.3.weight f4 [1, 24]
0	0xc0134aff	-2.3014524
1	0xbfecb527	-1.8492783
2	0x40052f0c	2.0809965
3	0xc01f2d19	-2.4871275
4	0x4035aeff	2.838806
5	0x4099bf76	4.8046217
6	0xc0215425	-2.5207608
7	0x40838769	4.1102796
8	0xc025f92e	-2.5933337
9	0xbf60270d	-0.87559587
10	0x3ebf5529	0.3736966
11	0xc0202320	-2.5021439
12	0xc03d9be5	-2.96264
13	0xbfbea44d	-1.4893891
14	0x4003d2db	2.0597446
15	0x403ec44d	2.9807312
16	0x408bfaf0	4.374382
17	0x4082c8af	4.0869975
18	0xbfe03828	-1.7517138
19	0xc020347f	-2.503204
20	0xbfc281d0	-1.5195866
21	0x3fc7cc5a	1.5609238
22	0x40a0cefb	5.025266
23	0x4007b087	2.1201494

actor_logit.0.weight f4 [24, 6]
0	0xbe085edf	-0.1331744
1	0xbf301839	-0.6878696
2	0xbe449dc7	-0.19200812
3	0xbf069414	-0.525697
4	0x3e25f99f	0.16208504
5	0xbe4ea93a	-0.20181742
6	0xbe5cc25a	-0.21558514
7	0xbd812a7b	-0.06306931
8	0xbdf9c87a	-0.12196441
9	0x3da70616	0.08155458
10	0xbf0ae6c0	-0.54258347
11	0xbf2a83ba	-0.6660725
12	0xbf8e8ab4	-1.1136079
13	0xbec31da7	-0.3810856
14	0x3e7d12ce	0.24714205
15	0xbe9a6fbf	-0.3016338
16	0xbf1f4395	-0.62212497
17	0xbede11e1	-0.43373016
18	0xbe11fccb	-0.14256589
19	0xbe752290	-0.23938966
20	0xbf2a6528	-0.665606
21	0x3f90fbe0	1.1326866
22	0xbf0b4bfe	-0.5441283
23	0x3e87c45a	0.26516992
24	0xbc934f58	-0.01798217
25	0x3f88495c	1.0647388
26	0xbe94cf64	-0.29064476
27	0xbf8645c6	-1.0490043
28	0x3d7db93d	0.061944235
29	0x3d32d5b5	0.04366084
30	0xbe5320bc	-0.20617956
31	0xbf3c157d	-0.7347029
32	0x3f51fd24	0.82026887
33	0xbe9998f1	-0.29999498
34	0xbe6817ec	-0.22665375
35	0xbf7695ce	-0.96322334
36	0xbe78ca4f	-0.24295925
37	0xbea3bd5d	-0.3198041
38	0x3df0d5b3	0.1175951
39	0x3d610f99	0.054946516
40	0xbf03c8dc	-0.5147836
41	0xbe384dc6	-0.17998418
42	0x3e05dbe1	0.13072158
43	0x3fc32011	1.5244161
44	0xbe915886	-0.2838785
45	0x3d46cdff	0.048536297
46	0xbe89c5d0	-0.2690873
47	0x3ebd686a	0.36993724
48	0x3dbe121c	0.09280798
49	0xbf363e72	-0.71189034
50	0xbe935989	-0.28779247
51	0x3f4782a7	0.77933735
52	0xbedfc4f4	-0.4370495
53	0x3d1b0609	0.037847552
54	0x3f135da1	0.5756474
55	0x3eb46a85	0.35237518
56	0x3ec0a115	0.37622896
57	0xbea8d084	-0.32971585
58	0xbebaa75a	-0.36455804
59	0x3f09c73a	0.5381962
60	0xbeb395f6	-0.3507535
61	0xbedfdc66	-0.43722838
62	0xbe4f9271	-0.20270707
63	0xbfc1fe44	-1.5155721
64	0x3f0baa00	0.54556274
65	0xbe4f6f72	-0.20257357
66	0xbe2a78cb	-0.16647641
67	0xbdab3573	-0.08359804
68	0xbdfa26f6	-0.122144625
69	0xbe87443e	-0.26419252
70	0x3f078562	0.529379
71	0x3ec63174	0.38709605
72	0x3f46c879	0.77649647
73	0xbf2d1494	-0.67609525
74	0xbeeb51f2	-0.45960957
75	0x3f88d218	1.0689116
76	0xbca76237	-0.020432575
77	0x3c994de9	0.018713908
78	0xbe02c7ae	-0.12771484
79	0x3f399e9f	0.7250766
80	0x3e7008f2	0.23440912
81	0xbf6c1d45	-0.9223216
82	0x3e4d721e	0.20063064
83	0x3e966d6c	0.29380357
84	0xbe9ec09a	-0.31006318
85	0xbceeb20f	-0.02913764
86	0xbe4ff357	-0.2030767
87	0x3f02b47b	0.5105664
88	0xbf6a1459	-0.914373
89	0xbf2a1ab0	-0.6644697
90	0x3f18b557	0.596517
91	0xbe4825cc	-0.19545668
92	0x3e6566e8	0.22402537
93	0xbf113097	-0.5671477
94	0x3f0b653f	0.54451364
95	0xbdfd7a32	-0.123768225
96	0xbf61c8a8	-0.881968
97	0xbf50e5d1	-0.8160067
98	0xbe476b76	-0.19474587
99	0x3f283f2e	0.65721405
100	0x3d4bd11a	0.04975996
101	0xbe7eb7eb	-0.24874847
102	0xbf0a0869	-0.5391908
103	0xbf0467f9	-0.5172115
104	0xbf2ac65f	-0.6670894
105	0x3d98af05	0.07455257
106	0xbecf0b5a	-0.40438348
107	0x3e140349	0.14454378
108	0x3f0eef43	0.55833834
109	0xbf1c7690	-0.6111841
110	0xbf072c56	-0.52802026
111	0xbe1cfba5	-0.1533037
112	0x3ea9b916	0.33149022
113	0xbcfc139e	-0.030771073
114	0x3f71da69	0.9447389
115	0x3f4d99ab	0.80312604
116	0x3c905023	0.017616337
117	0x3e09acb3	0.13444786
118	0x3d891c4e	0.06694852
119	0x3e297a08	0.16550457
120	0xbf2279dc	-0.6346719
121	0x3f0f95ed	0.56088144
122	0xbe4c838a	-0.19972053
123	0xbf63c500	-0.88972473
124	0xbe49d1e6	-0.19708976
125	0x3e81e411	0.25369313
126	0xbe5069bd	-0.20352836
127	0xbea4e378	-0.32204795
128	0x3eb10a5c	0.34578216
129	0xbf12e06e	-0.573737
130	0x3f6964ef	0.9116964
131	0x3f08d0c8	0.53443575
132	0x3e274d21	0.16338016
133	0xbf0363d4	-0.513242
134	0x3ef7c737	0.48394176
135	0x3d3d1866	0.046165846
136	0xbf004e93	-0.50119895
137	0xbf590526	-0.8477348
138	0xbdb05f86	-0.0861197
139	0x3f68a764	0.9088042
140	0x3ef527d5	0.47881952
141	0x3cd6a2a9	0.02620061
142	0xbdcea822	-0.100906625
143	0x3f2775ee	0.6541432

actor_logit.0.bias f4 [24]
0	0x3f044225	0.5166343
1	0xbc17442b	-0.009232561
2	0xbe3655d1	-0.17806174
3	0x3eca079e	0.39458936
4	0x3f12342e	0.5711087
5	0x3e9bb4ea	0.30411464
6	0xbedb8f46	-0.42882746
7	0x3eb0d4bc	0.34537303
8	0x3f180f70	0.59398556
9	0xbd90a12b	-0.0706199
10	0xbdcca1ba	-0.099917844
11	0xbee9fcd0	-0.45700693
12	0x3f00f1fb	0.5036923
13	0x3d6524d1	0.055943314
14	0xbe14b533	-0.14522247
15	0x3ecd245e	0.40066808
16	0x3e542c08	0.20719922
17	0x3daffe07	0.08593374
18	0x3eb626cf	0.35576484
19	0xbee2a1c4	-0.44264042
20	0x3f78b13a	0.97145426
21	0xbf078b14	-0.5294659
22	0xbd841d4c	-0.064509004
23	0x3e79f98b	0.244116

actor_logit.1.weight f4 [24]
0	0x3f839a42	1.0281451
1	0x3fad241c	1.3526645
2	0x3fc52b1a	1.5403779
3	0x3fe5b1eb	1.7944921
4	0x3fdc502e	1.7211969
5	0x40048e0c	2.0711699
6	0x3fa6c34b	1.3028349
7	0x401ae610	2.420292
8	0x3ff98ce4	1.9496121
9	0x400a2a29	2.1588233
10	0x3fe820c6	1.8135002
11	0x3fd65cd4	1.6747079
12	0x3ffc1b12	1.9695761
13	0x3fc01c24	1.5008588
14	0x3fc6a40d	1.5518814
15	0x3feffa8b	1.8748335
16	0x3fef4921	1.8694192
17	0x3fb20fa0	1.3911018
18	0x3fb3bff6	1.4042957
19	0x3fdba93a	1.7161019
20	0x3fc37888	1.5271158
21	0x400ec51a	2.2307801
22	0x3ff76f58	1.9330854
23	0x3fd4e625	1.6632735

actor_logit.1.bias f4 [24]
0	0x3dfb1e8c	0.12261686
1	0xbd668307	-0.0562773
2	0xbe8cd870	-0.2750888
3	0x3d277497	0.040882673
4	0xbcad6c4d	-0.021169806
5	0x3ebef219	0.3729408
6	0xbf02eaf2	-0.5113975
7	0x3f2ea74c	0.68224025
8	0x3ce42852	0.027851257
9	0x3ec73828	0.3891003
10	0x3dffaf35	0.1248459
11	0x3ec8e7cf	0.39239356
12	0xbe3d680f	-0.18496726
13	0xbc0690d9	-0.008213245
14	0xbe8a1246	-0.26967067
15	0x3e03924d	0.12848778
16	0xbc0b5467	-0.00850401
17	0x3e06cc11	0.13163783
18	0xbd7183f6	-0.05896374
19	0x3dcda24a	0.1004072
20	0x3dc8e967	0.09810143
21	0x3e87cdb1	0.26524118
22	0xbe0776ad	-0.13228865
23	0x3ea1cf30	0.31603384

actor_logit.3.weight f4 [3, 24]
0	0x3ebbb33d	0.36660185
1	0xbec8e56c	-0.39237535
2	0x3fa106dd	1.258022
3	0x3f089f77	0.53368324
4	0x3c904920	0.017612994
5	0x3e980892	0.2969404
6	0x3f6121e2	0.87942326
7	0xbfebb138	-1.8413458
8	0x3f1e6bde	0.6188334
9	0xbfec4e21	-1.8461343
10	0x3f8cccfb	1.1000055
11	0xbea7e758	-0.3279369
12	0x3f6974c4	0.91193795
13	0xbf5b939c	-0.8577211
14	0xbee8cee0	-0.45470333
15	0x3f61d7ec	0.88220096
16	0x3e6f72a3	0.23383574
17	0x3f559a4a	0.8343855
18	0x3f4725c4	0.77792
19	0x3f77daf8	0.96818495
20	0x3e935990	0.28779268
21	0xbfa50ee6	-1.2895172
22	0x3ec07194	0.37586653
23	0xbf50cc25	-0.815615
24	0xbea6e31a	-0.3259514
25	0x3f0ea01b	0.5571305
26	0xbeb157b1	-0.34637216
27	0xbf826a43	-1.0188679
28	0xbf19d865	-0.60095817
29	0x3effcbfd	0.49960318
30	0xbf32020d	-0.6953438
31	0x3e97f43d	0.29678527
32	0xbf93ce39	-1.1547309
33	0x3efa5185	0.4889032
34	0xbf02389e	-0.5086764
35	0x3f689d36	0.90864885
36	0xbf8657bb	-1.0495523
37	0x3ddad59e	0.106852755
38	0x3f62502d	0.8840359
39	0xbf1f1fd5	-0.62157947
40	0x3f07aadd	0.5299509
41	0xbe5edfd8	-0.21765077
42	0xbe51d4dd	-0.20491357
43	0x3ef5aaa1	0.47981742
44	0xbf37a9b3	-0.71743315
45	0x3f9bb126	1.2163436
46	0x3ed5897e	0.4170646
47	0x3d48bb89	0.049006972
48	0x3ebf7d1d	0.3740014
49	0xbf1d0c28	-0.61346674
50	0xbf889f85	-1.0673681
51	0x3f23e13b	0.6401555
52	0x3f580dc5	0.8439601
53	0xbfc99cfd	-1.5751034
54	0xbedef807	-0.43548605
55	0x3ead99c5	0.3390638
56	0x3ec5a82a	0.38604861
57	0x3e506c02	0.20353702
58	0xbdadf63b	-0.0849423
59	0xbeeeeafb	-0.4666365
60	0xbe5c35a0	-0.21504831
61	0x3eb474e8	0.35245442
62	0xbec4f352	-0.3846689
63	0x3ef977f6	0.48724335
64	0xbfa7bdde	-1.3104818
65	0xbecea168	-0.40357518
66	0x3d49ffba	0.049316145
67	0xbf50c928	-0.8155694
68	0x3f24dc27	0.64398426
69	0x3e440b75	0.19144996
70	0xbf8c45cd	-1.0958802
71	0x3efb6d6a	0.49106914

actor_logit.3.bias f4 [3]
0	0x3e14c49f	0.1452813
1	0xbdde6b4d	-0.1086031
2	0xbe06d613	-0.131676
