DATA403_final/checkpoints/Ant-v4/PPO_384.pt (torch, 53950 bytes, 12 tensors)

actor_logstd f4 [1, 8]
000000 f2 8d 1b c0 a6 73 1a c0 04 0e 17 c0 b2 6c 19 c0
       -2.4305387 -2.4133086 -2.3602304 -2.3972592
000010 29 bc 15 c0 fd 2f 19 c0 4c 38 0c c0 88 51 10 c0
       -2.3396094 -2.393554 -2.190936 -2.2549763

critic.0.weight f4 [64, 27]
000000 65 33 51 bf 2d da ff be 7a 9d 75 3e aa 50 90 bf
       -0.81719047 -0.49971142 0.23985854 -1.1274617
000010 6e 3d a4 3f 99 20 d6 be b2 23 03 3e d5 93 0e be
       1.2831247 -0.41821745 0.12806585 -0.13923581
000020 20 cb 0d bf 92 ea bb bd 91 92 78 3d 52 7c 01 be
       -0.5538807 -0.091756 0.06068665 -0.1264508
000030 7d d2 77 3e 5f 02 16 bf 1f 69 64 bd a7 f8 99 bd
       0.24201389 -0.5859737 -0.055764314 -0.0751813
000040 4b e2 23 3d 11 b3 fe bd ca 01 a4 bd 86 78 11 bd
       0.04001073 -0.12436498 -0.08008154 -0.03551533
000050 c1 46 f7 bc ba 08 7d bc 44 75 be 3b 87 4c 06 3d
       -0.030185105 -0.015443975 0.005812319 0.032787826
000060 fe 27 17 bd 61 d5 9a bc d6 fd dc 3b 71 c7 b9 3e
       -0.036903374 -0.018900575 0.006744127 0.36284974
000070 3e a4 c3 3f c1 7e f8 3f ed 8a 8f 3e 5b f1 50 3f
       1.5284498 1.9413682 0.2803568 0.8161828
000080 18 82 68 bc 16 69 84 be 31 30 15 3b 3b 9b aa 3e
       -0.014191173 -0.25861424 0.002276432 0.33321556
000090 68 2e 2e bc 47 0a fb 3d d6 61 8a 3e 6e fc 0a 3d
       -0.010631181 0.122578196 0.27027768 0.033932142
0000a0 de 40 12 3d 4e 74 a0 3d ca 12 6e bd 37 04 69 3d
       0.035706393 0.07834683 -0.058123387 0.056888785
0000b0 55 5d cd bd 11 10 36 3d cd b4 3e 3d cd dc dd bc
       -0.10027567 0.044448916 0.046559144 -0.027082825
0000c0 7b a6 29 bb 2f 1a 37 3c a2 df 1e 3c a1 c2 6a bb
       -0.0025886584 0.011175676 0.009696873 -0.0035821574
0000d0 31 fe 7d 3b d0 3d 05 bb 59 1f ad 3f 27 54 83 3f
       0.0038756246 -0.0020331033 1.3525192 1.0260056
0000e0 e6 c0 f6 3e 29 cd be be 23 68 43 bf 02 70 5f 3e
       0.48194045 -0.372659 -0.76330775 0.21820071
0000f0 9d 85 0f be 32 bd 52 be 2f f6 b9 3c 9e 96 50 be
       -0.14015813 -0.20579985 0.022700397 -0.20369956
000100 89 b4 0a bd 64 4c 19 3e 81 a2 d3 bd 65 10 f9 be
       -0.033863578 0.14970547 -0.103337295 -0.4864532
000110 c1 a3 aa 3d 74 39 8e 3e 52 5e b2 3d ea b7 1b 3d
       0.08332015 0.27778208 0.087093964 0.03801719
000120 44 d1 ff 3d fc b9 b0 3c ca e3 15 3b da 36 e0 ba
       0.12491086 0.02157306 0.0022871369 -0.0017106191
000130 4d 92 98 3b 9b 62 92 3c 90 1a c2 bc 80 ba 34 3d
       0.0046561123 0.017869284 -0.023694307 0.044123173
000140 f8 1c 1f 3d b8 28 37 3f 54 38 0c 3f 07 ed 88 3d
       0.038845986 0.71546507 0.5477345 0.066858344
000150 89 a3 29 bf 95 a5 99 3d cb ce f7 bd ba b9 43 3e
       -0.6626516 0.075022854 -0.120999895 0.19113818
000160 cc 37 6f be 13 46 d7 3d 4e 81 05 3e 79 63 0b 3d
       -0.23361129 0.105114125 0.13037607 0.03403041
000170 ca 7f 9c be 95 14 0e 3e 6d 2c 84 bd ee 3e c9 3c
       -0.30566245 0.13875039 -0.06453786 0.02456614
000180 d5 85 09 be e0 4e b1 bb 0d f8 83 bd 02 4d 7b 3d
       -0.13429959 -0.005411014 -0.06443796 0.061352737
000190 c0 22 98 3c 8a 33 ff ba c8 bc 95 bc 83 a2 5c 3c
       0.018571258 -0.0019470316 -0.018278494 0.01346648
0001a0 2e 8b 0e 3d 2f 5b 42 3c dd 5f cc bc 1c 93 b2 bd
       0.0348007 0.01186256 -0.024948055 -0.08719465
0001b0 84 49 06 bf 41 19 35 be 56 8d 2a 3e e3 3f 06 c0
       -0.52455926 -0.17685415 0.16655478 -2.0976493
0001c0 00 d5 49 3f 42 0e 06 be 6e dc 94 bd db cf f2 3d
       0.7884064 -0.13091376 -0.07268606 0.118560515
0001d0 1e 9e 8f be a9 6e 4f be 0f 34 05 bf 77 3f 0b 3d
       -0.2805032 -0.20257057 -0.5203256 0.03399607
0001e0 78 fc 4f bd be dc 6a 3e 52 90 e7 bd ce 27 87 3d
       -0.050777882 0.22935769 -0.11306824 0.06599389
0001f0 b8 a6 5c bd 38 39 0d bf a2 44 10 3e 06 0c 32 bb
       -0.053869933 -0.55165434 0.14088681 -0.002716781
000200 cc d2 d4 bd a1 e7 6c bb 68 e6 5a bd bb 87 a4 bb
       -0.10391769 -0.0036148804 -0.05344239 -0.005021063
000210 85 85 34 bc ff e2 f1 3c 8f 99 a9 bd 20 cc e1 be
       -0.011018162 0.029527185 -0.08281242 -0.44101048
000220 14 18 e4 be 98 e5 20 40 69 db fb 3d 57 60 11 3f
       -0.4454962 2.5140133 0.122977085 0.5678763
000230 f0 c7 b8 be 9e 6d cc be 93 a6 5d bc 3e 8f 0e be
       -0.3609004 -0.3992738 -0.013528484 -0.1392183
000240 dc f5 1f be be e5 92 bd fd fc f9 3e 36 cb 3a 3d
       -0.15621132 -0.07172726 0.48825827 0.045603953
000250 c5 41 cb 3c 4b 30 1b 3c a2 ab c9 bc 86 b0 02 be
       0.024811635 0.009471963 -0.024617974 -0.12762651
000260 df c9 41 3d 0d 9e 73 bd 94 8b 04 bd 0e d3 9c 3c
       0.04731166 -0.0594769 -0.032359675 0.019143607
000270 21 eb 36 3d 7c 81 2e bc b4 2c 8b 3b 4d 77 54 bd
       0.04465783 -0.010650989 0.0042472724 -0.051871587
000280 f6 d8 b7 bc 9e 49 2e bd 36 37 a3 3e d7 ab 84 3f
       -0.022442322 -0.042550676 0.3187806 1.0364941
000290 8c b7 8a bf 51 24 3c 3f 01 86 09 3e 98 49 56 be
       -1.0837264 0.73492914 0.13430025 -0.20926511
0002a0 51 96 e6 3d c4 cd 80 bd 6e 3a ea 3d ef 2c 5c 3e
       0.11259139 -0.06289247 0.11436926 0.21501516
0002b0 17 04 35 3e 7e 54 d7 3c 8c e3 27 3e f9 60 5f 3e
       0.17677341 0.026285406 0.16395396 0.21814336
0002c0 7b 4f 19 3e 8c cb 8d 3d 55 a9 23 3c 30 24 87 be
       0.14971726 0.06923589 0.009989102 -0.26394796
0002d0 46 93 93 3c 73 2b cf 3b 8c 9f d6 bc 73 1b b0 3b
       0.018014561 0.006322318 -0.026199125 0.005374366
0002e0 7b f4 fe bc 5b 6e be 3c 3b c4 ad bc b7 5a f6 3c
       -0.031122437 0.023245981 -0.021211734 0.030072553
0002f0 5f 55 31 3c d1 8f 76 be 68 43 da bb fc 0c c6 bc
       0.010823577 -0.24078299 -0.0066608675 -0.024176113
000300 b9 cd de 3e 04 3e 78 3f 6d 87 10 3e 8a 3d 42 be
       0.4351633 0.9696963 0.14114161 -0.18968788
000310 cc 32 2a bf 46 83 e0 be 1d f2 e0 3e e7 c8 8a 3d
       -0.6648376 -0.43850154 0.43934718 0.067766
000320 a1 9b 8d 3d 6d 93 a8 bd 50 14 c2 3e 67 a2 2c be
       0.069144495 -0.08231244 0.37906122 -0.16858827
000330 48 0c 92 3e d7 cf 46 bd 73 36 1c 3e 6d 71 11 be
       0.28524995 -0.048538055 0.15255146 -0.14203425
000340 cb 55 89 bd 6d cf 82 bd 71 ed 04 bd b8 1b 40 bd
       -0.06705817 -0.063872196 -0.032453004 -0.046901435
000350 89 7d d9 bb 81 cd f9 bb c8 16 e2 bc ef 0d 31 be
       -0.0066372794 -0.007623375 -0.027598754 -0.17290471
000360 86 77 cb 3f 51 a6 d4 3d 20 c2 6d be 1d 1c f0 be
       1.5895851 0.10383285 -0.23218584 -0.4689645
000370 38 92 5c 3e e4 95 a0 3e 20 3d ae 3e b6 db 33 be
       0.21540153 0.31364357 0.3403101 -0.17564282
000380 b7 15 14 bf 96 da ff bd 09 8f 02 bf ac 87 51 3c
       -0.57845634 -0.12492864 -0.50999504 0.012788694
000390 e9 a2 d4 3c f3 f4 c3 3d 3a d8 2a bb 40 69 92 be
       0.025956588 0.09568205 -0.0026068822 -0.28595924
0003a0 e6 18 f3 bd 6f dc 29 3e 57 d9 27 be 84 88 08 bd
       -0.118699834 0.16587995 -0.16391502 -0.033333316
0003b0 e3 78 09 bd b0 03 bf bc 75 2d 1b bd 4f e5 3c bd
       -0.033562552 -0.023317188 -0.037885148 -0.046117123
0003c0 01 89 19 bd ad 65 15 bc 69 f4 79 bc 4e 6b 3e 3f
       -0.037484173 -0.00911848 -0.015256026 0.74382484
0003d0 95 96 48 3f ad ef c2 be c3 d2 45 3e 35 f4 56 bf
       0.7835477 -0.38073483 0.1931868 -0.8396638
0003e0 17 ae f5 be 9e f7 0c 3f f2 00 5d bc 57 a3 02 bf
       -0.47984383 0.55065334 -0.013488995 -0.51030487
0003f0 61 02 0e be 47 5c eb be 53 a2 83 bf fe a5 3a 3f
       -0.13868095 -0.4596884 -1.0283912 0.72909534

critic.0.bias f4 [64]
000000 a7 e5 aa 3e 62 ab 8a be 2a eb 7e bf 1f 34 88 bf
       0.33378336 -0.2708388 -0.9957758 -1.0640906
000010 6e 37 72 3d f6 19 2a 3f ad c2 45 bf ff a4 07 bf
       0.059134893 0.66445863 -0.77250177 -0.5298614
000020 58 5d 79 3e bf b8 3d 3f 62 bc 86 be 49 40 0a 3f
       0.24352014 0.74110025 -0.263156 0.5400434
000030 a8 ca 48 be be d0 5d 3f 9c 78 36 3f 3e 60 08 bf
       -0.19608557 0.8664664 0.71277785 -0.53271854
000040 64 36 48 bf f5 94 b2 bd ec 18 48 3e 21 34 a7 be
       -0.78207994 -0.087198175 0.19540757 -0.3265696
000050 7d 46 4c be f0 f4 02 3d 2d a7 93 3f 66 c5 0b 3f
       -0.19948764 0.03197187 1.1535393 0.5459808
000060 2c 37 8a be bd 68 77 bf b8 bd ac bf ff aa 9e 3f
       -0.26995218 -0.9664419 -1.3495398 1.2395934
000070 16 f7 20 3f 79 09 b9 3e 52 96 08 bf b0 9f 3c bf
       0.62877023 0.3614004 -0.5335437 -0.73681164
000080 8b f8 78 be aa af 15 3f b1 b8 97 be 0d a4 03 be
       -0.24313562 0.5847117 -0.29633096 -0.12855549
000090 1e 3f 94 3e 71 9d e3 be 6d 13 de be 71 c8 c7 3d
       0.28954405 -0.44456056 -0.43374196 0.09755028
0000a0 b1 67 d9 be 50 08 38 bf f6 a3 5c bf 31 25 ed 3e
       -0.42461923 -0.71887684 -0.86187685 0.46317437
0000b0 10 86 74 3f 68 5e 09 bf e2 5b 29 bf 09 20 17 3f
       0.95517063 -0.5365968 -0.6615583 0.59033257
0000c0 d8 2b 21 bc ff 9a 4a be f4 df 03 bf 96 cb c7 be
       -0.009837113 -0.19785689 -0.515136 -0.3902251
0000d0 2d f4 06 3f bb 50 81 bf 24 bd 76 3f d2 4d 48 bf
       0.5271633 -1.0102762 0.96382356 -0.78243744
0000e0 d7 49 af be c7 9f 19 3f 89 71 85 3f 37 75 a3 be
       -0.34236023 0.60009426 1.0425273 -0.31925365
0000f0 e1 e8 0b 3f de 73 0f 3f 6e af 16 be d0 2c 9f be
       0.5465222 0.56036174 -0.14715359 -0.31088877

critic.2.weight f4 [64, 64]
000000 fe a8 02 3e 5d b9 fd bd bd b4 0b 3f d5 1d 02 3f
       0.12759778 -0.12388871 0.5457266 0.5082677
000010 00 b8 d0 bd 9e 87 c7 be 05 b8 0b 3f be 18 48 bd
       -0.10191345 -0.38970655 0.54577667 -0.04885172
000020 a8 05 7c 3d b2 78 c3 be dd 3d b1 be f0 90 42 3d
       0.06152883 -0.3817802 -0.3461751 0.047501504
000030 3f 5e 2f be 75 3e 6e be 54 5d cd 3d 67 93 7c 3c
       -0.17125796 -0.23266013 0.100275666 0.015416003
000040 ab b4 e2 3e 4c 26 79 3d bd b7 84 3e 20 13 24 bd
       0.44278464 0.06082754 0.2592143 -0.0400573
000050 46 a8 ce 3e d6 db 02 bd f9 30 44 bf 9d 6f 87 be
       0.40362757 -0.031947933 -0.76637226 -0.26452342
000060 85 4e 0e be 1e ad 8f 3e 78 7f 5a 3f f9 b1 95 bf
       -0.1389714 0.28061765 0.8535075 -1.1694938
000070 43 e3 2d be f0 d4 be be 8b 11 e7 3d 7d 88 0f 3f
       -0.16981225 -0.37271833 0.11282643 0.5606764
000080 66 39 6d 3d 7d b1 10 bf 38 60 0c be b0 ae 9b bd
       0.057916068 -0.56520826 -0.1370858 -0.07601678
000090 9c fe 1f 3e 35 dd 6c 3a 2c 93 98 3e 7f 2d 9d be
       0.1562447 0.0009035648 0.29799783 -0.30698773
0000a0 bb f2 ba 3e 1e d2 9d 3f 18 8e 32 be 70 e2 4b 3e
       0.36513314 1.2329748 -0.17437017 0.19910598
0000b0 0c 6f da be 4a 77 6e 3e e8 42 37 be 62 9f 5d 3e
       -0.42662847 0.23287693 -0.17896616 0.21642831
0000c0 0a d2 9d 3e b7 be c7 be 8e 06 e4 bd 7f 4b b4 3e
       0.3082431 -0.3901269 -0.11134063 0.3521385
0000d0 ae fa 85 be 14 b3 be 3e 1a 2d 2a bf 6b 0a 06 bd
       -0.26167816 0.37246 -0.6647507 -0.03272478
0000e0 bb 42 0d 3f 97 2b af 3e 83 ae c5 bd 79 ef 39 be
       0.5517995 0.34212944 -0.09652426 -0.18157758
0000f0 11 5d 9a bd db d9 b7 be f1 42 9f be 04 ab 32 3f
       -0.07537282 -0.35908398 -0.3110576 0.697922
000100 1d 94 9d be ec c3 20 bf e1 4e 28 bf 1a 6c 39 bf
       -0.30777064 -0.62798953 -0.6574536 -0.72430575
000110 bd da 6f 3c 14 4f e1 bd ee c7 b5 3e a4 e3 2c 3b
       0.014639554 -0.11001411 0.35504097 0.0026380802
000120 64 d2 0f be 18 81 46 3e 30 e5 a1 3e 48 60 ef bd
       -0.14045101 0.19385183 0.3162017 -0.11688286
000130 d2 fc 22 bf ae c9 e5 3e ab c0 0f bd 45 7a 44 3e
       -0.63667023 0.44880432 -0.035095852 0.19187267
000140 35 11 7b be 6e fb 38 3e f0 4b d4 3d c5 d8 1f be
       -0.24518283 0.18064663 0.103660464 -0.15610035
000150 12 43 89 be 5d f1 9a bd 77 95 0b 3f 69 f8 ab be
       -0.26808983 -0.07565568 0.5452494 -0.3358796
000160 51 ef f9 3e 0f 20 a3 bd 96 78 b9 be 0c 2f cc 3f
       0.48815396 -0.07965099 -0.36224812 1.5951858
000170 64 f3 92 3d 82 80 40 be 81 1a 13 be 0f 06 73 be
       0.07175329 -0.18799022 -0.14365579 -0.2373278
000180 2e 64 46 3e f6 d2 21 3f db 7a 08 3f b3 9a 1c be
       0.19374153 0.63212526 0.5331246 -0.15293388
000190 45 63 80 3c 7a 3c de 3e 0e 85 6b be 3c af ab 3d
       0.015672335 0.43405515 -0.22999975 0.08383033
0001a0 37 d4 f5 3c 1a 4f 84 bf 25 9b 20 bf 20 97 7d 3d
       0.030008418 -1.033664 -0.6273673 0.061911702
0001b0 5d 70 db 3e f0 18 e1 be 74 20 21 bf 84 31 33 bd
       0.42859164 -0.43964338 -0.62940145 -0.043748394
0001c0 41 c3 13 3e 62 a2 36 be 1e da f5 3d 3d 43 0b bf
       0.14429952 -0.17835382 0.12004493 -0.5439947
0001d0 de 3a 54 3e 83 d4 48 bf 86 76 2a 3f 95 3c ad be
       0.20725581 -0.7844927 0.665871 -0.33835283
0001e0 40 e0 5d 3d df c4 09 be 02 e3 52 3e c6 8f 3b 3d
       0.05416894 -0.13454007 0.20594409 0.04579141
0001f0 88 98 d0 3c a4 df f1 bb 44 b2 fd bc 9e 92 8d be
       0.025463358 -0.0073813964 -0.030968793 -0.27650923
000200 b1 57 6b 3e bd e8 bb 3e ac 89 5f bf 6e 9d 0c bf
       0.2298267 0.36701003 -0.87319446 -0.5492772
000210 d6 9c 13 3e 8c b6 14 3e a5 72 68 be 29 e4 d4 3c
       0.14415297 0.14522761 -0.22699983 0.025987701
000220 dd 8b eb be ca 1e 1d 3f 26 47 22 be 70 ac e3 3e
       -0.46005145 0.61375105 -0.15847453 0.44467497
000230 a5 bc 09 be f9 20 15 3f fd d3 1e bc 04 a5 67 bd
       -0.13450868 0.5825344 -0.009694097 -0.056553856
000240 c5 0a cd be 73 71 64 be d1 cd 3b be 49 81 c1 3d
       -0.4004728 -0.22308902 -0.18340231 0.09448487
000250 e4 a2 f6 bd 10 30 9d 3d 92 ff 53 3f 17 e5 14 be
       -0.12042788 0.07675183 0.82811844 -0.14540516
000260 6e 99 f7 be d4 fb 27 bf 4a 40 af be 1c ef 0d 40
       -0.48359245 -0.65618634 -0.34228736 2.217719
000270 a3 e8 92 3e ae 4a 5c 3e ef 0d 07 be 5c 0f 24 bf
       0.28693113 0.21512863 -0.13188909 -0.64085937
000280 9d 9e a6 bd d5 c6 58 3f 29 ab 2d bd 67 ca 04 3e
       -0.08135722 0.84678394 -0.04239956 0.12967835
000290 d5 d6 67 3e da ee 6a be d8 ec 78 be 27 e6 0b 3e
       0.22640546 -0.22942677 -0.24309099 0.13662015
0002a0 12 87 eb be b2 3c 88 bf 8e d2 af be 20 45 d7 3b
       -0.46001488 -1.0643523 -0.34340328 0.0065695196
0002b0 dc 78 93 3e 56 3b 02 bf 10 38 03 bf a0 13 ce 3e
       0.28803146 -0.5087179 -0.5125742 0.40249348
0002c0 e9 a4 42 be 48 5d 6e be 31 31 3b bd c8 be e3 bd
       -0.1900822 -0.23277771 -0.04570121 -0.11120373
0002d0 14 e5 bc 3d 25 83 a5 bf 58 4a 8a 3f 1c 31 64 bc
       0.09223381 -1.2930647 1.0803938 -0.013927724
0002e0 4b a6 58 be 45 d7 4a 3e f1 d1 d2 3d 51 39 89 be
       -0.21157186 0.19808681 0.102939494 -0.2680154
0002f0 34 10 61 3d 73 9b 3e 3f 6c 8c 6c 3e 82 4a 4c 3d
       0.054947093 0.74455947 0.23100442 0.049875744
000300 d7 7b 7b bc c3 ec 8c 3e 99 6d 33 3f 7b b3 3f 3e
       -0.01534935 0.27524385 0.7008911 0.1872081
000310 66 9d ed be 7d 84 8f be 2b 50 eb 3e af 50 ee 3d
       -0.46409148 -0.28030768 0.459596 0.11636483
000320 8a be 8c 3d 96 61 c3 be 2c a9 f3 3d 4e 1e 96 be
       0.0687228 -0.3816039 0.11897501 -0.29319996
000330 30 f1 64 3e da d1 fc be b6 34 09 3d 77 21 a1 3c
       0.2235763 -0.49378854 0.033497535 0.019669278
000340 89 09 5d 3f 04 e2 a0 3d 5e 2b 00 3f 23 3b 1e be
       0.86342674 0.07855609 0.50066173 -0.15452246
000350 da 8e ad 3e 1e 5a d8 bd 6a c2 4f bf 1a 0c a1 3d
       0.3389805 -0.105640635 -0.8115603 0.07863636
000360 d4 4c a1 3e 4f 54 ad 3e 48 b7 cc 3e a7 90 f6 bf
       0.31503928 0.33853385 0.39983582 -1.9262894
000370 d0 a0 8e be 4b 7a 27 3d d6 83 98 3e 63 fb 35 3f
       -0.27857065 0.040888112 0.29788083 0.7108671
000380 73 37 86 bc f6 d8 85 bf 5a 28 9a 3e b4 f5 80 be
       -0.016383862 -1.0456836 0.3010891 -0.25187457
000390 47 ae aa be 58 f3 11 3e 35 de 55 3c 1d 1e 42 be
       -0.33336088 0.14252985 0.013053467 -0.189568
0003a0 e8 c8 a6 3e b5 19 26 3f a7 ae c4 3e 1d a8 ce bd
       0.32575154 0.64882976 0.384145 -0.10090659
0003b0 c5 c3 fe bd d5 90 b4 3e fe 12 31 3f 0d 2e 99 be
       -0.12439684 0.35266748 0.69169605 -0.29917946
0003c0 37 4d a7 be 89 8e 8f bd af d5 26 3c 79 cd d9 3d
       -0.32676098 -0.07009608 0.010182782 0.10634894
0003d0 10 2b 11 3e 80 bb 82 3f fc c5 65 bf 3b c6 e2 bd
       0.14176583 1.021347 -0.89755225 -0.11072966
0003e0 5a 54 2d bd 13 59 df bd 32 c8 78 be 9c e3 ce bc
       -0.042316772 -0.109056614 -0.24295118 -0.025255017
0003f0 64 b0 17 3e a0 c7 c5 be b1 d4 d9 bd 9d 9c 66 be
       0.14813381 -0.38628864 -0.10636271 -0.2252068

critic.2.bias f4 [64]
000000 dc f7 14 be c5 60 1e 3d fa 21 96 3e 3b 0a 4e be
       -0.14547676 0.038666505 0.29322797 -0.2012109
000010 ed 1e 1a 3e 0b 6b d9 3e 7b 74 d8 be c8 57 4e 3e
       0.1505086 0.4246448 -0.42276368 0.20150673
000020 38 e9 0c be 4a 56 22 3e 0c ee 09 be 23 55 68 3e
       -0.13760841 0.15853229 -0.13469714 0.22688727
000030 a3 43 73 3e 9f f8 ce bd 0d 87 06 be 1d a3 d5 bd
       0.2375627 -0.101060145 -0.13137455 -0.10431502
000040 cf b6 2d be 11 51 87 bd 4f 78 8c be 91 d3 7e 3e
       -0.16964267 -0.06607259 -0.27435538 0.24885394
000050 62 9f 21 3e 94 23 83 3e f2 5c 47 be a4 56 5b be
       0.15783456 0.2561308 -0.1946905 -0.2141977
000060 f2 d8 78 3e 85 03 63 bd 03 65 80 3e f7 a5 ad 3e
       0.24301508 -0.05542328 0.25077066 0.33915684
000070 99 4b 8d 3e 4b 57 db be 4b 62 cc 3e 6f b0 5d 3d
       0.2759674 -0.42840037 0.39918742 0.05412334
000080 6f 96 a0 3e 35 d2 6a 3e 20 7f 9c 3e 3a 8a 45 3e
       0.31364772 0.2293175 0.3056574 0.1929101
000090 5f e2 9b 3e aa 61 28 3c 0b e0 5c bd b9 49 14 bd
       0.30446145 0.010277191 -0.0539246 -0.03620312
0000a0 e2 7e 31 bd d2 12 8a be bf ce b1 3e 8c 5d 12 3e
       -0.043333896 -0.26967484 0.34728047 0.14293498
0000b0 2c b5 82 3e 07 48 a7 be 45 29 7b bd a6 b4 3a 3e
       0.25528848 -0.3267214 -0.061318655 0.18232974
0000c0 94 86 a8 3d 03 7f 68 3e 34 cd 27 bd c1 f1 a2 be
       0.08228794 0.22704701 -0.04096718 -0.3182507
0000d0 15 ea 99 3e f7 6a 5e 3d c2 94 da bc 40 c2 80 bd
       0.30061403 0.05430123 -0.026682261 -0.0628705
0000e0 64 11 3f be 2c 81 49 3e bb e1 72 3d 66 52 ca 3e
       -0.18658978 0.19678181 0.059297305 0.3951599
0000f0 9a e1 77 3e a1 80 c7 3e 83 78 29 bc d6 e2 cb bc
       0.24207154 0.38965324 -0.010343674 -0.024888437

critic.4.weight f4 [1, 64]
000000 95 6e ef bf b2 83 00 40 33 91 19 40 01 59 fc bf
       -1.8705622 2.008038 2.3994873 -1.9714662
000010 2e 0e 85 3f ff 39 f7 3f 80 f7 c6 bf a5 5a 14 40
       1.0394952 1.9314574 -1.5544281 2.3180325
000020 1c 78 b7 bf 77 a6 bc 3f 95 4e cc bf 43 10 e7 3f
       -1.433353 1.4738301 -1.5961481 1.8051838
000030 d4 dc 12 40 54 d2 a7 3f a4 8b 9b 3f 65 f3 8e bf
       2.2947283 1.3111062 1.215199 -1.1168028
000040 c7 4d db bf c6 2e bb 3f 18 ae d3 bf 2b d2 03 40
       -1.7133111 1.4623649 -1.6537504 2.0597026
000050 ee 5e 95 bf d3 e9 a0 bf 40 66 ab bf e1 99 c1 bf
       -1.1669595 -1.2571357 -1.3390579 -1.5125085
000060 3b 4a e3 3f ec 3b a6 bf b8 3c cc 3f 3e d5 02 40
       1.7757028 -1.2987037 1.595603 2.0442653
000070 3d 34 13 40 74 54 c7 bf 8f d6 a9 3f ba 00 7a 3f
       2.3000634 -1.5572648 1.3268603 0.9765736
000080 a0 24 ea 3f 79 7d d0 3f 7e fe e4 3f af 79 54 3f
       1.8292427 1.6288291 1.7890165 0.82998174
000090 ef 91 04 40 c5 c1 bf 3f 4d b2 c1 3f b7 7f a9 3f
       2.071407 1.4981009 1.5132538 1.32421
0000a0 f8 16 af 3f d6 24 a1 bf 8f 20 c8 3f d7 8e c1 3f
       1.3678885 -1.2589366 1.5634936 1.5121716
0000b0 25 ce ad 3f e8 50 b3 3f 7f 6d 9e bf 4a 0c 04 40
       1.3578535 1.4009066 -1.2377166 2.06325
0000c0 9d 61 e8 3f 98 12 a7 3f 05 ef ba 3f 23 6e f8 bf
       1.8154789 1.3052549 1.4604193 -1.9408611
0000d0 4b 66 94 3f 47 92 08 40 a6 31 b3 bf ee 9d cf bf
       1.1593717 2.133928 -1.3999527 -1.6220071
0000e0 23 32 c3 bf 8c 11 dd 3f 8b 09 b9 3f 12 57 18 40
       -1.5249676 1.727098 1.4456037 2.3803144
0000f0 ad 89 ff 3f a5 df ed 3f 43 c8 97 bf 9b 81 b9 bf
       1.996389 1.8583876 -1.185799 -1.4492677

actor_mean.0.weight f4 [64, 27]
000000 b9 5a 94 3e 86 f4 44 3e 62 93 29 bd 33 63 bd be
       0.28975466 0.19233903 -0.04140032 -0.36989745
000010 5b 38 84 3e 7c b6 42 be 55 fc e8 3e 29 ee 8f 3e
       0.25824246 -0.19014925 0.45505014 0.2811139
000020 03 6b 30 be 06 4e 1c 3e b7 3d 65 3d 85 a0 00 3f
       -0.17228322 0.15264139 0.05596706 0.50244933
000030 2d fa b7 bd e0 49 07 3e 72 9b 50 bf 85 5b 95 be
       -0.08983264 0.13211775 -0.8148719 -0.29171386
000040 d5 39 0b 3f e1 87 8f be b7 88 ff 3d 5b 14 29 3e
       0.5438512 -0.28033355 0.12477248 0.16511671
000050 50 a1 31 3e b2 31 80 3d 33 4d 0a be 9b 82 a3 3e
       0.17346692 0.06259479 -0.13506012 0.31935582
000060 34 b1 01 3e 6f a1 89 be 50 d4 15 3e 87 70 03 bf
       0.12665254 -0.26880977 0.14631772 -0.5134358
000070 8e c8 47 3d bf dc 5a bd 19 48 a8 3e f5 13 07 3e
       0.04877525 -0.053433176 0.32867506 0.13191207
000080 15 1e 11 3e 19 e5 01 3e c3 da 32 3e 7d 0a 8f 3d
       0.14171632 0.1268505 0.17466263 0.06984422
000090 a1 b1 05 3f 98 1f 74 3d 8a 3b b4 3a 2c b4 e2 3b
       0.52224165 0.059600443 0.0013750654 0.006918451
0000a0 68 70 00 3f 13 e8 a8 be 52 4a e0 bd 98 b6 12 3e
       0.5017152 -0.3298956 -0.109516755 0.14327466
0000b0 76 59 cf 3e 78 d1 dd bd 61 91 72 3d 4d 8e 70 bd
       0.4049794 -0.108309686 0.059220675 -0.05872946
0000c0 43 31 b6 3e c0 8a db 3e 3b 4a 0e be bc b8 29 be
       0.3558446 0.42879295 -0.13895504 -0.16574377
0000d0 4d f3 b7 be 0f 82 fa bd 2d 7b 2e 3e a4 e1 48 3e
       -0.3592781 -0.12231838 0.17039175 0.19617325
0000e0 f2 6a 24 3e 32 49 06 be ca bd 4f be 89 bb 34 3e
       0.16056421 -0.1311386 -0.20287243 0.17649664
0000f0 41 d3 2d 3e 96 29 01 be 04 09 9a bd 85 7a e8 be
       0.16975118 -0.1261352 -0.07521251 -0.45405975
000100 5d 78 31 3d aa 4d f5 bd 7d 23 ae 3e 9a de 50 bd
       0.043327678 -0.11977704 0.3401145 -0.05099354
000110 cd ec 45 bf 4f 43 53 3f 6f 9c 53 3e 9e 3c f7 bd
       -0.77314454 0.8252458 0.20665143 -0.12072109
000120 c8 4d 4d 3c c7 13 33 3d 22 82 85 be 43 81 42 3e
       0.0125307515 0.043720033 -0.26075846 0.18994622
000130 7b 54 62 3e ba 3f d8 be 3a ba 5f 3e a6 5b 89 3b
       0.22102539 -0.4223612 0.21848384 0.0041918335
000140 c2 a6 2c 3c 4c f6 20 bd 25 d1 18 3f 37 92 07 3f
       0.010537805 -0.039297387 0.5969413 0.5295748
000150 63 b5 38 3e 55 88 1c 3f d2 2a 41 3f ef 42 7a 3d
       0.18037944 0.61145526 0.75455964 0.06109899
000160 b7 9a 9c 3b a4 ba df 3e 9a a1 e9 3e 7d e0 cb bd
       0.0047791856 0.43697083 0.45631105 -0.09954927
000170 50 87 49 be ef 98 01 3d a4 fa e9 be ff f3 87 3c
       -0.19680524 0.03163999 -0.45699036 0.016595839
000180 49 3f 0a be 27 4a 90 be 0d 5e 18 3d 54 4e 2e be
       -0.13500704 -0.28181574 0.03719907 -0.17022067
000190 47 9e 8b bd ac b7 b1 3e d5 74 d4 3d 00 05 66 3d
       -0.068172984 0.34710443 0.103738464 0.056157112
0001a0 af fe 94 3e 87 9c 0a be fb 94 aa 3c 58 2b 84 3d
       0.29100558 -0.13536273 0.020822993 0.0645358
0001b0 0e 42 b6 3d 35 16 df 3e ae f6 88 3e 81 2d 8d bd
       0.08899318 0.4357163 0.26750702 -0.06893445
0001c0 89 55 fe 3d a0 25 44 be 1d 85 47 be be c5 4d bd
       0.12418658 -0.19154978 -0.19484372 -0.05023741
0001d0 08 82 d4 3e 80 c4 b0 3d 14 ea 74 bd 55 51 27 be
       0.41505456 0.086312294 -0.059793547 -0.1633962
0001e0 cc bf 8d be f6 dc b9 be f3 d2 c7 be fc b2 65 3e
       -0.27685392 -0.36301392 -0.3902813 0.22431558
0001f0 70 01 fa bd 9a 7f 34 bf 04 b7 d8 bd fa a1 f7 bd
       -0.122073054 -0.70507205 -0.105817825 -0.120914415
000200 71 46 02 3f 7d 62 f2 3d 2b 59 22 be 7d 42 1c be
       0.50888735 0.118351914 -0.15854327 -0.15259738
000210 30 21 0f be 39 4d bb 3d 3e 7b 10 3e 27 3b c6 3d
       -0.13977504 0.091455884 0.14109513 0.09679251
000220 50 85 2f bf 90 0a 46 3e 74 04 60 3e 57 83 0e 3f
       -0.68562794 0.19339967 0.21876699 0.5566916
000230 a5 3d 46 bd a0 42 6b 3e 83 7f b8 3e 85 1a 51 be
       -0.048398633 0.22974634 0.36034784 -0.20420273
000240 be 9a 2c 3e 6d dd e2 3d 7c 87 35 be 93 3f e3 3d
       0.16855904 0.1107739 -0.17727464 0.1109611
000250 8f c8 2b bf 6a 0a af 3d 6d 4b c5 be 71 dc c3 3e
       -0.67102903 0.08546908 -0.38534108 0.3825412
000260 90 f8 96 bc 19 9d 93 be c1 35 07 be 29 a4 b1 bd
       -0.01842907 -0.28830793 -0.13204099 -0.08673889
000270 b1 4c 3e bd 46 b5 31 3e 08 7a 07 3e a0 f2 a1 bc
       -0.046459857 0.17354307 0.13230145 -0.019769013
000280 bd ad 4c bd af b9 a8 be a3 07 bc 3e 0c ce d4 bd
       -0.049970377 -0.32954165 0.36724576 -0.10390863
000290 81 9f 6a bd 04 c8 61 bf e0 ed 2a bf 51 88 c8 be
       -0.05728102 -0.88195825 -0.6676922 -0.391665
0002a0 68 f3 7d bd 18 3f c9 be a2 b2 bc 3e 46 fb 9f 3e
       -0.06199971 -0.3930595 0.36855036 0.31246394
0002b0 73 80 60 bd 9e 74 5c 3d 87 5d 45 3e 0d 82 94 3e
       -0.05481 0.053822152 0.19273959 0.2900547
0002c0 8d 1c b6 be 9d fd 00 be de c0 ed bd 4c 78 dd 3c
       -0.35568658 -0.12596746 -0.11609052 0.027034901
0002d0 e0 3c 29 bd 9b 76 00 be 7b be bd bd ef ee 9d 3e
       -0.04131782 -0.12545244 -0.09264847 0.30846354
0002e0 ff cd e1 bc c9 38 e8 bd ed 70 c1 be 7f ca 74 be
       -0.027564047 -0.11338956 -0.37781468 -0.23905371
0002f0 3f 7d c2 bd 98 67 99 be 81 af 96 3e 88 d7 0f 3d
       -0.09496545 -0.29961848 0.29430774 0.035117656
000300 06 20 65 bf 50 ed 10 3e 44 09 54 3e f7 cf 0e 3e
       -0.8950199 0.14153028 0.2070666 0.1394652
000310 d5 58 b0 3e 8b b1 3f 3e 2d 1e 1e 3f 74 1c 7e 3d
       0.34442773 0.18720071 0.61764795 0.062038854
000320 8c 7a b6 3d 8e bb 6d be 3d 17 f6 be d1 76 3c be
       0.08910093 -0.23216078 -0.48064604 -0.184047
000330 59 0f bd 3e 46 57 87 be c7 4a 22 3f 41 3b b5 3e
       0.36925772 -0.26433772 0.6339535 0.3539677
000340 60 82 3a be f2 62 84 3c 99 dd a1 3e 71 1f db 3d
       -0.18213797 0.016160462 0.31614378 0.10699356
000350 00 71 9d 3d 09 cb 00 bd ca 83 bb bd e4 95 7e 3e
       0.07687569 -0.03144363 -0.09155996 0.24861866
000360 6d e8 8c be e7 17 4a bf b3 ce a2 bd 9d 68 42 be
       -0.27521077 -0.7894272 -0.07949581 -0.1898522
000370 c6 c2 3f be 8d 91 04 3e 4e b7 b6 bb b0 6a dc be
       -0.18726644 0.12946148 -0.005576051 -0.43050146
000380 11 8a 1b bd 53 21 fb 3e ef 72 cd 3e ca 08 b8 3d
       -0.037973467 0.49048862 0.4012675 0.089860514
000390 4a e2 53 be 1f 57 41 be c4 69 1c be f5 61 11 be
       -0.20691791 -0.1888089 -0.15274721 -0.14197524
0003a0 34 bf a2 be 39 0c 86 3e 37 d6 03 bf ee 64 3f 3e
       -0.317865 0.261812 -0.5149874 0.18690845
0003b0 3c dc f6 3c 6b 61 23 3d c4 bc 13 3d 88 6f 46 3c
       0.030134313 0.039887827 0.036068693 0.012111552
0003c0 d2 d3 9c be 79 03 0b 3f 76 28 14 3e 07 86 7e be
       -0.30630356 0.54302174 0.1446856 -0.24855815
0003d0 3e d1 b6 be aa 39 57 3e 1b 1c 2d 3f 42 2d 2e 3d
       -0.35706514 0.21018091 0.6762101 0.04252363
0003e0 bf 25 70 bd ee 9f 9b 3d 12 99 e8 3d 4a 6e 62 3e
       -0.058629747 0.075988635 0.11357321 0.22112384
0003f0 a0 db 5b 3e 32 ec 87 3d e5 9a 80 be bd 8b 11 be
       0.21470499 0.066368476 -0.25118175 -0.14213462

actor_mean.0.bias f4 [64]
000000 46 50 c0 3b af da 6b bc 7e af a6 3c 0d 4f c1 bd
       0.0058689443 -0.0143954 0.020347353 -0.09438906
000010 0c 33 a9 bc ab 44 9f 3c d6 b5 d4 bd 44 6a 80 bd
       -0.020654224 0.019441923 -0.10386245 -0.062702686
000020 b1 96 60 be d9 be 00 be 0d 15 0d be 7e bf ac be
       -0.21932484 -0.12572803 -0.13777561 -0.33739847
000030 8a 0b 0b 3e 4f 68 61 bd 18 28 df 3c 90 b0 01 3e
       0.1357862 -0.055031117 0.027240798 0.1266501
000040 25 4d 36 3d 94 d6 5e 3e da fc b8 bd 94 da 09 be
       0.044507165 0.21761543 -0.090326026 -0.13462287
000050 7f e8 42 3d 22 06 5e be 93 db b5 bd 42 ae 27 be
       0.047585007 -0.21682027 -0.08879771 -0.16375068
000060 de a8 cf 3c 1a cd 9f 3d e9 09 43 3e d2 06 56 be
       0.025349077 0.07802792 0.19046749 -0.20901039
000070 3f aa 15 be 73 86 fd 3d 81 bb fb 3c ce 44 88 3d
       -0.14615725 0.1237916 0.030729057 0.066537485
000080 33 10 95 be 68 6c aa bd dd 46 07 3d 9a 4b 8b bd
       -0.29113922 -0.08321458 0.033026565 -0.06801529
000090 29 45 66 be 55 74 15 bd 65 22 c3 bd 70 15 27 3c
       -0.2248732 -0.036487896 -0.095280446 0.010197982
0000a0 45 68 18 3e 6e 6f b1 bd 1f 93 09 3d 8a 4f 8b 3e
       0.14883526 -0.08663832 0.03358757 0.2720912
0000b0 ca b3 8d bd d8 9f 4f bd 20 a0 06 be 49 b9 58 bd
       -0.06919058 -0.05068955 -0.1314702 -0.052911077
0000c0 8e 30 05 bd 30 8d 19 3d 8e 7d 91 3d 97 9d 32 3d
       -0.03251701 0.037488163 0.07104026 0.04360732
0000d0 08 b2 12 bd 6a 4c dd bc ae 86 4e be ed c2 a0 bb
       -0.035814315 -0.027013976 -0.20168564 -0.0049060495
0000e0 ee a2 b6 bd 2c 08 a9 bc 9d 50 16 bd a3 88 f2 3d
       -0.08917795 -0.02063378 -0.036697973 0.11842468
0000f0 60 96 b7 3d ae f1 fa 3d c1 94 98 bd ff 4d 9c 3e
       0.08964229 0.12253128 -0.074502476 0.30528256

actor_mean.2.weight f4 [64, 64]
000000 e6 02 99 be 53 84 9a 3e d1 cf 07 be 3d bb b5 bd
       -0.29885024 0.3017908 -0.1326287 -0.088736035
000010 4e 9f c3 bd 3e 44 76 be 49 d2 75 3d cb b6 57 bd
       -0.09551869 -0.2404947 0.060014997 -0.05266456
000020 a1 bb 9c 3d 1c 30 5c be fe 61 b7 bd 89 45 04 bf
       0.07652975 -0.21502727 -0.089542374 -0.516686
000030 23 b9 34 3e 6f e8 f8 be ab d8 75 3e 72 cd b7 3e
       0.17648749 -0.48614833 0.24008434 0.3589893
000040 65 35 a3 3e 4e 67 2e be eb 52 a2 bd d1 1e 4d be
       0.31876674 -0.17031595 -0.079259716 -0.20031287
000050 28 da 7a be c6 e1 a9 3e 70 01 88 be c8 cc f6 bd
       -0.24497283 0.33180064 -0.26563597 -0.12050778
000060 5d 3e 58 3e 09 c5 08 3e d7 7e cd 3d b8 9a 9c be
       0.2111754 0.13356413 0.100339584 -0.3058679
000070 47 81 54 bc b6 21 4a be b7 64 22 3d 76 4a d9 bd
       -0.012970275 -0.19739422 0.03964683 -0.106099054
000080 b4 71 24 be ed a7 8b 3e fa 40 c6 be bd 3b a7 3d
       -0.16059 0.27276555 -0.38721448 0.08165691
000090 30 55 33 3b df 35 70 be 7d 73 89 bb 24 61 b7 3e
       0.0027364008 -0.2345805 -0.0041946755 0.358163
0000a0 46 3e 42 3d 50 a5 77 be 96 2b b4 3e fb 64 fe bd
       0.04742267 -0.24184155 0.35189503 -0.12421604
0000b0 49 9a e7 3e 30 62 be be bc 43 a0 3e 4a dc 61 be
       0.45234898 -0.37184286 0.31301677 -0.2205669
0000c0 e1 b1 0b bd 9b 01 b7 bd e3 8c 4f be b2 0b 13 3f
       -0.034105185 -0.08935853 -0.20268588 0.5743972
0000d0 e1 07 68 be 11 c4 9e be ca 35 82 bd 5f 7c f8 bd
       -0.22659256 -0.31008962 -0.06357916 -0.12133097
0000e0 bc da 62 3e 81 63 86 3e 4a e7 66 3e 42 e7 47 3e
       0.22153753 0.2624779 0.22549167 0.19521812
0000f0 54 e4 c4 be c4 fa 64 3b 70 59 21 3e 98 07 04 bf
       -0.3845545 0.0034939507 0.15756774 -0.5157409
000100 b3 5b d1 bd 0e e3 8f be 95 86 01 bd 43 1f 2c 3e
       -0.10222568 -0.28102916 -0.031622488 0.168088
000110 cf 4a 2b 3e c3 42 36 bb 50 df 0b bd 68 39 3f 3c
       0.16727756 -0.002781079 -0.034148514 0.011671402
000120 2d f7 61 3d df 14 e7 bd 56 cc 14 bc 56 70 17 3c
       0.055167366 -0.11283278 -0.009081921 0.009243092
000130 78 a5 52 be 7e c2 57 be ee f8 23 3e 44 4a 18 bc
       -0.20570934 -0.21070287 0.16012928 -0.00929505
000140 fb 89 ed be 9a 89 b1 bd 45 a8 ea bd 5a 6c af 3e
       -0.46394333 -0.086688235 -0.11457876 0.34262353
000150 c7 c9 6f be 33 dc 9a 39 9b 0f 34 3e 80 ab f4 bd
       -0.23416816 0.0002953723 0.17584078 -0.119467735
000160 e4 ba 97 bc 8d 17 ed 3d 91 56 82 3d 89 2b 91 bd
       -0.018521734 0.115767576 0.063641675 -0.07088382
000170 1d db 0d bd 4b b4 76 be b9 94 b5 bd 9c f5 cd bd
       -0.03463279 -0.24092214 -0.08866257 -0.10056612
000180 2d 7b ab bd a8 df 60 be f0 96 b0 be 8b 23 8b be
       -0.08373103 -0.21960318 -0.34490156 -0.27175555
000190 32 de 10 3f 3f 57 2e 3d 4d 33 fb 3e 85 75 56 3e
       0.56589043 0.042563673 0.49062577 0.20943268
0001a0 e4 9b 0e 3f 32 b6 80 bd f9 fd c3 bb fc 65 dc 3e
       0.5570662 -0.06284751 -0.0059812036 0.43046558
0001b0 6b 16 b7 3e ea 1d 4b 3e 18 a8 fb 3e 8d 7e 45 be
       0.3575929 0.1983563 0.49151683 -0.19286557
0001c0 5c 12 19 be 02 31 73 3e 86 58 91 3e 8b 0e e8 bc
       -0.1494841 0.23749164 0.2838785 -0.028327247
0001d0 cb 49 ca 3c 6f 9b de 3e 99 1a d3 3e 1f 8c 98 be
       0.02469339 0.4347796 0.4123123 -0.29794404
0001e0 78 a4 51 3e 06 ec cc bd 14 f1 a0 3c 78 dc 15 3e
       0.20472896 -0.100059554 0.019646205 0.14634883
0001f0 86 13 a7 3d 77 c6 40 3d 19 ac e5 3c 35 04 d6 be
       0.08158021 0.04706427 0.028036164 -0.41800085
000200 a8 a5 13 3c 26 67 88 3e 04 fa e2 bd 30 70 22 be
       0.0090116635 0.26641196 -0.11082843 -0.15863109
000210 1a 21 a0 be f6 3a 66 3d 48 d9 6f 3d 06 5e 85 3e
       -0.31275254 0.056208573 0.058556825 0.26048297
000220 ad 9c c6 be 52 2d 88 be 0e 53 3d bd 51 f8 8a bd
       -0.3879141 -0.26597077 -0.046221785 -0.06785644
000230 9d 53 aa 3e dc 12 59 bd 36 cd c1 be 5a 87 0a bf
       0.33266917 -0.0529965 -0.37851876 -0.5411278
000240 0c 8f 07 3e 10 66 dc bc 1e 6c af be a0 03 eb 3d
       0.13238162 -0.026904136 -0.34262174 0.11475301
000250 94 87 6d bd 52 7c 0c be b4 d3 76 bd 17 ea dd be
       -0.057990626 -0.137193 -0.06026049 -0.4334266
000260 0e da 26 be 68 a0 fe bc 80 c0 0d bf 4b 59 9b 3e
       -0.16294119 -0.031082347 -0.55371857 0.30341563
000270 52 7b 33 3e 06 66 b3 3e 01 ec 4e 3e 41 e7 0d 3e
       0.17527512 0.35038775 0.20207216 0.13857748
000280 2c 07 08 3e 0f 28 11 bf 71 4b 3f be 76 f0 dd bd
       0.13283986 -0.5670175 -0.18681122 -0.1083688
000290 60 f8 d1 3e 65 48 04 3e e4 da ed bd 53 2e 5b be
       0.41009808 0.12918241 -0.11614016 -0.2140439
0002a0 dd f1 e8 bd eb 81 26 3e 46 04 fa 3c 0c d1 5b 3d
       -0.11374257 0.16260497 0.030519616 0.05366616
0002b0 6e ce ae bc 97 cb a4 bd ca 88 bf 3e 43 45 c0 bd
       -0.021338668 -0.08046644 0.3740905 -0.093882106
0002c0 92 1b 65 3e 9c d2 15 3f b4 6d 9f 3d 05 63 96 3d
       0.22373798 0.5852449 0.07784596 0.07343105
0002d0 af 3f c8 bd 75 1c af be 75 e5 9b be 38 a8 ca be
       -0.09777772 -0.34201398 -0.304485 -0.39581466
0002e0 d0 ac 80 bc b8 27 89 bd bc 1e a1 3d b3 19 53 be
       -0.015707403 -0.06697029 0.0786719 -0.20615272
0002f0 61 b2 d3 3e c5 91 d5 bd 64 c9 e4 bd 81 dc 39 3e
       0.4134703 -0.10428194 -0.11171225 0.18150522
000300 97 b8 10 3d 6c 83 a8 bd a7 2d a1 be a9 69 39 3e
       0.03533229 -0.08228192 -0.31480142 0.18106712
000310 53 d4 e7 3e 1f dc 26 3a 93 79 28 be 5e 4f 3f bd
       0.45279178 0.0006365198 -0.16452627 -0.04670655
000320 7b cf cc 3c 2c b0 66 bb 70 51 ad be 09 60 a1 be
       0.025001278 -0.0035200221 -0.33851194 -0.31518582
000330 47 07 4d 3e 57 36 09 bd 1c e5 33 be 09 0d 43 3e
       0.20022307 -0.03349909 -0.17567867 0.19047941
000340 ed 61 37 3d 61 49 54 be 91 e1 85 3e a0 2c df bd
       0.044771124 -0.20731117 0.26148656 -0.108971834
000350 be f0 10 be b5 e7 aa 3c 89 83 3d bd ba 78 dc be
       -0.14154336 0.02086244 -0.04626802 -0.43060857
000360 f2 29 15 bf fb 1e 07 be 27 b0 bd bd fd 5e 0a bd
       -0.5826713 -0.13195412 -0.09262114 -0.033781994
000370 4b 0f ea be 41 5f bf be c3 46 81 be fa 6e 12 3e
       -0.45714793 -0.3737736 -0.252493 0.14300147
000380 bd 48 a3 bd 0f 34 9d be e7 86 cd bd bd 24 80 3e
       -0.07972858 -0.3070378 -0.10035496 0.2502803
000390 d0 84 89 be 7a 5f 62 3e 55 e3 18 bd 20 55 7f bc
       -0.2685914 0.22106734 -0.037326176 -0.01558426
0003a0 0a 8f 01 be 73 f2 00 3e c3 84 99 be 33 da 2c be
       -0.12652221 0.12592487 -0.29984102 -0.16880111
0003b0 54 c4 1c 3f b3 a2 07 bf 1d 45 cd bd 7f c0 18 3e
       0.6123707 -0.52982634 -0.10022948 0.14917181
0003c0 d0 57 2e be 30 1e 84 be f1 8a f3 3d eb 4f f6 3c
       -0.17025685 -0.2580428 0.11891735 0.030067405
0003d0 09 8b 10 be b1 87 33 bc 0b b5 13 be cd 7e 38 be
       -0.14115538 -0.010957644 -0.14424531 -0.1801712
0003e0 94 b6 3a be c3 40 88 3e 2d 19 aa 3d 3c 1a 4a be
       -0.1823371 0.2661191 0.08305583 -0.1973657
0003f0 02 b5 1a bd e7 2f be 3c 83 8c f1 be 9f 88 10 3e
       -0.03777028 0.023216201 -0.47177514 0.14114617

actor_mean.2.bias f4 [64]
000000 fc 61 44 3e 84 65 3a bd f8 cf f8 3c 4d a9 a4 3d
       0.19178003 -0.04550697 0.030372605 0.08040104
000010 2a f2 9a bd 33 54 a1 bd d8 c4 fa bd 27 9f 58 be
       -0.075657204 -0.07877388 -0.12244576 -0.21154462
000020 ab ee f3 3c a8 50 0c bd 79 74 b6 bd 72 63 13 3e
       0.029776892 -0.034256607 -0.08908934 0.14393404
000030 c0 97 c2 3b ff 49 96 3d fe fc 97 3d 14 6f 01 3e
       0.0059385 0.073383324 0.07421301 0.12640029
000040 28 7c 94 3d bc b3 f1 bd a6 9c 31 3d 4e 29 5d 3c
       0.072502434 -0.1180186 0.043362282 0.013498617
000050 f3 0b ca 3b 9a 6d b6 ba 7e a0 0f 3e 7d c8 78 3c
       0.0061659752 -0.0013918162 0.14026067 0.015184519
000060 34 7e 7c be e1 27 9c be ae 77 9a 3e be d8 be 3d
       -0.24657518 -0.30499175 0.30169433 0.09318684
000070 7f 30 94 3d ce c5 7c 3d 11 0e 98 bd 40 34 5c 3e
       0.072358124 0.06171208 -0.07424558 0.21504307
000080 89 70 01 bd 5a 1c b4 bb 43 7d 2d be 97 d2 0e bd
       -0.031601463 -0.005496544 -0.16942315 -0.034868803
000090 24 87 9f 3d e9 c7 45 3d c1 ed 83 be e5 da 61 3e
       0.07789448 0.048286352 -0.2576733 0.22056158
0000a0 1f 57 e2 bd 81 97 73 3d ef 3f 94 be 33 1a 12 3e
       -0.11051773 0.059470657 -0.28955027 0.14267807
0000b0 12 b1 97 bd 05 88 2f 3e 79 1f d1 bd 82 98 21 3e
       -0.0740682 0.17141731 -0.10211081 0.15780833
0000c0 08 d1 de 3d 97 70 4b bb 12 c4 37 be fe 6d d2 bd
       0.10879713 -0.003104245 -0.17945889 -0.102748856
0000d0 c2 02 b7 bd b4 8f 08 3e f6 07 42 3e 0f 17 c9 bd
       -0.08936073 0.13336068 0.1894835 -0.09818851
0000e0 33 25 b7 3d 29 19 1d bd 15 36 bb 3d f7 3a 78 3d
       0.08942642 -0.038354073 0.09141175 0.06060311
0000f0 e1 c4 ee 3c 50 02 41 be bb e7 1d bd 5c 6d e5 bc
       0.029146614 -0.18848538 -0.038551074 -0.028006248

actor_mean.4.weight f4 [8, 64]
000000 70 ec 80 bc 52 d4 2f 3d e9 51 97 3d c8 d9 ca 3c
       -0.015737742 0.042927094 0.0738867 0.02476205
000010 97 68 65 bd ed 2e 66 bd 2b 2d aa bc fd 34 bb 3c
       -0.056007948 -0.056197096 -0.02077349 0.022852415
000020 d0 d6 7a bd 6a 06 e3 3b 81 44 12 3d e4 9c 25 bd
       -0.061240017 0.006928255 0.03570986 -0.040432826
000030 f3 d5 18 3c 1c 16 4a be 76 f8 7f 3d 9b 27 f7 3d
       0.009328353 -0.19734997 0.06249281 0.12068101
000040 ae 37 42 bd ca 41 f3 bb 6d fe 63 bd 59 e5 1a 3d
       -0.04741638 -0.007423614 -0.05566256 0.03781638
000050 f4 7e f8 3b 24 e9 93 bd 1e 3f 4e bb 72 5c 02 3d
       0.0075834934 -0.072222024 -0.0031470726 0.031826444
000060 70 29 f9 3c 1c 51 9e bd 7a af 2e 3d 3d 23 01 be
       0.030415267 -0.07730314 0.042647816 -0.12611099
000070 d8 83 82 bd 8f 01 44 bd 0c 90 fd 3d f7 a5 42 bd
       -0.063728034 -0.04785305 0.123809904 -0.047521558
000080 41 2b 0e bd 58 12 82 3d 5a 84 26 3d 95 04 05 3d
       -0.03470922 0.06351155 0.040653564 0.032475073
000090 1c 8a 49 3d 66 d1 a0 bc 90 3d 3d 3d ae 3c 09 be
       0.049203977 -0.019631099 0.04620129 -0.13402054
0000a0 4a 27 1f bd 68 01 c9 bd cf 98 8a bc cc f7 b9 bd
       -0.03885583 -0.09814721 -0.016918568 -0.09080467
0000b0 7b 0a 16 bd 9a c7 00 3e 50 4c bd 3d f7 6c c2 bd
       -0.03663109 0.12576142 0.09243071 -0.0949344
0000c0 4d 37 51 3d 43 1f 3c bd 9f cb eb bb a6 01 c8 3d
       0.05107813 -0.04592825 -0.0071959044 0.097659394
0000d0 7a d9 ec 3c 18 9e b3 bd 13 84 2c be 0d 2f 4e bd
       0.028912295 -0.08770388 -0.16847257 -0.05033784
0000e0 84 50 a8 bc fa 99 15 bd 0a 79 20 bd 60 f2 17 3d
       -0.020546205 -0.036523797 -0.03917793 0.03709638
0000f0 37 31 04 bd a0 93 a0 bd 05 5f b4 3d 50 c0 ce 3b
       -0.032273497 -0.07840657 0.08807186 0.0063095465
000100 16 2a 57 3e c0 15 ff bd af fc 39 bc c3 b6 8a 3d
       0.21012148 -0.1245532 -0.011351748 0.0677314
000110 f1 3c 9b 3d 08 6c 4a 3b 89 7e 85 3d 91 b0 ae bd
       0.07579983 0.0030887146 0.06518275 -0.08529771
000120 5e e6 c3 3c 71 3f 2f 3d 0b 76 44 bd 5f 40 af 3c
       0.023913559 0.04278511 -0.047964137 0.021393
000130 8f d9 4f 3d 39 3b 98 bd b6 73 b3 3d 8d 68 d7 3d
       0.05074459 -0.07433171 0.087623045 0.10517988
000140 d6 1d bb 3c af d5 8a 3d 70 7e 82 3d 99 25 4c 3d
       0.022841375 0.06779038 0.06371772 0.049840543
000150 45 c7 8c bd 57 4f 03 3e 5f 3a 32 3c 42 df 53 3d
       -0.06873945 0.12823234 0.010878175 0.051726587
000160 50 8b c9 3d 8e 2d 1b bd 98 46 8c bd 71 76 ba 3b
       0.09841025 -0.03788524 -0.06849402 0.005690389
000170 18 fc 4f 3d 07 d0 3f bd e6 b2 3f bd b7 d7 be bc
       0.050777525 -0.04682925 -0.04680147 -0.02329622
000180 74 b0 1e 3d 38 06 24 bd 02 51 d6 3d 55 c1 ae 3d
       0.038742498 -0.040044993 0.1046467 0.08532969
000190 8f 68 19 be 01 37 d6 bd 78 7a 21 bd c8 4a 08 3d
       -0.14981292 -0.1045971 -0.039423436 0.033274442
0001a0 8b 24 e2 bd 47 36 7b 3c c9 90 21 3e 2b 4c fa bc
       -0.11042126 0.015332765 0.15777887 -0.030553898
0001b0 b6 c5 ce 3c 60 6f 9a bd ae 15 62 bd f3 6a 25 bd
       0.02524076 -0.07540774 -0.055196457 -0.040385198
0001c0 db 83 cc 3d a7 db 95 3d 7d 3b fe 3c d4 8e 00 3d
       0.09986087 0.07317286 0.031034226 0.03138621
0001d0 60 d6 92 3b 37 18 be 3d a4 89 f0 3d f1 e4 6b 3c
       0.004481122 0.09281962 0.11745003 0.014397846
0001e0 19 f2 9d 3d 88 ed bb bd 00 e1 30 bd 46 c8 1b 3d
       0.07712192 -0.09176165 -0.043183327 0.038032793
0001f0 cd 34 c3 3d c7 79 85 3d 5a d6 34 bd 41 68 9c 3c
       0.09531555 0.06517368 -0.044149734 0.01909268
000200 d8 52 8c 3c d9 d7 90 bc 6b e7 1a 3e dc 20 fc bd
       0.017129347 -0.01768105 0.15127341 -0.12310955
000210 d8 a0 0f be 5e b8 aa bc b7 72 d6 bd 12 27 f4 3d
       -0.14026201 -0.020839866 -0.10471099 0.119215146
000220 03 94 b2 bd ed 2b 08 3d 9a b1 f1 bc 1a 41 8a bd
       -0.08719637 0.033245016 -0.029503632 -0.067506984
000230 71 7f e5 bd e9 8f 67 3c d8 a0 ba bd c2 e0 c0 3d
       -0.11205948 0.014133432 -0.0911271 0.09417869
000240 76 a1 d6 3d 1d d6 99 bd 9c 8e 2a bc 15 df 81 bd
       0.10480015 -0.07511542 -0.010409977 -0.06341378
000250 37 c3 20 bd 96 a2 e9 bd d5 12 4a bd 67 f6 17 3d
       -0.03924867 -0.11407964 -0.049334366 0.037100222
000260 8a e6 2a bd 2b c6 c0 bc c4 68 9e bd 99 95 6f 3d
       -0.041723765 -0.023531994 -0.07734826 0.058492277
000270 f6 d2 f3 bd af a4 ed 3d 30 99 46 3b f0 82 c7 bc
       -0.11905472 0.116036765 0.003030371 -0.024354428
000280 df 91 b2 bd 0f 44 04 bd 4c a5 bf bd 66 a2 8c bd
       -0.08719229 -0.03229147 -0.093577 -0.068669125
000290 0b 7b 3e 3d a4 08 97 3b 20 e4 f7 3d 72 bf b0 3d
       0.04650406 0.0046091843 0.12104058 0.08630265
0002a0 f1 0a 4a bc 98 00 87 bc 02 ab 4f bd 15 72 2a 3d
       -0.01233171 -0.016479775 -0.050700195 0.041612703
0002b0 31 18 81 bd 17 2a a0 bd 71 60 c2 3d 61 38 c4 3d
       -0.06303442 -0.07820528 0.09491051 0.09581066
0002c0 91 24 58 bd ad 59 26 3c ab de f5 bd df ef e9 bc
       -0.052769247 0.010153216 -0.12005361 -0.028556762
0002d0 5d 44 9e bd 09 e6 dc 3d 18 f3 b5 3c 44 15 21 bd
       -0.07727883 0.10786063 0.022210643 -0.03932692
0002e0 38 9e 6a 3b b7 a5 48 3c ca 70 6e bc 10 e5 84 bd
       0.0035799872 0.012246541 -0.014553258 -0.06489003
0002f0 3f ee 3d 3c c7 1d d2 3d 0e f4 6c 3d f9 ce 4b 3d
       0.011592447 0.10259586 0.057849936 0.04975793
000300 7b c2 df 3c e4 39 06 3d df 7a c3 3d 2f 96 e3 bc
       0.027314415 0.032770053 0.0954492 -0.027781574
000310 e4 bb 73 bd ab 83 e8 3d a5 94 ad 3c db bb 99 bc
       -0.05950536 0.11353239 0.021189043 -0.018766334
000320 78 2d 82 bd 1d 57 9c bd a8 7e 3e bc 40 14 3d 3d
       -0.06356329 -0.07633803 -0.011626877 0.04616189
000330 70 b0 ce 3d 8a 59 85 bb b6 a4 19 3c b7 18 9c 3c
       0.100922465 -0.004069512 0.009377649 0.019054754
000340 c2 f6 90 3b 31 b4 a4 bd 13 a9 86 3c b9 c1 b5 3d
       0.004423947 -0.08042181 0.016438043 0.0887484
000350 60 e1 66 bd 65 e4 b0 bc d6 48 04 3d 66 85 4b 3c
       -0.056367278 -0.021593282 0.032296024 0.012421941
000360 ed 15 6e bd 84 fb cd bc b8 89 91 3d 4a 64 5d bd
       -0.05812638 -0.025144346 0.07106346 -0.05405072
000370 11 40 87 ba 4c f8 7b 3d 97 84 b5 bb 76 0a 0e be
       -0.0010318776 0.06151609 -0.0055394876 -0.13871178
000380 5f db ba bd 0e b5 c8 bd 65 75 49 bd 88 63 a2 bd
       -0.09123873 -0.098001584 -0.04918422 -0.0792914
000390 77 1e 06 3c dd f9 8a 3d 2e 2a 10 3e f5 38 cd 3c
       0.008185974 0.06785939 0.1407859 0.025051573
0003a0 33 e6 01 3d 6d 5a 54 3d de b6 46 3d a9 b6 bd bd
       0.031713676 0.05184405 0.04851424 -0.09263355
0003b0 cc 46 82 3d 1e a3 50 3d d0 2b 04 bd e2 fd 19 bd
       0.0636116 0.05093681 -0.032268345 -0.037595637
0003c0 b1 5c 85 3c a1 0e f7 3c 71 3f 2a bd 17 5c 82 bd
       0.01627955 0.030158343 -0.04156441 -0.06365221
0003d0 b8 5f e3 bb fb 74 b4 bc 02 75 86 3d 87 c4 ca bd
       -0.006938901 -0.022028437 0.06565286 -0.09900766
0003e0 1c 62 1b bd 67 33 88 3d 6d 4a 91 bd 06 32 1e bd
       -0.03793536 0.06650429 -0.07094274 -0.038621925
0003f0 9a b6 97 3a da 09 db bc 3a b4 9b 3c cf 63 df 3c
       0.0011574805 -0.026738096 0.019006837 0.027269272

actor_mean.4.bias f4 [8]
000000 25 0d 23 bd e3 05 8d 3c 4e 79 be bd 99 db 34 bd
       -0.039807457 0.017214721 -0.09300481 -0.044154737
000010 75 80 95 3d 00 a5 e2 3c c6 7e c2 bc f6 33 4f bd
       0.07299892 0.027666569 -0.02374209 -0.050586663
