DATA403_final/checkpoints/Ant-v4/PPO_0.pt (torch, 53664 bytes, 12 tensors)

actor_logstd f4 [1, 8]
0	0x00000000	0.0
1	0x00000000	0.0
2	0x00000000	0.0
3	0x00000000	0.0
4	0x00000000	0.0
5	0x00000000	0.0
6	0x00000000	0.0
7	0x00000000	0.0

critic.0.weight f4 [64, 27]
0	0xbea07af3	-0.31343803
1	0xbea0f87a	-0.31439573
2	0x3e183f7d	0.14867969
3	0xbe3bf875	-0.18356498
4	0x3e412007	0.18859874
5	0x3d583f3b	0.052794676
6	0x3d6b9df1	0.05752367
7	0xbddf4356	-0.10901515
8	0xbe8077f8	-0.2509153
9	0x3d95c69c	0.07313272
10	0x3e2407a8	0.16018546
11	0xbc486344	-0.012230698
12	0x3e60848a	0.2192556
13	0xbec77ad5	-0.389609
14	0x3e38e890	0.18057466
15	0x3e541c20	0.20713854
16	0x3dfb77cf	0.12278711
17	0xbe792d8a	-0.24333778
18	0xba45c994	-0.0007544991
19	0x3e55c8dd	0.20877405
20	0xbe4a5200	-0.19757843
21	0xbe85c341	-0.2612553
22	0xbdb652ae	-0.08902489
23	0xbcb59a12	-0.022168193
24	0xbe618eff	-0.22027205
25	0xbe98fc5d	-0.29880038
26	0xbdc03d3c	-0.093866795
27	0x3e32dbae	0.17466614
28	0x3e6e3a1d	0.23264356
29	0xbda53b47	-0.08067947
30	0xbd9bfe2a	-0.07616837
31	0x3e9a02fc	0.30080402
32	0x3dacd458	0.08438939
33	0xbe192814	-0.14956695
34	0xbe8a0991	-0.26960424
35	0x3e8ff8f1	0.28119615
36	0x3d0844bb	0.03326867
37	0x3e8dd32c	0.27700174
38	0xbd53dc60	-0.051723838
39	0xbce21ef5	-0.027602652
40	0xbcf3ca64	-0.029759593
41	0x3e13ec6c	0.14445657
42	0xbe29fbc5	-0.16599949
43	0x3eb48551	0.35257962
44	0x3d915e69	0.070980854
45	0xbe3fd08e	-0.18731901
46	0x3d43bc89	0.047787223
47	0x3d9a81ab	0.075442635
48	0x3caa99b1	0.020825239
49	0xbd87e17c	-0.066348046
50	0x3c9f9840	0.019481778
51	0xbe874eb3	-0.2642723
52	0x3d5edeb0	0.05441159
53	0xbe01ac5d	-0.12663408
54	0x3e331e37	0.17491995
55	0x3d2bcea6	0.041945122
56	0x3cb21dd9	0.021742748
57	0x3e213e62	0.15746453
58	0xbe313285	-0.17304428
59	0x3e3a74e5	0.18208654
60	0xbe04065a	-0.12893048
61	0x3c1a7dc3	0.009429398
62	0xbe47980d	-0.19491597
63	0xbe32b3e3	-0.17451434
64	0x3be010ef	0.006837956
65	0x3dffe2f2	0.12494458
66	0xbe8281fc	-0.25489795
67	0xbe5f147c	-0.21785158
68	0xbd9cf0aa	-0.076630905
69	0xbdd2adbd	-0.10287044
70	0x3f041700	0.51597595
71	0xbe384155	-0.17993672
72	0x3ebf7141	0.37391093
73	0x3e8af22a	0.27137882
74	0xbd48b970	-0.049004972
75	0xbdbd187c	-0.09233186
76	0xbe10d7ff	-0.14144896
77	0xbdbc2178	-0.09186071
78	0xbe0bd412	-0.13655117
79	0x3e7d2bc3	0.24723725
80	0x3e02a45e	0.12758014
81	0x3e6dd72f	0.23226617
82	0x3d8d0d7f	0.0688734
83	0x3e3b1056	0.1826795
84	0xbe4d6a7b	-0.2006015
85	0x3d6c3575	0.057668168
86	0xbdc7f76d	-0.097639896
87	0x3e026fae	0.12737915
88	0xbddad9dd	-0.106860854
89	0x3e03b030	0.12860179
90	0x3e4b814a	0.19873539
91	0x3d9d77df	0.07688879
92	0xbe23e243	-0.16004281
93	0xbd814bb5	-0.06313268
94	0xbdfe8269	-0.124272175
95	0x3d9cc9a8	0.076556504
96	0xbd37bb0a	-0.04485611
97	0xbdd9c244	-0.10632756
98	0xbe44a205	-0.1920243
99	0xbbc2ba8b	-0.005942648
100	0xbdde7921	-0.10862947
101	0xbe097c38	-0.13426292
102	0xbdde3f29	-0.108518906
103	0xbd6ffd81	-0.05859137
104	0x3e06a0ff	0.13147353
105	0x3de05ce4	0.109552175
106	0x3ac407cf	0.001495594
107	0xbee349c6	-0.44392222
108	0xbed9df0f	-0.42552993
109	0xbe1c2fd9	-0.15252627
110	0xbd53a924	-0.051674977
111	0x3c90d8a0	0.01768142
112	0x3e3c7a1e	0.18405959
113	0x3dbbbcfa	0.09166904
114	0xbe04e64c	-0.12978476
115	0x3e808c0e	0.25106853
116	0xbda3ccae	-0.07998024
117	0xbe109664	-0.1411987
118	0xbe57bcc6	-0.21068105
119	0x3d0ba074	0.034088567
120	0xbd601d09	-0.05471519
121	0x3e1087c3	0.14114289
122	0xbe065b71	-0.1312082
123	0xbd02076a	-0.03174535
124	0x3d005464	0.03133048
125	0xbeaf77d3	-0.34271106
126	0xbe730771	-0.23733307
127	0xbaa99368	-0.0012937607
128	0xbe81fc49	-0.2538779
129	0x3d8e22eb	0.06940254
130	0x3e19d90a	0.150242
131	0x3e8d83fc	0.2763976
132	0xbe8a837c	-0.2705344
133	0x3da9cf44	0.08291486
134	0x3df44d2e	0.11928783
135	0xbe72f867	-0.2372757
136	0xbc3833ef	-0.011242851
137	0xbd69bdec	-0.05706589
138	0x3d5f3a88	0.05449918
139	0x3e1b56d6	0.15169844
140	0xbc3f78fc	-0.01168656
141	0xbecba8e8	-0.39777303
142	0xbe5d14dc	-0.21589988
143	0xbdb87335	-0.09006349
144	0xbdf477a2	-0.11936881
145	0xbe5b3905	-0.2140847
146	0x3d966b57	0.07344692
147	0x3e264a64	0.16239315
148	0x3d0637dd	0.03276812
149	0x3e3964f2	0.18104914
150	0xbb4a3c26	-0.0030858605
151	0xbdab8ab5	-0.08376066
152	0x3e651fa8	0.22375357
153	0xbe547cf9	-0.20750798
154	0x3d231eee	0.03982442
155	0x3c4db2d4	0.012554843
156	0x3c538d52	0.012912111
157	0x3d3bb112	0.045823164
158	0xbe19fc99	-0.15037765
159	0xbde39500	-0.11112404
160	0x3ef146e3	0.47124395
161	0xbe1abe8f	-0.15111755
162	0x3dabfddb	0.083980285
163	0x3dcaea1b	0.09907933
164	0xbe38aa34	-0.18033677
165	0xb9ef22be	-0.00045611517
166	0x3dec68bd	0.11543415
167	0x3c4e057d	0.012574551
168	0xbdcb5f7a	-0.0993032
169	0x3c9649c2	0.018345717
170	0x3ded2cd5	0.11580817
171	0xbd7949ce	-0.0608614
172	0x3eae546e	0.3404879
173	0x3d7e0195	0.062013227
174	0x3e3bc453	0.1833661
175	0x3e74a261	0.23890068
176	0x3db02492	0.08600725
177	0x3c8d48aa	0.017246563
178	0xbdb916db	-0.090375625
179	0x3d2b4f64	0.04182376
180	0x3ea0aaaf	0.3138022
181	0xbc77014e	-0.015075995
182	0xbd547afc	-0.0518751
183	0xbe8f5cb1	-0.28000405
184	0xbdd10a85	-0.102070846
185	0x3d09d832	0.033653446
186	0xbd7862c4	-0.060641065
187	0x3e610014	0.21972686
188	0x3da874f0	0.08225429
189	0x3da44890	0.08021653
190	0xbe38b00e	-0.1803591
191	0xbdceca4b	-0.10097178
192	0x3df9ae94	0.12191501
193	0xbe24bf7f	-0.16088675
194	0xbc12a720	-0.0089509785
195	0xbb9924bf	-0.00467357
196	0xbe8301a3	-0.25587186
197	0xbf1af6e8	-0.60533
198	0x3dfe12de	0.124059424
199	0x3e1baec6	0.1520339
200	0xbe198512	-0.14992169
201	0x3d9cc670	0.076550364
202	0x3ea30f42	0.31847578
203	0xbddfcf9e	-0.10928272
204	0xbe1c8c77	-0.15287958
205	0xbd9fe5ec	-0.07807526
206	0x3d0144a1	0.03155959
207	0xbd91f915	-0.07127587
208	0xbda190ed	-0.078889705
209	0x3e111acb	0.14170377
210	0x3db96521	0.09052492
211	0xbc0fef6d	-0.008785111
212	0xbb9752bd	-0.0046180175
213	0xbda42b82	-0.08016111
214	0x3ec0ea0e	0.3767857
215	0xbea38113	-0.31934413
216	0x3e91d42d	0.2848219
217	0xbd7beaf0	-0.06150335
218	0x3e8e3246	0.2777273
219	0xbec91b3b	-0.39278588
220	0x3e767bd5	0.24070676
221	0xbdb9d500	-0.0907383
222	0xbe0fbf04	-0.1403771
223	0xbe2a200c	-0.16613787
224	0xbdea6a97	-0.11446112
225	0xbe3e594f	-0.18588756
226	0x3de88a86	0.11354546
227	0x3de151da	0.1100194
228	0xbe99f118	-0.30066752
229	0x3c8b54fc	0.017008297
230	0xbe728072	-0.2368181
231	0xbd08955e	-0.033345573
232	0xbddae108	-0.106874526
233	0x3d918d21	0.07106996
234	0xbe0b8679	-0.13625516
235	0x3def4b3d	0.116842724
236	0xbd5c34a2	-0.053761132
237	0x3c3a978a	0.011388669
238	0x3d617a79	0.05504844
239	0x3e4c673b	0.19961254
240	0x3d76c96d	0.06025069
241	0x3c6bf5e9	0.014401891
242	0x3da86144	0.08221677
243	0x3e88b23f	0.2669849
244	0xbcaf954c	-0.021433495
245	0xbd9c1dc8	-0.07622868
246	0x3e230e51	0.1592343
247	0xbd11032a	-0.035403408
248	0x3dc8edfb	0.09811016
249	0xbc765a20	-0.015036136
250	0xbe32553e	-0.1741533
251	0xbd04031a	-0.03222952
252	0xbe8229d9	-0.25422552
253	0xbd9c5e72	-0.076352015
254	0xbe4e30ec	-0.2013585
255	0x3e086db3	0.13323097

critic.0.bias f4 [64]
0	0x00000000	0.0
1	0x00000000	0.0
2	0x00000000	0.0
3	0x00000000	0.0
4	0x00000000	0.0
5	0x00000000	0.0
6	0x00000000	0.0
7	0x00000000	0.0
8	0x00000000	0.0
9	0x00000000	0.0
10	0x00000000	0.0
11	0x00000000	0.0
12	0x00000000	0.0
13	0x00000000	0.0
14	0x00000000	0.0
15	0x00000000	0.0
16	0x00000000	0.0
17	0x00000000	0.0
18	0x00000000	0.0
19	0x00000000	0.0
20	0x00000000	0.0
21	0x00000000	0.0
22	0x00000000	0.0
23	0x00000000	0.0
24	0x00000000	0.0
25	0x00000000	0.0
26	0x00000000	0.0
27	0x00000000	0.0
28	0x00000000	0.0
29	0x00000000	0.0
30	0x00000000	0.0
31	0x00000000	0.0
32	0x00000000	0.0
33	0x00000000	0.0
34	0x00000000	0.0
35	0x00000000	0.0
36	0x00000000	0.0
37	0x00000000	0.0
38	0x00000000	0.0
39	0x00000000	0.0
40	0x00000000	0.0
41	0x00000000	0.0
42	0x00000000	0.0
43	0x00000000	0.0
44	0x00000000	0.0
45	0x00000000	0.0
46	0x00000000	0.0
47	0x00000000	0.0
48	0x00000000	0.0
49	0x00000000	0.0
50	0x00000000	0.0
51	0x00000000	0.0
52	0x00000000	0.0
53	0x00000000	0.0
54	0x00000000	0.0
55	0x00000000	0.0
56	0x00000000	0.0
57	0x00000000	0.0
58	0x00000000	0.0
59	0x00000000	0.0
60	0x00000000	0.0
61	0x00000000	0.0
62	0x00000000	0.0
63	0x00000000	0.0

critic.2.weight f4 [64, 64]
0	0xbe50e9e3	-0.2040172
1	0xbdcbfab0	-0.09959924
2	0xbe27971a	-0.16366234
3	0xbcabaa0b	-0.020955106
4	0xbe923558	-0.28556323
5	0xbc6a3fc8	-0.014297433
6	0x3eaa08ea	0.33209926
7	0xbdf238d5	-0.11827246
8	0x3e2be708	0.1678735
9	0xbd8c0c65	-0.068383016
10	0xbe4cc14b	-0.1999561
11	0xbd672bd2	-0.056438275
12	0x3dc5cfa1	0.09658743
13	0xbd39e5e9	-0.045385275
14	0x3ef8f21e	0.4862222
15	0xbd7558fb	-0.05989931
16	0xbe716ab3	-0.23575859
17	0xbe734022	-0.23754933
18	0xbd04d768	-0.03243199
19	0xbd25956c	-0.040425703
20	0x3d823e0c	0.06359491
21	0xbdfb6938	-0.12275928
22	0xbe149af1	-0.1451223
23	0xbcd6227c	-0.02613949
24	0xbd7cd5ed	-0.061727453
25	0xbd89815f	-0.06714129
26	0x3deb7151	0.11496223
27	0x3dfdc39a	0.12390824
28	0x3e21f96e	0.15817806
29	0xbe7917a1	-0.2432542
30	0xbd14c045	-0.036316175
31	0x3e6f46c8	0.23366845
32	0xbe47e959	-0.19522609
33	0xbe348c25	-0.17631586
34	0xbc1df737	-0.00964146
35	0xbd7038a6	-0.058647774
36	0x3dd8ee1f	0.10592293
37	0x3def75ac	0.11692366
38	0x3e83bf2b	0.25731787
39	0xbe02d7b8	-0.12777603
40	0x3dcd5787	0.1002646
41	0x3e11b225	0.14228113
42	0xbbffe78b	-0.0078095845
43	0x3e58b4ab	0.2116267
44	0xbe9c6b51	-0.30550626
45	0xbd217fb4	-0.039428428
46	0xbe0f12c0	-0.13971996
47	0x3eba6cbe	0.3641109
48	0x3daa700a	0.08322151
49	0xbdd3fee2	-0.103513494
50	0xbeaaddbf	-0.33372304
51	0x3e29f658	0.16597879
52	0xbe9633da	-0.29336435
53	0xbd340f1e	-0.04395973
54	0xbd5f0c02	-0.05445481
55	0x3d8d72ef	0.069066875
56	0x3edea7d7	0.43487427
57	0xbd2c1d5f	-0.042020198
58	0x3d9ad475	0.07560054
59	0xbdf9c89b	-0.121964656
60	0x3d130a00	0.03589821
61	0x3e3778ed	0.17917223
62	0xbdb1b843	-0.08677723
63	0x3e60f07d	0.21966739
64	0xbeb168ff	-0.34650418
65	0xbdb9c60f	-0.0907098
66	0x3e3d8613	0.18508177
67	0xbe3342cc	-0.1750595
68	0xbd19968d	-0.037497092
69	0xbd8eac10	-0.06966412
70	0x3eb2fd57	0.34958908
71	0xbd955df0	-0.07293308
72	0x3d32fa5d	0.043695796
73	0xba9fce80	-0.0012192279
74	0xbe0c3ea2	-0.13695768
75	0xbe6849f9	-0.22684468
76	0xbe910083	-0.28320703
77	0x3dafe834	0.08589211
78	0x3cff7f11	0.03118852
79	0xbe75e7fa	-0.24014273
80	0x3d78a021	0.060699586
81	0x3d876235	0.066105284
82	0xbd5cd005	-0.05390932
83	0x3d0aaec5	0.03385808
84	0xbbf1c78b	-0.0073785237
85	0xbccbd5af	-0.024882166
86	0x3e009354	0.12556201
87	0xbe63fe88	-0.22265065
88	0x3ea34792	0.3189054
89	0xbe147bb6	-0.14500317
90	0xbd589872	-0.05287976
91	0x3ebfe5d4	0.37480032
92	0x3df54386	0.1197577
93	0xbd296c66	-0.041363142
94	0x3d976067	0.07391434
95	0x3d49d53c	0.04927562
96	0xbdab22b1	-0.08356226
97	0xbc798995	-0.015230556
98	0x3ea1e0b6	0.31616753
99	0x3c225c4b	0.0099097
100	0x3e7e05f2	0.24806955
101	0xbc79a87f	-0.0152379265
102	0x3d1bd3ea	0.038043894
103	0xbd984170	-0.07434356
104	0x3d9ad69e	0.07560466
105	0xbe4edb3e	-0.20200822
106	0xbeafc675	-0.34331098
107	0xbdecd181	-0.11563397
108	0x3cf6da88	0.0301335
109	0xbe880b2d	-0.26571026
110	0x3ca6b341	0.020349147
111	0xbe2d8125	-0.16943796
112	0xbc999b2a	-0.018750746
113	0x3ec532a9	0.38515213
114	0x3ea9b644	0.3314687
115	0xbdb14907	-0.08656507
116	0x3e03519b	0.12824099
117	0xbea168f7	-0.31525394
118	0x3e97530c	0.29555547
119	0x3e516c44	0.20451456
120	0xbe1a392d	-0.15060873
121	0x3c12b5d5	0.008954485
122	0x3e415d34	0.1888321
123	0xbe13d500	-0.14436722
124	0x3e05c145	0.13062008
125	0x3ce91874	0.028454043
126	0xbe122ad7	-0.14274155
127	0xbd7636f0	-0.060110986
128	0x3d943c33	0.072380446
129	0x3ed99631	0.424974
130	0xbda186cf	-0.07887041
131	0xbdfa20c8	-0.12213284
132	0x3e2297a8	0.15878165
133	0xbea3fc5d	-0.32028475
134	0x3d0a8b9a	0.03382454
135	0x3df628e3	0.12019517
136	0xbecd9094	-0.40149367
137	0x3e2a2828	0.16616881
138	0x3dc1cbbe	0.09462689
139	0xbdbe29ec	-0.0928534
140	0x3e78fcd3	0.24315195
141	0x3dc8c992	0.098040715
142	0x3e83264c	0.25615156
143	0x3dafdee8	0.08587438
144	0x3e7d2ab6	0.24723324
145	0xbd6cedc9	-0.057843957
146	0xbb993325	-0.0046752864
147	0x3e222477	0.15834223
148	0x3cb6546b	0.02225705
149	0xbd76102a	-0.06007401
150	0x3dfcddd7	0.12347
151	0xbcbd1d1c	-0.02308517
152	0xbe36a6a8	-0.17837012
153	0xbead88e4	-0.33893502
154	0x3e1d70a8	0.15375006
155	0xbe46217a	-0.19348708
156	0xbd7e5753	-0.062094998
157	0x3ecb270c	0.39678228
158	0xbd8b0ade	-0.06789182
159	0x3e648353	0.22315721
160	0x3e15147e	0.14558598
161	0xbe16b350	-0.1471684
162	0x3d856931	0.06514204
163	0xbc369af7	-0.011145345
164	0x3e84cf32	0.25939327
165	0x3e0091d3	0.12555628
166	0xbe25b28f	-0.16181396
167	0x3e7147f3	0.23562603
168	0xbd07420a	-0.033021964
169	0xbe8af1b6	-0.27137536
170	0x3c8b6dcd	0.01702013
171	0xbd506888	-0.05088094
172	0x3d80c9b0	0.06288469
173	0xbd8c251b	-0.06843015
174	0x3e152dbd	0.14568229
175	0x3d3ce026	0.046112202
176	0xbd84aa0c	-0.06477746
177	0xbbe3cb35	-0.0069517144
178	0x3c0c568b	0.008565555
179	0x3e7ac0fa	0.24487677
180	0xbe13e52a	-0.14442888
181	0xbe048e99	-0.12945022
182	0x3df9cc3f	0.1219716
183	0x3de786df	0.113050215
184	0x3e070e81	0.13189127
185	0x3da5b7ec	0.08091721
186	0x3db291aa	0.087191895
187	0xbdf9b18d	-0.12192068
188	0xbe01a795	-0.12661584
189	0x3f001bf8	0.50042677
190	0x3d3c0f9a	0.045913316
191	0xbd4cf773	-0.050040673
192	0x3d20b6fc	0.039237007
193	0x3e9b8199	0.30372313
194	0xbe339304	-0.17536551
195	0xbe84478b	-0.25835833
196	0xbebacd77	-0.36484882
197	0x3d9310d0	0.07180941
198	0x3e178d59	0.14800014
199	0x3dd26142	0.10272457
200	0x3c9a6301	0.018846037
201	0xbca9dab9	-0.020734178
202	0x3c36f1a3	0.011166009
203	0x3df5d374	0.12003222
204	0xbd64a862	-0.055824645
205	0xbeb78d77	-0.35850117
206	0x3d8d4b77	0.068991594
207	0xbd153e6e	-0.03643649
208	0x3e40490b	0.18777864
209	0xbe9d96d2	-0.3077913
210	0x3e4d8464	0.20070034
211	0xbe2150d0	-0.15753484
212	0x3e12c680	0.14333534
213	0xbc39e1c7	-0.011345333
214	0xbe56246b	-0.2091233
215	0xbca3af6a	-0.019981105
216	0xbdfd1277	-0.123570375
217	0xbd5ae3be	-0.053439848
218	0x3d4047a6	0.04694333
219	0xbe596ca6	-0.21232852
220	0x3e3384f4	0.17531186
221	0xbd93e3b6	-0.07221167
222	0x3e50b1fd	0.20380397
223	0x3e437e70	0.19091201
224	0x3e26f2cd	0.16303559
225	0xbdf4dddc	-0.11956379
226	0x3e973f01	0.29540256
227	0xbe77c45c	-0.24195999
228	0xbe4e7c0f	-0.20164512
229	0xbc8e2f93	-0.01735667
230	0xbe2c57d9	-0.16830386
231	0xbe77667b	-0.24160187
232	0x3cca4587	0.024691356
233	0xbd375140	-0.04475522
234	0xbc0fce5b	-0.008777226
235	0xbd1d4b1f	-0.03840172
236	0xbc80f298	-0.015740678
237	0xbe14e4c9	-0.145404
238	0xbd93c866	-0.07215957
239	0x3d6b6390	0.057467997
240	0xbe8ffc73	-0.2812229
241	0xbe194f47	-0.14971648
242	0xbcffc8bc	-0.031223647
243	0xbe6fea16	-0.2342914
244	0x3ea503a0	0.32229328
245	0x3e193ba1	0.14964153
246	0x3e8ccdb9	0.27500704
247	0xbe73e7b9	-0.23818864
248	0xbe866399	-0.26247862
249	0xbcab699e	-0.020924386
250	0xbe50b668	-0.20382082
251	0xbe148dd5	-0.1450723
252	0x3e9df776	0.3085286
253	0x3cb5cd34	0.022192575
254	0x3e249c71	0.16075303
255	0xbe2adf2a	-0.16686693

critic.2.bias f4 [64]
0	0x00000000	0.0
1	0x00000000	0.0
2	0x00000000	0.0
3	0x00000000	0.0
4	0x00000000	0.0
5	0x00000000	0.0
6	0x00000000	0.0
7	0x00000000	0.0
8	0x00000000	0.0
9	0x00000000	0.0
10	0x00000000	0.0
11	0x00000000	0.0
12	0x00000000	0.0
13	0x00000000	0.0
14	0x00000000	0.0
15	0x00000000	0.0
16	0x00000000	0.0
17	0x00000000	0.0
18	0x00000000	0.0
19	0x00000000	0.0
20	0x00000000	0.0
21	0x00000000	0.0
22	0x00000000	0.0
23	0x00000000	0.0
24	0x00000000	0.0
25	0x00000000	0.0
26	0x00000000	0.0
27	0x00000000	0.0
28	0x00000000	0.0
29	0x00000000	0.0
30	0x00000000	0.0
31	0x00000000	0.0
32	0x00000000	0.0
33	0x00000000	0.0
34	0x00000000	0.0
35	0x00000000	0.0
36	0x00000000	0.0
37	0x00000000	0.0
38	0x00000000	0.0
39	0x00000000	0.0
40	0x00000000	0.0
41	0x00000000	0.0
42	0x00000000	0.0
43	0x00000000	0.0
44	0x00000000	0.0
45	0x00000000	0.0
46	0x00000000	0.0
47	0x00000000	0.0
48	0x00000000	0.0
49	0x00000000	0.0
50	0x00000000	0.0
51	0x00000000	0.0
52	0x00000000	0.0
53	0x00000000	0.0
54	0x00000000	0.0
55	0x00000000	0.0
56	0x00000000	0.0
57	0x00000000	0.0
58	0x00000000	0.0
59	0x00000000	0.0
60	0x00000000	0.0
61	0x00000000	0.0
62	0x00000000	0.0
63	0x00000000	0.0

critic.4.weight f4 [1, 64]
0	0xbce86200	-0.028367043
1	0x3d1e401a	0.03863535
2	0x3e67f905	0.22653587
3	0xbdbf4639	-0.09339566
4	0x3e41ee9f	0.18938683
5	0x3cadff49	0.021239894
6	0xbe0d003e	-0.13769624
7	0x3db52b12	0.08846106
8	0xbd666fe6	-0.05625906
9	0x3ea34b59	0.31893423
10	0xbdd49611	-0.103801854
11	0x3d681d15	0.05666836
12	0xbc0d1367	-0.008610583
13	0x3df8c846	0.12147574
14	0x3db14929	0.08656532
15	0xbddb2c6e	-0.10701834
16	0x3c257c2a	0.010100404
17	0x3dae0677	0.08497327
18	0xbe0e3afc	-0.13889688
19	0x3e0fd1b3	0.14044838
20	0xbc7bf021	-0.015377075
21	0xbd8db0de	-0.069185
22	0xbd856a76	-0.065144464
23	0xbaaa100f	-0.0012974757
24	0x3d0b26fa	0.033972718
25	0xbe1780f7	-0.1479529
26	0x3e13d3df	0.14436291
27	0x3c4da646	0.01255185
28	0x3d75ac32	0.05997867
29	0xbceebe51	-0.029143484
30	0x3e4515b1	0.19246556
31	0x3ca61dd0	0.020277888
32	0x3db00939	0.08595509
33	0x3e6f30bf	0.23358439
34	0x3cc47b95	0.02398471
35	0x3d87f6b5	0.066388525
36	0x3dac945d	0.084267356
37	0x3eae36c6	0.34026164
38	0x3dcaf47f	0.09909915
39	0x3e3aa75a	0.18227902
40	0x3acf3f12	0.0015811643
41	0xbe1f398b	-0.15549295
42	0x3e8c10d7	0.27356598
43	0x3cf26432	0.029588792
44	0x3e5e0149	0.21680178
45	0x3cde9bae	0.027173843
46	0xbd12b024	-0.035812512
47	0x3d63d277	0.055620637
48	0x3a496e9a	0.00076840224
49	0x3e324311	0.17408396
50	0x3e4b5e75	0.19860251
51	0xbdbad956	-0.09123485
52	0x3e21797f	0.15769003
53	0x3dc8d4c4	0.09806207
54	0xbd7ebb3b	-0.062190276
55	0xbe461ea4	-0.19347626
56	0xbd49367c	-0.049124226
57	0x3d38132a	0.04494015
58	0x3db436df	0.08799528
59	0x3d0e52f3	0.034747075
60	0x3e038675	0.1284426
61	0x3dbc7643	0.09202244
62	0xbd081b4d	-0.03322916
63	0xbd3f3285	-0.04667904

actor_mean.0.weight f4 [64, 27]
0	0x3d4f536f	0.050616678
1	0xbe429460	-0.19001913
2	0x3e4f9127	0.20270215
3	0xbe55190a	-0.20810333
4	0x3ea4761f	0.3212137
5	0xbe00bd86	-0.12572297
6	0x3ec1567b	0.37761292
7	0x3e172049	0.1475841
8	0xbe499c04	-0.19688421
9	0xbd248855	-0.04016908
10	0x3cf2bfbf	0.029632447
11	0x3e9b6fed	0.3035883
12	0x3d68038d	0.05664401
13	0x3e3828ef	0.17984365
14	0xbb2aae6b	-0.0026043903
15	0xbcfb1e74	-0.03065417
16	0x3e5e2d21	0.21696903
17	0xbe33eaf9	-0.17570104
18	0x3d6d3202	0.05790902
19	0x3c3bb773	0.011457312
20	0x3d92adb8	0.071620405
21	0x3e030e46	0.12798414
22	0xbde3a23a	-0.11114927
23	0x3e958754	0.2920481
24	0x3d3ec1a4	0.04657139
25	0xbe0f7b5b	-0.140119
26	0x3e855855	0.26043954
27	0xbecb7a41	-0.3974171
28	0xbe6ff76a	-0.23434225
29	0xbcb7d5a4	-0.022440739
30	0x3e7713e6	0.24128684
31	0xbe6874f5	-0.22700866
32	0x3daeb204	0.085300475
33	0x3e781e90	0.24230409
34	0xbdd50440	-0.10401201
35	0x3d2ee6d1	0.042700592
36	0x3e1d023e	0.15332887
37	0xbe467bb3	-0.19383125
38	0xbe149714	-0.14510757
39	0x3d0967ed	0.033546377
40	0xbe2eec1b	-0.17082255
41	0xbe1d96b5	-0.15389521
42	0x3d0c5167	0.03425732
43	0x3da9009d	0.0825207
44	0x3e1e459b	0.1545624
45	0xbe527ca4	-0.20555359
46	0x3d315c37	0.043300834
47	0xbd0d8132	-0.03454704
48	0x3b9913b9	0.0046715406
49	0x3e5a5e42	0.21325019
50	0xbd4adb0e	-0.049525313
51	0x3bde87b4	0.0067910794
52	0xbe929c52	-0.28634888
53	0xbdfc3364	-0.123144895
54	0xbdbe4b7b	-0.092917405
55	0x3e811cc9	0.25217274
56	0x3dcf5445	0.10123495
57	0xbe45a6a3	-0.19301848
58	0x3dba9a3d	0.0911145
59	0x3e165a15	0.14682801
60	0x3dac9e9d	0.084286906
61	0x3df49778	0.11942953
62	0xbd905d0e	-0.07048999
63	0xbe8cea70	-0.27522612
64	0x3d179a18	0.03701219
65	0x3d0a3538	0.03374216
66	0x3e176991	0.14786364
67	0x3e64fd1e	0.22362182
68	0xbebb37b2	-0.3656593
69	0x3e8c162e	0.27360672
70	0x3e0ef738	0.13961494
71	0xbea4d006	-0.3218996
72	0xbcb8f384	-0.022577055
73	0xbd5abdb7	-0.053403582
74	0xbe6f40af	-0.23364519
75	0xbc1f8a02	-0.0097374935
76	0x3e7c3faa	0.24633661
77	0xbe602b96	-0.21891627
78	0x3d506c99	0.050884817
79	0xbdb2f504	-0.08738139
80	0xbd5f0222	-0.054445393
81	0x3d7acd87	0.061231162
82	0x3e58424b	0.21119039
83	0x3eecc4c6	0.46243876
84	0x3d7a6a9c	0.061136827
85	0x3e6fc1f0	0.23413825
86	0x3e6dd6c5	0.2322646
87	0x3deaef5d	0.11471436
88	0xbdbca9ce	-0.09212075
89	0x3ec3358b	0.38126788
90	0x3e7d7014	0.24749786
91	0xbd0daea6	-0.034590386
92	0x3de0b002	0.10971071
93	0x3ce976f8	0.028499112
94	0xbe6fa178	-0.23401439
95	0xbd52cebb	-0.051466685
96	0xbe191655	-0.14949925
97	0xbe8abaa1	-0.27095512
98	0xbddbd1b3	-0.10733356
99	0xbddf6769	-0.10908396
100	0x3d1693b6	0.036761962
101	0x3e94a3ec	0.29031312
102	0x3e02da78	0.12778652
103	0x3dbddde7	0.0927084
104	0x3e424aa4	0.18973786
105	0xbe2de0fb	-0.16980354
106	0xbe4080c5	-0.18799122
107	0x3da218f3	0.07914915
108	0x3dd0c7c2	0.10194351
109	0x3d5276af	0.051382717
110	0xbc49e0ca	-0.01232166
111	0x3d28eed1	0.041243378
112	0xbe264d39	-0.16240396
113	0xbda1789c	-0.078843325
114	0xbe07c9ac	-0.13260525
115	0xbc910ab8	-0.017705306
116	0x3e0c999b	0.13730471
117	0xbe997c44	-0.2997762
118	0xbddde54d	-0.10834751
119	0xbe6304e0	-0.22169828
120	0xbdd2ed80	-0.10299206
121	0xbd791cb9	-0.060818408
122	0xbed2c492	-0.41165596
123	0x3e573189	0.2101499
124	0x3c31faaa	0.010862986
125	0xbe5204b0	-0.205096
126	0x3d6c1043	0.057632696
127	0xbddfe7c1	-0.109328754
128	0x3e88bdb6	0.26707238
129	0x3ce95b0e	0.028485801
130	0xbddcf121	-0.10788179
131	0xbddfb256	-0.10922687
132	0xbc11550f	-0.008870377
133	0x3e296224	0.16541344
134	0x3dfe5797	0.1241905
135	0x3ddd6c61	0.10811687
136	0xbeb0b827	-0.34515497
137	0x3e8ed6b1	0.27898172
138	0x3eca3896	0.39496297
139	0xbbcacf12	-0.0061892355
140	0x3d86d9cc	0.0658451
141	0x3e6b950c	0.23006076
142	0x3e197d71	0.14989258
143	0xbe45f989	-0.19333471
144	0xbda098b2	-0.07841624
145	0x3d72dbf0	0.05929178
146	0x3e20dd82	0.15709499
147	0x3e1aca4d	0.15116234
148	0xbe95df74	-0.29272044
149	0xbdce048b	-0.1005946
150	0xbdd8404a	-0.10559137
151	0x3dbf7f00	0.09350395
152	0x3be79f9c	0.0070685875
153	0xbe92352a	-0.28556186
154	0xbde909a2	-0.113787904
155	0x3ddd7772	0.10813798
156	0x3dac6dcb	0.08419379
157	0x3e4d8f24	0.20074135
158	0x3d441a21	0.04787648
159	0x3cfca6ec	0.030841313
160	0xbdbfc950	-0.09364569
161	0xbe315ff2	-0.17321756
162	0x3ea2cf7a	0.31798917
163	0x3e1817ce	0.14852831
164	0x3e977c64	0.2958709
165	0x3dc28309	0.09497649
166	0xbe676f87	-0.22601138
167	0xbdfd6772	-0.12373246
168	0x3c1f4a5c	0.0097223185
169	0xbe3e3f0b	-0.18578736
170	0x3e889c93	0.26681957
171	0x3d89a4df	0.067209
172	0xbe57a1da	-0.21057835
173	0xbe292624	-0.16518456
174	0x3dc83571	0.09775818
175	0x3e52daae	0.20591232
176	0x3c8e415b	0.017365148
177	0xbd8fca0a	-0.07020958
178	0xbd7734fc	-0.060353264
179	0xbdd6cac4	-0.10487893
180	0xbdf6f0c2	-0.1205764
181	0xbd5faa35	-0.05460568
182	0xbe2355cb	-0.15950696
183	0x3ea11d22	0.3146754
184	0xbdb1cce5	-0.08681659
185	0xbddf1d4a	-0.10894258
186	0xbe305906	-0.1722146
187	0xbde134d7	-0.109964065
188	0xbe1d5a6b	-0.15366523
189	0xbe9ac600	-0.30229187
190	0x3e827dc2	0.2548657
191	0x3dac4eda	0.08413477
192	0xbd914a7b	-0.07094284
193	0x3e8a990c	0.2706989
194	0x3a1860c8	0.00058127614
195	0x3dd998a4	0.10624817
196	0x3e380d52	0.17973831
197	0x3cf72d57	0.030172987
198	0x3d26d842	0.040733583
199	0xbd86c622	-0.065807596
200	0x3dbce9b0	0.0922426
201	0xbdefca2a	-0.117084816
202	0xbe0ded50	-0.13860059
203	0xbd971e8e	-0.07378875
204	0x3d3856a3	0.0450045
205	0xbebbf0b0	-0.36707067
206	0x3e9a020a	0.3007968
207	0x3dce1ab4	0.10063687
208	0xbe793828	-0.24337828
209	0xbd06f8d7	-0.032952156
210	0x3e5c56a9	0.21517433
211	0x3d101875	0.035179574
212	0x3d7f35e0	0.06230724
213	0xbd597828	-0.053093106
214	0xbd1eab2b	-0.038737457
215	0x3e82e05b	0.25561795
216	0x3d3d2b97	0.04618415
217	0xbd0646b9	-0.03278229
218	0x3e0aabff	0.13542174
219	0xbe9d30c1	-0.3070126
220	0xbe10815b	-0.14111845
221	0x3e345765	0.17611463
222	0x3d6b1e52	0.057401963
223	0xbe114a4d	-0.141885
224	0xbea310d5	-0.3184878
225	0x3e0b4601	0.13600923
226	0x3d3e8d9c	0.046521768
227	0xbe1992dc	-0.14997429
228	0x3d3ee386	0.046603702
229	0x3d051ad0	0.032496274
230	0xbce03ba8	-0.027372196
231	0xbe1a750a	-0.1508371
232	0x3d69e002	0.057098396
233	0x3e265deb	0.16246764
234	0xbeac7765	-0.3368484
235	0x3e73bab6	0.23801693
236	0x3e59844e	0.21241876
237	0x3ce17431	0.027521225
238	0xbd7b3a39	-0.061334822
239	0xbc138d2f	-0.009005829
240	0x3bef9b45	0.0073122107
241	0x3e441217	0.19147526
242	0x3e92ab5c	0.28646362
243	0xbe26691c	-0.16251034
244	0xbea2400c	-0.3168949
245	0x3dbf4940	0.09340143
246	0x3e56ce9f	0.20977257
247	0xbe3d695f	-0.18497227
248	0x3ce823c6	0.02833737
249	0x3e525cad	0.20543166
250	0x3dcb5a44	0.09929326
251	0x3d0c1bf4	0.034206346
252	0xbe169288	-0.14704335
253	0x3d05cfb5	0.032668788
254	0xbeb921f8	-0.3615873
255	0x3db03c65	0.08605269

actor_mean.0.bias f4 [64]
0	0x00000000	0.0
1	0x00000000	0.0
2	0x00000000	0.0
3	0x00000000	0.0
4	0x00000000	0.0
5	0x00000000	0.0
6	0x00000000	0.0
7	0x00000000	0.0
8	0x00000000	0.0
9	0x00000000	0.0
10	0x00000000	0.0
11	0x00000000	0.0
12	0x00000000	0.0
13	0x00000000	0.0
14	0x00000000	0.0
15	0x00000000	0.0
16	0x00000000	0.0
17	0x00000000	0.0
18	0x00000000	0.0
19	0x00000000	0.0
20	0x00000000	0.0
21	0x00000000	0.0
22	0x00000000	0.0
23	0x00000000	0.0
24	0x00000000	0.0
25	0x00000000	0.0
26	0x00000000	0.0
27	0x00000000	0.0
28	0x00000000	0.0
29	0x00000000	0.0
30	0x00000000	0.0
31	0x00000000	0.0
32	0x00000000	0.0
33	0x00000000	0.0
34	0x00000000	0.0
35	0x00000000	0.0
36	0x00000000	0.0
37	0x00000000	0.0
38	0x00000000	0.0
39	0x00000000	0.0
40	0x00000000	0.0
41	0x00000000	0.0
42	0x00000000	0.0
43	0x00000000	0.0
44	0x00000000	0.0
45	0x00000000	0.0
46	0x00000000	0.0
47	0x00000000	0.0
48	0x00000000	0.0
49	0x00000000	0.0
50	0x00000000	0.0
51	0x00000000	0.0
52	0x00000000	0.0
53	0x00000000	0.0
54	0x00000000	0.0
55	0x00000000	0.0
56	0x00000000	0.0
57	0x00000000	0.0
58	0x00000000	0.0
59	0x00000000	0.0
60	0x00000000	0.0
61	0x00000000	0.0
62	0x00000000	0.0
63	0x00000000	0.0

actor_mean.2.weight f4 [64, 64]
0	0xbe99f6ba	-0.3007105
1	0x3e30537e	0.1721935
2	0xbda499ff	-0.08037185
3	0xbcd4c04d	-0.025970602
4	0x3e1aa79f	0.15103005
5	0xbe0fa9d7	-0.14029633
6	0x3e255a5a	0.16147748
7	0x3e7799c5	0.24179752
8	0x3ba9a8f9	0.005177614
9	0xbe431c54	-0.19053775
10	0xbd5d4a8e	-0.05402618
11	0xbe835cf9	-0.2565687
12	0x3d039460	0.032123923
13	0xbe88d905	-0.26728073
14	0xbcdcc481	-0.02694917
15	0x3dedca4d	0.116108514
16	0x3dbff8f7	0.09373658
17	0xbe03a5be	-0.12856194
18	0xbbc08e7d	-0.005876361
19	0xbe80603d	-0.25073424
20	0xbc987276	-0.018609267
21	0x3dfdae86	0.12386803
22	0xbd2682cd	-0.040652085
23	0xbcd32c6f	-0.025778024
24	0x3d919882	0.07109167
25	0x3d24b08c	0.04020743
26	0x3d99e95d	0.07515214
27	0xbe3d68cf	-0.18497013
28	0x3e650232	0.22364119
29	0xbe2ab444	-0.16670328
30	0x3dee66c8	0.11640698
31	0x3d39022d	0.04516809
32	0xbe0f79b1	-0.14011265
33	0x3ce7bf19	0.028289365
34	0xbe3466bd	-0.17617317
35	0x3d87ef03	0.06637385
36	0x3e80017e	0.25001138
37	0x3a81fab9	0.000991664
38	0x3e3c3dc0	0.18382931
39	0x3dc62370	0.09674728
40	0xbd579cfb	-0.052639943
41	0xbdb12c2d	-0.08651004
42	0x3edc2477	0.4299657
43	0xbcf6663d	-0.030078048
44	0x3eb48367	0.35256502
45	0xbde92a83	-0.113850616
46	0x3ea1e825	0.31622425
47	0xbe20c00d	-0.15698262
48	0x3dc22883	0.09480383
49	0x3e205a16	0.15659365
50	0xbeb51146	-0.3536474
51	0x3e5e3b76	0.2170237
52	0xbda104e4	-0.07862261
53	0xbe5e10bc	-0.21686071
54	0xbe80e1dd	-0.2517232
55	0xbe3f5550	-0.18684888
56	0x3e84351e	0.25821775
57	0x3e8672e4	0.2625953
58	0x3e0dbe1f	0.13842057
59	0x3d042ef0	0.032271326
60	0xbe8b4a03	-0.27204904
61	0xbe66d988	-0.22543919
62	0xbd4491c6	-0.047990583
63	0xbe60e9b0	-0.21964145
64	0xbe14b511	-0.14522196
65	0xbe327bd3	-0.17430048
66	0xbc2f7966	-0.010710096
67	0xbd7b11b5	-0.061296184
68	0x3e863e82	0.26219565
69	0x3d972be8	0.07381421
70	0x3e92e1ed	0.28687993
71	0xbd1b9f83	-0.03799392
72	0x3d4cc990	0.049996912
73	0x3b3ab739	0.0028490557
74	0xbcaa24bc	-0.02076947
75	0x3dc7a346	0.09747939
76	0xbd71be96	-0.059019648
77	0xbd766c2c	-0.060161754
78	0x3e5ea8c3	0.21744065
79	0x3e86a856	0.26300305
80	0xbe96891f	-0.2940149
81	0xb9a5b640	-0.0003160704
82	0xbdb27871	-0.087143786
83	0x3e9e5fd1	0.30932477
84	0xbe8e50bc	-0.2779597
85	0xbe691d90	-0.22765183
86	0x3d6fb84f	0.05852538
87	0xbde25556	-0.11051433
88	0xbd9d7a26	-0.076893136
89	0x3dccfbe5	0.100089826
90	0xbd850ec8	-0.0649696
91	0xbe05a913	-0.13052778
92	0xbd1b467b	-0.037909012
93	0xbbb791b8	-0.005602088
94	0xbd867e15	-0.06567017
95	0xbbf2c81a	-0.007409108
96	0xbda7dc53	-0.081963204
97	0xbe65beee	-0.22436115
98	0xbe6801b1	-0.22656895
99	0xbed06b80	-0.40707016
100	0x3e62d50b	0.22151582
101	0xbda55028	-0.08071929
102	0x3cfc93ec	0.030832253
103	0x3e06900f	0.13140891
104	0x3e9cb10b	0.30603823
105	0xbac0cad1	-0.0014708881
106	0xbdfcb9cb	-0.12340125
107	0x3e4d5966	0.20053634
108	0x3e2f9e31	0.17150189
109	0x3e9d0740	0.30669594
110	0x3ec7c7af	0.39019534
111	0xbe03e118	-0.12878835
112	0xbe6b7563	-0.22993998
113	0x3d73bbf5	0.05950542
114	0x3e45ddf0	0.19322944
115	0xbc76f539	-0.015073114
116	0xbde607fb	-0.11231991
117	0x3e9b1e83	0.30296716
118	0x3e915a23	0.2838908
119	0xbe1b2741	-0.15151693
120	0x3d1303e3	0.03589238
121	0xbe4a5288	-0.19758046
122	0x3dc6fbc9	0.09715993
123	0x3e62c4c2	0.2214537
124	0x3ce9618b	0.028488895
125	0xbc8ac56e	-0.016939845
126	0x3dee8360	0.116461515
127	0xbe86085c	-0.26178253
128	0x3da4b48d	0.0804225
129	0x3e5ab42e	0.21357796
130	0xbbb96398	-0.0056576245
131	0xbe47b474	-0.19502431
132	0xbe529039	-0.20562829
133	0x3d0f06c4	0.03491856
134	0x3d2988a4	0.041390076
135	0x3d181b84	0.037135616
136	0xbe9100de	-0.28320974
137	0xb9254644	-0.00015761802
138	0xbe87efe7	-0.26550218
139	0xbde406fd	-0.111341454
140	0x3e7b4806	0.24539194
141	0xbde6f354	-0.1127688
142	0xbe4cb0f7	-0.19989382
143	0xbe9a1b58	-0.30098987
144	0x3e57c594	0.21071464
145	0x3de5eb37	0.11226504
146	0xbe1aab22	-0.15104344
147	0x3e1b8e6d	0.1519105
148	0xbdcd18e6	-0.100145146
149	0xbda65881	-0.081223495
150	0x3aabd0e7	0.0013108522
151	0xbec51c69	-0.38498238
152	0xbe271691	-0.16317202
153	0xbe6de782	-0.23232844
154	0xbec51cb5	-0.38498464
155	0x3e48d359	0.19611873
156	0x3dd456e5	0.10368136
157	0x3e76f6e7	0.24117623
158	0x3daeff39	0.085447736
159	0xbc5cf04e	-0.0134850275
160	0x3e78d104	0.24298483
161	0xbee7b0fd	-0.4525222
162	0xbdc65815	-0.09684769
163	0xbdd0f309	-0.10202605
164	0x3ea0a4c6	0.31375712
165	0x3e3ce205	0.18445595
166	0xbbe71101	-0.0070515876
167	0xbdda5006	-0.106597945
168	0x3caabf6f	0.020843236
169	0x3e7352f0	0.23762107
170	0xbd6f7c39	-0.058468077
171	0xbd601fac	-0.054717705
172	0x3d052f09	0.03251556
173	0xbc1ad6c5	-0.009450619
174	0x3e1d8587	0.15382968
175	0xbc5f92fd	-0.013645885
176	0x3dcc2e43	0.09969761
177	0x3e759628	0.23983061
178	0x3d7c13d0	0.061542332
179	0x3961723b	0.00021500226
180	0xbdd161e9	-0.10223753
181	0xbe4d1578	-0.20027721
182	0xbe3607bc	-0.17776388
183	0xbe79073a	-0.24319163
184	0xbcea0f1a	-0.028571654
185	0xbd1ec64a	-0.038763322
186	0xbd8a1707	-0.06742673
187	0xbe1c7900	-0.15280533
188	0x3eb03a4f	0.34419486
189	0xbc0178f8	-0.007902376
190	0x3d91faf8	0.071279466
191	0x3d63a62a	0.05557839
192	0x3d94930d	0.0725461
193	0xbe0adf90	-0.13561845
194	0xbcff73cb	-0.031183144
195	0xbd333ba1	-0.04375804
196	0x3e5e4994	0.21707755
197	0xbd6656f7	-0.05623528
198	0x3cf9aa90	0.030476838
199	0xbdf4f3e1	-0.11960579
200	0x3c6619fe	0.014044283
201	0xbe011f35	-0.12609561
202	0xbea575ec	-0.3231653
203	0xbe9dda8d	-0.30830804
204	0x3e1578ae	0.14596817
205	0x3c45b62c	0.012067359
206	0xbd3d3354	-0.04619153
207	0x3e2eac4d	0.17057915
208	0xbdd6f374	-0.10495654
209	0xbea7787c	-0.3270911
210	0x3d1cad91	0.038251463
211	0xbe7ab5b3	-0.24483375
212	0xbd0d08d2	-0.03443224
213	0x3bb9fa03	0.0056755557
214	0x3d5ebc4a	0.054378785
215	0xbe2ce1dd	-0.16883035
216	0xbedd4124	-0.4321376
217	0xbd3684d2	-0.04456026
218	0x3d7d5ce9	0.061856184
219	0x3c8ce950	0.017201096
220	0xbed83d42	-0.42234236
221	0xbe95b846	-0.29242152
222	0xbe7f6c32	-0.24943617
223	0xbcc7a264	-0.024369426
224	0xbdcc9150	-0.09988654
225	0xbe6f40c8	-0.23364556
226	0x3e02c424	0.12770134
227	0x3e867796	0.26263112
228	0xbdfd3d49	-0.12365205
229	0x3e340ab0	0.17582202
230	0xbe11e18c	-0.14246196
231	0xbdbd390d	-0.09239397
232	0x3b81e471	0.003964
233	0x3df83d19	0.121210285
234	0xbe6f2571	-0.23354127
235	0xbb8ca35c	-0.004291935
236	0x3ee0c21e	0.438981
237	0xbe7213b6	-0.23640332
238	0xbcd8d92a	-0.02647074
239	0xbdabe310	-0.08392918
240	0xbdd3f315	-0.103490986
241	0xbe3115a1	-0.17293407
242	0xbbae1d29	-0.0053135348
243	0xbd9c2ddb	-0.07625934
244	0xbe2e6a25	-0.17032678
245	0x3e3f4009	0.18676771
246	0xbc24c886	-0.010057574
247	0xbc89d689	-0.016825931
248	0xbd8daa8c	-0.06917295
249	0x3e505cf8	0.20347965
250	0xbe0c0427	-0.13673459
251	0x3bac9f86	0.00526804
252	0x3e13391f	0.14377259
253	0x3e0a819a	0.13526002
254	0xbebf642e	-0.3738112
255	0x3d67674d	0.056495

actor_mean.2.bias f4 [64]
0	0x00000000	0.0
1	0x00000000	0.0
2	0x00000000	0.0
3	0x00000000	0.0
4	0x00000000	0.0
5	0x00000000	0.0
6	0x00000000	0.0
7	0x00000000	0.0
8	0x00000000	0.0
9	0x00000000	0.0
10	0x00000000	0.0
11	0x00000000	0.0
12	0x00000000	0.0
13	0x00000000	0.0
14	0x00000000	0.0
15	0x00000000	0.0
16	0x00000000	0.0
17	0x00000000	0.0
18	0x00000000	0.0
19	0x00000000	0.0
20	0x00000000	0.0
21	0x00000000	0.0
22	0x00000000	0.0
23	0x00000000	0.0
24	0x00000000	0.0
25	0x00000000	0.0
26	0x00000000	0.0
27	0x00000000	0.0
28	0x00000000	0.0
29	0x00000000	0.0
30	0x00000000	0.0
31	0x00000000	0.0
32	0x00000000	0.0
33	0x00000000	0.0
34	0x00000000	0.0
35	0x00000000	0.0
36	0x00000000	0.0
37	0x00000000	0.0
38	0x00000000	0.0
39	0x00000000	0.0
40	0x00000000	0.0
41	0x00000000	0.0
42	0x00000000	0.0
43	0x00000000	0.0
44	0x00000000	0.0
45	0x00000000	0.0
46	0x00000000	0.0
47	0x00000000	0.0
48	0x00000000	0.0
49	0x00000000	0.0
50	0x00000000	0.0
51	0x00000000	0.0
52	0x00000000	0.0
53	0x00000000	0.0
54	0x00000000	0.0
55	0x00000000	0.0
56	0x00000000	0.0
57	0x00000000	0.0
58	0x00000000	0.0
59	0x00000000	0.0
60	0x00000000	0.0
61	0x00000000	0.0
62	0x00000000	0.0
63	0x00000000	0.0

actor_mean.4.weight f4 [8, 64]
0	0x3b05ca4d	0.002041477
1	0xba81bebe	-0.0009898765
2	0x3b0f3612	0.0021852297
3	0x3b3ae52d	0.0028517947
4	0xb8374649	-4.3696058e-05
5	0xb9ecb534	-0.00045148435
6	0xb94431ed	-0.00018710615
7	0x3b0aabfe	0.0021159644
8	0x3a322a21	0.0006796439
9	0xba15230f	-0.0005689123
10	0xbae935e1	-0.0017792546
11	0xbaab8feb	-0.0013089156
12	0x3ae2ed89	0.0017313223
13	0x3adfb2a6	0.0017066791
14	0x3a93661b	0.001124564
15	0xb9dc1c7c	-0.00041982892
16	0x3a38a860	0.0007044133
17	0xbb0f5ab3	-0.002187413
18	0xb9e68424	-0.0004396747
19	0x3976bddb	0.00023531115
20	0x3926f225	0.000159212
21	0xba743903	-0.0009316357
22	0x3a1629bf	0.00057282666
23	0x3a83b926	0.0010049685
24	0x3813a8a6	3.5204597e-05
25	0xbab28290	-0.0013619233
26	0xb983f0af	-0.0002516559
27	0x3a38fcb7	0.00070567004
28	0xbb1e6f97	-0.00241754
29	0x3ab3f99e	0.0013731008
30	0xba26314d	-0.0006339744
31	0x3a2d4b54	0.0006610651
32	0xb733095e	-1.0671412e-05
33	0xbab58922	-0.0013850073
34	0xb78032b1	-1.5282394e-05
35	0xb90754a9	-0.00012906142
36	0x39e8ca8a	0.00044401392
37	0x39c030c6	0.00036657433
38	0x3a657821	0.00087535573
39	0x39d56082	0.0004069843
40	0xba882d1d	-0.0010389421
41	0xba9bf88c	-0.0011899634
42	0xb925ada4	-0.00015800312
43	0xba16d789	-0.0005754163
44	0x39b082d6	0.00033666816
45	0x3b08e582	0.002088875
46	0xbb0742f0	-0.0020639263
47	0x3adc7c3c	0.0016821693
48	0xb9d86413	-0.00041273292
49	0xbb397206	-0.0028296723
50	0xbae1fa53	-0.001724074
51	0xbaf137bb	-0.001840345
52	0xbabfeb0f	-0.0014642196
53	0x3a2b0c0e	0.00065249286
54	0x3a324bf0	0.00068014767
55	0xbaeab77b	-0.0017907465
56	0xba0309d1	-0.0004998716
57	0x3a517e0e	0.0007991501
58	0x3ac932ee	0.0015350261
59	0x3777183c	1.472799e-05
60	0x39bf8ee6	0.00036536827
61	0x3ad05110	0.0015893299
62	0xba14735d	-0.00056629424
63	0x3a7124ce	0.0009198905
64	0xba61f618	-0.00086197397
65	0xba96c990	-0.0011504162
66	0xbb60d321	-0.003430553
67	0x3a8d75b6	0.0010792527
68	0x3aeb8cc9	0.0017971034
69	0x39be3f13	0.00036286618
70	0xba94f17d	-0.0011363473
71	0x3af62c67	0.0018781543
72	0xba8d6930	-0.0010788795
73	0x3b400784	0.0029301355
74	0x3a008a02	0.0004903377
75	0x3a7d2018	0.00096559664
76	0xb8e49fb3	-0.000109016335
77	0xbab21a5c	-0.0013588178
78	0x3a8eee2b	0.001090472
79	0xb7c69284	-2.3671666e-05
80	0x3a98888b	0.0011637373
81	0xbacfb2e6	-0.0015846163
82	0x3ac97f00	0.0015372932
83	0xba312be9	-0.0006758557
84	0x3ab3e3b7	0.001372448
85	0xba0c4ae2	-0.00053517346
86	0xb9a00207	-0.0003051909
87	0xbaf4825c	-0.0018654573
88	0x389cc6fe	7.475725e-05
89	0xb9a6f51c	-0.00031844608
90	0xbad4d17e	-0.001623675
91	0x39fda8f7	0.0004838181
92	0x39dbd945	0.00041932813
93	0x3a315c34	0.00067657535
94	0xb91271b2	-0.00013966
95	0xb6880aae	-4.054359e-06
96	0xbac6904a	-0.0015149203
97	0xbb133607	-0.0022462623
98	0x3895c32f	7.1412294e-05
99	0x3b1e3ce8	0.002414519
100	0x3ab21987	0.001358793
101	0x39e3d140	0.00043452717
102	0xba01e083	-0.00049544143
103	0x3a87a8b3	0.0010349959
104	0xba6aae32	-0.0008952349
105	0x3919a56e	0.00014652844
106	0x3a1db0ac	0.0006015401
107	0x394fb601	0.0001980886
108	0x3a4c65c4	0.00077971467
109	0xba8afdf7	-0.0010604252
110	0xbac3636e	-0.0014906952
111	0x3a9a4365	0.0011769353
112	0x3b0acf4d	0.002118069
113	0xbaaf9c5c	-0.0013398039
114	0x3a228f67	0.0006201178
115	0x39a2b798	0.00031035836
116	0x39bb695c	0.00035745918
117	0xbaa1ed26	-0.0012354001
118	0x3abbc087	0.0014324345
119	0x3a7a3e5e	0.00095460366
120	0x3a14c383	0.00056748855
121	0xbaff1174	-0.0019460157
122	0x3a9dea9c	0.0012048068
123	0xba8eb3ca	-0.0010887322
124	0xbac09e4e	-0.0014695616
125	0xbae2bcb9	-0.0017298675
126	0xba27f772	-0.00064074167
127	0x38e1814f	0.00010752922
128	0x3b053228	0.0020324085
129	0xba5ed475	-0.00085002865
130	0xbac38fd8	-0.0014920188
131	0x37f90c7b	2.9688925e-05
132	0x3ae42527	0.0017406092
133	0xba921217	-0.0011144307
134	0x3b06f389	0.0020591936
135	0xba89c018	-0.0010509519
136	0xbaa3d51d	-0.0012499426
137	0x39221779	0.00015458268
138	0xbae043ac	-0.0017110012
139	0x399400b0	0.00028229272
140	0x38a94105	8.070659e-05
141	0x3b1ecafe	0.002422988
142	0x3aaedc00	0.0013340712
143	0xb9b200f9	-0.0003395153
144	0xb9b10f9c	-0.000337717
145	0xb9800c05	-0.00024423018
146	0x3ad2356f	0.0016037653
147	0xbb3db61e	-0.0028947662
148	0xbaa3ebdc	-0.0012506205
149	0xba8dd622	-0.0010821263
150	0x39216270	0.00015390827
151	0xbafee6e1	-0.0019447469
152	0x39c02f52	0.0003665635
153	0xb94a3044	-0.00019282202
154	0xb8ce587d	-9.839328e-05
155	0x39eb225d	0.00044848296
156	0xbb4e46aa	-0.0031475225
157	0xbb2db881	-0.0026507678
158	0xb88b67e5	-6.647388e-05
159	0xbab5fea1	-0.001388509
160	0xb9b7b909	-0.00035042342
161	0x38a8e7b8	8.054025e-05
162	0x3b0167ac	0.001974563
163	0x39b61778	0.0003473123
164	0xba0843bf	-0.0005198083
165	0xbb03df67	-0.0020122172
166	0x3a9ef462	0.0012127275
167	0x3ad9c000	0.0016613007
168	0x3a80a4bf	0.0009814723
169	0x3ab06397	0.0013457414
170	0xb981aaf7	-0.00024732176
171	0x37d6ce70	2.5606918e-05
172	0x3a3a71b5	0.00071122806
173	0x3aedf634	0.0018155039
174	0x3a259dae	0.00063177466
175	0xba6a20fd	-0.0008931307
176	0x39495847	0.0001920174
177	0x3aa7b2b8	0.0012794351
178	0x3b03261f	0.0020011736
179	0xb885a2e1	-6.372273e-05
180	0x3a1f35c9	0.0006073383
181	0x3aba1098	0.0014195619
182	0x3a848d8d	0.0010112986
183	0x3aaa8a38	0.0013011163
184	0x39242605	0.00015654422
185	0x3a328461	0.0006809887
186	0xba43ee37	-0.00074741564
187	0x3a3d1ab5	0.00072137575
188	0x395c619d	0.00021017199
189	0x3a423fce	0.00074100203
190	0xba2372d1	-0.00062350655
191	0xb9d063a4	-0.0003974709
192	0x3a3d4047	0.0007219356
193	0xba242677	-0.0006261835
194	0xba9b5adc	-0.001185264
195	0x3aee72f0	0.0018192213
196	0x3a60e01c	0.0008578317
197	0x38b3d014	8.574143e-05
198	0x3a36d8af	0.00069750374
199	0xba5abbe1	-0.0008344036
200	0xb9e8bfa0	-0.0004439326
201	0xbaa84089	-0.0012836616
202	0x3a7951a5	0.0009510762
203	0xba62b10c	-0.0008647598
204	0xba853162	-0.0010161812
205	0xbad86f12	-0.0016512594
206	0x39c5e032	0.00037741807
207	0x3a6395f4	0.00086817075
208	0x3a895afd	0.0010479387
209	0xbab43c5b	-0.0013750897
210	0x3a493be9	0.0007676469
211	0x3aa5794a	0.0012624648
212	0xbb5d0337	-0.003372384
213	0xb89db965	-7.520876e-05
214	0xba8abfc2	-0.0010585713
215	0x3b156093	0.0022793158
216	0x3a4707f0	0.00075924303
217	0x3ac2eb25	0.0014871104
218	0xba795803	-0.0009511711
219	0x3a999f24	0.0011720401
220	0x39db4c7d	0.00041827923
221	0x3ac4f70b	0.0015027238
222	0x3aa42b8b	0.0012525184
223	0xbad7a8b2	-0.0016453473
224	0x3a019b72	0.00049441226
225	0xba778c9c	-0.00094432547
226	0xba3e03d3	-0.00072484947
227	0x3a98c788	0.0011656145
228	0xba6ca8d5	-0.00090278435
229	0x39b9c073	0.00035429336
230	0x3a8f8ca3	0.0010951947
231	0xb982c540	-0.00024942495
232	0xbaa1df6f	-0.0012349914
233	0x39fc13f3	0.0004808005
234	0xba75d9fe	-0.00093784917
235	0xbac0b06b	-0.0014701014
236	0x3a91a2ce	0.0011111142
237	0xb983220f	-0.00025011643
238	0x3afb0839	0.0019152231
239	0x3ab833ef	0.0014053563
240	0x3af1482f	0.0018408353
241	0xba0937b6	-0.0005234437
242	0x382a1f47	4.0560288e-05
243	0xba3a80c2	-0.00071145233
244	0x3a8cfaff	0.0010755955
245	0x3a3f4da6	0.00072976423
246	0xbab2d105	-0.0013642615
247	0xba93802e	-0.001125341
248	0xba316fae	-0.0006768656
249	0x3af14bb7	0.0018409406
250	0xbb74a96f	-0.0037332436
251	0x3a570c8c	0.0008203469
252	0xba05c806	-0.0005103353
253	0xba7b2fa1	-0.00095819874
254	0xbb012597	-0.0019706243
255	0xb9e17ab0	-0.00043006754

actor_mean.4.bias f4 [8]
0	0x00000000	0.0
1	0x00000000	0.0
2	0x00000000	0.0
3	0x00000000	0.0
4	0x00000000	0.0
5	0x00000000	0.0
6	0x00000000	0.0
7	0x00000000	0.0
