DATA403_final/checkpoints/Ant-v4/PPO_336.pt (torch, 53950 bytes, 12 tensors)

actor_logstd f4 [1, 8]
00000000: f5c3 11c0 e386 14c0 1062 0fc0 f91d 11c0
00000010: 0f23 11c0 4400 13c0 7245 09c0 6107 0ac0
-2.2775853 -2.3207328 -2.2403603 -2.2674544 -2.2677648 -2.2968912 -2.1448636 -2.1567004

critic.0.weight f4 [64, 27]
00000000: 6e6f 62bf de14 09bf 5b57 773e 6fbc 8cbf
00000010: 9ed8 a03f b188 b7be bb51 8a3d 04c0 22be
00000020: 1d3b 08bf 8f0c 03bd 113b e53d f362 4abe
00000030: f29e 6b3e c09a 2cbf c92d f33c efd6 6abd
00000040: 955d b53c 778a e9bd 67c2 a2bd 1815 1bbd
00000050: 8608 993c 92f2 acbc 376b 4d3c 3037 b33c
00000060: adbd 28bd c2d2 2ebc 9fe3 df3c b116 c33e
00000070: 6b31 c23f ab1c eb3f 8c2f a43e 890b 4f3f
00000080: 4dcd d93c 45e7 71be bd27 a3b9 7e81 9e3e
00000090: b288 a83b 9942 df3d 4e7f 8a3e 5abd 493d
000000a0: 793a 113d 7b81 d03d ebde 50bd caf7 323d
000000b0: a399 b8bd 0f33 663d 8d99 f13c 6dad e2bb
000000c0: ec17 e63b 6053 a13b 3bcb 2d3b bd58 b7bb
000000d0: bbd7 ba3b 05f3 2cbb 886c aa3f 2eb5 833f
000000e0: 788d e63e 95ec c3be 6011 40bf b39f 4f3e
000000f0: bee0 09be e824 56be 9ebc a03c f5e8 46be
00000100: 54ce 87bc ca7a 543e 547a 1ebe cdd4 00bf
00000110: 3010 783d f26b 9b3e b936 813d 3131 be3c
00000120: a196 1a3e 7ab9 9c3c 5bc7 5c3c 1b27 7a3b
00000130: 22d3 71bc 894a 633c f208 09bd 84af 2b3d
00000140: 13d5 233d 0832 2f3f 2478 023f 8856 d23d
00000150: d0a1 1fbf f25a cf3d 8e8b c7bd e716 3b3e
00000160: 69c6 7dbe 2519 c33d 71ba 3b3e 71df 203d
00000170: 9fef 90be ed42 053e 6652 e9bd 7da8 323d
00000180: 4d36 b8bd 28d1 843c bae7 d9bd 6aec 013d
00000190: dfcb 593c ad10 93bc 0990 d0bb 5bda ed3b
000001a0: 8033 fd3c 485c bb3c 7335 86bc 4a2b b3bd
000001b0: 4a1c 0cbf bbb1 3cbe 9ff7 3d3e dce0 febf
000001c0: 84c2 403f b6d1 cebd 83c1 eabd f79c 2e3e
000001d0: 48b1 82be 1eb1 64be e112 07bf 2522 153d
000001e0: 5ce4 29bd 0f5b 463e c1bd a0bd 81fe 053e
000001f0: 4a90 79bc 7be5 12bf 4887 f93d 21cd 14bc
00000200: 720f aabd 8cd0 493c 77e8 a1bd e1f6 9cbb
00000210: 2977 13bd e503 203d c7e9 aabd 68fb e6be
00000220: 3a90 d0be 2cb5 1840 6ccf 733e 7b83 fd3e
00000230: 7821 7bbe e80d cfbe c853 a83c 4b4d fbbd
00000240: afef b9bd ac52 9ebd 7ce4 f83e b1c0 cc3c
00000250: 1740 2d3d ab59 043d 35eb 52bd 95fa f4bd
00000260: 36fb 913d 9182 96bd b2ed 9f3b a109 fdbb
00000270: dba8 383d a895 ec3a ddc6 313c 1647 2ebd
00000280: b474 a5bc 6967 a1bb 9da1 b23e 0d9f 863f
00000290: e38a 88bf 6519 433f 2bbf 243e 9bae 34be
000002a0: 211f 063e 321a d7bd beca 9a3d 0d95 823e
000002b0: f612 2a3e e169 cc3c 980f 383e e977 673e
000002c0: cd79 3a3e b06d 8f3d 15cc e4bb 3b39 72be
000002d0: 40b4 153d 1877 df3c 947c 0dbd 6c54 a43c
000002e0: cef0 4dbc 8ebd b93b 4131 5abc d877 2a3d
000002f0: fe7b 453c d2b6 67be 1bbe 91bc adf4 6bbb
00000300: 541f e53e 552a 7b3f d7e2 193e e7cb 22be
00000310: f991 20bf f999 fbbe 8fa9 e53e 7b63 383d
00000320: d4c2 8c3d 1973 64bd c4a6 b83e 372f 1ebe
00000330: 41bc 953e 2880 d2bc bebd 233e 4a56 07be
00000340: ac20 91bd 64ce 08bd a604 b1bc 8856 1abd
00000350: 6429 71bc 26fb f53c 0d26 24bd 0c0d 25be
00000360: dbbe cc3f 238d 143e 8e6c 6ebe 0040 c9be
00000370: 442a 533e 7637 a43e 83e7 c33e 2353 49be
00000380: 9fa3 1fbf 36e6 22be 7e4b 11bf 5ca1 913d
00000390: 2315 813d 8e14 2e3d eafe a2bc bbad 95be
000003a0: 620e 99bd 577d 2c3e a84b ebbd a524 a3bb
000003b0: 6ee5 9fbc 0f19 54bc f1dd 4fbd c58e a6bc
000003c0: 6d65 72bd 77a9 673c e609 17bc ddba 443f
000003d0: f13d 463f 57b8 c3be b6da eb3d 9690 4dbf
000003e0: bcec f1be e183 133f ae34 843c bbdc 0cbf
000003f0: d801 3abe 09c2 f4be e877 7cbf a6b0 3e3f
-0.8845128 -0.53547466 0.24154417 -1.0995005 1.2566106 -0.35846475 0.0675387 -0.1589356
-0.532152 -0.0319944 0.11192907 -0.19764309 0.23009852 -0.6742363 0.029684918 -0.057333883
0.02213935 -0.11403363 -0.079472356 -0.037861913 0.018680822 -0.02111176 0.012537769 0.021876901
-0.041196514 -0.010670366 0.027330218 0.3810325 1.5171331 1.8368124 0.32067525 0.80876976
0.026587153 -0.23623379 -0.0003111939 0.3095817 0.0051432485 0.10901374 0.2705025 0.049252845
0.035456154 0.101809464 -0.05099384 0.04369334 -0.09013679 0.056201037 0.029492164 -0.0069176466
0.0070218947 0.004923269 0.002651884 -0.005595295 0.0057019866 -0.0026389968 1.3314371 1.0289667
0.45029807 -0.38266435 -0.7502651 0.20275764 -0.13464639 -0.20912516 0.01962119 -0.19424804
-0.016577877 0.20749965 -0.15476352 -0.5032471 0.060562313 0.30355793 0.06309266 0.023216816
0.15096523 0.01913141 0.013475264 0.0038170281 -0.014759811 0.013872751 -0.033455797 0.04191543
0.039998125 0.68435717 0.5096457 0.10270411 -0.6235628 0.10124768 -0.09743415 0.18270455
-0.24782719 0.0952628 0.1833284 0.03927559 -0.28307816 0.13013811 -0.113926694 0.043617714
-0.08994732 0.016213015 -0.106399015 0.031719603 0.013293236 -0.017952288 -0.0063648266 0.007258696
0.030908346 0.022871152 -0.016382908 -0.08748491 -0.54730666 -0.18427174 0.18551491 -1.9912372
0.7529681 -0.10098593 -0.11462691 0.17052065 -0.2552588 -0.2233319 -0.5276318 0.036409516
-0.041477546 0.19370674 -0.07848693 0.13085367 -0.015232155 -0.5738141 0.12184006 -0.00908211
-0.08303727 0.012317788 -0.07905667 -0.0047901724 -0.03600231 0.039066214 -0.08345371 -0.45113683
-0.40735036 2.3860579 0.23809594 0.49514374 -0.24524486 -0.40440297 0.020547763 -0.12270602
-0.09078919 -0.07730612 0.4861182 0.024994226 0.04229745 0.032312077 -0.051493842 -0.11961857
0.07127993 -0.07349122 0.0048806304 -0.007722095 0.045082908 0.0018049972 0.010850635 -0.04254826
-0.02019725 -0.0049256575 0.34888926 1.0517288 -1.0667385 0.76210624 0.1608855 -0.17644732
0.13097812 -0.10503043 0.07558201 0.25504342 0.16608796 0.02495283 0.17974699 0.22604336
0.18210526 0.07003343 -0.0069823363 -0.23654644 0.036548853 0.027278468 -0.034542635 0.020059787
-0.012569619 0.0056683486 -0.013317407 0.0416182 0.012053488 -0.22628334 -0.017790845 -0.0036003992
0.44750464 0.9811147 0.15027939 -0.15898095 -0.62722737 -0.4914091 0.44855925 0.045016747
0.06873098 -0.05577383 0.36064732 -0.15447699 0.2924519 -0.025695875 0.1599035 -0.1321651
-0.0708631 -0.033399954 -0.021608662 -0.03768018 -0.014719341 0.030026983 -0.04007535 -0.16118258
1.5995744 0.14506964 -0.23283598 -0.3930664 0.20621592 0.32073563 0.38262567 -0.1966062
-0.6235904 -0.15908131 -0.56755817 0.07110855 0.0630286 0.04250007 -0.019896943 -0.29234108
-0.074734464 0.16844688 -0.1148904 -0.0049787336 -0.01951858 -0.012945428 -0.05074877 -0.02033175
-0.05917876 0.014139525 -0.009218669 0.7684763 0.77438265 -0.38226578 0.11516325 -0.80298746
-0.47250926 0.57623106 0.0161384 -0.5502431 -0.18164766 -0.47804287 -0.9862046 0.74488294

critic.0.bias f4 [64]
00000000: 9e7f 8f3e bd39 7dbe df08 81bf 6939 88bf
00000010: bead 333d 5c74 273f c313 40bf d532 01bf
00000020: ed04 913e 8430 443f 2e19 82be c312 063f
00000030: 479a 53be 455e 5e3f 575e 343f 90af 03bf
00000040: e128 44bf 22e0 e0bd 896b 433e add1 a9be
00000050: b560 55be a9fd 823d 7f98 953f 76fe 053f
00000060: 27c4 84be bd17 71bf 55d8 acbf bcbe 9f3f
00000070: eca4 253f a715 bb3e a0a1 07bf 8fe3 36bf
00000080: 5ab1 7bbe 92c7 1a3f 07d3 93be d4ff d4bd
00000090: fd98 9a3e c099 d2be 8ebf d4be a94c 983d
000000a0: f16f cebe c160 39bf 9cfe 56bf c22a e03e
000000b0: db55 763f f6ba 04bf 9b8f 23bf 6e95 153f
000000c0: 5986 52bc 4ada 29be 347b f5be f751 c1be
000000d0: 625e 033f 9ac9 81bf fb10 773f 6d5a 48bf
000000e0: 67b1 b0be e5a4 143f d340 8c3f 964f a5be
000000f0: 6544 0a3f 57e0 0e3f 797b 02be ff40 9dbe
0.28027052 -0.24729057 -1.0080832 -1.064252 0.043866865 0.65411925 -0.75030154 -0.5046819
0.2832407 0.7663653 -0.25409836 0.5237238 -0.20664321 0.86862594 0.7045645 -0.5143976
-0.76624876 -0.1098025 0.1908399 -0.33167782 -0.20837672 0.06396038 1.1687163 0.523414
-0.25930902 -0.94176847 -1.3503519 1.2480083 0.64704776 0.36539957 -0.52980995 -0.71440977
-0.24579373 0.6046077 -0.2887194 -0.10400358 0.30194846 -0.41132927 -0.41552395 0.07436497
-0.4031978 -0.7241326 -0.83982253 0.43782622 0.96224755 -0.5184778 -0.63891 0.58431137
-0.012849414 -0.16587177 -0.4794556 -0.37757847 0.5131589 -1.0139649 0.96510285 -0.7826298
-0.34510347 0.5806411 1.0957283 -0.32287282 0.5401061 0.55811065 -0.12742414 -0.3071365

critic.2.weight f4 [64, 64]
00000000: cfa1 fd3d 701d e4bd bfb7 d93e b812 f43e
00000010: e8c7 d2bd 27c5 b0be f0d7 0c3f 38a8 f23b
00000020: 59c0 943d 8674 bebe 92b8 8fbe e5d6 103d
00000030: ab10 04be 9719 62be d513 cd3d 0de2 1fbc
00000040: 8cd6 f33e b18c 2dbc 1ed3 803e 170a 4b3c
00000050: 8c16 c33e c728 8ebd e4c7 3ebf 70db 98be
00000060: 3302 06be 846c a53e 17b3 563f 3297 8fbf
00000070: ad1d 3ebe 3759 9cbe 4cf2 d23d 97f9 093f
00000080: 93d3 8d3d 7bb1 11bf 5cf0 f2bd 716f b8bd
00000090: 09b2 183e 5549 ae3b 2b7d 473e 1dd9 9fbe
000000a0: 3158 ae3e a3b6 8c3f 4937 1fbe f54f 6e3e
000000b0: 977e c5be 1566 353e 453a 46be 1863 5d3e
000000c0: ef48 a43e a212 bbbe 1169 9cbd babd d43e
000000d0: 1eaa 6dbe 1ba4 b03e 1d34 24bf bf5a 1fbd
000000e0: 4cff 0c3f 4ea4 a83e 3c5b b3bd b2ee 3cbe
000000f0: 0081 83bd 4e53 8abe 52eb 9dbe 86fe 193f
00000100: 1088 adbe b0c2 11bf ec0e 22bf 6e56 31bf
00000110: 13be 283d 7fea 94bd 1426 9f3e 7a7b 02bc
00000120: c7ce 09be 3b57 503e 10c3 8d3e d335 fbbd
00000130: c02b 1bbf 83bf d43e fd4e 76bd 2786 1d3e
00000140: e06c 90be c763 2e3e 337f bf3d 9f0b c1bd
00000150: 68bd 93be e358 85bd ce8c 0c3f c9bc 9abe
00000160: 85ad e93e 7f54 8dbd e794 bcbe 568c ca3f
00000170: 7c6a dd3b 500d e8bd 70db 1ebe 0a48 60be
00000180: dfdb 4f3e 88ec 143f 4b27 0b3f 5c4f e6bd
00000190: eab0 ad3d 7b6b da3e dfa8 80be e7cf 213d
000001a0: 9f05 493d e973 77bf e132 1fbf 2fe2 233d
000001b0: e7d6 d03e f66b d8be 9568 10bf 788c 42bd
000001c0: 6fa9 103e 0edd 11be a60e 283e db73 fabe
000001d0: 6eef 573e 8864 4abf 44ca 2f3f d6eb a0be
000001e0: 6c77 ec3a 9b39 1dbe 4b3a 5e3e 6530 6f3d
000001f0: 02e4 433d 128c 333d 0210 e9bc 968d 80be
00000200: 2d53 503e fed8 c23e bc8d 4ebf 737c 0dbf
00000210: ebe0 063e ef22 f83d 8c00 59be da33 943d
00000220: 5657 dfbe 4205 233f 4c13 0abe cc27 cd3e
00000230: c51c c2bd daa0 163f 7ecb 0dbd d55b a6bd
00000240: 6998 c4be 7974 61be 967a 4cbe 9b49 ac3d
00000250: 0528 16be b7cd 433d 171e 553f f219 00be
00000260: e6d7 e5be dc2b 25bf 7a2e bbbe bd59 0440
00000270: 6862 8d3e 187b 4d3e 9a8b d9bd 45f0 0bbf
00000280: 0992 91bd 1205 4a3f 6e9e 6dbc 8744 163e
00000290: 903c 493e 4fe5 4fbe f2e0 5cbe a2bc 123e
000002a0: 1b31 d0be 7c7e 7dbf 1fea 98be 96ae a7bc
000002b0: 3c60 9a3e c27e f0be 74a5 f2be eb93 c23e
000002c0: 5356 4abe cb35 5ebe fad5 b1bd ce1c b9bd
000002d0: 22bb 503d c972 a3bf 05f2 883f ba7b 5bbd
000002e0: d5ec 5ebe 3f26 793e 5dda 013e 7c9c 7fbe
000002f0: ab4b 693d f8e5 363f eb45 843e 3769 653c
00000300: b559 f6ba ce38 853e 3076 283f e350 f73d
00000310: f7b0 e0be 6deb 70be 4ca4 e23e e87a be3d
00000320: a0bf 7e3d 5d77 c6be fc22 ec3d 6934 92be
00000330: 7b2e 4f3e 631d fbbe fc77 c93c f108 f1bc
00000340: 2223 543f 8e8d cf3d 2f07 003f 67bf 31be
00000350: ae09 b23e 08dd 7bbd 2ab7 46bf a969 5b3d
00000360: 83ca 963e d29e a93e 073d d03e 113e e4bf
00000370: e8c9 94be 9b3e 5d3d f686 903e 6b37 223f
00000380: 7e4b 59bc 4d6e 7cbf 754d 9e3e 5d82 9fbe
00000390: 7e63 a2be f78f 053e cd03 b5bc c691 29be
000003a0: f3c5 973e cc5d 0c3f 2cb2 be3e 9dff 3cbd
000003b0: e2eb f4bd 18d0 a73e b093 243f 8f74 96be
000003c0: 5077 b3be 5e7d 9ebd 9187 1c3d 44d5 c03d
000003d0: 4f85 4c3e 76c8 7f3f b2d3 5fbf d731 debd
000003e0: 241c 4dbd 26a4 06be 75f0 7ebe 16a5 4fbd
000003f0: c369 0b3e ac28 b7be cd7e f0bd 6f95 3fbe
0.12384378 -0.11138427 0.42523 0.4767053 -0.10292035 -0.34525415 0.55016994 0.007405307
0.0726325 -0.37198275 -0.28070503 0.03536119 -0.12896983 -0.22080074 0.10013548 -0.009758485
0.47624624 -0.0105926255 0.2516107 0.012392542 0.3810314 -0.069413714 -0.7452376 -0.29854918
-0.13086776 0.32309353 0.8386702 -1.1218016 -0.18566008 -0.30536816 0.10300121 0.5389647
0.0692512 -0.5691144 -0.11862251 -0.09005631 0.14911665 0.0053188005 0.19481342 -0.31220332
0.3405166 1.0993236 -0.15548433 0.23272689 -0.38573143 0.17714722 -0.19358166 0.21619833
0.32086894 -0.36537653 -0.07637227 0.41551 -0.23209426 0.34500203 -0.6414202 -0.0389049
0.5507705 0.32937855 -0.08757636 -0.1845043 -0.06421089 -0.2701668 -0.30843598 0.60153997
-0.3389287 -0.56937695 -0.6330402 -0.69272506 0.041196894 -0.07271289 0.3108374 -0.007964009
-0.13457786 0.20345776 0.27687883 -0.122661255 -0.6061363 0.41552362 -0.060133923 0.15383206
-0.28208065 0.1703025 0.09350433 -0.09426045 -0.28855443 -0.065110944 0.5490235 -0.30222157
0.45640197 -0.06900882 -0.36832353 1.5824077 0.0067570787 -0.11330664 -0.15513396 -0.2190248
0.20298718 0.5817342 0.5435683 -0.11245605 0.08481009 0.42660126 -0.25128838 0.03950491
0.049077626 -0.9666124 -0.6218701 0.040010627 0.40788957 -0.42269868 -0.5640958 -0.047497243
0.14127134 -0.14244482 0.16411838 -0.48916516 0.21087429 -0.7905965 0.6866801 -0.3142993
0.0018040962 -0.15354006 0.21701925 0.058395762 0.047824867 0.043834753 -0.028450016 -0.25108021
0.20344229 0.38056177 -0.8068502 -0.5526802 0.13171737 0.12116038 -0.21191615 0.072364524
-0.4362132 0.636799 -0.13483924 0.40069425 -0.094781436 0.5883919 -0.034617893 -0.08122984
-0.3839753 -0.22017087 -0.19968638 0.08412477 -0.14663704 0.047803607 0.8324904 -0.12509897
-0.4489128 -0.6452005 -0.36558896 2.0679772 0.2761414 0.20066488 -0.1062233 -0.546635
-0.07107932 0.78913987 -0.014503105 0.14674579 0.19652009 -0.20302318 -0.21570185 0.1432977
-0.40662464 -0.99021125 -0.2986612 -0.020468991 0.30151546 -0.4697171 -0.47391856 0.38003477
-0.19759493 -0.21700208 -0.08683391 -0.09038697 0.050959714 -1.2769405 1.0698858 -0.05358479
-0.21770032 0.24330996 0.12680955 -0.24962038 0.05695693 0.71444654 0.25834593 0.014002136
-0.0018795045 0.260199 0.6580534 0.12075975 -0.43885013 -0.23527308 0.44265974 0.09300786
0.062194467 -0.38762942 0.1153011 -0.2855561 0.20232575 -0.49045858 0.024593346 -0.029423209
0.8286611 0.10134421 0.5001096 -0.1735817 0.3477301 -0.06149009 -0.77623236 0.053567562
0.2945138 0.33128983 0.4067156 -1.7831441 -0.29060292 0.054014783 0.28227967 0.6336581
-0.013262628 -0.98605806 0.3091847 -0.31154147 -0.31716532 0.130432 -0.022096539 -0.16559514
0.2964321 0.5483062 0.3724531 -0.04614221 -0.119590536 0.3277595 0.64287853 -0.29385802
-0.35051966 -0.07738756 0.038215224 0.09415677 0.19972728 0.99915254 -0.87432396 -0.1084935
-0.050075665 -0.13148555 -0.24896415 -0.050694548 0.13614564 -0.35773218 -0.11742935 -0.18709348

critic.2.bias f4 [64]
00000000: 88e1 0abe 599f 403d c7f0 a13e bc4e 54be
00000010: 0fb9 1f3e 38da dd3e ae35 d3be 75a2 563e
00000020: 296f 0dbe d342 343e 8c4d 00be 39c9 793e
00000030: 96de 663e 9fae afbd 0f53 cdbd 15a5 debd
00000040: 197b 2bbe 9081 87bd 79be 79be f9e6 773e
00000050: 39be 213e 643a 613e 8096 3abe c7fa 62be
00000060: 6428 7c3e 7e2f 89bd 8924 953e 30fa aa3e
00000070: cea6 8d3e 6b39 d7be c5cf c33e 7c49 303d
00000080: 8234 a43e 66d3 583e 0a29 943e 83d2 2e3e
00000090: b08f 9a3e 2e8b 9d3b cc46 82bd e9b7 88bc
000000a0: 2e33 89bc e89f 7cbe c303 af3e 691f 0f3e
000000b0: e8da 5f3e 7fb4 a9be 29ea a1bd 48c5 393e
000000c0: aad4 a83d bfcf 6d3e 8e89 50bd 21a0 a1be
000000d0: f0e6 8b3e f67b 503d d981 44bd 389d 84bd
000000e0: b3ce 4cbe 0aa1 5e3e f119 913d 5cac c93e
000000f0: faf8 853e 9f9d da3e 1dc3 8dbc 5156 d4bc
-0.13562596 0.047026966 0.3162901 -0.2073316 0.15597938 0.4333055 -0.41251892 0.2096041
-0.13811935 0.17603616 -0.12529582 0.24393167 0.22545847 -0.08578228 -0.10025608 -0.10871331
-0.16746177 -0.06616509 -0.24389066 0.24209203 0.1579522 0.2199493 -0.18221474 -0.22165976
0.24624783 -0.066985115 0.29129437 0.33394003 0.27666324 -0.42035994 0.38244453 0.04303883
0.3207131 0.21174392 0.2893756 0.17072491 0.3018775 0.0048078513 -0.0636116 -0.016689258
-0.016748037 -0.24670374 0.34182557 0.13976826 0.2186085 -0.3314552 -0.07905991 0.18141663
0.082436875 0.2322378 -0.050912432 -0.3156748 0.2732463 0.05089947 -0.047975395 -0.064752996
-0.20000724 0.21741119 0.07085026 0.39389312 0.26166517 0.4269838 -0.017304951 -0.025920065

critic.4.weight f4 [1, 64]
00000000: 0b06 ddbf aa2c ee3f 8f5a 1040 fdf3 e9bf
00000010: f2e4 5d3f 1e0d e53f f7ca b4bf d93a 0b40
00000020: d31f a5bf 3e1e a53f ad12 babf 12b1 d43f
00000030: cda1 0940 8606 943f d27c 863f 77c2 6ebf
00000040: 1624 c9bf c289 a43f 9b81 c1bf 6d4e f53f
00000050: 6761 7abf 0694 83bf 5236 98bf 406c afbf
00000060: dced d03f c36f 8dbf 6aff b93f 3920 f33f
00000070: b71c 0a40 ca27 b5bf 1baa 973f 28da 4c3f
00000080: 99d8 d73f 75c0 b83f 0ed2 d23f 3590 2e3f
00000090: 78f9 f63f 772d ad3f 2e6d a93f 8b5b 963f
000000a0: ba7d 983f 8f27 8ebf edf3 b53f ce14 af3f
000000b0: cc40 973f 2e7c 983f 7442 8bbf 41bd f53f
000000c0: 7e41 d63f 16cd 8f3f 6f2c a33f e019 e6bf
000000d0: f23d 823f 3ae5 fe3f f205 a1bf ddaf bcbf
000000e0: 16e3 b0bf f1e4 ca3f 7e4e a63f f21a 0f40
000000f0: d426 ed3f 1eb1 db3f f88c 82bf 2ef2 a1bf
-1.7267469 1.860738 2.2555273 -1.8277584 0.8667747 1.7894628 -1.412444 2.1754668
-1.2900337 1.2899854 -1.4536949 1.6616538 2.1505005 1.1564491 1.0506842 -0.9326548
-1.5714138 1.285454 -1.5117677 1.9164559 -0.97804874 -1.0279548 -1.1891577 -1.370491
1.6322589 -1.1049732 1.4531071 1.8994209 2.1580026 -1.4152768 1.1848787 0.8002038
1.6862975 1.4433733 1.6470354 0.6818879 1.9294882 1.35295 1.3236444 1.1746687
1.1913369 -1.1105822 1.4215065 1.3678224 1.181665 1.1912897 -1.0879655 1.9198381
1.6738737 1.1234462 1.2747935 -1.7976646 1.0175154 1.9913704 -1.2579939 -1.4741169
-1.3819301 1.5851117 1.2992704 2.2360196 1.8527474 1.7163427 -1.019927 -1.2652032

actor_mean.0.weight f4 [64, 27]
00000000: 5bc8 9b3e 56dc 333e 871e 31bd 5005 b4be
00000010: 6bec 893e f240 68be 4cbc ef3e a051 a93e
00000020: 151d 38be f628 bb3d 06c9 d13c 5c8e ec3e
00000030: 8200 a5bd 0216 093e dfe2 51bf e6e5 44be
00000040: 62c5 063f f29d 92be b66c 0a3e b6ab 2b3e
00000050: 4065 4d3e cd40 a23d 59d8 bfbd 8842 a63e
00000060: e8b9 e13d 52ee 85be fc3c 153e e127 00bf
00000070: 9e2f 643d b2a7 c8bd 40a8 9f3e b886 213e
00000080: d965 063e dbd4 0d3e d34b 4a3e 5085 b83d
00000090: 0ed7 ec3e 4374 2e3d a0d1 62bb 6f23 1dbc
000000a0: 70c5 063f edbc b1be 0b58 a0bd eeba 163e
000000b0: d429 b73e e0a7 88bd 44d1 8e3d 9104 cebc
000000c0: 2b19 b33e 3033 ee3e d1a5 1cbe 93ae 26be
000000d0: 100e bfbe 6950 95bd a778 443e 901c 5e3e
000000e0: 054a 223e 8644 2ebe 837b 3abe 2199 503e
000000f0: 7d51 2d3e 308b a9bd 9009 a2bd 8fef f8be
00000100: 98db 843c 6889 14be 032b 9f3e e58a f5bc
00000110: b3c5 41bf 9a4d 493f dcd3 753e 4753 10be
00000120: 1cb2 173c 3b31 283d f32d 89be fcac 2c3e
00000130: bb6b 3b3e 222c dfbe 99a4 443e efb5 a03c
00000140: 0f65 cb3c c22d d5bc efa1 153f 4238 003f
00000150: 85e0 323e 6861 243f 12e8 313f bc4e 963d
00000160: ff2f f73c 67da d63e 126e e93e 1986 00be
00000170: 5641 1dbe 7402 313d 4bb8 ecbe e6d6 dbba
00000180: 259a 08be f043 91be 9079 a93b 86ed 30be
00000190: ace4 85bd e4bb a83e ad08 cd3d 4efc bf3d
000001a0: e4c5 983e eae6 22be 2bcf a93c 134d 6f3d
000001b0: ba6f c13d 2e1b da3e 6ce0 893e a08d 38bd
000001c0: a477 143e 54a4 40be abed 22be 569c 69bd
000001d0: d812 c73e a531 d93d b309 62bd 9481 21be
000001e0: 9bf1 8cbe d1cd b3be 207b cdbe db77 783e
000001f0: d388 e1bd f41b 37bf 8e45 b6bd 02cc e7bd
00000200: f67c fd3e ff87 fe3d ad85 19be 90a8 1fbe
00000210: fb1e 04be e0bf c63d b1d1 163e db58 a23d
00000220: b690 2fbf eb4e 5d3e 886e 563e 4f72 ff3e
00000230: 3d65 29bd 9bc2 683e 3b35 b83e 42c1 3fbe
00000240: a3d6 503e 9b69 013e 596a 3fbe 6c8a d93d
00000250: 76ea 2dbf b934 193d 5d88 acbe c4cd bd3e
00000260: 0169 ad3b 4178 99be be0e 02be 81d7 bcbd
00000270: 52a1 75bd c249 0e3e b934 093e 37d4 04bc
00000280: bf62 91bd 24b2 aebe c1ec b93e 88e2 eebd
00000290: cd0e 41bd 0516 5bbf 71f9 24bf 2571 d9be
000002a0: 3fc7 a2bd 17ed c0be 0138 bf3e e565 963e
000002b0: 809f 8abd 7fa0 f9bb 8bf7 2b3e 819c 9b3e
000002c0: 4798 a8be 553c d3bd 9d2c 21be 0bc6 0e3d
000002d0: 2155 16bd 71f9 e7bd a108 17be 5c00 a23e
000002e0: aa69 cabc cf18 00be 3f9c cabe a7f1 55be
000002f0: 8776 0bbe 589a 97be 0a78 9e3e 07cd 8a3d
00000300: 5d34 59bf d6f8 1f3e 52ba 653e dd5c 1b3e
00000310: 3787 c13e b513 4e3e a3de 203f 5f6f 913d
00000320: 57e2 d33d 112d 67be 490f ecbe 17b5 0ebe
00000330: 9aa3 ab3e 3728 8bbe 09d3 293f 4269 b43e
00000340: 9534 43be 8350 28bc d4b2 943e 3413 e23d
00000350: 3c3e c13d 2651 83bd b70b 01bd 7489 723e
00000360: f99b 8cbe 729d 51bf b62b ffbc bd04 05be
00000370: f51b 36be 7b2a 0a3e 9dd6 e2bb ef91 f8be
00000380: dc53 84bd 0129 fe3e 9ed1 cc3e 7168 a13d
00000390: b10d 38be da86 73be 1c58 b2bd 2e79 f4bd
000003a0: 9df8 a4be 87bb 743e 139e 0abf 2ced 3d3e
000003b0: bd43 003c 728f 673c d1cb 633d e2c4 0a3c
000003c0: de2c 9abe 91ad 013f 41ad 143e 8f12 73be
000003d0: ef6e b5be 7de2 353e 0d20 283f dc1b 4a3d
000003e0: 3eb5 8fbd 98ed bd3d e335 873d e031 463e
000003f0: be88 633e 3145 7d3d d9b2 92be 5d47 0dbe
0.30426297 0.1756452 -0.043242004 -0.35160303 0.26938185 -0.22681025 0.46823347 0.33070087
-0.17979844 0.09138672 0.02560855 0.46202362 -0.080567375 0.13387302 -0.819868 -0.19228324
0.5264493 -0.28636128 0.13518032 0.16764721 0.20058155 0.07922516 -0.09367437 0.32472634
0.11021787 -0.26158386 0.14574045 -0.5006085 0.055709474 -0.0979761 0.31183052 0.15774047
0.1312479 0.13850729 0.19755487 0.09009802 0.46257824 0.042591345 -0.003460981 -0.009590968
0.52645016 -0.3471445 -0.07829293 0.14719746 0.357741 -0.066726446 0.06973508 -0.025148662
0.3498014 0.46523428 -0.15297629 -0.16277532 -0.37315416 -0.07290728 0.1918665 0.21690583
0.15848549 -0.17018327 -0.18211178 0.20370914 0.16925617 -0.08278501 -0.0791198 -0.4862027
0.016217992 -0.14505541 0.31087503 -0.029973457 -0.7569229 0.78634036 0.24006599 -0.14094268
0.009258773 0.041062575 -0.2679287 0.16862863 0.18302815 -0.43588358 0.19203414 0.019618003
0.024828462 -0.026022796 0.58450216 0.5008584 0.1746846 0.6421113 0.69494736 0.07339236
0.030174254 0.41963503 0.4559179 -0.12551154 -0.15356955 0.04321523 -0.46234354 -0.0016772419
-0.13340051 -0.28372145 0.005171962 -0.17278108 -0.06537756 0.3295585 0.100114204 0.09374295
0.2983848 -0.15908399 0.020728668 0.058423113 0.09445138 0.4259886 0.26929033 -0.04505694
0.14498764 -0.18812686 -0.15910976 -0.05703386 0.38881564 0.10605172 -0.05518503 -0.15772086
-0.2752808 -0.35117963 -0.40133 0.24264471 -0.11012425 -0.7152703 -0.08899985 -0.11318208
0.495094 0.12428283 -0.149924 -0.15591645 -0.12902443 0.09704566 0.14728428 0.07927104
-0.68580186 0.21612136 0.20940602 0.49891898 -0.041356314 0.22730486 0.35978112 -0.18726066
0.20394377 0.12637942 -0.18692912 0.10622105 -0.67935884 0.037403796 -0.33697787 0.3707105
0.0052920585 -0.2997456 -0.12700936 -0.092207916 -0.0599683 0.13895324 0.13399018 -0.008107237
-0.070989124 -0.34120286 0.3631344 -0.11664301 -0.047133256 -0.85580474 -0.6444312 -0.42469135
-0.079481594 -0.37680885 0.37347415 0.29374614 -0.067687035 -0.0076180096 0.16793649 0.3039284
-0.32928678 -0.10314242 -0.15739675 0.034856837 -0.03670228 -0.11326874 -0.14749385 0.316409
-0.024708588 -0.12509464 -0.3957233 -0.20892964 -0.13619433 -0.29609942 0.30950958 0.06777387
-0.84845525 0.15622267 0.22434357 0.15172143 0.37798473 0.20124705 0.62839717 0.071013205
0.10345905 -0.22575785 -0.46105412 -0.13936268 0.33523256 -0.2717912 0.6633764 0.35236555
-0.19063027 -0.010273102 0.29042685 0.11038819 0.094356984 -0.06411962 -0.031505313 0.23685247
-0.27462748 -0.8188087 -0.031148773 -0.12990089 -0.17784102 0.13492768 -0.0069225566 -0.48548838
-0.064613074 0.49640658 0.40003675 0.07881249 -0.17973973 -0.2378191 -0.08708212 -0.11937176
-0.32220927 0.23899661 -0.5414745 0.18547505 0.00782865 0.014133321 0.055614296 0.008469792
-0.30112356 0.50655466 0.14519216 -0.23737548 -0.35436198 0.1776218 0.65673906 0.049342975
-0.07016991 0.09273833 0.06602075 0.19354963 0.22220132 0.061833564 -0.28652075 -0.13796754

actor_mean.0.bias f4 [64]
00000000: 0f9a 853c 1d67 afbc df4e 0b3d 83e6 aebd
00000010: 7c84 4ebc 6390 293c 8b3e d3bd 30d3 83bd
00000020: 3b71 4dbe 9970 ebbd de15 03be 04bb a3be
00000030: 3001 0b3e ed2a 45bd 6774 8e3c aa91 fa3d
00000040: 3410 1d3d 29e7 4d3e 9b63 bfbd ff7b 1fbe
00000050: fcbe 283d b7fd 5cbe 113a 8bbd 1a6d 17be
00000060: d7b7 0f3c 12a7 593d 6189 533e c755 59be
00000070: 1242 0abe 0da0 0d3e b4b9 3c3d efab 873d
00000080: bb2e 96be 3219 97bd fef1 9c3c c989 88bd
00000090: 0bda 6cbe 800d e3bc f86f ccbd 22b0 58ba
000000a0: e040 0d3e 35c0 b0bd f5bb 0c3d e385 8d3e
000000b0: c9fe 6bbd 6659 98bd fec5 f5bd 7483 1bbd
000000c0: 0a16 b9bc 1632 073d 896d a13d ca42 353d
000000d0: 305c 74bb 287d e6bc 6ccb 48be 8c2f 54bc
000000e0: 4414 ebbd 366e fcbb 2cbb 17bd c979 023e
000000f0: 5aaa b83d aa2d f43d 058b 83bd 591d 933e
0.016308812 -0.021411473 0.034010764 -0.0854006 -0.012604829 0.010349366 -0.103146635 -0.06436765
-0.20062725 -0.11496086 -0.1280131 -0.3197862 0.13574672 -0.04813664 0.01738949 0.122348145
0.03834553 0.20107712 -0.0934517 -0.15574645 0.041197762 -0.2158116 -0.06798185 -0.14787713
0.008771858 0.053137846 0.20657875 -0.21224128 -0.13501766 0.13830586 0.046075538 0.066245906
-0.29332528 -0.073778525 0.01915836 -0.066669054 -0.23130052 -0.027716398 -0.09982294 -0.0008265992
0.13794279 -0.086304106 0.034358937 0.2764121 -0.05761603 -0.074389264 -0.12000655 -0.03796716
-0.022593517 0.03300675 0.0788222 0.04425315 -0.0037286393 -0.028135851 -0.1960885 -0.012950789
-0.11478475 -0.007703568 -0.037043735 0.1274177 0.09016867 0.11922772 -0.06423 0.28733328

actor_mean.2.weight f4 [64, 64]
00000000: eb18 99be a33b 973e abe8 03be fa5a 8ebd
00000010: b86e c4bd 2289 91be b1f1 893d cd90 d3bc
00000020: 0960 9b3d 0ade 87be 1eba debd 7694 00bf
00000030: 0181 203e 2793 dfbe 5c9a 763e 1ca2 b83e
00000040: 2051 b93e 5c70 19be eb54 a4bd 1545 5cbe
00000050: d7b8 8fbe ee57 a53e 8ed2 79be 1a16 c4bd
00000060: 89eb 613e 6d33 203e 76b1 e43d ee5f 92be
00000070: 2a6d 10bd 51ad 48be ed77 7d3d 4aca cabd
00000080: 4e27 e8bd 1cc8 813e 4eb9 b8be 0283 9a3d
00000090: 2ace ae3c cd7b 80be bf8a a4bc e51d aa3e
000000a0: c6bc b23d 26bb 75be 2d0c b03e 4244 0fbe
000000b0: 4d76 e13e 1cb1 aabe 66d6 8e3e 9038 5ebe
000000c0: 61a8 e5bc 537d d3bd a0e1 47be 77b6 103f
000000d0: b54f 58be de73 90be 786b 5bbd 87ad 11be
000000e0: a3cd 6d3e ea6d 983e f5cf 723e 2134 513e
000000f0: 21ea d0be bde6 103d 1688 393e 1efe fcbe
00000100: 2353 b2bd 286e 8abe a059 12bd fc5b 2f3e
00000110: dfc2 443e bfa3 d63c 0c7e 84bc 18d8 7a3b
00000120: 23da 513d ec10 1bbe 3b46 03bc 9806 863c
00000130: 21f3 42be 6551 4dbe a59c 1a3e f879 efbc
00000140: df33 f0be 8d4c 61bd 40eb f4bd 12b1 b43e
00000150: 19b4 42be 858a 4ebc 6c70 413e 28fe 1fbe
00000160: af35 fcbc e5ee da3d dc24 873d c3ee a5bd
00000170: 8d3c 5ebd 401e 75be 5cb0 bdbd e039 e1bd
00000180: 41c0 d9bd 1f35 7bbe ec8c acbe b951 80be
00000190: b55b 133f 1110 9e3d 10bc 013f bb09 683e
000001a0: f4ec 0a3f a285 89bd c6c7 433c f3ad de3e
000001b0: c37e af3e 1894 4e3e 557b 053f b0f7 29be
000001c0: ef72 2bbe fc81 603e 54ae 853e 2bae 17bd
000001d0: 481d 113c a9ca e23e 6894 d13e 9da8 8abe
000001e0: f741 373e c9e4 c4bd b5c1 d13c 4385 023e
000001f0: 97ad 883d fdfe 0b3d 0bff 363c bd83 d6be
00000200: fb69 833b 5469 883e 644e efbd 34a7 0bbe
00000210: bf8c 9cbe e47b a33d d3d4 843d 6ea1 853e
00000220: f2ff cabe cab5 8abe 5489 debc 3b36 89bd
00000230: 8ca0 ad3e a79c a1bc 4c2c c3be 7990 10bf
00000240: 8c4b 0d3e 9ba3 82bd 81f9 b5be 5959 ee3d
00000250: c667 98bd e018 0abe 1905 91bd c29b e0be
00000260: 9303 2cbe 5e5b 3abd 542e 0abf 0979 903e
00000270: 77b8 2b3e 67cc ae3e b0ea 5a3e d992 033e
00000280: eb27 093e 553e 0bbf 9900 21be 791c bfbd
00000290: c4e4 d43e f0e1 383e 0f59 f6bd 9ca3 4dbe
000002a0: 4673 e2bd f8f4 1f3e f23c 443b fdd0 f33c
000002b0: d6fd d539 9b0b bcbd 1780 c93e 1440 e9bd
000002c0: 778b 623e ac24 0e3f 5577 ab3d ee2b c43d
000002d0: c56c abbd c856 a8be 0760 9abe 9282 d4be
000002e0: 4720 52bb 8c19 9cbd 5059 923d 4bca 4ebe
000002f0: 3706 d43e 9c69 d6bd 4b4a e9bd 4382 313e
00000300: 2448 863c 41b7 b5bd e7e4 95be 6d97 203e
00000310: 74b7 ec3e f8e9 93bc bc71 3ebe 1dce c3bc
00000320: 041b 353b c7cf 8f3c b8a3 bfbe 7a28 a1be
00000330: bdd6 463e 86a6 49bd 6a40 2cbe 2afb 3c3e
00000340: b765 a03c 3020 52be 2f29 823e f89d 02be
00000350: 74c5 f0bd b1e3 8c3c 33bc d1bc 40a7 e0be
00000360: 66b1 17bf 5adc dbbd 249d 9dbd 8bff 82bd
00000370: ab25 e5be cbc1 c5be e59d 85be 9617 253e
00000380: 669d c2bd b259 a9be 0174 b7bd b50d 4e3e
00000390: 7f1d 92be eecf 353e baf1 44bd 10b0 58bd
000003a0: 12be c2bd 159b d73d 3806 87be b2ec 30be
000003b0: 5a61 163f 3906 ffbe b650 9dbd ea27 063e
000003c0: c849 0bbe ff7f 61be 0079 023e 1363 063d
000003d0: b803 20be 176e 1bbc 0a33 2abe 2a55 3bbe
000003e0: 196b 3fbe facf 873e 1c10 693d c401 45be
000003f0: f4d7 35bd 042a e83c af61 04bf fc99 093e
-0.29901823 0.29537687 -0.12881725 -0.06950946 -0.095914304 -0.28424937 0.06735552 -0.025825882
0.075866766 -0.2653659 -0.10875343 -0.50226533 0.15674211 -0.43666956 0.24082321 0.3606118
0.36194706 -0.14984268 -0.08024009 -0.21510728 -0.2807071 0.32293648 -0.24396726 -0.09574528
0.22062506 0.15644617 0.111666605 -0.28588814 -0.035260357 -0.19597365 0.06188195 -0.09901865
-0.11335622 0.25347984 -0.36078876 0.07544519 0.021338541 -0.25094453 -0.02008569 0.33225933
0.08727412 -0.23997173 0.3438429 -0.13990882 0.4403557 -0.3333825 0.27897948 -0.21701264
-0.02803439 -0.10326638 -0.19519663 0.5652842 -0.21124156 -0.282134 -0.053569287 -0.14226352
0.23222975 0.29771358 0.23712142 0.20430042 -0.40803626 0.0353763 0.18118319 -0.49412626
-0.08707263 -0.27037168 -0.035730004 0.17124933 0.19214962 0.026201127 -0.016173385 0.0038275775
0.051233422 -0.15143174 -0.00801235 0.016360566 -0.19038059 -0.20050581 0.15098818 -0.029232964
-0.46914575 -0.055004645 -0.11958933 0.35291344 -0.19014014 -0.012606268 0.18890542 -0.15624297
-0.030787317 0.10690097 0.06598827 -0.08102181 -0.054256964 -0.2393732 -0.092621535 -0.10997367
-0.10632373 -0.24531983 -0.33701265 -0.2506235 0.5756181 0.07717908 0.50677586 0.22659962
0.5426781 -0.067149416 0.011949485 0.43492088 0.342764 0.20173681 0.52141315 -0.16598392
-0.16743062 0.21924585 0.26109564 -0.037031334 0.008857079 0.44295242 0.40933537 -0.27081767
0.17896257 -0.0961395 0.025605062 0.12746148 0.06673735 0.034178723 0.011169205 -0.41897383
0.0040104366 0.2664286 -0.11684874 -0.13638002 -0.3057613 0.07982615 0.064859055 0.26099724
-0.39648396 -0.2709182 -0.027165093 -0.06699797 0.3391155 -0.019728018 -0.38119733 -0.5647045
0.1379835 -0.063788615 -0.3554192 0.116381355 -0.07441668 -0.13486052 -0.070810504 -0.43868834
-0.16798238 -0.04549729 -0.5397694 0.28217342 0.16769587 0.34140322 0.21378589 0.12848987
0.13394134 -0.54391986 -0.15722884 -0.093316026 0.41580784 0.18054938 -0.12028705 -0.20081943
-0.11057143 0.15620792 0.0029943553 0.02976274 0.00040815648 -0.09181901 0.39355537 -0.11389175
0.22123514 0.55524707 0.0837237 0.095786914 -0.083703555 -0.3287871 -0.30151388 -0.41505867
-0.0032062696 -0.0762206 0.07145941 -0.20194356 0.41410992 -0.10469362 -0.113911234 0.17334847
0.016391821 -0.088728435 -0.292762 0.15682764 0.46233714 -0.018055901 -0.18598074 -0.023901993
0.002763451 0.01755513 -0.37429595 -0.31476194 0.19417854 -0.049231075 -0.16821447 0.18455186
0.019579751 -0.20520091 0.25422046 -0.12755573 -0.11756411 0.017198415 -0.025602436 -0.43877602
-0.59255064 -0.10735388 -0.07695988 -0.06396397 -0.447553 -0.38624415 -0.26097026 0.16122279
-0.095026776 -0.33076245 -0.08957673 0.20122416 -0.2853813 0.177551 -0.04808209 -0.05290228
-0.09508909 0.105276264 -0.26371932 -0.17277792 0.58742297 -0.49809435 -0.0768141 0.13101164
-0.13602364 -0.22021483 0.1274147 0.03280933 -0.15626419 -0.009486697 -0.16621032 -0.18294206
-0.18693198 0.2652586 0.05690013 -0.19238955 -0.044395402 0.028340347 -0.51711553 0.13437647

actor_mean.2.bias f4 [64]
00000000: a0f0 4e3e 4073 1ebd d075 213d b36e b93d
00000010: effa acbd cf4d 76bd d6ba f1bd 6b9c 6dbe
00000020: a614 133d af54 c1bc 7faa a7bd 45a4 013e
00000030: 839e 193c 414f 863d 4c31 ad3d b3e0 e63d
00000040: f971 693d 7f0e dbbd d11e 143d 8dd0 013d
00000050: 1f57 b3bb 8e40 28bb ad38 0c3e 7469 c23b
00000060: 843f 6ebe cfdb 9cbe affe 963e 75d7 953d
00000070: 09c3 4b3d 1685 183d b3bb 80bd a1ea 583e
00000080: 43ec 16bc f14f 69bc 3bfd 2abe 13b7 14bd
00000090: 7823 873d 3d76 0f3d 5a5e 82be 2903 623e
000000a0: a6d4 edbd 9985 8e3d d53d 8dbe 7048 f13d
000000b0: 2414 a8bd b84d 363e 5ebd debd 283f 193e
000000c0: b2af c53d 9e90 21bc 413e 40be 5f29 cabd
000000d0: ef2a 9bbd 95f8 fa3d 3bcc 423e 1232 d4bd
000000e0: edb7 b43d d29d 5cbd bf7f ae3d 5b19 553d
000000f0: 7723 c43c 3192 39be 7cfd bbbc c372 b1bc
0.20208979 -0.03868413 0.039418995 0.09054317 -0.08446299 -0.060132798 -0.11803214 -0.232042
0.035908364 -0.02359995 -0.081868164 0.1266032 0.009376171 0.06558085 0.08456668 0.11273327
0.05699346 -0.10696124 0.0361622 0.03169303 -0.005473032 -0.0025673243 0.13693495 0.005932981
-0.23266417 -0.3063645 0.29491183 0.07316486 0.049746547 0.037236296 -0.06285801 0.21183254
-0.009211603 -0.014240251 -0.16698162 -0.036307406 0.06598562 0.03502487 -0.2546261 0.22071518
-0.11612825 0.069590755 -0.27586237 0.117813945 -0.082069665 0.17803085 -0.10875963 0.14965498
0.09652652 -0.00986114 -0.18773748 -0.09871172 -0.07576548 0.122544445 0.1902322 -0.10361113
0.088241436 -0.053861447 0.085204594 0.052026134 0.023942692 -0.18122174 -0.02294802 -0.021661168

actor_mean.4.weight f4 [8, 64]
00000000: 2a9a b0bc 226b 093d 8064 a33d b084 a03c
00000010: b69a 64bd 621b 59bd 4d85 cbbc 1c1d c43c
00000020: e089 83bd 9cd1 1a3b 114e 873c ba48 4dbd
00000030: 42f1 383c e581 4bbe 305b 783d 19f8 f43d
00000040: e180 54bd 9114 043c 1aa5 54bd 694b f43c
00000050: 5b06 88bb fafd 89bd cf9d 0bbc 80e7 a93c
00000060: 4ee5 df3c add8 a1bd 6af6 1f3d 1d74 06be
00000070: 42a7 91bd dd29 30bd a735 ff3d d134 62bd
00000080: 26d4 00bd 3083 8b3d 7e1a 3e3d b695 bd3c
00000090: d7c7 7a3d 3028 14bd 311e 313d 1fe4 0ebe
000000a0: 10f6 cbbc 6018 c2bd 148a 0dbd 532d 9fbd
000000b0: 8aa1 0fbd bdcf 093e 0a34 983d 0881 a9bd
000000c0: 2e75 4d3d 403c 34bd 041c 65bc 79a4 cd3d
000000d0: eee0 133d 5741 c9bd 0e33 27be c780 4ebd
000000e0: 1552 b8bc bb07 15bd c795 09bd 9242 f53c
000000f0: cb45 3abc 0f82 81bd c5b6 b23d d97a 613b
00000100: 41d0 4b3e 72c8 05be b08d 8dbb 80ce 543d
00000110: bd3a a03d c592 8ebc 4515 8c3d c4dd 98bd
00000120: 53e4 b23c 4303 583d 0b31 5abd 66ad e73c
00000130: 825e 683d f4f6 87bd 4f57 893d a4b6 f63d
00000140: 0fce 023d 1551 953d 630d 873d 09b1 4f3d
00000150: 5f9e 7cbd fa8d f23d 503f 703c cd86 393d
00000160: 82d5 d23d d908 19bd b7d7 a1bd 3790 053b
00000170: 7eef 723d e8f2 52bd 8e86 55bd d0f5 14bd
00000180: 2a3e 193d 4e07 fabc 74ab cc3d ff08 8c3d
00000190: f4f4 09be d78a dbbd 017d debc a1b4 a03c
000001a0: 9b3c f6bd 576c e93b 5096 1a3e 1be6 5bbc
000001b0: 1357 f73c e24f a3bd f2e0 09bd ab63 19bd
000001c0: f76a ca3d 1952 9d3d 2e81 f63c 76a4 713c
000001d0: 74be 5e3b cfba b83d c122 f83d f638 ba3c
000001e0: c7d5 b13d e6d4 bebd 0cd2 25bd 55bc 3f3d
000001f0: d5a6 cc3d f2b7 803d 7a30 e8bc b6ff 9e3b
00000200: e690 553c 2f96 47bc 9ccc 223e d11d fbbd
00000210: b31b 09be 0015 93bc 371a cabd b43e fa3d
00000220: 1a1c c1bd ae8d 4c3d 092e 06bd bf07 91bd
00000230: 7afe e9bd 7584 e03c f723 bcbd be1f c53d
00000240: b401 bd3d ef5e 8ebd 78e3 d5bc 3510 7abd
00000250: 94c2 efbc 5bb6 e0bd af6b 49bd 06a1 0b3d
00000260: a6df 33bd b34b c2bc 100a 84bd 1fc6 6e3d
00000270: dab7 d4bd f4a6 dc3d 9acf babc ecaf 08bb
00000280: 4b04 99bd 4d81 8ebc 1f64 c5bd 98bb 69bd
00000290: fba5 393d 25b4 7a3c 037d ed3d 278c ba3d
000002a0: 260c 0fbc 5d69 d4bb ec00 52bd b7c9 5b3d
000002b0: 4ba5 73bd 09e5 9abd f39c b83d 256c c23d
000002c0: 4927 97bd 0e93 c03b 733c f1bd 54f3 d7bc
000002d0: 75d3 a0bd a8e7 d53d aad6 bf3c f316 fdbc
000002e0: 245b 743c 241e 0d3b 88c8 f8bc cd70 8cbd
000002f0: c3d0 a93b b023 ec3d b9cf 823d 289e 2d3d
00000300: 395a 0b3d 7727 ae3c cd0c b83d 874c 0cbd
00000310: 6d92 37bd 7318 e03d acdc 953c c5d3 92bc
00000320: b503 66bd 3042 adbd c7f9 c83b e77a 5c3d
00000330: 3f89 ee3d a1b2 403b 92f5 033c 60c2 9e3c
00000340: 6ad2 6b3c 6c37 a2bd 7c11 263c f451 a83d
00000350: 3f14 60bd fa83 e4bc 8e1e 213d 82f9 ca3b
00000360: 12d1 7dbd 96a2 fabc 05d4 9a3d d626 47bd
00000370: 010a 27bc 4544 3b3d cb46 f7bb b7e4 10be
00000380: f0bf bebd 547b e7bd 115b 62bd 439a c7bd
00000390: 85e1 523c 9e6b a03d 9132 fc3d 9919 213d
000003a0: c271 233d 690a 193d 98b6 163d ffab cebd
000003b0: 1611 5d3d fcf5 4d3d c2ee 1fbd 6533 f1bc
000003c0: ceb7 bfba 88ac 153d 4c7a 18bd a32d 89bd
000003d0: c444 26bb 4730 d2bc f457 903d b68d b9bd
000003e0: 6953 02bd 9f13 5e3d 64be 9bbd 7a1b ccbc
000003f0: eaed afba a0b7 abbc 60e3 823c c93a 163d
-0.021557886 0.033549435 0.07978153 0.01959452 -0.055811606 -0.05300463 -0.024843836 0.023939662
-0.06422782 0.0023623472 0.016516717 -0.050118186 0.011287989 -0.1987377 0.06063384 0.119613834
-0.05188072 0.008061544 -0.051915266 0.029821115 -0.0041511483 -0.06737895 -0.008521511 0.02074027
0.02733102 -0.07902656 0.03905336 -0.13130231 -0.0711198 -0.043008674 0.12461405 -0.05522615
-0.03145232 0.068121314 0.046411984 0.023142677 0.06122574 -0.03617114 0.043241683 -0.13954209
-0.024897605 -0.094773054 -0.03455551 -0.07772317 -0.035066165 0.13458152 0.07431801 -0.08276564
0.05016058 -0.04400277 -0.01398373 0.10041136 0.03610318 -0.09826916 -0.1632807 -0.05041578
-0.022500077 -0.036384325 -0.033590104 0.02993897 -0.011369179 -0.06323635 0.08726267 0.0034405498
0.19903661 -0.13064745 -0.004319869 0.051954746 0.078237034 -0.01740397 0.06839994 -0.074641734
0.02183739 0.052737486 -0.053269427 0.028280925 0.056730755 -0.066388994 0.06706106 0.12046555
0.031934794 0.07290856 0.0659435 0.050705943 -0.061674472 0.11843486 0.014663532 0.04529457
0.1029463 -0.037361953 -0.079024725 0.0020380148 0.05931043 -0.051501185 -0.052130274 -0.036367238
0.0374128 -0.030521061 0.099936396 0.06837653 -0.13472348 -0.10719841 -0.027159216 0.01961738
-0.12023278 0.007123511 0.15096402 -0.013421561 0.030192887 -0.07974221 -0.03366179 -0.037448566
0.09883683 0.076816745 0.030090895 0.014748683 0.003398803 0.09020006 0.12116004 0.02273224
0.08683353 -0.09317951 -0.04048352 0.046810467 0.09992758 0.06285085 -0.028343428 0.0048522605
0.013035035 -0.012181803 0.15898365 -0.122615464 -0.13389473 -0.01795435 -0.09868281 0.12218991
-0.09429188 0.049939804 -0.032758746 -0.070815556 -0.11425491 0.02740691 -0.09186547 0.09625195
0.092288405 -0.06951701 -0.026109442 -0.061050612 -0.029267587 -0.109722815 -0.04917496 0.03408911
-0.04391446 -0.023717737 -0.06447232 0.05829441 -0.103866294 0.10774031 -0.02280407 -0.002085681
-0.07471522 -0.01739564 -0.09638237 -0.05706367 0.045324307 0.015301739 0.1159611 0.09108763
-0.008730924 -0.006482287 -0.05127041 0.053659167 -0.059483808 -0.07563216 0.09014311 0.09493283
-0.0738054 0.0058769053 -0.11779108 -0.026361145 -0.07852832 0.104445755 0.02341779 -0.030894732
0.014914308 0.0021532858 -0.030369058 -0.068574525 0.005182357 0.11530244 0.06387276 0.042387158
0.03402159 0.021259053 0.089868166 -0.03425267 -0.044817377 0.10942163 0.018293701 -0.017923245
-0.05615588 -0.0845989 0.0061332914 0.053828146 0.11647271 0.0029403346 0.008054154 0.019379795
0.014393428 -0.07920727 0.010136005 0.08218756 -0.05470681 -0.027894963 0.03933578 0.0061942944
-0.061966963 -0.030595105 0.07559971 -0.04862102 -0.010195256 0.045719404 -0.007546281 -0.14149748
-0.09313953 -0.1130282 -0.05526263 -0.0974622 0.012871151 0.07833026 0.12314332 0.039331052
0.03990341 0.037363444 0.03679523 -0.100913994 0.053971373 0.050283417 -0.039046057 -0.029443452
-0.0014626922 0.03654149 -0.037226006 -0.06698158 -0.0025370577 -0.025657786 0.07048026 -0.09060232
-0.031817827 0.05421793 -0.076046735 -0.024915446 -0.0013422344 -0.020961583 0.015977561 0.036677156

actor_mean.4.bias f4 [8]
00000000: 8658 cdbc 4f58 893c 9f84 afbd 5970 26bd
00000010: a0fe 9b3d 18aa 833c 21ca 6abc 9d8c 47bd
-0.025066625 0.016765742 -0.08570217 -0.040634487 0.07616925 0.016072318 -0.014330418 -0.048718084
