DATA403_final/checkpoints/Ant-v4/PPO_480.pt (torch, 53950 bytes, 12 tensors)

actor_logstd f4 [1, 8]
0	0xc01f45f5	-2.4886448
1	0xc02097df	-2.5092695
2	0xc01cbcfa	-2.4490342
3	0xc01eea10	-2.483036
4	0xc0197143	-2.397538
5	0xc01c3196	-2.4405265
6	0xc013af26	-2.3075652
7	0xc015a964	-2.3384638

critic.0.weight f4 [64, 27]
0	0xbf4b2cc3	-0.79365176
1	0xbeea8d0b	-0.45810732
2	0x3e5a1ff1	0.21301247
3	0xbf87f07d	-1.0620266
4	0x3faabd3a	1.3338997
5	0xbed804fd	-0.42191306
6	0x3e3fe6bb	0.1874036
7	0xbe700ba0	-0.23441935
8	0xbf143067	-0.57886356
9	0xbda6a677	-0.081372194
10	0x3b8f2143	0.004367979
11	0xbe131416	-0.14363131
12	0x3e7b1c0e	0.24522421
13	0xbf0e2000	-0.5551758
14	0xbdb85826	-0.09001188
15	0xbdcfc3d4	-0.10144773
16	0x3d49a05a	0.04922519
17	0xbdb60b09	-0.088888235
18	0xbd13b993	-0.03606565
19	0xbccdc4c6	-0.025118243
20	0xbd8d31e4	-0.068942815
21	0xbc34c9fe	-0.011034487
22	0x3ce5fbdb	0.028074196
23	0x3d0bf843	0.034172308
24	0xbd553e95	-0.052061636
25	0xbb953a9d	-0.0045541064
26	0x3cf93e7d	0.030425305
27	0x3eb3377b	0.35003266
28	0x3fbfc9d7	1.4983472
29	0x3ffaf902	1.9607241
30	0x3e552e40	0.20818424
31	0x3f599615	0.8499463
32	0xbd19f7eb	-0.03758995
33	0xbe995da2	-0.2995425
34	0x3cbafb4a	0.022824902
35	0x3eab144b	0.3341392
36	0xbcca353e	-0.024683591
37	0x3e0c9332	0.13728026
38	0x3e8e8d08	0.27841973
39	0x3c9ff706	0.01952697
40	0x3c9266f5	0.01787136
41	0x3d81b601	0.063335426
42	0xbd85de5b	-0.065365516
43	0x3dad2711	0.08454717
44	0xbdfd2d1f	-0.12362122
45	0x3cfa4813	0.030551946
46	0x3d1d83e9	0.038455877
47	0xbc78c9dd	-0.015184847
48	0xbaaf2681	-0.0013362915
49	0x3b1396b1	0.002252024
50	0xbb803c0d	-0.0039134086
51	0xbc3f2ed5	-0.0116688805
52	0x3c32b0fd	0.010906455
53	0xbb319502	-0.0027096872
54	0x3fb2ce1c	1.396915
55	0x3f8783f2	1.0587142
56	0x3f0d53ea	0.5520617
57	0xbea64ecf	-0.32482
58	0xbf43dc98	-0.76508474
59	0x3e7649f7	0.24051653
60	0xbdcfe996	-0.10151975
61	0xbe33d918	-0.17563283
62	0xbc9fd87c	-0.019512407
63	0xbe4bd1c3	-0.19904236
64	0xbd8bbc45	-0.06823019
65	0x3dbbd6a8	0.09171802
66	0xbd20e575	-0.039281327
67	0xbee28f83	-0.44250116
68	0x3dc53aee	0.096303806
69	0x3e84a3f0	0.25906324
70	0x3d71293b	0.05887721
71	0x3d68b4f1	0.056813184
72	0x3dad1509	0.08451278
73	0x3c82cf77	0.015968068
74	0x3c97a951	0.018513354
75	0xbbec448c	-0.00721032
76	0x3cc5aef0	0.024131268
77	0x3c03df89	0.0080489
78	0xbcb04423	-0.021516865
79	0x3d2d4fe3	0.042312514
80	0x3d0410c4	0.03224255
81	0x3f405d54	0.7514241
82	0x3f136e1c	0.5758989
83	0x3d75839c	0.059939966
84	0xbf30551e	-0.6887988
85	0x3db95b2c	0.09050593
86	0xbd80d4f5	-0.06290618
87	0x3e5792e9	0.21052136
88	0xbe82b594	-0.25529158
89	0x3dac289e	0.084061846
90	0x3e0cb810	0.1374209
91	0x3c56c08a	0.013107428
92	0xbea99d01	-0.33127597
93	0x3e313826	0.17306575
94	0xbc81473b	-0.015781036
95	0x3ccae227	0.024766041
96	0xbe1c6b8e	-0.15275404
97	0xbc9970e9	-0.018730598
98	0xbd70a135	-0.05874749
99	0x3d34b53f	0.044118162
100	0x3be449dd	0.006966813
101	0xbc0f2708	-0.008737333
102	0xbd07b9c1	-0.033136133
103	0x3c7c1d3e	0.015387831
104	0x3d2e7b1a	0.042597868
105	0x3cba75cd	0.02276125
106	0xbcbb7dc0	-0.02288711
107	0xbda3bb85	-0.07994751
108	0xbf002685	-0.50058776
109	0xbe248736	-0.16067204
110	0x3e0dd229	0.13849701
111	0xc0112d8d	-2.2684052
112	0x3f5514a5	0.83234626
113	0xbdfc2ab1	-0.1231283
114	0xbdb82c52	-0.089928284
115	0x3dab48d2	0.08363499
116	0xbe8c813c	-0.27442348
117	0xbe2d7627	-0.16939603
118	0xbf035e69	-0.51315933
119	0x3d301d88	0.042996913
120	0xbdafbcaa	-0.08580907
121	0x3e5ab43d	0.21357818
122	0xbe078d30	-0.13237453
123	0x3ce370f2	0.027763817
124	0xbdb1d222	-0.08682658
125	0xbf0a78da	-0.54090655
126	0x3e2dc86a	0.16970983
127	0xbbebbc65	-0.0071940892
128	0xbdb6d06c	-0.08926472
129	0x3a828be6	0.0009959906
130	0xbd6f04c5	-0.058354158
131	0x3bf4713f	0.007459789
132	0xbbaa53f9	-0.0051979986
133	0x3d17bbf1	0.03704447
134	0xbdbe671d	-0.09297011
135	0xbee312ca	-0.44350272
136	0xbee486d4	-0.44634116
137	0x40261610	2.5950966
138	0x3df2024e	0.11816846
139	0x3f1db154	0.61598706
140	0xbeceda30	-0.4040084
141	0xbed09917	-0.40741798
142	0x3cb5489c	0.02212935
143	0xbdddc16f	-0.1082791
144	0xbe3feee6	-0.18743476
145	0xbdc08d2b	-0.09401926
146	0x3eecd30b	0.46254763
147	0x3c8a6cb8	0.016897544
148	0x3c917331	0.017755123
149	0xba36a4c6	-0.0006967302
150	0xbcb815af	-0.022471277
151	0xbe10051a	-0.14064446
152	0x3c4d26c6	0.012521451
153	0xbd474044	-0.048645273
154	0xbcbb0db9	-0.022833692
155	0x3d0bbd8b	0.03411631
156	0x3d3ccaa4	0.04609169
157	0xbce471c0	-0.027886271
158	0xbb89ef06	-0.004209402
159	0xbd5eb8b6	-0.054375373
160	0x3c5c3b77	0.013441912
161	0xbd046b70	-0.032329023
162	0x3e9d5bac	0.30734003
163	0x3f84b01c	1.0366244
164	0xbf8a6f2c	-1.0815177
165	0x3f3ac78d	0.7296074
166	0x3ded31fd	0.115818
167	0xbe657330	-0.22407222
168	0x3dd1a041	0.10235644
169	0xbd7dcfcd	-0.061965752
170	0x3e038a89	0.12845816
171	0x3e7ad654	0.24495822
172	0x3e44d1e3	0.1922069
173	0x3d243f42	0.04009939
174	0x3e283598	0.16426694
175	0x3e897e99	0.268544
176	0x3e0379e7	0.12839471
177	0x3dd9e18d	0.106387235
178	0xbc3edde8	-0.011649586
179	0xbe795ca9	-0.24351753
180	0x3c8c0b54	0.017095245
181	0x3c5e707a	0.013576621
182	0xbd138c9c	-0.036022767
183	0x3b033d7f	0.0020025668
184	0xbd247030	-0.040146053
185	0x3cdc4664	0.026889034
186	0xbd08ee5c	-0.033430442
187	0x3d0c88a7	0.03431001
188	0xbbae09ad	-0.005311212
189	0xbe5e029e	-0.21680686
190	0x3cde38b4	0.027126648
191	0xbd9bdcde	-0.076104864
192	0x3ee4a088	0.44653726
193	0x3f73b33c	0.95195365
194	0x3e229f86	0.15881166
195	0xbe1dda55	-0.15415318
196	0xbf2b0024	-0.6679709
197	0xbee2ba23	-0.44282636
198	0x3eead668	0.45866704
199	0x3d8ec3fc	0.06970975
200	0x3d41156a	0.047139563
201	0xbd840d0a	-0.064477995
202	0x3ee2eecf	0.44322821
203	0xbe6293a8	-0.22126639
204	0x3e9290df	0.28626153
205	0xbd3466ab	-0.044043224
206	0x3e17c19b	0.14819948
207	0xbe000b32	-0.1250427
208	0xbda65f41	-0.08123637
209	0xbd74a8da	-0.059731342
210	0xbc9fbe71	-0.01949999
211	0xbd5ca7af	-0.053870853
212	0xbc565993	-0.01308288
213	0xbcaa25af	-0.020769922
214	0xbd4f6761	-0.0506357
215	0xbe36b8d0	-0.17843938
216	0x3fc22b1f	1.516941
217	0x3d27d6c8	0.040976316
218	0xbe991f4e	-0.29906696
219	0xbf168b10	-0.5880594
220	0x3e54a7bc	0.2076711
221	0x3ec5f6d1	0.38664868
222	0x3e5c47d2	0.21511772
223	0xbe70837e	-0.2348766
224	0xbefc3164	-0.49256432
225	0xbd9a56c7	-0.07536083
226	0xbeafc7a7	-0.3433201
227	0xb906a2a5	-0.00012839826
228	0xbd557e59	-0.052122448
229	0x3d9da9bd	0.07698391
230	0xbd81b618	-0.0633356
231	0xbea07358	-0.31338
232	0xbdfde89d	-0.12397883
233	0x3e404cf5	0.18779357
234	0xbe3585b2	-0.17726782
235	0xbcbd682d	-0.023120964
236	0xbcbd0a48	-0.023076192
237	0xbca0b7ec	-0.01961895
238	0xbcbae9b9	-0.022816526
239	0xbd056ffa	-0.032577492
240	0xbcbe54b8	-0.023233756
241	0x3b20e399	0.0024549721
242	0xbbfc38d7	-0.0076972055
243	0x3f3fca6d	0.7491825
244	0x3f43c158	0.76466894
245	0xbeb27e2a	-0.3486188
246	0x3e2d734f	0.16938518
247	0xbf522dbb	-0.8210103
248	0xbef5b481	-0.47989276
249	0x3f0954b7	0.5364489
250	0xbd36e42f	-0.044651207
251	0xbefce2ec	-0.49391878
252	0xbe4d625e	-0.20057055
253	0xbeeb2bdc	-0.459319
254	0xbf87cf55	-1.0610148
255	0x3f40813c	0.75197196

critic.0.bias f4 [64]
0	0x3ec89103	0.39173135
1	0xbe9d6ce7	-0.30747148
2	0xbf72dca9	-0.9486795
3	0xbf8530df	-1.0405539
4	0x3d4dd674	0.050253347
5	0x3f2eace3	0.68232554
6	0xbf4f314f	-0.80934614
7	0xbf06be40	-0.5263405
8	0x3df22fe7	0.11825543
9	0x3f3c5985	0.73574096
10	0xbea02783	-0.31280145
11	0x3f10f47f	0.5662307
12	0xbe2ee08a	-0.17077842
13	0x3f63383d	0.8875769
14	0x3f382167	0.7192597
15	0xbf0e7e64	-0.55661607
16	0xbf41cb91	-0.7570124
17	0xbddbd520	-0.1073401
18	0x3e4ab225	0.19794519
19	0xbe887a38	-0.26655746
20	0xbdf96438	-0.12177318
21	0x3c9bc2ca	0.019013781
22	0x3f927ea5	1.1444899
23	0x3f05a5ef	0.5220632
24	0xbea217fa	-0.31658918
25	0xbf7999b7	-0.97500175
26	0xbfad9167	-1.3559998
27	0x3f9ec0f2	1.2402632
28	0x3f215821	0.630251
29	0x3eb8c4f7	0.36087772
30	0xbf0a5a69	-0.54044205
31	0xbf3d70ed	-0.74000436
32	0xbe76a1e7	-0.24085198
33	0x3f12e32f	0.57377905
34	0xbea68a64	-0.3252746
35	0xbdee63ce	-0.1164013
36	0x3e767273	0.24067096
37	0xbefbc6aa	-0.49175006
38	0xbee2c44b	-0.44290385
39	0x3de6cbf7	0.11269372
40	0xbed12e7e	-0.40855783
41	0xbf368e14	-0.71310544
42	0xbf64e07b	-0.8940503
43	0x3ee861a2	0.45386988
44	0x3f6e628b	0.93119115
45	0xbf096a96	-0.5367826
46	0xbf2e97fc	-0.6820066
47	0x3f23fdb0	0.6405897
48	0x3d304444	0.043033853
49	0xbe633870	-0.22189498
50	0xbf026711	-0.50938517
51	0xbeced2f1	-0.4039531
52	0x3f043b61	0.51653105
53	0xbf7d939b	-0.99053353
54	0x3f76ec60	0.9645443
55	0xbf5180bf	-0.81837076
56	0xbea76e0e	-0.32701153
57	0x3f17fe68	0.5937257
58	0x3f79f6a9	0.97642
59	0xbe8a44cc	-0.27005613
60	0x3f10f083	0.5661699
61	0x3f0c7a6e	0.5487431
62	0xbe3bd938	-0.18344581
63	0xbea29580	-0.31754684

critic.2.weight f4 [64, 64]
0	0x3e1f819a	0.15576783
1	0xbde700c4	-0.11279443
2	0x3f1a22af	0.6020917
3	0x3f0bda9e	0.5463046
4	0xbdd52962	-0.10408284
5	0xbec739ad	-0.3891119
6	0x3f0b1ea9	0.5434366
7	0xbce99d30	-0.028517336
8	0x3d153d29	0.03643528
9	0xbec73bb4	-0.38912737
10	0xbeb815db	-0.35954174
11	0x3d5c79a2	0.053826936
12	0xbe4b0f25	-0.19829996
13	0xbe75ab3e	-0.23991105
14	0x3da10862	0.07862927
15	0x3b9c79df	0.0047752704
16	0x3ee9d08e	0.45666927
17	0x3d9f48ae	0.077775344
18	0x3e80eb20	0.25179386
19	0xbd808751	-0.062758096
20	0x3ed35b6b	0.41280684
21	0x3ba57c81	0.0050502424
22	0xbf532bd0	-0.8248873
23	0xbe8823f9	-0.26589945
24	0xbe07406c	-0.13208169
25	0x3ea19567	0.31559297
26	0x3f5c2398	0.8599181
27	0xbfa1cc00	-1.2640381
28	0xbe2c3332	-0.16816404
29	0xbed14ef4	-0.4088055
30	0x3df10f06	0.117704436
31	0x3f21ff89	0.6328054
32	0x3d7dc83a	0.06195853
33	0xbf168300	-0.5879364
34	0xbe2f5cb7	-0.17125212
35	0xbdee6df9	-0.11642069
36	0x3e1c2e2c	0.15251988
37	0x3c10d047	0.00883872
38	0x3e924648	0.28569245
39	0xbe9f94e4	-0.31168282
40	0x3eaee8c5	0.34161964
41	0x3fb33bf6	1.4002674
42	0xbe2f6dc9	-0.17131723
43	0x3e317a37	0.17331778
44	0xbeefbf79	-0.4682577
45	0x3ea1579c	0.31512153
46	0xbe3d80e2	-0.18506196
47	0x3e588c64	0.21147305
48	0x3ea3fe17	0.32029793
49	0xbece9657	-0.40349075
50	0xbdedf131	-0.11618269
51	0x3eb06bc9	0.34457234
52	0xbe8df4da	-0.2772587
53	0x3ed1e58e	0.4099545
54	0xbf402e64	-0.75070786
55	0xbd80730d	-0.06271944
56	0x3f14e910	0.58168125
57	0x3eb85a37	0.36006328
58	0xbdd75bd8	-0.10515565
59	0xbe39b90c	-0.18136996
60	0xbde8d7fa	-0.11369319
61	0xbec825e0	-0.39091396
62	0xbea05355	-0.31313577
63	0x3f2ea573	0.68221205
64	0xbeb8fcae	-0.3613028
65	0xbf21abfb	-0.63153046
66	0xbf1d153d	-0.6136053
67	0xbf35db3b	-0.71037644
68	0xbd0b373f	-0.033988234
69	0xbe1d61dd	-0.15369363
70	0x3ee1631f	0.44020936
71	0x3d23b087	0.03996327
72	0xbe17b769	-0.14816059
73	0x3e435d4b	0.19078557
74	0x3ebfbc08	0.37448144
75	0xbe34e3eb	-0.17665069
76	0xbf27bd75	-0.65523463
77	0x3ee6bf58	0.4506786
78	0xbcad5381	-0.021157982
79	0x3e4ded2c	0.20110005
80	0xbe69f357	-0.22846733
81	0x3e28b444	0.16475016
82	0x3d97ff0c	0.07421693
83	0xbe1eb5de	-0.15499064
84	0xbea0d377	-0.31411335
85	0xbdd2a27f	-0.102849
86	0x3f105728	0.5638299
87	0xbebc33bd	-0.36758223
88	0x3f02a58d	0.5103386
89	0xbd237ad2	-0.039912052
90	0xbeb7c0ee	-0.3588938
91	0x3fcd169d	1.6022526
92	0x3d8bc204	0.06824115
93	0xbe8218bc	-0.25409496
94	0xbdf6603e	-0.120300755
95	0xbe4d25f9	-0.20034017
96	0x3e3a2255	0.18177159
97	0x3f1dfa8d	0.61710435
98	0x3f214de1	0.6300946
99	0xbe026502	-0.12733844
100	0xbd3222a3	-0.043490063
101	0x3f01cc78	0.5070262
102	0xbe552a02	-0.20816806
103	0x3da22d7c	0.07918832
104	0x3ccec955	0.025242487
105	0xbf95beac	-1.1698813
106	0xbf244d44	-0.641804
107	0x3d87a8bc	0.066239804
108	0x3ee5cfa6	0.44884986
109	0xbeb2ac49	-0.34897068
110	0xbf279d9b	-0.6547486
111	0xbd075474	-0.033039525
112	0x3e21921e	0.15778396
113	0xbe2cb662	-0.16866449
114	0x3dac5c26	0.084160134
115	0xbf1b4963	-0.60658854
116	0x3e2b1c78	0.16710079
117	0xbf4c32b5	-0.7976487
118	0x3f1cf078	0.61304426
119	0xbea56101	-0.3230057
120	0x3d8e6f58	0.06954831
121	0xbddc28f7	-0.10750001
122	0x3e502fc6	0.20330724
123	0x3d0ea50e	0.034825377
124	0x3cd5b0f5	0.026085356
125	0xbda54898	-0.08070487
126	0x3d979af4	0.07402602
127	0xbea185d6	-0.3154742
128	0x3e5fe741	0.2186556
129	0x3ebfafde	0.37438864
130	0xbf68155d	-0.906576
131	0xbf11d399	-0.569635
132	0x3e3096e0	0.17245054
133	0x3df86267	0.12128144
134	0xbe57aad0	-0.21061254
135	0x3d157bff	0.036495205
136	0xbee9b22e	-0.45643753
137	0x3f1e4a79	0.61832386
138	0xbe088e74	-0.13335592
139	0x3eebfa1b	0.46089253
140	0xbe0bef91	-0.13665606
141	0x3f1b4f37	0.6066775
142	0xbc0eb79c	-0.008710768
143	0xbd663753	-0.056205105
144	0xbed6e61a	-0.4197243
145	0xbe829bbe	-0.25509447
146	0xbe4e4d03	-0.20146565
147	0x3da62992	0.08113398
148	0xbe064ae8	-0.13114512
149	0x3debcc53	0.11513581
150	0x3f61fdbe	0.88277805
151	0xbe20808f	-0.15674041
152	0xbeef202d	-0.46704236
153	0xbf22d073	-0.6359932
154	0xbeb1bd50	-0.34714746
155	0x40189c1f	2.3845289
156	0x3e8fd28e	0.28090328
157	0x3e5a5ecf	0.21325229
158	0xbdf55627	-0.11979323
159	0xbf2c86ef	-0.6739339
160	0xbda06d27	-0.07833319
161	0x3f64069f	0.89072603
162	0xbc208fd5	-0.009799917
163	0x3dbe7aa9	0.09300739
164	0x3e61e441	0.22059728
165	0xbe5fdc50	-0.21861386
166	0xbe886969	-0.26642922
167	0x3e1068c0	0.14102459
168	0xbee4bb56	-0.44674176
169	0xbf95193b	-1.1648325
170	0xbeabf6bf	-0.3358669
171	0x3c2b811e	0.010467796
172	0x3e9730da	0.29529458
173	0xbef707f0	-0.48248243
174	0xbf0a825c	-0.5410516
175	0x3eddb144	0.43299305
176	0xbe32df9d	-0.17468114
177	0xbe639476	-0.22224602
178	0xbd83a69a	-0.06428261
179	0xbdbe5b61	-0.09294773
180	0x3ded60b7	0.115907125
181	0xbfa910ae	-1.3208215
182	0x3f8e700e	1.1127946
183	0xbc7b8121	-0.015350611
184	0xbe76d95f	-0.24106358
185	0x3e25ea9d	0.16202779
186	0x3ddb30eb	0.1070269
187	0xbe7c373d	-0.24630447
188	0x3db87c9e	0.09008144
189	0x3f3ddc18	0.7416396
190	0x3e736be8	0.23771632
191	0x3d623dc1	0.055234674
192	0x3c426561	0.011864991
193	0x3e92994c	0.2863258
194	0x3f31481b	0.6925065
195	0x3e522846	0.20523176
196	0xbef6a413	-0.48172054
197	0xbe6a6281	-0.22889139
198	0x3ef53554	0.4789225
199	0x3e094fc4	0.13409334
200	0x3d99e915	0.0751516
201	0xbec07dbe	-0.37595934
202	0x3dec2cb2	0.115319625
203	0xbea6e7e9	-0.32598808
204	0x3e82c214	0.25538695
205	0xbf03db40	-0.51506424
206	0x3c79c5f5	0.015244951
207	0x3ce09a84	0.027417429
208	0x3f5ffacb	0.87492055
209	0x3da5676e	0.08076368
210	0x3f00225d	0.50052434
211	0xbe0201f7	-0.12696062
212	0x3eac1d32	0.33616024
213	0xbe1d4a20	-0.15360308
214	0xbf58230a	-0.84428465
215	0x3d9df66f	0.07713019
216	0x3eac9bf8	0.33712745
217	0x3eb8d004	0.36096203
218	0x3eca10ee	0.3946604
219	0xc0039640	-2.0560455
220	0xbe964171	-0.29346803
221	0xbbb6e39c	-0.0055813324
222	0x3e9ce61c	0.3064431
223	0x3f3e9a5f	0.744543
224	0xbd6a8adf	-0.057261344
225	0xbf8d020d	-1.1016251
226	0x3e9349d6	0.2876727
227	0xbe7c6fcb	-0.2465202
228	0xbeb01382	-0.34389883
229	0x3e1300a8	0.14355719
230	0x3d35cb97	0.04438361
231	0xbe3e909d	-0.18609853
232	0x3e9f5bb2	0.31124645
233	0x3f380cdf	0.7189464
234	0x3ec99152	0.39368683
235	0xbddc48df	-0.107560866
236	0xbdfd87b6	-0.123794004
237	0x3ea26308	0.3171618
238	0x3f3cf961	0.7381802
239	0xbea15684	-0.3151132
240	0xbea1db6c	-0.31612718
241	0xbd83e25c	-0.06439659
242	0x3c973c36	0.018461328
243	0x3dee2058	0.11627263
244	0x3da7b171	0.08188141
245	0x3f855ed3	1.0419563
246	0xbf6cd76b	-0.925162
247	0xbdf0bc9b	-0.11754724
248	0xbce46557	-0.027880354
249	0xbdc7ec8d	-0.09761915
250	0xbe72539b	-0.23664705
251	0xbd5f66aa	-0.054541267
252	0x3ddf11f3	0.108920954
253	0xbed516e3	-0.41619024
254	0xbdd899ed	-0.10576234
255	0xbe64e9f7	-0.22354876

critic.2.bias f4 [64]
0	0xbe1c9e3a	-0.15294734
1	0x3d1403ee	0.03613656
2	0x3e987227	0.2977459
3	0xbe4845fa	-0.19557944
4	0x3e043d22	0.12913945
5	0x3edb233c	0.4280032
6	0xbed9b43e	-0.42520326
7	0x3e57104c	0.2100231
8	0xbe0444d1	-0.12916876
9	0x3e1aaf30	0.15105891
10	0xbdfb5c96	-0.12273519
11	0x3e6d9a90	0.23203492
12	0x3e75f169	0.24017872
13	0xbdba0f16	-0.09084909
14	0xbe4e0a39	-0.20121087
15	0xbdca8ae9	-0.09889776
16	0xbe53fd11	-0.20702006
17	0xbd8f41aa	-0.06994946
18	0xbe2b75b2	-0.16744116
19	0x3e770657	0.24123512
20	0x3e3fce6b	0.18731086
21	0x3e88b901	0.26703647
22	0xbe328208	-0.17432415
23	0xbe3a8c99	-0.18217696
24	0x3e6d394b	0.23166387
25	0xbd231298	-0.039812654
26	0x3e799ab8	0.24375427
27	0x3eb84b40	0.3599491
28	0x3e885d03	0.26633462
29	0xbed8f49e	-0.42374128
30	0x3ed47991	0.41498998
31	0x3c9ecf3c	0.019385926
32	0x3e999811	0.2999883
33	0x3e606e0f	0.21916984
34	0x3ea1a7bc	0.31573284
35	0x3e023424	0.12715203
36	0x3e8f3e30	0.27977133
37	0x3ad3cc6e	0.0016158947
38	0xbd8947c8	-0.06703144
39	0xbd9741cf	-0.07385599
40	0xbd86ac44	-0.06575826
41	0xbe70a7a3	-0.23501448
42	0x3eb3659e	0.35038465
43	0x3e26dec3	0.16295914
44	0x3e7f9a12	0.24961117
45	0xbeb3e184	-0.35132992
46	0xbd437abc	-0.04772447
47	0x3e3b3abf	0.18284129
48	0x3d2342c6	0.039858602
49	0x3e77c630	0.24196696
50	0xbd186c3c	-0.037212595
51	0xbea6aa17	-0.32551643
52	0x3ea2d08b	0.3179973
53	0x3d2bc6d9	0.041937683
54	0x3d7e7b8b	0.06212954
55	0xbd1ae317	-0.037814226
56	0xbe3ec909	-0.18631376
57	0x3e28985f	0.16464375
58	0x3d81f530	0.06345594
59	0x3ed10335	0.4082276
60	0x3e7d3093	0.24725561
61	0x3ec7bd56	0.3901164
62	0x3c758f2f	0.014987751
63	0xbd147dd9	-0.03625283

critic.4.weight f4 [1, 64]
0	0xc00a22c7	-2.1583726
1	0x40137bb8	2.3044262
2	0x402bea4b	2.686175
3	0xc01080b8	-2.2578564
4	0x3faf8dea	1.3715184
5	0x400dd109	2.2158835
6	0xbfeb5de4	-1.8388028
7	0x40269b6b	2.603236
8	0xbfdc0ed4	-1.7192025
9	0x3fe79988	1.8093729
10	0xbff10612	-1.8829978
11	0x4005dad3	2.091481
12	0x40254c82	2.5827947
13	0x3fcf4bd9	1.6195022
14	0x3fc45e30	1.5341244
15	0xbfba425a	-1.4551499
16	0xbfff9df7	-1.9970082
17	0x3fe67f83	1.8007663
18	0xbff89cfd	-1.9422909
19	0x401645bc	2.3480062
20	0xbfc16924	-1.5110211
21	0xbfd2ce3e	-1.646919
22	0xbfd1ee39	-1.6400825
23	0xbfe60878	-1.7971334
24	0x400412a8	2.0636387
25	0xbfd2e7f1	-1.6477033
26	0x3ff0b3e5	1.88049
27	0x4015bd20	2.3396683
28	0x40256e17	2.5848444
29	0xbfebbae6	-1.8416412
30	0x3fce3ce5	1.6112334
31	0x3fa79ff5	1.309569
32	0x40075cdd	2.115043
33	0x3ffb4ec3	1.9633411
34	0x4004b29b	2.0734012
35	0x3f925232	1.1431334
36	0x4016f225	2.3585293
37	0x3fe78749	1.8088161
38	0x3fee6ebc	1.8627543
39	0x3fd1d1b6	1.6392124
40	0x3fda5b76	1.7059162
41	0xbfc85107	-1.5649728
42	0x3fec86f0	1.847868
43	0x3fe5e2a8	1.7959795
44	0x3fd7aeb2	1.6850188
45	0x3fe3da61	1.7801019
46	0xbfc8fc3c	-1.5701976
47	0x4016608f	2.3496435
48	0x400674fa	2.1008897
49	0x3fd1973c	1.6374278
50	0x3fe6723e	1.8003614
51	0xc00e9599	-2.2278807
52	0x3fb8ca61	1.4436761
53	0x401ae48e	2.4201999
54	0xbfda4538	-1.7052374
55	0xbff658cf	-1.9245852
56	0xbfe7e24c	-1.8115935
57	0x4000cc74	2.0124788
58	0x3fddeb0a	1.7337353
59	0x402a91a1	2.6651385
60	0x40121a71	2.2828639
61	0x40092361	2.1427844
62	0xbfc08857	-1.5041608
63	0xbfe58ae1	-1.7933007

actor_mean.0.weight f4 [64, 27]
0	0x3e9641da	0.29347116
1	0x3e662c00	0.22477722
2	0xbcadd99c	-0.021221928
3	0xbea6f170	-0.32606077
4	0x3e84be00	0.25926208
5	0xbe4f3fac	-0.20239133
6	0x3ef45c70	0.47726774
7	0x3e61177a	0.21981612
8	0xbe3da392	-0.18519428
9	0x3e250b02	0.1611748
10	0x3d6ea2b0	0.05826062
11	0x3ef058f6	0.46942872
12	0xbdb3de59	-0.08782644
13	0x3e156fc1	0.14593412
14	0xbf4fd034	-0.8117707
15	0xbe8af2b8	-0.27138305
16	0x3f0d1a75	0.55118495
17	0xbe8ac681	-0.2710457
18	0x3e27acf6	0.16374573
19	0x3e1de6d4	0.15420085
20	0x3e458863	0.19290309
21	0x3d901451	0.07035125
22	0xbe0603ef	-0.13087438
23	0x3e9e9b49	0.30977848
24	0x3df9574f	0.12174856
25	0xbe819d24	-0.253152
26	0x3e3b7cb7	0.18309294
27	0xbf064282	-0.5244523
28	0x3cf4d8c0	0.02988851
29	0xbd3b2321	-0.0456878
30	0x3eacffd0	0.3378892
31	0x3dc21985	0.09477524
32	0x3e12daaf	0.14341234
33	0x3e11e913	0.14249067
34	0x3e26479e	0.16238257
35	0x3d8a768d	0.06760893
36	0x3f11306e	0.5671452
37	0x3d71102b	0.05885331
38	0x3cdf38e0	0.0272488
39	0x3b0e0035	0.0021667604
40	0x3ef4907c	0.47766483
41	0xbeba940c	-0.36441076
42	0xbe0db320	-0.13837862
43	0x3dce704f	0.10080015
44	0x3ed49a0b	0.41523775
45	0xbddb1e9c	-0.10699198
46	0x3d685c0b	0.056728404
47	0xbd63a848	-0.055580407
48	0x3eb17aad	0.34663907
49	0x3ef22b85	0.47298828
50	0xbe198156	-0.14990744
51	0xbe141649	-0.14461626
52	0xbeb6e9ac	-0.35725152
53	0xbdf43a8d	-0.1192523
54	0x3e2c7312	0.16840771
55	0x3e452d72	0.19255617
56	0x3e22f270	0.15912795
57	0xbe393300	-0.18085861
58	0xbe397760	-0.18111944
59	0x3e257403	0.16157536
60	0x3e19e741	0.15029623
61	0xbe27af1f	-0.16375397
62	0xbd64bc3d	-0.05584358
63	0xbee17249	-0.44032505
64	0x3d701064	0.05860938
65	0xbd8aff9b	-0.06787034
66	0x3eaf6396	0.34255666
67	0xbd4c1531	-0.049824897
68	0xbf47a1c1	-0.7798119
69	0x3f57917a	0.84206355
70	0x3e50526b	0.2034394
71	0xbdc09095	-0.09402577
72	0x3c443811	0.011976258
73	0x3d1c2d46	0.038129114
74	0xbe86b570	-0.263103
75	0x3e35a097	0.17737041
76	0x3e591f5a	0.21203366
77	0xbecd19d6	-0.40058774
78	0x3e51de02	0.20494846
79	0xbbf338ac	-0.0074225273
80	0x3c0718be	0.008245645
81	0xbcaedfa9	-0.021346884
82	0x3f198bf5	0.5997918
83	0x3f0854ff	0.53254694
84	0x3e3fcb26	0.18729839
85	0x3f21f25b	0.6326043
86	0x3f46f9fc	0.77725196
87	0x3d985a94	0.074391514
88	0x3c1ea647	0.009683198
89	0x3edc7625	0.43058887
90	0x3ee06a48	0.43831086
91	0xbdf0b7e2	-0.11753823
92	0xbe31aa0a	-0.17350021
93	0x3d44bf76	0.048034154
94	0xbeea46e3	-0.45757207
95	0x3ce6ab24	0.028157778
96	0xbe489c73	-0.1959093
97	0xbe8c5ee7	-0.27416155
98	0x3d89c69d	0.067273356
99	0xbe2200da	-0.15820637
100	0xbd9d9dc0	-0.07696104
101	0x3ea9ebe0	0.3318777
102	0x3dd24965	0.10267905
103	0x3d886a35	0.066608824
104	0x3e8f4942	0.2798558
105	0xbe2a1bf3	-0.16612224
106	0x3d19153c	0.037373766
107	0x3d8db35e	0.06918977
108	0x3da674b0	0.08127725
109	0x3edee409	0.43533352
110	0x3e7fdfa6	0.24987659
111	0xbdb76847	-0.08955436
112	0x3df2ae9e	0.11849712
113	0xbe3d18cc	-0.1846649
114	0xbe427053	-0.18988161
115	0xbdbc2109	-0.091859885
116	0x3ed14ee4	0.408805
117	0x3dd44a2b	0.10365709
118	0xbd87f87f	-0.06639194
119	0xbe115597	-0.14192806
120	0xbe9127ba	-0.2835062
121	0xbeaaa9d7	-0.33332703
122	0xbecfbf5f	-0.40575692
123	0x3e5cf991	0.21579577
124	0xbdf7d177	-0.12100499
125	0xbf36d056	-0.71411645
126	0xbd86fdcb	-0.06591376
127	0xbdd6b0af	-0.104829185
128	0x3f0bbdc6	0.54586446
129	0x3dd13693	0.10215487
130	0xbe17cf9a	-0.14825287
131	0xbe2253f0	-0.15852332
132	0xbe1a58ac	-0.15072888
133	0x3db26eb7	0.087125234
134	0x3e030463	0.12794642
135	0x3dc7504d	0.09732113
136	0xbf2efa33	-0.68350524
137	0x3e531bee	0.20616123
138	0x3e8650b0	0.26233435
139	0x3f12ac78	0.57294416
140	0xbd5d1281	-0.053972725
141	0x3e6e192d	0.23251791
142	0x3eadb476	0.33926743
143	0xbe545c5f	-0.20738362
144	0x3e2cfef0	0.16894126
145	0x3de08b78	0.109641016
146	0xbe1aba9b	-0.15110247
147	0x3de3562b	0.111004196
148	0xbf2a8812	-0.66613877
149	0x3db3442f	0.08753239
150	0xbe9b40a9	-0.3032277
151	0x3ec70b14	0.3887564
152	0xbd5d9d7e	-0.054105274
153	0xbe9017fc	-0.281433
154	0xbe02ff54	-0.12792712
155	0xbdab60c1	-0.08368064
156	0xbd82c862	-0.06385876
157	0x3e2a54b6	0.16633877
158	0x3e06ec7a	0.13176146
159	0xbcc7443d	-0.02432453
160	0xbd6600be	-0.05615305
161	0xbea3d958	-0.32001758
162	0x3ebff267	0.37489626
163	0xbdd8c8ba	-0.105851606
164	0xbda89710	-0.08231938
165	0xbf6c8796	-0.9239439
166	0xbf28f870	-0.66004086
167	0xbebcdecb	-0.36888728
168	0xbd789296	-0.06068667
169	0xbecf50bc	-0.40491283
170	0x3ebcd47a	0.36880857
171	0x3ea86478	0.32889152
172	0xbd87d137	-0.066317014
173	0x3c7d119f	0.015446096
174	0x3e4ec36c	0.20191735
175	0x3ea2d21c	0.31800926
176	0xbeb41700	-0.35173798
177	0xbe1d5815	-0.15365632
178	0xbe089427	-0.13337766
179	0x3d3873d8	0.045032352
180	0xbd233987	-0.039849784
181	0xbdd2bb24	-0.102896005
182	0xbde65a65	-0.1124771
183	0x3e9193a2	0.28432947
184	0xbbc08419	-0.0058751223
185	0xbdfaef17	-0.12252634
186	0xbec2ed49	-0.3807166
187	0xbe726cc5	-0.23674305
188	0xbdd0c3a9	-0.10193569
189	0xbe9eed1e	-0.3104028
190	0x3e9bdce9	0.3044198
191	0x3d228f54	0.03968747
192	0xbf64127b	-0.890907
193	0x3e0257e4	0.1272884
194	0x3e752702	0.23940662
195	0x3dfa76a2	0.12229659
196	0x3ebe540c	0.37173498
197	0x3e441021	0.19146778
198	0x3f1ff71f	0.6248645
199	0x3d902f88	0.07040316
200	0x3da3e396	0.08002393
201	0xbe72b7fd	-0.23702998
202	0xbee7e972	-0.45295292
203	0xbe3eb96a	-0.18625417
204	0x3ebefe04	0.37303174
205	0xbe9b0a85	-0.30281463
206	0x3f1eca4f	0.6202745
207	0x3eac617f	0.33668134
208	0xbe3d2f7d	-0.18475147
209	0x3d204beb	0.0391349
210	0x3e9bbb97	0.30416557
211	0x3dd638bf	0.10460042
212	0x3d90543a	0.07047315
213	0xbcbcb31c	-0.023034625
214	0xbdee0597	-0.1162216
215	0x3e8366f2	0.2566448
216	0xbe8f5c5e	-0.28000158
217	0xbf4ee4d1	-0.80817896
218	0xbdad6532	-0.08466567
219	0xbe5de1a9	-0.21668114
220	0xbe3b31d4	-0.18280727
221	0x3dfbd3e1	0.12296272
222	0xbc4667ef	-0.012109741
223	0xbee42feb	-0.44567809
224	0xbd10f4d3	-0.035389733
225	0x3f007e05	0.5019229
226	0x3ed00bd1	0.40634015
227	0x3db18f15	0.08669869
228	0xbe55d3e9	-0.20881619
229	0xbe3ff431	-0.18745495
230	0xbe1a47df	-0.15066479
231	0xbe2143c3	-0.15748505
232	0xbeb9ecf9	-0.36313608
233	0x3e849bbe	0.25900072
234	0xbef96c5a	-0.48715478
235	0x3e2a66e5	0.16640814
236	0x3cdfd416	0.02732281
237	0x3d177fe8	0.036987215
238	0x3cf5a1a5	0.029984305
239	0xb82aa5aa	-4.0685445e-05
240	0xbe9cd63b	-0.30632195
241	0x3f04ba95	0.518472
242	0x3e0a11a8	0.13483298
243	0xbe834beb	-0.25643858
244	0xbec0ef88	-0.37682748
245	0x3e502e1c	0.2033009
246	0x3f238192	0.63869584
247	0x3d8e015a	0.069338515
248	0xbdab7fe2	-0.08374001
249	0x3d5829cb	0.052774232
250	0x3e004ce3	0.1252933
251	0x3e762235	0.24036486
252	0x3e255aef	0.1614797
253	0x3d9c4e9e	0.076321825
254	0xbe74c715	-0.23904069
255	0xbe236a63	-0.15958552

actor_mean.0.bias f4 [64]
0	0x3ccb50a4	0.024818726
1	0xbc97b97f	-0.018521069
2	0x3becc161	0.007225201
3	0xbd9dfff7	-0.07714837
4	0xbc3c3bf9	-0.011488908
5	0x3cca7ca5	0.024717638
6	0xbdc8e826	-0.09809904
7	0xbd87f8f8	-0.06639284
8	0xbe634f6f	-0.2219827
9	0xbe0d7922	-0.1381574
10	0xbe0bdcbc	-0.13658422
11	0xbeb30bae	-0.34969848
12	0x3e130b27	0.14359723
13	0xbd889adf	-0.06670164
14	0x3d3d419d	0.04620515
15	0x3e123a8e	0.1428015
16	0x3d232627	0.039831307
17	0x3e643c5e	0.22288653
18	0xbda71c2c	-0.0815967
19	0xbe05fbc0	-0.13084316
20	0x3d81ffdf	0.06347632
21	0xbe58fe74	-0.21190816
22	0xbdbde0dd	-0.09271405
23	0xbe13c6f1	-0.14431359
24	0x3d09d2ea	0.03364841
25	0x3d9f60b7	0.07782119
26	0x3e457aa6	0.19285068
27	0xbe4bf331	-0.19916989
28	0xbe0d18ce	-0.13778993
29	0x3e000a0e	0.12503836
30	0x3d2fa0a4	0.04287781
31	0x3d80925a	0.06277914
32	0xbe91022b	-0.28321967
33	0xbda855a3	-0.08219459
34	0x3d39bfe5	0.04534902
35	0xbd4a2a3d	-0.049356688
36	0xbe7d92fb	-0.247631
37	0xbc9e2416	-0.019304316
38	0xbdd861e3	-0.105655454
39	0x3c114cc2	0.008868398
40	0x3e1a5fd8	0.15075624
41	0xbdcddd90	-0.10052025
42	0x3c4a2c50	0.0123396665
43	0x3e960609	0.2930148
44	0xbd900b4f	-0.07033407
45	0xbd7e3a18	-0.06206712
46	0xbdfbd5c0	-0.12296629
47	0xbd6701d3	-0.056398224
48	0xbcb5e49f	-0.022203742
49	0x3d0ff2e4	0.035143748
50	0x3d9ae2a4	0.075627595
51	0x3d428fab	0.047500294
52	0xbd7d1e05	-0.061796207
53	0xbd823f4f	-0.063597314
54	0xbe46d21e	-0.19416091
55	0xbb453baf	-0.0030095389
56	0xbdc94056	-0.09826724
57	0xbc0a5dea	-0.008445242
58	0xbd40edea	-0.047101893
59	0x3e017330	0.12641597
60	0x3dd63062	0.10458447
61	0x3dfbedcc	0.123012155
62	0xbd85ed8e	-0.065394506
63	0x3e971c13	0.29513606

actor_mean.2.weight f4 [64, 64]
0	0xbea0f89d	-0.31439677
1	0x3ea34df8	0.31895423
2	0xbe11fb9a	-0.14256135
3	0xbdd839e5	-0.105579175
4	0xbdd5cb1a	-0.10439129
5	0xbe519fe1	-0.20471145
6	0x3d7b6b59	0.06138167
7	0xbd8ef2e9	-0.06979925
8	0x3da65e43	0.08123448
9	0xbe783f8e	-0.24242994
10	0xbda0fda3	-0.07860877
11	0xbf031f90	-0.51220036
12	0x3e3dcb5d	0.18534608
13	0xbf03b21f	-0.51443666
14	0x3e6a1a48	0.22861588
15	0x3eac00fc	0.335945
16	0x3e97befe	0.29637903
17	0xbe3990be	-0.18121621
18	0xbdaa35ee	-0.083110675
19	0xbe466194	-0.1937316
20	0xbe687531	-0.22700955
21	0x3eab752f	0.3348784
22	0xbe8114c9	-0.2521117
23	0xbdf82a06	-0.1211739
24	0x3e41c6c2	0.18923476
25	0x3e080a08	0.13285077
26	0x3dc865ca	0.0978504
27	0xbea2c9e6	-0.3179466
28	0xbca4f776	-0.02013753
29	0xbe42aeaf	-0.19011949
30	0x3ce2dae4	0.027692266
31	0xbdb9bc08	-0.09069067
32	0xbe21addf	-0.15788983
33	0x3e84fcfa	0.25974256
34	0xbec1d55d	-0.37858096
35	0x3db8e1ad	0.09027419
36	0x3c4f1e5f	0.012641518
37	0xbe80a78c	-0.25127828
38	0xb9d5086c	-0.000406328
39	0x3eb6d364	0.35708153
40	0x3cf04915	0.029331723
41	0xbe6eaea8	-0.23308814
42	0x3eb9b1e3	0.3626853
43	0xbdde27a9	-0.10847408
44	0x3ee8c69b	0.45464024
45	0xbec26e28	-0.37974668
46	0x3ea2c016	0.31787175
47	0xbe6b2f64	-0.22967297
48	0xbd77f29a	-0.060534097
49	0xbda0b718	-0.07847422
50	0xbe4d2c6a	-0.20036474
51	0x3f0f8879	0.56067616
52	0xbe696664	-0.22792965
53	0xbead95ea	-0.33903438
54	0xbd8fcb51	-0.070212014
55	0xbdf6758e	-0.120341405
56	0x3e69cfbc	0.2283315
57	0x3e88e0ce	0.26734012
58	0x3e5b512f	0.21417688
59	0x3e3696c7	0.17830954
60	0xbebf9d0a	-0.374245
61	0x3cfa0aad	0.030522669
62	0x3e250c65	0.1611801
63	0xbf035ffc	-0.51318336
64	0xbd8f8342	-0.07007457
65	0xbe9c03e4	-0.30471718
66	0xbcf30175	-0.02966378
67	0x3e22afb1	0.15887333
68	0x3e343a77	0.17600428
69	0x3c9de9ec	0.019276582
70	0xbcca0303	-0.02465964
71	0x3d29f7fc	0.041496262
72	0x3d118e30	0.03553599
73	0xbde5e900	-0.11226082
74	0xbb8e9106	-0.0043507842
75	0x3a236437	0.000623289
76	0xbe636ed8	-0.22210252
77	0xbe3d2f44	-0.18475062
78	0x3e347415	0.17622407
79	0x3bee616b	0.0072747967
80	0xbee96e0a	-0.45591766
81	0xbd772aba	-0.06034348
82	0xbdca0296	-0.098637745
83	0x3ea8b337	0.3294923
84	0xbe6fdf2f	-0.23424982
85	0x3bacb0e9	0.005270113
86	0x3e3235e5	0.17403372
87	0xbdc6325f	-0.09677576
88	0xbc4a9e2d	-0.012366814
89	0x3df594e2	0.11991288
90	0x3d9f6956	0.07783763
91	0xbdc362c6	-0.09540324
92	0xbcf497da	-0.029857565
93	0xbe6eb6f0	-0.23311973
94	0xbdc9d81f	-0.09855675
95	0xbdae638a	-0.08515079
96	0xbdbf96ab	-0.093549095
97	0xbe6746fe	-0.22585675
98	0xbeab84b4	-0.33499682
99	0xbe83a2c1	-0.2571011
100	0x3f105ad6	0.56388605
101	0x3ce0d64b	0.027445933
102	0x3efc9126	0.4932949
103	0x3e62dcc0	0.22154522
104	0x3f09f25e	0.5388545
105	0xbd32dd89	-0.043668304
106	0x3c04fbd2	0.008116679
107	0x3ed9ee80	0.42564774
108	0x3eafc719	0.34331587
109	0x3e506550	0.20351148
110	0x3f002d7d	0.5006941
111	0xbe55816c	-0.20850152
112	0xbe020567	-0.12697373
113	0x3e58a6bb	0.21157353
114	0x3e8da107	0.27661917
115	0xbd73ed90	-0.05955273
116	0x3d77e81c	0.06052409
117	0x3ee3ec02	0.44515997
118	0x3edbf3bf	0.429594
119	0xbe9a12cf	-0.30092475
120	0x3e5b9d36	0.2144669
121	0xbdd400ef	-0.103517406
122	0x3cb704bb	0.022341123
123	0x3e13f6d1	0.14449622
124	0x3dcbb262	0.09946133
125	0x3cf1e64a	0.029528756
126	0x3c8b74e4	0.017023511
127	0xbed2ca92	-0.41170174
128	0xbb491183	-0.0030680604
129	0x3e8e12e4	0.27748787
130	0xbddaebfc	-0.10689542
131	0xbe09fa1a	-0.13474312
132	0xbea39502	-0.3194962
133	0x3d6ec9b8	0.058297843
134	0x3d686f33	0.056746673
135	0x3e91820f	0.2841954
136	0xbec751d9	-0.38929632
137	0xbe851040	-0.2598896
138	0xbd460762	-0.048346885
139	0xbd63d51b	-0.055623155
140	0x3ea61873	0.32440528
141	0xbd8a6cbc	-0.06759021
142	0xbecb74d7	-0.3973758
143	0xbf098a5d	-0.5372675
144	0x3e15b727	0.14620648
145	0xbc8e13d6	-0.017343443
146	0xbead53da	-0.33853036
147	0x3e07dbda	0.1326746
148	0xbd11aab6	-0.035563193
149	0xbe03a36d	-0.1285531
150	0xbd6d0d35	-0.057873923
151	0xbee36e18	-0.44419932
152	0xbe1e8ae8	-0.15482676
153	0xbd44c8b7	-0.04804298
154	0xbf10e67c	-0.5660169
155	0x3e9c6867	0.30548403
156	0x3e39883f	0.1811838
157	0x3eb45016	0.3521735
158	0x3e3ec178	0.1862849
159	0x3e0d7586	0.13814363
160	0x3df71da2	0.12066199
161	0xbf144863	-0.57922953
162	0xbe53263e	-0.20620057
163	0xbdba2129	-0.09088356
164	0x3ed44b41	0.41463664
165	0x3dcf1764	0.10111883
166	0xbde591e4	-0.11209467
167	0xbe44cc71	-0.19218613
168	0xbdcd080a	-0.10011299
169	0x3e2608ee	0.16214344
170	0x3cedf1dc	0.029045992
171	0x3d76aabb	0.060221415
172	0x3ba5a121	0.0050546085
173	0xbda7f295	-0.08200566
174	0x3ec4ee46	0.38463038
175	0xbdbbdc11	-0.09172834
176	0x3e6a0c77	0.22856317
177	0x3f13fb83	0.5780565
178	0x3d6f5cd8	0.058438152
179	0x3da6c746	0.08143477
180	0xbda0d2df	-0.078527205
181	0xbeb60d66	-0.35557097
182	0xbe9439de	-0.289504
183	0xbeccee34	-0.40025485
184	0xbd194f7a	-0.03742931
185	0xbd89e978	-0.06733984
186	0x3da8db40	0.082449436
187	0xbe6defc5	-0.23235996
188	0x3ed6eea1	0.41978934
189	0xbdee8592	-0.1164657
190	0xbe0afa68	-0.13572085
191	0x3e278d07	0.16362391
192	0x3d1e8428	0.038700253
193	0xbdc03c3a	-0.09386487
194	0xbea516ac	-0.3224386
195	0x3e221d5d	0.15831514
196	0x3eef3172	0.4671741
197	0xbc8acd95	-0.016943732
198	0xbe25b829	-0.16183533
199	0xbd7eb8e0	-0.06218803
200	0x3d504254	0.050844505
201	0x3c9d73d1	0.019220265
202	0xbea976bc	-0.330984
203	0xbe977344	-0.29580128
204	0x3e3c44d3	0.1838563
205	0xbd4c42fc	-0.04986857
206	0xbe159e15	-0.14611085
207	0x3e2cc942	0.16873649
208	0x3d5eb7af	0.054374393
209	0xbe5371ca	-0.20648876
210	0x3e96c88b	0.29449877
211	0xbe04bdb2	-0.12962988
212	0xbe1fd90b	-0.15610139
213	0x3ce4cc87	0.027929557
214	0xbd45d683	-0.048300277
215	0xbede4e59	-0.4341915
216	0xbf14f226	-0.5818199
217	0xbe0fe949	-0.14053835
218	0xbdb5ba9c	-0.088734835
219	0xbb5d34cf	-0.00337534
220	0xbeee2499	-0.46512297
221	0xbec61206	-0.38685626
222	0xbe8b77e8	-0.2723992
223	0x3e199e41	0.15001775
224	0xbd9bc5f4	-0.07606116
225	0xbe9d7348	-0.30752015
226	0xbdeef33e	-0.116674885
227	0x3e88c83e	0.26715273
228	0xbe7ed315	-0.24885209
229	0x3e68b804	0.22726446
230	0xbc46bb89	-0.012129673
231	0xbca13ca7	-0.019682242
232	0xbe0ed76e	-0.13949367
233	0x3dd3feff	0.10351371
234	0xbea81df6	-0.32835358
235	0xbe3cebe8	-0.18449366
236	0x3f1a2976	0.60219514
237	0xbf0218e7	-0.5081925
238	0xbdc80490	-0.09766495
239	0x3e1a2c1a	0.15055886
240	0xbe1bb434	-0.15205461
241	0xbe828dbd	-0.25498763
242	0x3e0232a8	0.12714636
243	0x3d2d0518	0.042241186
244	0xbe2d3d9e	-0.16918036
245	0xbb548159	-0.003242573
246	0xbe0331c6	-0.12811956
247	0xbe3ea6b1	-0.18618275
248	0xbe28c228	-0.16480315
249	0x3e97e152	0.29664093
250	0x3d9c00ae	0.07617317
251	0xbe459019	-0.1929325
252	0xbd384f92	-0.04499776
253	0x3c7ce987	0.015436537
254	0xbef17508	-0.471596
255	0x3e027c78	0.12742794

actor_mean.2.bias f4 [64]
0	0x3e4a6526	0.19765148
1	0xbd738cb3	-0.059460353
2	0x3cdcf912	0.026974235
3	0x3d81fb7e	0.063467965
4	0xbd8ec26e	-0.06970678
5	0xbdae67d9	-0.08515901
6	0xbe0e9686	-0.13924608
7	0xbe5c0591	-0.21486498
8	0x3ca11e42	0.019667748
9	0xbd0f6408	-0.035007507
10	0xbd820511	-0.063486226
11	0x3e1944dd	0.14967676
12	0xbbb72199	-0.005588722
13	0x3dc0f72c	0.09422144
14	0x3d8e4984	0.06947616
15	0x3dff0859	0.12452764
16	0x3d98f3eb	0.07468399
17	0xbdead323	-0.114660524
18	0x3d159802	0.03652192
19	0x3c22043d	0.009888706
20	0xba1ca122	-0.00059749384
21	0x3c1c86da	0.0095536355
22	0x3e096a4b	0.13419454
23	0x3c4a307f	0.012340664
24	0xbe7b2ee5	-0.24529608
25	0xbea34ac8	-0.3189299
26	0x3e9355e2	0.2877646
27	0x3d94500b	0.072418295
28	0x3dafc783	0.08582976
29	0x3da5bcdf	0.08092665
30	0xbd733d28	-0.059384495
31	0x3e6a2f37	0.22869574
32	0xbbe49242	-0.006975443
33	0xbb18e02e	-0.002332698
34	0xbe220f1f	-0.1582608
35	0xbd16a456	-0.036777817
36	0x3dac1fea	0.084045246
37	0x3d42e6ea	0.047583498
38	0xbe860e74	-0.26182902
39	0x3e61e6bc	0.22060674
40	0xbe0ba980	-0.13638878
41	0x3d81196f	0.06303679
42	0xbe964fc3	-0.29357728
43	0x3e1b92fa	0.15192786
44	0xbdad7cb1	-0.084710486
45	0x3e317c01	0.1733246
46	0xbdd97dcc	-0.10619697
47	0x3e356eba	0.1771802
48	0x3e02fd88	0.12792027
49	0x3c1d57fd	0.009603498
50	0xbe30fd77	-0.17284189
51	0xbdcb0415	-0.09912888
52	0xbdbcb42d	-0.09214053
53	0x3e0d0d1c	0.13774532
54	0x3e360ffa	0.17779532
55	0xbd9e0d28	-0.07717353
56	0x3db1996e	0.086718425
57	0xbd6e4c0e	-0.058178
58	0x3da936f8	0.082624376
59	0x3d98c52d	0.07459483
60	0x3d19cbbb	0.03754781
61	0xbe3509ca	-0.17679515
62	0xbd1899e3	-0.037256133
63	0xbccb147d	-0.024790043

actor_mean.4.weight f4 [8, 64]
0	0xbccfc124	-0.025360651
1	0x3d32e824	0.043678418
2	0x3daae4f7	0.08344453
3	0x3cf3e38f	0.029771594
4	0xbd69a202	-0.05703927
5	0xbd658270	-0.056032598
6	0xbd25f59b	-0.04051743
7	0x3cf3faf6	0.029782753
8	0xbd7a68f4	-0.061135247
9	0x3b4b9c5f	0.0031068546
10	0x3d260448	0.040531427
11	0xbcfb4400	-0.030672073
12	0x3ca0e43d	0.019640082
13	0xbe40ff61	-0.1884742
14	0x3d8ae3a6	0.06781702
15	0x3df51df9	0.119686075
16	0xbd23bdd7	-0.039975967
17	0x3c500036	0.012695363
18	0xbd5b6220	-0.053560376
19	0x3d30f553	0.04320271
20	0x3c27ce74	0.010242093
21	0xbd8c4489	-0.068490095
22	0xbb3919d0	-0.0028244145
23	0x3cebef0d	0.028800512
24	0x3d0f2860	0.034950614
25	0xbd985cd8	-0.074395835
26	0x3d265815	0.040611345
27	0xbe0a093a	-0.13480082
28	0xbd7d7cdd	-0.061886657
29	0xbd52546d	-0.051350046
30	0x3ddc1e01	0.1074791
31	0xbd7cc7d2	-0.061714
32	0xbd12cdc9	-0.035840783
33	0x3d4098f1	0.047020856
34	0x3d869c6a	0.06572802
35	0x3d02e242	0.031954058
36	0x3d0f3668	0.034963995
37	0xbc59863f	-0.013276636
38	0x3d2055c3	0.03914429
39	0xbe066f65	-0.13128431
40	0xbcdc581d	-0.026897484
41	0xbdd1a69c	-0.10236856
42	0xbc849ad6	-0.016187113
43	0xbdc8a5d7	-0.097972564
44	0xbcaef224	-0.021355696
45	0x3dffc7b8	0.12489265
46	0x3dd530ee	0.10409723
47	0xbda9b493	-0.08286395
48	0x3d95add5	0.073085465
49	0xbd2cb0ce	-0.0421608
50	0xbc02d29d	-0.007984784
51	0x3dca3b1e	0.09874557
52	0x3cce39ba	0.02517401
53	0xbd948ced	-0.07253442
54	0xbe2ad71b	-0.16683619
55	0xbd4bec4d	-0.0497859
56	0xbcc0a913	-0.02351812
57	0xbd2aae14	-0.04166992
58	0xbd3613e0	-0.044452548
59	0x3cda1c4c	0.026624821
60	0xbcc1c368	-0.023652747
61	0xbd96f573	-0.073710345
62	0x3db0768d	0.08616362
63	0x3c3019dd	0.010748354
64	0x3e4dda35	0.2010277
65	0xbddf5f1c	-0.109068125
66	0xbc993143	-0.018700248
67	0x3d5582c8	0.052126676
68	0x3d9515a7	0.072795205
69	0x3bacce53	0.005273619
70	0x3d7af5ce	0.061269574
71	0xbda466e0	-0.08027434
72	0x3d00e13c	0.0314648
73	0x3d388967	0.045052912
74	0xbd85a69e	-0.0652592
75	0x3cad20f5	0.02113388
76	0x3d3f2bf2	0.04667277
77	0xbd8d2226	-0.06891279
78	0x3dbec461	0.093148
79	0x3dcf5d96	0.10125272
80	0x3c375408	0.011189468
81	0x3d860b89	0.06545169
82	0x3d86dce8	0.06585103
83	0x3d47ea47	0.04880741
84	0xbdaab47c	-0.08335206
85	0x3e0dcb52	0.13847092
86	0x3c9109e0	0.017704904
87	0x3d3b5dd4	0.04574378
88	0x3dc79b50	0.097464204
89	0xbcaef39b	-0.021356395
90	0xbd8f4f2c	-0.06997523
91	0xbbfdb832	-0.007742905
92	0x3d30cc06	0.043163322
93	0xbd4c36d4	-0.049856976
94	0xbd3f56e0	-0.04671371
95	0xbbe8e5a4	-0.0071074534
96	0x3d0e6e7d	0.03477334
97	0xbd3a0136	-0.04541131
98	0x3dcfa414	0.10138717
99	0x3da8f370	0.08249557
100	0xbe0c8064	-0.13720852
101	0xbdc3b727	-0.09556418
102	0xbd0eb171	-0.03483719
103	0x3d048ec9	0.032362733
104	0xbdede416	-0.116157696
105	0x3c7fc90d	0.015611899
106	0x3e0e07be	0.13870141
107	0xbcf00373	-0.02929852
108	0x3c02bddb	0.007979835
109	0xbd84d05d	-0.06485055
110	0xbd21b77d	-0.03948163
111	0xbd359b88	-0.04433778
112	0x3dd3f333	0.10349121
113	0x3d98dbcc	0.07463798
114	0x3cfff139	0.031242954
115	0x3cbb4793	0.022861278
116	0xbb9d43f8	-0.0047993623
117	0x3ddeb840	0.10874987
118	0x3e003b72	0.12522677
119	0x3c35130c	0.011051904
120	0x3da97306	0.08273892
121	0xbdc679b0	-0.09691179
122	0xbd3c3c86	-0.045956157
123	0x3d1cdc61	0.038296107
124	0x3dc7d92f	0.09758221
125	0x3d5a9da0	0.05337298
126	0xbd20f35a	-0.039294578
127	0x3c84915a	0.01618259
128	0x3ca232bd	0.019799585
129	0xbd1a1c64	-0.03762473
130	0x3e1d9b0b	0.15391175
131	0xbe032727	-0.12807904
132	0xbe10463b	-0.14089291
133	0xbca12a5f	-0.019673524
134	0xbdd8dcdf	-0.10589003
135	0x3deb4d12	0.11489309
136	0xbdaeff8f	-0.08544838
137	0x3cdbc6ce	0.026828196
138	0xbcb217fe	-0.021739956
139	0xbd8f4d10	-0.069971204
140	0xbdf28231	-0.11841238
141	0x3ce09429	0.027414398
142	0xbda3e8dc	-0.08003399
143	0x3dcd61e2	0.10028435
144	0x3dd5de7f	0.104428284
145	0xbd91d556	-0.07120769
146	0xbc83165a	-0.016001869
147	0xbd7de24a	-0.061983384
148	0xbd19d387	-0.037555244
149	0xbdee1eed	-0.116269924
150	0xbd7d3bde	-0.061824672
151	0x3d0c1ce3	0.034207236
152	0xbd114b26	-0.035472058
153	0xbcbbf8e5	-0.02294583
154	0xbd942c07	-0.0723496
155	0x3d388b82	0.04505492
156	0xbdf313e7	-0.118690304
157	0x3dfd8e4b	0.12380656
158	0xbaa1c4b2	-0.0012341945
159	0xbcbece61	-0.023291769
160	0xbdb1e99f	-0.08687138
161	0xbd1106f5	-0.035407025
162	0xbddca30a	-0.10773285
163	0xbdb4404a	-0.08801325
164	0x3d393f6d	0.045226503
165	0x3c30e72f	0.010797306
166	0x3dfe4e44	0.12417272
167	0x3dae92c3	0.08524086
168	0xbbb3a2a4	-0.0054820348
169	0xbcc7eec0	-0.024405837
170	0xbd4c6c02	-0.04990769
171	0x3d323432	0.04350681
172	0xbd5b24d1	-0.053501908
173	0xbd8c8e23	-0.06863048
174	0x3dc0c020	0.09411645
175	0x3dc3395b	0.09532424
176	0xbd45db91	-0.048305098
177	0x3bbfe045	0.0058555924
178	0xbdf0c91b	-0.11757108
179	0xbcb7cf24	-0.02243764
180	0xbd81a8bd	-0.063310124
181	0x3dc60c18	0.096702754
182	0x3cd8d636	0.026469331
183	0xbd3fd995	-0.04683836
184	0xbbc46ef5	-0.0059946724
185	0x3ca3e6ca	0.02000751
186	0xbc997426	-0.018732142
187	0xbd81b09f	-0.06332516
188	0x3c59aa57	0.013285241
189	0x3dcedf53	0.101011895
190	0x3d7f2e04	0.062299743
191	0x3d142e5a	0.036177017
192	0x3cca6f1f	0.02471119
193	0x3d17d887	0.03707173
194	0x3de812ae	0.11331688
195	0xbcded3a6	-0.027200531
196	0xbd4ad28c	-0.0495172
197	0x3dcc828a	0.09985836
198	0x3cd0dd6c	0.025496207
199	0xbcb45625	-0.022013733
200	0xbd8f454a	-0.06995638
201	0xbd9e3f60	-0.077269316
202	0xbc44d293	-0.012013095
203	0x3d357977	0.04430529
204	0x3dbce159	0.09222669
205	0xbc5c875b	-0.013460006
206	0x3c89c412	0.016817126
207	0x3c37de07	0.011222369
208	0x3b26f7c0	0.002547726
209	0xbdafb264	-0.08578947
210	0x3cab7365	0.020929048
211	0x3da30107	0.0795918
212	0xbd427fc3	-0.047485124
213	0xbccd044a	-0.02502646
214	0x3d0cd572	0.034383245
215	0x3cd67ebe	0.026183482
216	0xbd819ed5	-0.06329123
217	0xbc84541f	-0.016153393
218	0x3d927620	0.07151437
219	0xbd75ac73	-0.059978914
220	0x3c91704e	0.017753746
221	0x3d73d1a3	0.059526097
222	0xbb56ed05	-0.0032795083
223	0xbe1a258d	-0.15053387
224	0xbdb29cad	-0.0872129
225	0xbdb59435	-0.08866159
226	0xbd575c24	-0.052578107
227	0xbd7adefc	-0.06124781
228	0xb9d2a0f0	-0.0004017423
229	0x3d6fa7db	0.05850969
230	0x3e091125	0.13385446
231	0x3cebbb14	0.02877573
232	0x3d1d39f9	0.038385365
233	0x3d74100f	0.059585627
234	0x3d82b307	0.06381803
235	0xbda40e5d	-0.08010552
236	0x3d76fc33	0.06029911
237	0x3d3ccf42	0.046096094
238	0xbd21a4bb	-0.03946374
239	0xbd1aa71b	-0.03775702
240	0xbaae00c5	-0.0013275376
241	0x3cdcd71b	0.026958039
242	0xbd3cce04	-0.04609491
243	0xbd922c7e	-0.071373925
244	0xba8752e0	-0.0010324381
245	0xbcec15c0	-0.028818965
246	0x3d606659	0.054785106
247	0xbdc13a71	-0.09434975
248	0xbd22f56b	-0.03978483
249	0x3d56b22d	0.052416015
250	0xbd9da08b	-0.07696637
251	0xbd1add5b	-0.037808757
252	0x3c13d410	0.009022728
253	0xbccbf2b1	-0.024895998
254	0x3c3676ed	0.011136753
255	0x3cd7368c	0.026271127

actor_mean.4.bias f4 [8]
0	0xbd08fd5d	-0.03344475
1	0x3cdc3472	0.026880477
2	0xbda219f1	-0.07915104
3	0xbd5cab9b	-0.053874593
4	0x3d9df80f	0.07713329
5	0x3d064e31	0.032789413
6	0xbcd6f7b7	-0.026241167
7	0xbd4bf2b4	-0.049792007
