DATA403_final/checkpoints/Ant-v4/PPO_7029.pt (torch, 54349 bytes, 12 tensors)

actor_logstd f4 [1, 8]
0	0xbfab24b9	-1.3370582
1	0xbfaeec9f	-1.3665961
2	0xbf9e8165	-1.2383238
3	0xbff45cf3	-1.9090866
4	0xbfa607a1	-1.2971078
5	0xc0cf7c89	-6.483952
6	0xbfe3fdda	-1.7811844
7	0xbfd1a591	-1.6378652

critic.0.weight f4 [64, 27]
0	0xbe256d53	-0.16154985
1	0xbe9da02b	-0.3078626
2	0x3f23c0e3	0.63966197
3	0xc0323015	-2.7841847
4	0x3e7bcc4b	0.2458965
5	0xbe0d3f3b	-0.13793652
6	0xbe30aec2	-0.17254165
7	0x3d683bfe	0.056697838
8	0xbe110d5a	-0.1416525
9	0xbe13f2d9	-0.14448108
10	0x3eda0a89	0.42586163
11	0x3c7097c7	0.014684624
12	0xbdd64ff6	-0.1046447
13	0xbe8578e2	-0.2606879
14	0x3e1fb759	0.15597285
15	0x3ebfc672	0.3745609
16	0x3df49398	0.11942214
17	0xbe78b44e	-0.24287531
18	0xbd4057fe	-0.046958916
19	0xbc91a208	-0.017777458
20	0xbd649175	-0.05580278
21	0xbd9be6f4	-0.0761241
22	0x3bfcb039	0.007711437
23	0xbc0a8060	-0.008453459
24	0xbce0c19d	-0.027436072
25	0x3c8d5ba6	0.017255615
26	0x3c829e0c	0.015944503
27	0x3e39591f	0.18100403
28	0x3fb8e523	1.4444927
29	0x3dcf2f18	0.10116404
30	0x3f549356	0.83037317
31	0x3f60dc2c	0.87835956
32	0x3edd97b9	0.43279818
33	0xbe26b451	-0.16279723
34	0x3bb1cb41	0.005425841
35	0x3e76a06f	0.24084638
36	0x3eb0ff6e	0.34569877
37	0x3e10640b	0.14100663
38	0x3e644800	0.22293091
39	0x3d852980	0.06502056
40	0x3c7301ae	0.014831943
41	0xbcdbdc61	-0.026838483
42	0x3e397ca7	0.18113957
43	0x3ddf3f88	0.109007895
44	0x3d571b23	0.052516114
45	0x3dcb80c2	0.09936668
46	0x3d19a038	0.037506312
47	0xbb05f656	-0.0020441017
48	0x3c69872a	0.014253417
49	0x3c799a33	0.015234518
50	0x3cb8d8a5	0.022564242
51	0x3c21a011	0.009864823
52	0x3c47ec6b	0.0122023625
53	0x3c8a22cb	0.016862294
54	0xbec6cf53	-0.3883005
55	0x3ee94f08	0.4556811
56	0xbe60e1f2	-0.21961191
57	0x3e0fa2f2	0.14027002
58	0xbfb226f0	-1.3918133
59	0x3e710579	0.23537244
60	0xbe10bcff	-0.14134596
61	0xbeb34859	-0.35016134
62	0xbd0fc056	-0.035095535
63	0xbdcffc9d	-0.10155604
64	0x3d22687f	0.039650436
65	0xbe8988ea	-0.2686227
66	0xbed17d37	-0.40915844
67	0x3d3428aa	0.043984093
68	0xbb5a3346	-0.0033294722
69	0xbd991deb	-0.074764095
70	0x3e8e10a3	0.27747068
71	0xbdb509ad	-0.08839736
72	0x3dc8f6b7	0.09812682
73	0x3d07571a	0.03304205
74	0xbcb6998b	-0.022290012
75	0xbd56c8a6	-0.052437447
76	0x3d41ca18	0.047311872
77	0x3b6f28a8	0.003649274
78	0xbccb63b6	-0.02482782
79	0x3d0e8a9d	0.03480016
80	0x3d2a5d4e	0.04159289
81	0xbe8ebac5	-0.2787687
82	0x3ed1f7dc	0.41009414
83	0xbf74533f	-0.95439523
84	0xbf4fa784	-0.81114984
85	0x3fc40f34	1.531714
86	0xbe283e6e	-0.16430065
87	0x3e299d47	0.16563903
88	0xbdae1900	-0.08500862
89	0x3e1daf13	0.15398817
90	0x3e451a4b	0.19248311
91	0xbbbecaf1	-0.0058225323
92	0xbe7dbae2	-0.24778321
93	0xbcba489d	-0.022739703
94	0xbb8e9133	-0.004350805
95	0xbcca6ffd	-0.024711603
96	0x3d20e724	0.039282933
97	0xbd7492f3	-0.059710454
98	0xbe0c2efc	-0.13689798
99	0x3dc98e09	0.09841544
100	0x3c59abff	0.013285636
101	0xbc492752	-0.012277441
102	0x3be1e65c	0.006893916
103	0xbc183bc0	-0.009291589
104	0x3c2ca1c8	0.0105366185
105	0xbbd38257	-0.0064547467
106	0x3ce2a9e1	0.027668895
107	0xbc19f381	-0.009396435
108	0xbf50ebdb	-0.81609887
109	0x3e8c8235	0.2744309
110	0x3fe450bc	1.7837138
111	0xbf433f6b	-0.76268643
112	0x3faa0889	1.3283855
113	0xbd331e26	-0.043729924
114	0xbdf2a0a4	-0.11847046
115	0x3cb5c81c	0.022190146
116	0xbd6aa0f8	-0.057282418
117	0xbeb4cc94	-0.3531233
118	0xbe9477fa	-0.28997785
119	0x3ef2c971	0.47419313
120	0xbd66876f	-0.056281503
121	0x3d9d5e94	0.07684055
122	0xbe3c926c	-0.1841523
123	0xbe42cee7	-0.1902424
124	0x3ddf4392	0.1090156
125	0xbe9871c3	-0.29774293
126	0x3dea08db	0.1142747
127	0x3b05eaa4	0.0020434046
128	0xbd1e0d7d	-0.038587082
129	0x3babf73b	0.005247978
130	0xbc350eab	-0.01105086
131	0x3c2003be	0.009766517
132	0xbd40327e	-0.046923153
133	0x3d2ceb41	0.042216543
134	0x38faa869	0.00011952298
135	0xbe8965bf	-0.2683544
136	0xbe2bff34	-0.16796571
137	0x3f618f45	0.88109237
138	0xbfa721a4	-1.3057141
139	0x3ec0ac45	0.3763143
140	0x3ec8a337	0.39187023
141	0xbf8cc0b4	-1.0996308
142	0x3d2b7451	0.041858975
143	0x3ee7240e	0.45144695
144	0x3d47d06c	0.04878275
145	0x3ecc9663	0.39958486
146	0x3d97034e	0.07373677
147	0xbe154ae8	-0.14579356
148	0x3dd91fdb	0.10601779
149	0x3e0f5a2d	0.13999243
150	0xbef22765	-0.4729568
151	0xbc8c582a	-0.017131884
152	0xbd6cee1c	-0.057844266
153	0xbd109182	-0.035295017
154	0x3d35c1dc	0.04437433
155	0xbd9d635b	-0.07684966
156	0x3d1527bc	0.036414847
157	0x3d8694c8	0.065713465
158	0xbd460d9a	-0.048352815
159	0x3d607118	0.054795355
160	0xbd10c3ab	-0.035342854
161	0x3d1ca14b	0.03823976
162	0x3ea4d179	0.32191065
163	0x3efe83f2	0.4971004
164	0x3e938b79	0.28817347
165	0x40439edf	3.0565717
166	0x3ec471be	0.38368028
167	0xbd207fdc	-0.039184436
168	0x3e2a11cf	0.16608356
169	0x3dad0161	0.08447529
170	0x3cd76b4e	0.026296284
171	0x3e29caf3	0.16581325
172	0xbd8615c0	-0.06547117
173	0xbdb4443c	-0.08802077
174	0x3efbb61b	0.49162373
175	0x3d60c6af	0.05487698
176	0x3e39aab2	0.18131521
177	0xbe4b1db8	-0.19835556
178	0x3d09cb41	0.033641104
179	0x3e53090f	0.20608924
180	0x3e2e8b1f	0.17045258
181	0x3ccd7e82	0.025084738
182	0x3caa787a	0.0208094
183	0x3d1e9488	0.03871587
184	0x3c74b0cc	0.01493473
185	0xbbf5d78f	-0.007502503
186	0xbc0e137f	-0.00867164
187	0x3d071da7	0.032987263
188	0x3d6b9bb1	0.057521526
189	0xbe2cda3f	-0.1688013
190	0x3db2142c	0.08695254
191	0x3e1e0adf	0.15433834
192	0x3e8daa38	0.2766893
193	0xbdeacad8	-0.114644706
194	0x3dd21061	0.1025703
195	0x3ec4e466	0.38455504
196	0xbe9a9101	-0.30188754
197	0xbf9d01af	-1.2266139
198	0x3d9bc1bd	0.07605312
199	0xbecfe9e7	-0.4060814
200	0xbebb04e0	-0.36527157
201	0x3ec4a38e	0.38406032
202	0xbc70ced8	-0.014697753
203	0xbe0aaf40	-0.13543415
204	0xbf8a5460	-1.0806999
205	0xbe40a7fe	-0.18814084
206	0xbe42aafc	-0.19010538
207	0xbe93ecfa	-0.28891736
208	0xbd0153ce	-0.031574063
209	0x3d67385b	0.05645023
210	0xbd15a4dd	-0.03653418
211	0xbd84018e	-0.06445609
212	0xbd42c11e	-0.047547452
213	0x3b95c3f1	0.004570477
214	0xbd12a9b5	-0.035806376
215	0xbc8316ae	-0.016002025
216	0x3ed62927	0.41828272
217	0x3ed6b625	0.4193584
218	0x3f356aaf	0.7086591
219	0xc01a0a3f	-2.4068754
220	0x3f79e94f	0.97621626
221	0xbe8b480a	-0.272034
222	0x3dd24635	0.10267297
223	0xbd7b7b1c	-0.061396703
224	0xbe2a6096	-0.16638407
225	0x3e94df4b	0.2907661
226	0xbdbfec3e	-0.093712315
227	0x3ec30348	0.3808844
228	0x3d1e22c3	0.03860737
229	0x3ce11b0e	0.027478721
230	0xbdf6da87	-0.120533995
231	0x3d3adc6b	0.045620363
232	0xbc899598	-0.016794965
233	0x3d92dadf	0.071706526
234	0x3b86d706	0.0041149883
235	0xbbdcc76f	-0.0067376415
236	0x3c929688	0.017894045
237	0xbc1cdea1	-0.009574563
238	0xbba1046d	-0.0049138577
239	0x3b489f23	0.003061243
240	0x3c6b43e8	0.014359452
241	0x3c13c3bd	0.009018836
242	0x3ce5edf9	0.028067576
243	0x3f2245ab	0.63387555
244	0xbf4ebede	-0.8075999
245	0x3db4b06f	0.088227145
246	0x3ce0dbc2	0.027448539
247	0x3f6dbd51	0.92867
248	0x3ed67105	0.41883102
249	0x3e2e0d13	0.16997175
250	0xbe1af7b3	-0.15133552
251	0xbd813681	-0.06309224
252	0xbea9826d	-0.3310732
253	0xbd3fbb1e	-0.04680931
254	0xbdd9fcf4	-0.1064395
255	0x3e56ebc1	0.2098837

critic.0.bias f4 [64]
0	0xbc19599f	-0.009359746
1	0xbe66b172	-0.22528628
2	0xbf076d7c	-0.52901435
3	0xbf24ef6b	-0.6442782
4	0x3e27833f	0.1635866
5	0xbf221168	-0.6330781
6	0x3e26a032	0.16272047
7	0x3fb71e74	1.4306169
8	0xbeba7a47	-0.36421415
9	0x3e41b747	0.18917571
10	0xbef9524a	-0.48695594
11	0x3ecb0c5e	0.39657873
12	0x3f8278c4	1.0193105
13	0x3e949d1c	0.29026115
14	0xbe76b0ca	-0.24090877
15	0xbf3e643c	-0.74371696
16	0xbf4f6f49	-0.8102918
17	0xbf57664b	-0.8414046
18	0x3e94e644	0.2908193
19	0xbe2aab85	-0.16666992
20	0x3dc49fcc	0.09600791
21	0x3d1954b2	0.037434287
22	0x3e75e53e	0.2401323
23	0x3f4dc885	0.80384094
24	0xbdaf9c44	-0.08574727
25	0xbf1a7a45	-0.6034282
26	0x3e1415a4	0.1446138
27	0x3ea3c8d3	0.31989154
28	0x3ec85724	0.39128983
29	0x3f9d0025	1.2265669
30	0xbed6b4f8	-0.41934943
31	0xbf478ca4	-0.77948976
32	0xbd7902ff	-0.060793873
33	0x3d4ed9ee	0.050500803
34	0x3e0a6a3f	0.13517092
35	0xbfa249d6	-1.2678783
36	0xbea097fb	-0.31365952
37	0x3df50d14	0.11965385
38	0x3da9cee4	0.082914144
39	0x3f264acf	0.649579
40	0xbedefa02	-0.43550116
41	0xbf13c02b	-0.577151
42	0xbe9cd222	-0.3062907
43	0xbf9b8046	-1.2148521
44	0x3e18c0b4	0.1491726
45	0xbf46e39b	-0.7769105
46	0x3ef63cf9	0.48093393
47	0x3f115ca2	0.5678197
48	0xbfa92d85	-1.3217016
49	0x3e89ed90	0.26939058
50	0xbf3b88a0	-0.7325535
51	0xbdf5f93c	-0.12010428
52	0xbe5d4736	-0.21609196
53	0xbe4a39df	-0.19748639
54	0x3eb78385	0.3584253
55	0x3e9c9ae3	0.3058692
56	0xbf86d6e7	-1.0534333
57	0xbe85ed60	-0.26157665
58	0x3e8ce418	0.27517772
59	0xbdd20d00	-0.10256386
60	0x3f5bc972	0.85854256
61	0x3eee8969	0.4658921
62	0x3f1ac63d	0.6045874
63	0xbf731653	-0.9495594

critic.2.weight f4 [64, 64]
0	0xbe1886d0	-0.14895177
1	0xbed515ef	-0.41618297
2	0x3d4ff76b	0.050773066
3	0xbe9ba309	-0.30397823
4	0xbecdfbf0	-0.40231276
5	0x3c8de5e3	0.017321533
6	0x3e6766cb	0.22597806
7	0xbe7462e4	-0.23865849
8	0xbeab8da4	-0.335065
9	0x3d22b149	0.039719854
10	0x3eb2b450	0.34903193
11	0xbe5fa98b	-0.2184202
12	0xbe919257	-0.2843196
13	0xbdb58121	-0.0886252
14	0x3e9bb1d5	0.30409113
15	0xbefd9adb	-0.49532208
16	0x3e037040	0.12835789
17	0xbe7f3ef6	-0.24926361
18	0xbe96ab2c	-0.2942747
19	0xbe8b0925	-0.27155414
20	0xbca79d7e	-0.02046084
21	0xbec973d5	-0.39346185
22	0x3ebb4b67	0.36580965
23	0x3d461976	0.048364125
24	0xbe1b4d5b	-0.15166228
25	0xbe182d44	-0.14861017
26	0x3e67f049	0.22650255
27	0xbf0f0079	-0.55860096
28	0x3dadb989	0.08482654
29	0xbea64545	-0.32474723
30	0x3ea6e0be	0.3259334
31	0x3eaef307	0.3416979
32	0x3db6ab4c	0.08919391
33	0xbef97285	-0.48720184
34	0xbeb92fb0	-0.36169195
35	0x3d8fea7f	0.070271485
36	0xbf0d0a61	-0.5509396
37	0xbe9d32b1	-0.30702737
38	0x3eab0dfd	0.3340911
39	0x3e951820	0.29119968
40	0x3f129dcc	0.5727203
41	0xbdf85baf	-0.12126862
42	0xbf01f181	-0.5075913
43	0x3eb5aa38	0.3548143
44	0xbd33159f	-0.04372179
45	0xbea48d81	-0.3213921
46	0x3ddea8cf	0.108720414
47	0x3e51eb93	0.2050002
48	0x3eac80be	0.33691972
49	0xbe7bc9c6	-0.24588689
50	0xbdd7b5cf	-0.10532724
51	0xbe41e198	-0.18933713
52	0xbe9d741e	-0.30752653
53	0xbe351a17	-0.17685734
54	0xbeba65c9	-0.3640578
55	0xbe657a9b	-0.22410052
56	0x3f0a1deb	0.539519
57	0xbe031b3b	-0.12803356
58	0x3e711622	0.23543599
59	0xbe096a15	-0.13419373
60	0xbda6690a	-0.08125503
61	0xbecd5140	-0.4010105
62	0xbe5536fa	-0.20821753
63	0x3ec87d8f	0.39158294
64	0xbf06da05	-0.5267642
65	0x3ea8ff93	0.33007488
66	0x3eaa6f02	0.33287817
67	0xbe445a1b	-0.19174998
68	0x3e53298d	0.20621319
69	0xbe16a908	-0.14712918
70	0x3f5cab54	0.86198926
71	0x3c86002f	0.01635751
72	0xbec1158c	-0.3771175
73	0x3e363727	0.17794476
74	0x3e220512	0.15822247
75	0xbeb42942	-0.35187727
76	0x3dff48be	0.12465046
77	0x3e6c40e2	0.23071626
78	0x3d344d27	0.04401889
79	0xbec85972	-0.3913074
80	0xbe213636	-0.15743336
81	0xbdfd01a6	-0.1235383
82	0x3e94e25b	0.29078946
83	0x3efb6c43	0.49106035
84	0xbdbdaa2d	-0.09260974
85	0xbe8493d9	-0.2589405
86	0x3f076f7f	0.52904505
87	0x3dc8cdcf	0.0980488
88	0x3f0b0735	0.5430787
89	0xbddf869c	-0.109143466
90	0xbe1b99ca	-0.15195385
91	0x3f1dcd30	0.61641216
92	0x3e9ea691	0.30986455
93	0x3e1eedc5	0.1552039
94	0x3d124224	0.035707608
95	0x3d400180	0.04687643
96	0xbe0e8a93	-0.1392005
97	0xbc9467a7	-0.018115832
98	0x3eb082d5	0.34474817
99	0xbe5bc6d4	-0.21462566
100	0x3df7daf9	0.121023126
101	0xbedd64ed	-0.43241063
102	0xbec10e3a	-0.37706167
103	0x3e1890d0	0.14898992
104	0x3e42b280	0.19013405
105	0xbe957ec2	-0.2919827
106	0xbf0d6f98	-0.55248404
107	0xbe8904b7	-0.2676141
108	0xbce0e193	-0.027451312
109	0xbebd7da1	-0.3700991
110	0x3df00e42	0.117214695
111	0xbd905903	-0.07048228
112	0xbe72f862	-0.23727563
113	0x3eb431fe	0.3519439
114	0x3e395bdb	0.18101446
115	0xbdc46586	-0.095896766
116	0xbeb44a02	-0.35212713
117	0xbf202565	-0.6255706
118	0x3edd541a	0.43228227
119	0xbbcebad6	-0.0063088937
120	0xbef70ce8	-0.48252034
121	0xbce9eec9	-0.028556244
122	0x3e557c90	0.20848298
123	0xbb448232	-0.002998483
124	0x3e81deb9	0.25365236
125	0x3efee35e	0.49782842
126	0x3d523f25	0.05132975
127	0xbeb0af4c	-0.3450874
128	0xbe401a01	-0.1875992
129	0x3eb3fa5c	0.35151947
130	0xbe6e49c6	-0.2327033
131	0xbec206bb	-0.3789576
132	0x3df977e4	0.121810704
133	0xbe94a732	-0.2903381
134	0x3e49fea7	0.19726048
135	0x3f5f0b4d	0.8712662
136	0xbf269ce9	-0.65083176
137	0xbda3bf85	-0.07995514
138	0x3d21f284	0.03953792
139	0x3e2fcafe	0.17167279
140	0x3edbbff0	0.42919874
141	0xbdab0d9b	-0.083522044
142	0x3d485417	0.04890832
143	0xbe9815fd	-0.29704276
144	0xbca62175	-0.020279625
145	0xbe5623ef	-0.20912145
146	0x3d9209d3	0.0713078
147	0x3ee4ce5f	0.446887
148	0x3b1d8988	0.0024038274
149	0x3e650f36	0.22369084
150	0x3e0775c9	0.13228525
151	0x3e473c3a	0.19456568
152	0xbe8ddc59	-0.27707174
153	0xbf1e016b	-0.61720914
154	0x3ea337e2	0.31878573
155	0xbdf59841	-0.11991931
156	0x3dd39f7e	0.10333155
157	0x3f09ed26	0.53877485
158	0xbdd1926d	-0.102330066
159	0xbe7fecfe	-0.24992749
160	0xbc545433	-0.012959528
161	0xbbae1a10	-0.0053131655
162	0x3eb3d415	0.35122743
163	0xbe76bebe	-0.240962
164	0x3e67b4a9	0.2262751
165	0xbdb327e8	-0.08747846
166	0xbe90f5ff	-0.2831268
167	0x3e6b0c7a	0.22953978
168	0xbe992669	-0.29912117
169	0xbe902026	-0.28149527
170	0xbbb668e4	-0.005566703
171	0xbe003772	-0.1252115
172	0xbdf73ec2	-0.12072517
173	0xbf1485ba	-0.5801655
174	0x3ea28c9d	0.31747904
175	0xbb5d75d7	-0.0033792162
176	0xbe9b95ca	-0.30387717
177	0x3cb424da	0.021990228
178	0xbec4330c	-0.38320196
179	0x3dc4be62	0.09606625
180	0xbe92e4bc	-0.28690135
181	0xbeac1d2c	-0.33616006
182	0x3e1d182f	0.15341257
183	0x3e9059b0	0.28193426
184	0xbe5f0ded	-0.21782656
185	0x3c7b9f00	0.015357733
186	0x3b6ed64d	0.0036443651
187	0xbcbdf66c	-0.023188792
188	0xbdddcb92	-0.108298436
189	0x3f5c5fd6	0.86083734
190	0x3eac1ec8	0.33617234
191	0xbedb17ed	-0.4279169
192	0x3e0bd29b	0.13654558
193	0xbf5af522	-0.85530293
194	0xbdf5e1fe	-0.12005995
195	0xbf52f3e4	-0.824034
196	0xbf4eb903	-0.80751055
197	0x3d805fb1	0.06268252
198	0xbeef2201	-0.4670563
199	0x3dbb2c87	0.09139352
200	0xbf0acf9e	-0.5422305
201	0x3ef6a9cf	0.4817643
202	0xbea456c0	-0.32097435
203	0x3ea1795e	0.31537908
204	0x3cfa565d	0.03055876
205	0x3dcc150a	0.099649504
206	0x3e15d7b3	0.14633064
207	0x3d8e14e4	0.06937578
208	0x3dc52174	0.09625521
209	0xbebc28d6	-0.36749905
210	0x3e518585	0.2046109
211	0x3e2d5d36	0.16930088
212	0x3d8a2e87	0.06747156
213	0xbf5f23e7	-0.8716416
214	0x3eda00f6	0.42578858
215	0xbb0586c5	-0.0020374518
216	0xbf34442d	-0.7041653
217	0xbf030660	-0.511816
218	0xbef3be0c	-0.47605932
219	0x3c80492e	0.015659895
220	0x3f1bd5c9	0.60873085
221	0x3d2cd431	0.04219455
222	0x3e701489	0.23445334
223	0x3e5e89ac	0.21732205
224	0xbe64a75a	-0.22329465
225	0x3f040335	0.51567394
226	0xbe7ce1be	-0.24695489
227	0xbe882d62	-0.26597124
228	0xbf0e9fef	-0.5571279
229	0xbf1ece6f	-0.6203374
230	0x3eb09da0	0.34495258
231	0xbd342eec	-0.04399006
232	0x3db0bcf0	0.08629787
233	0x3dcd0830	0.10011327
234	0x3eaf64a2	0.34256464
235	0x3db165f7	0.086620264
236	0xbe0a4d34	-0.13506013
237	0xbe253731	-0.16134335
238	0x3e34ef59	0.17669429
239	0x3e3d4e5b	0.18486921
240	0xbeb22876	-0.34796494
241	0xbecf4da3	-0.4048892
242	0xbe7a5d45	-0.24449642
243	0xbed37fa9	-0.41308334
244	0x3e82f794	0.25579512
245	0x3e2d25d8	0.16908967
246	0x3f2bc1c0	0.67092514
247	0xbe51efe5	-0.20501669
248	0xbe4896cc	-0.19588774
249	0x3e189c6d	0.14903422
250	0x3f03506d	0.51294595
251	0xbe90cd39	-0.28281572
252	0x3e0c2028	0.13684142
253	0xbdf4787e	-0.119370446
254	0x3db7dd00	0.08977699
255	0xbe7a0347	-0.24415313

critic.2.bias f4 [64]
0	0xbd9800ca	-0.074220255
1	0x3d5f1be7	0.05446997
2	0x3d650ff8	0.055923432
3	0x3e917830	0.28412008
4	0xbe84e1b5	-0.2595345
5	0x3dd367a9	0.10322506
6	0xbdbfa8ae	-0.09358345
7	0x3db28ebd	0.087186314
8	0xbdd6d7a5	-0.1049035
9	0x3e1bd1dc	0.15216774
10	0x3dcf5f9b	0.10125657
11	0x3d960506	0.07325177
12	0x3e1fe2c0	0.15613842
13	0x3e191636	0.14949879
14	0xbe6a160a	-0.2285997
15	0xbe803f62	-0.25048357
16	0x3d05051d	0.03247558
17	0x3d9fc806	0.07801823
18	0xbe428481	-0.18995859
19	0xbe5f2de9	-0.21794857
20	0xbda6e04b	-0.08148249
21	0xbe783241	-0.2423792
22	0xbc64e876	-0.013971439
23	0x3d6566bc	0.05600618
24	0x3e8ed23a	0.27894765
25	0x3e36a1eb	0.17835204
26	0x3e439fb5	0.19103892
27	0xbe5618ae	-0.20907852
28	0x3df5b295	0.119969524
29	0xbe735235	-0.23761828
30	0xbcc4c16d	-0.024018014
31	0x3d5b7e70	0.053587377
32	0xbec45865	-0.3834869
33	0x3cf22a5c	0.029561214
34	0x3df08208	0.117435515
35	0x3e3b5eef	0.18297933
36	0x3e0f19a0	0.13974619
37	0x3e62db66	0.22154006
38	0xbe77f92b	-0.24216144
39	0x3da22cbc	0.07918689
40	0xbeed3e7b	-0.4633673
41	0xbe82bba6	-0.2553379
42	0x3c706176	0.014671674
43	0xbea6e655	-0.32597604
44	0x3d986e63	0.074429296
45	0xbe5d42c7	-0.21607505
46	0x3e622782	0.22085384
47	0xbea48313	-0.32131252
48	0x3dbbd26a	0.09170993
49	0xbe34bcb6	-0.17650113
50	0x3e8996ba	0.26872808
51	0x3b4f3a5b	0.0031620476
52	0xbd89c0f6	-0.067262575
53	0x3a98fa4b	0.0011671273
54	0xbe1b568f	-0.15169738
55	0x3e861f56	0.26195782
56	0x3dd5c57e	0.10438059
57	0xbf299fa0	-0.66259193
58	0xbe15a376	-0.14613137
59	0x3df78a24	0.12086895
60	0x3dca72b6	0.098851606
61	0xbe7d1d3d	-0.24718185
62	0x3c8d040f	0.01721385
63	0x3d68f12c	0.056870624

critic.4.weight f4 [1, 64]
0	0xc082776e	-4.077079
1	0x40685b71	3.6305811
2	0x407788e1	3.8677294
3	0xc09e2137	-4.9415545
4	0x40a52808	5.1611366
5	0x4053869d	3.3050911
6	0xc03d040e	-2.9533725
7	0x4047063e	3.109756
8	0xc06ed99d	-3.732032
9	0x4063d650	3.5599556
10	0xc05d1b82	-3.454804
11	0x4043fe3e	3.0623927
12	0x4054d9cd	3.3257935
13	0x404adb2a	3.1696267
14	0x40a0ecab	5.02889
15	0xc0586020	-3.380867
16	0xc05f5131	-3.4893305
17	0x40798a68	3.8990726
18	0xc0439435	-3.0559208
19	0x40a7bc83	5.2417617
20	0xc051a832	-3.2758908
21	0xc03bbd7c	-2.9334402
22	0xc05bf251	-3.4366648
23	0xc0503fc9	-3.2538931
24	0x40750149	3.8282034
25	0xc0a3a391	-5.1137166
26	0x404cb263	3.1983879
27	0x40653223	3.581185
28	0x40539e95	3.306554
29	0xc033f1db	-2.8116367
30	0x4074ec41	3.8269198
31	0x406601d7	3.5938623
32	0x409f5e88	4.9802895
33	0x406a0851	3.6567576
34	0x404652a4	3.098794
35	0x4054f0a5	3.3271878
36	0x4080821e	4.0158834
37	0x4089f932	4.3116693
38	0x40a59231	5.1740956
39	0x405f1fd6	3.486318
40	0x40bac0ee	5.836051
41	0xc04c432a	-3.1915994
42	0x407a338c	3.9093962
43	0x409aea3d	4.8410935
44	0x405018c0	3.2515106
45	0x40849eb3	4.1443725
46	0xc093b41b	-4.6157355
47	0x409b7bc8	4.85886
48	0x40552554	3.3304033
49	0x40a01c34	5.003443
50	0x4057eb77	3.3737466
51	0xc058dc17	-3.3884332
52	0x4076fcd5	3.8591816
53	0x408168b2	4.04403
54	0xc06e698d	-3.7251923
55	0xc0a89aa6	-5.268878
56	0xc065ea3f	-3.5924222
57	0xc03c2a00	-2.9400635
58	0x408c60a4	4.386797
59	0x404a60a6	3.162149
60	0x405f6693	3.4906356
61	0x409af6fc	4.8426495
62	0xc05c04f8	-3.4378033
63	0xc08d48d0	-4.4151382

actor_mean.0.weight f4 [64, 27]
0	0xbdd21406	-0.102577254
1	0xbeaa28da	-0.33234292
2	0x3e02b755	0.12765248
3	0xbec2a1e2	-0.38014132
4	0xbcc4b986	-0.024014246
5	0xbea3b218	-0.31971812
6	0x3e0d056e	0.13771603
7	0x3e94dda5	0.2907535
8	0xbd32c2ba	-0.043642737
9	0x3e186413	0.14881925
10	0x3e5e52e6	0.2171131
11	0x3ef6430c	0.48098028
12	0x38832e2f	6.255169e-05
13	0xbd3696fa	-0.044577576
14	0xbdbd86b3	-0.092542075
15	0xbef3823b	-0.47560295
16	0x3f0b12ae	0.5432538
17	0xbe113b40	-0.14182758
18	0x3d8f635e	0.07001375
19	0xbd4651e1	-0.04841793
20	0x3e708b3e	0.23490617
21	0x3e511faa	0.20422235
22	0xbdaf5468	-0.08561021
23	0x3ed7768d	0.42082635
24	0x3d014d8e	0.031568103
25	0x3b8d33ef	0.0043091695
26	0xbdeb0992	-0.11476435
27	0xbeb2ac61	-0.3489714
28	0xbdb0d757	-0.08634823
29	0x3e440a23	0.19144492
30	0x3edb9519	0.4288719
31	0xbe908314	-0.28225005
32	0x3dfa22c7	0.122136645
33	0x3e4d9764	0.20077282
34	0xbd01d7d4	-0.03169997
35	0x3d698a21	0.057016496
36	0xbbc3e39c	-0.005978061
37	0xbe8735bf	-0.26408193
38	0x3e5713d1	0.21003653
39	0x3dc95cc2	0.09832145
40	0xbe090a60	-0.13382864
41	0xbe2fbea4	-0.17162567
42	0xbce649ac	-0.028111301
43	0x3ecc16a7	0.39861032
44	0x3e8cdc07	0.27511618
45	0xbeb5c97f	-0.35505292
46	0xbafbec8b	-0.0019220276
47	0x3b8276eb	0.0039814613
48	0xbcc5f242	-0.02416337
49	0xbe71ca04	-0.23612219
50	0xbe00cf48	-0.12579072
51	0x3e9180fb	0.28418717
52	0xbe3d10e6	-0.18463477
53	0xbec4241d	-0.38308802
54	0xbe8ad171	-0.27112916
55	0x3dcc1880	0.099656105
56	0x3ed98b31	0.42489007
57	0xbc0fb197	-0.008770368
58	0x3dc8c8d9	0.09803934
59	0x3e4f4ff6	0.20245346
60	0xbc5a8157	-0.013336501
61	0x3e5fed87	0.21867953
62	0xbd0f1d73	-0.034940194
63	0xbf1063c2	-0.5640222
64	0x3d29840f	0.041385707
65	0x3e6dd4e9	0.2322575
66	0xbb4d72fd	-0.0031349056
67	0x3d8a2278	0.06744856
68	0xbe8d8108	-0.27637506
69	0x3de56385	0.112006225
70	0x3dc6bce6	0.09703998
71	0xbec9a851	-0.39386228
72	0xbe88daaf	-0.26729342
73	0xbd7221bd	-0.059114207
74	0xbecafcc4	-0.3964597
75	0x3dd63d23	0.1046088
76	0x3da0f78a	0.07859714
77	0xbf0ab4db	-0.54182214
78	0x3e8a5241	0.2701588
79	0x3de938f2	0.113878146
80	0x3d8a0e8a	0.06741054
81	0x3e5bd56a	0.2146813
82	0x3ea14949	0.31501225
83	0x3eb913a9	0.36147812
84	0xbe1dc6ff	-0.15407942
85	0xbc19f2b4	-0.009396244
86	0x3ecbbacd	0.39790955
87	0x3e8e00a3	0.2773486
88	0x3f00faa2	0.50382435
89	0x3e7cb7d3	0.24679498
90	0x3e82b6cd	0.2553009
91	0xbe83ec71	-0.25766328
92	0xbe4a5941	-0.1976061
93	0x3e844319	0.2583244
94	0xbe102bd7	-0.14079224
95	0xbe98793c	-0.29779994
96	0xbe2ad31c	-0.16682094
97	0xbeedda35	-0.4645554
98	0xbe86af9f	-0.26305863
99	0xbe13712a	-0.14398637
100	0xbd0b89ef	-0.03406709
101	0x3eac73e3	0.33682165
102	0x3d508573	0.050908517
103	0x3ec5ecc8	0.38657212
104	0x3ea087c7	0.3135359
105	0xbea9bb6c	-0.33150804
106	0xbe831d52	-0.25608307
107	0xbe0ee2a5	-0.13953646
108	0x3e5c5e85	0.21520431
109	0x3ea61812	0.3244024
110	0xbec278f0	-0.37982893
111	0xbdc1d5ee	-0.09464632
112	0x3e34826a	0.17627874
113	0xbe243db3	-0.16039161
114	0xbe354598	-0.17702329
115	0x3df75383	0.120764755
116	0x3e4c1649	0.19930376
117	0xbe42e84d	-0.19033928
118	0xbe396441	-0.1810465
119	0x3e10aabf	0.14127634
120	0xbe009d8e	-0.12560102
121	0x3e229edf	0.15880917
122	0xbe4ac54d	-0.19801827
123	0xbddd63a7	-0.10810023
124	0xbdab48fd	-0.08363531
125	0xbe1eabc6	-0.15495214
126	0xbd639b00	-0.05556774
127	0xbea635ea	-0.32463008
128	0x3ef1e3cd	0.4724411
129	0x3db9e662	0.09077145
130	0xbb75d007	-0.0037508027
131	0x3d36eb95	0.044658262
132	0x3dd7f66d	0.10545049
133	0x3eeeb060	0.46618938
134	0x3e6d2bc8	0.23161232
135	0x3edae533	0.4275299
136	0xbe1c483c	-0.1526193
137	0x3f03b699	0.51450497
138	0x3f2a069a	0.66416323
139	0xbe99efd1	-0.30065778
140	0x3e8b1822	0.2716685
141	0x3f0c3a0e	0.54776084
142	0x3d3c047f	0.045902725
143	0xbef06253	-0.46950015
144	0xbea1a05a	-0.3156765
145	0xbe28e396	-0.16493067
146	0x3db6cf41	0.08926249
147	0x3eb2f76b	0.3495439
148	0xbe440c8e	-0.19145414
149	0xbdcd6203	-0.1002846
150	0x3e5a9491	0.21345736
151	0x3ec76436	0.38943642
152	0x3e1210c3	0.14264207
153	0x3d7ac19d	0.0612198
154	0xbdae934e	-0.0852419
155	0x3e24d3ef	0.16096471
156	0x3d8cb0a0	0.06869626
157	0x3e47a79b	0.1949753
158	0x3cbc3514	0.022974528
159	0xbbb7105b	-0.0055866665
160	0x3bedba93	0.0072549074
161	0xbe80e87a	-0.25177366
162	0xbc07574d	-0.00826056
163	0xbe10f5a7	-0.14156209
164	0x3eac1a7e	0.33613962
165	0x3e64a0e6	0.22327003
166	0xbeda192b	-0.42597327
167	0x3d9c166d	0.07621465
168	0xbdf1e78e	-0.11811744
169	0x3d9e869b	0.07740518
170	0x3ef12566	0.47098845
171	0xbbbbe8bc	-0.005734531
172	0xbe48cccc	-0.19609374
173	0xbdfa44eb	-0.12220176
174	0xbdc72763	-0.09724309
175	0x3eb4ee8c	0.35338247
176	0x3e7a481e	0.24441573
177	0xbe50d66a	-0.20394292
178	0xbdb82742	-0.08991863
179	0xbd947286	-0.07248406
180	0xbec7f5fd	-0.39054862
181	0xbe5beb3d	-0.21476455
182	0xbe69c3b0	-0.22828555
183	0x3ebb1369	0.36538246
184	0x3dae9c67	0.08525925
185	0xbb94cdde	-0.004541143
186	0xbee70348	-0.4511969
187	0x3e751e6e	0.23937389
188	0xbdc597f2	-0.09648122
189	0xbeb3cb7e	-0.3511619
190	0x3ec9ae3a	0.39390737
191	0xbceb5897	-0.028728766
192	0xbbeabfc6	-0.0071639745
193	0x3e325e46	0.17418775
194	0xbe9c8f6f	-0.3057818
195	0x3e24fefe	0.16112897
196	0x3e0ee2f5	0.13953765
197	0x3d9fa1a9	0.07794506
198	0xbdd43e5d	-0.10363457
199	0xbb94c7a4	-0.0045404006
200	0xbe252902	-0.16128924
201	0xbeb5a0b7	-0.35474178
202	0xbe57d8d1	-0.21078803
203	0x3d20e572	0.039281316
204	0x3da23124	0.07919529
205	0xbf1b3bde	-0.60638225
206	0x3eeaa2fd	0.45827475
207	0x3e91a8f5	0.28449216
208	0xbec003ce	-0.37502903
209	0xbde62f68	-0.11239511
210	0xbc55de12	-0.013053434
211	0x3eb35873	0.3502842
212	0x3d01dfcb	0.031707566
213	0xbdbea4d0	-0.09308779
214	0x3de3753e	0.111063465
215	0x3e0efbc1	0.13963224
216	0x3d42c33b	0.047549468
217	0xbe46a652	-0.19399384
218	0x3ebb567f	0.3658943
219	0xbd2a2635	-0.041540343
220	0xbddb838e	-0.107184514
221	0x3f233171	0.63747317
222	0x3e23b160	0.15985632
223	0xbe58eb55	-0.21183522
224	0xbec29872	-0.38006932
225	0x3e39e96f	0.18155454
226	0xbde531de	-0.11191152
227	0xbe0f965b	-0.140222
228	0x3d9f5ca1	0.077813394
229	0x3e657a93	0.2241004
230	0xbd1cd3ec	-0.038288042
231	0xbea7752a	-0.32706577
232	0x3e0dfb32	0.13865355
233	0x3f19fb95	0.6014951
234	0xbe48d2fc	-0.19611734
235	0x3eb9d65e	0.36296362
236	0x3eb106c1	0.34575465
237	0xbe1ec92b	-0.15506427
238	0xbebed945	-0.37275138
239	0xbe1e64fd	-0.15468211
240	0xbe7adb8a	-0.2449781
241	0xbca5eca5	-0.020254442
242	0xbb5f95a4	-0.0034116292
243	0xbe1451d0	-0.14484334
244	0xbe041a82	-0.12900737
245	0x3e5a56f3	0.21322231
246	0x3f06c04d	0.5263718
247	0xbe5ba86c	-0.21450967
248	0xbe8b4d84	-0.27207577
249	0x3ec02560	0.37528515
250	0xbe29edde	-0.16594645
251	0x3d5d812d	0.05407827
252	0xbe2f9cb2	-0.17149618
253	0x3d3585da	0.044317104
254	0xbf47dd20	-0.78071785
255	0xbba022c6	-0.004886958

actor_mean.0.bias f4 [64]
0	0xbe412ba0	-0.18864298
1	0x3e16c98e	0.14725325
2	0xbdeaf10e	-0.11471759
3	0x3e7491e1	0.23883773
4	0x3d62c63c	0.055364832
5	0x3e7b8448	0.2456218
6	0xbe843c0f	-0.2582707
7	0xbe05136e	-0.12995693
8	0x3cab6018	0.020919845
9	0x3d8f9b9e	0.070121035
10	0x3cd80e54	0.02637402
11	0x3db1eb56	0.08687465
12	0x3cd0a738	0.025470361
13	0x3b44d07a	0.0030031488
14	0x3d021f19	0.03176794
15	0xbd68b4fa	-0.056813218
16	0xbea05a76	-0.31319016
17	0x3e632a31	0.22184063
18	0xbcab9ab0	-0.020947784
19	0x3e04163f	0.12899111
20	0x3e17b49a	0.14814988
21	0xbd81241f	-0.06305718
22	0x3e1b4ab2	0.15165213
23	0x3d8ef75a	0.06980772
24	0x3dd7fe63	0.10546567
25	0xbe032353	-0.12806444
26	0x3e338e95	0.1753486
27	0xbe98266b	-0.2971681
28	0x3d2bc778	0.041938275
29	0xbdbe115f	-0.09280657
30	0xbe8b0f25	-0.27159992
31	0xbe19ee86	-0.15032396
32	0xbe4767d3	-0.194732
33	0x3e3766db	0.1791033
34	0x3d37de8b	0.044889968
35	0xbe6d05ab	-0.23146693
36	0x3e6a4c00	0.22880554
37	0x3de968e5	0.1139696
38	0x3e236da0	0.15959787
39	0x3e563d6d	0.2092187
40	0xbd91fb32	-0.0712799
41	0xbe4ae8e9	-0.1981541
42	0xbd15a154	-0.036530808
43	0x3d1d64a7	0.038426068
44	0xbe4ad760	-0.19808722
45	0x3d937a42	0.07201053
46	0x3e8407e0	0.25787258
47	0xbe3f29a4	-0.18668228
48	0xbdb6045e	-0.08887552
49	0x3d7cb1f9	0.061693165
50	0xbd119aba	-0.03554795
51	0x3e6bc6cb	0.23025052
52	0x3d0dba21	0.034601334
53	0xbe3a701c	-0.18206829
54	0xbe1215a4	-0.14266068
55	0xbe4a233c	-0.19740003
56	0xbd6496d8	-0.05580792
57	0x3cf6f23e	0.030144807
58	0xbe0d3406	-0.13789377
59	0xbe458ff9	-0.19293202
60	0x3ccdb256	0.025109451
61	0x3e1228eb	0.14273421
62	0x3b65d15a	0.003506741
63	0xbe35183b	-0.17685024

actor_mean.2.weight f4 [64, 64]
0	0xbee3bd15	-0.44480196
1	0x3e1a401f	0.15063523
2	0x3d2af3b4	0.04173632
3	0xbd60aa8f	-0.054850157
4	0x3e852f99	0.26012877
5	0xbe28a038	-0.16467369
6	0x3d7ffb14	0.062495306
7	0x3e6f25f1	0.23354317
8	0x3ca4b261	0.020104589
9	0xbe11a0f2	-0.14221552
10	0x3d8f45c0	0.06995726
11	0xbe64138f	-0.22273086
12	0x3d644db7	0.055738177
13	0xbc9569bc	-0.018238895
14	0x3d4fb293	0.05070741
15	0x3e5b27db	0.21401922
16	0x3e8b6974	0.27228892
17	0xbedf8cd2	-0.43662125
18	0xbdd718de	-0.1050279
19	0xbe508651	-0.20363738
20	0xbd73e122	-0.059540875
21	0x3e968e16	0.29405278
22	0xbd8f2e82	-0.069912925
23	0xbe11cdd9	-0.14238681
24	0xbdaaaa12	-0.083332196
25	0x3e827e30	0.25486898
26	0x3e16fce3	0.14744906
27	0x3da16d7d	0.07882211
28	0x3e0a0ac3	0.13480668
29	0xbccba88e	-0.024860647
30	0xbdc01a4e	-0.09380017
31	0x3dc26f00	0.09493828
32	0xbe4f3437	-0.20234762
33	0x3e4696e6	0.193935
34	0xbeac1267	-0.3360779
35	0x3bca0927	0.006165642
36	0x3e52235c	0.20521301
37	0x3e381968	0.17978442
38	0x3e789c2f	0.2427833
39	0x3db69c92	0.08916582
40	0xbdb4cfc7	-0.08828693
41	0xbe6d418a	-0.23169532
42	0x3f2948bb	0.661266
43	0xbe963c8f	-0.29343078
44	0x3ee5024c	0.44728315
45	0xbe5db1c8	-0.2164985
46	0x3e98d2af	0.2984824
47	0xbe975ce5	-0.2956306
48	0x3e0da6ce	0.13833162
49	0x3e3fd7d8	0.18734682
50	0xbf023a28	-0.5086999
51	0x3ec96adc	0.3933934
52	0xbdc74cff	-0.09731483
53	0xbef562db	-0.47926983
54	0xbe7d339d	-0.2472672
55	0xbd874f11	-0.066068776
56	0x3e7d63ec	0.24745148
57	0x3e9b0e0f	0.30284163
58	0x3da15b72	0.0787877
59	0xbdd70bfb	-0.10500332
60	0xbed343f6	-0.41262788
61	0xbeb494b3	-0.35269699
62	0xbc49607f	-0.012291073
63	0xbea6a01b	-0.32544026
64	0xbeaa13d7	-0.33218262
65	0xbe246ba6	-0.1605669
66	0x3e2bcfec	0.16778535
67	0x3e2373fb	0.15962212
68	0x3e8136eb	0.25237212
69	0x3e4b8df1	0.19878365
70	0x3dea06b7	0.11427062
71	0xbdc155a2	-0.09440161
72	0x3e607589	0.21919836
73	0xbe903055	-0.28161874
74	0xbcf5af73	-0.029990887
75	0x3d122e7a	0.035688855
76	0x3e3adb7f	0.18247794
77	0x3e6114a2	0.21980527
78	0x3ed1b94c	0.40961683
79	0x3efbbf6b	0.49169478
80	0xbee5c834	-0.44879305
81	0x3af74e73	0.0018867984
82	0xbdf7f33b	-0.121069394
83	0x3f0b5fb8	0.5444293
84	0xbede581d	-0.434266
85	0xbc28ccb6	-0.010302713
86	0x3d2414c2	0.04005886
87	0xbd7f3923	-0.06231035
88	0x3d5e43b2	0.054263778
89	0xbd87ae14	-0.06625
90	0xbdd6cca8	-0.10488254
91	0xbe691766	-0.22762832
92	0xbe08b49d	-0.13350148
93	0xbdcd4e6f	-0.10024726
94	0x3e30db33	0.17271118
95	0x3d69cfdf	0.057083007
96	0xbd07319b	-0.03300629
97	0xbe3c8471	-0.18409897
98	0xbf139f88	-0.576653
99	0xbe9a0577	-0.30082294
100	0x3e822bd3	0.2542406
101	0xbcebf9bb	-0.028805604
102	0x3e2cb14d	0.1686451
103	0x3c44437d	0.011978981
104	0x3e4824b5	0.19545253
105	0xbdbd0b38	-0.092306554
106	0xbe3c1459	-0.18367137
107	0x3e2ceb4e	0.16886637
108	0x3e13a9dd	0.14420266
109	0x3e3d90e9	0.1851231
110	0x3ec04fd4	0.37560904
111	0xbedef390	-0.43545198
112	0xbe8b52ae	-0.27211517
113	0x3e9021e4	0.28150856
114	0x3f152d3b	0.5827214
115	0xbe2681b8	-0.16260421
116	0x3dc545b3	0.09632435
117	0x3e845341	0.25844768
118	0x3e81d979	0.2536123
119	0xbdb0ce58	-0.08633107
120	0x3e468f50	0.19390607
121	0xbe6e6a05	-0.2328263
122	0x3e17c547	0.14821349
123	0x3e0448ae	0.1291835
124	0x3df46da7	0.11934977
125	0x3dfe80c0	0.12426901
126	0x3db05de6	0.0861166
127	0xbf2f6390	-0.68511295
128	0xbe0af861	-0.13571312
129	0x3e1a3cf0	0.15062308
130	0x3e3520e8	0.17688334
131	0xbec5d0b2	-0.38635784
132	0xbda36980	-0.07979107
133	0xbc805109	-0.01566364
134	0xbe0bbcdf	-0.13646267
135	0x3e03b278	0.12861049
136	0xbe4729b8	-0.19449508
137	0x3e7c6f44	0.2465182
138	0xbedcf140	-0.4315281
139	0xbca2b3db	-0.019861152
140	0x3ea600f8	0.32422614
141	0xbe60cde5	-0.21953543
142	0x3cc6f3f4	0.024286248
143	0xbeac9203	-0.33705148
144	0x3e96baea	0.2943948
145	0x3ed49f3e	0.41527742
146	0xbddcb104	-0.107759506
147	0x3d867a11	0.06566251
148	0x3d2fb384	0.04289581
149	0xbc9aa40c	-0.018877052
150	0xbe2f8e5b	-0.17144148
151	0xbed1e466	-0.40994567
152	0xbd938327	-0.0720275
153	0xbf09e49c	-0.53864455
154	0xbedd1736	-0.4318177
155	0x3eba638d	0.36404076
156	0x3bf35989	0.007426445
157	0x3f0e593d	0.55604917
158	0xbd38cc23	-0.045116555
159	0x3eae3da1	0.34031394
160	0x3ee03569	0.4379075
161	0xbe68e993	-0.22745351
162	0xbe34f431	-0.17671277
163	0xbd822a0b	-0.06355675
164	0x3e9279d8	0.28608584
165	0xbda90370	-0.08252609
166	0xbcc7bed2	-0.024382982
167	0xbe40c674	-0.18825704
168	0x3e8d355b	0.2757977
169	0x3df0f6c6	0.11765818
170	0x3e275c2d	0.16343756
171	0xbe022055	-0.12707646
172	0xbce053f5	-0.027383784
173	0xbcb90bdf	-0.022588668
174	0x3e40c085	0.1882344
175	0x3ce7921c	0.028267913
176	0x3d5a4350	0.05328685
177	0x3ecfeb60	0.40609264
178	0xbb6cdd48	-0.0036142636
179	0x3e2b687b	0.16739075
180	0xbe1d4401	-0.15357973
181	0xbe4dc868	-0.2009598
182	0xbe49b796	-0.19698939
183	0xbe12d453	-0.14338808
184	0x3e6e09be	0.23245904
185	0xbce88033	-0.028381443
186	0xbdb6eaaf	-0.08931481
187	0xbd9013b7	-0.0703501
188	0x3e78f99e	0.24313971
189	0x3e47e327	0.19520245
190	0x3db5810d	0.08862505
191	0x3ec9a05d	0.3938016
192	0x3e873e4e	0.26414722
193	0xbe346434	-0.1761635
194	0xbedaa2b5	-0.4270226
195	0x3dc24dee	0.0948752
196	0x3eb89cf6	0.36057252
197	0xbdff3737	-0.12461703
198	0x3ded1ebe	0.11578129
199	0x3df29728	0.11845237
200	0x3e01512e	0.12628624
201	0x3d3d1816	0.04616555
202	0xbec83c33	-0.39108428
203	0xbe84b806	-0.2592165
204	0x3e561971	0.20908143
205	0xbe22cb97	-0.15897976
206	0xbd9ed68d	-0.07755766
207	0xbe2106a6	-0.15725192
208	0xbde90498	-0.11377829
209	0xbe6328e7	-0.22183572
210	0x3e4e58c8	0.20151055
211	0xbed03154	-0.40662634
212	0x3e15a146	0.14612302
213	0xbe0537f9	-0.13009633
214	0xbd95d800	-0.07316589
215	0xbe4c9a3a	-0.19980708
216	0xbf00c939	-0.5030704
217	0x3d18fb78	0.037349194
218	0x3b9a284c	0.004704511
219	0x3d1a0dcf	0.037610825
220	0xbecb06c6	-0.39653605
221	0xbeda6ae3	-0.42659673
222	0xbeb6bbdd	-0.35690203
223	0xbd2a0f66	-0.04151859
224	0xbe1c3d41	-0.15257742
225	0xbe0c2375	-0.13685401
226	0x3ed6ec9e	0.419774
227	0x3dd9d4e9	0.106363125
228	0xbe130cdc	-0.14360374
229	0x3e4ba9b1	0.19888951
230	0xbe01a84d	-0.12661858
231	0xbd194251	-0.03741676
232	0x3d826eac	0.06368765
233	0x3bcc60b6	0.006237115
234	0xbec971e0	-0.39344692
235	0xbbfcfb2e	-0.0077203726
236	0x3f1c470c	0.6104591
237	0xbe8ff145	-0.28113762
238	0x3e079808	0.13241589
239	0xbe6821a3	-0.22669081
240	0x3d9a34fa	0.07529636
241	0xbea443cd	-0.32082978
242	0xbe4bc6be	-0.19900033
243	0xbe11cedb	-0.14239065
244	0xbe43d1fe	-0.19123074
245	0x3f005836	0.501346
246	0x3e86a0cc	0.26294553
247	0xbcb02b1d	-0.021504933
248	0x3dda1739	0.106489606
249	0x3ea61806	0.32440203
250	0xbe4f0217	-0.20215641
251	0xbb72c272	-0.0037042168
252	0xbdacdee4	-0.084409505
253	0x3e22cce0	0.15898466
254	0xbe54e727	-0.20791303
255	0x3c3a8150	0.01138337

actor_mean.2.bias f4 [64]
0	0xbd821c00	-0.06352997
1	0x3dd550b6	0.10415785
2	0x3c963562	0.018336002
3	0xbd83d19b	-0.064364634
4	0xbbe2d1be	-0.006921976
5	0xbdc760f1	-0.09735287
6	0xbe681364	-0.22663647
7	0xbd988143	-0.0744653
8	0x3ce68a47	0.028142108
9	0xbd18d275	-0.037310082
10	0x3dc139fe	0.09434889
11	0x3e045a5c	0.12925094
12	0xbe588c8c	-0.21147364
13	0x3b0b2159	0.0021229594
14	0x3e559e74	0.20861226
15	0x3ea342f5	0.31887022
16	0x3dc7884e	0.09742795
17	0xbd63ce2d	-0.055616546
18	0x3ec387e4	0.38189614
19	0xbe3ec497	-0.1862968
20	0xbe2d547b	-0.16926758
21	0xbdcf10fc	-0.101106614
22	0x3cc440f6	0.023956757
23	0x3d580248	0.05273655
24	0xbda184ee	-0.078866825
25	0x3d828dc9	0.063746996
26	0x3d067415	0.03282555
27	0xbda42214	-0.080143124
28	0xbe0ca8c9	-0.13736261
29	0x3dca8438	0.098885
30	0x3d487d5d	0.04894768
31	0x3b8d19d7	0.004306059
32	0xbce1fd8a	-0.027586717
33	0x3dda4ba1	0.10658956
34	0x3e07baf7	0.13254915
35	0x3cd24123	0.025665825
36	0x3c226aa5	0.009913121
37	0xbe19650d	-0.14979954
38	0x3d465497	0.048420515
39	0x3bd1a556	0.0063978834
40	0xbe5f1fdb	-0.21789496
41	0x3c995041	0.018715026
42	0x3e76bb26	0.24094829
43	0xbce30de6	-0.027716588
44	0x3e2e2e07	0.17009746
45	0x3e2900e6	0.16504249
46	0xbe4be1ae	-0.19910309
47	0x3ceb13a7	0.028695894
48	0x3e4f8753	0.20266466
49	0x3ddf066a	0.10889895
50	0x3d406ea5	0.04698052
51	0x3d78daf9	0.060755704
52	0x3e4a71a6	0.19769916
53	0x3e7075a2	0.23482373
54	0x3e04650c	0.12929171
55	0x3e89a7f4	0.2688595
56	0xbd0a9a66	-0.033838652
57	0xbb8abef1	-0.004234188
58	0xbd05fce2	-0.03271187
59	0xbe8333ae	-0.25625366
60	0xbdd84ae6	-0.10561161
61	0x3e135c14	0.14390594
62	0x3e152838	0.14566123
63	0x3db13e4d	0.08654461

actor_mean.4.weight f4 [8, 64]
0	0x3d60bfc8	0.054870397
1	0xbccd2160	-0.025040329
2	0x3cdc6310	0.026902705
3	0xbcc6642f	-0.024217693
4	0x3d89953b	0.067179166
5	0xbd42836b	-0.04748861
6	0x3c681615	0.014165421
7	0x3d8ae362	0.06781651
8	0x3d0a909f	0.033829328
9	0xbc84b08b	-0.016197463
10	0xbc4db0de	-0.012554375
11	0xbd4da02a	-0.050201572
12	0xbd8c91d8	-0.06863755
13	0xbb6c03d3	-0.0036013022
14	0xbc08c110	-0.008346811
15	0xbcb16eaa	-0.021659214
16	0xbc13993d	-0.009008703
17	0xbd0d2d30	-0.034466922
18	0xbd927686	-0.07151513
19	0x3dfd40e8	0.123658955
20	0x3c970315	0.018434087
21	0xbc1b0dd9	-0.009463751
22	0xbc834293	-0.016022956
23	0xbcb202c4	-0.021729834
24	0xba415492	-0.00073749677
25	0x3d07dfa3	0.03317226
26	0x3b6fe647	0.0036605762
27	0xbcbde95f	-0.02318257
28	0x3da8fdc7	0.08251529
29	0x3ce02d30	0.027365297
30	0x3d2d4e8d	0.04231124
31	0xbc4692d5	-0.012119968
32	0xbcfd1aeb	-0.030896625
33	0xbcf5548e	-0.029947545
34	0x3d30fc04	0.04320909
35	0x3dd7e42a	0.10541566
36	0x3c91139a	0.017709542
37	0x3dc695d5	0.09696547
38	0x3be15eb1	0.006877743
39	0x3c8b37df	0.016994415
40	0xbc800fa2	-0.015632454
41	0x3dc0014b	0.093752466
42	0x3ce60356	0.028077763
43	0x3dd0a41a	0.1018755
44	0xbd2cf43a	-0.0422251
45	0x3ab6c26d	0.0013943441
46	0x3d6d7077	0.057968583
47	0x3d247a4e	0.0401557
48	0xbc5213c5	-0.012822096
49	0xbd1b0178	-0.037843198
50	0xbd0982b1	-0.033571903
51	0x3d912075	0.07086269
52	0x3d68cc7e	0.056835644
53	0x3d898e3d	0.06716583
54	0xbd44146c	-0.04787104
55	0xbd5b9bbf	-0.053615328
56	0xbc965858	-0.018352672
57	0x3d60be63	0.054869067
58	0xbc19dd91	-0.009391204
59	0x3d70c1a5	0.058778424
60	0x3ddf8219	0.10913486
61	0x3b923c20	0.004462734
62	0x3d0fe7a0	0.035133004
63	0xbc74b5a8	-0.014935888
64	0x3da38eef	0.07986247
65	0x3d0e1475	0.034687478
66	0xbceef4f9	-0.029169546
67	0xbd7174d5	-0.05894931
68	0xbb0f2bdd	-0.0021846213
69	0x3e1ccbcd	0.15312119
70	0x3d289c0c	0.041164443
71	0xbb60bc80	-0.0034292042
72	0x3de9273c	0.113844365
73	0xbd37b71c	-0.04485236
74	0x3c9608df	0.018314777
75	0xbcca0f21	-0.024665417
76	0xbe3843c0	-0.17994595
77	0x3e2eb87e	0.17062566
78	0xbda64480	-0.08118534
79	0xbd8b4e93	-0.06802096
80	0xbc25d68b	-0.010121952
81	0xbd848009	-0.06469733
82	0x3d81b6e6	0.06333713
83	0xbd440562	-0.047856696
84	0x3d48862f	0.048956092
85	0x3d121311	0.035662714
86	0x3dba3c19	0.09093494
87	0xbd123abc	-0.035700545
88	0xbd0a36cf	-0.033743676
89	0xbdb9c66a	-0.090710476
90	0x3db59143	0.08865597
91	0x3d8b4fe9	0.06802351
92	0x3ccc2fb3	0.024925089
93	0x3c72d840	0.014822066
94	0x3d52f811	0.051506106
95	0x3dd79aa9	0.10527546
96	0xbdcb92ba	-0.09940095
97	0xbe0630bd	-0.1310453
98	0x3dd86eb2	0.105679885
99	0x3b212c6f	0.0024593135
100	0xbb444b32	-0.0029952046
101	0xbd630370	-0.0554232
102	0xbcf71989	-0.030163543
103	0x3c0bbc09	0.008528718
104	0xbd970175	-0.07373325
105	0xbcc96445	-0.024583945
106	0x3ce85cd8	0.028364584
107	0xbdf01430	-0.117226005
108	0xbc6e6f46	-0.014552897
109	0xbb8356a2	-0.00400813
110	0xbd2c1656	-0.04201349
111	0x3d55aab7	0.05216476
112	0xbd28a3c8	-0.04117182
113	0xbe2fc3fe	-0.17164609
114	0xbce99cf5	-0.028517226
115	0x3dbe6f17	0.092985325
116	0xbdfdaf0e	-0.12386905
117	0x3b5b9bdc	0.0033509647
118	0xbc2208c9	-0.00988979
119	0x3d29f37c	0.04149197
120	0x3cff19f1	0.0311403
121	0xbdd1ca73	-0.10243692
122	0x3b56c8f0	0.0032773577
123	0x3d2b533a	0.041827418
124	0x3d7caacd	0.061686326
125	0x3c40ee91	0.011775629
126	0x3c18ee11	0.009334103
127	0x3da09df3	0.078426264
128	0xbb430fa5	-0.0029763964
129	0x3d4e747c	0.050404057
130	0x3ddace4d	0.1068388
131	0x3dfe295b	0.12410232
132	0xbd226017	-0.03964242
133	0x3dda1090	0.1064769
134	0xbd805cf5	-0.0626773
135	0x3dc79df6	0.097469255
136	0xbd8455b3	-0.06461658
137	0xbd02d09f	-0.031937238
138	0xbd1247e2	-0.035713084
139	0xbd5f7479	-0.054554436
140	0x3e0fc1f2	0.14038828
141	0x3d3e6174	0.046479657
142	0x3d5e280c	0.05423741
143	0xbd906ea6	-0.070523545
144	0xbc848093	-0.01617459
145	0x3910d14d	0.00013810881
146	0xbc84af7a	-0.016196955
147	0xbd03ccb6	-0.03217765
148	0xbd286182	-0.041108616
149	0xbd640f89	-0.055678878
150	0x3c9059ac	0.017620884
151	0x3e097315	0.13422807
152	0x3d10c3ff	0.035343166
153	0x3d2ddd8e	0.04244762
154	0x3d8d910b	0.069124304
155	0xbda1f7bd	-0.079085805
156	0xbce7f0a1	-0.028312983
157	0xbde131ea	-0.109958485
158	0x3d940754	0.0722796
159	0xbc8795d5	-0.016550938
160	0xbe38329f	-0.1798806
161	0xbe1588a5	-0.14602907
162	0xbd49c3d5	-0.049259026
163	0x3cc5d6d6	0.024150293
164	0x3b45f137	0.003020359
165	0x3e1652c2	0.14680007
166	0x3db50fca	0.08840902
167	0xbd28fcef	-0.04125684
168	0xbdb4cbf0	-0.088279605
169	0x3d4e7f4c	0.05041437
170	0xbd7bb7dd	-0.061454643
171	0xbc3e0664	-0.011598203
172	0x3d05e97c	0.03269337
173	0x3d573d9f	0.052549
174	0xbd770fb2	-0.060317703
175	0xbd729c37	-0.05923101
176	0x3de9eb6f	0.114218585
177	0xbc4248a8	-0.011858143
178	0xbd16d484	-0.036823764
179	0xbd4fa7b4	-0.050697044
180	0x3be83309	0.007086162
181	0xbc2e4f89	-0.01063908
182	0xbd407e65	-0.04699554
183	0xbd84bde8	-0.06481534
184	0xbdc245c0	-0.0948596
185	0xbc3b3f8d	-0.011428726
186	0xbce4fdd6	-0.02795307
187	0xba573cde	-0.0008210669
188	0x3c967c84	0.01836992
189	0x3d3d2a22	0.04618276
190	0x3d03597d	0.032067765
191	0x3a1fa295	0.0006089595
192	0x3cebdf23	0.028792923
193	0xbd908e7f	-0.07058429
194	0x3d82590a	0.06364639
195	0x3e2166bb	0.15761845
196	0xbe300174	-0.17188054
197	0xbc911559	-0.017710375
198	0xbde234e4	-0.11045244
199	0xbd759bac	-0.059962913
200	0xbd227b86	-0.039668582
201	0xbcba4e6e	-0.022742476
202	0x3d6eb9e5	0.05828275
203	0xbe109850	-0.14120603
204	0x3dc3c6a8	0.09559375
205	0x3d37d31a	0.044879057
206	0x3db37c87	0.08763986
207	0xbdcd1f62	-0.100157514
208	0x3d695940	0.05696988
209	0x3d11b2d8	0.03557095
210	0xbd41ff2e	-0.0473625
211	0x3c86f0fc	0.016472332
212	0x3cea8b18	0.028630778
213	0x3c1f4f13	0.009723443
214	0xbc616517	-0.013757012
215	0xbc7ca2d9	-0.015419685
216	0x3d2d573b	0.042319518
217	0xb9ed204b	-0.00045228223
218	0x3d09ab9c	0.033610925
219	0x3d8e7a94	0.06956974
220	0xbd04c3ce	-0.032413296
221	0xbc391f7d	-0.011299011
222	0x3d8cff14	0.0688459
223	0xbc6f3c68	-0.014601804
224	0x3bedec73	0.007260853
225	0x3d82a20b	0.063785635
226	0xbd51fd0f	-0.051266726
227	0x3cafac44	0.021444447
228	0xbd81545a	-0.06314917
229	0x3d3637c0	0.04448676
230	0x3dc76467	0.09735947
231	0x3d2763f4	0.040866807
232	0xbdb62c40	-0.08895159
233	0x3d88bf22	0.06677081
234	0xbc40f02d	-0.011776012
235	0xbcb8c2f5	-0.0225539
236	0x3d6e4d43	0.05817915
237	0x3cb67f38	0.02227746
238	0x3d6fdada	0.058558322
239	0x3dd630d8	0.10458535
240	0x3be4ef2a	0.0069865184
241	0xbd661a97	-0.0561777
242	0x3d25a973	0.040444802
243	0xbd9f32bd	-0.077733494
244	0x3d256de3	0.040388
245	0x3d4417f5	0.04787441
246	0xbc4c40d0	-0.012466624
247	0x3b91aa18	0.0044453256
248	0xbd5b9e5e	-0.053617828
249	0x3a55606b	0.00081396726
250	0x3cb20778	0.021732077
251	0x3d2cbd05	0.04217245
252	0xbb4459f8	-0.0029960852
253	0x3ca82e7d	0.02052998
254	0x3ce2f427	0.027704312
255	0x3c217d77	0.009856573

actor_mean.4.bias f4 [8]
0	0xbd9e4def	-0.077297084
1	0xbd1ee7b5	-0.03879519
2	0x3e11afc1	0.14227201
3	0xbdb99a7e	-0.0906267
4	0x3a999b28	0.0011719214
5	0x3e13e9a2	0.14444593
6	0xbc4e655b	-0.012597407
7	0x3d8a4465	0.067513265
