DATA403_final/checkpoints/Ant-v4/PPO_3905.pt (torch, 54349 bytes, 12 tensors)

actor_logstd f4 [1, 8]
-1.643142 -1.3417909 -1.2423916 -1.7027091 -1.2856104 -4.8891616 -1.9487875 -2.080275
00000000: 7a52 d2bf cebf abbf b006 9fbf 5ff2 d9bf
00000010: e28e a4bf 0374 9cc0 de71 f9bf 3a23 05c0

critic.0.weight f4 [64, 27]
-0.082450606 -0.25612423 0.4365733 -2.5941985 0.20981617 -0.099475645 -0.123156175 0.057700206
-0.15485132 -0.18881337 0.3924441 -0.007817945 -0.08364679 -0.32901236 0.18661873 0.41647848
0.16654237 -0.26177418 -0.057369184 0.020642282 -0.06051306 -0.06547403 0.009940681 -0.000117587886
-0.0011187787 -0.013853647 -0.008292952 0.096824184 1.373402 0.026466804 0.82231593 0.8805568
0.43519387 -0.14008598 -0.03702225 0.21908683 0.35986692 0.09466218 0.19058962 0.07145663
0.0011089634 -0.05087037 0.17828993 0.0890375 0.04545906 0.058248166 0.024427515 -0.0001415275
0.022424133 0.007339912 0.016317513 0.0023483143 -0.00035386786 0.011889129 -0.27470428 0.38440534
-0.2904664 0.08804216 -1.285254 0.30061924 -0.114006214 -0.27714574 -0.045783523 -0.030943438
0.006285128 -0.29851824 -0.44334725 0.036345907 -0.08719467 -0.14430638 0.24958642 -0.15469135
0.118574895 0.04555968 -0.026679602 -0.038900137 0.0032598176 -0.0009405874 -0.009496034 0.06611271
0.043300252 -0.23832183 0.41566804 -0.8513872 -0.8342834 1.4005846 -0.23698969 0.16544873
-0.12660392 0.19450977 0.21067183 -0.05490013 -0.2547933 -0.03861694 0.018509192 -0.052187458
0.093032196 -0.04604228 -0.15734664 0.096308604 -0.008271257 -0.013093691 -0.009134902 -0.010966331
0.006500229 -0.026419515 0.025089366 -0.033604443 -0.7766643 0.2638924 1.2684596 -0.56748253
1.2335285 0.027944526 -0.070568055 0.05271709 -0.04596894 -0.33950752 -0.31667283 0.44946468
-0.0001893345 0.09276321 -0.18937802 -0.17699659 0.12722951 -0.28773227 0.120191246 0.011662538
-0.034671552 -0.03454577 0.008131398 0.011337902 -0.054874226 0.011748727 0.012984431 -0.39872146
-0.17588842 0.94769424 -1.013762 0.35576293 0.3696156 -1.0271976 -0.0737818 0.4311379
-0.04160458 0.3585275 0.07614151 -0.1416574 0.13514139 0.14096877 -0.44054466 0.09438653
0.008222689 -0.025161624 0.04053784 -0.054604452 0.0069654793 0.12981793 -0.056091573 0.02084884
-0.028538508 0.054617036 0.22051771 0.4185927 0.13338551 2.8568597 0.46594334 -0.0425739
0.11513439 0.12110942 0.034191303 0.17036195 -0.043474596 -0.05586976 0.45836684 0.081697986
0.13715184 -0.1566935 0.027273046 0.22635202 0.17508255 0.054935127 0.038561437 0.032063905
0.05792154 0.006381629 0.0037910182 0.005159566 0.025913935 -0.12667635 0.043490037 0.27479163
0.29064184 -0.13437448 0.017930204 0.391019 -0.24434623 -1.1451734 0.11864441 -0.30590057
-0.30261144 0.36405522 0.019887066 -0.17723696 -1.0673106 -0.225978 -0.21747409 -0.30549046
-0.017990343 0.047751054 -0.04940077 -0.068137564 -0.051723238 -0.010935618 -0.044287715 0.0076515055
0.32037443 0.42306378 0.66193336 -2.182184 0.8674998 -0.24124227 0.093462706 -0.0737994
-0.101192996 0.29318935 -0.09694768 0.41111538 -0.036959946 0.038907263 -0.1597217 0.086419456
0.0011356148 0.110532135 -0.002151954 0.003735676 0.013032757 -0.005449537 -0.03657993 0.012070808
0.014153999 0.02300198 0.051646102 0.5786922 -0.72215503 -0.11095972 -0.060232732 0.87381816
0.40164798 0.16235396 -0.27075982 -0.07462722 -0.3744587 -0.03600245 -0.0855346 0.19139546
00000000: dddb a8bd b722 83be 8986 df3e 5907 26c0
00000010: 0dda 563e e3b9 cbbd 4e39 fcbd 0d57 6c3d
00000020: 5891 1ebe 4b58 41be 6fee c83e d716 00bc
00000030: 024f abbd 4f74 a8be fb18 3f3e ab3c d53e
00000040: 158a 2a3e 4407 86be f3fb 6abd 011a a93c
00000050: 8bdc 77bd 4017 86bd 3dde 223c 8499 f6b8
00000060: fca3 92ba 68fa 62bc 29df 07bc c24b c63d
00000070: a3cb af3f e9d0 d83c 4c83 523f 2c6c 613f
00000080: bbd1 de3e b372 0fbe a5a4 17bd 4c58 603e
00000090: 7a40 b83e 3fde c13d ed29 433e db57 923d
000000a0: a35a 913a 735d 50bd a391 363e 4b59 b63d
000000b0: 4833 3a3d a195 6e3d 361c c83c 0067 14b9
000000c0: d1b2 b73c a583 f03b 4eac 853c 2de6 193b
000000d0: 5787 b9b9 9fca 423c 0aa6 8cbe c7d0 c43e
000000e0: 03b8 94be 734f b43d 3483 a4bf c4ea 993e
000000f0: 177c e9bd 0ce6 8dbe 8187 3bbd 187d fdbc
00000100: 7af3 cd3b 62d7 98be 69fe e2be 72df 143d
00000110: 1f93 b2bd 0dc5 13be 9593 7f3e 6967 1ebe
00000120: 65d7 f23d c99c 3a3d 2e8f dabc c055 1fbd
00000130: aaa2 553b c091 76ba 4195 1bbc 1a66 873d
00000140: 9b5b 313d a30a 74be 71d2 d43e 83f4 59bf
00000150: 9993 55bf 5b46 b33f 6dad 72be 646b 293e
00000160: 75a4 01be 922d 473e 5bba 573e f5de 60bd
00000170: 4474 82be cc2c 1ebd 97a0 973c 84c2 55bd
00000180: aa87 be3d d496 3cbd 7a1f 21be 723d c53d
00000190: 2b84 07bc ec86 56bc 8eaa 15bc 20ac 33bc
000001a0: dfff d43b bd6d d8bc 3788 cd3c d0a4 09bd
000001b0: 79d3 46bf e81c 873e e25c a23f 8946 11bf
000001c0: 43e4 9d3f ebeb e43c fc85 90bd e0ed 573d
000001d0: ed49 3cbd eed3 adbe f122 a2be 3c20 e63e
000001e0: 1888 46b9 a3fa bd3d 50ec 41be 983e 35be
000001f0: 7448 023e a551 93be d426 f63d 3b14 3f3c
00000200: c203 0ebd de7f 0dbd 8e39 053c 9cc2 393c
00000210: ccc3 60bd bc7d 403c a7bc 543c 3825 ccbe
00000220: 181c 34be 179c 723f f4c2 81bf 8f26 b63e
00000230: 423e bd3e 367b 83bf ea1a 97bd 1bbe dc3e
00000240: 9069 2abd eb90 b73e 14f0 9b3d a30e 11be
00000250: 8162 0a3e 1e5a 103e 128f e1be ba4d c13d
00000260: 75b8 063c c01f cebc 020b 263d eba8 5fbd
00000270: ad3e e43b feee 043e 47c0 65bd 30cb aa3c
00000280: 97c9 e9bc 1db6 5f3d 65cf 613e c851 d63e
00000290: 3696 083e cad6 3640 2090 ee3e f861 2ebd
000002a0: 94cb eb3d 3708 f83d 2e0c 0c3d 5d73 2e3e
000002b0: 6b12 32bd b1d7 64bd 0faf ea3e 4651 a73d
000002c0: 8871 0c3e 4374 20be b96b df3c d3c8 673e
000002d0: d748 333e a803 613d 99f2 1d3d 7155 033d
000002e0: 233f 6d3d fc1c d13b bb72 783b 9411 a93b
000002f0: 7649 d43c 72b7 01be 9c22 323d 7db1 8c3e
00000300: 02cf 943e 7799 09be 5de2 923c a433 c83e
00000310: e635 7abe 0b95 92bf d7fb f23d 009f 9cbe
00000320: e3ef 9abe 7265 ba3e 33ea a23c 9b7d 35be
00000330: a29d 88bf c766 67be 87b1 5ebe 3f69 9cbe
00000340: 7c60 93bc 9c96 433d 7658 4abd b58b 8bbd
00000350: bfdb 53bd 4e2b 33bc 0967 35bd 7bb9 fa3b
00000360: 1e08 a43e d19b d83e 7774 293f e7a8 0bc0
00000370: 7814 5e3f 3708 77be 6069 bf3d 2424 97bd
00000380: 463e cfbd ea1c 963e 818c c6bd b77d d23e
00000390: 5063 17bd 395d 1f3d 168e 23be affc b03d
000003a0: e9d8 943a ac5e e23d cc07 0dbb 3ed2 743b
000003b0: 5887 553c 0892 b2bb d6d4 15bd a3c4 453c
000003c0: 2de6 673c a66e bc3c dd8a 533d 2c25 143f
000003d0: 27df 38bf da3e e3bd 99b6 76bd 8cb2 5f3f
000003e0: cea4 cd3e 1e40 263e 08a1 8abe 28d6 98bd
000003f0: 0db9 bfbe 4e77 13bd c42c afbd 2cfd 433e

critic.0.bias f4 [64]
0.015576285 -0.18278338 -0.5120391 -0.61051965 0.15910904 -0.5829371 0.1408428 1.295475
-0.36813712 0.19969685 -0.42664108 0.35535324 1.02085 0.31362197 -0.20095456 -0.6449087
-0.78879744 -0.82714856 0.25909802 -0.1265577 0.07275552 0.021038024 0.3207921 0.67552185
-0.07973002 -0.54037994 0.1090109 0.32758045 0.36074066 1.1705711 -0.41255325 -0.6807436
-0.072329916 0.057613075 0.114300534 -1.3174932 -0.3145757 0.056315266 0.07490942 0.58255863
-0.37664056 -0.5460629 -0.30416125 -1.1096066 0.08520375 -0.7274282 0.5148063 0.5490947
-1.3681093 0.30811524 -0.7052117 -0.10966715 -0.25552982 -0.19654715 0.35374922 0.26276264
-1.0298251 -0.24446298 0.3351931 -0.124009326 0.828537 0.47977948 0.6373176 -0.92271125
00000000: ad33 7f3c 912b 3bbe ff14 03bf 044b 1cbf
00000010: 7bed 223e 5e3b 15bf 1839 103e 20d2 a53f
00000020: 787c bcbe 557d 4c3e b370 dabe dcf0 b53e
00000030: 36ab 823f 0f93 a03e 08c7 4dbe bd18 25bf
00000040: a1ee 49bf 02c0 53bf 7fa8 843e 5798 01be
00000050: d900 953d ef57 ac3c dd3e a43e 00ef 2c3f
00000060: 7e49 a3bd 5756 0abf 1b41 df3d a0b8 a73e
00000070: 00b3 b83e 46d5 953f 2e3a d3be 3645 2ebf
00000080: b521 94bd b0fb 6b3d 6616 ea3d 9ea3 a8bf
00000090: 1110 a1be d6aa 663d 1c6a 993d 9022 153f
000000a0: 08d7 c0be c7ca 0bbf 06bb 9bbe 9707 8ebf
000000b0: 4e7f ae3d bc38 3abf 58ca 033f 7891 0c3f
000000c0: 351e afbf 48c1 9d3e c188 34bf 2c99 e0bd
000000d0: ced4 82be a843 49be 9e1e b53e d388 863e
000000e0: 4fd1 83bf 8154 7abe 6e9e ab3e 9af8 fdbd
000000f0: 001b 543f a8a5 f53e 3f27 233f ce36 6cbf

critic.2.weight f4 [64, 64]
-0.16558684 -0.44753468 0.039550453 -0.26807576 -0.24665067 0.023905646 0.27244526 -0.22031662
-0.2517806 -0.036957417 0.38645402 -0.17103605 -0.26042703 -0.10679811 0.3898716 -0.5476532
-0.010252732 -0.18626344 -0.33870274 -0.09489128 -0.03685878 -0.22566311 0.24940598 -0.06610441
-0.16518374 -0.20465778 0.29926392 -0.41517928 0.026386281 -0.30423597 0.31600028 0.45362094
-0.0006119348 -0.44298172 -0.30683464 0.048510063 -0.3181577 -0.16654892 0.32861608 0.30522302
0.54477185 -0.13627785 -0.40315634 0.33596253 -0.041680492 -0.19573534 0.016069515 0.1984985
0.3204587 -0.30708653 -0.11528213 -0.057343982 -0.28552526 -0.101448275 -0.29447925 -0.16838956
0.56211144 -0.13637981 0.2822531 -0.10247084 -0.111943014 -0.43991935 -0.21242768 0.450127
-0.5168803 0.28794873 0.32658184 -0.20469402 0.016610874 -0.14017005 0.7951208 0.033418614
-0.37548912 0.06108017 0.24728534 -0.21526758 0.123614326 0.25944376 0.042739864 -0.3694789
-0.16319776 -0.13431208 0.32998374 0.33535624 -0.0015872387 -0.25256124 0.5102163 0.08668128
0.5645678 -0.15333627 -0.25534132 0.7044989 0.25688058 0.12732303 0.025137026 0.014511128
-0.11967197 0.027090484 0.33794963 -0.21596065 0.14042275 -0.4076997 -0.2808021 0.065358214
0.08356665 -0.25835314 -0.50901276 -0.26657453 0.039998256 -0.3470742 0.09935243 0.077983916
-0.23588331 0.36338535 0.19945146 -0.24818219 -0.09622985 -0.62306035 0.49329567 -0.04298616
-0.45708698 -0.103713796 0.1972613 -0.18161781 0.22291565 0.6280327 0.059291948 -0.37741426
-0.07989896 0.42841828 -0.188306 -0.34565362 0.08695867 -0.37172684 0.24189845 0.536503
-0.55204695 0.024581723 0.06053751 0.1350325 0.505259 -0.004928089 0.15611821 -0.21474662
-0.08646659 -0.25924316 0.10818141 0.21984321 -0.04449041 -0.03267525 0.2875566 0.22897923
-0.36770555 -0.5246975 0.06616088 -0.016357632 0.03236872 0.5721584 -0.1194921 -0.1323287
0.059073362 -0.091870956 0.33599496 -0.3097525 0.13668254 -0.0028442706 -0.18344766 0.30962813
-0.19050902 -0.27970305 0.06545572 -0.19498761 -0.12330409 -0.32655227 0.36706308 0.08272621
-0.37856707 0.11265232 -0.24511908 0.17160246 -0.17203242 -0.21752807 0.2561164 0.22387815
-0.29469433 -0.050689984 0.09649882 0.040848486 0.039254066 0.6299346 0.42602232 -0.39183643
0.16414878 -0.843902 -0.21118337 -0.7559294 -0.70944697 0.090097204 -0.40126628 0.11435611
-0.49161792 0.38141713 -0.13149603 0.4225186 0.003422916 -0.021499122 0.22026947 -0.02447532
0.099384144 -0.34889668 0.23950706 0.1124624 0.10996303 -0.76625925 0.3303672 0.03722374
-0.6253546 -0.5682341 -0.4537589 0.10388184 0.49896675 0.016909298 0.16743417 0.23724428
-0.2430713 0.5175827 -0.1015981 -0.23651725 -0.5932912 -0.62808895 0.30764377 -0.061904382
0.03564209 0.07713506 0.26984984 0.112654366 -0.05899452 -0.17269279 0.12809286 0.13248992
-0.31645614 -0.4429414 -0.29278466 -0.44783068 0.25079423 0.117839776 0.77665865 -0.117808394
-0.1886364 -0.06059596 0.42986733 -0.32419848 0.026858475 0.009065614 0.05610682 -0.21487707
00000000: 998f 29be 4423 e5be a8ff 213d 3a41 89be
00000010: fe91 7cbe c6d5 c33c f27d 8b3e ae9a 61be
00000020: 63e9 80be a960 17bd 4ddd c53e 1324 2fbe
00000030: b156 85be f8b8 dabd 409d c73e 0033 0cbf
00000040: 13fb 27bc d8bb 3ebe 726a adbe 5c56 c2bd
00000050: 3bf9 16bd 3b14 67be 4864 7f3e c061 87bd
00000060: ed25 29be cf91 51be 1f39 993e 6192 d4be
00000070: 0b28 d83c d1c4 9bbe caca a13e 0141 e83e
00000080: 406a 20ba 80ce e2be 6e19 9dbe 7db2 463d
00000090: 91e5 a2be cd8b 2abe 5e40 a83e 3146 9c3e
000000a0: 2b76 0b3f 6c8c 0bbe 826a cebe 4803 ac3e
000000b0: 2ab9 2abd d86e 48be 37a4 833c 3143 4b3e
000000c0: 2a13 a43e 723a 9dbe 0a19 ecbd 86e1 6abd
000000d0: 5e30 92be 1dc4 cfbd fcc5 96be 506e 2cbe
000000e0: 89e6 0f3f 26a7 0bbe 7a83 903e 3bdc d1bd
000000f0: 6142 e5bd 1c3d e1be a486 59be 0c77 e63e
00000100: 4452 04bf 046e 933e bc35 a73e 4f9b 51be
00000110: 8713 883c bd88 0fbe 098d 4b3f f5e1 083d
00000120: 1c40 c0be 332f 7a3d 5e38 7d3e 1b6f 5cbe
00000130: 8229 fd3d d0d5 843e ff0f 2f3d 572c bdbe
00000140: 501d 27be 1b89 09be a1f3 a83e d0b3 ab3e
00000150: e50a d0ba b54f 81be 899d 023f f485 b13d
00000160: 8487 103f 2f04 1dbe 19bc 82be 0a5a 343f
00000170: da85 833e f860 023e 2aec cd3c 15c0 6d3c
00000180: 9416 f5bd ddec dd3c bc07 ad3e ca24 5dbe
00000190: fbca 0f3e 04be d0be 4bc5 8fbe 87da 853d
000001a0: fe24 ab3d dd46 84be a94e 02bf 757c 88be
000001b0: 36d5 233d b6b3 b1be 4979 cb3d 08b6 9f3d
000001c0: 658b 71be a50d ba3e 013d 4c3e 7923 7ebe
000001d0: 2814 c5bd e280 1fbf 4091 fc3e 4112 30bd
000001e0: 4e07 eabe e667 d4bd defe 493e 05fa 39be
000001f0: 0044 643e c0c6 203f 1ddc 723d 713c c1be
00000200: 11a2 a3bd a459 db3e 4ad3 40be 83f9 b0be
00000210: 6317 b23d fb52 bebe 3ab4 773e 4358 093f
00000220: f352 0dbf 9c5f c93c 2ef6 773d f645 0a3e
00000230: a758 013f cf7b a1bb 74dd 1f3e 8ae6 5bbe
00000240: 6515 b1bd 85bb 84be 378e dd3d 941e 613e
00000250: 933b 36bd 7cd6 05bd 9e3a 933e 8879 6a3e
00000260: e743 bcbe 9352 06bf 5b7f 873d 7100 86bc
00000270: 1095 043d f978 123f 46b8 f4bd 2d81 07be
00000280: e9f6 713d d726 bcbd 8807 ac3e e197 9ebe
00000290: 82f6 0b3e f166 3abb b4d9 3bbe 9487 9e3e
000002a0: cc14 43be 3d35 8fbe a60d 863d d5aa 47be
000002b0: db86 fcbd dc31 a7be b1ef bb3e 5c6c a93d
000002c0: 8bd3 c1be 42b6 e63d 7f00 7bbe 8eb8 2f3e
000002d0: 4429 30be aebf 5ebe b021 833e 5040 653e
000002e0: 2de2 96be 4da0 4fbd 2ca1 c53d be50 273d
000002f0: dfc8 203d 6543 213f 991f da3e c99e c8be
00000300: 9e16 283e f609 58bf 7440 58be 9784 41bf
00000310: 519e 35bf e284 b83d c672 cdbe 8933 ea3d
00000320: 58b5 fbbe 1b49 c33e e5a6 06be 5c54 d83e
00000330: 0053 603b ed1e b0bc 528e 613e 7780 c8bc
00000340: ea89 cb3d 96a2 b2be 5741 753e b052 e63d
00000350: 4c34 e13d 9129 44bf e425 a93e ec77 183d
00000360: 3d17 20bf ca77 11bf 1653 e8be 01c0 d43d
00000370: 9278 ff3e 5e85 8a3c dd73 2b3e 2af0 723e
00000380: afe7 78be 4d80 043f aa12 d0bd 9431 72be
00000390: efe1 17bf 70ca 20bf 7c83 9d3e 738f 7dbd
000003a0: 71fd 113d fdf8 9d3d c229 8a3e 55b7 e63d
000003b0: 3da4 71bd 61d6 30be c62a 033e 70ab 073e
000003c0: 8a06 a2be 37c9 e2be dfe7 95be 104a e5be
000003d0: 1a68 803e fb55 f13d 1ad3 463f 8745 f1bd
000003e0: e729 41be 7833 78bd 9217 dc3e 58fd a5be
000003f0: 4e06 dc3c f187 143c 44d0 653d bc08 5cbe

critic.2.bias f4 [64]
-0.0533662 0.05452502 0.12419827 0.25526735 -0.26255786 0.11691437 -0.1430729 0.06716847
-0.102968 0.10996158 0.12565194 0.050507925 0.13046743 0.14738497 -0.23746443 -0.24410504
0.0647497 0.06542816 -0.16000922 -0.2084842 -0.060004264 -0.20745058 0.010448994 0.097639926
0.26536554 0.18845165 0.14367007 -0.19644792 0.099493034 -0.20925441 -0.028921215 0.05224275
-0.37819657 0.03603136 0.16763413 0.15336442 0.10664489 0.20128147 -0.234606 0.06578388
-0.4536584 -0.18444842 0.008697081 -0.3257584 0.019908873 -0.22345829 0.24306117 -0.36042637
0.061637335 -0.14396915 0.24581957 0.020980557 -0.0714415 0.022521144 -0.0945751 0.24910124
0.14409575 -0.65695065 -0.14996922 0.1015422 0.055696 -0.26835936 0.02483129 0.06040629
00000000: 8496 5abd a155 5f3d aa5b fe3d 67b2 823e
00000010: fc6d 86be cd70 ef3d b481 12be 9f8f 893d
00000020: e3e0 d2bd 8933 e13d e7aa 003e 66e1 4e3d
00000030: 4199 053e 16ec 163e e029 73be acf6 79be
00000040: 7e9b 843d 33ff 853d 75d9 23be e27c 55be
00000050: 08c7 75bd ed6d 54be 4232 2b3c 71f7 c73d
00000060: fedd 873e 78f9 403e 3f1e 133e a529 49be
00000070: 01c3 cb3d ca46 56be 2fec ecbc 7efc 553d
00000080: fba2 c1be 9f95 133d 48a8 2b3e 900b 1d3e
00000090: a368 da3d bb1c 4e3e 8e3c 70be b3b9 863d
000000a0: ea45 e8be 0ce0 3cbe 347e 0e3c cec9 a6be
000000b0: ef17 a33c 40d2 64be 07e5 783e ce89 b8be
000000c0: 6e77 7c3d a66c 13be 20b8 7b3e 6bdf ab3c
000000d0: ec4f 92bd 437e b83c 97b0 c1bd 6514 7f3e
000000e0: d68d 133e eb2d 28bf 8891 19be 5bf5 cf3d
000000f0: 7d21 643d 6666 89be fd6a cb3c 966c 773d

critic.4.weight f4 [1, 64]
-3.0588188 2.739492 3.0501568 -3.7029467 3.924126 2.4755437 -2.134744 2.262344
-2.8776107 2.6826513 -2.3475983 2.2243748 2.4953423 2.3549 3.7720556 -2.566141
-2.522995 2.942861 -2.2412148 3.981721 -2.4247103 -2.1187465 -2.540153 -2.1851597
3.0134788 -3.8580623 2.368918 2.6423678 2.489872 -1.9969424 2.7388525 2.6626968
3.7374365 2.70377 2.2839098 2.4512162 3.1422725 3.4812481 3.7808783 2.528347
4.3474503 -2.2587523 2.9345424 3.5828483 2.3947275 3.0327952 -3.378193 3.6166294
2.3649461 3.7154212 2.559035 -2.3278883 2.8363352 3.0058289 -2.88468 -4.008327
-2.632497 -2.1253347 3.3397326 2.347437 2.6588476 3.5869517 -2.414776 -3.303843
00000000: b0c3 43c0 d653 2f40 c535 4340 14fd 6cc0
00000010: e124 7b40 4f6f 1e40 a59f 08c0 3eca 1040
00000020: c62a 38c0 8fb0 2b40 0d3f 16c0 285c 0e40
00000030: b0b3 1f40 aeb6 1640 5c69 7140 a73b 24c0
00000040: c078 21c0 d657 3c40 1070 0fc0 84d4 7e40
00000050: 742e 1bc0 8b99 07c0 de91 22c0 a8d9 0bc0
00000060: d6dc 4040 7eea 76c0 5a9c 1740 8e1c 2940
00000070: 105a 1f40 cf9b ffbf 5c49 2f40 a069 2a40
00000080: 2932 6f40 910a 2d40 942b 1240 bae0 1c40
00000090: fe1a 4940 c5cc 5e40 e9f9 7140 70d0 2140
000000a0: 501e 8b40 668f 10c0 8bcf 3b40 634d 6540
000000b0: 3743 1940 5119 4240 5034 58c0 db76 6740
000000c0: 475b 1740 76c9 6d40 3bc7 2340 1ffc 14c0
000000d0: 8486 3540 805f 4040 999e 38c0 3744 80c0
000000e0: d57a 28c0 7c05 08c0 2ebe 5540 683c 1640
000000f0: 8f2a 2a40 9e90 6540 b18b 1ac0 2a72 53c0

actor_mean.0.weight f4 [64, 27]
-0.058027174 -0.31240875 0.087614305 -0.33464673 -0.007910824 -0.32109722 0.1592356 0.27691776
-0.07892692 0.15348172 0.19842018 0.4555937 0.023050131 -0.0073386463 -0.08440118 -0.46408775
0.55082774 -0.07527521 0.079486586 -0.058606446 0.22905433 0.17117679 -0.10170066 0.41337058
0.059026506 0.065303534 -0.13178983 -0.3404245 -0.08928097 0.2397055 0.47044748 -0.2649411
0.2364858 0.22883938 -0.078024305 0.044516113 -0.05009983 -0.2784799 0.21609527 0.113008745
-0.15493967 -0.20549016 0.032980807 0.41403615 0.25138512 -0.3777854 0.015845058 -0.029343233
0.029016085 -0.14886706 -0.09493661 0.28191248 -0.18807057 -0.35965288 -0.2795782 0.12791218
0.44420746 -0.06047522 0.122115135 0.24007764 0.009846161 0.2510571 -0.03920113 -0.59527797
0.025818516 0.20771441 -0.001262417 0.044551093 -0.27657136 0.14798576 0.081042506 -0.3964917
-0.26671526 -0.033390537 -0.35981274 0.14967924 0.10017477 -0.5255104 0.27780458 0.03543912
0.03818966 0.15725046 0.24337806 0.40932003 -0.050822888 0.008253222 0.34807363 0.23101339
0.53402185 0.280563 0.25559947 -0.21849635 -0.16719702 0.21552551 -0.19770916 -0.25692064
-0.29877216 -0.5069277 -0.26919797 -0.06763352 -0.003629086 0.30474928 -0.015829006 0.39710265
0.23465732 -0.36198685 -0.26224527 -0.18900356 0.2292572 0.3112753 -0.32036343 0.008989766
0.11820221 -0.1548026 -0.14708523 0.04177718 0.16528042 -0.23490635 -0.2123042 0.09658654
-0.08954769 0.13072366 -0.3197041 -0.16152869 -0.081311144 -0.15956959 -0.02068175 -0.34888014
0.43426389 0.076828025 0.122391656 0.05289057 0.10806015 0.36723152 0.21684892 0.42151058
-0.15899111 0.5647779 0.63308156 -0.27667186 0.30856714 0.5421018 0.03692137 -0.46580115
-0.35093638 -0.1463485 0.13113415 0.34627265 -0.22764315 -0.08440365 0.20317142 0.29949751
0.10075813 0.07954539 -0.13609214 0.15131932 0.07700378 0.22380762 0.0031801562 -0.0054185395
-0.044758208 -0.20120744 -0.0028946162 -0.13904014 0.2621224 0.24171509 -0.4415486 0.12046566
-0.10016799 -0.01177558 0.4744791 -0.02287386 -0.18450035 -0.10092278 -0.107023485 0.35905862
0.17597441 -0.1804943 -0.03144416 -0.14582664 -0.3538872 -0.1771126 -0.21740404 0.3863773
0.07571147 -0.0403933 -0.4036343 0.2354319 -0.11843785 -0.33064884 0.43272248 -0.08217122
-0.04951789 0.14432515 -0.30839512 0.2132086 0.12370093 0.045635764 -0.09886311 -0.04116367
-0.22647214 -0.33202752 -0.17153263 -5.6255507e-05 0.055228915 -0.5917328 0.52574706 0.2413287
-0.36548048 -0.07048329 0.063580364 0.24954817 0.05618332 -0.045536842 0.09994485 0.11437402
0.06619692 -0.1884291 0.3583213 -0.06967291 -0.13836372 0.6033447 0.15796906 -0.3032628
-0.37872997 0.2005011 -0.11865887 -0.13969675 0.086227015 0.20817164 -0.06717476 -0.32688895
0.17946367 0.59034026 -0.18932974 0.3482609 0.35971826 -0.15656298 -0.33489224 -0.18638505
-0.2382114 -0.02523058 0.056396093 -0.10615798 -0.12581195 0.18438599 0.5637019 -0.17501737
-0.2626964 0.35431355 -0.22151309 0.05898314 -0.1826933 0.06766343 -0.7663985 0.009817385
00000000: e7ad 6dbd 0af4 9fbe 216f b33d d156 abbe
00000010: 679c 01bc db66 a4be a80e 233e 2ac8 8d3e
00000020: 70a4 a1bd 502a 1d3e a92e 4b3e 9443 e93e
00000030: a1d3 bc3c 0779 f0bb 87da acbd e99c edbe
00000040: 0c03 0d3f e429 9abd ddc9 a23d 500d 70bd
00000050: 388d 6a3e f848 2f3e 7048 d0bd 4fa5 d33e
00000060: c7c5 713d dcbd 853d eaf3 06be 1f4c aebe
00000070: f1d8 b6bd 5c75 753e 7ede f03e 5ca6 87be
00000080: 5529 723e df54 6a3e 35cb 9fbd 8756 363d
00000090: 7b35 4dbd eb94 8ebe 1448 5d3e 2171 e73d
000000a0: 81a8 1ebe 036c 52be e216 073d 8cfc d33e
000000b0: 8db5 803e 176d c1be 7fcd 813c 3861 f0bc
000000c0: 24b3 ed3c 9b70 18be 206e c2bd d556 903e
000000d0: 9295 40be 6c24 b8be e024 8fbe 69fb 023e
000000e0: 296f e33e ddb4 77bd 8017 fa3d ead6 753e
000000f0: cb51 213c 8e8a 803e 5d91 20bd 2364 18bf
00000100: 5a81 d33c 16b3 543e af77 a5ba 357b 363d
00000110: c39a 8dbe 9489 173e 9df9 a53d f600 cbbe
00000120: e78e 88be 84c4 08bd 6039 b8be 8445 193e
00000130: 6e28 cd3d d987 06bf 673c 8e3e 9c28 113d
00000140: c36c 1c3d 4406 213e 1938 793e 6592 d13e
00000150: a92b 50bd 8638 073c b536 b23e c68e 6c3e
00000160: a8b5 083f f4a5 8f3e efdd 823e 82bd 5fbe
00000170: b235 2bbe b8b2 5c3e 4574 4abe 1a8b 83be
00000180: aaf8 98be 04c6 01bf 51d4 89be 7183 8abd
00000190: f6d5 6dbb 1908 9c3e d5ab 81bc 0a51 cb3e
000001a0: 024a 703e 5756 b9be 0345 86be 268a 41be
000001b0: 66c2 6a3e 7a5f 9f3e ad06 a4be d049 133c
000001c0: 0014 f23d 9384 1ebe 839d 16be 8c1e 2b3d
000001d0: 453f 293e 4a8b 70be 4666 59be 2acf c53d
000001e0: c764 b7bd 6cdc 053e 41b0 a3be c767 25be
000001f0: 7586 a6bd 3666 23be c66c a9bc 6ba0 b2be
00000200: d657 de3e 0358 9d3d 7aa8 fa3d c8a3 583d
00000210: a44e dd3d c505 bc3e a50d 5e3e 3cd0 d73e
00000220: 91ce 22be 4995 103f a211 223f efa7 8dbe
00000230: 83fc 9d3e 2fc7 0a3f dd3a 173d 7d7d eebe
00000240: efad b3be 62dc 15be 0848 063e a64a b13e
00000250: 491b 69be d2db acbd 2b0c 503e bd57 993e
00000260: 475a ce3d b2e8 a23d bd5b 0bbe 74f3 1a3e
00000270: 28b4 9d3d d32d 653e 2b6a 503b 018e b1bb
00000280: 6254 37bd 5309 4ebe 9ab3 3dbb 8a60 0ebe
00000290: e834 863e 2984 773e a812 e2be b3b6 f63d
000002a0: e024 cdbd 5dee 40bc edee f23e f661 bbbc
000002b0: a9ed 3cbe 9ab0 cebd 212f dbbd 88d6 b73e
000002c0: a332 343e 7fd3 38be 97cb 00bd 9453 15be
000002d0: b430 b5be 015d 35be 2a9f 5ebe 3fd3 c53e
000002e0: 9d0e 9b3d 7273 25bd 28a9 cebe 0f15 713e
000002f0: 8b8f f2bd ce4a a9be cd8d dd3e 6249 a8bd
00000300: 45d3 4abd f9c9 133e f7e5 9dbe 5b53 5a3e
00000310: ea56 fd3d 91ec 3a3d be78 cabd 3d9b 28bd
00000320: 50e8 67be 83ff a9be 40a6 2fbe e4f3 6bb8
00000330: b737 623d cd7b 17bf 5c97 063f df1e 773e
00000340: 4220 bbbe 8b59 90bd 6c36 823d 8e89 7f3e
00000350: 7b20 663d d784 3abd e3af cc3d ed3c ea3d
00000360: 4092 873d 8ff3 40be e475 b73e acb0 8ebd
00000370: 38af 0dbe cc74 1a3f a4c2 213e 4345 9bbe
00000380: e5e8 c1be 2950 4d3e 6c03 f3bd aa0c 0fbe
00000390: ca97 b03d f22a 553e ec92 89bd fd5d a7be
000003a0: 53c5 373e 8a20 173f a8df 41be 414f b23e
000003b0: fe2c b83e 0c52 20be ff76 abbe b9db 3ebe
000003c0: b0ed 73be 5cb0 cebc 97ff 663d 5b69 d9bd
000003d0: d9d4 00be aecf 3c3e c54e 103f c137 33be
000003e0: 2480 86be 9668 b53e 54d4 62be 4e98 713d
000003f0: f413 3bbe 2093 8a3d b132 44bf 19d9 203c

actor_mean.0.bias f4 [64]
-0.15606163 0.1490341 -0.1099414 0.19191697 0.08084784 0.236063 -0.26387635 -0.10138543
0.041174535 0.08171835 0.061104603 0.086876035 0.06291999 0.047310125 0.025526969 -0.027417464
-0.30943975 0.24245982 -0.009430209 0.1572571 0.11890886 -0.048110336 0.19258666 0.061029013
0.14145784 -0.09936339 0.1826216 -0.27605897 0.044794813 -0.09371219 -0.2689088 -0.15241422
-0.15369533 0.1809575 0.00540725 -0.19564895 0.21092269 0.08261462 0.18171203 0.15437315
-0.042279303 -0.18632491 -0.04994912 0.0054669017 -0.2543159 0.084739596 0.24240567 -0.19452736
-0.053469494 0.04410742 -0.045541663 0.21379648 0.0520395 -0.18326952 -0.13376303 -0.20436323
-0.07361118 0.026372699 -0.13246508 -0.20506555 0.053985044 0.14268066 0.0123542575 -0.1912548
00000000: 9fce 1fbe 659c 183e f528 e1bd e285 443e
00000010: 8d93 a53d 80ba 713e cd1a 87be 2aa3 cfbd
00000020: a1a6 283d f35b a73d d248 7a3d 10ec b13d
00000030: 32dc 803d 43c8 413d ef1d d13c 979a e0bc
00000040: e36e 9ebe 6347 783e 2a81 1abc 0108 213e
00000050: 7d86 f33d 580f 45bd 7035 453e 8ff9 793d
00000060: 53da 103e 087f cbbd 2801 3b3e 9a57 8dbe
00000070: c47a 373d 2dec bfbd 6aae 89be 7912 1cbe
00000080: 4f62 1dbe ec4c 393e 4d2f b13b 3358 48be
00000090: 1efc 573e db31 a93d b812 3a3e ff13 1e3e
000000a0: 102d 2dbd f5cb 3ebe 7397 4cbd b223 b33b
000000b0: b235 82be f48b ad3d 3139 783e 2e32 47be
000000c0: d402 5bbd fba9 343d e589 3abd 77ed 5a3e
000000d0: 5f27 553d 01ab 3bbe 2df9 08be 9844 51be
000000e0: 75c1 96bd 8f0b d83c eda4 07be b4fc 51be
000000f0: 6c1f 5d3d e11a 123e 8369 4a3c 4cd8 43be

actor_mean.2.weight f4 [64, 64]
-0.43910342 0.16609085 0.0017197878 -0.011659834 0.30981857 -0.122536466 0.07120691 0.2580615
0.01942796 -0.11050273 0.008110274 -0.22729614 -0.007964946 -0.032844983 -0.017746944 0.2527612
0.23063904 -0.43350944 -0.14751188 -0.18239765 -0.021335205 0.2454818 -0.00802869 -0.09063073
-0.0781973 0.24900918 0.16657887 0.06500451 0.1904256 -0.015737966 -0.15866457 0.116347864
-0.22164173 0.22835651 -0.33459362 -0.050092686 0.3021315 0.24483666 0.2429625 0.1791261
-0.036877535 -0.30899766 0.6422946 -0.28061652 0.36709788 -0.18153206 0.32494986 -0.25812215
0.1345605 0.12848923 -0.4870157 0.3930415 -0.08020869 -0.45631146 -0.2745633 -0.1329723
0.20117532 0.29665983 0.080430984 -0.10940791 -0.38611427 -0.33672264 -0.020331783 -0.35606846
-0.30092424 -0.16799018 0.20200126 0.20473786 0.23054668 0.16838206 0.14625426 -0.054793652
0.20060858 -0.34117302 -0.060974725 0.016514132 0.16841374 0.20661895 0.4060525 0.47709468
-0.43040207 0.041784815 -0.14036012 0.4847587 -0.40038377 -0.035913326 0.05493355 -0.0865774
0.038500328 -0.063280635 -0.04484821 -0.2535525 -0.122429594 -0.1299553 0.17487828 0.062891625
-0.033311285 -0.19275044 -0.6166359 -0.32093576 0.25048405 -0.06300655 0.19620728 -0.01672723
0.17706521 -0.10034988 -0.19278568 0.20533296 0.12777352 0.16465804 0.3868524 -0.4466285
-0.25918627 0.30982077 0.6073996 -0.17737472 0.14436737 0.27819252 0.22255091 -0.1399514
0.14555244 -0.19902705 0.15487336 0.12412988 0.13719074 0.13609783 0.08169786 -0.6313835
-0.10386676 0.15479326 0.15226363 -0.3795006 -0.1303009 -0.013672461 -0.11787251 0.12400984
-0.23195353 0.2370194 -0.426904 -0.011582435 0.3042999 -0.2605502 -0.018902179 -0.35362893
0.32449356 0.39013958 -0.1399553 0.027377263 0.0028558262 -0.0529448 -0.105157115 -0.36698222
-0.093021505 -0.5074224 -0.43501967 0.36169648 0.0076486166 0.51591915 -0.03162425 0.31588894
0.4562982 -0.28581515 -0.14601327 -0.04413821 0.27254507 -0.09546497 -0.05983272 -0.18438229
0.25110385 0.102970846 0.07838492 -0.07515605 -0.043338697 0.0066194325 0.14759572 0.08129511
0.048512835 0.4066451 -0.039213896 0.1434248 -0.14436892 -0.18245935 -0.22848503 -0.19526558
0.2314495 -0.036853734 -0.09953134 -0.075703554 0.25245178 0.15846692 0.104164824 0.41770658
0.14671564 -0.20497008 -0.34367806 0.037498135 0.32392186 -0.1589627 0.14756289 0.13883127
0.046602156 -0.012205687 -0.41931546 -0.32520404 0.13487428 -0.13591012 -0.07350887 -0.065151416
-0.14726134 -0.2152146 0.13650501 -0.39993516 0.09617615 -0.08739938 -0.053445466 -0.17813672
-0.5275243 0.14280768 0.026322717 0.051793683 -0.34439522 -0.41336244 -0.33260947 -0.03405025
-0.18685794 -0.23010895 0.36639577 0.15174004 -0.0890277 0.1746141 -0.020275278 -0.039546475
-0.026031472 0.11588601 -0.39984116 -0.019561656 0.62369746 -0.2804654 0.047443323 -0.26096842
0.08228319 -0.33545887 -0.10218825 -0.22453089 -0.1428793 0.53016824 0.14190297 -0.066774026
0.056941435 0.3131764 -0.13405292 0.003980419 -0.05270218 0.08891793 -0.20225708 -0.017563077
00000000: 2ad2 e0be b813 2a3e 816a e13a e308 3fbc
00000010: 8aa0 9e3e 66f4 fabd eed4 913d a320 843e
00000020: 6327 9f3c 414f e2bd f4e0 043c 52c0 68be
00000030: 687f 02bc 7688 06bd 0a62 91bc ea69 813e
00000040: a42c 6c3e f3f4 ddbe 5b0d 17be 73c6 3abe
00000050: 2bc7 aebc 955f 7b3e c48a 03bc 9b9c b9bd
00000060: e825 a0bd 43fc 7e3e a793 2a3e 1621 853d
00000070: eefe 423e e8ec 80bc f778 22be ca47 ee3d
00000080: 0df6 62be 4ad6 693e db4f abbe fd2d 4dbd
00000090: fbb0 9a3e 76b6 7a3e 29cb 783e d56c 373e
000000a0: e60c 17bd f134 9ebe 6b6d 243f f8ac 8fbe
000000b0: 41f4 bb3e 8ae3 39be d45f a63e 9628 84be
000000c0: 3aca 093e ae92 033e 1f5a f9be bc3c c93e
000000d0: 7444 a4bd a8a1 e9be 9093 8cbe e429 08be
000000e0: e700 4e3e cce3 973e 00b9 a43d 4111 e0bd
000000f0: c5b0 c5be e966 acbe d78e a6bc 9b4e b6be
00000100: be12 9abe 9e05 2cbe 6bd9 4e3e cda6 513e
00000110: 6e14 6c3e 596c 2c3e adc3 153e 4f6f 60bd
00000120: 566c 4d3e 3bae aebe a2c0 79bd a548 873c
00000130: a774 2c3e eb93 533e 1de6 cf3e c145 f43e
00000140: a95d dcbe 8e26 2b3d 90ba 0fbe 4b32 f83e
00000150: 1aff ccbe da19 13bd 0102 613d 7e4f b1bd
00000160: 85b2 1d3d 4799 81bd c2b2 37bd a2d1 81be
00000170: 5ebc fabd 0113 05be 4b13 333e 53cd 803d
00000180: 6a71 08bd 5f60 45be dadb 1dbf b151 a4be
00000190: 723f 803e 9409 81bd 90ea 483e 8b07 89bc
000001a0: 9550 353e 3d84 cdbd 9c69 45be ce42 523e
000001b0: 10d7 023e 1e9c 283e 8511 c63e 7eac e4be
000001c0: 10b4 84be d4a0 9e3e 8a7e 1b3f b8a1 35be
000001d0: 0ad5 133e 406f 8e3e 63e4 633e 6b4f 0fbe
000001e0: b30b 153e bfcd 4bbe 1f97 1e3e ce37 fe3d
000001f0: bb7b 0c3e 3b5d 0b3e 3551 a73d 59a2 21bf
00000200: 19b8 d4bd 2082 1e3e ffea 1b3e e74d c2be
00000210: 996d 05be 7502 60bc 2467 f1bd dff8 fd3d
00000220: 3a85 6dbe 37b5 723e 2993 dabe 41c4 3dbc
00000230: 32cd 9b3e d666 85be bed8 9abc da0e b5be
00000240: 0524 a63e 60c0 c73e 7150 0fbe 4846 e03c
00000250: d028 3b3b a6dc 58bd 9d5c d7bd 18e5 bbbe
00000260: 0f82 bebd 6fe6 01bf e6ba debe 4830 b93e
00000270: 3fa1 fa3b 4713 043f 6e88 01bd 32bc a13e
00000280: eb9f e93e 5d56 92be 8184 15be 45ca 34bd
00000290: 078b 8b3e 2383 c3bd 2713 75bd b6ce 3cbe
000002a0: af90 803e 61e2 d23d 4688 a03d 6aeb 99bd
000002b0: eb83 31bd d3e7 d83b 5523 173e 0d7e a63d
000002c0: 65b5 463d c933 d03e c09e 20bd f3dd 123e
000002d0: 72d5 13be a0d6 3abe fbf7 69be b3f3 47be
000002e0: 1901 6d3e f1f3 16bd 16d7 cbbd 770a 9bbd
000002f0: 5c41 813e 2745 223e 5e54 d53d a3dd d53e
00000300: a03c 163e ade3 51be 92f6 afbe a597 193d
00000310: 16d9 a53e 1ec7 22be ba1a 173e c929 0e3e
00000320: e7e1 3e3d 5dfa 47bc 84b0 d6be 2581 a6be
00000330: 7c1c 0a3e 062c 0bbe d28b 96bd 1b6e 85bd
00000340: adcb 16be 3761 5cbe f8c7 0b3e 4dc4 ccbe
00000350: 00f8 c43d 72fe b2bd a2e9 5abd 7969 36be
00000360: d50b 07bf 2d3c 123e bda2 d73c 9d25 543d
00000370: 9254 b0be 3ea4 d3be ca4b aabe 4678 0bbd
00000380: b057 3fbe aea1 6bbe 3a98 bb3e be61 1b3e
00000390: 2854 b6bd 0ace 323e 5718 a6bc 7cfb 21bd
000003a0: f43f d5bc a555 ed3d fbb7 ccbe c43f a0bc
000003b0: a3aa 1f3f 2999 8fbe ee53 423d a79d 85be
000003c0: 1784 a83d 44c1 abbe 1348 d1bd 6deb 65be
000003d0: f44e 12be 1bb9 073f 034f 113e d2c0 88bd
000003e0: 6c3b 693d a858 a03e 2b45 09be 2d6e 823b
000003f0: 3ede 57bd 9b1a b63d 7b1c 4fbe 71e0 8fbc

actor_mean.2.bias f4 [64]
-0.017180216 0.08236502 -0.011298745 -0.08744713 -0.020102264 -0.10833518 -0.23724413 -0.04894211
0.013424362 -0.036709923 0.057119455 0.11938466 -0.24202137 -0.00090481143 0.19071428 0.3331979
0.08804304 -0.07537804 0.37245098 -0.15075676 -0.12589113 -0.104805596 0.028804151 0.04370536
-0.09925471 0.058908753 0.04270316 -0.060615133 -0.15894966 0.08073187 0.021281326 0.009108668
-0.102307774 0.089298524 0.09876517 0.034076545 0.05064665 -0.071880095 0.037111484 0.0022031171
-0.19653085 0.0022937653 0.24651466 -0.02849783 0.17870334 0.14666721 -0.1588289 0.03224944
0.18471463 0.106907226 0.00934567 0.08605085 0.13443802 0.20990445 0.10536148 0.27746823
0.040822167 -0.03147758 -0.00044307593 -0.25251415 -0.12920354 0.15703662 0.12055063 0.08935997
00000000: 86bd 8cbc feae a83d 5f1e 39bc 7b17 b3bd
00000010: 81ad a4bc d6de ddbd 20f0 72be 8677 48bd
00000020: dbf1 5b3c 255d 16bd 17f6 693d f27f f43d
00000030: 73d4 77be de30 6dba 9b4a 433e ea98 aa3e
00000040: e94f b43d cd5f 9abd e5b1 be3e fb5f 1abe
00000050: 9be9 00be 51a4 d6bd aff6 eb3c 6404 333d
00000060: 0e46 cbbd 4e4a 713d 82e9 2e3d 9347 78bd
00000070: b3c3 22be c056 a53d 2d56 ae3c 863c 153c
00000080: bd86 d1bd 25e2 b63d 6545 ca3d d993 0b3d
00000090: dd72 4f3d df35 93bd 3602 183d 2c62 103b
000000a0: 623f 49be ff52 163b 576e 7c3e 4874 e9bc
000000b0: 02fe 363e ee2f 163e 0ba4 22be fd17 043d
000000c0: d525 3d3e 2df2 da3d 951e 193c 6e3b b03d
000000d0: 1faa 093e 31f1 563e c2c7 d73d 5110 8e3e
000000e0: 2535 273d a3ee 00bd a54c e8b9 8949 81be
000000f0: ef4d 04be 35ce 203e 40e3 f63d 5c02 b73d

actor_mean.4.weight f4 [8, 64]
0.037118394 0.0124414945 0.010937456 -0.032814592 0.05694297 -0.06261459 0.010928941 0.022289896
0.077674896 0.020150451 0.0045211636 -0.118340604 -0.04833348 0.05511359 0.04121502 -0.01702493
-0.0010664386 0.0015844424 -0.070300944 0.1294474 -0.0030607372 0.02901737 -0.055632535 -0.079963416
0.027657136 0.03786315 0.009921476 0.017391808 0.09700463 -0.019198691 0.11049444 0.021776205
-0.07245201 -0.03482701 0.01575358 0.09927321 0.008493925 0.1008634 0.03086367 0.02607082
0.0061383704 0.19940941 0.0034759985 0.052723482 -0.055169445 -0.022647018 0.042327266 0.021821298
-0.08475145 -0.06495197 0.0007431863 0.0549027 -0.005606195 -0.0015886647 -0.008910634 -0.09014991
-0.065391384 0.07750668 0.047976617 0.090247795 0.13514346 0.0027804428 0.036781557 0.022913935
0.07011864 0.012866826 -0.030616513 -0.10416323 0.026518399 0.20231241 -0.04667729 0.056715544
0.06488317 0.04557467 0.008321357 -0.0685747 -0.15071629 0.1329067 -0.094187096 -0.0649089
0.009963819 -0.11452315 0.06915014 -0.067674905 0.14121376 0.033518944 0.038020104 0.03774957
-0.05825921 -0.058875658 0.04204899 0.08436845 0.018700117 -0.062561564 0.01896571 0.15651223
-0.08671441 -0.15423028 0.17283441 0.016999952 -0.020719063 -0.064345084 0.0016525721 0.02328385
-0.021928877 -0.012842766 0.05593716 -0.1101232 -0.02013908 -0.03891196 0.005158887 0.100048974
-0.057549175 -0.098484196 -0.10176487 0.068634115 -0.12451271 -0.021808004 0.04923967 -0.005386465
0.046459887 -0.05552721 0.027916819 -0.01337498 0.06872531 -0.09510835 -0.0622129 -0.046364047
-0.0070013753 0.044064324 0.08488316 0.08639159 -0.030808682 0.044656437 -0.10414586 0.120466955
0.024785979 -0.038594205 -0.031347618 -0.05451439 0.11766614 0.00038905072 -0.0018903448 -0.103168815
-0.008250613 0.0004790375 -0.075778775 -0.07882056 -0.05158249 -0.04940815 -0.044511713 0.031844903
-0.029191505 0.014669923 0.07590391 -0.012423014 -0.032425676 -0.10925445 -0.007408631 -0.043360393
-0.11157168 -0.114551984 -0.0018043972 0.073051 0.029750723 0.1316803 0.05735546 -0.053971216
-0.020330371 -0.0014869114 0.019297719 0.018732937 0.0521841 0.049379073 -0.055148687 -0.07501686
0.15978557 -0.021953871 -0.06474428 -0.026754128 -0.003058305 0.0061773886 -0.08267907 -0.02882472
-0.026489701 -0.12194065 -0.06045849 -0.051237132 0.018614069 0.023374487 0.08008633 0.04251658
0.059646603 -0.089224026 0.017018605 0.12759684 -0.19060798 -0.055394974 -0.06760487 -0.14381687
-0.08583388 0.05053786 -0.025938412 -0.123495616 0.22790776 0.098617494 0.11867424 -0.022884266
0.050124016 0.0032915913 -0.029647116 0.08086486 0.042415004 -0.037172884 -0.025017789 -0.00910973
0.13025087 -0.026571883 -0.0115256505 0.035936028 -0.05215142 -0.012247492 0.036408518 -0.066566594
0.0073203337 0.10349717 -0.10176454 0.0030841164 -0.06453047 0.0009113918 0.14356351 0.022329532
-0.048941992 0.020846317 0.02282908 -0.019836156 0.077210434 0.018630443 0.14132127 0.090814754
0.09136265 -0.08092513 0.077131 -0.01923014 0.056244917 0.05494189 0.011378805 0.05227598
-0.013052386 0.058831178 0.010360279 0.007077104 -0.04384136 0.03178119 -0.021500729 -0.029977748
00000000: 7509 183d 69d7 4b3c 0433 333c 9868 06bd
00000010: 083d 693d 143c 80bd 4d0f 333c 4d99 b63c
00000020: 0414 9f3d 8f12 a53c 4526 943b 8f5c f2bd
00000030: 54f9 45bd cabe 613d 15d1 283d de77 8bbc
00000040: bec7 8bba 11ad cf3a f1f9 8fbd dc8d 043e
00000050: a696 48bb d6b5 ed3c f1de 63bd dcc3 a3bd
00000060: 3891 e23c 6416 1b3d b08d 223c 4479 8e3c
00000070: 5daa c63d 9346 9dbc e94a e23d 0364 b23c
00000080: b861 94bd c4a6 0ebd a70d 813c c14f cb3d
00000090: 1b2a 0b3c 7891 ce3d cfd5 fc3c 7992 d53c
000000a0: 6224 c93b fb31 4c3e 94cd 633b 94f4 573d
000000b0: 5bf9 61bd 3d86 b9bc 5b5f 2d3d 94c2 b23c
000000c0: 2b92 adbd 8a05 85bd 63d2 423a a7e1 603d
000000d0: 2cb4 b7bb be3a d0ba e8fd 11bc 84a0 b8bd
000000e0: ebeb 85bd d2bb 9e3d 2183 443d d6d3 b83d
000000f0: 0c63 0a3e 1738 363b 42a8 163d 01b6 bb3c
00000100: 5d9a 8f3d 61cf 523c 7bcf fabc 8853 d5bd
00000110: 1d3d d93c fc2a 4f3e b030 3fbd 8f4e 683d
00000120: 78e1 843d 81ac 3a3d 4d56 083c e470 8cbd
00000130: 5f55 1abe b218 083e 2ae5 c0bd f5ee 84bd
00000140: 493f 233c 1d8b eabd 979e 8d3d 2499 8abd
00000150: 579a 103e 294b 093d f8ba 1b3d 4b9f 1a3d
00000160: 36a1 6ebd 9a27 71bd 903b 2c3d 5ec9 ac3d
00000170: fd30 993c 4720 80bd fa5d 9b3c be44 203e
00000180: 5397 b1bd 8bee 1dbe 81fb 303e 7c43 8b3c
00000190: 06bb a9bc 5bc7 83bd 1e9b d83a c6bd be3c
000001a0: 30a4 b3bc 776a 52bc 5d1e 653d 4688 e1bd
000001b0: b6fa a4bc 2662 1fbd e10b a93b 7ae6 cc3d
000001c0: afb8 6bbd 15b2 c9bd 1a6a d0bd 0b90 8c3d
000001d0: 8500 ffbd b3a6 b2bc 89af 493d f280 b0bb
000001e0: b94c 3e3d 8070 63bd d0b1 e43c bb22 5bbc
000001f0: dbbf 8c3d 2bc8 c2bd f4d2 7ebd 3ae8 3dbd
00000200: cb6b e5bb cb7c 343d 39d7 ad3d 13ee b03d
00000210: 7d62 fcbc abe9 363d 6d4a d5bd 61b7 f63d
00000220: f70b cb3c f514 1ebd 5c66 00bd 7b4a 5fbd
00000230: f2fa f03d 81f9 cb39 72c5 f7ba 2c4a d3bd
00000240: 942d 07bc 5327 fb39 e731 9bbd ac6c a1bd
00000250: 2948 53bd 3360 4abd ea51 36bd cd6f 023d
00000260: 0623 efbc 1e5a 703c 8273 9b3d e689 4bbc
00000270: c9d0 04bd ccc0 dfbd 1ac4 f2bb ab9a 31bd
00000280: b17f e4bd 3b9a eabd 8681 ecba c39b 953d
00000290: cab7 f33c 33d7 063e 8fed 6a3d ec10 5dbd
000002a0: e18b a6bc 78e4 c2ba 4016 9e3c d175 993c
000002b0: ffbe 553d b641 4a3d 97e3 61bd 71a2 99bd
000002c0: d49e 233e 9bd8 b3bc a698 84bd 792b dbbc
000002d0: d86d 48bb b16b ca3b a553 a9bd d221 ecbc
000002e0: ee00 d9bc 05bc f9bd 52a3 77bd 07de 51bd
000002f0: 887c 983c da7b bf3c 4d04 a43d de25 2e3d
00000300: ff4f 743d 16bb b6bd 9a6a 8b3c bfa8 023e
00000310: bd2e 43be d7e5 62bd 6c74 8abd bb44 13be
00000320: acc9 afbd c900 4f3d cb7c d4bc 45eb fcbd
00000330: a760 693e f8f7 c93d 7b0b f33d c977 bbbc
00000340: d74e 4d3d bdb7 573b 82de f2bc 7a9c a53d
00000350: 5bbb 2d3d 9842 18bd 1bf2 ccbc fa40 15bc
00000360: 7c60 053e 47ad d9bc 15d6 3cbc a831 133d
00000370: ba9c 55bd b4a9 48bc 1921 153d 1154 88bd
00000380: 69df ef3b 53f6 d33d ed69 d0bd e31e 4a3b
00000390: 8d28 84bd 78ea 6e3a 5002 133e 6cec b63c
000003a0: 6677 48bd e5c5 aa3c 0d04 bb3c 6f7f a2bc
000003b0: 8120 9e3d df9e 983c 86b6 103e 16fd b93d
000003c0: 571c bb3d 13bc a5bd dcf6 9d3d 8788 9dbc
000003d0: 1261 663d bf0a 613d 2b6e 3a3c 571f 563d
000003e0: add9 55bc f6f8 703d 29be 293c 0de7 e73b
000003f0: ff92 33bd fe2c 023d 4c22 b0bc e593 f5bc

actor_mean.4.bias f4 [8]
-0.035150535 -0.0878198 0.121599026 -0.09336216 -0.046552427 0.13513556 -0.014363394 0.11828151
00000000: 02fa 0fbd deda b3bd e908 f93d a934 bfbd
00000010: c2ad 3ebd fa60 0a3e 7154 6bbc 943d f23d
