DATA403_final/checkpoints/Ant-v4/PPO_432.pt (torch, 53950 bytes, 12 tensors)

actor_logstd f4 [1, 8]
000000 82 2b 1f c0 f7 fa 1e c0 8e c2 1a c0 2c b0 1d c0
       -2.4870305 -2.4840677 -2.4181247 -2.4638777
000010 04 09 19 c0 88 3f 1b c0 04 e1 11 c0 b8 75 14 c0
       -2.3911753 -2.4257526 -2.2793589 -2.319685

critic.0.weight f4 [64, 27]
000000 13 a5 4d bf fe 74 f1 be 43 ac 68 3e fa 14 8a bf
       -0.8033001 -0.4715957 0.22721963 -1.0787652
000010 1e 1e aa 3f d0 5d dc be 04 91 27 3e e7 ce 5b be
       1.3290441 -0.43040323 0.16363913 -0.21465646
000020 aa 19 0f bf 07 ac 80 bd d9 b1 b6 3c 71 bc 06 be
       -0.55898535 -0.062828116 0.022301601 -0.13157822
000030 c6 7e 7d 3e 2e 08 12 bf 8f f8 c1 bd 26 d2 be bd
       0.24755391 -0.5704373 -0.09471237 -0.093174264
000040 ff 82 fa 3c 30 be c4 bd 9f 4c 27 bd 78 20 c1 bc
       0.030580042 -0.09606588 -0.040844556 -0.023575053
000050 09 b8 3d bd c5 95 63 bc a4 5c 09 3d 52 ea 1f 3d
       -0.046318088 -0.013890688 0.033535615 0.039041825
000060 04 be 3c bd 56 3f bf bb 22 a0 8e 3c 41 2e b1 3e
       -0.04607965 -0.0058364077 0.017410342 0.346056
000070 82 90 c0 3f f6 31 fa 3f 67 ea 69 3e d7 6a 58 3f
       1.50441 1.9546497 0.22843324 0.84538025
000080 f3 ad 04 bd 46 88 95 be 3d 83 05 3c 13 3f ad 3e
       -0.032392453 -0.2920553 0.008148965 0.33837184
000090 0e 87 ab bc 25 7c 09 3e 56 38 89 3e 1d d1 a9 3c
       -0.020938423 0.13426264 0.26800793 0.020729596
0000a0 4f b0 87 3c 3c 0b 9f 3d 36 d1 7c bd 2a 0a 9b 3d
       0.016563563 0.07765815 -0.061722957 0.07570298
0000b0 0d 09 fb bd f0 6f 0e 3d df ac 05 3d 7d 65 89 bc
       -0.12257586 0.03477472 0.032635566 -0.016772026
0000c0 4e 3a 02 bb fd 48 f5 3a c1 d4 2e bc 99 d0 2f bc
       -0.0019871178 0.0018713769 -0.010670842 -0.010730886
0000d0 1b a7 75 3b 4d 77 0c bb e2 d1 af 3f c8 85 84 3f
       0.0037483636 -0.0021433413 1.3735926 1.0353327
0000e0 35 ad 09 3f b3 55 ac be 28 df 45 bf 92 b4 56 3e
       0.5377992 -0.33659133 -0.77293634 0.2096732
0000f0 dc 02 fc bd 46 e2 3a be 57 e4 3c 3c 9a eb 41 be
       -0.12305233 -0.18250379 0.01152905 -0.18937531
000100 b4 95 2a bd 81 ee ee 3d b8 4c 89 bd 7a db ee be
       -0.041646674 0.11666585 -0.06704086 -0.46651822
000110 82 c8 b8 3d f6 45 89 3e 94 49 5c 3d 24 40 89 3d
       0.09022619 0.26811188 0.053781107 0.06701687
000120 c9 67 dc 3d 33 e6 b0 3c 41 7b a5 3b 1a f9 0a 3a
       0.10761983 0.021594143 0.0050500934 0.0005301401
000130 98 17 89 3b 54 72 07 3c c6 3d 06 bd 7b e6 01 3d
       0.004183721 0.008267004 -0.032773755 0.031713944
000140 3b 92 f1 3c 42 ac 3d 3f eb 6f 0e 3f d4 cc 6a 3d
       0.029488673 0.7409097 0.55639523 0.057324246
000150 f2 a3 2b bf a1 f8 c2 3d 9b 4b c4 bd dc 12 50 3e
       -0.67047036 0.095200785 -0.09584733 0.20319694
000160 4d ef 85 be ab 7f ca 3d 3c f3 0d 3e 58 53 d5 3c
       -0.26159135 0.09887632 0.13862318 0.026040718
000170 49 8c a1 be 0b 64 28 3e aa be 1d bd 16 6e d6 3c
       -0.31552342 0.16444413 -0.03851191 0.02617554
000180 8d fd 1f be 8f b1 89 bc 22 7f 84 bd 03 bb 77 3d
       -0.15624066 -0.0168083 -0.06469561 0.060481083
000190 0a c0 df 3b a0 68 be ba 9c d1 be bc 5c 2e 22 3c
       0.0068283128 -0.001452703 -0.023293309 0.009898748
0001a0 b7 59 1f 3d f4 05 cd 3c 58 53 01 bd fc c5 a8 bd
       0.038903918 0.025027253 -0.031573623 -0.082408875
0001b0 20 e8 fe be ad 83 1d be 9e 7d 20 3e f1 0e 0d c0
       -0.49786472 -0.15382262 0.15672919 -2.204037
0001c0 3c 87 55 3f c6 01 d1 bd f8 0e a7 bd eb 29 a8 3d
       0.83409476 -0.102054164 -0.08157152 0.0821112
0001d0 05 9d 8d be 2c 2d 32 be 85 26 06 bf 95 eb fb 3c
       -0.2765886 -0.17400044 -0.52402526 0.030751983
0001e0 bb b7 9d bd 7b 32 5f 3e 62 3b 0c be 56 5a 0a 3d
       -0.077010594 0.217966 -0.13694528 0.033777557
0001f0 2e a3 9e bd df 0e 0e bf 6d 93 30 3e 06 6f 0e bb
       -0.07745968 -0.5549144 0.17243738 -0.0021733656
000200 53 48 c4 bd 4b 87 af 3b a2 e3 62 bd 03 15 03 3c
       -0.09584107 0.0053567044 -0.05539287 0.008000615
000210 86 bc 7d ba a2 1a 12 3d ad 6b bb bd f3 cd e2 be
       -0.0009679276 0.03566993 -0.09151397 -0.44297752
000220 7f 8e e4 be 5b f1 24 40 46 7a dd 3d 3b a4 19 3f
       -0.44639966 2.5772312 0.108143374 0.6001622
000230 ba ca c1 be 03 44 ce be 8d 00 c1 3c 8e cf f4 bd
       -0.3784998 -0.40286264 0.023559833 -0.119536504
000240 ca 35 22 be e4 4b b9 bd e9 b2 f7 3e 3b 28 ea 3c
       -0.15840831 -0.09047678 0.48378685 0.028583637
000250 c2 52 be 3c 69 47 74 bb db bf c6 bc 59 f5 08 be
       0.023232821 -0.003727401 -0.024261406 -0.13374843
000260 12 ab f7 3c 07 4c 55 bd 53 38 87 bc fe 86 27 3d
       0.03023294 -0.05207446 -0.01650635 0.040900223
000270 8e 24 10 3d 49 00 dc bc ac 4c b0 ba d8 6f 4e bd
       0.03519111 -0.026855605 -0.0013450584 -0.05039963
000280 a6 41 78 3c 2d 21 12 bd ba d0 9d 3e 41 5c 83 3f
       0.015152371 -0.03567617 0.30823308 1.0262529
000290 f2 63 8c bf f8 eb 38 3f a5 43 fd 3d 41 19 72 be
       -1.0968001 0.7223506 0.12366418 -0.23642446
0002a0 a1 ae df 3d 4a 5d 8d bd 5d cf fb 3d 4b 9f 69 3e
       0.1092198 -0.06902559 0.12295411 0.22814672
0002b0 14 ce 40 3e d7 50 d7 3c 00 7b 29 3e a9 1b 82 3e
       0.18828613 0.026283665 0.16550827 0.25411728
0002c0 2b 1b 0e 3e f0 d1 b0 3d 2d 83 02 bc 7e bb 81 be
       0.13877551 0.086337924 -0.007965845 -0.25338358
0002d0 28 19 0a 3c 7f 5f 04 3c e9 ba d2 bc 11 52 47 3b
       0.008428849 0.008079409 -0.025723891 0.0030413906
0002e0 95 5a fc bc ec b1 b1 3c 35 a8 c5 bc 1b e7 2e 3d
       -0.030804912 0.021691285 -0.024128059 0.042700868
0002f0 85 bd 71 3a 48 be 6c be 16 1b 66 3c b2 eb 6a bd
       0.0009221661 -0.23119462 0.014044544 -0.057353683
000300 03 08 e8 3e e8 36 75 3f 9d 5b 1e 3e 84 3e 24 be
       0.45318612 0.95786905 0.15464635 -0.16039473
000310 c7 91 27 bf 3d bc e2 be 26 b4 ed 3e b0 31 a4 3d
       -0.65456814 -0.4428424 0.46426505 0.0801729
000320 7b 1a 87 3d 39 6a 8b bd 5e d3 d8 3e fd a6 49 be
       0.065968476 -0.0680737 0.4234876 -0.19692607
000330 7a 2f 8e 3e c9 b4 11 bd 42 37 1e 3e 67 e8 01 be
       0.27770597 -0.0355728 0.15450767 -0.1268631
000340 b7 45 aa bd ac 08 74 bd 1c 53 1b bd 93 d4 55 bd
       -0.08314078 -0.059578583 -0.037921056 -0.05220468
000350 f5 ff 81 bc e1 ed 95 bb 3c 9f 3d bd 58 2a 31 be
       -0.01586912 -0.0045754765 -0.046294436 -0.17301309
000360 8f 24 c4 3f 3c 86 98 3d 3b 16 92 be 2c 97 0d bf
       1.5323657 0.07447478 -0.28532586 -0.55308795
000370 65 57 4c 3e 6a 2a be 3e aa 1a 80 3e 3e 8f 54 be
       0.19955213 0.37141734 0.25020343 -0.20757768
000380 5a a3 07 bf c3 23 ab bd be c4 c5 be 78 b2 36 3c
       -0.5298363 -0.083564304 -0.38626665 0.011150949
000390 17 9c 1b bd 8c 11 3f 3d d1 ef 5a bd ae f4 a2 be
       -0.037990656 0.046647593 -0.053451363 -0.318273
0003a0 cb 3b 19 be 69 fb 49 3e 97 63 36 be 61 14 eb bc
       -0.14964215 0.19724812 -0.17811428 -0.02869624
0003b0 30 be e6 bc 7d 5d c5 bc 26 2d c2 bc 47 ee 32 bd
       -0.02816686 -0.02409243 -0.02370317 -0.04368427
0003c0 2b 20 04 bd 21 f0 c2 3b d7 48 6f bc 36 01 3f 3f
       -0.03225724 0.0059490358 -0.014604769 0.7461122
0003d0 b5 63 43 3f 5a 3a b3 be 68 57 3e 3e fb 84 54 bf
       0.76324016 -0.35005456 0.1858803 -0.8301541
0003e0 86 f8 ef be 1d 61 0a 3f 9f 5a e2 bc 6f 0f 00 bf
       -0.46869296 0.54054433 -0.027631102 -0.5002355
0003f0 f1 8b 52 be 4f a3 ee be e9 91 85 bf a7 8e 3d 3f
       -0.20561196 -0.4660897 -1.0435153 0.74045795

critic.0.bias f4 [64]
000000 d1 fd bc 3e 96 b4 99 be fc 36 7a bf 96 8a 86 bf
       0.36912397 -0.3002059 -0.9774015 -1.0511043
000010 a0 fc 71 3d 4a 2b 2d 3f 36 22 4d bf 2b 6c 07 bf
       0.059078813 0.6764418 -0.80130327 -0.52899426
000020 22 66 1c 3e 71 2c 3d 3f fe c7 9b be da 0a 0e 3f
       0.15273336 0.7389594 -0.3042602 0.5548531
000030 de c3 3e be 97 1b 63 3f 7a e3 33 3f e8 50 0a bf
       -0.18629405 0.88713974 0.70268977 -0.54029703
000040 f1 a3 44 bf 82 ab c3 bd 12 f0 47 3e a8 79 8f be
       -0.76812655 -0.09554197 0.19525173 -0.28022504
000050 9b b9 1e be 34 15 94 3c d8 d1 92 3f 8b 68 0a 3f
       -0.1550049 0.018076517 1.1470289 0.5406577
000060 f8 88 9c be be 71 75 bf f9 8c ae bf f5 c5 9e 3f
       -0.3057325 -0.9587668 -1.3636771 1.2404162
000070 1a 85 1d 3f fe b0 b1 3e 34 61 0a bf 47 d6 3c bf
       0.6153122 0.34705347 -0.5405457 -0.7376446
000080 4a ac 76 be f7 32 13 3f 32 8c a4 be b9 c8 04 be
       -0.2408916 0.5749964 -0.3213821 -0.12967195
000090 a9 56 8d 3e 66 de f4 be 02 f8 e0 be 8e 01 ba 3d
       0.2760518 -0.47825927 -0.43939215 0.09082328
0000a0 55 a3 d8 be cc 0f 37 bf ef ef 61 bf af e4 e5 3e
       -0.42312112 -0.7150848 -0.88256735 0.44901034
0000b0 a9 03 6f 3f d1 7d 0a bf ab 86 2e bf ec 6d 22 3f
       0.9336496 -0.5409823 -0.68174237 0.6344898
0000c0 dd e7 2e 3d 94 61 52 be 2a 55 08 bf 71 1a ce be
       0.04270159 -0.20545036 -0.5325495 -0.40254548
0000d0 e5 04 04 3f db 48 7f bf 63 76 76 3f 16 b9 4f bf
       0.5156997 -0.99720544 0.96274394 -0.81141794
0000e0 ac eb aa be 72 de 1a 3f 55 92 7f 3f af a2 94 be
       -0.33382928 0.60495675 0.9983266 -0.29030368
0000f0 17 54 14 3f d2 19 0c 3f ad 49 2a be fe 38 a4 be
       0.5794081 0.547269 -0.16629668 -0.32074732

critic.2.weight f4 [64, 64]
000000 b5 1e 2d 3e 70 fe f2 bd 50 a1 15 3f cb cc 08 3f
       0.16906245 -0.11864936 0.5844927 0.5343749
000010 8a 17 d1 bd d2 73 c0 be d2 8f 0a 3f 36 92 aa bc
       -0.10209568 -0.37588364 0.541257 -0.020821672
000020 d4 90 42 3d 55 df c3 be 06 34 b3 be b1 8c 66 3d
       0.0475014 -0.38256326 -0.35000628 0.056286518
000030 00 dc 35 be 11 59 6f be 43 0b b7 3d ee d7 f3 bb
       -0.17759705 -0.2337382 0.08937695 -0.0074415123
000040 58 e5 e7 3e eb ef c9 3d 91 22 7e 3e 9e 07 b2 bd
       0.45292163 0.09860214 0.24817874 -0.08692859
000050 6f 95 d0 3e a6 06 d8 bb 70 e3 51 bf 82 ec 8a be
       0.4073901 -0.0065925894 -0.8198767 -0.27133566
000060 b7 f8 05 be b8 1a a1 3e 8e 53 5a 3f 1e 58 9c bf
       -0.13083158 0.31465697 0.85283744 -1.2214391
000070 91 49 30 be f7 99 c8 be e5 9b f8 3d c1 e4 18 3f
       -0.17215563 -0.39179966 0.121391095 0.5972405
000080 a5 0b 7e 3d 71 0b 15 bf 31 79 2f be aa 4c d4 bd
       0.062022824 -0.58220583 -0.17136075 -0.10366185
000090 62 5e 1e 3e d6 4c c3 3b b5 b7 8c 3e 22 8e 9b be
       0.15465692 0.0059600873 0.27483907 -0.30381876
0000a0 61 6d b2 3e b1 6f a9 3f 20 19 35 be f9 1a 27 3e
       0.34849074 1.323721 -0.17685366 0.16318883
0000b0 9e 56 e1 be 05 4a 99 3e 63 e3 40 be 94 e3 5c 3e
       -0.44011396 0.29939285 -0.18836741 0.21571189
0000c0 f4 6c a3 3e 60 d0 cd be aa b8 ec bd bf 18 a7 3e
       0.31919062 -0.4019804 -0.115586594 0.32636067
0000d0 96 50 8d be 13 81 cb 3e c3 6c 3d bf 85 e5 55 bd
       -0.27600545 0.39746913 -0.7399408 -0.05222084
0000e0 a1 b6 13 3f 35 af b5 3e c0 f0 c8 bd 0d 17 3d be
       0.57700545 0.35485235 -0.098115444 -0.18465824
0000f0 2e ea f2 bd e2 36 c4 be 89 bd 9f be 52 19 2e 3f
       -0.118610725 -0.38323122 -0.3119929 0.68007386
000100 95 a1 b0 be a2 59 1e bf 66 34 21 bf 77 84 38 bf
       -0.34498277 -0.6185552 -0.6297058 -0.72077125
000110 ce 0b d3 bc 35 23 09 be 25 d3 d5 3e ea 8a 32 3d
       -0.025762465 -0.13392337 0.41762653 0.04358951
000120 7a 32 07 be 95 b1 50 3e e4 9b b2 3e 27 95 36 be
       -0.13202849 0.20380242 0.3488456 -0.17830335
000130 76 95 23 bf 8c 39 ed 3e c2 90 06 bd 48 dd 3f 3e
       -0.63899934 0.46332967 -0.032852896 0.18736756
000140 18 67 80 be 59 76 10 3e da 49 b1 3d 03 72 21 be
       -0.25078654 0.14107646 0.08656664 -0.15766148
000150 49 e7 a6 be cf 7a c8 bd 40 a2 13 3f 9f b5 ad be
       -0.32598332 -0.09789049 0.5766945 -0.33927628
000160 e2 08 f8 3e 17 09 74 bd 49 b8 be be 58 99 cd 3f
       0.48444277 -0.05957898 -0.37249973 1.6062422
000170 b2 07 92 3d 70 5e 68 be a0 84 0a be ca 79 3a be
       0.07130374 -0.22692275 -0.13527155 -0.18210521
000180 63 88 32 3e 7c 64 1a 3f c7 d2 1a 3f 40 cc e9 bd
       0.1743484 0.60309577 0.6047787 -0.11415911
000190 96 c8 34 bd 92 15 fb 3e af ea 53 be 85 4d 9d 3d
       -0.044136606 0.49039894 -0.20694993 0.07680801
0001a0 bb 19 b2 3c 33 1e 8f bf 7f 9e 26 bf 10 ed 80 3d
       0.021740785 -1.1181091 -0.65085596 0.06295216
0001b0 3a a2 e0 3e 99 47 c3 be 44 b7 22 bf 1d 2b b7 bc
       0.4387377 -0.38140562 -0.6356089 -0.022359425
0001c0 c7 fc 27 3e a9 87 1d be 00 6e 85 3d 1f 3f 10 bf
       0.1640502 -0.15383781 0.065151215 -0.56346315
0001d0 1c db 2a 3e d4 11 4f bf 20 93 25 3f 4d 78 a5 be
       0.16685146 -0.8088658 0.6467762 -0.32318345
0001e0 1c 5c 3c 3d 42 81 c9 bd 09 1a 5e 3e 15 1c 01 3d
       0.04598628 -0.09839107 0.21689619 0.03152092
0001f0 27 95 01 3d 96 fe 9a bd 9a ba 5e 3d 52 02 a0 be
       0.031636383 -0.0756809 0.054377176 -0.3125177
000200 c3 6c 5e 3e cb 65 bf 3e 22 65 66 bf 1b 68 10 bf
       0.21721177 0.3738235 -0.89998066 -0.5640885
000210 17 5a 28 3e 8f 11 01 3e 4f 7d 61 be 53 66 0c 3d
       0.16440617 0.12604354 -0.22020458 0.03427727
000220 8c 11 eb be 18 8b 1d 3f 45 8a 0f be 3f 80 e8 3e
       -0.45911825 0.61540365 -0.1401759 0.45410344
000230 f7 77 06 be 7b 70 19 3f 5c 3b 93 bc 8f 6c 5e bd
       -0.131317 0.59937257 -0.01797264 -0.05430275
000240 f5 2b d7 be 41 d0 81 be f9 41 4b be 22 21 ae 3d
       -0.42025724 -0.25354198 -0.19849385 0.08502413
000250 b2 23 01 be aa c3 df 3d 77 83 61 3f 05 2c 1f be
       -0.12611273 0.10925992 0.88091224 -0.15544136
000260 ff aa ef be 67 6b 23 bf 32 45 b0 be 94 ac 16 40
       -0.46810147 -0.6383576 -0.34427792 2.3542833
000270 62 6a 90 3e 87 11 57 3e 8c 04 f9 bd d8 fc 27 bf
       0.28206164 0.2100278 -0.121590704 -0.65620184
000280 cd 3c af bd c7 f2 62 3f da 3e b5 bc 21 69 dd 3d
       -0.08556519 0.886517 -0.022124697 0.108110674
000290 58 43 59 3e bb ea 63 be 92 88 80 be 8c 21 09 3e
       0.21217096 -0.22257511 -0.25104195 0.13391703
0002a0 a3 76 e9 be 25 2b 93 bf f2 38 aa be 68 c5 73 bb
       -0.45598325 -1.1497542 -0.3324657 -0.003719652
0002b0 9f 09 91 3e cf 84 f6 be 3d 26 07 bf 05 18 de 3e
       0.28327653 -0.481482 -0.5279272 0.433777
0002c0 4a ed 38 be d1 37 67 be c5 99 63 bd 64 bc ba bd
       -0.18059269 -0.22579886 -0.055566568 -0.09117964
0002d0 14 96 d3 3d 52 fe a7 bf 5e 5f 8d 3f 73 2c ae bc
       0.103313595 -1.3124487 1.1044729 -0.02126143
0002e0 66 ce 70 be 93 1d 1e 3e 41 64 d4 3d 8b ed 77 be
       -0.23516235 0.15440969 0.103706844 -0.24211709
0002f0 cf 48 a4 3d e0 16 3d 3f 2a 39 71 3e b0 c3 64 3d
       0.080217 0.7386303 0.23556963 0.055850685
000300 94 80 59 3c 6b 75 94 3e d8 b6 32 3f ac ff 44 3e
       0.013275284 0.28995833 0.6981025 0.19238156
000310 aa 31 f2 be d0 e5 6d be 6f be f2 3e dc ee fa 3d
       -0.47303516 -0.23232198 0.47410914 0.1225259
000320 48 bf 9d 3d 19 9a bf be 75 45 e5 3d 4a 1e 9e be
       0.077025 -0.37422255 0.111948885 -0.30882484
000330 aa 50 80 3e 92 fb 01 bf be 98 ab 3c c9 22 a2 3c
       0.25061542 -0.5077449 0.020946857 0.019791977
000340 0b 96 60 3f 9a 80 9e 3d f1 ac 00 3f 84 b9 0d be
       0.8772895 0.077393726 0.5026389 -0.138403
000350 8a cb aa 3e 1f b6 15 be 1f 4a 56 bf ea 20 89 3d
       0.33358413 -0.14620255 -0.8370685 0.06695731
000360 cb 84 a6 3e 26 c8 b4 3e 6a 30 c9 3e 44 b9 01 c0
       0.32523188 0.3530895 0.3929475 -2.0269327
000370 be ef 93 be 62 b0 7f 3b c9 08 9b 3e 8d 3c 3b 3f
       -0.28893846 0.0039015044 0.3028014 0.7313927
000380 b0 3c 4a bd 16 25 8c bf de fd 95 3e 7b 49 7e be
       -0.049374282 -1.0948818 0.29295248 -0.24832718
000390 36 56 ac be 54 f4 11 3e ae f6 17 3d b0 81 40 be
       -0.33659524 0.1425336 0.037100486 -0.18799472
0003a0 2a 8f 9c 3e 0a 8a 36 3f 5c 97 c6 3e 4e 2d d0 bd
       0.30577976 0.7130438 0.38787353 -0.10164891
0003b0 b4 21 ed bd a6 54 a6 3e 2b b8 37 3f 1e 68 a3 be
       -0.11578694 0.32486457 0.71765393 -0.31915373
0003c0 06 44 a1 be 92 a3 84 bd d7 9c 80 3c 49 69 df 3d
       -0.3149721 -0.06476511 0.015699787 0.109087534
0003d0 00 1e c6 3d 04 05 84 3f a5 06 6c bf 16 36 f1 bd
       0.09673691 1.0314031 -0.9219764 -0.11777894
0003e0 fb b6 16 bd 06 26 b9 bd ae 7a 70 be 14 63 71 bd
       -0.036795598 -0.090404555 -0.23484299 -0.05893238
0003f0 dc 40 f6 3d 8b 3e ce be b5 ee d4 bd 0b 69 6c be
       0.1202409 -0.40282091 -0.10397092 -0.23086946

critic.2.bias f4 [64]
000000 bc dd 15 be 93 11 49 3d 1f f6 96 3e 0c 7c 46 be
       -0.14635366 0.049089026 0.2948465 -0.19383258
000010 0c 47 fe 3d 53 b8 d2 3e f4 8b d8 be 12 48 49 3e
       0.12415895 0.41156253 -0.42294276 0.19656399
000020 d1 ce 01 be 57 a4 17 3e df 96 f9 bd 72 98 74 3e
       -0.1267655 0.14808784 -0.121869795 0.23886278
000030 d0 20 71 3e 87 b4 ca bd d7 ee 2d be 0a ef e2 bd
       0.23547673 -0.09897714 -0.16985641 -0.11080749
000040 86 dc 47 be a7 b3 93 bd cb f9 56 be f8 1a 77 3e
       -0.19517717 -0.07212 -0.20993726 0.24131382
000050 58 b7 2c 3e f4 10 86 3e 4a b5 52 be c6 6a 49 be
       0.16866815 0.2618481 -0.20576969 -0.19669637
000060 ab d4 72 3e 9b 6d 6a bd 30 c5 6d 3e 00 ec b7 3e
       0.23713939 -0.057233434 0.23219752 0.3592224
000070 2d 84 8b 3e 70 c7 dc be d9 fd d0 3e ad 47 36 3d
       0.2724928 -0.4312091 0.4081867 0.04450195
000080 f1 c0 99 3e 2e cd 69 3e ae 0b a0 3e 10 45 1b 3e
       0.30030015 0.22832176 0.3125891 0.15163064
000090 5d 38 91 3e 15 87 55 3a ff 0b 89 bd 03 61 81 bd
       0.28363314 0.0008145434 -0.06691741 -0.06317332
0000a0 bf 90 87 bd 22 5b 83 be 69 2a b2 3e 8c 32 25 3e
       -0.06619405 -0.25655466 0.3479798 0.16132563
0000b0 13 a6 81 3e 59 8f af be f3 71 35 bd 02 51 35 3e
       0.25322017 -0.34289053 -0.044298124 0.17706683
0000c0 e5 fd 8a 3d ac b3 75 3e 46 0e 20 bd 2c 27 a2 be
       0.06786708 0.2399432 -0.039076112 -0.3167051
0000d0 84 7f 9b 3e 88 23 56 3d af de 24 3d 99 1d 0e bd
       0.30370724 0.05227998 0.04025143 -0.034696195
0000e0 dd 89 37 be c7 25 3e 3e 80 be 7b 3d ba ce cf 3e
       -0.17923684 0.18569098 0.06146097 0.40587407
0000f0 15 ad 75 3e 41 f9 c3 3e a2 f0 bc 3b 34 98 02 bd
       0.23991807 0.38276103 0.0057659904 -0.031883433

critic.4.weight f4 [1, 64]
000000 af e0 00 c0 4d fe 09 40 c6 bd 22 40 cb 55 07 c0
       -2.0137136 2.1561463 2.5428329 -2.1146114
000010 60 5f 9a 3f 35 b0 04 40 d3 1c d9 bf f1 7b 1d 40
       1.2060356 2.0732548 -1.6961921 2.4606898
000020 ec b6 c9 bf 04 6f d2 3f a7 9b de bf ab 63 f9 3f
       -1.5758948 1.6440129 -1.7391251 1.9483541
000030 86 0b 1c 40 c2 05 bc 3f ab 27 b0 3f 16 cc a4 bf
       2.4382033 1.4689257 1.3762106 -1.2874782
000040 f0 63 ed bf dc 13 d2 3f fe eb e5 bf e7 0b 0d 40
       -1.8546124 1.6412311 -1.7962644 2.2038515
000050 58 f4 ac bf 4d 99 bb bf 0b ce be bf 80 c2 d3 bf
       -1.3512068 -1.4656159 -1.4906629 -1.6543732
000060 9d c2 f5 3f d6 35 bd bf 67 7d de 3f 20 47 0c 40
       1.9200016 -1.4782054 1.738202 2.1918411
000070 78 49 1c 40 bc 79 d9 bf d0 fb bb 3f 6b 49 92 3f
       2.4419842 -1.6990275 1.4686222 1.1428655
000080 6f 6b fc 3f 9b 22 e6 3f bd 23 f7 3f 56 8c 7b 3f
       1.9720286 1.7979311 1.9307781 0.9826101
000090 89 c8 0d 40 f3 2a d4 3f 27 9b d9 3f b1 12 be 3f
       2.2153647 1.6575607 1.7000474 1.4849454
0000a0 1c 96 c5 3f f1 95 b4 bf e2 45 da 3f ba a5 d3 3f
       1.5436435 -1.4108258 1.7052577 1.6534951
0000b0 ae a3 c2 3f e8 d8 cc 3f 2d 1a b3 bf 98 33 0d 40
       1.5206201 1.6003695 -1.3992363 2.206274
0000c0 53 87 fa 3f 6c 6f bc 3f e7 f4 d0 3f dc 6e 05 c0
       1.9572548 1.4721503 1.6324738 -2.0848913
0000d0 43 8a a6 3f ec b9 11 40 83 97 c6 bf 30 33 e3 bf
       1.3010944 2.2769728 -1.5514988 -1.7749996
0000e0 d2 8e d5 bf fa 31 ef 3f 1d 99 cb 3f 7c 70 21 40
       -1.668421 1.8687127 1.5906101 2.5224905
0000f0 3f ef 08 40 79 02 00 40 59 b2 ac bf cf f1 d0 bf
       2.1396024 2.000151 -1.3491927 -1.6323794

actor_mean.0.weight f4 [64, 27]
000000 e5 f1 94 3e 44 9a 62 3e 4d 21 e6 bc b4 43 a8 be
       0.290908 0.2212916 -0.02809205 -0.32864153
000010 52 7b 81 3e 20 46 40 be 19 f8 ef 3e 7f 87 65 3e
       0.25289398 -0.1877675 0.4686897 0.22414969
000020 fb 77 3d be 54 93 24 3e c2 a4 76 3d 25 f1 f3 3e
       -0.185028 0.16071826 0.06021572 0.47644916
000030 35 69 b4 bd 75 d5 1d 3e d1 dc 51 bf fa e9 89 be
       -0.08809129 0.15413459 -0.81977564 -0.26936322
000040 86 4b 0c 3f 1f 49 87 be bf 87 20 3e 51 16 25 3e
       0.5480274 -0.26422974 0.15676783 0.16121794
000050 a8 b4 3d 3e 60 56 7e 3d 32 0d 02 be b7 69 a0 3e
       0.18525946 0.062094092 -0.12700346 0.31330654
000060 57 17 fd 3d c7 e0 79 be 82 65 35 3e eb 90 05 bf
       0.12357967 -0.24402152 0.17714503 -0.5217425
000070 c3 a3 fe 3c 03 44 41 bd 79 bb a2 3e a4 b9 ce 3d
       0.031083947 -0.047184 0.31783655 0.10094002
000080 9e d9 0a 3e ae fb 11 3e 14 35 27 3e 51 58 84 3d
       0.13559577 0.14256164 0.16328841 0.064621575
000090 79 94 09 3f 6a c3 68 3d 92 c3 c8 3c cb 9c 77 3b
       0.53742176 0.056826986 0.024507318 0.0037782665
0000a0 60 f7 f8 3e 47 e4 b0 be 68 7a 0e be c9 89 f6 3d
       0.48626232 -0.34549162 -0.13913882 0.12037999
0000b0 e8 08 da 3e 9c bd d9 bd 0c 98 84 3d c6 d2 2d bd
       0.4258492 -0.10631868 0.06474313 -0.042437337
0000c0 ed fb aa 3e 3d 62 f2 3e 6d 14 1a be 7a f5 15 be
       0.3339533 0.47340575 -0.15046854 -0.14644423
0000d0 31 cc be be 5a f3 f0 bd b5 03 32 3e c2 eb 4c 3e
       -0.3726516 -0.117651656 0.17384227 0.2001181
0000e0 bf c2 20 3e 30 97 3c be 31 5f 35 be 7a 82 21 3e
       0.1569929 -0.18417048 -0.17712094 0.15772429
0000f0 8a f8 22 3e a2 7f 26 be 75 d8 80 bd 95 c9 e3 be
       0.15915123 -0.16259626 -0.06291286 -0.44489732
000100 23 65 5d 3d 94 df a1 bd fa 4c b1 3e 75 cb 2c bd
       0.05405153 -0.07903972 0.3462904 -0.04218622
000110 e3 27 47 bf 89 9f 57 3f 05 5f 57 3e 3b 15 c5 bd
       -0.7779524 0.84227806 0.21032341 -0.0962319
000120 06 34 72 3c 2d fe 0d 3d 67 3b 85 be c0 cd 38 3e
       0.014782911 0.03466623 -0.26021883 0.18047237
000130 ef ab 48 3e 01 6c d3 be 5f 14 55 3e b0 20 57 bb
       0.19596837 -0.41293338 0.20808552 -0.003282588
000140 0d be 01 3c fc 6f d5 bc 84 50 19 3f 6c 08 05 3f
       0.007918847 -0.026054375 0.5988848 0.51965976
000150 8e c7 29 3e a0 b5 22 3f 92 6b 46 3f 87 9c 71 3d
       0.1658003 0.6355839 0.7750789 0.058987167
000160 9e f0 72 bb 87 07 e2 3e 82 87 e1 3e 68 76 e6 bd
       -0.0037069689 0.44146368 0.44048697 -0.11253053
000170 98 d5 30 be 1c cf 27 3d 3a 53 e8 be 03 32 83 3c
       -0.1726898 0.040969 -0.45375997 0.016015058
000180 b7 77 39 be 75 d6 8e be 28 b3 50 3d 1e 89 27 be
       -0.18112074 -0.27897993 0.050952107 -0.163609
000190 d9 c4 a0 bd a2 40 ae 3e 49 14 d4 3d 05 d0 8a 3d
       -0.07850046 0.34033686 0.103554316 0.06777958
0001a0 7c 16 8f 3e a2 7b 1a be be 2d d0 3c fd dc 85 3d
       0.27946842 -0.15086225 0.025412437 0.06536291
0001b0 42 8d 9b 3d ea 65 db 3e bb 55 64 3e 49 ef cd bd
       0.07595302 0.42851192 0.22298329 -0.10055406
0001c0 e3 ce fc 3d fb d4 35 be 85 fa 4d be 2e ae b3 bd
       0.12344148 -0.17757027 -0.20115097 -0.087734565
0001d0 3b 31 d7 3e 8d ad c1 3d bb fc 6a bd 18 51 22 be
       0.42029747 0.0945693 -0.05736993 -0.15851247
0001e0 a1 f0 96 be c6 de ac be 89 50 c7 be e6 20 5b 3e
       -0.2948046 -0.33763713 -0.3892863 0.21399269
0001f0 46 b7 ec bd d7 95 3a bf 83 f7 8d bd 59 8a e4 bd
       -0.11558394 -0.7288489 -0.06931975 -0.111592
000200 ea a4 07 3f e9 1f d9 3d 3d 39 1a be e2 fe 1a be
       0.52986014 0.106017895 -0.15060897 -0.15136293
000210 57 bb 12 be 01 96 c9 3d b8 20 02 3e d6 25 cf 3d
       -0.14329277 0.09843064 0.12707794 0.101146385
000220 69 59 2d bf 10 14 5b 3e 9c a8 81 3e f9 75 14 3f
       -0.67714554 0.21394372 0.2532395 0.5799251
000230 bf bd 60 bd 45 35 6b 3e e1 bd b1 3e 4b 39 52 be
       -0.054868456 0.2296954 0.3471518 -0.20529668
000240 67 11 39 3e ad db d1 3d 1a 6e 18 be e9 65 f8 3d
       0.18073045 0.10246978 -0.1488575 0.12128813
000250 5f 82 29 bf e8 78 bc 3d 9c 93 a2 be f1 4e c4 3e
       -0.66214556 0.092027485 -0.31753242 0.38341478
000260 d2 e9 38 bd 90 66 91 be 41 ee 03 be 9a f5 b8 bd
       -0.045144863 -0.2839856 -0.12883855 -0.0903122
000270 11 3d 80 bd e2 24 27 3e 91 10 05 3e c4 86 ad bc
       -0.062616475 0.16322663 0.12994601 -0.021182425
000280 e0 10 37 bd b6 2a a4 be f2 69 bb 3e a2 07 ee bd
       -0.044693828 -0.32063836 0.36604267 -0.116225496
000290 be e6 8b bd f0 ce 6c bf f7 90 2c bf d0 85 c5 be
       -0.0683112 -0.9250326 -0.674087 -0.38578653
0002a0 60 d2 82 bd 02 9e c9 be 87 78 bd 3e 6e b5 a6 3e
       -0.06387782 -0.39378363 0.37006018 0.32560295
0002b0 b1 f6 7d bd e4 e3 d5 3c 22 bc 4a 3e 45 df 9a 3e
       -0.06200284 0.026109643 0.1979833 0.30248466
0002c0 cc c7 bf be 1f 2c 1b be eb d8 ec bd c1 c3 03 3d
       -0.3745712 -0.1515355 -0.11564811 0.032169107
0002d0 3a 3f 4d bd bf 52 e5 bd a7 cd e8 bd a6 ca 92 3e
       -0.050109126 -0.11197423 -0.1136735 0.28670233
0002e0 54 30 28 bc 52 ea f2 bd b4 e9 bd be 7f 9f 63 be
       -0.010265429 -0.11861099 -0.37092364 -0.22228812
0002f0 04 f6 af bd 36 e3 9c be f4 82 9c 3e 93 13 2d 3d
       -0.08591846 -0.30642098 0.3056866 0.042254996
000300 84 85 67 bf 85 01 01 3e 82 a7 7b 3e fd f5 09 3e
       -0.90438104 0.12598236 0.24575618 0.13472743
000310 78 99 ba 3e 34 dd 3b 3e ca 24 1f 3f 23 59 8d 3d
       0.36445212 0.18346101 0.6216551 0.06901767
000320 dc 67 a4 3d 8d 3a 6a be 21 37 ea be 25 de 53 be
       0.08027622 -0.22873898 -0.45745185 -0.2069021
000330 e2 6a c6 3e 7d f1 a2 be f0 c6 1b 3f 82 e1 aa 3e
       0.3875342 -0.31824866 0.6085043 0.33375174
000340 9c 64 3a be 92 f9 08 3d da a1 9e 3e b4 d1 d0 3d
       -0.18202442 0.033441134 0.30982858 0.10196248
000350 f4 1f 93 3d ff 19 38 bd 5c 18 e9 bd fd 85 84 3e
       0.07183829 -0.044946667 -0.11381599 0.25883475
000360 03 5f 90 be 39 0c 4d bf f0 57 9a bd e3 6b 66 be
       -0.28197488 -0.80096775 -0.07536304 -0.22502093
000370 b8 92 40 be 2e de 06 3e 4a 5b 8d bc 60 14 e3 be
       -0.18805969 0.13170692 -0.017255444 -0.44351482
000380 96 33 a8 bc d3 72 01 3f 40 e2 d2 3e 31 a7 b3 3d
       -0.02053241 0.5056583 0.4118824 0.087721236
000390 15 5c 60 be e3 e0 3e be 93 a0 1a be 37 5e 34 be
       -0.21910127 -0.18640475 -0.15100317 -0.17614065
0003a0 9d fb ab be 3d 8f 84 3e 8c f4 f8 be 36 02 2a 3e
       -0.33590403 0.25890532 -0.48624074 0.16602406
0003b0 a5 fb c3 3c e3 c1 3f 3d c1 96 e2 3c fc d0 bb bb
       0.023923704 0.046815764 0.027659776 -0.0057317
0003c0 3a db 9b be 2f b8 05 3f df d9 07 3e d4 54 82 be
       -0.30440694 0.52234167 0.13266705 -0.25455344
0003d0 54 96 bc be 6c cd 50 3e 6e df 25 3f fc 58 83 3d
       -0.3683344 0.20390862 0.6479405 0.06413457
0003e0 f5 ce ae bd 1d f7 61 3d 6e 8e f7 3d 33 12 76 3e
       -0.08535568 0.055167306 0.12087713 0.2403038
0003f0 38 ed 35 3e 87 2d 9e 3d 42 e8 78 be 57 cd 24 be
       0.17766273 0.077235274 -0.2430735 -0.16093956

actor_mean.0.bias f4 [64]
000000 9c 20 b6 3c 0c db 8a bc 0e 1a 72 3c cc 57 b3 bd
       0.022232346 -0.016950153 0.01477672 -0.0875698
000010 31 df b5 bc 11 65 cf 3c 1d b7 d5 bd a9 1e 72 bd
       -0.022201153 0.025316747 -0.10435317 -0.05911127
000020 0b d1 6c be 5f fd 0b be cd 6e 0b be 1e 61 b5 be
       -0.23126619 -0.13670872 -0.13616486 -0.35425657
000030 13 40 19 3e 80 97 89 bd ad f7 16 3d df 40 08 3e
       0.14965849 -0.067183495 0.036857296 0.13305996
000040 f0 34 30 3d 57 3b 64 3e 58 9f a6 bd 7a e4 07 be
       0.043019235 0.22288261 -0.08135861 -0.1327075
000050 c4 3e 76 3d c8 4e 5b be 48 a5 af bd 84 28 20 be
       0.06011845 -0.21416771 -0.08576447 -0.15640455
000060 6e a8 0e 3d bf 02 a1 3d be c5 49 3e d9 95 4f be
       0.034828596 0.07861852 0.19704339 -0.20272006
000070 17 47 0d be dd 2d f9 3d 0d ae 0c 3d 90 57 7e 3d
       -0.1379665 0.12166951 0.034345675 0.062095225
000080 d3 c6 92 be cc fd a7 bd 42 60 24 3d f5 ae 53 bd
       -0.28667316 -0.08202705 0.04013086 -0.051680524
000090 d2 75 78 be 5b 16 bd bc 6a 11 d9 bd 13 e5 83 3c
       -0.24263695 -0.023081949 -0.105990246 0.016100442
0000a0 39 d0 19 3e 8e 22 b9 bd 7e 56 c0 3c 20 0f 94 3e
       0.15020837 -0.09039794 0.023478743 0.2891779
0000b0 19 5d 8c bd 96 03 71 bd 61 11 01 be 40 7b 45 bd
       -0.068536945 -0.05884131 -0.12604286 -0.048213243
0000c0 97 df b0 bc ae 4e 11 3d d1 b7 97 3d f2 e8 31 3d
       -0.021590991 0.035475425 0.07408107 0.043435045
0000d0 d1 eb 76 bd db c4 56 bd 04 e5 42 be 34 ed 5e bb
       -0.060283486 -0.05243383 -0.19032675 -0.0034015896
0000e0 6a 05 c0 bd 07 08 6c bc 4c 19 62 bd 60 6f f8 3d
       -0.09376033 -0.014406211 -0.055199906 0.12130618
0000f0 b5 80 d6 3d 6f 33 f5 3d 7c 3b 88 bd dd 83 9a 3e
       0.10473768 0.11972701 -0.06651971 0.3017873

actor_mean.2.weight f4 [64, 64]
000000 4e c1 9e be 61 e8 9f 3e 7c 43 19 be 1f b8 d6 bd
       -0.31006855 0.3123198 -0.1496715 -0.10484337
000010 2f 84 d0 bd 76 59 59 be 55 fb 7d 3d c8 ba 89 bd
       -0.10181462 -0.21225533 0.062007267 -0.06725079
000020 62 75 99 3d 40 69 71 be 6d 39 9a bd 1b d2 03 bf
       0.07493092 -0.23575306 -0.07530484 -0.5149247
000030 1e 8b 38 3e 23 60 00 bf 6f f0 69 3e 84 96 ae 3e
       0.18021819 -0.50146693 0.22845624 0.3409921
000040 2c 2b 99 3e 04 e9 38 be 1c 25 9e bd 90 9a 48 be
       0.2991575 -0.18057638 -0.07721922 -0.19590211
000050 41 f5 69 be 1f cf ae 3e 06 85 81 be 18 05 ff bd
       -0.22847463 0.34142396 -0.252968 -0.124521434
000060 4c e0 50 3e 35 90 04 3e 57 cb c6 3d 81 59 a5 be
       0.20398062 0.12945636 0.09706753 -0.3229485
000070 71 1b ad bc 12 84 3f be 76 94 1e 3d 1f e6 be bd
       -0.02113125 -0.18702725 0.038715802 -0.09321236
000080 c5 64 2c be 25 95 86 3e 2d 0a bf be 2b ca ba 3d
       -0.16835316 0.26285663 -0.3731245 0.09120592
000090 91 31 3a ba 85 93 7d be 62 38 c9 3b 82 37 bc 3e
       -0.0007102723 -0.24763305 0.0061407546 0.367611
0000a0 78 42 0a 3d 77 96 74 be c5 22 b9 3e 79 a0 e1 bd
       0.033754796 -0.23885523 0.3615934 -0.11016936
0000b0 d3 f7 e9 3e 84 c3 c1 be 28 33 a9 3e 6a 29 71 be
       0.45696887 -0.3784448 0.33046842 -0.23550954
0000c0 d9 64 57 bd 5f 7b 9d bd e2 10 4c be 42 a4 10 3f
       -0.05258641 -0.07689547 -0.19928315 0.5650064
0000d0 a8 44 6b be 16 39 ac be 14 81 91 bd a3 02 f6 bd
       -0.22975409 -0.33637303 -0.07104698 -0.12012222
0000e0 ee ae 5d 3e c7 c3 85 3e 60 63 5a 3e 6b 1e 36 3e
       0.21648762 0.2612593 0.21326971 0.17785041
0000f0 f8 51 c1 be c6 1c eb 3c 15 8e 1e 3e 45 4b 04 bf
       -0.3775785 0.028700244 0.15483887 -0.5167735
000100 8e 78 9a bd 4c 9d 98 be 54 2e 24 bd 21 64 2c 3e
       -0.07542525 -0.29807508 -0.040083244 0.16835071
000110 e3 b8 37 3e a4 f1 41 3c 5b 2f c7 bc 51 5d 2a 3d
       0.17941622 0.011837397 -0.024314573 0.0415929
000120 ea 19 0b 3d 00 b4 ec bd 73 93 e0 bb 61 0a 89 3b
       0.03396026 -0.1155777 -0.006853515 0.0041821455
000130 80 fa 6b be 9f 27 4c be d7 94 31 3e 23 96 2e 39
       -0.23044777 -0.19936989 0.17341934 0.00016649863
000140 3a 2e e2 be 67 82 77 bd af a6 d2 bd 91 06 a5 3e
       -0.44175893 -0.060427096 -0.102856986 0.32231572
000150 43 31 78 be 29 e1 09 3c 0c 48 38 3e fc b9 df bd
       -0.24237542 0.008415499 0.17996234 -0.109241456
000160 e3 64 ef bc 31 db f0 3d 68 8d a7 3d 7d 01 bc bd
       -0.029222911 0.117605574 0.08181268 -0.09179971
000170 ce b8 10 bd f1 f3 74 be 18 fe cb bd 39 b7 c1 bd
       -0.035332493 -0.23921181 -0.09960574 -0.09458775
000180 2d 21 a0 bd bb a8 62 be 14 58 ad be c3 c1 88 be
       -0.07818828 -0.22134678 -0.3385626 -0.26710328
000190 62 de 11 3f ea 93 8e 3c 91 fe f7 3e 59 d6 62 3e
       0.56979954 0.017404515 0.48436406 0.2215208
0001a0 1b 8f 0a 3f 6e 61 53 bd cc 2d c3 3b 50 8c db 3e
       0.5412461 -0.051606588 0.005956387 0.42880487
0001b0 0e d4 ad 3e ff a5 47 3e 70 d6 ff 3e 98 4a 4d be
       0.33950847 0.19496916 0.4996829 -0.20047987
0001c0 15 c7 05 be a6 d6 5a 3e bf db 8d 3e 7a 5e 63 bd
       -0.13064225 0.21370944 0.27706715 -0.05551002
0001d0 de 42 51 3d 6f 53 e0 3e 06 1e dc 3e 6b 06 96 be
       0.05108916 0.43813655 0.42991656 -0.29301772
0001e0 6f 88 59 3e 69 a8 c1 bd da 8c a9 3c 4f fa 13 3e
       0.21243452 -0.0945595 0.020697046 0.14450954
0001f0 16 66 ca 3d 80 a1 c5 3c 21 e5 78 3c 44 b9 d2 be
       0.098827526 0.02412486 0.015191347 -0.4115697
000200 85 9c 6a 3b 1a 2e 8e 3e f7 0b de bd 64 25 0f be
       0.003579886 0.27769548 -0.10842126 -0.13979107
000210 ae 3f a2 be 8d a9 5f 3d fd 52 82 3d c9 f4 90 3e
       -0.3168921 0.054605056 0.06363485 0.28311756
000220 64 14 c9 be fb 2f 8a be f6 e1 57 bd e1 39 8c bd
       -0.3927337 -0.2698973 -0.052705728 -0.06846977
000230 51 8d a7 3e 0a f9 93 bd 27 01 c6 be 49 3a 0b bf
       0.32725003 -0.07225235 -0.38672754 -0.5438581
000240 a5 d9 13 3e c3 95 68 bc ca 21 ab be f0 c8 01 3e
       0.14438494 -0.014195862 -0.33424217 0.12674308
000250 01 b4 e7 bc d2 6a 03 be 2d 6d 6c bd ef 12 e4 be
       -0.028284075 -0.12833717 -0.057721306 -0.44545695
000260 f8 50 20 be 51 3b 11 bd 0e ef 0d bf 47 62 9a 3e
       -0.15655887 -0.03545696 -0.55442894 0.30153105
000270 aa 5f 35 3e a9 f0 b2 3e 1f 2f 39 3e 99 78 09 3e
       0.17712274 0.34949234 0.18084382 0.1342491
000280 e4 fb fa 3d 57 3e 16 bf e5 03 55 be 3c c3 b6 bd
       0.122550756 -0.58688873 -0.20802267 -0.08923957
000290 d2 44 d8 3e 83 a5 cc 3d 8b 05 eb bd 3b bc 4c be
       0.42240006 0.09992506 -0.114756666 -0.19993679
0002a0 32 dd c6 bd 27 b9 25 3e 9a d3 07 3d b9 93 6d 3d
       -0.097101584 0.16183911 0.033160783 0.058002207
0002b0 39 25 6c bb ab 04 ad bd 4c de c3 3e da bb c0 bd
       -0.0036032929 -0.08448156 0.38255537 -0.0941083
0002c0 cc 41 69 3e d0 8b 15 3f 93 d2 80 3d 39 a4 97 3d
       0.22779006 0.5841646 0.06290164 0.0740437
0002d0 d3 0f b1 bd fd af b6 be 37 b0 95 be e6 f4 c8 be
       -0.08645596 -0.35681143 -0.29236004 -0.39249343
0002e0 36 d7 01 bd d3 31 8b bd ff 64 9b 3d 47 72 5d be
       -0.03169938 -0.067966126 0.07587623 -0.21625625
0002f0 5f b3 d8 3e aa 8f e2 bd 4c 10 06 be 32 ce 25 3e
       0.4232435 -0.11062558 -0.13092154 0.16191939
000300 64 2d 43 3d ad a6 ad bd a0 43 a3 be 09 01 29 3e
       0.04765071 -0.084790565 -0.3188753 0.16504301
000310 96 0b ef 3e 40 25 15 bc bf 70 27 be d9 ed 78 bd
       0.46688527 -0.009103119 -0.16351603 -0.060773704
000320 7e 7e 24 3d c1 97 48 3a 58 cd aa be 58 4d 98 be
       0.040159695 0.00076520076 -0.3335979 -0.2974651
000330 47 58 3f 3e 6a d8 21 bd a5 5b 1d be 57 6a 30 3e
       0.18686019 -0.03951303 -0.15366991 0.17228065
000340 4b 3d 4b 3d 05 e6 54 be 53 2d 8f 3e 14 c7 0a be
       0.049619 -0.2079087 0.27964267 -0.13552505
000350 d4 e3 1a be 35 ca 9b 3c 95 f6 3c bd 91 65 db be
       -0.15125972 0.019017318 -0.046133596 -0.42850927
000360 64 d4 15 bf ba 2d 05 be 87 4b cd bd c6 c3 81 bc
       -0.5852721 -0.13005725 -0.10024171 -0.015840422
000370 f5 b6 ec be b0 f5 c4 be 0f 4d 8a be e4 6f 18 3e
       -0.46233335 -0.38468695 -0.27011916 0.14886433
000380 ea bf 9b bd 4a e3 9b be 1b ba c1 bd bf 87 87 3e
       -0.07604964 -0.30446845 -0.09459325 0.26470754
000390 93 a6 7b be df 95 6b 3e 2c 9e 52 bc e9 23 83 bc
       -0.24575262 0.2300639 -0.012855094 -0.016008334
0003a0 f5 c6 07 be 37 95 d2 3d 1e 64 a7 be 85 aa 3b be
       -0.1325949 0.10282367 -0.3269357 -0.18326767
0003b0 ab 1a 1a 3f 0e 0f 04 bf 88 7c cd bd d7 f7 1a 3e
       0.6019694 -0.5158547 -0.10033518 0.15133606
0003c0 46 85 25 be c6 00 81 be 5c e7 f3 3d 31 be 23 3d
       -0.16164121 -0.25195903 0.11909363 0.039976303
0003d0 6a cc 25 be d2 52 82 bb 83 71 0a be 41 68 45 be
       -0.16191259 -0.003977158 -0.13519864 -0.19278051
0003e0 70 d4 2d be 11 19 96 3e dd 21 9b 3d 4f ce 46 be
       -0.1697557 0.29316 0.07574818 -0.19414638
0003f0 04 d8 09 bd e2 06 86 3c cc e3 f4 be 57 40 09 3e
       -0.033653274 0.016360704 -0.47830045 0.1340345

actor_mean.2.bias f4 [64]
000000 a5 be 47 3e 5e 0f 78 bd 46 2d 11 3d 3f 47 8e 3d
       0.19506319 -0.06056153 0.035443567 0.06947183
000010 0e 04 99 bd c4 81 a0 bd f5 ac 11 be 35 d3 5d be
       -0.074714765 -0.07837251 -0.14226134 -0.216626
000020 79 cd b8 3c 8f a4 b4 bc b2 be 99 bd 32 9b 10 3e
       0.022558914 -0.022051124 -0.07507075 0.14121702
000030 10 7a f9 bb 21 99 bc 3d 4b e9 87 3d 10 d0 f8 3d
       -0.007613428 0.092088945 0.06636294 0.1214906
000040 0c dc 98 3d 20 6d fb bd 28 47 22 3d 83 b9 5a 3c
       0.074638456 -0.12276673 0.03961864 0.0133498935
000050 75 08 16 3b b8 66 07 3c a6 71 0d 3e 2d c8 2c 3c
       0.0022893224 0.008264236 0.13812885 0.0105457725
000060 54 77 78 be 71 cd a1 be 43 75 94 3e 9e 5d a9 3d
       -0.2426427 -0.31602052 0.28995714 0.08269809
000070 27 08 a5 3d c8 fa a1 3d 0b 27 5f bd b2 a1 69 3e
       0.080581956 0.07909161 -0.054480594 0.22815588
000080 4f ec 9d bc 5e d6 c1 bb eb a7 29 be fe 0c 32 bd
       -0.01927772 -0.005915447 -0.16567962 -0.04346942
000090 05 4f b4 3d 91 68 58 3d e4 19 86 be 8f e1 61 3e
       0.08804134 0.052834097 -0.26191628 0.220587
0000a0 e0 54 01 be f9 c2 5c 3d 63 ee 94 be 1a 78 18 3e
       -0.12630033 0.053896878 -0.29088125 0.14889565
0000b0 db 46 a2 bd aa 54 31 3e 27 25 df bd 23 d5 2d 3e
       -0.07923671 0.17317453 -0.10895758 0.16975836
0000c0 3f 6f f8 3d de 33 8b 3b c1 41 30 be a5 45 c9 bd
       0.121305935 0.0042481264 -0.17212583 -0.09827737
0000d0 10 3b ba bd 07 1e 0d 3e 03 49 3a 3e 35 24 a3 bd
       -0.090932965 0.13780986 0.18191914 -0.0796589
0000e0 e2 43 af 3d cd b8 30 bd c4 9d a9 3d 41 fe 91 3d
       0.085578695 -0.04314499 0.082820445 0.07128573
0000f0 ba a2 06 3d 38 82 33 be 86 bd 20 bd 6c 14 a6 bc
       0.032870032 -0.17530143 -0.039243244 -0.02027341

actor_mean.4.weight f4 [8, 64]
000000 e0 68 c7 bc bb 4c 3f 3d 57 12 a7 3d 5e 1d bc 3c
       -0.024342 0.046704035 0.08157795 0.022963222
000010 06 ea 75 bd bc 61 67 bd a5 68 02 bd fa a2 c1 3c
       -0.060037635 -0.05648969 -0.031838078 0.023637284
000020 ab bb 74 bd 82 db 16 3b 07 a2 11 3d a7 75 d8 bc
       -0.059749287 0.002301902 0.035554912 -0.026423289
000030 00 34 9f 3c 13 77 42 be 0c 4b 91 3d be d2 f1 3d
       0.019433975 -0.18990736 0.07094392 0.11807774
000040 60 f1 51 bd e6 e5 e0 3b 2e 53 5e bd dc 31 29 3d
       -0.051255584 0.0068633435 -0.054278545 0.041307315
000050 78 af 79 3c 3d df 9b bd c7 71 10 3b 14 2f 15 3d
       0.015239589 -0.07610939 0.0022040473 0.03642185
000060 5b f3 0e 3d fd 90 a8 bd df 72 36 3d 00 c7 06 be
       0.03490005 -0.08230779 0.044543143 -0.1316185
000070 88 13 56 bd 98 89 40 bd 32 5f e9 3d dc 58 5d bd
       -0.05226472 -0.04700622 0.1139511 -0.05403982
000080 90 ea 09 bd 03 5c 43 3d 43 ad 6a 3d f7 6a 0f 3d
       -0.03367096 0.04769517 0.05729414 0.03501412
000090 40 89 21 3d 3c af 81 bc 5b c9 29 3d 3f 07 0c be
       0.039437532 -0.015830629 0.041451793 -0.13674639
0000a0 16 3a e4 bc 46 63 ce bd 48 9b 89 bc 73 16 bb bd
       -0.027859729 -0.10077529 -0.016797677 -0.09135141
0000b0 48 1d da bc 5b 5f f6 3d e4 b5 d7 3d 98 0f a6 bd
       -0.02662529 0.12029906 0.1053274 -0.08108443
0000c0 72 dc 87 3d 30 db 1a bd 87 5a 11 bc 00 70 be 3d
       0.066338435 -0.03780669 -0.008871681 0.09298706
0000d0 32 64 e4 3c 1b 44 a8 bd ec 55 2c be 13 ec 5c bd
       0.027879808 -0.08216115 -0.16829652 -0.053936075
0000e0 c9 af cd bc a3 3f 1e bd 68 68 36 bd 5c ff 16 3d
       -0.025108235 -0.038634907 -0.044533163 0.036864623
0000f0 07 00 ed bc 6a 59 9a bd 5c 2e b4 3d eb 9b ac 3b
       -0.028930677 -0.07536586 0.08797905 0.0052676103
000100 e9 be 50 3e 85 9f da bd c7 c8 b0 bc 97 9d 61 3d
       0.20385326 -0.10674957 -0.021580113 0.05508193
000110 cc 35 98 3d 5d a5 4a 3b 15 76 87 3d a3 28 aa bd
       0.07432136 0.0030921318 0.06614319 -0.08308532
000120 19 e5 e9 3c 5f 24 3b 3d 64 8a 63 bd f5 5e bd 3c
       0.028551625 0.045688983 -0.0555519 0.023116568
000130 ed b9 40 3d 2a 93 91 bd 2e 58 bb 3d a7 47 d1 3d
       0.047052313 -0.071081474 0.09147678 0.10218745
000140 b0 8a 89 3c 49 f0 8a 3d db de 86 3d ec 18 52 3d
       0.016789764 0.06784112 0.06585475 0.0512933
000150 4a 12 a4 bd be 0b 09 3e 8d 6e 7a 3c 14 b6 59 3d
       -0.08011301 0.13383386 0.015285146 0.05315216
000160 0d e4 c7 3d 6d 2c e5 bc 56 44 90 bd ee 8a 93 bb
       0.09760294 -0.027975285 -0.07044284 -0.0045026457
000170 52 16 40 3d 18 a1 40 bd c1 f4 3c bd 34 ca f2 bb
       0.046896286 -0.04702863 -0.046131853 -0.0074093584
000180 33 c4 32 3d 4e 6e 29 bd 81 ef d0 3d 12 5e a8 3d
       0.04364414 -0.04136496 0.10201932 0.082210675
000190 49 2d 0f be b9 08 ce bd 70 05 17 bd 82 26 0a 3d
       -0.13982119 -0.100602575 -0.03687042 0.03372813
0001a0 c5 cc e9 bd 9f bb 5a 3c 98 fa 12 3e 79 0f fd bc
       -0.1141601 0.013350396 0.14353406 -0.030891167
0001b0 6a 93 1a 3c 48 c4 8b bd 0e 2a 25 bd cd 17 33 bd
       0.00943456 -0.06824547 -0.04032331 -0.04372387
0001c0 43 70 d0 3d 74 00 95 3d 7e e6 df 3c 4c f2 d9 3c
       0.10177662 0.07275477 0.027331587 0.026604794
0001d0 b8 65 2d 3b d3 62 dc 3d a1 87 f5 3d 6c 6c d0 3b
       0.0026458334 0.10761037 0.1198876 0.006360581
0001e0 f1 1c aa 3d 09 25 c5 bd d6 fa 32 bd 71 89 13 3d
       0.083063014 -0.096262045 -0.043696247 0.036019746
0001f0 1e 52 d0 3d 68 34 58 3d 72 4e 2b bd 99 90 68 3c
       0.101719126 0.052784353 -0.04182286 0.014194631
000200 2b d4 a0 3c a5 7c 0f bd 3c c7 1a 3e 53 2f f7 bd
       0.01963242 -0.03503098 0.15115064 -0.12069573
000210 25 03 12 be 29 f7 8d bc 39 8d e0 bd 4f 72 dd 3d
       -0.14259012 -0.01732977 -0.10964436 0.10812818
000220 d5 25 b2 bd 0b 39 0a 3d ce 41 a9 bc cd 99 69 bd
       -0.08698622 0.033745807 -0.020661261 -0.05703144
000230 e8 c8 fa bd c9 d7 b4 3c 49 16 ac bd 4c a7 d8 3d
       -0.12245351 0.02207555 -0.08402688 0.10578784
000240 d8 a7 d5 3d b3 5b a1 bd 4e 4b 30 bc b1 2b 82 bd
       0.10432404 -0.07878818 -0.010760142 -0.0635599
000250 4b 4d 0f bd 51 52 ed bd 56 e7 67 bd ef dd 11 3d
       -0.03498582 -0.11587966 -0.056617104 0.035612043
000260 7f eb 1a bd 02 90 d7 bc bb 51 96 bd 39 00 45 3d
       -0.037822243 -0.026313785 -0.073398076 0.048095915
000270 e7 f0 ef bd 04 25 fc 3d 6c a7 5d bb 3e 09 ab bc
       -0.1171587 0.12311748 -0.0033821715 -0.02087843
000280 c1 bb ad bd df c1 05 bd 49 db e4 bd b7 4e b2 bd
       -0.08483077 -0.032655593 -0.11174638 -0.0870642
000290 58 60 53 3d 15 f4 b1 3b 5f 5c f7 3d f4 f6 a7 3d
       0.051605552 0.005430708 0.12078165 0.082013994
0002a0 e0 65 39 bc 03 63 94 bc 83 b3 52 bd 48 5d 35 3d
       -0.011315793 -0.018113619 -0.051440727 0.044278413
0002b0 39 28 57 bd 5e 9e 95 bd d3 66 c5 3d 17 7f b7 3d
       -0.052528594 -0.07305597 0.09638753 0.08959787
0002c0 25 4f 51 bd d0 2a 0c 3c f9 18 f0 bd 21 f0 bb bc
       -0.05110087 0.008555129 -0.11723513 -0.02294165
0002d0 36 62 96 bd 56 45 ce 3d 89 b8 c7 3c c1 12 30 bd
       -0.07342951 0.100718185 0.024379985 -0.042986635
0002e0 65 6a ca bb 7c 3f 8f 3c 8f 36 83 bc fa 4b 8d bd
       -0.006177234 0.017486326 -0.016017227 -0.06899257
0002f0 16 92 6b 3c 01 01 cb 3d 4a c9 5c 3d 87 e1 0b 3d
       0.014378091 0.09912301 0.0539029 0.034150627
000300 16 f5 dd 3c 24 7e e7 3c cd fb f0 3d 34 f5 d3 bc
       0.027094405 0.02825839 0.11766777 -0.025873758
000310 1a 0f 3b bd 07 d0 cd 3d 12 de c3 3c b7 e5 ad bc
       -0.0456687 0.10049444 0.023909602 -0.0212277
000320 c6 94 8b bd 72 19 9d bd 26 89 5b bc 9e f5 3d 3d
       -0.06815486 -0.07670869 -0.013399398 0.046376817
000330 5b 76 be 3d 32 b7 60 bc 78 e1 86 3c d5 f3 79 3c
       0.09299918 -0.013715552 0.016464934 0.015255888
000340 0f 44 70 3b 31 de a9 bd 60 11 c4 3c c8 9e ab 3d
       0.003666166 -0.08294333 0.023934066 0.083798945
000350 63 f9 57 bd f0 bf ee bc ae 1e 0f 3d 25 c0 f6 3c
       -0.052728068 -0.029144257 0.034941368 0.030120919
000360 be 51 8a bd a7 f5 97 bc d5 10 90 3d 11 a1 6c bd
       -0.06753872 -0.018549753 0.070344605 -0.057770792
000370 7e 2c 5e 3c 95 d2 4d 3d bb 6e d1 bb 19 ab 13 be
       0.013560412 0.050249655 -0.006391374 -0.14420737
000380 d0 e2 ac bd ba 9d bf bd 7d ac 5c bd cc 70 7f bd
       -0.084416986 -0.09356256 -0.053875435 -0.06236343
000390 b2 58 fd bb 88 b4 89 3d 83 57 0e 3e ad 44 bd 3c
       -0.0077315206 0.06723887 0.1390057 0.023104036
0003a0 b4 49 1c 3d 9e 23 64 3d 8f 83 62 3d 49 19 aa bd
       0.038156226 0.05569803 0.055301245 -0.08305604
0003b0 ef df 69 3d 2e dd 3f 3d 6c cf 08 bd 60 b4 16 bd
       0.057098325 0.046841793 -0.033400938 -0.036793113
0003c0 ba 1e a4 3a cd 21 c6 3c 54 76 2b bd eb f1 8f bd
       0.0012521364 0.02418604 -0.041860893 -0.07028564
0003d0 7a 2d 07 bb 37 a1 cf bc f0 7e 62 3d 0f 72 b1 bd
       -0.0020626471 -0.025345428 0.05529684 -0.08664333
0003e0 a8 03 20 bd 7b a1 3e 3d 68 1a a3 bd 4c c1 04 bd
       -0.039065987 0.04654072 -0.07964021 -0.032410905
0003f0 d6 ce 31 3b 51 01 c5 bc 9c 77 98 3c 5e 3b d3 3c
       0.002713134 -0.02404848 0.018611722 0.025785144

actor_mean.4.bias f4 [8]
000000 20 66 10 bd 3c cd ca 3c 48 a2 a3 bd 2a 63 4f bd
       -0.035253644 0.024756067 -0.07989937 -0.05063168
000010 4a b5 96 3d f0 32 0a 3d ae 8b 95 bc 0a d1 46 bd
       0.07358797 0.033739984 -0.018255081 -0.0485392
