DATA403_final/checkpoints/Ant-v4/PPO_2343.pt (torch, 54349 bytes, 12 tensors)

actor_logstd f4 [1, 8]
000000 73 04 f7 bf f8 62 c1 bf ce 4f b5 bf b2 eb d1 bf
       -1.9298233 -1.5108328 -1.416498 -1.6400054
000010 88 14 b5 bf dd a6 57 c0 99 ee dd bf 32 10 07 c0
       -1.4146891 -3.3695595 -1.7338439 -2.1103635

critic.0.weight f4 [64, 27]
000000 49 0e 85 bd d5 5e 69 be 8b d8 77 be 6c cb f2 bf
       -0.06496865 -0.22790082 -0.24203698 -1.896833
000010 31 26 d6 3d 18 55 39 3e 2b ef ce bd cb ff 92 3e
       0.10456503 0.18098867 -0.101042114 0.2871078
000020 fc 93 d4 bd af 3f 12 be 41 c6 e9 3e d8 b6 e3 bc
       -0.10379788 -0.14282106 0.45659068 -0.027797148
000030 22 9f f3 bd 57 2c ff be bc 50 8f 3e 5c 77 dd 3e
       -0.118955866 -0.49838516 0.27991283 0.43255126
000040 4e 77 a8 3d a4 93 62 be 20 36 7b bd 04 6e 42 3d
       0.082258806 -0.22126633 -0.061330914 0.0474682
000050 d3 c8 6d bd 06 38 1b bd dc 81 89 3a 46 b4 e7 bc
       -0.05805285 -0.037895225 0.0010490972 -0.028284203
000060 d3 7d ae 3c bb a5 0d 3d 0f b0 a9 3c dd fe 21 3d
       0.021300232 0.03458188 0.020713834 0.039549697
000070 5f 9a a4 3f 6c 9f 98 bc 26 af 07 3f 54 42 50 3f
       1.285961 -0.018630706 0.5300163 0.8135121
000080 7a b7 fc 3e 43 1e 2f be 53 6b a3 bd d2 03 46 3e
       0.49358732 -0.17101388 -0.07979455 0.19337395
000090 3e 2b ab 3e d3 71 c9 3d ac 27 56 3e 12 80 b3 3d
       0.3343143 0.09836163 0.20913571 0.08764662
0000a0 2a 5a b8 bc f3 d1 2a bd 1b 57 aa 3d 7b f9 82 3d
       -0.022503931 -0.04170413 0.08317395 0.06395241
0000b0 e3 a2 be 3d da df de 3d c7 1f e9 3c 51 59 a0 bb
       0.09308412 0.1088254 0.028457535 -0.00489346
0000c0 19 f7 c2 3c e2 bd 38 3c 32 e3 7f bb 3a e6 4a 3c
       0.023799466 0.01127574 -0.003904533 0.012383992
0000d0 4b ac 58 3c 2a e7 2b 3c a4 5b 91 bd d9 c7 a0 3e
       0.013224672 0.0104921255 -0.07097557 0.31402472
0000e0 6a 3e 9e be 05 0b ab bd 25 96 9f bf 82 ed 85 3e
       -0.30906993 -0.08351711 -1.2467695 0.26157767
0000f0 c3 93 28 be 18 a8 8f bd 4b 0e 76 bd 07 18 bb bd
       -0.16462617 -0.07014483 -0.060072225 -0.09135442
000100 c4 0a 6d 3a d3 38 2d be be 92 b8 be a9 ac 96 3d
       0.0009042437 -0.16916208 -0.36049455 0.07357151
000110 18 5f 69 be 31 eb 1b be 1a e3 8d 3e 62 bd 16 be
       -0.22790182 -0.15226437 0.27712327 -0.14720681
000120 42 44 49 3e 34 ba c6 3d cc 2a df bb 6e ae 01 bd
       0.19654945 0.09703484 -0.0068105217 -0.03166049
000130 d2 95 4b 3c 71 b0 90 3c a7 b6 65 bd 77 00 4a 3d
       0.012425857 0.017662259 -0.056082394 0.04931685
000140 ee 86 82 3d 2e b4 37 be f6 f0 e7 3e 4b 69 51 bf
       0.06373392 -0.17939827 0.45301026 -0.8180129
000150 96 58 63 bf 91 55 98 3f 78 e9 30 be 28 24 d4 3d
       -0.88807046 1.1901113 -0.17276561 0.10358459
000160 a1 f1 07 be ec d5 46 3e af 1a 87 3e b1 1a 8c bd
       -0.13275768 0.19417542 0.26387545 -0.068410285
000170 57 e9 84 be 3a 8d 0a bd 32 5d 79 3d 65 fd 68 bd
       -0.25959274 -0.03382609 0.060879894 -0.05688228
000180 b0 2c 95 3d 21 09 c5 bc 54 3c 38 be e9 de aa 3d
       0.07283914 -0.024052205 -0.17991763 0.08343298
000190 e1 9a ee bc 3b f6 3f bc 51 26 28 bc 09 8b cd bc
       -0.029126586 -0.011716421 -0.010263042 -0.025090711
0001a0 89 f0 84 bb 5d c9 7d 3c f2 1d 1b 3d ad 18 2e bd
       -0.0040569943 0.015489903 0.037870355 -0.042504
0001b0 71 45 3a bf 74 4f 9a 3e c1 f0 27 3f 74 23 9d be
       -0.7276221 0.30138743 0.65601736 -0.3069111
0001c0 8c 4c 8f 3f a0 c1 a9 3d 46 43 af bd d3 6e 70 3e
       1.1195235 0.08288884 -0.08557753 0.23479776
0001d0 f9 55 9c bd 1d fa 55 be 07 08 b3 be 94 e0 d5 3e
       -0.076335855 -0.20896192 -0.34967062 0.41772902
0001e0 09 47 79 3d b9 9c 02 3e 4d 0c 2f be d4 c8 ca bd
       0.06085876 0.12755097 -0.17094536 -0.09901586
0001f0 73 c9 43 3e ca 0f 83 be a9 77 b6 3d 17 d7 05 3b
       0.19119816 -0.25597984 0.08909542 0.0020422393
000200 c2 c3 a6 bc 9d 6e 7a bc ea 68 1a 3c 27 1e b4 3c
       -0.020357016 -0.015285161 0.0094244275 0.021987034
000210 77 a1 8d bd 8c 0c b6 bb bc 90 ea ba 0b 17 ff be
       -0.069155626 -0.005555695 -0.0017895917 -0.49822268
000220 63 45 42 be c7 7d 3f 3f a2 5a d3 be 75 c2 d6 3e
       -0.18971781 0.74801296 -0.41280085 0.41945234
000230 9e 9e 98 3e 07 61 79 bf de 6c bf be 29 cc d6 3e
       0.29808515 -0.97413677 -0.37387747 0.41952637
000240 23 32 2f 3e fc cb a6 3e 65 81 29 3d eb 10 83 be
       0.1710897 0.32577503 0.041383166 -0.25598845
000250 37 95 ce 3d 40 ff 5d 3e 68 5f c9 be fb 3f 09 3e
       0.10087054 0.21679401 -0.39330602 0.13403313
000260 27 a4 1b bd 67 21 b0 bd 1d 34 aa 3d 9c 3e 71 bd
       -0.037998345 -0.08600121 0.08310721 -0.0588976
000270 3a 22 03 3b 24 fd d4 3b 9f 04 3f bd e7 8f f8 3d
       0.0020009414 0.0064999033 -0.046635266 0.12136822
000280 9b ec a8 bc 32 dd 02 3d 19 55 25 3e ea 40 ce 3e
       -0.020620635 0.03194923 0.16145743 0.402839
000290 a9 f3 c0 3e 4a 01 03 40 0a b8 08 3f 12 7f a8 bc
       0.37685898 2.0469537 0.5340582 -0.020568404
0002a0 3d e8 66 3d 72 e0 8c 3e f8 59 d7 bc 0d 6d 11 3e
       0.056373823 0.27514988 -0.026288018 0.14201756
0002b0 34 58 80 bd 80 58 8b 3d e5 d6 ff 3e a5 33 1d 3e
       -0.062668234 0.068039894 0.4996864 0.15351732
0002c0 13 38 83 3e b1 24 15 be 23 a7 26 3d c3 6c 61 3e
       0.2562872 -0.14564778 0.040686738 0.22014146
0002d0 a1 fe 4a 3e de 5c 85 3d 04 67 66 3c 33 01 16 3c
       0.19823696 0.06511854 0.014062647 0.009155559
0002e0 df ca 4b 3c 81 e6 d0 3c b9 78 00 3c 9f 46 b4 3d
       0.012438505 0.025500538 0.0078412825 0.088025324
0002f0 25 cf d7 bb db 5e b6 bd e6 c5 9f bd c6 79 2a 3d
       -0.006585973 -0.08904811 -0.07801418 0.04162004
000300 ba 41 32 3e bb 22 30 be a9 a1 9c bc 1e 3a c0 3e
       0.17407885 -0.17200749 -0.019120054 0.3754434
000310 3e 92 56 be 22 eb 80 bf 7a ac 6b 3e 3d a1 51 be
       -0.20954224 -1.0071757 0.23015013 -0.20471664
000320 f6 9d 74 be 70 4f b7 3e a3 76 b6 3d e6 79 44 be
       -0.23888382 0.35802794 0.08909347 -0.19187126
000330 ae 5f 8a bf 53 d6 19 be 84 c3 60 be b3 46 9b be
       -1.0810449 -0.15023164 -0.21949583 -0.30327377
000340 eb d9 5d 3c 0a 15 a5 3d a5 c8 a6 bd 26 fa 3a bb
       0.013540725 0.080606535 -0.08143739 -0.0028530448
000350 e2 82 4d bd 2d 83 c5 3b 42 4a 9f bd ca 22 3a bd
       -0.050173648 0.0060276003 -0.077778354 -0.045443334
000360 ab b7 7a 3e 40 98 fb 3e b8 af d9 3e 29 26 cf bf
       0.24484126 0.49139595 0.42516875 -1.618352
000370 74 25 3d 3f 12 12 5b be ea d8 b6 3c e3 dc e4 bb
       0.73885274 -0.21393612 0.02232023 -0.0069843396
000380 5f b4 ec bd ac ff 7d 3e df aa b5 bd 1a 0f eb 3e
       -0.115578406 0.24804562 -0.08870482 0.4590996
000390 93 7c a1 bd 8b f8 0b 3e c4 9f 6d be 06 6a a1 3d
       -0.07885089 0.1366903 -0.23205477 0.078815505
0003a0 4d fd aa bc 21 09 9e 3d 24 e5 45 3d 38 8e e6 3b
       -0.020872736 0.07716585 0.04831423 0.0070359968
0003b0 55 26 e5 3a 0a 39 3f bc 49 bd d3 ba 89 bf 43 bc
       0.0017482737 -0.011671314 -0.0016154434 -0.011947521
0003c0 2b ff b9 3c bf 3c 0d 3d 3a d2 c1 3c f7 b4 fe 3e
       0.022704681 0.03448176 0.023659814 0.4974744
0003d0 70 2b 22 bf 5f ec 86 be 4a a9 ad 3c c2 4b 56 3f
       -0.6334753 -0.26352212 0.021198887 0.8370935
0003e0 ad d9 84 3e 62 a3 24 3e 58 b9 ec be bc b3 88 bd
       0.25947323 0.1607795 -0.46235156 -0.066749066
0003f0 50 35 8c be b6 5b 1a bc cd 27 9d bd 33 c4 10 3e
       -0.27384424 -0.00942128 -0.07673607 0.14137344

critic.0.bias f4 [64]
000000 12 df 96 bc c3 00 1b be d8 ba 00 bf 40 8d 11 bf
       -0.018416915 -0.1513701 -0.502851 -0.56856155
000010 38 04 37 3e 6e 29 02 bf 93 1c 33 3e 66 84 8b 3f
       0.17872703 -0.50844467 0.17491369 1.089978
000020 21 67 ad be 65 7d 4c 3e a1 bc 9e be 8b d6 ae 3e
       -0.33867744 0.19969709 -0.31003287 0.34148058
000030 04 05 3d 3f 51 2d 93 3e ff 8b 4d be 95 05 17 bf
       0.7383578 0.2874551 -0.20072936 -0.5899289
000040 f7 b0 3d bf 14 c0 53 bf fd 72 76 3e be 98 ce bc
       -0.7409815 -0.8271496 0.24067302 -0.025219318
000050 9e 9f 19 3d 85 68 a5 bc 80 75 96 3e ca 37 1c 3f
       0.03750574 -0.02019144 0.2938652 0.6102263
000060 2c db 55 bd a7 9a f1 be 98 ec 74 3d 52 6b ba 3e
       -0.05221097 -0.47188303 0.059795946 0.36410004
000070 c9 ee a8 3e 05 2d 95 3f ad ea dc be d9 f3 10 bf
       0.3299468 1.1654364 -0.43147793 -0.5662208
000080 90 23 a1 bd e4 77 de 3d ae e0 b7 3d 8a d3 7e bf
       -0.07868111 0.10862711 0.08978401 -0.99541533
000090 f3 0c 9c be 28 5b 66 bc 54 4a 44 3d 67 3d f5 3e
       -0.3047863 -0.014059819 0.047922447 0.4789841
0000a0 7e db a0 be 2d ef f5 be 4c c1 50 be 53 07 6e bf
       -0.3141746 -0.4803404 -0.20386237 -0.92979926
0000b0 83 8b 03 3d 20 94 26 bf 99 4b fe 3e 2f a0 08 3f
       0.03211547 -0.6506977 0.4966705 0.5336942
0000c0 af c2 98 bf 58 b7 5b 3e f3 c3 2b bf a0 c7 eb bd
       -1.1934413 0.21456659 -0.6709587 -0.11512685
0000d0 eb 8e a9 be 46 14 5b be 1a 60 bb 3e 58 7b 81 3e
       -0.3311685 -0.21394452 0.36596757 0.25289416
0000e0 db 27 70 bf 47 c9 55 be 33 e8 ab 3e 48 1d e4 bd
       -0.93810815 -0.20877562 0.3357559 -0.111383975
0000f0 0f 2a 4a 3f 04 d7 f5 3e c5 81 1b 3f a0 0e 55 bf
       0.78970426 0.48015606 0.6074489 -0.8322544

critic.2.weight f4 [64, 64]
000000 54 d4 32 be 8b 0e 02 bf 0f 4d 56 3d 3e 9e 8b be
       -0.17463809 -0.5080344 0.052319583 -0.27269167
000010 53 5d 92 be e1 df 62 3d 8e 2f 3b 3e 98 97 77 be
       -0.28586826 0.05538929 0.1827986 -0.24178922
000020 b3 75 4a be 70 47 9f bd 83 89 48 3e 50 92 ec bd
       -0.19771461 -0.077772975 0.19583707 -0.115513444
000030 b9 50 8e be 8f f9 38 be 62 46 c3 3e c9 f4 13 bf
       -0.27795961 -0.18063949 0.38139635 -0.5779539
000040 12 82 1f 3d 1e 6c 07 be 48 ff ab be ad d3 ec 3d
       0.038942404 -0.13224837 -0.33593202 0.115638115
000050 2a 61 17 bd 76 d5 85 be 0a 59 80 3e 36 9a 67 3d
       -0.036957897 -0.2613942 0.2506793 0.05654355
000060 a5 52 8d be 45 a8 af be 44 76 8a 3e 4a c4 c3 be
       -0.27602115 -0.34308067 0.27043355 -0.38235694
000070 a5 be 92 3c 5e 57 a2 be df 33 85 3e 39 e1 c9 3e
       0.017913172 -0.3170728 0.26016137 0.39429644
000080 00 00 ff bd 18 9f cf be 84 ae 4d be 7a ca 7c 3d
       -0.12451172 -0.40551066 -0.20086104 0.061716534
000090 a2 4a 98 be 07 81 4b be 2b f4 ad 3e a3 b7 43 3e
       -0.2974444 -0.19873439 0.33975348 0.1911302
0000a0 07 ce ec 3e c2 57 23 be a0 4e 96 be 1e 48 b8 3e
       0.46250936 -0.15951446 -0.2935686 0.3599252
0000b0 c8 5d 28 be e0 74 02 be 80 ec 87 bd ec 85 8e 3e
       -0.16442025 -0.12739897 -0.06636906 0.2783655
0000c0 d8 08 ab 3e ae fb c5 be b6 46 ce bd 49 67 c5 bc
       0.33405185 -0.3866858 -0.10072081 -0.024097102
0000d0 a1 6f a1 be 4e 39 14 be 7a 2c 36 be 10 22 c6 bd
       -0.3153048 -0.14474985 -0.17790404 -0.09674466
0000e0 e4 3b 25 3f dc e6 4c bd 44 3b 5d 3e 9b ab ab bd
       0.6454451 -0.050024852 0.2160464 -0.083823405
0000f0 72 27 2d bd 79 2d e4 be c1 7c 75 be 9b 09 f1 3e
       -0.042273946 -0.44565943 -0.23973371 0.4707764
000100 de 8f c4 be ea f8 b8 3e 42 f9 de 3d e2 3f 4b be
       -0.38391012 0.36127406 0.10887386 -0.19848588
000110 1b f7 70 3e e3 2e 25 be f4 04 4b 3f fd 55 6e 3d
       0.23531763 -0.16131167 0.7930443 0.058187474
000120 b3 7f 29 be ea eb 76 bd 9e 99 5b 3e 29 78 07 be
       -0.1655262 -0.06028358 0.21445319 -0.13229431
000130 f9 e4 0f 3e a4 84 6c 3e 64 f6 0e 3d 53 c0 b0 be
       0.1405219 0.23097473 0.034902945 -0.34521732
000140 f5 95 4f be 88 10 35 be 99 2a 92 3e 2d 76 4a 3e
       -0.20272048 -0.17682087 0.28548124 0.19771643
000150 77 7a a9 bd b8 65 8d 3d 8d 45 df 3e 8e d9 8a 3d
       -0.082753114 0.06904167 0.4360775 0.067797765
000160 bf 25 01 3f 98 d8 32 be c7 52 be be d4 8a 37 3f
       0.5044822 -0.17465436 -0.3717253 0.7169621
000170 aa 89 b5 3b 9e 54 05 3e ae 65 01 be 5d c5 79 bd
       0.0055400925 0.1302056 -0.12636444 -0.060979236
000180 09 59 ae bd 9d d7 9f bd 39 b9 88 3e 44 d7 67 be
       -0.08513076 -0.07804797 0.26703814 -0.22640711
000190 c2 0f 47 3e 93 e6 df be 3f 21 2d be da 2e 0a 3e
       0.19439605 -0.43730602 -0.16907214 0.13494435
0001a0 d2 8c de 3d 2c dd 26 be e0 3e db be 6a 0e 93 be
       0.10866703 -0.16295308 -0.42821407 -0.28721935
0001b0 b1 d3 f2 3d 5f be b8 be 28 0f b6 3d 6e bb 77 bd
       0.11856783 -0.36082742 0.088896096 -0.06048148
0001c0 66 2b 7d be 8a c0 05 3f 32 f8 53 3e 7c ff 11 be
       -0.24723586 0.52246916 0.20700148 -0.14257616
0001d0 8b ae 78 bd 94 98 0d bf 91 d7 af 3e 2f 4f f9 bb
       -0.060713332 -0.5531094 0.34344152 -0.0076083164
0001e0 58 f4 01 bf b4 84 4e be 00 a8 7a 3e fb cc 0c be
       -0.50763464 -0.2016781 0.2447815 -0.13750069
0001f0 46 c1 40 3e c5 70 13 3f fb 1c 9e 3d d6 ae 2b bf
       0.18823728 0.5759395 0.07720371 -0.67063653
000200 bd ca b3 bd 59 b4 01 3f 3b b7 31 be cb 8d 99 be
       -0.08778904 0.50665814 -0.17355053 -0.29990992
000210 03 18 a7 3d d2 7d d6 be c2 0b 90 3e 87 bb 01 3f
       0.08158877 -0.41892868 0.2813397 0.5067677
000220 36 24 09 bf 29 f3 52 3d 4b 57 e7 3d 34 5c b7 3d
       -0.5357088 0.051501427 0.11295947 0.08953133
000230 7a 8a 08 3f e5 a2 f3 3c 7f 73 24 3e 56 d7 28 be
       0.533363 0.02974076 0.16059683 -0.16488394
000240 7c eb b4 bd 87 43 8c be b9 87 ce 3d f4 69 4c 3e
       -0.088339776 -0.2739527 0.10084481 0.19962293
000250 6f e8 bc bd 91 c6 bb bc 5b dd 8a 3e 7d 7b 5c 3e
       -0.09224021 -0.022921832 0.27122006 0.21531482
000260 63 b3 d4 be 2d 73 e8 be 9b 21 9a 3d 07 2c 76 bc
       -0.4154311 -0.45400372 0.07525941 -0.015025145
000270 19 6e 74 bc cb 7f 10 3f ec e3 9f bd 42 3b 8c bd
       -0.014918827 0.56444997 -0.078071445 -0.0684724
000280 af 2d 0a 3e 9b d4 2f be db 5a aa 3e cd 1b ac be
       0.1349399 -0.17170946 0.33272442 -0.3361496
000290 6d 1e 3b 3e 87 db 63 3d b4 ba 13 be e3 8f 94 3e
       0.18273325 0.05562928 -0.1442669 0.29016027
0002a0 f7 40 21 be ea 23 9f be 70 ab cf 3d 27 80 62 be
       -0.15747438 -0.31082088 0.10140121 -0.22119199
0002b0 c7 d4 ca bd ca 1a a3 be 4c 48 c8 3e ca d2 0f 3e
       -0.09903865 -0.31856376 0.39117658 0.14045253
0002c0 ec 5c cf be 4d a8 15 3e 4b 7e 6e be 8e 2a 36 3e
       -0.4050058 0.14614983 -0.23290364 0.17789671
0002d0 ce 39 d8 bd 4f 22 44 be 00 fb 8c 3e 60 f9 4b 3e
       -0.105579 -0.19153713 0.27535248 0.19919348
0002e0 ad 28 98 be 00 62 9f bd 71 c3 0c 3e f7 82 88 3c
       -0.29718533 -0.07782364 0.1374643 0.016664011
0002f0 a8 33 5d 3d 4c 6c 1e 3f 02 3b eb 3e 33 69 af be
       0.05400434 0.61884 0.45943457 -0.34259948
000300 b0 c3 53 3e ce ff 54 bf e8 4e 46 be 50 37 41 bf
       0.20680118 -0.83202827 -0.19366038 -0.75475025
000310 a7 ae 3f bf 51 1c 36 3d b9 49 93 be 89 54 56 3e
       -0.74875873 0.0444606 -0.28767183 0.20930685
000320 4b 70 0c bf cb 39 d7 3e bc 3f 38 be 2b 27 07 3f
       -0.54858845 0.4203628 -0.17993063 0.5279414
000330 3c 89 2b 3d e6 8b 03 3d 2e df 4d 3e e2 60 95 bd
       0.041878924 0.03211584 0.20104668 -0.072938696
000340 58 a0 20 3d dd e4 b4 be 68 6b 84 3e 16 f1 f4 3d
       0.039215416 -0.3533086 0.25863194 0.11960046
000350 70 1b 86 3d 68 f1 2a bf c1 28 52 3e dc 11 51 3e
       0.06548202 -0.66774607 0.20523359 0.20416969
000360 60 cf 1a bf 26 96 2e bf 10 83 b5 be d5 3c 17 3e
       -0.6047268 -0.6819786 -0.35451555 0.147693
000370 69 54 ce 3e 97 5e 5e 3d 99 44 33 3e a1 5c ef 3d
       0.40298775 0.054289427 0.17506637 0.116875894
000380 3a b0 63 be 9f 9f f8 3e ca 68 2d 3d e6 2b 8a be
       -0.22235194 0.4855928 0.042336263 -0.26986617
000390 e1 53 12 bf a8 be 0a bf e1 aa 68 3e 21 eb 28 bd
       -0.5715924 -0.5419717 0.22721435 -0.04123986
0003a0 db be 22 bc da 02 c1 bb a0 35 8b 3e 70 50 a5 3d
       -0.009933199 -0.0058902325 0.2718935 0.08071983
0003b0 e2 55 8d bd ed f9 0c be a1 f2 05 3e 72 40 97 3e
       -0.069011465 -0.13767214 0.13080837 0.29541355
0003c0 3e 0c b2 be 10 3d d1 be 90 cb 9c be f1 d0 02 bf
       -0.34774965 -0.408669 -0.30624056 -0.5110007
0003d0 4b 27 79 3e c8 3c 1e 3e 7f 57 5d 3f ed b8 66 bc
       0.24331395 0.15452874 0.86461633 -0.014082176
0003e0 39 a9 5e be c3 25 ef bd 80 95 f9 3e c0 ea 9b be
       -0.21744241 -0.11677124 0.48746872 -0.30452538
0003f0 88 2b b4 3d 17 54 ac 3c 4f c5 c3 3d 10 ac 26 be
       0.087973654 0.02103619 0.09559118 -0.16276574

critic.2.bias f4 [64]
000000 c2 8e 85 bd 57 33 7d 3d b4 d1 19 3e 1a e3 93 3e
       -0.065213695 0.06181654 0.15021402 0.28884202
000010 b8 ac 8a be 9f cd 1a 3e bb e7 23 be e1 a4 ac 3d
       -0.270849 0.151175 -0.16006367 0.08429886
000020 3d 11 68 be e0 75 9f 3d b6 ae 43 3d 77 79 e3 3c
       -0.22662826 0.07786155 0.04777404 0.02776788
000030 f1 dc ea 3d 89 5f c9 3d 17 12 77 be 77 a5 6f be
       0.114679225 0.09832675 -0.24127994 -0.23402964
000040 31 05 81 3d a7 e2 79 3d 91 5a 10 be 7d 6c 56 be
       0.06299818 0.06100717 -0.14097048 -0.20939822
000050 b9 de 84 bd 0f 03 3d be d0 4a 89 bc dd b1 bd bd
       -0.064877935 -0.18458198 -0.016759306 -0.0926244
000060 2d a2 8c 3e 58 87 22 3e 2e 94 80 3e 07 d6 14 be
       0.2746748 0.15871942 0.25113052 -0.1453477
000070 a2 7e a7 3d d7 01 39 be 4a c7 ce bc b9 8f 97 3d
       0.0817845 -0.18067108 -0.025241513 0.0740046
000080 f9 16 ba be 2e 8f 9f 3d 9f 81 28 3e 6f 40 bd 3d
       -0.36345652 0.07790981 0.16455697 0.09240805
000090 e7 7f 94 3d f7 c0 45 3e 6a 63 57 be 8c 04 8f 3d
       0.07250958 0.19311891 -0.21034017 0.06983289
0000a0 97 49 e1 be 12 7c ac be cc 6a 19 3b 49 1c ba be
       -0.44001457 -0.33688408 0.0023409603 -0.36349705
0000b0 09 71 08 3e 18 5c 52 be 47 4f 64 3e cb 15 a9 be
       0.1332437 -0.20542943 0.22295867 -0.3302444
0000c0 7a a8 f5 3c 2f f3 ec bd 08 db 73 3e ce 81 fc bb
       0.029987562 -0.11569821 0.23814023 -0.0077059036
0000d0 bf b1 b7 bd 47 07 5f 3d 7d 75 87 bd 13 03 6e 3e
       -0.08969449 0.0544503 -0.06614206 0.2324336
0000e0 3c ce e7 3d 01 8f 27 bf f6 8f 09 be 2e fe cb 3d
       0.11318633 -0.6545258 -0.13433823 0.0996059
0000f0 b5 86 f0 3c 79 c4 81 be 81 93 1e bc da 78 d7 3c
       0.029361108 -0.2534521 -0.009678722 0.026302744

critic.4.weight f4 [1, 64]
000000 88 e4 2a c0 20 50 1c 40 7b f7 34 40 85 01 3c c0
       -2.6701984 2.4423904 2.827605 -2.9375927
000010 38 f3 49 40 2e 31 10 40 db c2 f4 bf 60 34 02 40
       3.15547 2.2530017 -1.9121965 2.0344467
000020 1c c9 29 c0 55 58 1c 40 43 f8 f3 bf cf 2d 00 40
       -2.6528997 2.4428914 -1.9060138 2.002796
000030 fb dc 10 40 d6 79 08 40 20 33 40 40 2f fe 15 c0
       2.2634876 2.1324363 3.0031204 -2.3436391
000040 f4 ad 06 c0 5a ad 2b 40 b3 32 01 c0 97 e7 4b 40
       -2.1043673 2.6824555 -2.0187194 3.1860101
000050 60 11 0d c0 cd b8 f2 bf 8f 46 07 c0 87 ad f1 bf
       -2.2041855 -1.8962647 -2.1136816 -1.8881081
000060 2c 9f 32 40 3e 8c 45 c0 7f ec 08 40 06 41 0a 40
       2.790965 -3.0866847 2.1394346 2.1602187
000070 c9 4b 11 40 88 20 e3 bf 48 49 0f 40 58 1a 0f 40
       2.2702506 -1.7744303 2.2388477 2.235983
000080 2e 0e 3d 40 8f d5 1e 40 11 ee 03 40 98 8b 0c 40
       2.9539905 2.4817846 2.0614054 2.1960201
000090 06 85 39 40 cf ef 4e 40 ff be 46 40 b2 fb 07 40
       2.898744 3.2333868 3.1054075 2.1247373
0000a0 47 b6 56 40 98 ca fb bf 68 a6 25 40 9a 1b 33 40
       3.3548753 -1.9671202 2.5882816 2.7985597
0000b0 f4 ca 09 40 9d 9c 1c 40 b6 cf 22 c0 11 19 36 40
       2.1530123 2.447059 -2.5439277 2.84528
0000c0 0f 80 f6 3f ed 96 35 40 f5 89 15 40 a9 2e f0 bf
       1.925783 2.8373368 2.3365452 -1.876424
0000d0 f8 0f 16 40 88 77 22 40 c4 87 29 c0 1d 23 4b c0
       2.3447247 2.5385456 -2.6489115 -3.1740181
0000e0 1f 17 09 c0 c3 8f f3 bf 2a e6 2f 40 e0 fe 07 40
       -2.1420362 -1.9028248 2.748423 2.1249313
0000f0 f6 dc 1a 40 a2 18 35 40 01 b9 fc bf 77 77 31 c0
       2.4197364 2.8296285 -1.9743959 -2.7729166

actor_mean.0.weight f4 [64, 27]
000000 23 96 aa 3c 41 99 76 be c0 7e 81 3d eb 6b 35 be
       0.020823544 -0.24081899 0.06323004 -0.17716949
000010 b0 34 aa 3d 40 d6 9c be d2 e1 84 3e 4a e8 a9 3e
       0.083108306 -0.3063221 0.25953537 0.33185035
000020 e8 34 15 be a0 f3 ad 3d 8c 87 dd 3d 62 80 ed 3e
       -0.14570963 0.084937334 0.10816869 0.4638701
000030 a3 b3 93 3d de b0 9d 3d 81 5a 84 bd d9 e2 d5 be
       0.07211997 0.0769975 -0.06462575 -0.41774634
000040 ee 62 f8 3e 7d 0e b0 bd 66 17 05 3e 78 8a 31 bd
       0.48512977 -0.085965134 0.12997207 -0.043344945
000050 27 5d 5b 3e 08 2f 06 3e 6f cf 26 be 0c 6c e1 3e
       0.21422254 0.13103878 -0.16290067 0.44027746
000060 e9 35 be 3d 0a 87 c5 3d 05 5b a2 bd c0 0e ae be
       0.09287626 0.09644897 -0.07927517 -0.33995628
000070 93 9f 20 bd 72 c1 3b 3e a0 fc 16 3f 02 5b 28 be
       -0.03921468 0.18335512 0.58979225 -0.16440967
000080 29 1f 80 3e a0 9c 6c 3e 35 b2 03 be dc ce 8a 3d
       0.25023773 0.23106623 -0.1286095 0.067777365
000090 2b b5 93 bc 9c 35 82 be 0d ec 75 3e 64 12 c2 3d
       -0.018030724 -0.25431526 0.24015827 0.09476164
0000a0 37 39 0a be 77 b3 48 be 18 17 99 bc 79 05 a0 3e
       -0.13498388 -0.1959971 -0.01868777 0.31254175
0000b0 7a ee 49 3e c6 c6 e9 be fc a6 53 3b c1 b5 ec 3a
       0.19719878 -0.45659465 0.0032295575 0.0018059538
0000c0 22 96 ad 3d ca a4 29 be 86 32 5d bd 6d 16 b8 3e
       0.08475901 -0.16566768 -0.05400326 0.3595461
0000d0 4b 8f 14 be 79 2c 92 be f8 a3 77 be 10 28 27 3e
       -0.14507787 -0.28549555 -0.24183643 0.16323876
0000e0 6f b8 d7 3e 23 a0 b9 bd a3 fa 00 3e 73 f8 32 3e
       0.421329 -0.09063747 0.1259561 0.17477588
0000f0 db 49 33 3b d5 1d 1d 3e 3a 9e 9a bd a9 cb f7 be
       0.0027357254 0.15343411 -0.075497106 -0.48397568
000100 8d 5d e0 ba f2 ee 11 3e 69 b4 70 3d d3 80 22 3d
       -0.0017117724 0.14251307 0.058765803 0.039673638
000110 cd 3a 91 be b2 c0 8c 3d 43 07 ff 3d 48 17 ad be
       -0.28365174 0.06872691 0.12452557 -0.33806825
000120 df 81 87 be c9 09 9d bc b8 08 d8 be 4f 21 19 3e
       -0.2646627 -0.019169705 -0.42194152 0.14954112
000130 f6 cc f2 3d eb 1e f8 be ad 39 5e 3e 5c bd 91 3d
       0.118554994 -0.4846109 0.21701689 0.071161956
000140 ce d0 20 3d 97 87 32 3e de 13 7d 3e 49 ae c7 3e
       0.03926163 0.17434536 0.2471461 0.39000157
000150 ad a8 a5 bd d2 57 00 3d 30 7a b1 3e 09 93 51 3e
       -0.08088813 0.031333752 0.34663534 0.20466246
000160 b8 e3 e3 3e bc 09 96 3e 73 12 9b 3e 18 72 4f be
       0.44509673 0.29304302 0.30287513 -0.20258367
000170 09 04 70 be 83 b0 3b 3e 36 2a 36 be ee d6 8d be
       -0.2343904 0.18329053 -0.1778954 -0.2770304
000180 0a 93 68 be 2c 24 0d bf fa 82 d7 bd d3 d8 62 bd
       -0.22712341 -0.5513332 -0.10523029 -0.05538256
000190 2a df 75 3c ce 7c 96 3e 35 03 38 bd 85 72 d8 3e
       0.01500682 0.29392093 -0.044924933 0.4227487
0001a0 00 9a 7f 3e 07 92 98 be 86 28 91 be a7 63 76 bd
       0.2496109 -0.2979891 -0.2835123 -0.06015363
0001b0 46 41 58 3e bc 19 8b 3e f3 8f 81 be 94 ce b5 3d
       0.2111865 0.2716807 -0.25305137 0.08877292
0001c0 f8 e1 80 3b b2 5f 2d bd f0 2e f3 bd a4 c3 5c bc
       0.0039331876 -0.04232759 -0.11874187 -0.013474379
0001d0 51 f0 1b 3e c6 14 99 be 41 f3 61 be 21 2c a0 3d
       0.15228392 -0.2989866 -0.2206545 0.07820917
0001e0 53 f6 ba bd 12 e1 c3 3c f2 51 97 be 6d 75 2c bd
       -0.09129014 0.023911033 -0.29554707 -0.042104173
0001f0 29 83 18 be 56 05 38 be 61 98 9a bd 65 d4 a8 be
       -0.14893784 -0.17970785 -0.07548595 -0.32974544
000200 f3 0f d0 3e 47 94 7a 3c fa 6b ec 3c b3 b5 4c 3d
       0.40637168 0.015294141 0.028860081 0.04997797
000210 fa e6 94 bd 69 a6 e0 3e 16 83 4a 3e 67 69 dc 3e
       -0.07270618 0.4387696 0.19776568 0.43049166
000220 2e 29 20 be 1f 77 1a 3f 82 72 27 3f 29 ab 88 be
       -0.15640709 0.60338014 0.654091 -0.26693085
000230 66 94 8c 3e e6 8d 03 3f a3 84 2c 3e 3c b6 ef be
       0.2745697 0.51388395 0.16847472 -0.4681872
000240 c5 5d a1 be 58 80 08 be 44 c1 20 3e 61 f1 b1 3e
       -0.31516853 -0.1333021 0.15698725 0.3475447
000250 31 e1 79 be df d0 37 bd 57 21 17 3e 02 55 6e 3e
       -0.2440231 -0.04487693 0.14758812 0.23274615
000260 dc d9 31 bd a5 2a 45 bc 0d a5 f5 bd 70 85 43 3e
       -0.043420658 -0.012034093 -0.119943716 0.19093871
000270 6b ea fa 3d c3 57 48 3e 1b 71 e1 bc 23 08 21 3e
       0.12251743 0.19564728 -0.027519753 0.1572576
000280 90 70 a0 bd 1c 9f 6d be 5e 27 93 3d dd 30 d5 bd
       -0.078339696 -0.23205227 0.07185243 -0.104097106
000290 f0 a4 9b 3e 91 0a 6d 3e 1b 4f 95 be dd b0 9e 3d
       0.30399275 0.23148562 -0.29161915 0.07748578
0002a0 90 93 04 bd ea 5a cb bc be 87 d8 3e ec 7e c2 bd
       -0.03236729 -0.024823625 0.42291063 -0.09496865
0002b0 25 4a 60 be 62 a7 e7 bd 9e ea 66 bc e1 1f ed 3e
       -0.21903284 -0.113112226 -0.014094023 0.46313384
0002c0 1b c6 2b 3e 92 87 07 be 22 ca a4 bc ee 73 95 bd
       0.1677479 -0.1323531 -0.020115916 -0.072975025
0002d0 01 60 cc be 1a 87 54 be 2a 7c 18 be 83 28 91 3e
       -0.39916995 -0.20754662 -0.14891115 0.2835122
0002e0 98 c5 a0 bd 31 1c 12 3c 06 e1 cf be e1 0d 8f 3e
       -0.07850188 0.008917854 -0.40601367 0.27940276
0002f0 25 c4 f7 bd 9a 0f cb be 33 6e 9a 3e e2 c1 ad bd
       -0.120979585 -0.3966034 0.301622 -0.08484246
000300 7c 12 d3 3d 29 85 5a 3e f6 06 67 be ce 9c 20 3e
       0.1030626 0.21339859 -0.22561249 0.15684816
000310 c9 29 8b 3d bc 29 a5 3d 9c fe 88 be 35 2a 6e 3c
       0.06795079 0.08064601 -0.26756752 0.01453643
000320 47 ab 55 be d4 11 bb be a7 88 91 be b3 7d 62 bd
       -0.20866118 -0.3653704 -0.2842457 -0.055295657
000330 cf 38 ae 3d e4 da 08 bf 83 33 da 3e 05 ad 7d 3e
       0.08506929 -0.53459 0.42617425 0.24773033
000340 6f b2 c0 be ff ce 05 be c8 1e 7b 3d c8 dc 2d 3e
       -0.37636134 -0.13067244 0.061308652 0.16978753
000350 4d c0 c8 3d 62 63 4c bd 71 9b 0b 3e 46 99 2d 3e
       0.098023035 -0.049899466 0.13633515 0.16953
000360 db 43 cc bc 04 6e 8a be 15 78 59 3e 6a 2e d0 bd
       -0.0249347 -0.2703706 0.21237214 -0.10165103
000370 8d 52 6e be 07 d0 05 3f 71 04 f6 3d d8 3f 80 be
       -0.23273678 0.5227055 0.12012566 -0.2504871
000380 96 63 9c be a7 2b 27 3e 30 c9 9d bd 25 46 08 bd
       -0.30544728 0.16325246 -0.07704389 -0.03327002
000390 56 f3 af 3c a7 87 25 3e bb 28 a7 bd 21 be a6 be
       0.021478336 0.16165029 -0.081620656 -0.32566932
0003a0 f7 62 1d 3e 05 5b 01 3f 0b ac 69 be 27 3c c3 3e
       0.15369783 0.5052951 -0.22819535 0.3813183
0003b0 88 37 a0 3e 39 d9 65 be 49 96 76 be 86 ed 68 be
       0.31292367 -0.22446145 -0.24080767 -0.22746858
0003c0 6d 2a 7f be de 59 2c 3d 40 1e 1f 3d 79 9e d4 bd
       -0.24918528 0.04207789 0.038847208 -0.10381789
0003d0 be 20 f4 bd 37 48 d7 3d 32 eb f5 3e d9 1d 14 be
       -0.119203076 0.10511821 0.48031002 -0.14464511
0003e0 08 9d 85 be aa e7 c2 3e 51 0a f2 bd 6f 84 61 3d
       -0.26096368 0.3806737 -0.11818374 0.05505794
0003f0 9c ea 6c be 45 3c 24 3d be f7 39 bf 82 4f 26 3d
       -0.23136371 0.04009654 -0.7264365 0.04060317

actor_mean.0.bias f4 [64]
000000 72 1f 9a bd be 3c 0a 3e 4e c6 a5 bd 07 21 30 3e
       -0.07525529 0.13499734 -0.08094464 0.17200099
000010 fd 7f c1 3d 16 2a 79 3e 23 7b 4c be 90 74 1a be
       0.0944824 0.24332461 -0.19968848 -0.15083528
000020 c0 ef be bc 5b 62 bc 3d fe cf a9 3d 5c 9a d4 3d
       -0.023307681 0.09198447 0.082916245 0.10381004
000030 47 71 5e 3d ea 80 0e 3d e3 3b 9a 3a e7 2b 36 bd
       0.05430725 0.03479091 0.0011767115 -0.044475462
000040 8d 97 4b be ef 32 4a 3e 2c 56 1b bd ef 6a 17 3e
       -0.19882031 0.19745992 -0.037923977 0.14786886
000050 28 4d ea 3d 67 3f 39 bd ee b6 14 3e fc e3 92 3b
       0.11440498 -0.04522648 0.14522907 0.0044827443
000060 e6 cd aa 3d af 91 08 be 5f 2f 50 3e dc d0 80 be
       0.08340053 -0.13336824 0.2033057 -0.25159347
000070 8f 78 16 3d c0 a9 43 be ea 69 4b be 21 a0 18 be
       0.036736067 -0.19107723 -0.19864622 -0.14904834
000080 29 d3 ea bd ba b0 c3 3d 1b a5 b1 bd f7 5d 26 be
       -0.11466057 0.09555192 -0.086740695 -0.16246782
000090 77 21 4d 3e 1d 53 a4 3d dc 81 ad 3d d8 45 20 3e
       0.20032297 0.08023665 0.08472034 0.15651643
0000a0 93 2a bf bd 23 9b 5b be e5 ab b6 3a da 8f 2e 3d
       -0.09334292 -0.21445899 0.0013936727 0.042617656
0000b0 af 50 6b be 19 ab 75 3d 9b 17 20 3e cf b0 41 be
       -0.22979997 0.059977625 0.15634005 -0.18915103
0000c0 cd 4c da bc 30 ab 45 3d 9f 23 46 bd 36 b4 71 3e
       -0.02664795 0.04825896 -0.048373815 0.23603901
0000d0 dc 98 91 3d 51 3f 4a be d7 bd 14 be bc ae 8c be
       0.07109234 -0.19750716 -0.14525543 -0.27477062
0000e0 0b 38 b8 bd 22 58 cb 3c a2 34 f4 bd 89 ca 7a be
       -0.08995064 0.024822298 -0.119241014 -0.24491324
0000f0 12 5c f5 bc 38 4e e0 3d 69 cb 9c 3d d0 f9 1d be
       -0.02995113 0.10952419 0.07655985 -0.15427327

actor_mean.2.weight f4 [64, 64]
000000 3f 9c c9 be 01 bb 26 3e 6a 68 3e bd 2a c0 69 3d
       -0.3937702 0.16282274 -0.046486296 0.057068028
000010 34 ce 95 3e 0e 5e 03 be 37 f2 d0 3d 29 54 89 3e
       0.29258883 -0.12828848 0.10202449 0.26822022
000020 5c c3 41 bc a9 ad 07 be dd 91 0c 3d 4b 2c 82 be
       -0.011826362 -0.1324984 0.034318794 -0.25424418
000030 48 ff 17 3b 35 34 85 bd 27 e9 39 bd 34 f9 51 3e
       0.002319293 -0.06504098 -0.045388367 0.2050522
000040 e7 6f 59 3e 98 b4 ed be 2e e9 0e be 8a 71 20 be
       0.21234094 -0.46426845 -0.13956138 -0.15668312
000050 ce 70 a1 3c 24 91 5d 3e f7 6b 26 3d 6d d4 93 bd
       0.01970711 0.21637398 0.040630307 -0.072182514
000060 72 35 f5 bd 11 6a 74 3e 7a eb 28 3e 8b c6 84 bd
       -0.119730845 0.23868586 0.16496077 -0.064831816
000070 a3 6e 51 3e 40 a6 c8 bd 90 d7 ef bd 7c e2 eb 3d
       0.20452361 -0.09797335 -0.11711037 0.11517808
000080 c5 ab 67 be 63 24 25 3e a6 b8 a3 be d2 c0 1b bd
       -0.22624119 0.16127162 -0.31976813 -0.038025685
000090 06 f6 98 3e 81 1b 81 3e 86 96 a0 3e 6a 0c 49 3e
       0.298752 0.25216296 0.3136484 0.19633642
0000a0 db 0c 1b bd 77 eb 87 be 2c 7b 19 3f 1e b6 89 be
       -0.037854057 -0.26546833 0.5995357 -0.26896757
0000b0 30 1a ce 3e 3c 53 44 be 17 3f aa 3e cc fd 49 be
       0.40254354 -0.19172376 0.3325126 -0.19725722
0000c0 2f 94 c7 3d 88 c0 05 3e fc e7 03 bf dd 8a 99 3e
       0.09745061 0.13061726 -0.51525855 0.29988757
0000d0 60 ed 8f bd a9 42 d2 be 41 fd 86 be 06 55 25 be
       -0.070276976 -0.41066483 -0.26365092 -0.16145715
0000e0 cd 6a 48 3e e4 a1 8f 3e cb 23 b1 3c 9c 75 f8 bd
       0.19571991 0.280532 0.021623513 -0.12131807
0000f0 fb b6 bb be 20 cc c4 be 75 42 8d bd 92 f5 a8 be
       -0.3666304 -0.38436985 -0.06897441 -0.32999855
000100 f4 18 6b be 35 1a 5e be 17 6c 44 3e 6e 34 68 3e
       -0.22958738 -0.21689685 0.19181858 0.2267625
000110 d7 b1 5b 3e 7e cc 2e 3e 22 88 3c 3e eb 47 33 bd
       0.2145456 0.17070195 0.18411306 -0.04376976
000120 57 75 63 3e 9e a6 b7 be b5 5c f9 3c 38 ec a0 bc
       0.2221273 -0.35869306 0.030439714 -0.019643888
000130 cb 89 08 3e 2f 94 1a 3e 3d 10 d3 3e b4 1a c1 3e
       0.13333814 0.1509559 0.41223326 0.37715685
000140 54 2c d4 be df 57 29 3c 2c 47 f1 bd d8 28 e7 3e
       -0.4144007 0.0103358915 -0.11781153 0.4514835
000150 4d e8 c9 be dd 43 cc bd 0c 4f a4 3b ad af cf bd
       -0.39435044 -0.099738814 0.005014306 -0.10140929
000160 88 8c 25 bd 0f d3 54 bd 25 cc 3c bd 1d f3 73 be
       -0.040417224 -0.051959094 -0.046093125 -0.23823209
000170 39 b9 1e bd c6 5a 02 be d8 25 42 3e 86 a1 75 3b
       -0.03875086 -0.1272994 0.18959749 0.0037480309
000180 4a c8 1e bd ea af 8a be 28 b0 15 bf 40 bd a3 be
       -0.03876523 -0.27087337 -0.5847192 -0.31980324
000190 81 1a 85 3e 44 20 35 bd 2e 9e 33 3e 7a 6f c4 b9
       0.25996783 -0.044220224 0.1754081 -0.0003746709
0001a0 4f c0 51 3e e7 67 08 be 72 dd 5e be ba ee 5e 3e
       0.20483516 -0.13320886 -0.21764162 0.21770754
0001b0 ff 88 2a 3e 7f d7 1c 3e 1c fb b8 3e 64 f6 d0 be
       0.16653822 0.1531658 0.3612908 -0.4081298
0001c0 cc 3e 5f be 61 0f 97 3e 95 e2 02 3f c6 9d 1a be
       -0.21801299 0.2950392 0.51126987 -0.15099248
0001d0 5f 54 1f 3e 4a 64 95 3e 2b 8e 7e 3e ed 51 1e be
       0.15559529 0.29178077 0.2485892 -0.1546094
0001e0 84 e6 3d 3e bb c9 79 be 41 f5 da 3d f5 3d e3 3d
       0.18544966 -0.2439336 0.1069131 0.11095802
0001f0 9f 93 b2 3d b3 79 1d 3e 66 60 b1 3d 74 09 14 bf
       0.08719563 0.15378456 0.08660965 -0.57826924
000200 99 15 3e 3b f8 1b 1c 3e 9d 92 06 3e a2 f4 b2 be
       0.0029004572 0.15245044 0.13141866 -0.34952265
000210 9d c7 26 be 84 8d 25 bd b6 30 6a bd 37 1e 21 3e
       -0.16287084 -0.040418163 -0.05717536 0.15734182
000220 47 48 7d be aa 12 5f 3e d1 71 de be 0f 9c 94 bd
       -0.24734603 0.21784464 -0.4344621 -0.07256328
000230 17 b6 9e 3e 10 04 91 be 85 9a 4a bd db b1 b6 be
       0.309983 -0.28323412 -0.049463768 -0.35682568
000240 e0 20 b2 3e b4 7a ad 3e 2e 91 42 be 16 52 b4 3b
       0.34790707 0.33882678 -0.19000694 0.0055029495
000250 82 4a a3 bc 0b f7 86 bd df e5 16 be b4 27 ae be
       -0.019932989 -0.065900885 -0.14736126 -0.34014666
000260 69 b5 1d be 47 35 e6 be 1a 7c ef be df 47 96 3e
       -0.15401234 -0.44962522 -0.4677437 0.29351708
000270 a7 66 ab 3c bc 75 e2 3e 14 31 1d bd b8 87 8b 3e
       0.020922972 0.4423045 -0.038376883 0.27251983
000280 f2 85 e9 3e 67 63 95 be a8 37 ec bd a9 33 c8 bd
       0.45610005 -0.291774 -0.11534053 -0.097754784
000290 a7 99 8e 3e 25 ef 2a 3b 00 9c 0f bd e3 29 2b be
       0.27851602 0.0026082483 -0.035060883 -0.16715197
0002a0 bc 56 61 3e d2 d3 24 3e b5 6f 49 3d ea 4c 7f bd
       0.22005743 0.16096428 0.049178798 -0.06232921
0002b0 c5 6e 2e 3c ee 2f 04 bd a1 2c fd 3d 21 73 98 3d
       0.010646527 -0.03227227 0.12362028 0.07443834
0002c0 4b fc 1c bc 5e 0d c1 3e 66 84 6a bd cd 96 77 3d
       -0.009581636 0.3770551 -0.05725517 0.06044655
0002d0 9d 62 44 be 6b 32 51 be f1 c3 49 be 21 f6 76 be
       -0.19178243 -0.20429389 -0.19703652 -0.24117328
0002e0 5a 75 51 3e 7a 37 1d bd bf a9 90 bd 9b 26 c2 bd
       0.20454922 -0.038382985 -0.070636265 -0.0948002
0002f0 05 c5 a5 3e b6 d5 a5 3d aa 74 e1 3d f1 99 c7 3e
       0.32376876 0.08097403 0.1100858 0.38984635
000300 c4 6f 0c 3e 1c 49 68 be 14 4b 29 be 01 b3 bc 3b
       0.1371451 -0.22684139 -0.16532546 0.0057586436
000310 b4 58 7e 3e 03 5b 24 be f7 64 5d 3e aa e5 03 3e
       0.24838525 -0.16050343 0.21620546 0.12880579
000320 3d b5 9e 3d 4f aa 33 bd 4d 18 e7 be 7d 7d d3 be
       0.07749412 -0.04386359 -0.45135728 -0.41306677
000330 9e 79 3f 3e 5b 16 9a bc b1 4e d3 bc 11 de 9f 3c
       0.18698737 -0.018809488 -0.025794359 0.01951507
000340 72 ab 23 be 1c 0b 54 be 6e 7a 9d 3d 05 ae c3 be
       -0.1598337 -0.20707363 0.07689367 -0.38218704
000350 16 3f f5 3b 45 8f d7 bc 23 2f 11 bd 37 9d 6f be
       0.007484327 -0.026313433 -0.035445344 -0.23399816
000360 8c e5 11 bf ee 32 31 3e 21 3e 86 3d e7 7d 18 3e
       -0.56990886 0.17304584 0.06554819 0.14891778
000370 af 09 bd be c8 1c 96 be 14 97 9a be 2f 6c 94 3d
       -0.3692145 -0.29318833 -0.30193388 0.07247197
000380 46 b8 31 be 21 9a 82 be 2d 04 8d 3e 3c 9d 39 3e
       -0.17355451 -0.25508216 0.27542248 0.18126386
000390 86 bc 47 bd be 17 87 3e e3 67 df 3c 8d 68 ff bd
       -0.048763774 0.263853 0.027271217 -0.12471113
0003a0 93 1e 47 bc 79 31 1d 3e be 5d c4 be dd 54 50 bd
       -0.012153286 0.15350904 -0.3835277 -0.050862182
0003b0 09 90 24 3f ed 32 c1 be 96 00 b5 3c f7 5b 53 be
       0.6428228 -0.37734166 0.022095006 -0.2064055
0003c0 b8 7a 38 3d 8d 7a 76 be a8 4f 8a b8 72 65 63 be
       0.04503891 -0.24070187 -6.59519e-05 -0.22206667
0003d0 ea ac 07 be 17 db f5 3e 64 2f 5a 3d 60 41 38 bc
       -0.13249555 0.48018715 0.05326785 -0.011246055
0003e0 6d 5e e6 3c e3 22 8b 3e 45 ea 51 bd e0 85 39 3d
       0.028121198 0.27175054 -0.051248807 0.04529369
0003f0 ed a9 f1 bc 44 fb 2b bc ce 70 8b be 93 17 e7 bc
       -0.029499972 -0.010496918 -0.272345 -0.028209483

actor_mean.2.bias f4 [64]
000000 1a e0 8d 3c 95 35 39 3d 6d cf fe bc aa e5 06 be
       0.017318774 0.045217115 -0.031104768 -0.13173547
000010 72 36 34 bc 82 96 9b bd 9b 49 84 be 8d 97 8c bd
       -0.010999309 -0.075970665 -0.25837407 -0.068648435
000020 60 c5 39 3d 30 f2 e1 bb 4d 05 91 3d c3 63 21 3d
       0.045354247 -0.006895326 0.07081089 0.03940178
000030 3d f2 26 be d6 2c 00 3d ad 83 30 3e 9a 33 98 3e
       -0.16303344 0.03129276 0.1723773 0.2972687
000040 52 be f9 3c 38 38 d1 bc 6d b6 95 3e 87 23 e4 bc
       0.03048626 -0.025539503 0.29240742 -0.027848972
000050 08 41 a8 bd b1 40 81 bd d9 3c 1a 3d 9e ab f2 3c
       -0.08215529 -0.06311167 0.037655685 0.02962285
000060 be 2a 0c be 5c 5a 34 3d c5 41 e8 3c fc 8c 25 bc
       -0.1368818 0.044031486 0.028351674 -0.010104414
000070 f4 35 c1 bd 99 a1 f2 3d c5 d9 01 bd 66 89 c3 3b
       -0.09434119 0.118472286 -0.03170182 0.005967307
000080 d8 94 b9 bd 2e 4c 87 3d 19 c7 e8 3d c1 b8 32 bc
       -0.09061593 0.06606327 0.113661 -0.010908307
000090 5c 4d af 3c 27 30 25 be 75 d6 f4 bc 26 7e 24 bb
       0.021399193 -0.1613165 -0.029887417 -0.0025099604
0000a0 8e c9 49 be 46 fe df bc 51 33 55 3e 4d ce 68 bc
       -0.19705793 -0.027342927 0.20820357 -0.014209342
0000b0 b5 ca ec 3d 49 d7 11 3e b1 de 3b be da e5 d6 bd
       0.11562101 0.14242281 -0.18346669 -0.104930595
0000c0 07 a8 36 3e 00 f2 dc 3d 05 f1 20 bc 5c f0 75 3d
       0.17837535 0.10788345 -0.0098230885 0.060043678
0000d0 3f 93 e9 3d ca 9a 44 3e 98 d5 e2 3c 8b 45 6c 3e
       0.11405038 0.19199672 0.02768974 0.23073404
0000e0 50 f4 b4 bb 82 dc bb bd 1b 20 ba 3c 3f 48 1c be
       -0.0055222884 -0.09172918 0.022720387 -0.15261935
0000f0 2d 90 2d be be 59 10 3e b9 59 bf 3d 32 82 cd 3b
       -0.1694953 0.14096734 0.09343285 0.006271624

actor_mean.4.weight f4 [8, 64]
000000 a0 3e 1a 3d af 35 9b bc 38 b0 6c bd 62 79 18 bd
       0.03765738 -0.018946497 -0.057785243 -0.037225135
000010 8b 0f 87 3d 9d 3e e4 bd e8 f6 29 bd 2d d7 d3 3b
       0.065947615 -0.11144755 -0.041495234 0.00646486
000020 5d 9d f4 3d 62 03 17 bb 42 15 19 3d 03 cd e3 bd
       0.11944077 -0.0023042788 0.03737379 -0.11123087
000030 a4 40 52 bd d5 4c 90 3d b7 20 5d bc b6 3d 1a bd
       -0.051331177 0.070459045 -0.013496569 -0.03765651
000040 ad 82 65 3d e0 2f dd bb d9 e1 8b bd 77 e6 a1 3d
       0.056032825 -0.006750092 -0.068301864 0.07905286
000050 e4 3f 90 3b 04 05 31 3d ef c8 15 bd 69 f2 b2 bc
       0.0044021476 0.043217674 -0.03656858 -0.021844106
000060 f4 ad 82 bc e7 3b c2 3d ba e0 fe 3c b3 9c 1a 3e
       -0.015952088 0.09484082 0.031113017 0.15098839
000070 59 29 e3 3d 1d e6 cb bc 30 03 e4 3d 19 2c ec 3b
       0.11091871 -0.02489 0.111334205 0.0072074053
000080 5a 36 9b bc 79 3f 99 bd 18 17 5e bd d3 95 26 3e
       -0.018946815 -0.074828096 -0.054221243 0.16268091
000090 5f 78 12 3d ad c7 ad 3d 4c c2 9e 3d 97 28 9f 3d
       0.035759326 0.08485351 0.07751903 0.07771414
0000a0 5a 65 5c 3d 86 dc 52 3e e2 a6 19 bb a2 9d ac 3d
       0.053807594 0.20591936 -0.0023445417 0.084285036
0000b0 5c 00 db bc 9e 3c ae bd 77 33 00 3b 44 db 2f 3c
       -0.02673357 -0.085076556 0.0019561925 0.010733429
0000c0 69 3e 2c bd 7c a8 d5 bd 7f 60 02 3d b9 da c7 3d
       -0.042051706 -0.104325265 0.031830307 0.09758515
0000d0 62 26 02 3c 67 23 1d 3d 41 0a 8d bb f9 71 89 bd
       0.0079437215 0.03836384 -0.004304201 -0.06711192
0000e0 db 06 8a bc de 8e dc 3c f6 5a ef bc e3 7e 81 bc
       -0.016848972 0.026923593 -0.029218178 -0.015807575
0000f0 64 ce 16 3e ec 15 10 3c 5b 72 e7 3d 69 7d 73 3d
       0.1472717 0.008794289 0.113011084 0.059445772
000100 2c 90 88 bc a4 98 cd 3b 9f 7a 2c bd 6a e6 e2 bc
       -0.016670309 0.0062742997 -0.042109128 -0.02769776
000110 fd 12 78 3d d5 6e 1b 3e 1c 37 90 bd e1 81 87 3c
       0.060564984 0.15178998 -0.07041761 0.016541423
000120 b8 9b 97 3c 2d 4b dd bc ff 05 17 3d d5 8f 8f bd
       0.01850687 -0.027013386 0.036870953 -0.07009856
000130 e4 f0 a0 bd 0f fd 7e 3b 9d f5 0e bd 3e c2 8a ba
       -0.07858446 0.003890816 -0.034902204 -0.0010586453
000140 98 a4 ec bc e7 ad e8 bd 46 53 2a bd 7d 1e 67 bc
       -0.028887078 -0.11361294 -0.041583322 -0.01410639
000150 76 de d6 3d a7 89 4b 3d 61 01 ce 3d ae fc 2b bc
       0.1049165 0.049691822 0.10058857 -0.010497255
000160 8c 4f af bd 55 41 18 bc db dd 78 bd 21 38 d9 3d
       -0.08560094 -0.00929292 -0.060758453 0.10606409
000170 31 9e 53 3d e9 9d 30 bd ad 48 3e 3d cd 1f 7d 3d
       0.051664535 -0.043119345 0.046456028 0.061797906
000180 99 ee 1e bd 4a 19 d3 bd 17 d6 06 3e 45 26 84 3c
       -0.038801763 -0.10307558 0.13167606 0.01613153
000190 cd 1f 10 3d 36 ed 89 bd 3e ef c5 3c 79 19 b4 bc
       0.035186578 -0.067346975 0.024161931 -0.021984803
0001a0 9b 6c 6a 3c c6 c6 50 bd 7d 28 9f 3d 0d 29 8e bd
       0.01430812 -0.050970815 0.077713944 -0.069414236
0001b0 3e fd b8 bd 5d 90 90 bc 3d 7d 0f 3c 0f dd 0d 3d
       -0.09032677 -0.017646963 0.0087578865 0.034634646
0001c0 65 73 f8 bc d6 46 83 bd ff 9b c8 bd 76 79 64 bc
       -0.030328462 -0.06409995 -0.09795379 -0.013944974
0001d0 2e d6 4d be b1 9d 36 bd 86 03 9a 3d 73 b6 a3 3d
       -0.20101234 -0.04458398 0.07520203 0.07993784
0001e0 f5 41 c3 3c 9f c6 b1 bd de 79 b5 3c 78 5a 50 3d
       0.023835162 -0.08680462 0.022152837 0.050867528
0001f0 e7 e6 15 3c a5 9a da bd f2 15 6c 3d 94 c2 2d 3d
       0.00914929 -0.10674027 0.057638116 0.042421892
000200 a7 b6 e3 bc ec 30 f6 bb 1c 58 d4 3d 53 ee b1 3d
       -0.027797056 -0.007513156 0.10368368 0.08688035
000210 46 df ae bd 52 0c 28 bd 7d ba d8 bc 6a 33 a3 3d
       -0.0853868 -0.041027375 -0.026456112 0.07968791
000220 be c0 39 3c 63 55 63 bd 00 77 30 bc f4 b4 02 be
       0.011337457 -0.055501353 -0.010770559 -0.1276434
000230 9a 0c 71 3d 94 13 61 bd 0e 3b b5 3c cf 79 3e bd
       0.05884991 -0.05495031 0.022122886 -0.046502884
000240 14 2a 5a 3d a7 bc e3 3d 2d 55 b0 3a d6 55 bb bd
       0.053262785 0.11119967 0.0013453119 -0.09147231
000250 ab 31 40 3c 06 28 09 bd 77 eb c7 bd 3b b8 ad 3b
       0.011730592 -0.033485435 -0.09761708 0.005301503
000260 39 1f a7 bd 06 6e 7c 3c 12 29 83 3d 42 50 bf 3c
       -0.08160252 0.015407091 0.06404318 0.0233537
000270 c4 ed b3 bd 45 6c 12 be e8 b5 7b bd 78 3e 15 bd
       -0.087855846 -0.14299114 -0.061452776 -0.036436528
000280 60 5f e9 bd a5 22 4b bd 78 8e a2 bc 04 e7 b0 3d
       -0.113951445 -0.049593586 -0.019843325 0.08637813
000290 2b 8a 59 3d ee 97 c3 3d 38 2c 5e 3d ef 7d 03 be
       0.053110283 0.09550463 0.05424139 -0.12841009
0002a0 66 c1 dd 3d 13 ed 12 3d 4f 63 26 3d f4 7e 14 3e
       0.108279034 0.035870623 0.04062205 0.14501554
0002b0 be f1 2f bc 44 fe 97 3c d2 57 30 bd 3a 8c b4 bd
       -0.010738788 0.01855386 -0.043052502 -0.088158086
0002c0 d1 72 2d 3e a9 79 e1 3a c8 6a d9 bc 69 e3 14 bd
       0.1693833 0.0017202395 -0.026540175 -0.036349688
0002d0 1c a0 0a bd c3 15 ad bd 57 ce d9 bd 98 b5 65 bd
       -0.0338441 -0.08451416 -0.10635059 -0.056081384
0002e0 7b d0 86 bd 16 59 da bd 07 9f 0a 3d bd 0e ab bd
       -0.06582733 -0.10661523 0.033843067 -0.083524205
0002f0 e3 99 05 3d 02 b9 06 3d 39 cc dc 3b b4 58 a6 3d
       0.03261746 0.03289128 0.0067382124 0.081223875
000300 df 7b 85 3b 7f 4f f9 bd 84 63 43 3d ed be b7 3d
       0.0040736045 -0.12173366 0.047702327 0.08971963
000310 c1 12 22 be 2e 41 fc bd 40 66 09 bd 5b 0e 40 be
       -0.15827467 -0.123171195 -0.03354478 -0.18755476
000320 76 8e 44 bd 4c 22 36 3d 75 db e7 bc cd a4 80 bd
       -0.047987424 0.0444663 -0.028302887 -0.06281433
000330 b2 af 26 3e 23 11 5a 3d a2 de b8 3d fa 60 9b bc
       0.1627796 0.053239 0.09026839 -0.01896714
000340 3d 86 8c 3d 2c fd d7 3b e7 68 06 3d 86 b6 22 3e
       0.068615414 0.0065914597 0.032814886 0.1588994
000350 f0 b7 8b 3d e0 f0 fa bc bc 3b a1 bb 83 8f 58 3d
       0.06822193 -0.030632436 -0.004920451 0.05287124
000360 28 e4 7b 3d e4 22 d8 3b 36 48 8a bd e3 1b ef 3c
       0.061496884 0.006595956 -0.067520544 0.029188102
000370 8d 44 b2 bd 95 3e 96 3c 5c 94 1e 3d da 65 ad bd
       -0.08704481 0.018340388 0.038715705 -0.08466692
000380 f9 ca a3 3d 68 18 79 3d 5a cf 8b bd a6 a0 4b bc
       0.07997698 0.06081429 -0.068266585 -0.012428438
000390 11 8c f4 bd 7b 2d 9f 3d 5f bc 6f 3d da 74 82 3c
       -0.11940778 0.077723466 0.058529254 0.01592486
0003a0 1d 41 b1 bd d9 57 68 3d 46 f4 2d 3c 17 e7 c6 bd
       -0.086549975 0.056724403 0.010617321 -0.09712046
0003b0 b6 41 13 bd a9 ff b8 3d 93 50 c4 3d 91 9f 78 3d
       -0.03595134 0.09033138 0.09585681 0.06069905
0003c0 64 cc 86 3d bf b0 fe bc f5 17 60 3b 47 61 fe bb
       0.06581953 -0.031090138 0.0034193967 -0.007763061
0003d0 92 70 72 bc 0d 06 21 3d 6c 7d 3a bd 10 d1 ac 3c
       -0.014797347 0.03931241 -0.045529768 0.021095783
0003e0 c5 64 6d 3c 4b 37 b3 3d 60 da 76 bd 7d 0c 39 3d
       0.014489357 0.08750781 -0.060266852 0.045177925
0003f0 8a 92 cc bd 30 13 58 3d 20 9d 14 3c db 8d e0 3c
       -0.099888876 0.052752674 0.009070665 0.027411392

actor_mean.4.bias f4 [8]
000000 c1 38 5f 3b 49 a6 f3 bc 08 58 cc 3d f7 98 4e 3c
       0.0034060928 -0.029742377 0.09977728 0.012609712
000010 77 8a 00 bd a6 12 02 3e 4f 2e 60 bc 53 c9 81 3d
       -0.03138205 0.12702426 -0.013682916 0.06337228
