DATA403_final/checkpoints/Ant-v4/PPO_7810.pt (torch, 54349 bytes, 12 tensors)

actor_logstd f4 [1, 8]
0	0xbfab9135	-1.3403689
1	0xbfafad22	-1.3724711
2	0xbf9d58c9	-1.229272
3	0xbff4bd12	-1.91202
4	0xbfa4ed26	-1.2884872
5	0xc0da3649	-6.8191266
6	0xbfe1935d	-1.7623097
7	0xbfcf94d0	-1.6217289

critic.0.weight f4 [64, 27]
0	0xbe2f1b21	-0.17100193
1	0xbea124a4	-0.31473267
2	0x3f233afe	0.6376189
3	0xc0314917	-2.770086
4	0x3e7837f6	0.24240097
5	0xbe059949	-0.13046755
6	0xbe3aec61	-0.18254234
7	0x3d5a8dd9	0.053357933
8	0xbe09c7df	-0.13455151
9	0xbe1e77e6	-0.15475425
10	0x3ede09d1	0.43366864
11	0x3c5df2e5	0.01354668
12	0xbde42528	-0.111398995
13	0xbe876142	-0.2644139
14	0x3e18be97	0.14916454
15	0x3ec0ddf1	0.37669328
16	0x3df305cb	0.11866339
17	0xbe7b777b	-0.24557297
18	0xbd69493f	-0.05695462
19	0xbc85ca3f	-0.01633179
20	0xbd57fbf8	-0.05273053
21	0xbd97a517	-0.07404535
22	0x3b0ef95b	0.0021816108
23	0xbbda22a9	-0.006656964
24	0xbcff17a0	-0.031139195
25	0x3c89c6a3	0.01681835
26	0x3c98c20a	0.018647213
27	0x3e40f327	0.18842755
28	0x3fb9456c	1.4474311
29	0x3dd1bdf7	0.10241311
30	0x3f53fc15	0.8280652
31	0x3f63034d	0.8867691
32	0x3ed8aaa9	0.42317703
33	0xbe235eb7	-0.159541
34	0x3ccc1e5f	0.024916826
35	0x3e746f70	0.23870635
36	0x3ead61eb	0.33863768
37	0x3e0f64ff	0.1400337
38	0x3e66e02a	0.2254645
39	0x3d80e211	0.06293119
40	0x3c991dc8	0.018690959
41	0xbc688693	-0.014192241
42	0x3e34d606	0.17659768
43	0x3dde0385	0.10840515
44	0x3d540988	0.051766902
45	0x3dc40a50	0.095722795
46	0x3d06668a	0.032812633
47	0xba06384a	-0.0005120082
48	0x3c5cc5a1	0.013474853
49	0x3c923fae	0.01785263
50	0x3caa05ac	0.020754658
51	0x3c69a5fe	0.014260767
52	0x3c49b746	0.012311762
53	0x3c7ba3d4	0.015358884
54	0xbeca4eb4	-0.3951317
55	0x3ee712be	0.45131487
56	0xbe60ac8d	-0.21940823
57	0x3e1a9aa3	0.15098052
58	0xbfb294f1	-1.3951703
59	0x3e6c7e36	0.2309502
60	0xbe133495	-0.14375527
61	0xbeab92c7	-0.3351042
62	0xbd00e0c2	-0.031464346
63	0xbdcce409	-0.10004432
64	0x3d2e08f5	0.04248901
65	0xbe84fa54	-0.25972235
66	0xbed49f81	-0.41527942
67	0x3d1d980b	0.038475078
68	0x3bca9f74	0.006183559
69	0xbd8d4914	-0.06898704
70	0x3e906946	0.28205317
71	0xbdb200da	-0.08691569
72	0x3dd76191	0.10516656
73	0x3cf683df	0.030092178
74	0xbc9b5415	-0.018960992
75	0xbd364ffb	-0.04450987
76	0x3d565ae6	0.05233278
77	0x3b7e85f5	0.0038837169
78	0xbce96567	-0.028490735
79	0x3d14724d	0.03624182
80	0x3d252d94	0.04032667
81	0xbe8df840	-0.27728462
82	0x3ed0f8fe	0.40814966
83	0xbf6f3a41	-0.93448263
84	0xbf4b4fb5	-0.794185
85	0x3fc3888e	1.5276048
86	0xbe29a4ef	-0.16566823
87	0x3e286485	0.16444595
88	0xbdb66578	-0.089060724
89	0x3e1ff905	0.15622337
90	0x3e3f7d86	0.18700227
91	0xbaf2ba15	-0.0018518592
92	0xbe74b4e0	-0.23897123
93	0xbcf27443	-0.029596454
94	0xbb58991b	-0.0033050242
95	0xbce234e4	-0.02761311
96	0x3d1adaba	0.03780625
97	0xbd9b8774	-0.07594195
98	0xbe0ca62d	-0.13735266
99	0x3dbd984e	0.092575654
100	0x3c330040	0.010925353
101	0xbc2d2873	-0.010568726
102	0x3bef2a10	0.0072987154
103	0xbc7b0541	-0.015321077
104	0x3c175f08	0.009238966
105	0xbc150811	-0.009096161
106	0x3cec84f6	0.028871994
107	0xbc379045	-0.01120383
108	0xbf518b1f	-0.81852907
109	0x3e8c8c58	0.27450824
110	0x3fe5a5e2	1.7941248
111	0xbf4617b8	-0.7737994
112	0x3fa9d6e6	1.3268707
113	0xbd3bde0e	-0.045866065
114	0xbdf3e23e	-0.11908387
115	0x3cb1478b	0.02164056
116	0xbd6c5eea	-0.057707705
117	0xbeb6832d	-0.35646954
118	0xbe959222	-0.29213053
119	0x3ef75220	0.48304844
120	0xbd7bdde6	-0.061490916
121	0x3d9eef55	0.07760493
122	0xbe35c1a8	-0.17749655
123	0xbe3f26cb	-0.18667142
124	0x3dea95ac	0.11454329
125	0xbe9810aa	-0.29700214
126	0x3ddd92a7	0.10818987
127	0x3b9621e5	0.0045816773
128	0xbd1d7306	-0.038439773
129	0x3bc9cae9	0.006158222
130	0xbbbb5441	-0.005716831
131	0x3c04b799	0.008100414
132	0xbd3ab47e	-0.045582287
133	0x3d2c26fd	0.04202937
134	0xbb8c3cba	-0.0042797
135	0xbe862f64	-0.2620803
136	0xbe28b3b7	-0.16474806
137	0x3f60bbcc	0.87786555
138	0xbfa662ed	-1.299894
139	0x3ec0aba6	0.37630957
140	0x3ecb32f2	0.39687306
141	0xbf8d25ac	-1.1027122
142	0x3bf2cd7f	0.007409751
143	0x3ee711b0	0.45130682
144	0x3d55f2d0	0.052233517
145	0x3ecc11e7	0.39857408
146	0x3d932425	0.071846284
147	0xbe146511	-0.14491679
148	0x3dd8bd53	0.10582986
149	0x3e06c7f7	0.13162218
150	0xbef37d5f	-0.47556588
151	0xbcd4b274	-0.025964
152	0xbd47f27f	-0.048815247
153	0xbcb039c5	-0.021511922
154	0x3d4505a1	0.04810107
155	0xbd9875e5	-0.074443616
156	0x3d0ca837	0.03434011
157	0x3d79c1a1	0.060975675
158	0xbd5871e1	-0.05284298
159	0x3d50a44b	0.050937932
160	0xbd247e0f	-0.04015928
161	0x3d1b0995	0.037850935
162	0x3ea7a52b	0.327432
163	0x3f003e15	0.5009473
164	0x3e93cfd8	0.2886951
165	0x404300d4	3.0469255
166	0x3ec223bb	0.37917885
167	0xbd49b163	-0.049241435
168	0x3e2dd424	0.16975456
169	0x3db0a843	0.086258434
170	0x3cc64e43	0.02420724
171	0x3e2c0818	0.16799963
172	0xbd8f3bef	-0.06993853
173	0xbda3049f	-0.07959866
174	0x3efb8cf9	0.4913099
175	0x3d5a2e1e	0.053266637
176	0x3e38e0f6	0.18054566
177	0xbe4e2e0e	-0.20134756
178	0x3d0c6449	0.034275327
179	0x3e51cd94	0.20488578
180	0x3e2c1f54	0.16808826
181	0x3cc658d6	0.024212282
182	0x3cb98fdb	0.022651603
183	0x3d13966c	0.036032125
184	0x3cc33091	0.02382687
185	0xbc1c2af6	-0.009531727
186	0xbc12acd9	-0.008952343
187	0x3d031288	0.032000095
188	0x3d6aedfe	0.057355873
189	0xbe2b0900	-0.16702652
190	0x3dbc7275	0.092015184
191	0x3e1e7d97	0.15477596
192	0x3e88ca3d	0.26716796
193	0xbdd82bac	-0.10555205
194	0x3de90576	0.11377995
195	0x3ec8612e	0.39136642
196	0xbe9f4f63	-0.31115255
197	0xbf9e0f8d	-1.2348496
198	0x3d87c80d	0.066299535
199	0xbed3f0c0	-0.41394615
200	0xbebbdcb1	-0.36691812
201	0x3ec786a0	0.38969898
202	0xbb82bb8f	-0.003989644
203	0xbdfacbe4	-0.1224592
204	0xbf895dec	-1.0731788
205	0xbe3eaf71	-0.18621613
206	0xbe3cd82e	-0.18441841
207	0xbe94d1a2	-0.29066187
208	0xbd00cbd2	-0.03144438
209	0x3d76bc77	0.060238328
210	0xbce0dcc5	-0.027449021
211	0xbd6f22c0	-0.05838275
212	0xbd3cae6f	-0.04606479
213	0x3b5975e4	0.003318184
214	0xbd03b29b	-0.032152753
215	0xbc422a3e	-0.011850892
216	0x3ed74e6a	0.42052013
217	0x3ed32005	0.41235366
218	0x3f3905e5	0.7227462
219	0xc01989a9	-2.399027
220	0x3f79f14f	0.9763383
221	0xbe8cc7d5	-0.2749621
222	0x3dcb41b2	0.0992464
223	0xbd757051	-0.059921566
224	0xbe261cea	-0.16221967
225	0x3e8e0c95	0.27743974
226	0xbdb99a47	-0.09062629
227	0x3ec74a16	0.3892371
228	0x3cf926ff	0.030414103
229	0x3cdc5991	0.026898177
230	0xbdf85d59	-0.1212718
231	0x3d37ada4	0.04484333
232	0xbca9ca81	-0.020726444
233	0x3d843b7f	0.064566605
234	0x3adbef76	0.0016779739
235	0xbc229592	-0.009923356
236	0x3c9ee195	0.019394675
237	0xbc30e672	-0.01079713
238	0xbbb68489	-0.0055699986
239	0x3b8a0f14	0.0042132232
240	0x3c5ee712	0.013604896
241	0x3c896547	0.016771926
242	0x3cf6c4e5	0.030123184
243	0x3f22fc40	0.6366615
244	0xbf4f33a8	-0.80938196
245	0x3da5f4e5	0.081033505
246	0x3d1b2a1f	0.037881967
247	0x3f6ceb6c	0.92546725
248	0x3eda244f	0.42605826
249	0x3e2c75b1	0.1684177
250	0xbe26861b	-0.16262095
251	0xbd801e95	-0.06255833
252	0xbeac0628	-0.33598447
253	0xbd364495	-0.044499
254	0xbddd92d9	-0.108190246
255	0x3e5b3781	0.21407892

critic.0.bias f4 [64]
0	0xbc84a562	-0.016192142
1	0xbe651dba	-0.22374621
2	0xbf08aa1d	-0.5338457
3	0xbf25eed4	-0.6481755
4	0x3e27f0af	0.16400407
5	0xbf21c252	-0.63187134
6	0x3e29980a	0.16561905
7	0x3fb824ca	1.4386227
8	0xbebd8016	-0.37011784
9	0x3e416d52	0.18889359
10	0xbef88f62	-0.48546892
11	0x3eca365a	0.39494592
12	0x3f814297	1.0098447
13	0x3e970b4e	0.29500812
14	0xbe7b13cf	-0.24519275
15	0xbf3f207d	-0.7465895
16	0xbf4ef479	-0.80841786
17	0xbf5964c7	-0.849194
18	0x3e957631	0.29191735
19	0xbe2d6fbc	-0.16937155
20	0x3dc8275c	0.09773132
21	0x3d19bc73	0.037533235
22	0x3e724f2e	0.23663017
23	0x3f4d5d1b	0.8022019
24	0xbdb52540	-0.088449955
25	0xbf1a6eec	-0.60325503
26	0x3e12e2e3	0.14344363
27	0x3ea1d7f4	0.31610072
28	0x3ec77497	0.38956138
29	0x3f9d0ab0	1.2268887
30	0xbed831fe	-0.4222564
31	0xbf47ab53	-0.77995795
32	0xbd75e29f	-0.060030576
33	0x3d5b3b4d	0.05352335
34	0x3e0f6747	0.14004241
35	0xbfa2c0cf	-1.271509
36	0xbe9e7258	-0.30946612
37	0x3e02fa8e	0.12790892
38	0x3daa82ad	0.08325706
39	0x3f289b33	0.65861815
40	0xbee01e72	-0.43773228
41	0xbf1420f0	-0.5786276
42	0xbe994bcf	-0.2994065
43	0xbf9b0b19	-1.2112762
44	0x3e151cab	0.14561717
45	0xbf46d1ff	-0.7766418
46	0x3ef6466d	0.48100606
47	0x3f12b90d	0.57313615
48	0xbfa89733	-1.3171142
49	0x3e878a18	0.26472545
50	0xbf3b2192	-0.730981
51	0xbdf837c3	-0.12120011
52	0xbe5aaf9c	-0.21356052
53	0xbe49e141	-0.19714834
54	0x3eb9a842	0.36261183
55	0x3e9e8ab9	0.30965212
56	0xbf8767d0	-1.0578556
57	0xbe896bf3	-0.2684017
58	0x3e8ca0da	0.2746647
59	0xbdcb242c	-0.099190086
60	0x3f5cf476	0.8631052
61	0x3eee650b	0.46561465
62	0x3f191720	0.5980091
63	0xbf74d908	-0.95643663

critic.2.weight f4 [64, 64]
0	0xbe12b4e0	-0.14326811
1	0xbed81166	-0.42200774
2	0x3d815b82	0.06316282
3	0xbe9c9735	-0.30584112
4	0xbed60544	-0.41800892
5	0x3cac056b	0.020998677
6	0x3e5ea08d	0.21740933
7	0xbe780dc9	-0.24224009
8	0xbeaf52e8	-0.3424294
9	0x3d19b9be	0.037530653
10	0x3eb2d43f	0.34927556
11	0xbe58ebed	-0.21183749
12	0xbe940b05	-0.28914657
13	0xbda917e9	-0.082565136
14	0x3e99756f	0.29972407
15	0xbeffa2f6	-0.49929017
16	0x3e0ff299	0.14057387
17	0xbe7eb9ec	-0.24875611
18	0xbe909e8d	-0.28245965
19	0xbe8c6399	-0.27419737
20	0xbc3aa4fe	-0.011391876
21	0xbec59a10	-0.38594103
22	0x3ec013c1	0.3751507
23	0x3d03a771	0.032142106
24	0xbe19d517	-0.15022694
25	0xbe09301a	-0.13397256
26	0x3e66869e	0.2251229
27	0xbf0d500e	-0.5520028
28	0x3da85a9e	0.08220409
29	0xbea876ae	-0.32903045
30	0x3eacb863	0.33734426
31	0x3eb0f805	0.34564224
32	0x3dc4269c	0.09577677
33	0xbef76d61	-0.48325637
34	0xbeb9dfff	-0.36303708
35	0x3d988e4b	0.07449015
36	0xbf0ce723	-0.55040187
37	0xbe9e7695	-0.30949846
38	0x3eac3262	0.3363219
39	0x3e918467	0.28421327
40	0x3f0cc73e	0.5499152
41	0xbe00372d	-0.12521048
42	0xbf0305b4	-0.5118058
43	0x3eb7cbec	0.35897768
44	0xbcfa9952	-0.030590687
45	0xbe9f0fa3	-0.31066617
46	0x3dd5859a	0.10425873
47	0x3e650db1	0.22368504
48	0x3eae7762	0.34075457
49	0xbe806dbb	-0.25083718
50	0xbdcb7ca4	-0.09935883
51	0xbe44528a	-0.19172111
52	0xbe90ea12	-0.2830358
53	0xbe399c3f	-0.1812601
54	0xbeb139d4	-0.34614432
55	0xbe6b4a49	-0.22977556
56	0x3f0bfe50	0.54684925
57	0xbdf7b68a	-0.120953634
58	0x3e63a652	0.22231415
59	0xbe16537c	-0.14680284
60	0xbd97cfac	-0.07412657
61	0xbecb6f3a	-0.39733297
62	0xbe595aff	-0.21226119
63	0x3ecdfa89	0.40230206
64	0xbf054693	-0.5206081
65	0x3ea577d7	0.32317993
66	0x3eab0a40	0.33406258
67	0xbe4a5334	-0.19758302
68	0x3e4fdb27	0.20298444
69	0xbe16e63e	-0.14736268
70	0x3f5a6e90	0.85324955
71	0x3c7eb219	0.0155453915
72	0xbebfbed2	-0.37450272
73	0x3e39e2ad	0.18152876
74	0x3e0e5875	0.13900931
75	0xbeaf1ae6	-0.3420021
76	0x3dfffa0c	0.124988645
77	0x3e72d684	0.23714644
78	0x3d475b0e	0.04867082
79	0xbec7cf70	-0.3902545
80	0xbe22c405	-0.15895088
81	0xbdf7c952	-0.12098946
82	0x3e912f43	0.2835637
83	0x3ef9f018	0.4881599
84	0xbdcadba7	-0.099051766
85	0xbe85e354	-0.2615
86	0x3f077b65	0.5292266
87	0x3dc5346d	0.0962914
88	0x3f0a1ec5	0.539532
89	0xbdd751bb	-0.10513636
90	0xbe1a40fc	-0.15063852
91	0x3f1ded45	0.6169017
92	0x3ea262f9	0.31716135
93	0x3e2052c5	0.15656574
94	0x3d2a5420	0.041584134
95	0x3d3b4b54	0.045726135
96	0xbe1617f8	-0.14657581
97	0xbc684149	-0.014175721
98	0x3ead2d17	0.33823463
99	0xbe5bc1d2	-0.21460655
100	0x3dfa5610	0.12223446
101	0xbedcf210	-0.4315343
102	0xbebfdd09	-0.37473324
103	0x3e1d0b9e	0.15336463
104	0x3e3f3f06	0.18676385
105	0xbe943090	-0.289433
106	0xbf0ad948	-0.54237795
107	0xbe8933ff	-0.26797482
108	0xbcd120f1	-0.025528403
109	0xbebb41b2	-0.3657356
110	0x3ded7a27	0.11595564
111	0xbd7fae8f	-0.06242233
112	0xbe731ed2	-0.23742226
113	0x3eb37032	0.35046536
114	0x3e39273a	0.1808137
115	0xbdc3f244	-0.09567693
116	0xbea9505e	-0.33069128
117	0xbf1ef5b1	-0.62093645
118	0x3edfc45f	0.43704507
119	0xbb0f14e9	-0.0021832532
120	0xbef60be5	-0.4805595
121	0xbcc3a883	-0.023884064
122	0x3e554b61	0.20829536
123	0x3ab6035e	0.0013886502
124	0x3e8125fd	0.25224295
125	0x3ef3b8ee	0.47602028
126	0x3d53913d	0.051652182
127	0xbeaf5daf	-0.34251162
128	0xbe46b0af	-0.19403337
129	0x3eb4acc4	0.3528806
130	0xbe70314e	-0.23456308
131	0xbec178b9	-0.37787417
132	0x3e036e22	0.12834981
133	0xbe950b69	-0.29110268
134	0x3e4d6325	0.20057352
135	0x3f5f9d94	0.8734982
136	0xbf26b83d	-0.65124875
137	0xbda22bf9	-0.07918543
138	0x3d3c4aeb	0.045969885
139	0x3e2a0598	0.16603696
140	0x3edc00ed	0.42969456
141	0xbdaad0e5	-0.08340625
142	0x3d51670f	0.051123675
143	0xbe96431c	-0.29348075
144	0xbc9da270	-0.019242495
145	0xbe516485	-0.20448501
146	0x3da45d64	0.08025625
147	0x3eec4ff0	0.46154737
148	0x3aff3118	0.0019469587
149	0x3e655708	0.22396481
150	0x3e0362bc	0.12830633
151	0x3e3ca758	0.18423212
152	0xbe8aacfb	-0.270851
153	0xbf1d8b97	-0.6154112
154	0x3ea4d145	0.3219091
155	0xbde4ac56	-0.11165683
156	0x3dd8a693	0.105786465
157	0x3f09ecb8	0.5387683
158	0xbdcf4df1	-0.10122288
159	0xbe7bf40f	-0.2460482
160	0xbc31fd07	-0.010863549
161	0xbbaf6c17	-0.0053534615
162	0x3eb426b4	0.35185778
163	0xbe773637	-0.24141775
164	0x3e717aee	0.2358205
165	0xbdb53dfb	-0.088497125
166	0xbe91e550	-0.28495264
167	0x3e610e9b	0.21978228
168	0xbe99c98d	-0.30036584
169	0xbe91f266	-0.28505248
170	0xbb841488	-0.004030768
171	0xbe00a637	-0.12563406
172	0xbdfc77b0	-0.12327516
173	0xbf16b537	-0.5887026
174	0x3e9ea441	0.3098469
175	0xbc27764e	-0.010221077
176	0xbe9b9f15	-0.30394807
177	0x3cb4483f	0.022007106
178	0xbec83663	-0.39103994
179	0x3dc96256	0.09833209
180	0xbe954302	-0.29152685
181	0xbeac51aa	-0.33656055
182	0x3e1863eb	0.14881866
183	0x3e903e77	0.28172657
184	0xbe62620d	-0.22107716
185	0x3c6e35a8	0.01453916
186	0x3ba26119	0.0049554226
187	0xbca960c9	-0.020676034
188	0xbdde6153	-0.10858407
189	0x3f5ed288	0.87039995
190	0x3eab846f	0.33499476
191	0xbedd814f	-0.43262717
192	0x3e18949c	0.1490044
193	0xbf5df2b1	-0.8669844
194	0xbde11724	-0.10990742
195	0xbf502d03	-0.8131868
196	0xbf519e01	-0.8188172
197	0x3d91dea4	0.071225435
198	0xbef682cd	-0.48146668
199	0x3da21d74	0.07915774
200	0xbf0ded8f	-0.5544061
201	0x3eeefcdf	0.466773
202	0xbea77e8a	-0.3271373
203	0x3eaaa56e	0.33329338
204	0x3ca63cd8	0.020292684
205	0x3db61172	0.08890046
206	0x3e0f063e	0.13967225
207	0x3d65732a	0.056018032
208	0x3de2176c	0.110396236
209	0xbeb85ae2	-0.36006838
210	0x3e5eb42a	0.21748415
211	0x3e1e5181	0.15460779
212	0x3d9e8717	0.0774061
213	0xbf5fe4b0	-0.87458324
214	0x3edbfad2	0.42964798
215	0xbbf7c41f	-0.0075612213
216	0xbf31e5a0	-0.69491005
217	0xbf018e41	-0.5060769
218	0xbefbf380	-0.49209213
219	0x3cb4b3b4	0.022058345
220	0x3f17b7dc	0.5926492
221	0x3d04ea2a	0.03244988
222	0x3e6a39fa	0.22873679
223	0x3e5fc8dc	0.21853966
224	0xbe66554a	-0.22493473
225	0x3f06a891	0.5260096
226	0xbe85e8bd	-0.26154128
227	0xbe83635b	-0.2566174
228	0xbf0ed8a9	-0.5579935
229	0xbf21f0e5	-0.632582
230	0x3eace31a	0.33767015
231	0xbd304337	-0.04303285
232	0x3d92ffe0	0.071777105
233	0x3ddfd494	0.10929218
234	0x3ea853d1	0.32876447
235	0x3dc4afde	0.096038565
236	0xbdf032c0	-0.1172843
237	0xbe25ea24	-0.16202599
238	0x3e36e749	0.17861666
239	0x3e4e114d	0.20123787
240	0xbead8074	-0.33887064
241	0xbed51b8d	-0.41622582
242	0xbe736b76	-0.23771462
243	0xbed82e0a	-0.42222625
244	0x3e823b9b	0.254361
245	0x3e21fb96	0.15818629
246	0x3f2e8696	0.6817411
247	0xbe596b79	-0.21232404
248	0xbe3f445a	-0.18678418
249	0x3e1c468d	0.15261288
250	0x3effe90e	0.49982494
251	0xbe94e3cd	-0.29080048
252	0x3e0734a7	0.13203679
253	0xbddb3576	-0.10703556
254	0x3da618f3	0.081102274
255	0xbe78f01c	-0.24310344

critic.2.bias f4 [64]
0	0xbda0042b	-0.07813295
1	0x3d5fb371	0.054614488
2	0x3d66f47b	0.0563855
3	0x3e8cbf5d	0.2748975
4	0xbe8a2a31	-0.26985314
5	0x3de32bd8	0.11092347
6	0xbdb90fba	-0.09036203
7	0x3dac768b	0.08421048
8	0xbde103f9	-0.10987086
9	0x3e1a8874	0.15091115
10	0x3ddcded9	0.10784692
11	0x3d9986c0	0.07496405
12	0x3e229370	0.15876555
13	0x3e1788af	0.14798234
14	0xbe6d4486	-0.23170671
15	0xbe804a42	-0.25056654
16	0x3d1a085e	0.037605636
17	0x3d968bd0	0.07350886
18	0xbe42dbef	-0.1902921
19	0xbe60d661	-0.21956779
20	0xbdb400b9	-0.087892
21	0xbe78a28e	-0.2428076
22	0xbc88c1a5	-0.0166939
23	0x3d504597	0.050847616
24	0x3e8ef31c	0.27919853
25	0x3e395550	0.1809895
26	0x3e4d444b	0.20045583
27	0xbe5634b0	-0.20918536
28	0x3df36f61	0.11886478
29	0xbe73e38d	-0.23817272
30	0xbce4c221	-0.0279246
31	0x3d6ddadc	0.05807005
32	0xbeca26b2	-0.39482647
33	0x3d0e46f5	0.03473564
34	0x3df370f0	0.118867755
35	0x3e3bf614	0.1835559
36	0x3e12ceae	0.14336655
37	0x3e6094dc	0.21931785
38	0xbe7c8465	-0.2465988
39	0x3da1de78	0.07903761
40	0xbeed8c2b	-0.46396002
41	0xbe869e38	-0.26292586
42	0x3c66787a	0.01406681
43	0xbea6380b	-0.32464632
44	0x3da86a74	0.08223429
45	0xbe547737	-0.20748602
46	0x3e6b2733	0.22964172
47	0xbea68e2a	-0.32530338
48	0x3dcd95ac	0.10038313
49	0xbe2a0955	-0.16605122
50	0x3e89d14c	0.26917493
51	0xba0f24c7	-0.00054604973
52	0xbd90aa99	-0.07063789
53	0x3bdace0f	0.006677396
54	0xbe21520e	-0.15753958
55	0x3e838b1a	0.25692064
56	0x3de4b02e	0.11166416
57	0xbf299da1	-0.6625615
58	0xbe1848c4	-0.14871508
59	0x3df89bdc	0.12139103
60	0x3dddaebe	0.10824345
61	0xbe7cacfd	-0.24675365
62	0x3c3b71ff	0.011440753
63	0x3d6a67f2	0.057228036

critic.4.weight f4 [1, 64]
0	0xc082b626	-4.084735
1	0x40685ac8	3.6305408
2	0x4077d54f	3.8723943
3	0xc09e7268	-4.9514656
4	0x40a585fd	5.172606
5	0x4053cf5d	3.3095315
6	0xc03d5410	-2.9582558
7	0x404742b1	3.1134455
8	0xc06f270d	-3.7367585
9	0x40643849	3.5659354
10	0xc05dabda	-3.463614
11	0x404433f9	3.0656722
12	0x40552880	3.330597
13	0x404b24ab	3.174113
14	0x40a15642	5.0417795
15	0xc058a99b	-3.385352
16	0xc05fa86e	-3.4946551
17	0x407a07c0	3.906723
18	0xc043ddb1	-3.060406
19	0x40a82851	5.2549214
20	0xc051d5af	-3.2786672
21	0xc03c06fa	-2.9379258
22	0xc05c181e	-3.438972
23	0xc050e969	-3.2642462
24	0x40754ac4	3.8326883
25	0xc0a40c21	-5.1264806
26	0x404d023c	3.2032614
27	0x40654936	3.5825934
28	0x4053eca3	3.3113182
29	0xc0343b56	-2.8161216
30	0x40758909	3.836489
31	0x406652f3	3.5988128
32	0x409fbcaa	4.9917803
33	0x406a852d	3.6643784
34	0x40469c6e	3.1032977
35	0x40557600	3.3353271
36	0x40809e5a	4.01933
37	0x408a21bd	4.3166184
38	0x40a5c97d	5.1808457
39	0x405f5a85	3.4898999
40	0x40baa469	5.8325696
41	0xc04c9d0d	-3.1970856
42	0x407ab9ac	3.9175825
43	0x409b534d	4.8539186
44	0x40505a49	3.2555106
45	0x4084e340	4.1527405
46	0xc0940e3e	-4.6267385
47	0x409bdfcc	4.871069
48	0x40557f7f	3.3359067
49	0x40a07939	5.0147977
50	0x405834ed	3.3782303
51	0xc0594aab	-3.3951824
52	0x407746cf	3.8636968
53	0x4081a16d	4.0509553
54	0xc06ec6f9	-3.7308943
55	0xc0a9002a	-5.28127
56	0xc0663538	-3.5969982
57	0xc03c737d	-2.9445488
58	0x408c84f1	4.391228
59	0x404aaa21	3.1666338
60	0x405fb7e9	3.4956
61	0x409b59f6	4.8547316
62	0xc05c6a66	-3.443994
63	0xc08d94a5	-4.424395

actor_mean.0.weight f4 [64, 27]
0	0xbdd4f815	-0.103988804
1	0xbeaa8cc8	-0.33310533
2	0x3e0b8f9b	0.13629
3	0xbec6bb8d	-0.38814965
4	0xbcb6fab3	-0.02233634
5	0xbea21cf0	-0.31662703
6	0x3e0be82b	0.13662784
7	0x3e971d89	0.2951472
8	0xbd2bdf9a	-0.04196129
9	0x3e147e75	0.14501365
10	0x3e6098d8	0.21933305
11	0x3ef75d2a	0.48313266
12	0xbb1e5eaa	-0.002416531
13	0xbd3d2b1b	-0.046183687
14	0xbdbde19a	-0.09271546
15	0xbef38b2f	-0.47567126
16	0x3f0aa674	0.5416024
17	0xbe101a74	-0.14072591
18	0x3d8fd7d7	0.0702359
19	0xbd4e385f	-0.05034673
20	0x3e6c4753	0.23074083
21	0x3e577546	0.2104083
22	0xbdb5b772	-0.0887288
23	0x3ed84dc7	0.4224684
24	0x3d1518bd	0.036400545
25	0x3b1c8e21	0.0023888426
26	0xbdea15bf	-0.11429929
27	0xbeb38a23	-0.35066327
28	0xbdb2eec1	-0.08736945
29	0x3e34aa3a	0.17643061
30	0x3ede95f8	0.43473792
31	0xbe8f83e5	-0.28030315
32	0x3dea5834	0.11442605
33	0x3e4b6f86	0.19866762
34	0xbd082a3d	-0.033243407
35	0x3d6f54a9	0.058430348
36	0x3b41f67b	0.0029596377
37	0xbe868249	-0.26271275
38	0x3e56cacd	0.209758
39	0x3dc9a0b1	0.098451026
40	0xbe075e41	-0.13219549
41	0xbe363829	-0.17794861
42	0xbd03b233	-0.032152366
43	0x3ece1efe	0.4025802
44	0x3e8dff5b	0.27733883
45	0xbeb54f2f	-0.35411975
46	0xbbbe147d	-0.0058007822
47	0x3a68813a	0.0008869354
48	0xbcda6c95	-0.026663104
49	0xbe70e5ff	-0.23525237
50	0xbdfa107d	-0.12210176
51	0x3e920498	0.2851913
52	0xbe39017c	-0.18066972
53	0xbec6eb19	-0.3885124
54	0xbe8c0d57	-0.27353927
55	0x3dc62566	0.09675102
56	0x3ed9d8d8	0.4254825
57	0xbb5897df	-0.0033049507
58	0x3db4c855	0.08827273
59	0x3e4c726e	0.19965526
60	0xbc96107a	-0.018318404
61	0x3e5cdc49	0.21568407
62	0xbcfff5bb	-0.031245103
63	0xbf0f95e2	-0.5608808
64	0x3d3727c2	0.04471565
65	0x3e6f4d03	0.23369221
66	0xbb7a95e1	-0.0038236307
67	0x3d7b6c46	0.061382554
68	0xbe9165b7	-0.28397915
69	0x3df0f08c	0.11764631
70	0x3dca69b4	0.098834425
71	0xbecef0b8	-0.4041803
72	0xbe8a5996	-0.27021474
73	0xbd699902	-0.057030685
74	0xbecb75dc	-0.39738357
75	0x3dd9757f	0.10618114
76	0x3da6a0eb	0.081361614
77	0xbf09ba62	-0.5380002
78	0x3e8c3770	0.27386045
79	0x3de3c7bd	0.111220814
80	0x3d898490	0.067147374
81	0x3e5bb693	0.21456365
82	0x3ea1eaa4	0.3162433
83	0x3eb810b8	0.35950255
84	0xbe17bb01	-0.1481743
85	0xbc4215c6	-0.0118460115
86	0x3ecec09b	0.4038132
87	0x3e8eefda	0.27917367
88	0x3f00da91	0.50333506
89	0x3e7c2d4a	0.24626651
90	0x3e823b40	0.2543583
91	0xbe84b6e4	-0.25920784
92	0xbe4ae08d	-0.19812222
93	0x3e85f127	0.26160547
94	0xbe0d81ec	-0.13819093
95	0xbe9b89eb	-0.3037866
96	0xbe2294e4	-0.1587711
97	0xbeeaa03c	-0.45825374
98	0xbe88f4e4	-0.26749337
99	0xbe16c8eb	-0.14725082
100	0xbd22f7c0	-0.039787054
101	0x3ea8edda	0.32993966
102	0x3d615d7a	0.055020787
103	0x3ecb760f	0.3973851
104	0x3ea29b95	0.31759325
105	0xbea672f5	-0.3250958
106	0xbe837173	-0.25672492
107	0xbe0ae4a5	-0.13563783
108	0x3e5d6920	0.21622133
109	0x3ea70bdd	0.32626238
110	0xbebf84fe	-0.37406152
111	0xbdc30500	-0.09522438
112	0x3e3f06bc	0.18654913
113	0xbe1d395d	-0.15353914
114	0xbe31e617	-0.17372929
115	0x3df2acb6	0.11849348
116	0x3e48e495	0.19618447
117	0xbe49d9dc	-0.19712013
118	0xbe3ab5a5	-0.18233354
119	0x3e0c0f73	0.13677768
120	0xbdfac25e	-0.12244104
121	0x3e225478	0.15852535
122	0xbe410960	-0.18851233
123	0xbdcd9c13	-0.100395344
124	0xbda9c199	-0.08288879
125	0xbe21b6e8	-0.1579243
126	0xbd72d46b	-0.05928461
127	0xbea79575	-0.32731214
128	0x3eee2e20	0.46519566
129	0x3dc94d9a	0.098292544
130	0x3c0c210a	0.008552799
131	0x3d4f4ba9	0.050609265
132	0x3de4d47b	0.1117334
133	0x3ef024e4	0.46903145
134	0x3e6f5189	0.23370947
135	0x3ed9b15b	0.42518124
136	0xbe1f0dae	-0.15532562
137	0x3f024f6e	0.5090245
138	0x3f2aecf7	0.6676783
139	0xbe9de22a	-0.30836612
140	0x3e8b8377	0.27248737
141	0x3f0b896d	0.5450657
142	0x3d248073	0.04016156
143	0xbeee4e4d	-0.46544114
144	0xbea0e7e6	-0.31426924
145	0xbe241ee9	-0.16027416
146	0x3dc05c8e	0.093926534
147	0x3eb0cc40	0.3453083
148	0xbe461c14	-0.19346648
149	0xbdd968c2	-0.10615684
150	0x3e56e088	0.2098409
151	0x3ecaad60	0.395854
152	0x3e0c3517	0.13692127
153	0x3d78d06e	0.06074565
154	0xbda79ed5	-0.08184592
155	0x3e293ad8	0.16526353
156	0x3d8c6537	0.06855243
157	0x3e43890d	0.1909525
158	0x3c8c98d1	0.017162712
159	0xbb3dcc2a	-0.0028960803
160	0x3ad22916	0.0016033973
161	0xbe7fea75	-0.24991782
162	0xbbeff631	-0.0073230495
163	0xbe0fced7	-0.14043747
164	0x3eac1e33	0.3361679
165	0x3e640a3b	0.22269528
166	0xbed9efa1	-0.42565635
167	0x3da68ee1	0.08132721
168	0xbde81c45	-0.11333517
169	0x3d8efb6c	0.06981549
170	0x3eef7607	0.46769735
171	0xbc3b808a	-0.01144422
172	0xbe4c2242	-0.19934943
173	0xbe01764b	-0.12642781
174	0xbdbde88e	-0.09272872
175	0x3eb5f4e3	0.35538396
176	0x3e720dac	0.23638028
177	0xbe520b9c	-0.20512241
178	0xbdbe554b	-0.09293612
179	0xbd8a777f	-0.06761073
180	0xbec1795c	-0.37787902
181	0xbe5caaa9	-0.21549477
182	0xbe6e0a75	-0.23246177
183	0x3ebc8c14	0.3682562
184	0x3db63384	0.088965446
185	0xbbabee12	-0.005246886
186	0xbee91685	-0.45524994
187	0x3e79ca80	0.24393654
188	0xbdc5df4e	-0.096617326
189	0xbeb86eb1	-0.3602195
190	0x3ec50bb0	0.3848548
191	0xbcf6a15f	-0.030106245
192	0xbc92bbea	-0.01791187
193	0x3e272a49	0.16324724
194	0xbe9ad7e2	-0.3024283
195	0x3e1e60f4	0.15466672
196	0x3e0d2e84	0.13787276
197	0x3db105d1	0.086436875
198	0xbdda4e73	-0.10659494
199	0x3b925c54	0.004466573
200	0xbe225e3c	-0.1585626
201	0xbeb97152	-0.3621927
202	0xbe5f6c08	-0.21818554
203	0x3d161437	0.036640372
204	0x3da5c8c2	0.08094932
205	0xbf1be7fc	-0.60900855
206	0x3ee65b78	0.4499166
207	0x3e935b77	0.2878072
208	0xbec25f13	-0.3796316
209	0xbde7fe62	-0.113278165
210	0xbc9654d0	-0.018350989
211	0x3eb3f033	0.35144195
212	0x3cccc6b9	0.024997102
213	0xbdc3eb18	-0.09566325
214	0x3de8b552	0.11362709
215	0x3e093771	0.13400055
216	0x3d41fc52	0.047359772
217	0xbe45eca9	-0.1932856
218	0x3eba8853	0.36432132
219	0xbd2318ce	-0.039818577
220	0xbdd990b2	-0.106233016
221	0x3f22c379	0.6357952
222	0x3e211718	0.15731466
223	0xbe53cea3	-0.20684294
224	0xbec20b6d	-0.37899342
225	0x3e3b66ad	0.18300886
226	0xbde28481	-0.11060429
227	0xbe0cdeeb	-0.13756911
228	0x3d988b4c	0.07448444
229	0x3e63dcc2	0.22252181
230	0xbd1dba7a	-0.038507916
231	0xbea979ad	-0.33100644
232	0x3e09643c	0.13417143
233	0x3f192400	0.59820557
234	0xbe4f4c3a	-0.20243922
235	0x3ebdc47e	0.37063974
236	0x3eb076a4	0.34465516
237	0xbe183817	-0.14865147
238	0xbebeaef8	-0.37242866
239	0xbe2185c5	-0.15773685
240	0xbe7dfe58	-0.24804056
241	0xbca6e1ec	-0.0203714
242	0xba94297f	-0.0011303871
243	0xbe0fae5b	-0.14031355
244	0xbdfb703c	-0.122772664
245	0x3e5793fb	0.21052544
246	0x3f0727bc	0.52795005
247	0xbe55aedd	-0.20867486
248	0xbe8c2003	-0.27368173
249	0x3ec06d0d	0.375832
250	0xbe29a637	-0.16567312
251	0x3d4e9a28	0.050439984
252	0xbe2d41ba	-0.16919604
253	0x3d339909	0.043847118
254	0xbf47bb91	-0.7802058
255	0xbb34705a	-0.0027532787

actor_mean.0.bias f4 [64]
0	0xbe42e76c	-0.19033593
1	0x3e15f306	0.14643487
2	0xbdf235d0	-0.1182667
3	0x3e75a606	0.23989114
4	0x3d6cf272	0.0578484
5	0x3e77b473	0.2418993
6	0xbe828544	-0.254923
7	0xbe0da98a	-0.13834205
8	0x3ca31a01	0.01990986
9	0x3d970f19	0.073759265
10	0x3cf441c5	0.029816518
11	0x3db13d82	0.0865431
12	0x3ccbcc99	0.024877833
13	0x3bf3cc1b	0.0074401028
14	0x3d25afa3	0.040450703
15	0xbd533ef3	-0.051573705
16	0xbe9ef8fa	-0.3104933
17	0x3e68a158	0.22717798
18	0xbcb30625	-0.021853516
19	0x3e020f30	0.12701106
20	0x3e1927dd	0.14956613
21	0xbd87a047	-0.06622367
22	0x3e18c175	0.14917548
23	0x3d8e7b57	0.06957119
24	0x3dd8e54d	0.10590611
25	0xbe037af3	-0.1283987
26	0x3e33dbe9	0.17564358
27	0xbe99d517	-0.30045387
28	0x3d24f907	0.040276553
29	0xbdc4604e	-0.09588681
30	0xbe8b2498	-0.27176356
31	0xbe122037	-0.14270101
32	0xbe49b85a	-0.19699231
33	0x3e377f06	0.1791955
34	0x3d4e912e	0.050431423
35	0xbe689fdf	-0.22717236
36	0x3e682f0e	0.226742
37	0x3ded8100	0.115968704
38	0x3e26da7d	0.16294284
39	0x3e55ccbe	0.20878884
40	0xbd929802	-0.071578994
41	0xbe4c8f31	-0.19976498
42	0xbd109b3a	-0.035304286
43	0x3d2247a4	0.039619103
44	0xbe4c2a90	-0.19938111
45	0x3d923387	0.07138734
46	0x3e84f315	0.25966707
47	0xbe3d7dd7	-0.18505035
48	0xbdbb95f2	-0.09159459
49	0x3d6b0448	0.05737713
50	0xbcd261d8	-0.025681421
51	0x3e6d31a0	0.23163462
52	0x3d248626	0.040166996
53	0xbe3868e7	-0.18008767
54	0xbe154fd4	-0.14581233
55	0xbe4c611f	-0.19958924
56	0xbd6daddc	-0.058027133
57	0x3d045326	0.03230586
58	0xbe089db7	-0.13341413
59	0xbe40695d	-0.18790193
60	0x3cd40461	0.025880994
61	0x3e0c7900	0.13718033
62	0x3bb3f5dc	0.005491955
63	0xbe35dcc5	-0.17759998

actor_mean.2.weight f4 [64, 64]
0	0xbee570fb	-0.4481276
1	0x3e19288c	0.14956874
2	0x3d32aa2f	0.04361933
3	0xbd705991	-0.058679167
4	0x3e843a21	0.258256
5	0xbe23dca0	-0.1600213
6	0x3d65ab1e	0.056071393
7	0x3e6f65c8	0.2337867
8	0x3ca79e0a	0.020461101
9	0xbe128bc3	-0.14311127
10	0x3d961905	0.07328991
11	0xbe667b7c	-0.22508043
12	0x3d74ec4e	0.05979567
13	0xbc9303f5	-0.017946223
14	0x3d5e625d	0.054293025
15	0x3e5e4393	0.21705465
16	0x3e8a590e	0.27021068
17	0xbede4839	-0.43414477
18	0xbdd14980	-0.10219097
19	0xbe4fa82c	-0.20278996
20	0xbd7a3117	-0.061081972
21	0x3e9a0999	0.30085447
22	0xbd94324f	-0.07236158
23	0xbe13c2ef	-0.1442983
24	0xbd9d4806	-0.07679753
25	0x3e80f356	0.2518565
26	0x3e178a8a	0.14798942
27	0x3da00990	0.07814324
28	0x3e0787cc	0.13235396
29	0xbcc0d585	-0.023539314
30	0xbdbdcdd2	-0.09267773
31	0x3dd20bc3	0.102561496
32	0xbe4dbbd8	-0.20091188
33	0x3e458009	0.19287123
34	0xbeaad6ea	-0.3336709
35	0x3bf12d8c	0.007360166
36	0x3e51156b	0.20418327
37	0x3e35ae55	0.17742284
38	0x3e7b8978	0.24564159
39	0x3db5a44b	0.08869227
40	0xbda8874f	-0.08228933
41	0xbe7050c5	-0.23468311
42	0x3f29b4ff	0.66291803
43	0xbe99f842	-0.30072218
44	0x3ee3abd1	0.44467023
45	0xbe5cdb28	-0.21567976
46	0x3e98fa53	0.29878482
47	0xbe982ae3	-0.2972022
48	0x3e0df2a7	0.13862096
49	0x3e41bdea	0.18920103
50	0xbf0203c9	-0.50787026
51	0x3ec8d821	0.39227393
52	0xbdcf4e8f	-0.10122406
53	0xbef5d697	-0.48015282
54	0xbe7b5f81	-0.2454815
55	0xbd7d11a5	-0.061784405
56	0x3e7e9476	0.24861321
57	0x3e9be6a9	0.30449417
58	0x3d9d7f47	0.07690292
59	0xbdd5021d	-0.10400794
60	0xbed283da	-0.4111622
61	0xbeb12629	-0.34599426
62	0xbbf17ecb	-0.007369851
63	0xbea81da1	-0.32835105
64	0xbeabf557	-0.33585617
65	0xbe2317b2	-0.15927008
66	0x3e27d0eb	0.1638829
67	0x3e25140d	0.1612093
68	0x3e803069	0.25036934
69	0x3e4d5eee	0.20055744
70	0x3de9e25b	0.11420127
71	0xbdc6a383	-0.09699156
72	0x3e63b7a5	0.22238024
73	0xbe91eee1	-0.28502563
74	0xbcd44cdf	-0.025915561
75	0x3d23f7b3	0.040031146
76	0x3e3c3be3	0.1838222
77	0x3e643228	0.22284758
78	0x3ed07bdb	0.40719494
79	0x3efbedd6	0.49204892
80	0xbee66435	-0.44998327
81	0x39c88944	0.00038249244
82	0xbdf66960	-0.120318174
83	0x3f0bb2c5	0.54569656
84	0xbee0bc86	-0.43893832
85	0xbc2b40e6	-0.010452485
86	0x3d213e27	0.039365914
87	0xbd73da1c	-0.059534177
88	0x3d6a5a02	0.057214744
89	0xbd850298	-0.06494635
90	0xbddfca2d	-0.10927234
91	0xbe64a63d	-0.2232904
92	0xbe0994a5	-0.1343561
93	0xbdc6cef9	-0.09707446
94	0x3e328bbc	0.17436117
95	0x3d7a16af	0.06105679
96	0xbd0899b6	-0.033349715
97	0xbe3995be	-0.18123528
98	0xbf13c5b6	-0.5772356
99	0xbe9a08d2	-0.30084854
100	0x3e817446	0.25284022
101	0xbcdc0e94	-0.02686242
102	0x3e32b090	0.17450166
103	0x3c3f24c6	0.011666482
104	0x3e47fb85	0.19529541
105	0xbdc34b30	-0.09535825
106	0xbe3ca87b	-0.18423645
107	0x3e2aa25d	0.16663499
108	0x3e14250b	0.14467256
109	0x3e3b3a67	0.18283997
110	0x3ec1bac3	0.378378
111	0xbedf11ad	-0.43568173
112	0xbe8c5d83	-0.27415094
113	0x3e8f3559	0.2797039
114	0x3f15b236	0.58475053
115	0xbe248730	-0.16067195
116	0x3dc1a76d	0.09455762
117	0x3e82e1f3	0.2556301
118	0x3e82dc97	0.25558922
119	0xbdad24b4	-0.08454266
120	0x3e44ec2a	0.19230714
121	0xbe6fafe2	-0.23406938
122	0x3e147383	0.14497189
123	0x3e08bf3e	0.13354203
124	0x3dedfb82	0.11620237
125	0x3e045133	0.129216
126	0x3db4b0a5	0.08822755
127	0xbf30a9a0	-0.6900883
128	0xbe0c3a13	-0.13694029
129	0x3e17345a	0.14766064
130	0x3e338b8d	0.17533703
131	0xbec36133	-0.38160095
132	0xbda26de6	-0.07931118
133	0xbc96ec69	-0.018423276
134	0xbe0c44f3	-0.13698177
135	0x3e09c36e	0.13453457
136	0xbe4e4104	-0.20141989
137	0x3e784d94	0.24248344
138	0xbedbb2bd	-0.42909804
139	0xbcab36a3	-0.020900076
140	0x3ea4d482	0.3219338
141	0xbe5b8a65	-0.21439512
142	0x3cc93512	0.024561439
143	0xbeadd7ef	-0.33953807
144	0x3e97b6cc	0.2963165
145	0x3ed41b10	0.41426897
146	0xbde1e2a8	-0.110295594
147	0x3d84a73d	0.06477211
148	0x3d3db7ff	0.04631805
149	0xbc7b7299	-0.015347146
150	0xbe2d8e8d	-0.1694891
151	0xbed334fa	-0.41251355
152	0xbd9f2144	-0.07770017
153	0xbf0a6b4a	-0.5406996
154	0xbed97f27	-0.42479822
155	0x3ebcd285	0.36879364
156	0x3c0bae56	0.008525452
157	0x3f0dd7bf	0.5540733
158	0xbd34c4a1	-0.044132832
159	0x3eaddde4	0.33958352
160	0x3edfb0a5	0.43689457
161	0xbe71b4de	-0.23604152
162	0xbe33e11b	-0.1756634
163	0xbd7e0db1	-0.062024776
164	0x3e932e83	0.28746423
165	0xbda80bef	-0.08205401
166	0xbcb4194c	-0.021984719
167	0xbe4189fb	-0.18900292
168	0x3e8cc051	0.27490476
169	0x3dec70e2	0.11544968
170	0x3e2857f5	0.16439803
171	0xbe06567a	-0.13118926
172	0xbcc2dedb	-0.023787906
173	0xbce2b6ef	-0.02767512
174	0x3e3eb8e5	0.18625219
175	0x3d08a644	0.03336169
176	0x3d6a1f01	0.057158474
177	0x3ed04a90	0.40681887
178	0xbbcaddb3	-0.0061909794
179	0x3e250bb7	0.1611775
180	0xbe17f0f0	-0.14838004
181	0xbe52a87a	-0.20572081
182	0xbe4c4335	-0.19947512
183	0xbe1762e3	-0.14783816
184	0x3e6ebf3d	0.23315139
185	0xbcddfa95	-0.027097026
186	0xbdb6bc22	-0.08922602
187	0xbd892de7	-0.06698208
188	0x3e7bfe4c	0.24608725
189	0x3e43d7d3	0.19125299
190	0x3db48929	0.08815224
191	0x3ec86889	0.39142254
192	0x3e84c918	0.25934672
193	0xbe2ee4ad	-0.1707942
194	0xbedc53ce	-0.43032688
195	0x3dc44022	0.09582545
196	0x3eb8af3d	0.36071196
197	0xbdf753ae	-0.120765075
198	0x3de9c496	0.11414449
199	0x3df2b009	0.11849982
200	0x3e0600d8	0.1308626
201	0x3d57b3e4	0.05266179
202	0xbec11323	-0.37709913
203	0xbe81994a	-0.25312263
204	0x3e5c1bfa	0.21495047
205	0xbe261301	-0.16218187
206	0xbd99efb7	-0.07516425
207	0xbe244fcc	-0.16046065
208	0xbdf5db6f	-0.12004744
209	0xbe604157	-0.21899925
210	0x3e572c78	0.21013057
211	0xbecdb4dd	-0.4017705
212	0x3e0e812d	0.13916464
213	0xbe04ccde	-0.12968776
214	0xbd9d9011	-0.07693494
215	0xbe4eb17f	-0.20184897
216	0xbf00bae2	-0.5028516
217	0x3d08287f	0.033241745
218	0x3b27be94	0.002559577
219	0x3d1c0516	0.038090788
220	0xbecdac4d	-0.40170518
221	0xbed7ece9	-0.42172936
222	0xbeb5f5e3	-0.3553916
223	0xbd2ae625	-0.04172339
224	0xbe1d04d0	-0.15333867
225	0xbe08d5a1	-0.13362743
226	0x3ed9361d	0.42424098
227	0x3dd64c30	0.1046375
228	0xbe178869	-0.1479813
229	0x3e4d33da	0.20039311
230	0xbdfe8414	-0.12427536
231	0xbd160291	-0.03662354
232	0x3d86089b	0.0654461
233	0x3a3a5428	0.0007107877
234	0xbec708d5	-0.38873926
235	0xbc2f89f0	-0.010714039
236	0x3f1c5c55	0.6107839
237	0xbe92fd51	-0.2870889
238	0x3e156249	0.14588274
239	0xbe66ff9b	-0.22558443
240	0x3d8ad1d4	0.06778303
241	0xbea2b441	-0.31778148
242	0xbe4ca83b	-0.1998605
243	0xbe0ad490	-0.13557649
244	0xbe47ca83	-0.19510846
245	0x3efdbedf	0.49559686
246	0x3e89b133	0.26893005
247	0xbc953b15	-0.01821665
248	0x3dd989b5	0.10621969
249	0x3ea6157d	0.3243827
250	0xbe5a3e00	-0.21312714
251	0x3a74879d	0.0009328069
252	0xbdbc3ebe	-0.091916546
253	0x3e293c5d	0.16526933
254	0xbe4ec92b	-0.20193927
255	0x3c44bb3f	0.012007534

actor_mean.2.bias f4 [64]
0	0xbd73e6d9	-0.059546325
1	0x3dd97771	0.10618485
2	0x3c84d578	0.016215071
3	0xbd666002	-0.056243904
4	0xbbec2399	-0.007206392
5	0xbdc590e7	-0.096467786
6	0xbe6b54ab	-0.22981517
7	0xbda251ff	-0.07925796
8	0x3ce04a14	0.027379073
9	0xbd16d236	-0.036821567
10	0x3dc76cef	0.09737574
11	0x3e03908d	0.1284811
12	0xbe589ec2	-0.21154311
13	0x3b06f0ed	0.002059038
14	0x3e5bc01e	0.21460006
15	0x3ea31de9	0.31858757
16	0x3dcbc5f8	0.09949869
17	0xbd55d3fa	-0.05220411
18	0x3ebfa707	0.3743212
19	0xbe410152	-0.1884816
20	0xbe2c3549	-0.16817202
21	0xbdc6890b	-0.096941076
22	0x3ccc7679	0.024958836
23	0x3d624c89	0.05524877
24	0xbdadbd58	-0.0848338
25	0x3d70e7fe	0.058814995
26	0x3d078a1f	0.033090707
27	0xbdaabdd4	-0.08336988
28	0xbe0da605	-0.13832863
29	0x3dce63e3	0.10077646
30	0x3d43d420	0.04780972
31	0x3bb7b1b3	0.0056059
32	0xbcc7e000	-0.024398804
33	0x3dda346b	0.10654529
34	0x3e099a85	0.13437851
35	0x3cd92993	0.026509082
36	0x3c3effeb	0.011657695
37	0xbe1479e7	-0.14499627
38	0x3d583ddb	0.052793365
39	0x3ba26131	0.004955434
40	0xbe5fb650	-0.2184689
41	0x3c8eebf8	0.017446503
42	0x3e74e8f4	0.2391699
43	0xbcc9c0b6	-0.024628025
44	0x3e304f5d	0.17217775
45	0x3e2aa5d1	0.16664816
46	0xbe478ddc	-0.19487709
47	0x3cee4df8	0.029089913
48	0x3e4ecca0	0.20195246
49	0x3de18b52	0.11012901
50	0x3d441e98	0.04788074
51	0x3d77a9d3	0.06046469
52	0x3e46c308	0.19410336
53	0x3e71be57	0.23607765
54	0x3e057ca3	0.13035826
55	0x3e870fa2	0.26379114
56	0xbd23c80c	-0.0399857
57	0xbadee0d1	-0.0017004256
58	0xbd0d5927	-0.03450885
59	0xbe83ca37	-0.25740215
60	0xbdd9b8ee	-0.10630976
61	0x3e13eb4a	0.14445224
62	0x3e15e419	0.14637794
63	0x3db323a7	0.087470345

actor_mean.4.weight f4 [8, 64]
0	0x3d6f71f0	0.05845827
1	0xbce9d626	-0.028544497
2	0x3cdda31d	0.027055318
3	0xbccb64f9	-0.024828421
4	0x3d88f5b7	0.066874914
5	0xbd4cd484	-0.05000736
6	0x3c59d5c1	0.013295592
7	0x3d8206cc	0.06348953
8	0x3d0d7c02	0.03454209
9	0xbc50a70b	-0.012735139
10	0xbc6ae752	-0.014337378
11	0xbd4e01cf	-0.050294694
12	0xbd772cad	-0.06034534
13	0xb98a8af0	-0.00026424928
14	0xbc83958c	-0.01606252
15	0xbcc42e5c	-0.023947887
16	0xbc93f40f	-0.018060712
17	0xbd1a77cb	-0.0377119
18	0xbd9bbf05	-0.076047935
19	0x3e00233c	0.12513441
20	0x3c91d551	0.017801913
21	0xbba47d7b	-0.0050198413
22	0xbc1a909c	-0.009433892
23	0xbc63547c	-0.013875123
24	0x3b88f68d	0.004179782
25	0x3d17edaf	0.037091907
26	0x3bd176a5	0.0063923174
27	0xbc9bc4b6	-0.019014698
28	0x3dae1047	0.084991984
29	0x3cd8acba	0.02644955
30	0x3d1d46ee	0.038397722
31	0xbc84d07b	-0.016212692
32	0xbce12ea7	-0.027488066
33	0xbd08a67e	-0.033361904
34	0x3d1b6f3e	0.037947886
35	0x3dc48615	0.095958866
36	0x3cb6d383	0.022317654
37	0x3dbdedc8	0.09273869
38	0x3c4d5718	0.012532972
39	0x3cc9103d	0.024543876
40	0xbc3dbb33	-0.011580276
41	0x3dc4cb56	0.09609096
42	0x3caafe6f	0.020873277
43	0x3dccfa4a	0.10008676
44	0xbd12e67a	-0.03586433
45	0xbb1d6260	-0.0024014935
46	0x3d786b7c	0.06064938
47	0x3d386048	0.045013696
48	0xbc788451	-0.015168265
49	0xbd15cb0f	-0.036570605
50	0xbc9940c4	-0.01870764
51	0x3d864062	0.06555249
52	0x3d436169	0.04770032
53	0x3d89f8b5	0.0673689
54	0xbd4e7d63	-0.050412547
55	0xbd5fb8e8	-0.0546197
56	0xbc17ccff	-0.0092651835
57	0x3d5311c3	0.05153061
58	0xbc39a683	-0.011331203
59	0x3d65cb7a	0.056102253
60	0x3dd95ed7	0.106137924
61	0xbbe819a1	-0.0070831333
62	0x3d027883	0.03185321
63	0xbb97efc2	-0.0046367357
64	0x3d925dc7	0.07146793
65	0x3cdc0026	0.02685554
66	0xbcbad32f	-0.022805778
67	0xbd48ca0c	-0.049020812
68	0xbbddb246	-0.0067656366
69	0x3e21b359	0.15791072
70	0x3d417ed0	0.04724008
71	0x3b01c2ec	0.001980002
72	0x3de0fc83	0.10985663
73	0xbd4a5ed8	-0.049406856
74	0x3c4111e2	0.011784049
75	0xbce8e0ba	-0.02842747
76	0xbe316e5f	-0.1732726
77	0x3e2d4ccb	0.16923825
78	0xbda42fc2	-0.080169216
79	0xbd9a6d74	-0.07540408
80	0xbb39161f	-0.0028241945
81	0xbd8f9793	-0.07011332
82	0x3d56edb2	0.052472778
83	0xbd328220	-0.043581128
84	0x3d26750a	0.04063896
85	0x3d0b3119	0.03398237
86	0x3db6b6cc	0.089215845
87	0xbd2470ef	-0.040146764
88	0xbd306775	-0.043067414
89	0xbdb39b65	-0.087698735
90	0x3db158c2	0.08659507
91	0x3d9bbd73	0.07604494
92	0x3d05390d	0.03252511
93	0x3c16f7d2	0.009214358
94	0x3d3f85d4	0.046758488
95	0x3dcf4989	0.101214476
96	0xbda57fe6	-0.08081035
97	0xbdf72c93	-0.12069049
98	0x3dddf085	0.10836891
99	0x3b22f3aa	0.0024864473
100	0xbbd349d4	-0.00644801
101	0xbd565a40	-0.052332163
102	0xbd02afdd	-0.031905998
103	0x3c3b4093	0.01142897
104	0xbd99f239	-0.075169034
105	0xbcb4bb36	-0.022061925
106	0x3d022393	0.031772207
107	0xbe038f15	-0.1284755
108	0xbc74cb9c	-0.014941122
109	0xbb69ed46	-0.0035694405
110	0xbd49a6f6	-0.049231492
111	0x3d823b6f	0.06358992
112	0xbd286221	-0.041109208
113	0xbe2967c7	-0.16543494
114	0xbcd4fa8f	-0.025998382
115	0x3dc8c8a8	0.09803897
116	0xbe00aa42	-0.12564948
117	0xb96a7f03	-0.00022363295
118	0xbc8bcf06	-0.01706649
119	0x3d25c540	0.040471315
120	0x3d1ac05a	0.037781097
121	0xbdcb80f2	-0.09936704
122	0xbb1e4d10	-0.002415482
123	0x3d2cb719	0.042166803
124	0x3d956acf	0.07295763
125	0x3c710b8a	0.014712224
126	0x3c69d7da	0.014272654
127	0x3d8843a3	0.06653526
128	0xbb21da01	-0.002469659
129	0x3d6c1e48	0.057646066
130	0x3dd64a8a	0.10463436
131	0x3df82a3c	0.121174306
132	0xbd30bcee	-0.043148927
133	0x3dd3b1d3	0.10336652
134	0xbd928d4b	-0.07155856
135	0x3dbb3bbe	0.09142254
136	0xbd85d90c	-0.06535539
137	0xbcd170cf	-0.025566487
138	0xbd111f36	-0.035430156
139	0xbd5686e2	-0.052374728
140	0x3e0ff9c2	0.14060119
141	0x3d340d6d	0.043958116
142	0x3d57b03a	0.052658297
143	0xbd82c050	-0.06384337
144	0xbc0cfebb	-0.008605654
145	0x3b50cd49	0.003186064
146	0xbc4c7a66	-0.012480354
147	0xbd0bcec6	-0.03413274
148	0xbd211bad	-0.039333034
149	0xbd67cc8d	-0.05659156
150	0x3c79795d	0.015226689
151	0x3e140885	0.14456375
152	0x3d0dd59d	0.034627546
153	0x3d136854	0.035988167
154	0x3d9b0d68	0.075709164
155	0xbdaa0f87	-0.08303743
156	0xbcfaed2b	-0.030630669
157	0xbde1dc78	-0.11028379
158	0x3d9266a2	0.07148482
159	0xbc888340	-0.016664147
160	0xbe3430e1	-0.17596771
161	0xbe12ad82	-0.14324
162	0xbd545016	-0.05183419
163	0x3cff9caf	0.031202642
164	0x3aa42683	0.0012523684
165	0x3e19a5f7	0.15004717
166	0x3dac99d8	0.08427781
167	0xbd39c571	-0.04535431
168	0xbdc4f09c	-0.09616205
169	0x3d4064dc	0.046971187
170	0xbd832233	-0.06403007
171	0xbb21c1e1	-0.0024682211
172	0x3d337943	0.043816816
173	0x3d553a39	0.05205748
174	0xbd6a3373	-0.057177972
175	0xbd6bf292	-0.05760438
176	0x3de7f4c6	0.11325984
177	0xbbb64c20	-0.005563274
178	0xbd25d4cf	-0.040486153
179	0xbd52be21	-0.051450852
180	0x3c425da1	0.011863143
181	0xbc83e026	-0.016098093
182	0xbd2bd2f3	-0.041949224
183	0xbd79c192	-0.06097562
184	0xbdbc869c	-0.09205362
185	0xbb516857	-0.003195306
186	0xbcd852e9	-0.026406722
187	0xbae8d7f7	-0.0017764558
188	0x3ca5a13a	0.02021848
189	0x3d567fa8	0.052367836
190	0x3d09d513	0.03365047
191	0x3ba74fcc	0.005105948
192	0x3ce62a60	0.028096378
193	0xbd99eb01	-0.075155266
194	0x3d89df3d	0.067320324
195	0x3e230e45	0.15923412
196	0xbe306c7a	-0.1722888
197	0xbc893073	-0.016746735
198	0xbddaf9e5	-0.10692195
199	0xbd4e7589	-0.05040506
200	0xbd164344	-0.036685243
201	0xbcda6a91	-0.026662143
202	0x3d869590	0.065714955
203	0xbe06f42b	-0.1317908
204	0x3dc7d362	0.09757115
205	0x3d4183c9	0.04724482
206	0x3db754aa	0.08951695
207	0xbdd341f5	-0.10315315
208	0x3d587eee	0.052855425
209	0x3d234fb5	0.039870936
210	0xbd3cc104	-0.04608251
211	0x3c2aaaaf	0.010416671
212	0x3d02e773	0.03195901
213	0x3c340dda	0.010989631
214	0xbcc59f62	-0.024123851
215	0xbc123761	-0.008924336
216	0x3d127bc7	0.035762575
217	0xbb94ffb0	-0.004547082
218	0x3d056fd4	0.03257735
219	0x3d461b4c	0.048365876
220	0xbd0b9874	-0.034080938
221	0xbbd1fdbd	-0.006408422
222	0x3d82dea6	0.06390123
223	0xbc61f0e4	-0.013790343
224	0x3ae11d61	0.0017174893
225	0x3d87e599	0.06635589
226	0xbd7145fc	-0.058904633
227	0x3cd6dce0	0.026228368
228	0xbd8e5ab4	-0.06950894
229	0x3d320c2e	0.043468647
230	0x3dbef0df	0.09323286
231	0x3d2cef11	0.04222018
232	0xbdbc545c	-0.09195778
233	0x3d76e0a0	0.060272813
234	0xbc86d4b9	-0.016458856
235	0xbceb6770	-0.028735846
236	0x3d70209f	0.05862486
237	0x3ce0d309	0.02744438
238	0x3d5b0d89	0.053479705
239	0x3dbb13da	0.09134646
240	0x3c2828dc	0.010263648
241	0xbd420da3	-0.047376286
242	0x3cd0652c	0.025438868
243	0xbda3248b	-0.079659544
244	0x3ce21f55	0.02760283
245	0x3d56f858	0.052482933
246	0xbcb191fb	-0.021676054
247	0x3be5ce1d	0.007013096
248	0xbd56cb9c	-0.05244027
249	0x3bec9d9c	0.007220937
250	0x3cbeba02	0.023282055
251	0x3d30e630	0.043188274
252	0x3a48e66d	0.00076637306
253	0x3caf1929	0.021374302
254	0x3d032928	0.03202167
255	0x3b84e898	0.0040560476

actor_mean.4.bias f4 [8]
0	0xbda3aa05	-0.07991413
1	0xbd2e014b	-0.0424817
2	0x3e176874	0.1478594
3	0xbdbb7107	-0.09152418
4	0x3bab5050	0.00522808
5	0x3e1450fd	0.1448402
6	0xbc49b474	-0.01231109
7	0x3d9bc561	0.076060064
