DATA403_final/checkpoints/Ant-v4/PPO_5467.pt (torch, 54349 bytes, 12 tensors)

actor_logstd f4 [1, 8]
00000000: a27a b5bf 76bc b5bf df75 a1bf d0b8 e5bf
00000010: a3c7 abbf e4ab aec0 dff2 eebf fa48 e4bf
-1.417805 -1.4198139 -1.2614096 -1.7947025 -1.3420299 -5.4584827 -1.8667868 -1.7834771

critic.0.weight f4 [64, 27]
00000000: bc1c 11be 285b 99be b99c 1e3f c38d 2ec0
00000010: 3952 683e b235 00be ddfe 2ebe 9a2e 693d
00000020: 1878 0abe 2c34 0abe 799d db3e edd4 133d
00000030: e454 ccbd bff5 92be 744b 2b3e e182 ca3e
00000040: 06fa 043e dc20 86be e33b 4fbd 016b ddbb
00000050: b0f4 4dbd dea9 90bd 14bc ae3a 8a1f 3d3a
00000060: d77c ddbc c8ec 813b fd86 4d3c 9b1c 133e
00000070: 6dda b63f d9d8 f63d 1626 513f 9c21 623f
00000080: 407e dd3e 081d 2ebe e261 acbc aae6 6a3e
00000090: 684a b23e 35bb 083e cba3 5d3e 3e03 9b3d
000000a0: 6dee 893c 6708 f2bc 82e7 433e 4392 b13d
000000b0: 6d35 1c3d 903f bf3d 0997 013d d515 2a3b
000000c0: 352e 843c 4483 4e3c 9175 db3c 890f 493c
000000d0: 3da6 efb8 d4a7 bd3c 8abf b5be be13 e13e
000000e0: f1b0 0fbe 0a05 ba3d e5bd acbf 77d2 653e
000000f0: 4a0c 11be 4975 abbe 62ae 12bd dabb d3bd
00000100: 7717 2f3d bf7d 8abe 79b7 dbbe 8ce7 303d
00000110: d34a a3bc e708 e2bd 34c7 a33e a942 aebd
00000120: 5a25 fb3d 16ef ca3c b361 a2bc 912b 65bc
00000130: 2464 ed3c 23b6 46bb 17cb 8bbb c790 ea3c
00000140: 23c1 3c3d a1ec 90be 2ce7 d43e 0b70 60bf
00000150: a7c9 50bf 6f08 c03f b673 34be c41a 253e
00000160: 1e41 b1bd 2d9f 163e 26b4 363e 7fdb 74bc
00000170: 94a1 74be a81f 08bc a0d4 353b 9ce4 5bbd
00000180: 0ce7 8f3d e0c5 1dbd cabe 0fbe b499 9c3d
00000190: 2787 293c d4b7 7ebc 0c58 3b3c 72cb 8fbb
000001a0: 3914 073c e4eb 9fbc 8202 da3c 7d35 75bc
000001b0: f82f 4fbf 8de0 873e 0a60 d13f 1433 36bf
000001c0: dd72 a73f 5032 19bd 7731 d8bd d1b6 813c
000001d0: 980a 72bd 1a66 b5be 7bbc 91be 31c9 ea3e
000001e0: 2e34 13bd 4dbf a03d 7802 43be e747 42be
000001f0: e6f6 063e 95c9 97be f8d8 e83d abba 4fba
00000200: 0ce8 26bd 3a3a 623c 02cb 833b 6ea0 3b3c
00000210: 385b 23bd 334a 2a3d d36a 613b fab2 9ebe
00000220: 8b36 1dbe 58ce 793f 0620 99bf 34a5 bf3e
00000230: c5c7 c33e 63ef 88bf f06c 4c3d 2144 e13e
00000240: 4f85 913c 8cf9 c63e c41b a83d ec14 0ebe
00000250: 43fc 073e c37c 0e3e ebe9 e9be 41d5 203d
00000260: 55bc 34bd 93c9 60bd 0cdf 5d3d 8a6e 6cbd
00000270: 10c1 ee3c dacd b83d 75ba 5cbd 8abc 873d
00000280: e0eb 6bbd c69c 203d 0fad 903e 7002 f43e
00000290: 86c6 8c3e df98 4040 246e d43e 854f e2bc
000002a0: 800a 183e 0c5f 7a3d f58f bf3c 27ed 133e
000002b0: dc30 5dbd 193a c2bd 532e f93e 6bb4 853d
000002c0: 20f3 323e 0fa2 4fbe a65d 213d 8e36 5c3e
000002d0: da47 293e 2688 163d 7e65 f63c 2969 0a3d
000002e0: a725 193c 3111 2ebc dbbb d2bc 5118 6c3b
000002f0: 98b1 3f3d f4bc 39be 9619 733d e22b 393e
00000300: 1a23 933e e9d5 ccbd 67d2 533d 0f3e c23e
00000310: ff21 9ebe b22c 98bf 7b61 d33d e04e bebe
00000320: f610 b4be 8d34 bb3e 6353 25bc 61fe 01be
00000330: f576 8bbf 61ed 38be 00ce 67be 4ae9 94be
00000340: 9d22 44bd e4b9 4b3d c83c 4bbd cc12 86bd
00000350: cf62 5dbd e001 31bc 6074 3dbd 8729 d2bc
00000360: f046 bc3e 9952 d83e 511a 483f 0268 16c0
00000370: 8cfa 753f 59e3 9ebe 7b71 a63d 3613 d6bc
00000380: 5902 2bbe ad87 a03e e01c b1bd a11b cb3e
00000390: aa39 413d cbda f93c 7957 b8bd 8440 8b3d
000003a0: d5fc 8ebc cd73 c93d d0f6 24bd 73f4 20bc
000003b0: 4b42 8d3c 4188 1cbc 93f4 27bc 8968 25b9
000003c0: f1e2 803c adc9 833c a745 0f3d 7ab5 193f
000003d0: 9ff1 45bf 52e8 ef3c fe8f 9b3c 4c0b 653f
000003e0: 584e dc3e 25df 313e 6efa 3ebe 6abe 83bd
000003f0: 6dd2 a9be b431 58bd fc56 b3bd 0d49 503e
-0.14171118 -0.2995236 0.6195789 -2.7274024 0.22687615 -0.12520483 -0.1708941 0.05692921
-0.13522375 -0.13496464 0.4289358 0.036091734 -0.09977129 -0.28703114 0.16728002 0.39552978
0.12986001 -0.26196945 -0.05059422 -0.0067571406 -0.05028218 -0.070636496 0.0013331198 0.00072144775
-0.027037067 0.003964994 0.012544391 0.14366381 1.4285408 0.12053079 0.8169874 0.88332534
0.43260384 -0.17003262 -0.021042768 0.22939554 0.34822392 0.13352664 0.21644513 0.07568978
0.016837323 -0.029545022 0.19131282 0.08670475 0.03813689 0.093382955 0.03163818 0.0025952954
0.016135314 0.012604538 0.026789458 0.01227177 -0.000114273724 0.023151316 -0.35497695 0.43960375
-0.14032342 0.090829924 -1.3495451 0.22443567 -0.14164844 -0.3348792 -0.035810836 -0.10338564
0.042746987 -0.27049062 -0.42913416 0.04318957 -0.01993314 -0.11036854 0.31987917 -0.08508808
0.122629836 0.024772208 -0.019821977 -0.013987438 0.028978415 -0.0030320964 -0.0042661536 0.028633488
0.046082627 -0.28305534 0.4158262 -0.87670964 -0.815577 1.5002574 -0.17622265 0.16123492
-0.08654998 0.14709158 0.17842159 -0.01494491 -0.23889762 -0.008308329 0.0027745143 -0.053684816
0.070264906 -0.038518786 -0.14037624 0.07646504 0.010347164 -0.015546758 0.011434566 -0.0043882662
0.008244568 -0.019521661 0.026612524 -0.014966366 -0.8093257 0.26538506 1.6357434 -0.7117169
1.3081928 -0.037401497 -0.1055631 0.015834244 -0.059092134 -0.3542946 -0.28464112 0.45856622
-0.035938434 0.07848988 -0.1904391 -0.18972741 0.13180122 -0.29645982 0.113695085 -0.0007924239
-0.04074864 0.013807828 0.004022003 0.011451824 -0.039881915 0.04157467 0.0034395948 -0.30995923
-0.15352838 0.9758048 -1.1962898 0.37430727 0.3823835 -1.0698055 0.04990858 0.4399729
0.017763762 0.38862264 0.08208421 -0.13875169 0.13279824 0.1391478 -0.45686278 0.039265875
-0.04412492 -0.054879736 0.054167792 -0.057722606 0.029144794 0.09023638 -0.053888757 0.06627758
-0.057597995 0.03921201 0.28257033 0.4765811 0.2749521 3.0093305 0.4149028 -0.027625808
0.14847755 0.0611258 0.023384074 0.14445935 -0.054001674 -0.094837375 0.48668155 0.065285526
0.17475557 -0.20276664 0.03939595 0.21505186 0.16531315 0.036750935 0.030077692 0.033791695
0.009347356 -0.010624216 -0.025724342 0.0036025236 0.046800226 -0.18138486 0.059350573 0.18083146
0.28737718 -0.100017376 0.051714327 0.37937972 -0.30885312 -1.188864 0.10321327 -0.37169552
-0.3516919 0.3656353 -0.010090682 -0.12694694 -1.0895678 -0.18059303 -0.22637177 -0.29084235
-0.047884572 0.049737826 -0.049618512 -0.06546554 -0.05404931 -0.01080367 -0.046253562 -0.025654567
0.3677287 0.42250517 0.78165156 -2.3500981 0.9608543 -0.31032827 0.081271134 -0.026132207
-0.16700114 0.31353512 -0.086480856 0.39669517 0.047174133 0.030499836 -0.09001059 0.06799415
-0.017454544 0.0983654 -0.04027444 -0.009823906 0.017243525 -0.00955397 -0.010251182 -0.00015774569
0.015733214 0.016087377 0.034978535 0.60042536 -0.7732181 0.029285584 0.01898956 0.8947036
0.43028522 0.17370279 -0.18650219 -0.06432803 -0.33168355 -0.052781776 -0.08756825 0.20340367

critic.0.bias f4 [64]
00000000: fa8d dfbb 9996 60be 11ee 07bf 989c 21bf
00000010: 11e3 193e 0ffc 18bf b4e0 1f3e ba1f b03f
00000020: d8fa babe 0bba 4d3e 5662 f1be 717e c03e
00000030: 1cc0 823f 2250 9b3e 95a7 76be a2b7 37bf
00000040: af0e 49bf 2580 5abf 4e3c 8e3e 8dde 23be
00000050: 0d27 db3d 532c 0f3d e159 863e c5d4 3f3f
00000060: 6ffa a3bd e62b 16bf 55b5 103e 4574 a63e
00000070: 1e4d c33e f102 9a3f d2a4 d1be d0e4 3fbf
00000080: 4b7e 75bd d510 803d 945f 003e 3138 a3bf
00000090: dd0d a0be ed8e cd3d 6ab1 b23d 27cb 1b3f
000000a0: a002 dabe 8ad6 13bf 9d2a 9ebe 78a1 95bf
000000b0: c243 f23d 1997 43bf 7514 fb3e c3ec 0e3f
000000c0: 88b7 aabf eb56 8d3e c1da 38bf aefa 07be
000000d0: c521 68be 16bf 62be fa53 b93e c324 913e
000000e0: 3cb3 84bf dddc 94be 71ba 9a3e 6c9f e1bd
000000f0: 80f1 573f 10dc ef3e 12bf 183f 3cf9 6fbf
-0.006822345 -0.21932448 -0.53097636 -0.6312957 0.15028025 -0.5975961 0.15613061 1.3759682
-0.36519504 0.20090501 -0.47145337 0.37596467 1.0214877 0.30334574 -0.24087365 -0.71764576
-0.7853803 -0.85351783 0.27780384 -0.16002865 0.10700808 0.03495438 0.26240447 0.74934036
-0.08006751 -0.58660734 0.14131673 0.32510582 0.38144773 1.2032148 -0.4094606 -0.74958515
-0.059934895 0.062532105 0.1253646 -1.2751523 -0.31260577 0.100370266 0.08725245 0.6085686
-0.42580128 -0.57749236 -0.30891886 -1.1689901 0.1182933 -0.7640243 0.49039045 0.5583002
-1.3337259 0.27605376 -0.7220879 -0.1327922 -0.22669132 -0.22143206 0.36196882 0.2834836
-1.0367198 -0.29074755 0.30220369 -0.110167354 0.84352875 0.46847582 0.5966655 -0.93739676

critic.2.weight f4 [64, 64]
00000000: 609c 15be e1ef d3be 21a8 8e3d 560d a1be
00000010: b538 cdbe e563 cb3c e92e 773e 826d 73be
00000020: 8862 98be 4027 4dbd 911e be3e cf04 43be
00000030: df80 8cbe 6fe0 00be 50c5 b23e 2424 02bf
00000040: fc4a a53d 6d47 66be b7cf 9ebe 685e 64be
00000050: 345b 33bd 9e74 bebe 2470 af3e 88ad 13bc
00000060: e9ac 33be d01a 14be 7f5a 813e fa40 08bf
00000070: 4dc7 b33d 7d84 a1be d00b a33e 1e1b bd3e
00000080: 3754 863d 724b ebbe 7f4a c1be a198 7e3d
00000090: c7fa ffbe d5a0 88be f156 ad3e 35d8 913e
000000a0: 8c67 0b3f 7d07 00be 2e5a f5be 11f7 b13e
000000b0: 1a58 9dbc 4b74 94be 9616 c13d 4d03 293e
000000c0: cbba a93e c11a 85be c6d7 e0bd ef21 3bbe
000000d0: 10c8 73be 10fa 28be ff0d b6be 7960 32be
000000e0: bbaa 0f3f 9d32 05be 1cb6 3b3e 65c4 1ebe
000000f0: a6d9 0cbe 81c7 d8be 20c7 57be 8666 cb3e
00000100: e8dc 0cbf 3642 a93e 3d22 b23e fa63 65be
00000110: 8614 253e 5128 1ebe 23f0 5b3f 660d f43c
00000120: 10c5 c7be 4576 e33d a380 603e 1ab7 adbe
00000130: 9542 063e b64f 653e 0ce7 5abc 22c5 d0be
00000140: a4e4 28be 953c 06be c991 913e d26f ea3e
00000150: 0de2 83bd 1320 7abe 4ca0 033f 3beb b63d
00000160: 494c 093f 4a07 e9bd c09c 41be c18b 223f
00000170: 3759 983e 127c 173e efed 823d f535 123d
00000180: 1c1c 0bbe b352 8fbc c0dc b03e 87f6 63be
00000190: c68c e83d 1e44 d6be b4e0 a6be 2b8c b53d
000001a0: b83f 373e d063 92be 3375 0ebf 903f 8cbe
000001b0: dafe 6ebc 23d3 bfbe c490 f23d e900 923b
000001c0: e789 79be b9dc bb3e f8d3 3d3e a965 19be
000001d0: 9ddd 97be 8f6e 1fbf c631 e53e bd31 a9bc
000001e0: de78 f6be db83 51bd 625c 4f3e 0d9a 80bd
000001f0: fc82 713e 25aa 0f3f ad30 7f3d 42ed aebe
00000200: e08f 12be c07a af3e e2ea 70be 254f b7be
00000210: 6531 bc3d c669 91be 3366 593e 63bd 403f
00000220: cc35 25bf 33ee 9abd 67d5 953c 1289 2a3e
00000230: d8e2 d23e c6d3 c4bd fd48 9e3d b888 92be
00000240: 4fbc 85bc a8be 3dbe 41d0 e13d ec60 c33e
00000250: 4f18 40ba 6d2d fb3d 3d4b 6b3e 476e 5d3e
00000260: 875f 8abe 7116 1cbf 24f1 713e 3d2b cabd
00000270: 3431 e33d 3828 073f fca2 19be fe10 72be
00000280: 770b c1bc 5c26 f4b7 b8e9 ba3e a611 65be
00000290: e25b 3d3e d866 bdbd e99b 93be 123c 743e
000002a0: c8a3 95be 6189 88be edeb 76bc 4fa3 debd
000002b0: 0d18 13be 8649 fdbe 58e7 a03e fa8b 17ba
000002c0: 231c 95be f4fd 373c f30a a4be 14a3 bc3d
000002d0: 2eb3 8fbe f775 aabe 8b41 103e 450d 853e
000002e0: df6a 55be d32f 9e3c 8821 bb3c bde5 74bc
000002f0: 7cbe b3bd b255 533f d738 a93e c182 e5be
00000300: 9e83 f33d 5ab4 5abf 8ce2 15be 9b66 54bf
00000310: 671b 4bbf e7cf 863d d41e dfbe d92c c43d
00000320: a503 09bf 69b8 cb3e 64bf 80be cbb5 b43e
00000330: 5d54 e33c 3408 053d b9e2 013e 8e83 8b3c
00000340: 6f75 bb3d 95f7 b9be 92e7 453e 950f 4b3e
00000350: 21ad 223d 69fe 56bf ac64 cd3e 0c51 1bbc
00000360: 4c36 32bf 5594 07bf a4ac ecbe 022d 393d
00000370: 3dde 1a3f 2617 243d 3ab3 773e 7723 5b3e
00000380: 352e 6ebe 4627 033f c86d 49be 0202 86be
00000390: 1201 11bf 8020 1ebf a777 c13e 7d64 95bd
000003a0: 7abe 923d 7911 dd3d 74be b03e 6266 b63d
000003b0: 1034 f4bd d1b1 35be a2dc 2f3e 9991 1e3e
000003c0: af6c afbe 7c29 d8be ed80 8ebe 9a3a dabe
000003d0: 6461 933e 522a 283e 4776 323f 7c7e 27be
000003e0: 7a63 48be 7055 3e3d 580a f03e b006 a0be
000003f0: 3847 ad3d 242f a0bd 9f3f ab3d d085 71be
-0.14610434 -0.4139395 0.06965662 -0.31455487 -0.40082327 0.024827907 0.24138989 -0.23772243
-0.29762673 -0.05008626 0.37132695 -0.19044803 -0.2744207 -0.12585615 0.34916162 -0.50836396
0.08070943 -0.22488184 -0.3101785 -0.22301638 -0.04378815 -0.37198347 0.34265244 -0.009013541
-0.17546429 -0.14463353 0.25264356 -0.53224146 0.08778248 -0.31546393 0.3184495 0.3693475
0.065590315 -0.45955998 -0.37752149 0.062157277 -0.49996015 -0.26685205 0.33855394 0.28485265
0.54454875 -0.12502857 -0.47920364 0.3475881 -0.01920705 -0.28994974 0.09428136 0.16505165
0.33150324 -0.25996974 -0.109786555 -0.18274663 -0.23806787 -0.16501641 -0.35557553 -0.17419614
0.5611989 -0.13007589 0.18331188 -0.15504606 -0.13754901 -0.4233971 -0.21072054 0.39726657
-0.55024576 0.33058327 0.34791747 -0.2240142 0.1612111 -0.15445067 0.85913295 0.029791545
-0.39017534 0.111065425 0.21924071 -0.33928758 0.13111337 0.22393689 -0.01336075 -0.407754
-0.1649347 -0.13109048 0.28431538 0.45788437 -0.064396 -0.24426298 0.5141647 0.089315854
0.53632027 -0.113783434 -0.18907452 0.634945 0.29755566 0.14793423 0.063930385 0.03569599
-0.13584942 -0.017495489 0.3454342 -0.22262011 0.113549754 -0.41848844 -0.3259331 0.088646255
0.178954 -0.28591776 -0.5564758 -0.27392244 -0.014587129 -0.37465772 0.11844018 0.004455675
-0.24369012 0.36691836 0.18537891 -0.14980187 -0.29661265 -0.62278074 0.44764537 -0.0206536
-0.4813909 -0.051151138 0.20250085 -0.06279383 0.23585123 0.56118995 0.06230228 -0.34165388
-0.14312696 0.34273338 -0.235271 -0.3580257 0.09189109 -0.2840101 0.21230392 0.7528898
-0.6453521 -0.07564964 0.018290235 0.1665385 0.41188693 -0.09610705 0.07728765 -0.28619933
-0.016325144 -0.18529761 0.110260494 0.38159883 -0.0007327841 0.12264524 0.2297792 0.21624099
-0.27026007 -0.6097174 0.23627144 -0.09871528 0.11093369 0.52795744 -0.1500358 -0.23639295
-0.023565037 -2.910493e-05 0.36506438 -0.22370014 0.18492082 -0.092481315 -0.28829888 0.2385104
-0.29226518 -0.26667312 -0.0150708975 -0.108709924 -0.14364643 -0.49470156 0.314265 -0.0005781051
-0.2912303 0.011229981 -0.32039604 0.09210792 -0.2806639 -0.33293125 0.14087503 0.25986686
-0.2084155 0.019309914 0.022843137 -0.014947352 -0.087765664 0.82552636 0.33051178 -0.4482632
0.11890338 -0.85431445 -0.14637202 -0.82969064 -0.7933869 0.06582623 -0.43578207 0.095788665
-0.53521186 0.3978913 -0.2514602 0.35294947 0.027750188 0.032478526 0.12684144 0.017030504
0.09153258 -0.36321703 0.19326618 0.19830163 0.03971589 -0.8398195 0.4011587 -0.009479772
-0.696141 -0.5296071 -0.46225464 0.04520894 0.6049536 0.04006114 0.24189463 0.21400248
-0.23259814 0.512318 -0.19670784 -0.26173407 -0.5664226 -0.6176834 0.377866 -0.07294557
0.07165237 0.10794348 0.34520304 0.08906247 -0.11923993 -0.17743613 0.17174008 0.15485229
-0.34262607 -0.4221915 -0.27832738 -0.42622834 0.2878524 0.16422394 0.69711727 -0.16356844
-0.19569197 0.0464682 0.46882892 -0.31255102 0.084608495 -0.07821491 0.08361744 -0.23586202

critic.2.bias f4 [64]
00000000: 64c6 86bd 4882 7c3d c7d2 1d3d 7db3 8f3e
00000010: 03b4 8abe 1164 aa3d 3b86 9cbd 7278 b43d
00000020: fb6f c6bd 83f7 003e c7c0 fa3d fda4 763d
00000030: 60f7 093e ffe7 193e bdda 6abe 9842 7dbe
00000040: c080 243d 6cc9 823d 4c77 38be 9e04 57be
00000050: b240 81bd 1b7b 72be 4272 8bbc 6873 b53d
00000060: 508f 8c3e 324c 373e 8816 373e 6306 5ebe
00000070: 5790 b83d 7249 6ebe 899d bdbc f584 483d
00000080: 3c7a c8be 2b39 1d3d ac38 323e 05b6 233e
00000090: 54d3 ff3d ebfc 493e e9ae 75be cbb1 913d
000000a0: 94fd ecbe 6282 73be 562c a73b 6e35 a4be
000000b0: 3820 873d 514c 67be 8710 6a3e 5735 aabe
000000c0: 5c5c bb3d e1f9 29be c07c 8b3e 1bc4 713c
000000d0: a5e3 97bd 86b4 00bc cb6e f4bd d8e7 823e
000000e0: 0f2e f53d 64f4 28bf 0aa3 1dbe b8ca f23d
000000f0: ef02 b13d e7cf 84be 0aaf 0e3c e556 703d
-0.06580809 0.061647683 0.03853109 0.28066626 -0.27090463 0.083198674 -0.0764279 0.088120356
-0.09689327 0.12594418 0.122438006 0.06021594 0.13473272 0.15029906 -0.22935005 -0.24732435
0.040161848 0.063860744 -0.18014258 -0.20997855 -0.06311168 -0.23679774 -0.017022256 0.088599026
0.2745309 0.1790016 0.17879689 -0.21682124 0.09011906 -0.23270205 -0.023146408 0.048954923
-0.39155757 0.038384598 0.17404431 0.15987404 0.124914795 0.19725387 -0.23992504 0.071139894
-0.46287215 -0.23780206 0.005101721 -0.32072014 0.06597942 -0.22587706 0.22857867 -0.3324382
0.091484755 -0.16599227 0.27243614 0.014756228 -0.074164666 -0.00785554 -0.119351946 0.25567508
0.119716756 -0.6599791 -0.15394226 0.11855072 0.08643138 -0.25939867 0.008708725 0.05867662

critic.4.weight f4 [1, 64]
00000000: eeea 6cc0 c49f 5140 286a 6240 3759 90c0
00000010: e351 9740 7dd2 3d40 b1d9 27c0 c1fa 3040
00000020: da49 58c0 39ee 4c40 6fd2 43c0 8b39 2e40
00000030: 9e5c 3f40 7ed0 3540 dfde 9240 7a55 43c0
00000040: f7b8 47c0 3822 6140 b489 2ec0 85a5 9940
00000050: 675b 3bc0 e4b2 26c0 8919 45c0 b606 37c0
00000060: a8f6 5f40 7d96 95c0 4f5c 3740 36e8 4c40
00000070: 2d8a 3e40 41e7 1ec0 6f86 5a40 c99f 4e40
00000080: fa91 9140 b2ff 5240 8b45 3140 72ba 3e40
00000090: 2a4e 6a40 0698 7e40 5ffd 9540 8947 4640
000000a0: 5cab a940 2549 35c0 dbd9 6240 d0d5 8c40
000000b0: 960d 3a40 118f 6f40 c3c2 85c0 5b8b 8d40
000000c0: e1aa 3d40 50e0 9140 c9e0 4240 c3c2 3ec0
000000d0: f3e1 5d40 7573 6a40 b1f7 58c0 cb92 9ac0
000000e0: 1a98 4ec0 571f 27c0 c592 7f40 0656 3540
000000f0: 7609 4a40 8de4 8c40 6766 44c0 3401 80c0
-3.701839 3.2753763 3.5377293 -4.5108905 4.728746 2.9659722 -2.6226618 2.7653048
-3.3795075 3.20204 -3.0597188 2.7222621 2.990028 2.8408504 4.589706 -3.052092
-3.1206644 3.5177135 -2.7271547 4.801455 -2.9274538 -2.6046686 -3.0796835 -2.8597846
3.4994297 -4.67462 2.865009 3.201673 2.9771836 -2.4828646 3.4144552 3.2285025
4.5490694 3.2968564 2.7698696 2.9801297 3.6610208 3.9780288 4.687179 3.0981162
5.302168 -2.8325894 3.5445468 4.4011 2.9070792 3.743107 -4.1800246 4.423261
2.9635546 4.558632 3.0449698 -2.9806373 3.4669158 3.663297 -3.390118 -4.830419
-3.2280335 -2.6112878 3.993333 2.8333755 3.1568274 4.4028993 -3.0687501 -4.000147

actor_mean.0.weight f4 [64, 27]
00000000: 70e4 c2bd e583 aabe c29c 013e 3310 babe
00000010: c3ef 06bd 96fb 9bbe 1364 133e 11da 803e
00000020: 0043 3cbd 41ff 0f3e 23b2 5c3e c2e7 f43e
00000030: 0130 f1bb 0514 18bd 709e 98bd a156 eabe
00000040: fdd2 0a3f d56d 0fbe 7f84 333d 7dce 3abd
00000050: 2c3f 803e 404a 4f3e 4c91 bfbd 14a1 d43e
00000060: 36ed 2b3d 6a9d f93c e1c4 e5bd e91e aabe
00000070: 374e 90bd 81e1 503e 5659 d63e 2d44 92be
00000080: 95c7 2f3e 5c1e 663e 3cc2 8abd 74c3 1d3d
00000090: e297 c7bc 0e0e 8fbe 8c1c 493e b427 de3d
000000a0: e927 f7bd 97fe 4bbe 53aa adbc 7278 d93e
000000b0: 316f 803e 5765 c4be 8a25 383b 9657 0f3b
000000c0: 4dd9 803a d4a2 5dbe c047 00be a947 903e
000000d0: 9fb4 4abe fac8 b7be 735e 89be 8d76 dc3d
000000e0: ba62 e33e 1c92 cbbc d7dd d13d b110 663e
000000f0: a2cb 7c3a 0c7a 623e 0897 30bd cc5f 13bf
00000100: 312b f33c 1f26 5d3e c3cd f33b 85c5 913d
00000110: 8e59 88be 04fd fa3d 9668 ca3d cb3f d8be
00000120: 0d8b 8dbe 2ae0 28bd b929 c6be a9b6 ed3d
00000130: e492 aa3d 609f 09bf 936c 863e a4db b23d
00000140: 845d 6e3d 3ab3 5b3e 4cd1 a63e 29a1 bd3e
00000150: fb57 33be 1efb c43c 3d08 c33e 797f 893e
00000160: 262a 043f 3400 7c3e 3302 813e 05df 84be
00000170: 68e6 51be a843 863e 43e7 0abe c36d 91be
00000180: 8010 4dbe f6ff f8be 09ba 80be 3de1 00be
00000190: 5707 25bd cb8c a43e 0d68 0a3c 4424 ca3e
000001a0: 50b7 9c3e 4340 afbe bb12 68be 686c 1abe
000001b0: d82c 863e b876 bc3e 3e7b a7be f981 6cbd
000001c0: 2b31 543e 5d33 3dbe f23f 06be 6354 973d
000001d0: 4d12 183e b803 41be ff7e 6abe 8088 b43d
000001e0: c6f6 b8bd adb5 3b3e 6c9d 75be d1ff 08be
000001f0: 25d7 f9bd f68a 25be 31df 67bd 7f63 94be
00000200: dff7 fa3e 8638 893d aede 82bc d717 fb3c
00000210: f5ed aa3d e390 e43e 543c 663e 92ba e63e
00000220: 0d21 febd 2ab4 073f 583b 2c3f 2ee0 8abe
00000230: c066 6f3e b979 0d3f 4ba9 253d 3719 f9be
00000240: 71ee 92be 0408 38be 7c39 af3d d14b bf3e
00000250: 1ebd 39be 77dc c4bd dcfa 3f3e 5b02 c13e
00000260: 82fd 0d3e c92a dc3c 1bcd babd 5348 203e
00000270: 25df b13d 254f 413e 21a1 6a3c fada 963c
00000280: 86d3 b53a cef4 89be 506a 76bc df0f 25be
00000290: d295 9c3e 8350 583e 1126 dbbe f7b8 b73d
000002a0: cb04 09be eb0e b33d 049c fa3e b4e3 5bbc
000002b0: a404 35be 3ed7 c8bd 9e86 d7bd aac9 b23e
000002c0: 60d9 7d3e 7bf6 31be cb1b 54bd e95b adbd
000002d0: 38fb c6be 7e65 55be 3682 78be cb01 ba3e
000002e0: 42cf ae3d fe74 d63b 61f2 f1be 0abd 703e
000002f0: 3bf8 adbd 8358 b2be 5ec2 ce3e 5fc5 7cbd
00000300: 25d3 ecbc 23fe 3a3e 10f8 98be e173 343e
00000310: 8d71 0f3e d100 783d 4e47 e8bd cfbe bdbc
00000320: 5353 35be 3557 aebe c7d8 3dbe 644c b23d
00000330: 21af da3d 0fab 19bf cfc9 eb3e 5eae 903e
00000340: 3450 c2be cec1 87bd deff 93bb 86b3 ac3e
00000350: defd d93c d60f acbd d038 0a3e 5645 063e
00000360: 1e75 853d bdab 36be e863 bb3e a862 78bd
00000370: 7b1e f0bd dcc1 1d3f 9fad 203e f45f 83be
00000380: d82b c4be d395 4b3e 9eb2 e8bd dbc8 18be
00000390: 55ca a83d 18b6 6e3e e316 8cbd 3ebe acbe
000003a0: 5e7d 093e 822e 163f 021d 4ebe 9fe9 b83e
000003b0: b2fa b93e 156a 12be 3c77 b4be 39ca 35be
000003c0: 75a8 73be e37d 8abc 9c59 1ab9 1f05 16be
000003d0: 78d8 0bbe a19d 673e 4f8d 163f 6348 67be
000003e0: 144e 93be 3010 b73e fe6c 3ebe d030 883d
000003f0: a090 22be f39f 623d de5e 43bf 183d 92bc
-0.09516227 -0.33303753 0.12657455 -0.36340484 -0.0329435 -0.30465382 0.14393644 0.2516637
-0.045962334 0.14062215 0.21552329 0.47833067 -0.007360459 -0.037128467 -0.074520946 -0.45769218
0.5422819 -0.14006741 0.04382753 -0.04560708 0.25048196 0.20243168 -0.09353885 0.41529143
0.04197427 0.030470569 -0.11219192 -0.33226708 -0.07046168 0.20398523 0.41865033 -0.2856764
0.17165978 0.22472519 -0.067753285 0.038516477 -0.024364416 -0.2794041 0.19639796 0.108474165
-0.12068159 -0.19921337 -0.021199381 0.42474705 0.25084832 -0.38358566 0.0028098547 0.0021872274
0.0009830386 -0.21644145 -0.1252737 0.28179672 -0.19795464 -0.3589552 -0.26829872 0.10764799
0.4441126 -0.024849944 0.10247391 0.22467305 0.0009643381 0.2211687 -0.043112785 -0.5756805
0.029683681 0.21596573 0.0074403 0.07117752 -0.26630825 0.1225529 0.098832294 -0.4223617
-0.2764515 -0.041229405 -0.38703707 0.11607105 0.083287984 -0.5375881 0.2625471 0.087332994
0.058194652 0.21455088 0.32581556 0.37037018 -0.1751403 0.024045523 0.38092223 0.26855066
0.51626813 0.24609452 0.2519699 -0.259514 -0.2049805 0.26223493 -0.13564782 -0.28404054
-0.20025826 -0.48632783 -0.25141934 -0.12585922 -0.040290203 0.32138667 0.008447659 0.39480793
0.30608606 -0.34228715 -0.22663395 -0.15080416 0.26206088 0.36809325 -0.32711214 -0.05774114
0.20721881 -0.18476625 -0.1311033 0.07389142 0.14850731 -0.18849075 -0.22900008 0.08815098
-0.09031443 0.18331023 -0.23985833 -0.13378836 -0.12199239 -0.1616629 -0.056609336 -0.2898216
0.49017236 0.06700234 -0.015975323 0.030651016 0.08346168 0.4464179 0.22483951 0.45064217
-0.12408648 0.53009284 0.6727805 -0.2712416 0.2337904 0.5526386 0.040444653 -0.4865205
-0.2869754 -0.17971808 0.08555886 0.3736253 -0.18138549 -0.09612363 0.18748039 0.3769711
0.13866237 0.02687587 -0.09121152 0.1565259 0.086851396 0.18877847 0.014320643 0.018414963
0.0013872243 -0.26944584 -0.015039995 -0.16119336 0.30583054 0.21124463 -0.4280248 0.08970826
-0.13380735 0.0874308 0.48947155 -0.013420988 -0.17677552 -0.09806679 -0.10523723 0.34919482
0.24789953 -0.17379181 -0.051784318 -0.08464796 -0.3886354 -0.20839497 -0.24268422 0.36329493
0.08535625 0.0065447083 -0.47255233 0.23509613 -0.08494612 -0.34833154 0.40382665 -0.061711665
-0.028909275 0.18261008 -0.29876757 0.1762233 0.1400816 0.060547654 -0.11341725 -0.023162274
-0.17707567 -0.3405091 -0.18539725 0.087059766 0.106779344 -0.6002664 0.46052405 0.28258032
-0.37951815 -0.06628762 -0.0045165857 0.33730716 0.026610311 -0.08401458 0.13498235 0.13112387
0.06516479 -0.1783895 0.3659966 -0.06064096 -0.11724564 0.6162393 0.15691231 -0.25659144
-0.383147 0.19881372 -0.113621935 -0.1492037 0.08241717 0.23311651 -0.06840303 -0.33738893
0.1342673 0.58664715 -0.20128253 0.3611574 0.36324078 -0.1429828 -0.3524722 -0.17752923
-0.2379473 -0.01690573 -0.00014719967 -0.14650391 -0.13656795 0.22618724 0.5880937 -0.22586207
-0.28770506 0.35754538 -0.18596265 0.06649935 -0.15875483 0.05532832 -0.7631663 -0.017851397

actor_mean.0.bias f4 [64]
00000000: 5f29 3ebe 1387 243e bf29 dabd 7f1c 733e
00000010: 2a04 d33d bb67 863e 6a37 8ebe c08e f3bd
00000020: fe28 023d 8b14 813d c2eb 4a3d 028f c53d
00000030: 1544 d73c fa08 963c 3a5c 6d3d 713d 87bd
00000040: d5d2 a4be 04a1 773e ab97 d73b 9a8b 0b3e
00000050: 88a6 183e 15c9 80bd 7d89 1d3e ec3c 843d
00000060: 30ac e63d 5dfd fcbd caac 293e 0cac 9ebe
00000070: 60c6 3b3d 86b1 b1bd 2d25 9abe 1c48 25be
00000080: ebcf 3cbe 1cc8 383e 5f04 1f3d 9e41 67be
00000090: 1219 6f3e f33a c43d e751 1a3e 503e 373e
000000a0: bd75 7abd 0f43 3ebe 003c 20bd e3af 053d
000000b0: 290c 35be 0099 813d 7f22 843e 479e 42be
000000c0: c868 d6bd c2ec 313d a269 f4bb f953 673e
000000d0: 32e1 5b3c 9746 25be c0c1 0dbe 5f75 55be
000000e0: 8369 65bd d26d a73b 39b2 1cbe 7da4 44be
000000f0: 2831 703d 2cda 143e ad58 a83b 7f59 3bbe
-0.1857047 0.16067152 -0.10652494 0.23741339 0.103035286 0.26251015 -0.27776653 -0.11892462
0.031777374 0.063027464 0.049541242 0.09646417 0.026277581 0.018314827 0.057949282 -0.06603516
-0.32192102 0.24182516 0.0065793595 0.13627473 0.14907277 -0.06288353 0.15384479 0.064569324
0.11263311 -0.12353013 0.1656982 -0.30990636 0.045843482 -0.08676438 -0.30106488 -0.16140789
-0.1843869 0.18045086 0.038822528 -0.22583625 0.23349407 0.09581556 0.15070306 0.17894864
-0.06114744 -0.18580268 -0.03911972 0.03263844 -0.1768042 0.063280106 0.25807568 -0.1900569
-0.10469204 0.04343868 -0.0074588815 0.22590627 0.01342039 -0.16140209 -0.13843441 -0.20845555
-0.056008827 0.005109527 -0.15302362 -0.19203372 0.05864063 0.14536351 0.005137524 -0.18295859

actor_mean.2.weight f4 [64, 64]
00000000: 33e9 e3be 0a71 303e 77c8 273d 8bb9 38bd
00000010: 8249 853e 17ae 1bbe a445 7a3d 2809 7e3e
00000020: 8b69 603c 8cd8 0bbe 9710 593d a308 64be
00000030: 5a7f 483d 13fe 40bd 7adb 4a3d 8cbd 563e
00000040: a870 863e d7a9 dcbe 4c8b 01be 13ad 59be
00000050: f494 3ebd 690e 9d3e ea46 8ebd 834e 0fbe
00000060: 3bf9 adbd 9b7a 6a3e 8bb4 1e3e a8c1 8c3d
00000070: 9a45 083e 0291 a1bc 8b5e e6bd 1b8b cb3d
00000080: 86bf 3ebe af84 573e 0a38 b0be ac30 70ba
00000090: b7a7 6c3e 3eb5 373e 836e 7e3e 9ea1 ce3d
000000a0: d8ef 9abd 151e 82be d395 293f 6ef6 9abe
000000b0: de62 d83e 3a9c 49be 553a 9e3e bad3 91be
000000c0: e619 0d3e aff4 303e 5430 02bf b195 cb3e
000000d0: 036e d8bd 2dc0 f3be 964d 83be a394 9dbd
000000e0: e2d8 7a3e d21e 9d3e 5ef1 b43d 82b1 d6bd
000000f0: 08b4 cabe c604 adbe f914 25bc 5e73 a6be
00000100: 8a85 aabe ec2e 24be effc 343e b64d 223e
00000110: 5a60 7b3e 4ae9 473e 5919 ec3d c074 b7bd
00000120: dd8c 613e 6566 8fbe 7fa9 e0bc a999 e43c
00000130: e687 413e 4ff7 573e 3faf d53e 508d fb3e
00000140: 0010 eabe de5f 143a de2d febd a3bc 043f
00000150: d8f5 dbbe 8ac3 91bb b9c3 1f3d cc47 89bd
00000160: f4c2 703d a524 80bd 5456 dfbd 032e 73be
00000170: 8540 18be 00cf dcbd fe81 333e 11bf 813d
00000180: 3566 07bd e2e9 30be 1465 14bf 322c 9cbe
00000190: be61 783e 56c9 f2bc 9cd7 453e 7d75 1d3c
000001a0: 24d1 4e3e 92ec debd 1aea 3cbe 553a 353e
000001b0: 6289 0f3e 07f0 443e e786 c83e e65c e0be
000001c0: 56e9 8abe 1983 913e 60b2 173f e188 2bbe
000001d0: dc1b b43d 059b 823e a940 7d3e cb00 b9bd
000001e0: 9afa 3f3e 95ff 6dbe a38f 1b3e 0d01 053e
000001f0: 204d 003e d3cb 033e d9de db3d e226 2ebf
00000200: f4c4 18be e2a1 1d3e f14f 213e 77fc c4be
00000210: 2f44 dfbd a40b 05bd 171a 17be 37ab 0b3e
00000220: fd0e 53be 4570 633e 22c1 e5be 9283 47bd
00000230: f5ca a83e 0d14 71be 1ceb b43c 9622 aebe
00000240: b0ca 943e c340 c73e 9b8d ebbd f299 313d
00000250: 5eb5 143d bf7a 8ebc 8497 2ebe 6132 cabe
00000260: 4a6d 88bd be08 0cbf e058 ddbe 9e9f b13e
00000270: 4822 4dbb c0b5 083f 2591 0ebd df68 a83e
00000280: 0f7f e33e 9b8e 81be 39b3 39be 0459 4dbd
00000290: 6722 913e 0322 e0bd bc77 7cbc 6c9b 4cbe
000002a0: c09d 833e e1ff f63d a271 093e 4782 01be
000002b0: 24b4 babc e6b8 babc 2e5d 303e 1740 f33c
000002c0: 86d7 843d cfc1 cc3e ef8a 08bd 3c8f 263e
000002d0: 2ffd 21be 783c 4fbe 610e 54be e7b3 0dbe
000002e0: bbc9 7b3e 2553 6bbc b5c1 a2bd 51ef 82bd
000002f0: 109d 803e e57f 493e dac7 9b3d ea86 bd3e
00000300: a13e 843e 5416 22be 4d36 c6be 2e96 b03d
00000310: 8e03 be3e f2f8 03be 4ce2 a23d 8976 9c3d
00000320: 9a4f 273e 3b13 213d 3aa8 b9be f2c8 87be
00000330: 856b 6d3e e6e1 2abe 5d6d 9abd 895e 0fbe
00000340: d43f f3bd 4c54 60be 2c30 653e c694 d2be
00000350: d704 c03d 9e95 ecbd 734c a8bd 2618 5ebe
00000360: 8e7d 00bf 29bd 0a3d 8d2a b5bc f9f5 8a3d
00000370: f196 d7be 3412 d4be 7ec9 b1be 97d7 debc
00000380: 7f43 0bbe 83b7 0ebe fb61 d33e bcf9 013e
00000390: 5277 1bbe fc95 403e 20f4 fcbd 6cd6 82bd
000003a0: c8b5 6a3d ec83 693b 71f3 c0be a7e8 53bd
000003b0: bff2 1c3f 9929 adbe af00 273e de06 76be
000003c0: c975 903d 3059 9dbe 3e1a 35be ac07 0cbe
000003d0: 5d14 58be 5c68 eb3e a384 823e 9db0 dcba
000003e0: 23ce f93d d9cb a93e 4591 71be 8785 07bb
000003f0: 47fe bfbd 5cb1 133e 0c0d 57be 5c2d e73c
-0.44513854 0.17230621 0.040962663 -0.045098823 0.26032645 -0.15203129 0.06110157 0.2480818
0.013697038 -0.13656825 0.052994337 -0.2226892 0.048949577 -0.047117304 0.049525715 0.20970744
0.26257825 -0.43098328 -0.12650794 -0.21257429 -0.04652877 0.30675057 -0.069471195 -0.13994794
-0.084948026 0.22898333 0.15498559 0.068728745 0.13307801 -0.019722465 -0.112485014 0.09938642
-0.18627748 0.21046709 -0.34417754 -0.0009162526 0.23110853 0.17940232 0.24846844 0.1008942
-0.07565278 -0.25413576 0.6624424 -0.30266136 0.4226293 -0.19688502 0.3090388 -0.28481847
0.1377941 0.1728084 -0.5085499 0.39762643 -0.10567858 -0.47607556 -0.2564513 -0.07694366
0.24496797 0.30687577 0.088351 -0.10483076 -0.39590478 -0.33792704 -0.010075801 -0.32509893
-0.33305007 -0.16033524 0.17674612 0.15849957 0.24548474 0.19522586 0.11528272 -0.08957815
0.22026391 -0.28007808 -0.027424572 0.027905302 0.18899497 0.21090434 0.41735265 0.4913125
-0.45715332 0.0005660037 -0.12411092 0.51850337 -0.42961 -0.004448359 0.039005015 -0.06703147
0.05877967 -0.062569894 -0.10905138 -0.23748021 -0.14868362 -0.107816696 0.17530057 0.06335271
-0.033056457 -0.17276719 -0.5796673 -0.30502468 0.24256036 -0.02963702 0.1932053 0.009610531
0.20196968 -0.10884966 -0.18448678 0.17698033 0.14017251 0.19232188 0.39165422 -0.43820876
-0.27131146 0.28420332 0.59256554 -0.16751434 0.08794376 0.25508896 0.24731697 -0.09033354
0.1874794 -0.23242028 0.15191512 0.12988682 0.12529421 0.12870722 0.10735864 -0.6802808
-0.14918882 0.15393785 0.15753151 -0.38473865 -0.10901677 -0.032481804 -0.14756046 0.13639532
-0.20611186 0.22210796 -0.4487391 -0.04870946 0.32967344 -0.23542805 0.022084765 -0.34010762
0.29060888 0.38916597 -0.115016185 0.043359704 0.036305778 -0.017392514 -0.17049986 -0.3949156
-0.0666147 -0.5470084 -0.4323187 0.3469209 -0.003130095 0.5340233 -0.03480639 0.3289251
0.44432876 -0.25304112 -0.18134774 -0.05013372 0.2834656 -0.10943987 -0.015409406 -0.19981164
0.2570629 0.12060524 0.13422254 -0.12647353 -0.022790976 -0.022793245 0.17223045 0.029693646
0.0648642 0.39991614 -0.033335622 0.16265577 -0.15819238 -0.20237911 -0.2070861 -0.13838159
0.24588673 -0.014363085 -0.07947103 -0.06393302 0.2511983 0.19677694 0.07606478 0.37016994
0.25829032 -0.1582883 -0.38713303 0.086223945 0.37112087 -0.12887934 0.07953319 0.07639796
0.1633896 0.03932498 -0.3626116 -0.26520497 0.23185547 -0.16687736 -0.07540391 -0.14000906
-0.118774086 -0.21907157 0.22381657 -0.4112913 0.09375923 -0.11551975 -0.082177065 -0.216889
-0.5019158 0.033871803 -0.022115016 0.06785197 -0.42107347 -0.41420138 -0.3472404 -0.02720241
-0.13599966 -0.13937192 0.4128569 0.12692922 -0.15182236 0.18807214 -0.12351251 -0.06388554
0.057302266 0.003563161 -0.3768573 -0.051735546 0.613079 -0.338208 0.16308855 -0.24026057
0.07053716 -0.30732107 -0.17685792 -0.13674802 -0.21101518 0.45978057 0.2549182 -0.0016837303
0.121975206 0.33163336 -0.23590572 -0.0020678954 -0.093746714 0.14423126 -0.2100107 0.028219871

actor_mean.2.bias f4 [64]
00000000: 6197 46bd 4897 db3d 47ac 7f3c 86b2 90bd
00000010: 9fb1 87bc a36e babd 5788 67be 4727 98bd
00000020: 6cad f43c 023c 3abd bac2 913d 40d6 043e
00000030: 443f 5abe 1a83 a5bb 4420 4f3e 8b7c a43e
00000040: 0b5b c23d e543 61bd 731b c53e 6a44 3dbe
00000050: 14fd 28be 90cc d8bd 82a0 b73c 5bff 3e3d
00000060: 5b01 92bd e64b 933d d8d2 4b3d 34a2 c9bd
00000070: 1a5e 16be 3445 d43d 5e4f 1a3d 1083 5e3c
00000080: ed81 f1bc e166 013e 8076 ff3d bd0d ea3c
00000090: f022 aa3c da10 10be 2139 153d 4cd4 9c3c
000000a0: f644 56be cd35 4f3c 3c61 853e 808c 0ebd
000000b0: afb0 293e 2c05 323e f0cc 40be 36ac c63b
000000c0: 76c7 3f3e 5376 073e cf45 503d e574 663d
000000d0: 9c00 253e a34e 5d3e 4b8b f33d 2ba1 843e
000000e0: c526 aa3a 8d6e 9e3b 0596 e2bc e726 83be
000000f0: 0a17 cabd 7521 1d3e b603 113e f652 a23d
-0.04848421 0.10722214 0.015605039 -0.07065301 -0.016564189 -0.091031335 -0.22610603 -0.074293666
0.02986785 -0.045467384 0.07117219 0.12972355 -0.21313196 -0.005051029 0.20227152 0.3212627
0.09490021 -0.05499639 0.38497505 -0.18483129 -0.16502792 -0.10585892 0.022415403 0.046630245
-0.07129165 0.07192211 0.049761623 -0.09845391 -0.14684334 0.10364762 0.037673347 0.013581052
-0.029480899 0.12636901 0.12473774 0.028571004 0.020768613 -0.14068928 0.036431435 0.0191442
-0.20924744 0.012647104 0.26050746 -0.03480196 0.16571306 0.17384785 -0.18828177 0.0060630096
0.18728432 0.13228731 0.050847825 0.056263823 0.16113514 0.21612029 0.118918024 0.2590421
0.0012981525 0.004834956 -0.027659426 -0.25615618 -0.098676756 0.15344794 0.14161572 0.0792598

actor_mean.4.weight f4 [8, 64]
00000000: e922 103d 9256 b4bc add8 533c 88e1 23bd
00000010: 8f8b a33d d122 423b 4a00 3d3d 631d e03c
00000020: ed3d c53d 7aaa 7abc 3c03 11bc 7cd4 8bbd
00000030: daab a2bd 4748 e83c 0520 6dbc 1be4 00bd
00000040: a6dd 06bd 1074 04bd c1a2 7cbd d049 123e
00000050: d39c 3b3c dbc3 8abc 612f 403c 8cfc f4bc
00000060: 0bc4 f3bc 056c 613d 99b7 ac3a 87b6 ee3c
00000070: 0e57 af3d 769a aa3c b175 903d 2b3d 52bc
00000080: c9ec 32bd 9f40 40bc b859 443d f81d c03d
00000090: 2ff4 363d 8e40 043e b923 ba3c 56fa c43c
000000a0: 9fee 233d 2292 063e b5c3 42bb 623b b33d
000000b0: 2226 91bd 57dd 51bc 3b37 a03d 3bf2 143c
000000c0: e2eb 53bd 0e8d 01bd 1552 39bd 53b3 a83d
000000d0: c7c9 0e3c 8628 733d e301 ebbc 0265 a4bd
000000e0: bad8 993b 7954 bb3c 3bbc eeb8 0b15 663d
000000f0: af61 193e 9adb 1abc 6e54 813c 0d60 8cbd
00000100: 6ec3 c73d 24a4 373c 42dd b4bc 60b8 cbbd
00000110: 61a7 d13c 20b4 283e 3cdb 253d 7740 b13c
00000120: 169c 0e3e f4a5 19bd 1eae 9b3d 0c29 50bc
00000130: 07f1 42be c80a 023e bc1e b9bd 8ce4 88bd
00000140: 3813 83bd acbd a0bd 0324 143d 6c9f 15bd
00000150: fe15 9e3d 4521 173d 22df 9c3d bf8b a8bc
00000160: 2930 b2bc 3814 98bd 183a b63d a778 723d
00000170: c1b5 403d d047 bebc 2c3d fd3c b1fb ba3d
00000180: b9c0 c0bd ad52 29be bb98 253e e249 383c
00000190: b81f 72bc 651c 4cbd 557c a5bc e7cc 183c
000001a0: 4941 a9bd e8bb eebc ec75 36bb fc1e c7bd
000001b0: 424c 1fbd 0bbb d8bb b66d 31bd 6edb 843d
000001c0: 5363 6abb 5f24 21be 5ea2 fabc b43e 9d3d
000001d0: 054c 0bbe 6631 77bc 3867 633c be4a ca3b
000001e0: 2d7b f73c 1680 cfbd 41ec 06bc 5d50 0e3d
000001f0: 7983 a03d 0e8f 303d bb03 75bc 1750 e83c
00000200: bb78 0abd 201a 033d 9ac6 e13d f24e b43d
00000210: 49b4 23bd 8f8f a13d a5dd c4bd 916d 8a3d
00000220: b09b 2abd 7243 cbbb 80f5 babb 7faa 6ebd
00000230: 9cb0 2e3e a688 553d 0e8e 7a3d 6a23 9abd
00000240: b370 eabb 00d8 3dbc ed59 4cbd 0701 d7bc
00000250: 86da 49bd e798 81bd 6acc 983c efcf cc3d
00000260: f240 883b 3089 923c 321a 7c3d dc03 a4bd
00000270: d6a2 fdbc f5da f3bd c121 893d 6b95 2dbc
00000280: 6718 14be 4fcb 31be 4261 cfbb 0b80 343d
00000290: f71a 663c 52ce 173e a36e 853d af6b 47bd
000002a0: 5106 8abd d31c f73c cb01 febc 282b 27bc
000002b0: a291 4f3d 3c9a 003d bcd5 9abd f911 b1bd
000002c0: 9c38 fc3d e21d a73b 34fa 2fbd bd1d 4cbd
000002d0: b678 893b 7bea 423a 16b9 96bc 5783 5bbd
000002e0: e9dd bfbd c8a1 bdbc 42bf 4bbd ce07 473c
000002f0: 2ff6 3f3b a069 343d 4990 3d3d 24a4 0b3d
00000300: 5f79 4d3d 9476 8cbd f805 413d 4575 223e
00000310: dcb4 4fbe 545e f2bc 28de 05be d92b b6bd
00000320: f3bd 51bd 5207 aabc f5fa 363d a73c f7bd
00000330: c50e 043e 7b4b 503d 5ae1 a43d d301 b6bd
00000340: 1b7f 943d c8c2 143d a11a 64bd 338f 0a3d
00000350: 6af4 733c 4ba0 20bc 920a efbc a85f ffbc
00000360: 42a5 a23d dff8 9abc 328a ed3c 7b0f 5a3d
00000370: dc61 1cbd 4719 9cbc 9bcc 8f3d 136a ebbc
00000380: 3163 2a3d 7fe7 443d cb1e 8fbd 1d73 fa3b
00000390: e961 adbd 93ed 1d3d 68f9 cc3d c482 243d
000003a0: 7d17 c5bd a4f7 853d d07a 513c 18a9 19bd
000003b0: 921b 8b3d 8831 e43c 71d2 a53d 8644 b03d
000003c0: 4559 843d 4615 b1bd ef2b 413d 3f4a 12bd
000003d0: a2ef 443d 62ae 443d 98d4 0f3c a2cf 9e3c
000003e0: b323 55bd 3081 5c3c 3b57 0e3c 0e72 4a3d
000003f0: b098 d7bc 3b36 893c a33d f03c e6d9 153c
0.035189543 -0.022013936 0.0129300775 -0.040010005 0.07985603 0.0029622803 0.046142854 0.027357763
0.09630952 -0.015299434 -0.008850869 -0.068276376 -0.07942934 0.028354777 -0.014472966 -0.03146754
-0.032926224 -0.03233725 -0.06167865 0.1428597 0.011450964 -0.016939094 0.011730046 -0.02990558
-0.029756567 0.055034656 0.0013177275 0.02913977 0.08561526 0.020825606 0.07053698 -0.012831966
-0.043682847 -0.011734157 0.047937125 0.09380716 0.044666465 0.1291525 0.022722112 0.02404515
0.04002249 0.13141683 -0.0029718701 0.08751561 -0.070873514 -0.012809119 0.078230344 0.009090955
-0.051738627 -0.03162866 -0.045244295 0.082373284 0.0087151 0.059364818 -0.028687423 -0.08027078
0.0046950253 0.022867428 -0.00011383785 0.056172412 0.1497867 -0.009451771 0.01578733 -0.06854258
0.09754072 0.011208568 -0.02207816 -0.09947276 0.025592508 0.16474962 0.04049228 0.021637185
0.1392673 -0.03751178 0.076015696 -0.012705099 -0.19037257 0.12699425 -0.09039065 -0.06684217
-0.0640015 -0.07848677 0.036167156 -0.03652899 0.077190384 0.036896963 0.07659747 -0.020574449
-0.02175148 -0.074257314 0.08897799 0.059197094 0.047048334 -0.023227602 0.030912958 0.091300376
-0.09411759 -0.16535445 0.16171543 0.011248084 -0.01477807 -0.049831767 -0.020200888 0.009326196
-0.08264405 -0.029142335 -0.0027841283 -0.09722707 -0.038891084 -0.006614094 -0.04331752 0.064871654
-0.0035764768 -0.1573653 -0.030595 0.07677975 -0.13603218 -0.015087461 0.01387959 0.0061734607
0.030210102 -0.10131852 -0.008235038 0.03474461 0.078375764 0.043105178 -0.014954503 0.028358502
-0.033806544 0.032007337 0.11024208 0.0880412 -0.039966855 0.0788871 -0.09612588 0.067591794
-0.04165238 -0.0062031085 -0.0057055354 -0.058268066 0.17059559 0.05213227 0.06117063 -0.07526286
-0.007154548 -0.011587143 -0.049890447 -0.026245607 -0.049280666 -0.06327992 0.01865216 0.10000598
0.0041581327 0.017887682 0.06154842 -0.080085486 -0.030961435 -0.11906997 0.06695891 -0.010594706
-0.14462434 -0.17362712 -0.0063287327 0.044067424 0.014044515 0.14824799 0.06515243 -0.04868668
-0.06739486 0.030165112 -0.031006714 -0.01020316 0.050675996 0.03139709 -0.07560298 -0.08646006
0.12315485 0.005099998 -0.04296322 -0.049833048 0.004195298 0.0007435453 -0.018398803 -0.053592052
-0.09368498 -0.023148432 -0.049742945 0.012147857 0.0029291024 0.044046044 0.04628018 0.034092084
0.050164577 -0.068585545 0.047124833 0.15865047 -0.20283836 -0.029585995 -0.13073027 -0.08895082
-0.05120654 -0.020755444 0.044672925 -0.120721154 0.12896259 0.050853234 0.08050795 -0.08887067
0.07250806 0.03631857 -0.055689458 0.03382797 0.014889816 -0.009803842 -0.029179845 -0.031173542
0.07941677 -0.0189175 0.02899656 0.05323742 -0.038179263 -0.019055022 0.07021447 -0.028737104
0.041598503 0.048072334 -0.06988295 0.007643117 -0.084659405 0.038556647 0.10008508 0.04016377
-0.09623621 0.06541374 0.012785628 -0.037514776 0.06792368 0.02785565 0.08096779 0.0860682
0.06462339 -0.08646636 0.04716104 -0.035715338 0.048080094 0.048017867 0.008778714 0.019386116
-0.052036 0.013458535 0.00868779 0.049425177 -0.026317924 0.016749492 0.029326266 0.009146189

actor_mean.4.bias f4 [8]
00000000: c0a9 a4bd 707c 87bd 7b05 0c3e 89dd cfbd
00000010: 9803 42bc 1f6d 123e e6ad 98bc ddf3 e53d
-0.0804019 -0.066155314 0.13673966 -0.10149676 -0.011841677 0.14299439 -0.018637609 0.11228154
