DATA403_final/checkpoints/Ant-v4/PPO_288.pt (torch, 53950 bytes, 12 tensors)

actor_logstd f4 [1, 8]
000000 f0 72 0b c0 1c 4e 0c c0 20 b0 0d c0 f4 f9 08 c0
       -2.1788902 -2.1922674 -2.2138748 -2.140256
000010 55 c5 07 c0 d6 b6 0d c0 ee 3b 04 c0 ae 6a 04 c0
       -2.1214192 -2.2142844 -2.0661578 -2.0690112

critic.0.weight f4 [64, 27]
000000 1e 3c 63 bf f3 7a fa be be 80 90 3e 5c 8d 84 bf
       -0.88763607 -0.48921928 0.28223222 -1.035564
000010 0a b7 93 3f 5f 47 9e be 2b 9d dc 3c 82 82 3e be
       1.1540234 -0.30913827 0.026930412 -0.18604472
000020 80 bf 03 bf db 3f 83 3c 39 2c 44 3e cb 28 ef bd
       -0.5146408 0.01602166 0.19157495 -0.116777025
000030 98 df 6b 3e 08 a5 58 bf 16 1f f7 ba 89 a5 cf 3b
       0.23034513 -0.8462682 -0.0018853869 0.006336872
000040 06 2d 8d 3d c1 a7 ff bd d6 2a c9 bd 20 ca c4 bc
       0.06893353 -0.124831684 -0.098226234 -0.024022162
000050 36 7e 16 bc 6e a5 d9 bc 3d 08 41 3d e2 0d 98 3c
       -0.0091853645 -0.02656814 0.047126997 0.018561307
000060 34 7e 59 bd 74 2a ff 3b 39 0a 86 3c 19 3b be 3e
       -0.053098872 0.007787043 0.016362296 0.37154463
000070 d3 75 bc 3f ff fe e2 3f 21 fe ad 3e 55 0a 43 3f
       1.4723457 1.7734069 0.33982947 0.7618764
000080 69 f9 97 3d 18 bb 5d be 2b e3 41 3d b2 f2 8c 3e
       0.07420618 -0.21653402 0.047335785 0.27528912
000090 08 cd e1 bd 9a a2 d7 3d 9b f6 82 3e 5e 0a 98 3d
       -0.11025435 0.10529061 0.2557877 0.074238524
0000a0 69 9f b1 3d dc 75 4b 3d c1 a0 32 bd 54 fe 0f 3b
       0.08672983 0.049672946 -0.043610338 0.002197166
0000b0 91 67 28 bd 0d 74 c2 3d 33 3e 0f 3d c8 9e 83 bc
       -0.041114394 0.09494791 0.034971427 -0.016066924
0000c0 60 56 87 3c 83 a6 a1 3c 11 e0 62 3b 41 83 7b bb
       0.016520679 0.01973272 0.0034618417 -0.0038377794
0000d0 a6 65 01 3c 95 c2 f2 bb ab bb ac 3f ce 07 82 3f
       0.00789777 -0.00740845 1.3494772 1.0158632
0000e0 8a a0 ad 3e 7e 97 c4 be 36 f3 3e bf 9d 6b 7e 3e
       0.33911544 -0.3839683 -0.7458986 0.24845739
0000f0 bf db 07 be 5f 3a 57 be e4 c7 13 3d 04 d0 2c be
       -0.1326742 -0.2101836 0.036079302 -0.16876227
000100 4e e8 5d 3b 52 c4 60 3e c6 22 25 be 68 91 05 bf
       0.0033860388 0.2194989 -0.16126546 -0.52175
000110 0f 0a 4a 3c 93 81 94 3e 7b 02 a0 3d 76 79 49 ba
       0.0123315 0.29005107 0.07812973 -0.00076856406
000120 8f 02 0e 3e df dd 46 3c bd 62 91 bc 44 f1 04 3b
       0.13868164 0.012137859 -0.017747277 0.0020285407
000130 ac e2 a8 bb 42 12 f1 3c bb a2 0d bd e3 39 c1 3c
       -0.0051539745 0.029427651 -0.03457902 0.023587173
000140 05 fc 11 3d 5e 1e 33 3f 6b a2 e9 3e 45 9c db 3d
       0.035640735 0.6996821 0.45631728 0.107231654
000150 92 38 1a bf 87 56 a7 3d e7 08 e4 bd 06 b2 20 3e
       -0.6024257 0.08170801 -0.111345105 0.1569291
000160 0b c0 88 be 49 1f 0a 3e be e6 5e 3e c2 55 78 3d
       -0.26709017 0.13488497 0.21767709 0.06062866
000170 c6 f6 8b be 23 13 ac 3d 4b c3 e4 bd 7b de 28 bc
       -0.2733671 0.084020875 -0.11170062 -0.01030695
000180 00 fd 68 bd e0 fc 11 3d d0 9e c3 bd 7e a5 1c 3c
       -0.056881905 0.03564155 -0.095517755 0.009560941
000190 61 a6 f2 3c 58 eb b8 bb d9 40 4a 3c e7 70 1a 3c
       0.029620351 -0.0056432895 0.012344562 0.009426332
0001a0 72 4c 0c 3c 07 96 fc 3b c8 f3 f7 39 db 3c 00 be
       0.008563148 0.0077083143 0.00047293142 -0.12523215
0001b0 8b cc 1e bf 32 da 36 be 59 4b 18 3e d2 f8 e7 bf
       -0.6203086 -0.17856672 0.14872493 -1.8122809
0001c0 04 d9 28 3f 88 49 6f bd 70 a3 f8 bd 6a 9c df 3d
       0.6595614 -0.058419734 -0.12140548 0.109185055
0001d0 1a 4f 8f be 46 9b 75 be 74 8a 09 bf 6e 59 c2 3d
       -0.27990037 -0.23985013 -0.5372689 0.094897136
0001e0 3c c3 41 bd 16 cf f7 3d 1b cf 10 be 4c 6f 54 3e
       -0.04730533 0.121000454 -0.14141504 0.20745581
0001f0 ad a7 34 bd 07 65 13 bf 13 e4 48 3e 76 12 0e 3d
       -0.04410522 -0.5757603 0.19618253 0.034685574
000200 fe 93 81 bd 65 6b 20 ba bc 21 fb bc a0 65 03 bc
       -0.063270554 -0.00061195187 -0.030655734 -0.008019835
000210 7f cf 33 bd 94 2a 12 3d 51 cd 4f bd 67 06 f6 be
       -0.043899056 0.035685137 -0.050732914 -0.4805176
000220 2f 77 ab be b5 38 0f 40 64 08 9c 3e 0f 92 f0 3e
       -0.33489367 2.2378361 0.30475152 0.46986434
000230 85 4c 44 be ed fb cc be 9d d3 69 bc 7e a2 00 be
       -0.19169815 -0.40035954 -0.014271644 -0.12561986
000240 1d dd a8 bd 26 7c e5 bd 9c b3 04 3f 2b cc 43 bc
       -0.08245299 -0.1120532 0.5183656 -0.011950533
000250 c0 b0 f1 bb c8 5b 9d 3c b5 22 66 bd f2 8d 1e be
       -0.0073758066 0.019208804 -0.056185443 -0.15483835
000260 54 3d dd 3d f8 60 bf bd 9e b5 01 bd 61 6f ee 3b
       0.10802713 -0.09344667 -0.031667344 0.007276461
000270 03 4a b9 3c 2e d5 25 bd ea 1d 58 bc 9b af 5b b9
       0.0226183 -0.040486507 -0.013190726 -0.00020950886
000280 5f 99 81 bd 36 9d b4 3c eb 15 bd 3e f7 51 73 3f
       -0.06328081 0.02204762 0.36930785 0.95046943
000290 28 10 86 bf 6b f9 40 3f ee fd a0 3d 83 65 2e be
       -1.047368 0.7538058 0.07860933 -0.17030911
0002a0 94 ec c8 3d dc 05 74 3c 1d 53 51 3d aa 61 79 3e
       0.09810749 0.014893975 0.051104654 0.24353662
0002b0 f6 99 5a 3e 4d 28 52 3d ee 4e 61 3e 31 e4 3f 3e
       0.21347794 0.051307965 0.22002766 0.18739392
0002c0 2a 7a 51 3e 0e a4 e7 3d bd 8a 4d 3d 58 ae 88 be
       0.20456758 0.11310588 0.05018114 -0.26695514
0002d0 36 a9 bb 3d 1e 8d 08 3d b1 45 e8 bc 4a 04 01 3c
       0.09163134 0.033337705 -0.028353544 0.007874558
0002e0 c2 fd 55 bc aa b4 1a bc 6d da b6 bb ec 6e c7 3d
       -0.013060989 -0.009442488 -0.0055802376 0.097379535
0002f0 43 e1 83 bb 5c 92 41 be 26 26 af bd d8 e4 88 3d
       -0.004024656 -0.18903488 -0.08552198 0.066842735
000300 da 1e fa 3e 59 70 72 3f de f3 2f 3e 1d 73 51 be
       0.48851663 0.9470268 0.17182872 -0.20454068
000310 3e 17 0b bf 2e 80 f3 be af 3b e5 3e 7c 49 8a 3d
       -0.5433234 -0.4755873 0.44772097 0.06752297
000320 e8 c3 d4 3c b4 4b 2c bd f0 dc be 3e d5 fe 2c be
       0.025972322 -0.042064384 0.37277937 -0.16894086
000330 63 4f 91 3e ca 04 97 bd d1 1a 40 3e f8 5f 23 be
       0.2838088 -0.0737396 0.1876023 -0.15954578
000340 20 60 9d bd 0c c6 f0 bc c3 59 55 3c b1 8b 4f bd
       -0.0768435 -0.029391311 0.013021889 -0.05067033
000350 fc 3b 5f bb 69 8e 1b 3d 0e ac 5e 3d d1 9e 3c be
       -0.0034062853 0.03797761 0.054363303 -0.18419959
000360 15 0a cb 3f 87 ca 9b 3e a2 4c 47 be 7a b8 67 be
       1.5862452 0.30427954 -0.19462827 -0.22628966
000370 77 88 73 3e f7 a2 65 3e 6e 40 c3 3e 13 91 5c be
       0.23782526 0.22425447 0.38135093 -0.21539716
000380 7d 01 24 bf 4a 49 15 be ae 1e 1a bf c0 70 12 3e
       -0.6406477 -0.14578739 -0.60203063 0.14300823
000390 6e 84 16 3e 57 e2 fd 3d 1f dd 16 bb 03 26 79 be
       0.14698955 0.123966865 -0.0023019982 -0.24330907
0003a0 93 b9 f1 bd d1 2d ea 3d 98 84 80 bd ce c2 c9 3c
       -0.118029736 0.1143452 -0.0627529 0.024629023
0003b0 fa 8b 00 bd c9 06 10 bc e2 18 c0 bc f1 15 5a bd
       -0.031383492 -0.00879068 -0.023449365 -0.05324358
0003c0 ed c5 4b bd 57 1a 24 bd 0d e0 67 bd 05 4e 4d 3f
       -0.049749304 -0.040064182 -0.056610156 0.80197173
0003d0 c0 db 3e 3f bf 0a c3 be 54 1b 2a 3e cb 3b 40 bf
       0.7455406 -0.38094136 0.16611987 -0.75091237
0003e0 d2 50 c7 be 23 88 17 3f 3b 36 a4 bd 91 20 13 bf
       -0.38928849 0.59192103 -0.08018156 -0.5747157
0003f0 b8 ae 39 be 9b aa f7 be c2 9e 59 bf 75 81 51 3f
       -0.18133056 -0.4837235 -0.8500787 0.8183816

critic.0.bias f4 [64]
000000 35 07 7f 3e 79 b0 54 be cb ca 7e bf 5c 7e 87 bf
       0.24905093 -0.20770444 -0.9952819 -1.0585437
000010 bd 59 55 3c 0f df 1f 3f 67 4b 36 bf e3 a9 fd be
       0.013021884 0.62449735 -0.71208805 -0.49543676
000020 5b d4 9a 3e 7f c2 4b 3f 18 be 61 be a3 bc f8 3e
       0.3024014 0.7959365 -0.22045171 0.48581418
000030 10 e9 87 be 1f 29 3a 3f e5 32 34 3f 92 3d fd be
       -0.26545 0.72718996 0.7039016 -0.49461037
000040 41 88 43 bf 1f e8 46 bd 2f f9 4e 3e f1 2a b9 be
       -0.7637978 -0.04856121 0.20212243 -0.36165574
000050 b7 2b 52 be b8 b1 33 3d b0 8b 94 3f 60 6e 01 3f
       -0.20524488 0.043870658 1.1605129 0.50559044
000060 59 d8 86 be 6c 25 61 bf 96 37 ab bf 42 4e 9b 3f
       -0.26336935 -0.87947726 -1.3376338 1.2133257
000070 73 91 14 3f 0e 90 c6 3e 3c 32 04 bf 3c ef 3b bf
       0.5803444 0.3878178 -0.5163915 -0.7341192
000080 d5 d7 59 be 82 e5 27 3f 45 cc 83 be 69 6a 8f bd
       -0.2127374 0.65584576 -0.25741783 -0.07002718
000090 ba 59 8c 3e 60 43 bc be 00 cc e8 be ec df d2 3d
       0.27412206 -0.36770153 -0.4546814 0.10296616
0000a0 3c f7 c3 be a4 07 36 bf 19 db 53 bf 3f 7c df 3e
       -0.38274562 -0.7110541 -0.8275619 0.4364948
0000b0 76 bb 76 3f cf fd fd be f5 e3 1f bf 51 88 11 3f
       0.9637979 -0.49607703 -0.6245721 0.5684863
0000c0 71 d3 dc bc 84 9f 1e be 63 4e 02 bf cd a6 ad be
       -0.026956292 -0.15490538 -0.5090086 -0.3391632
0000d0 ce de f6 3e 5f 8e 7a bf 35 dd 73 3f a0 bd 3c bf
       0.4821686 -0.9787349 0.9525941 -0.73726845
0000e0 52 95 a9 be fd 1d 16 3f 67 89 80 3f 2f 08 aa be
       -0.33121735 0.5863951 1.0041932 -0.3320937
0000f0 f0 35 12 3f 10 cb 10 3f ef dc d3 bd c1 1b b1 be
       0.5711355 0.5655985 -0.10344874 -0.34591487

critic.2.weight f4 [64, 64]
000000 37 f4 ee 3d 2f 0f 02 be c3 34 cc 3e 5a c2 de 3e
       0.11667674 -0.12701105 0.39884004 0.43507653
000010 9b a3 00 be 32 35 b5 be 10 ef 06 3f cf 95 8f 3c
       -0.1256241 -0.35392147 0.5270853 0.017527489
000020 a4 83 70 3d a0 0d c7 be 54 ea 76 be 56 44 ce 3c
       0.058719292 -0.38877583 -0.24112827 0.02517907
000030 dc 21 c6 bd 14 35 74 be a5 d7 3e 3d 82 0f 48 bd
       -0.09674427 -0.23848373 0.046592373 -0.048842914
000040 c7 34 d5 3e 29 98 c5 bd 35 b1 7a 3e 19 a1 12 3d
       0.41641828 -0.09648163 0.24481662 0.035798166
000050 57 14 ca 3e 5b f8 7e bd 49 37 2c bf 62 ea 9f be
       0.39468643 -0.06224857 -0.6727186 -0.31233507
000060 43 2a f2 bd 7e 0c b4 3e 8b 14 5b 3f be 25 87 bf
       -0.11824467 0.3516578 0.8557822 -1.0558393
000070 a4 1d 2b be ab 16 8f be 57 62 e3 3d cf c3 1a 3f
       -0.16710526 -0.27946982 0.11102741 0.6045503
000080 88 39 ac 3d e0 fd 02 bf 40 7f 03 bd c5 47 05 be
       0.08409411 -0.5116863 -0.032103777 -0.13015659
000090 76 0a 0c 3e 1f 19 02 bb bb b8 68 3e 23 5a 81 be
       0.13675866 -0.00198514 0.22726719 -0.2526408
0000a0 90 d1 ad 3e fe 49 75 3f 27 61 26 be ba 6f 70 3e
       0.33948946 0.9581603 -0.16247998 0.2348012
0000b0 5e 2d c0 be 01 a1 7b 3e 2a d9 2b be f2 dc 4d 3e
       -0.37534612 0.24573137 -0.1678206 0.20103815
0000c0 34 db 93 3e aa fb b6 be 07 32 8b bd 9a 69 e2 3e
       0.28878176 -0.3573888 -0.06796651 0.44221193
0000d0 35 27 90 be 18 18 b2 3e b7 b1 1a bf eb 2d 24 bd
       -0.28154913 0.34784007 -0.6042742 -0.040082853
0000e0 76 13 f9 3e a1 5f 95 3e 4c 40 d5 bd dc 11 22 be
       0.4864766 0.29174522 -0.10412654 -0.15827125
0000f0 d5 fd 6b bd 65 9b 8c be 64 8b a0 be f8 40 16 3f
       -0.05761512 -0.27462307 -0.31356347 0.58692884
000100 b2 4b 80 be b2 76 00 bf 15 c2 23 bf ab a8 26 bf
       -0.2505775 -0.50181115 -0.6396802 -0.65101117
000110 e5 9e de 3d 2a d2 87 3c ac 6b 5d 3e 4f c0 38 be
       0.108701505 0.016579706 0.21623105 -0.1804211
000120 76 22 c6 bd 8a 2c 77 3e c2 95 3c 3e ff bf 6a 3b
       -0.09674542 0.24138084 0.18416503 0.0035820005
000130 58 4b 0d bf d8 5f e4 3e b1 fd 83 3d 72 c1 2a 3e
       -0.5519309 0.44604373 0.06444872 0.16675356
000140 a6 83 a3 be c7 6f 09 3e cb 20 20 bd 67 5e ee bd
       -0.31936377 0.13421546 -0.039093774 -0.116390996
000150 43 63 41 be 42 e7 60 3c 95 50 0a 3f dc 70 9c be
       -0.18885522 0.013727011 0.5402921 -0.30554855
000160 38 8e c3 3e 2f 22 fc bd f5 af cd be f8 af d0 3f
       0.38194442 -0.123112075 -0.40173307 1.6303701
000170 16 69 c6 3b f7 07 0c be 2a 68 ba bd a7 bf bc be
       0.0060550077 -0.13674913 -0.09101899 -0.3686497
000180 c7 4f 18 3e 87 ec 0c 3f b5 8c e0 3e df 2a ae bd
       0.14874183 0.5504841 0.4385735 -0.08504271
000190 8b a2 20 3e 26 88 b9 3e 03 d4 6d be e6 81 bb 3d
       0.15687005 0.36236686 -0.23225407 0.091556355
0001a0 49 67 8f ba 16 de 59 bf a7 8d 20 bf 58 e3 37 3c
       -0.0010940816 -0.851045 -0.62716144 0.011223637
0001b0 0f 15 01 3f ce 31 e4 be 2b 4c 2c bf d6 e6 11 bd
       0.5042276 -0.44569248 -0.67303723 -0.035620533
0001c0 86 a2 97 3d e4 ad f4 bd 89 33 62 3e 1f 1c df be
       0.07404046 -0.119472295 0.22089972 -0.43576142
0001d0 1a a6 1b 3e cf 26 53 bf 74 eb 30 3f e6 1c 3e be
       0.15200081 -0.8248109 0.6910927 -0.18565711
0001e0 e4 d2 4f bd eb 16 0f be 7a 23 81 3e df fc bc 3b
       -0.05073823 -0.13973586 0.2522238 0.0057674493
0001f0 35 e2 c4 3b 52 fc 17 3e 0c 1a c7 bc d4 2f 05 be
       0.0060084113 0.14842346 -0.024304412 -0.13006526
000200 b9 d6 3f 3e fc 7e b5 3e d9 c6 45 bf 16 16 0b bf
       0.18734254 0.35448444 -0.7725654 -0.54330575
000210 53 ec c9 3d d3 89 cc 3d ec d1 6a be b3 b3 db 3d
       0.098595284 0.099872254 -0.22931641 0.10727634
000220 e6 05 e9 be 0f 37 1e 3f 97 48 04 be 79 c4 cb 3e
       -0.45512313 0.6180276 -0.12918316 0.39798334
000230 99 04 f1 bd c9 ee 0c 3f 2e 84 18 bc 30 d6 e2 bd
       -0.11768455 0.5505186 -0.009308858 -0.11076009
000240 0b 63 a1 be ee 24 79 be bd 00 3d be 47 80 5f 3d
       -0.31520876 -0.24330494 -0.18457313 0.054565694
000250 84 f9 06 be 02 21 0e 3d 69 2e 4a 3f d6 e8 cc bd
       -0.1318112 0.034699447 0.78977066 -0.100053474
000260 4c 49 d9 be 21 91 23 bf ef 73 b1 be df d5 f5 3f
       -0.42438734 -0.63893324 -0.34658763 1.9205893
000270 7e 93 9f 3e 05 93 2f 3e d2 e4 04 be 37 03 f0 be
       0.31167215 0.17145927 -0.12977913 -0.46877453
000280 00 2e e1 bc 63 1d 49 3f 4b 5b 05 bb 72 a8 1d 3e
       -0.027487755 0.78560466 -0.0020348604 0.15396288
000290 5b 52 40 3e 66 82 4f be 8e 08 68 be 8c 2d 57 3e
       0.18781416 -0.20264587 -0.22659513 0.21013469
0002a0 e2 db bd be ab 9d 75 bf 87 9e 6d be 61 ca 53 bc
       -0.3708182 -0.9594371 -0.23205005 -0.012926669
0002b0 01 92 8d 3e b2 da 02 bf 7f bb c7 be fe e7 ab 3e
       0.27650455 -0.5111495 -0.39010236 0.33575433
0002c0 3d 7b 67 be a0 35 76 be e9 5e c7 bd 08 e6 b8 bd
       -0.22605605 -0.24043894 -0.097348996 -0.0902825
0002d0 7a 31 84 3d 3f 28 9b bf 4e 4c 8a 3f d9 bc 54 bd
       0.064547494 -1.2121657 1.0804536 -0.05193791
0002e0 1b 48 2b be 3e 79 81 3e 2b 71 dc 3d 1f 2c 5a be
       -0.16726725 0.25287813 0.107637726 -0.21305893
0002f0 4c 5c 56 3d 18 d0 37 3f af 76 76 3e 10 be e9 bb
       0.052334115 0.718019 0.24068712 -0.007133253
000300 66 d4 e4 3c c1 e4 7b 3e 2d f0 19 3f 11 e5 0e 3e
       0.02793331 0.24598981 0.60132104 0.1395457
000310 d9 fa cf be 34 0d 41 be 67 a3 df 3e 19 f2 7f 3d
       -0.4062107 -0.18852693 0.43679354 0.06248674
000320 0a f3 75 3d 1f 73 c7 be fa a3 e6 3d 3d ee 89 be
       0.060046233 -0.38955018 0.11261745 -0.26939574
000330 72 01 34 3e df a0 e5 be 01 c1 9e 3c 84 f9 ea bc
       0.17578676 -0.44849297 0.01937914 -0.028683431
000340 f3 89 3b 3f b0 77 f3 3d 98 c3 00 3f 80 41 20 be
       0.7325737 0.11888063 0.5029845 -0.15649986
000350 6c 39 b6 3e 0c 57 81 bd f9 70 44 bf 08 37 83 3d
       0.35590684 -0.06315431 -0.7673488 0.06406981
000360 3c d7 68 3e bc 3c b0 3e 1e 12 d0 3e d8 80 d7 bf
       0.22738355 0.34421337 0.40638822 -1.6836195
000370 5e 53 9c be 3c dc bc 3d 1b f1 93 3e 27 b7 0d 3f
       -0.30532354 0.09221694 0.28894886 0.55357593
000380 02 50 0e bd 28 fa 75 bf c7 ad 90 3e 9c 17 98 be
       -0.03474427 -0.96084833 0.28257582 -0.29705513
000390 0c 8d 9d be 2f 99 e3 3d 8a 04 07 3c df 2c 2d be
       -0.30771673 0.11113202 0.008240828 -0.16911648
0003a0 5c e2 8e 3e 6c 44 fc 3e 76 d2 98 3e f6 20 25 bd
       0.27907073 0.49270952 0.2984807 -0.040314637
0003b0 90 03 e8 bd a3 a3 92 3e fe 33 16 3f 1a c2 9c be
       -0.113288045 0.2864047 0.58673084 -0.30616838
0003c0 bc c5 a3 be 7b e8 a5 bd da 65 32 3d ed 85 7a 3d
       -0.31986797 -0.08100983 0.043554164 0.061162878
0003d0 fe af 4f 3e 61 65 76 3f 4c e4 62 bf 37 a0 15 be
       0.2028198 0.9624844 -0.88629603 -0.14611898
0003e0 a3 73 40 bd 01 f6 23 be fc f2 80 be 01 68 0c be
       -0.04698528 -0.16011812 -0.25185382 -0.1371155
0003f0 81 80 d8 3d 05 09 b2 be 7a 17 fd bd fc 3e 21 be
       0.10571385 -0.34772506 -0.123579934 -0.15746683

critic.2.bias f4 [64]
000000 dc 9f 1b be dc a6 aa 3d 33 f8 97 3e 13 9b 55 be
       -0.151977 0.08332607 0.29681548 -0.20859937
000010 53 16 0c 3e 7f 7c e5 3e 18 15 c5 be 7d 5d 35 3e
       0.13680391 0.44821545 -0.38492656 0.17711444
000020 74 41 cb bd ef e0 28 3e 67 c3 0b be d7 97 73 3e
       -0.099245936 0.16492055 -0.13648759 0.23788391
000030 d9 88 73 3e 0c 7e 4d bd 4a 16 c9 bd 6f e0 11 be
       0.23782672 -0.050169036 -0.098187044 -0.14245771
000040 8a 32 75 be 52 35 4d bd 55 95 86 be 00 f1 68 3e
       -0.2394506 -0.05009968 -0.26285806 0.22748184
000050 fd d8 14 3e 09 7f 30 3e e9 19 21 be b2 87 4d be
       0.145359 0.1723596 -0.1573254 -0.20071295
000060 22 b0 8d 3e 16 cd ca bd 9f ae 70 3e 27 93 a1 3e
       0.2767344 -0.09902398 0.23504113 0.3155758
000070 e4 4b 70 3e 0f bf c7 be da cc b9 3e d3 4c 61 3d
       0.2346645 -0.39012954 0.36289102 0.055004906
000080 12 67 96 3e 39 e4 38 3e 9c 79 8d 3e 9e 4f 21 3e
       0.2937551 0.1805581 0.27631843 0.15753028
000090 74 13 8f 3e 46 93 25 3d 15 8e ba bd 5c 71 d2 bc
       0.2794453 0.040423654 -0.09109131 -0.02568882
0000a0 0b 19 ba bc c0 6e 51 be 64 09 a6 3e 90 64 25 3e
       -0.02271702 -0.20452404 0.3242904 0.16151643
0000b0 76 35 3d 3e 29 7e 9a be 5d 63 86 bd 9e c1 17 3e
       0.18477425 -0.30174378 -0.06561921 0.14819953
0000c0 fc bd e2 3d 70 79 6b 3e b0 44 78 bd b0 a0 95 be
       0.11071393 0.22995543 -0.06061238 -0.29224157
0000d0 8f 80 91 3e 43 13 53 3d 14 f3 65 bd dd 11 97 bd
       0.28418395 0.05153204 -0.05614002 -0.07376454
0000e0 b7 06 58 be d4 b3 3a 3e ee 53 74 3d cb ff c0 3e
       -0.21096312 0.18232661 0.059650354 0.37695155
0000f0 a2 f1 72 3e 3c b0 df 3e 21 9b 53 bc 96 2a 58 bd
       0.23724988 0.43689144 -0.012915404 -0.052774988

critic.4.weight f4 [1, 64]
000000 88 76 ca bf 12 7b db 3f 31 11 07 40 3b 63 d7 bf
       -1.5817423 1.7146933 2.1104243 -1.6827158
000010 1e 11 37 3f 1c 99 d2 3f 6e 57 a2 bf ba cf 01 40
       0.71510494 1.6452975 -1.2682931 2.0283036
000020 7c 3d 92 bf f6 5d 90 3f b1 8d a7 bf 01 34 c2 3f
       -1.1425014 1.1278675 -1.3090116 1.517212
000030 55 4f 00 40 bb e4 80 3f 4b d4 5e 3f 13 a1 41 bf
       2.004842 1.0069803 0.87042683 -0.75636405
000040 5d a0 b6 bf a0 11 8d 3f bb 0a af bf 42 cf e2 3f
       -1.4267689 1.1021004 -1.367515 1.77195
000050 3c 8b 3b bf 4c 25 44 bf de b7 84 bf e9 f7 9c bf
       -0.7325933 -0.7661941 -1.0368612 -1.2263156
000060 97 56 be 3f 91 38 6d bf 74 75 a7 3f f5 c9 e0 3f
       1.4870175 -0.9266444 1.3082719 1.7561632
000070 bd eb 00 40 36 b4 a2 bf 72 36 85 3f 36 da 20 3f
       2.0143883 -1.2711246 1.040724 0.62832963
000080 a9 5f c5 3f 9a 62 a0 3f 47 5e c0 3f 56 bd 06 3f
       1.5419818 1.2530091 1.5028771 0.52632654
000090 ec b3 e4 3f 43 cb 98 3f bb a8 8a 3f 77 9a 83 3f
       1.7867408 1.193703 1.0832742 1.0281514
0000a0 d2 39 7c 3f 91 11 75 bf 6a 80 a3 3f 68 49 9c 3f
       0.98525727 -0.9572993 1.2773564 1.2209902
0000b0 b8 c2 80 3f 2d 64 7b 3f 36 a0 70 bf 13 2d e3 3f
       1.0059423 0.9819973 -0.9399446 1.774813
0000c0 73 c7 c3 3f 89 3c 74 3f b6 d7 8b 3f 55 1b d3 bf
       1.5295242 0.9540487 1.0925205 -1.6492716
0000d0 9d 7b 5f 3f 9e 50 ec 3f f2 a4 8e bf 88 0b aa bf
       0.87297994 1.8462102 -1.1144087 -1.3284769
0000e0 d5 57 9e bf d2 7a b8 3f 48 7f 93 3f a2 ce 05 40
       -1.2370554 1.4412482 1.1523218 2.0907369
0000f0 9f 94 da 3f 18 3d c9 3f ad 66 53 bf de 10 86 bf
       1.7076606 1.5721769 -0.82578546 -1.0473897

actor_mean.0.weight f4 [64, 27]
000000 01 41 9d 3e fe fa 28 3e 85 62 a0 3c af 02 b9 be
       0.30713657 0.16501996 0.019578228 -0.3613486
000010 06 d3 8d 3e 3e 89 85 be 7c 8f ed 3e a8 17 90 3e
       0.2770006 -0.2608127 0.46398532 0.28143048
000020 a3 6c 2e be dd 50 35 3e ad 41 82 3d 8d e1 fc 3e
       -0.17033629 0.17706628 0.06360183 0.49390832
000030 f3 1f 5a bd 7b eb 1a 3e e8 4c 43 bf 3f f3 50 be
       -0.053253125 0.15128891 -0.76289225 -0.20405291
000040 cc 60 0a 3f 7d b7 aa be 3c 89 23 3e ae 7d 12 3e
       0.5405395 -0.33343115 0.1597032 0.14305755
000050 d9 e9 3c 3e 83 ad 92 3d ad 0f 9e bd d7 74 a1 3e
       0.18448581 0.07162001 -0.07717834 0.31534454
000060 bb b9 ee 3d d8 47 7a be e5 7b 25 3e 62 5e 00 bf
       0.11656519 -0.24441469 0.16160543 -0.50144017
000070 53 59 8f 3d 05 9c 93 bd 2a 65 b5 3e c7 fa 0b 3e
       0.06999459 -0.07207493 0.35428745 0.13669883
000080 02 76 a8 3d 5c 45 1e 3e b3 7d 5e 3e 4a 1f a7 3d
       0.08225633 0.15456146 0.21727638 0.08160265
000090 c8 a4 ea 3e ab bb 01 3b e0 be 33 bc 0c 59 48 3c
       0.45828843 0.0019795697 -0.010970801 0.012228262
0000a0 f1 63 00 3f b0 85 a8 be 6e 34 be bd 45 74 d9 3d
       0.501525 -0.32914495 -0.09287344 0.1061788
0000b0 9e 64 c7 3e 33 da 76 bd 6d fe 89 3d a4 69 90 bd
       0.38943952 -0.060266685 0.06737981 -0.07051399
0000c0 cd c7 99 3e 4d f9 f3 3e ab b0 2e be 60 68 23 be
       0.30035248 0.4765114 -0.17059581 -0.15957785
0000d0 5a d3 bb be ca 35 9b bd e7 92 58 3e e9 27 57 3e
       -0.36684686 -0.07578619 0.21149789 0.21011318
0000e0 3a eb e0 3d 3d 1f 4b be 5a 2e f9 bd 90 e4 24 3e
       0.10982366 -0.19836135 -0.12167044 0.16102815
0000f0 29 6f 31 3e 92 3d d5 bd a9 fa e4 bd 95 2a fd be
       0.1732756 -0.10412134 -0.11180622 -0.4944655
000100 b3 dd f6 bb ee 77 f6 bd 38 bf a2 3e b3 68 15 3c
       -0.007533753 -0.120345935 0.31786513 0.0091192005
000110 72 be 2f bf 7f 4a 45 3f d4 a6 6c 3e 2f 70 fe bd
       -0.6864997 0.77066797 0.23110515 -0.12423741
000120 bd 78 36 bd f5 b3 27 3d da 08 92 be 44 df 28 3e
       -0.04454874 0.040943105 -0.28522378 0.16491419
000130 e4 da 6d 3e 6d bf db be 50 8e 45 3e 47 d9 3f 3c
       0.23228031 -0.42919484 0.19292569 0.011709518
000140 3d 3d 48 3d 42 11 49 bc 19 3c 14 3f 02 75 0b 3f
       0.048886526 -0.012272181 0.579042 0.54475415
000150 7e ee 50 3e 8f 88 2a 3f ac 46 2f 3f bb 5d ae 3d
       0.20403478 0.6661462 0.6846721 0.085139714
000160 29 1d 0a 3d 0d 26 d1 3e 12 d3 e6 3e e0 07 13 be
       0.033719216 0.40849343 0.4508291 -0.14358473
000170 6d a2 2d be 14 de 94 3d 9f 5d f2 be dc 58 d8 bc
       -0.16956492 0.072689205 -0.47337052 -0.026409559
000180 59 bc 19 be 25 c6 86 be 72 0a 3f bd fc eb 2d be
       -0.15013255 -0.26323047 -0.04664082 -0.16984552
000190 11 a1 6c bd 92 bc b5 3e 99 2c e3 3d c3 c4 b1 3d
       -0.057770792 0.3549543 0.11092491 0.086801074
0001a0 25 02 8c 3e c9 25 2a be 91 1a d2 3c ee aa 1b 3d
       0.27345386 -0.16615976 0.025647433 0.038004808
0001b0 8e 06 da 3d 47 2a d0 3e 76 c9 a2 3e c3 91 05 be
       0.106457815 0.40657255 0.31794327 -0.13043885
0001c0 03 a0 60 3e 46 85 2b be 66 58 30 be 94 87 f1 bd
       0.2193604 -0.16750059 -0.17221221 -0.117934376
0001d0 5e 39 ca 3e 91 3b 27 3d 92 80 82 bd 39 bf 21 be
       0.39496893 0.04082829 -0.06372179 -0.15795602
0001e0 2f 25 8d be a7 98 aa be fb 85 d5 be d5 e3 38 3e
       -0.2756743 -0.3331959 -0.4170378 0.18055661
0001f0 93 c4 d2 bd d3 f0 3a bf 6a 27 af bd 73 8f 13 be
       -0.102914 -0.7302372 -0.085524395 -0.1441019
000200 2d 30 e3 3e 1c c9 0d 3e 2f 55 44 be 8b 40 23 be
       0.44372693 0.13846248 -0.1917312 -0.1594259
000210 d2 f3 d5 bd 48 4e f4 3d 8d 2a 08 3e 05 2a 7f 3d
       -0.10446896 0.119289935 0.13297482 0.062295932
000220 6b a4 2f bf b3 b0 56 3e 84 e5 57 3e 0b fd e8 3e
       -0.68610257 0.20965843 0.21083647 0.45505556
000230 9a 7a fa bc 6c 93 58 3e 07 67 e4 3e 47 b5 21 be
       -0.03057604 0.21149987 0.44609854 -0.15791808
000240 d7 dd 85 3e 74 2c 18 3e 84 91 2b be 1b 72 89 3d
       0.26145813 0.14860708 -0.16754729 0.06711217
000250 62 7c 2f bf 65 21 a1 3d d5 c4 a1 be 7a 89 c9 3e
       -0.6854917 0.078676976 -0.31595483 0.393627
000260 30 30 34 3d 62 be 95 be 34 b2 02 be 84 96 8f bd
       0.043991268 -0.29246813 -0.12763292 -0.070111305
000270 54 d2 33 bd 34 d0 18 3e 6f 5a 0c 3e c2 f3 78 ba
       -0.043901756 0.14923173 0.13706373 -0.0009496772
000280 8f 5c 4f bd bb 92 be be 26 34 bc 3e 0b 95 92 bd
       -0.05062538 -0.3722132 0.36758536 -0.07157334
000290 4a 4c d6 bd 97 ea 63 bf 4d 2c 22 bf 16 61 e1 be
       -0.1046377 -0.8902983 -0.6334885 -0.44019383
0002a0 70 89 01 be e7 32 9f be 1a e2 cd 3e 0c 05 90 3e
       -0.12650084 -0.31093523 0.40211564 0.2812885
0002b0 1a 02 af bd e9 3b f5 3c f3 87 26 3e ac c3 ac 3e
       -0.08545323 0.029935794 0.16262798 0.33743036
0002c0 bb c6 cb be 10 4f a3 bd 98 98 33 be 46 08 42 3d
       -0.39800057 -0.07974064 -0.17538679 0.04737117
0002d0 2d d6 eb bd 88 e3 09 be fd ca 13 be 90 83 8e 3e
       -0.1151546 -0.13465703 -0.14432903 0.2783475
0002e0 54 fe ca bc 4b d8 cc bd d1 c6 d0 be ec 82 1e be
       -0.024779476 -0.10002192 -0.40776685 -0.1547963
0002f0 0b 0c 08 be 03 68 9c be 7f 57 a1 3e ba fc d0 3d
       -0.13285844 -0.30548105 0.31512067 0.10204454
000300 dd d5 4e bf 34 db 1d 3e 9c ae 6a 3e 62 c4 2a 3e
       -0.8079508 0.1541565 0.2291817 0.16676477
000310 bc bb d8 3e ee b3 42 3e e4 4f 18 3f fd df 96 3d
       0.4233073 0.1901395 0.59496903 0.07366941
000320 07 c9 1b 3e 27 56 70 be cf 77 e0 be d5 3a c6 bd
       0.15213405 -0.23470365 -0.43841407 -0.0967919
000330 2f 4f 93 3e 08 5a ae be f3 01 2a 3f 27 19 a4 3e
       0.2877135 -0.34053063 0.66409224 0.3205044
000340 ba 7a 46 be 1e 64 27 bc ea df 88 3e 6b 08 9b 3d
       -0.19382754 -0.010216741 0.26733333 0.07569965
000350 8e b0 d7 3d 16 d7 8a bd ca 39 04 bd 8f 04 7d 3e
       0.10531722 -0.06779306 -0.032281674 0.2470877
000360 a2 47 84 be 64 b0 52 bf b7 37 e9 bc 57 9a de bd
       -0.25835901 -0.823004 -0.02846895 -0.10869282
000370 2c fb 40 be 4e 2c e6 3d d4 08 ec 3b 65 e3 d0 be
       -0.18845814 0.11238919 0.007203201 -0.40798488
000380 8d f7 d1 bd ec 42 ee 3e f2 b1 bf 3e 40 fe 65 3d
       -0.10252295 0.46535432 0.3744045 0.056150675
000390 40 40 27 be 01 b1 63 be 0a 90 bc bd 20 78 0e be
       -0.16333103 -0.2223549 -0.09207161 -0.13913012
0003a0 55 8b b5 be f4 80 60 3e 3c 9d 0a bf 37 82 37 3e
       -0.35457864 0.21924192 -0.5414617 0.17920767
0003b0 8a 7c 8d 3c 0e 7e bc 3b ea 99 de 3d 68 e1 74 3c
       0.017271299 0.0057523316 0.108692005 0.014946319
0003c0 4f 8f 83 be 4e ef ed 3e a3 51 0d 3e 73 2b 5f be
       -0.25695273 0.46471637 0.13800673 -0.21793918
0003d0 a0 66 ad be 6d 46 3f 3e 06 b2 36 3f a9 c4 75 3d
       -0.3386736 0.18679209 0.7136539 0.060002003
0003e0 28 64 ad bd b2 e8 d5 3d b6 0c 8c 3d 30 48 31 3e
       -0.08466369 0.10444774 0.06838362 0.17312694
0003f0 97 6e 83 3e ef 14 86 3d ff a1 b4 be 49 5f c6 bd
       0.2567031 0.065469615 -0.35279843 -0.09686143

actor_mean.0.bias f4 [64]
000000 c3 56 82 3c 5b 3c 43 bb 73 81 2b 3d b1 7e 93 bd
       0.015910512 -0.0029790613 0.0418715 -0.07201899
000010 46 bd 04 bc f2 d0 89 bc a1 28 00 be 1e e8 8b bd
       -0.008101767 -0.016823266 -0.12515499 -0.06831382
000020 bd 69 36 be d1 90 c6 bd d4 2c f7 bd f8 32 9c be
       -0.17813773 -0.0969559 -0.12069097 -0.30507636
000030 70 f7 f7 3d 95 d2 0f bd 97 fe c1 3c 78 a4 06 3e
       0.12107742 -0.035112936 0.023680968 0.13148677
000040 fe c3 4c 3d c0 9c 36 3e 36 4c 97 bd 78 c8 13 be
       0.0499916 0.17833233 -0.07387583 -0.14431942
000050 55 8e 35 3d 32 a1 5a be d6 e9 5f bd a9 41 22 be
       0.04432519 -0.21350554 -0.054666363 -0.1584536
000060 fd a9 c9 3c ce d6 42 3d 7b 9d 36 3e a8 d4 73 be
       0.02461719 0.047568135 0.17833512 -0.2381159
000070 5d d1 08 be 53 b3 1e 3e 1a 37 29 3d 95 0e 76 3d
       -0.13361116 0.15498094 0.041312315 0.0600725
000080 1a 9c 8f be dc 9a 4d bd f0 3f 33 3c eb 19 9d bd
       -0.28048784 -0.050196514 0.010940537 -0.07670959
000090 50 b6 82 be f2 2f 0e bd 02 80 d9 bd 22 95 1e 3c
       -0.25529718 -0.034713693 -0.10620119 0.009679111
0000a0 bf 47 27 3e ae a2 9c bd b7 3a 1a 3d 72 df 80 3e
       0.16335963 -0.07648216 0.03765365 0.25170475
0000b0 49 dd 18 bd fb ef 4f bd 40 5e e8 bd db 6a 3d bd
       -0.03732041 -0.050765973 -0.11346102 -0.046244483
0000c0 ab f1 3c bd d0 1a fe 3c 42 44 81 3d 9d f8 62 3d
       -0.04612891 0.031018645 0.06311847 0.055412877
0000d0 51 77 96 3c 89 d5 9a bc cf 2d 4d be 9a af e8 3a
       0.018367441 -0.01890065 -0.20037006 0.0017752529
0000e0 3b 13 e5 bd fa 80 2d bc 96 61 1b bd 72 4a b7 3d
       -0.111853085 -0.010589832 -0.037934862 0.08949746
0000f0 4d a5 9e 3d df fe 09 3e 7e 3e 8b bd 28 7e 8d 3e
       0.07746372 0.13476132 -0.06799029 0.27635312

actor_mean.2.weight f4 [64, 64]
000000 15 01 9b be d8 60 83 3e 57 3f 0b be 36 2e 4a bc
       -0.30274263 0.25659823 -0.13598381 -0.012340119
000010 a7 2c 7b bd f2 3c 93 be 7f a6 27 3d fb 9d 8d 3c
       -0.06132188 -0.28757435 0.040930267 0.017287245
000020 41 6f e7 3c 31 09 85 be 4b 4f f0 bd 93 aa 02 bf
       0.028251292 -0.25983575 -0.11733874 -0.51041526
000030 b7 45 06 3e 7c 61 e3 be b8 b4 4f 3e 59 d0 b5 3e
       0.13112532 -0.44410312 0.20283782 0.3551052
000040 ac 4d c4 3e b6 b2 03 be 41 c0 f5 bd 2b 56 4f be
       0.3834051 -0.12861142 -0.1199956 -0.20247714
000050 a3 87 76 be 7b 16 8a 3e 28 2c 3c be 76 33 b7 bd
       -0.24075179 0.26970276 -0.1837622 -0.08945362
000060 ff d5 59 3e b4 da 3e 3e 48 4c 07 3e 02 62 99 be
       0.2127304 0.18638116 0.13212693 -0.29957587
000070 dc b2 d3 bc 4f 59 2a be 00 ec 84 3d ba c4 e8 bd
       -0.025842123 -0.16635631 0.06490326 -0.113656476
000080 6f 0f d7 bd c6 13 6a 3e 1e 37 d1 be 81 18 9b 3d
       -0.105009906 0.22859105 -0.40862364 0.07573033
000090 4e be 0c bb 9a 1e 75 be 38 a7 73 bc 5e b3 b5 3e
       -0.0021475735 -0.23937455 -0.014871411 0.3548841
0000a0 29 4e a2 3d 42 76 54 be 22 1d be 3e be 34 12 be
       0.07925064 -0.20748237 0.37131602 -0.14277932
0000b0 a2 66 ec 3e 97 31 ac be bf 8c 8d 3e 66 62 3f be
       0.46172053 -0.33631584 0.27646443 -0.1868988
0000c0 0f 79 b1 bc 42 c6 f7 bd 15 f6 58 be 32 d0 08 3f
       -0.02166417 -0.120983616 -0.21187623 0.5344268
0000d0 48 e3 4f be 0c 77 9b be 14 d1 56 bd e0 c7 ef bd
       -0.20301545 -0.30364263 -0.052445486 -0.11708045
0000e0 e2 c4 58 3e 78 f6 89 3e 3d 80 6e 3e 36 25 59 3e
       0.21168855 0.26945853 0.23291107 0.21205601
0000f0 d4 dd d0 be 86 44 bc bc 50 65 24 3e 1f a2 f5 be
       -0.4079424 -0.022981893 0.16054273 -0.4797525
000100 6c 59 d3 bd 3e ae 84 be 85 f9 8a bc ef 02 c2 3d
       -0.1031979 -0.25914186 -0.016964683 0.09473216
000110 11 0b 3c 3e 9d 12 ae 3c 12 fc 6a 3c ed 0c 93 bc
       0.18363596 0.02124911 0.014342325 -0.0179505
000120 36 b7 3c 3d 9c 39 b3 bd 42 81 0b 3d b5 04 cb 3c
       0.04607316 -0.087512225 0.034058817 0.024782518
000130 6a 2b 32 be 9d fd 1e be bd 2b 30 3e f5 37 0d bc
       -0.17399374 -0.15526433 0.17204185 -0.008619298
000140 76 88 fc be 39 b8 bd bd 45 e0 0a be 5b 2a ac 3e
       -0.4932286 -0.09263653 -0.13562115 0.33626065
000150 62 b3 44 be f1 72 8c 3c d1 3c 2a 3e e6 e6 f7 bd
       -0.19209054 0.017144652 0.16624762 -0.12104587
000160 0a 0c 69 bc b2 b1 b3 3d 05 57 8b 3d e5 e4 b0 bd
       -0.014224062 0.08774127 0.06803707 -0.08637408
000170 bb ba 1c bd 53 63 6f be d6 4f 55 bd ec af e9 bd
       -0.038264018 -0.23377733 -0.05207809 -0.114105076
000180 27 cf f0 bd fb 99 7b be 54 6b a2 be 01 01 9f be
       -0.11758261 -0.24570458 -0.3172251 -0.31055453
000190 d2 d3 12 3f 11 55 e0 3d 78 0c e6 3e c4 20 62 3e
       0.5735446 0.10953725 0.44931388 0.22082812
0001a0 5c f2 0b 3f c0 26 60 bd d2 6a 8d ba 8f cf cf 3e
       0.54666686 -0.054724455 -0.0010789281 0.40588042
0001b0 ac a3 a6 3e 2c 53 58 3e 7b ed 0e 3f 23 93 20 be
       0.32546747 0.21125478 0.55831116 -0.15681128
0001c0 ae 31 2d be aa 92 7a 3e df cb 9a 3e 9a d1 a6 39
       -0.16913483 0.2447001 0.30233666 0.00031818153
0001d0 2f 45 b9 ba 03 9b ec 3e f8 90 c2 3e b5 f9 a5 be
       -0.0014134998 0.46212015 0.38001227 -0.32417074
0001e0 a3 3f 28 3e 01 79 a1 bd 1c fc 51 3d 59 3a cf 3d
       0.16430525 -0.07884408 0.05126582 0.10118551
0001f0 e6 3d 8f 3d 50 9d f2 3b b1 06 23 bd aa 2d d3 be
       0.06994228 0.007404007 -0.039801303 -0.41245776
000200 1a 28 0b 3b 3d fb 86 3e eb 51 e4 bd 83 10 fc bd
       0.002123362 0.26363555 -0.11148437 -0.12307837
000210 61 c7 a2 be 87 5f d0 3d ae 2c 40 3d 8e 9b 4e 3e
       -0.3179274 0.101744704 0.04691761 0.20176527
000220 c9 aa c0 be 3b b5 8a be 1f 6a e5 bc 37 8d 60 bd
       -0.376303 -0.27091393 -0.028004704 -0.054822173
000230 d9 04 b0 3e 98 88 29 bd d2 f7 c6 be 5f b1 10 bf
       0.34378698 -0.04139003 -0.38860947 -0.56520647
000240 38 50 1b 3e 6c dc 69 bd f3 8b b8 be 2f 6c 0d 3e
       0.1516732 -0.057094976 -0.36044273 0.138108
000250 f6 8c e7 bd 12 9d 08 be 30 00 81 bd 00 2e e1 be
       -0.11306183 -0.13341168 -0.06298864 -0.43980408
000260 f7 4a 0d be e1 b0 81 bd 02 22 07 bf 46 cf 9e 3e
       -0.13798128 -0.06332565 -0.52786267 0.31017512
000270 8b 33 0a 3e 26 d9 b6 3e 3f fb 42 3e 5d 84 fb 3d
       0.13496225 0.35712546 0.19041155 0.12281106
000280 b0 b5 3a 3e 2c 5d 0c bf 1e 6f 54 be c8 6d a8 bd
       0.18233371 -0.5482967 -0.20745513 -0.08224064
000290 74 67 d5 3e 49 b8 40 3e 0e b7 0d be 37 48 27 be
       0.4168049 0.18820299 -0.13839361 -0.16336142
0002a0 67 4b f7 bd c8 01 d5 3d 2a 48 f0 bb c8 86 14 3d
       -0.12074929 0.1040073 -0.0073328214 0.03626135
0002b0 a9 2f 94 3c 38 e4 c4 bd 20 06 b3 3e 28 c4 dc bd
       0.018089132 -0.09613842 0.3496561 -0.10779601
0002c0 71 87 51 3e e5 c5 f9 3e 2e 22 bc 3d ec 27 0f 3e
       0.20461823 0.48783794 0.09186207 0.13980073
0002d0 4a 21 cf bd 2c 30 aa be ff 0a 8d be ab 80 cb be
       -0.10113771 -0.33239877 -0.27547452 -0.39746603
0002e0 b9 83 9b bc 86 a8 a4 bd 9d 22 c0 3d c1 19 59 be
       -0.018983709 -0.08039956 0.09381602 -0.2120123
0002f0 48 14 df 3e d9 78 e5 bd 1a ba 62 bd e2 a9 11 3e
       0.4357016 -0.112046905 -0.05535326 0.14224961
000300 b0 68 fe 3c 2e e0 da bd 47 eb b5 be d2 62 30 3e
       0.031055778 -0.1068729 -0.35531065 0.17225197
000310 54 19 fe 3e 2e 7e 70 bc cc bf 3c be 91 c7 ce bc
       0.496287 -0.014678521 -0.1843254 -0.025241645
000320 2c fa 1e 3c e6 40 37 3d 6a 95 d6 be 4f 14 98 be
       0.0097032 0.044739626 -0.4191087 -0.29702994
000330 93 7b 46 3e 42 6e 51 bd 62 24 4c be 21 17 29 3e
       0.19383077 -0.05113054 -0.19935754 0.16512729
000340 a3 3b c5 3c b4 e9 1d be c0 d6 7a 3e 6a fd e6 bd
       0.024076289 -0.15421182 0.24495983 -0.11278804
000350 3e 8a ef bd d7 b1 0d 3c 60 d3 17 bb b8 c0 dd be
       -0.116962895 0.008648357 -0.002316676 -0.43311095
000360 c9 36 11 bf ad 41 99 bd 9c 07 da bd 8f 76 9b bd
       -0.5672422 -0.0748323 -0.106459826 -0.07590973
000370 c4 8e ea be f5 17 c3 be a9 8b 94 be 09 d2 ff 3d
       -0.45812047 -0.38104215 -0.29012802 0.12491233
000380 38 fd ac bd 8e 0b bb be 02 18 ca bd a3 06 7c 3e
       -0.08446735 -0.36532253 -0.098678604 0.24611907
000390 10 c9 81 be f4 27 1b 3e b7 63 56 bd e8 40 97 bd
       -0.2534871 0.1515196 -0.05234119 -0.07385427
0003a0 b0 ba c3 bd a8 ac ab 3d dc d1 89 be d6 18 29 be
       -0.09557092 0.08382541 -0.26917922 -0.1651338
0003b0 1a 16 13 3f 62 df fe be 3a 41 a6 bd 0a 86 0d 3e
       0.574556 -0.49779803 -0.0811791 0.13820663
0003c0 9e 9b 29 be 01 86 85 be 31 12 d9 3d bd 2f 24 3d
       -0.1656327 -0.260788 0.10599173 0.04008459
0003d0 f3 c8 1d be b8 16 c6 bc 44 72 1d be 1e f5 32 be
       -0.15408687 -0.024180755 -0.1537562 -0.17476317
0003e0 e2 78 14 be 74 99 98 3e 10 ed 24 3d fd 85 20 be
       -0.14499238 0.29804575 0.040265143 -0.15676112
0003f0 90 85 52 bd 06 a3 12 3d 32 75 f3 be 19 d8 11 3e
       -0.051396906 0.035800003 -0.4755035 0.14242591

actor_mean.2.bias f4 [64]
000000 4d 89 5c 3e 73 54 06 bd be 93 33 3d 27 02 9a 3d
       0.21536751 -0.03279538 0.04384207 0.07519942
000010 00 33 9b bd e1 9f a7 bd f1 51 f2 bd c0 a1 6a be
       -0.07578087 -0.08184791 -0.11832035 -0.22913265
000020 c3 4c 1f 3c c6 89 d1 3b 20 f3 42 bd c5 73 f8 3d
       0.009722891 0.0063945977 -0.047595143 0.12131456
000030 42 83 a9 3c 74 fd 62 3d c2 5c 7c 3d 9c 78 f6 3d
       0.020692471 0.055417493 0.0616119 0.12034723
000040 6b b8 60 3d 34 71 c1 bd e0 81 44 3d c0 c5 69 3c
       0.054863375 -0.0944542 0.04797542 0.014268339
000050 92 c7 fd bb 9c d2 03 bb a5 0e 16 3e 00 f6 76 bc
       -0.007744738 -0.0020114547 0.14654024 -0.015073299
000060 19 ac 61 be 34 04 96 be fb 0a 96 3e b6 55 7f 3d
       -0.22038306 -0.29300082 0.29305252 0.0623376
000070 c9 b7 8c 3d f8 f6 d2 3c 6f 13 53 bd dc d6 44 3e
       0.06870992 0.02575253 -0.051532205 0.19222587
000080 bd b7 cb bb af f2 91 bc 00 4c 14 be 8c d4 25 bd
       -0.0062169717 -0.017815916 -0.14482117 -0.040485904
000090 1c e0 59 3d d6 f4 14 3d 73 85 80 be 0e 3d 61 3e
       0.053192243 0.036366306 -0.25101814 0.21995947
0000a0 bf 29 bf bd df fa 23 3d 49 b9 8b be 2c 8a d2 3d
       -0.09334134 0.04003417 -0.272898 0.102802604
0000b0 5a 3c b2 bd 79 aa 3d 3e 9e 6c f4 bd 9e f9 08 3e
       -0.087029174 0.18522061 -0.119347796 0.13376471
0000c0 df 45 ed 3d 80 c6 b4 3a c6 71 37 be a3 c8 f0 bd
       0.115855925 0.0013792068 -0.17914495 -0.117570184
0000d0 c1 7c 5b bd 14 7a f5 3d 27 1e 32 3e 31 99 08 be
       -0.05358577 0.11986175 0.17394315 -0.13339688
0000e0 e1 be b1 3d 9f d0 98 bd cb 0b a7 3d 6b 9e 48 3d
       0.086789854 -0.07461666 0.08156546 0.048979204
0000f0 0a 59 52 3c d6 4f 32 be f7 e1 a4 bc 5d 26 49 bd
       0.012838611 -0.17413267 -0.02012728 -0.04910885

actor_mean.4.weight f4 [8, 64]
000000 07 8d 75 bc 69 15 1b 3d 98 2a 6d 3d 8a 11 ca 3c
       -0.014987237 0.037862215 0.05790195 0.024666566
000010 89 46 78 bd 1b 96 5f bd 8f aa 66 bb a5 4b 32 3d
       -0.060614143 -0.05458651 -0.0035196876 0.04352917
000020 65 96 67 bd 1b b4 e3 3b 07 55 50 3b b3 9e 2c bd
       -0.05653991 0.0069489605 0.0031788961 -0.042143535
000030 0f 44 dd 3c 4f f5 3b be 04 f6 63 3d 15 fa e9 3d
       0.027009992 -0.18355297 0.05565454 0.114246525
000040 d7 86 25 bd 77 f0 6a bb 66 ba 89 bd d7 58 cb 3c
       -0.040411796 -0.0035848895 -0.06725006 0.024822636
000050 46 10 3d bc 05 b6 9a bd fc b1 41 bc 49 a0 a0 3c
       -0.011539524 -0.07554249 -0.01182222 0.01960768
000060 d4 5a 1e 3d 05 7b b6 bd b0 8b 0a 3d 53 98 02 be
       0.03866084 -0.08910183 0.033824623 -0.1275342
000070 2e ec 73 bd 60 60 0b bd dd 0d 03 3e 9d 9b 11 bd
       -0.05955141 -0.034027457 0.12798257 -0.035548795
000080 6a 40 db bc 7e 21 a2 3d a5 9e 79 3d f7 5c 8c 3c
       -0.026764113 0.079165444 0.06094231 0.017134173
000090 13 89 71 3d 19 f8 06 bd 77 bc d2 3c f0 22 2f be
       0.058968615 -0.032951448 0.025724633 -0.17103171
0000a0 f8 8c f1 bc 95 1f c1 bd 61 21 e4 bc 41 9e 93 bd
       -0.029486164 -0.09429852 -0.027847948 -0.07207919
0000b0 e0 4a 02 bd af 49 0a 3e f4 2a 77 3d 1d 46 a0 bd
       -0.031809688 0.1350467 0.060343698 -0.07825873
0000c0 45 52 3b 3d 1c a3 19 bd 34 a8 ef bb 18 1e db 3d
       0.045732755 -0.03750907 -0.0073137525 0.10699099
0000d0 73 bb 50 3d 4c fa e6 bd e5 3f 0f be 47 e3 6d bd
       0.050960016 -0.11278209 -0.13989218 -0.058078077
0000e0 d6 e6 b6 bc 29 e1 e9 bc 45 bd 86 bc 63 b3 a7 3c
       -0.022326868 -0.028549748 -0.016447673 0.02047128
0000f0 47 b5 d6 bc 51 46 83 bd 1d 8f bd 3d 62 0d 35 3b
       -0.026209487 -0.06409896 0.09255812 0.0027626385
000100 56 46 3e 3e 4f e9 ef bd b0 25 62 bc 58 1e 7c 3d
       0.18581519 -0.11714422 -0.013802931 0.061552376
000110 07 2b 95 3d 54 1f 6d bc e5 8d 1d 3d a8 ab ab bd
       0.072835974 -0.014472801 0.0384654 -0.0838235
000120 ad 0a ad 3c ae b0 4c 3d d9 3c 44 bd b2 57 0a 3c
       0.021123255 0.049973182 -0.04790959 0.00844376
000130 5a 63 5a 3d ef 0d ad bd aa 2e 80 3d 6e 0d ec 3d
       0.053317405 -0.08449923 0.062589005 0.11525999
000140 e3 78 a4 3c fb b5 98 3d 64 86 4d 3d 9f 39 3c 3d
       0.020077175 0.07456585 0.050176993 0.04595339
000150 7c f6 75 bd 38 1f d5 3d eb 1e e6 3c 62 9a 38 3d
       -0.06004952 0.10406345 0.028090915 0.045069106
000160 d3 28 c4 3d 14 33 ff bc dc d9 bd bd 4a 38 0c 3c
       0.09578099 -0.031152286 -0.09270069 0.008558342
000170 f1 60 66 3d 40 7f 87 bd 0b 96 46 bd 87 b1 6f bd
       0.056244794 -0.06616068 -0.048482936 -0.058518913
000180 30 39 c2 3c 4c 86 bf bc ef 21 b9 3d 0a 00 8f 3d
       0.02370891 -0.023379467 0.090396754 0.06982429
000190 f6 b2 15 be 42 0b e8 bd 4e 15 35 bd fe 1a d7 3c
       -0.1461905 -0.11330272 -0.04420977 0.026257988
0001a0 d3 f7 da bd 6c e0 42 bc 99 1d 06 3e 51 c9 eb bb
       -0.106918 -0.011894327 0.13097228 -0.0071956296
0001b0 49 3c cc 3b 5e d5 6c bd 2a 98 42 bd 11 72 fc bc
       0.0062327725 -0.05782067 -0.047508396 -0.03081611
0001c0 d6 e8 df 3d 85 6b 8a 3d b3 a4 40 3d 97 31 b5 3c
       0.10933082 0.06758789 0.04703207 0.022118373
0001d0 fa 96 c8 bb 49 2e b5 3d 21 65 dc 3d c3 3a b3 3c
       -0.0061215134 0.08846719 0.10761476 0.021878606
0001e0 f7 b6 db 3d e3 32 c5 bd e4 25 24 bd 85 0b 3d 3d
       0.10728257 -0.096288465 -0.040075198 0.046153564
0001f0 25 3b c1 3d a9 9f 8b 3d 4a fa 8a bc 3b 31 83 bc
       0.09435109 0.06817562 -0.01696505 -0.016014686
000200 90 a6 06 3c 49 bf 1d 3b d8 44 27 3e 76 ce 04 be
       0.0082184225 0.0024070314 0.16334856 -0.12969384
000210 ce 36 13 be 5a 01 76 3b 09 cf e6 bd 25 87 f4 3d
       -0.14376375 0.0037537427 -0.112699576 0.11939839
000220 ed 7c 81 bd 2c 3f 36 3d 1d a0 bd bc 7c 27 98 bd
       -0.06322656 0.04449384 -0.023147637 -0.07429406
000230 b1 e6 d7 bd 7f c9 08 3d cb a6 a6 bd c0 9c d8 3d
       -0.10542048 0.033395287 -0.08137282 0.10576773
000240 6a 06 a7 3d 5c e2 40 bd 13 b5 ca bc 17 ff 4b bd
       0.0815552 -0.047090873 -0.024744546 -0.04980382
000250 aa 41 27 bd 42 72 97 bd 3e 03 2f bd 46 1f 0a 3d
       -0.040834107 -0.0739484 -0.0427277 0.03372123
000260 42 fc 6f bd f0 7b 71 bc 7d aa 86 bd 79 74 75 3d
       -0.05859018 -0.014739022 -0.06575487 0.05992553
000270 d1 b8 b7 bd 28 c7 e4 3d 01 b2 01 bd ef b7 95 bc
       -0.08970798 0.111707985 -0.0316639 -0.018276183
000280 06 e5 a8 bd 6b 71 be bc d8 ae bd bd 95 8b 6a bd
       -0.08246808 -0.023247441 -0.092618644 -0.057262022
000290 4d 5b 4a 3d 3e 0c f7 3c 13 bb bc 3d 94 bd ac 3d
       0.049403477 0.030157205 0.09215369 0.08434597
0002a0 b4 56 1e bc a9 d3 a0 bc 25 67 83 bd ce 79 58 3d
       -0.009664226 -0.019632177 -0.06416158 0.052850537
0002b0 c9 ac 77 bd b8 95 73 bd 60 96 c8 3d c9 41 b3 3d
       -0.060467515 -0.059468955 0.09794307 0.08752782
0002c0 7c fb 6b bd 80 de 87 3b c4 68 ea bd 68 90 02 bd
       -0.05761288 0.004146397 -0.11445764 -0.031875998
0002d0 5f 77 a6 bd 09 8c c2 3d 1a 1c e0 3b f6 3c 28 bd
       -0.08128237 0.09499366 0.0068392875 -0.041073762
0002e0 66 e6 46 3c 59 0e 04 3a 03 e9 cb bc 9d ef a2 bd
       0.012139892 0.00050375384 -0.024891382 -0.07955859
0002f0 6c 06 26 3c d2 5b 00 3e c0 be 77 3d e9 8b 51 3d
       0.010133367 0.12535027 0.060484648 0.05115882
000300 cd ea bd 3c d0 9a bf 3c c5 5b b9 3d 6f a3 d5 bc
       0.02318325 0.02338925 0.09050707 -0.026078908
000310 ab cb 64 bd b6 42 db 3d 1e 9f 6d 3c 56 bf 79 bc
       -0.055858295 0.107060835 0.0145032685 -0.015243372
000320 bf 74 85 bd 5c e9 a6 bd dd 4a 22 3c 0e cc 6b 3d
       -0.06516408 -0.081499785 0.009905544 0.05756765
000330 1f 00 f1 3d 4c 55 e7 bb 7c b9 81 bc 62 da 05 3d
       0.11767601 -0.0070597287 -0.015835516 0.03267897
000340 e8 6a 75 3c 13 6f c0 bd 11 e5 e0 3c 50 ff a0 3d
       0.014979102 -0.09396186 0.027452977 0.07861197
000350 a6 ef 6f bd 7f d7 ab bc 71 04 0d 3d 58 59 e2 bc
       -0.058578156 -0.02097678 0.034428064 -0.027630493
000360 f9 b7 1a bd b4 3e aa bc 1a 5b 76 3d 4c 44 89 bd
       -0.037773106 -0.020781852 0.060145475 -0.0670248
000370 4c 0d 67 bc 9e 23 12 3d 65 45 73 3c 13 82 0f be
       -0.014102291 0.0356785 0.014848088 -0.14014463
000380 30 c4 a3 bd 29 10 ea bd cb 2e 50 bd d4 c1 a4 bd
       -0.07996404 -0.114288636 -0.050825875 -0.08044782
000390 28 01 80 3b 3f 62 97 3d f5 09 ea 3d 01 d5 35 3d
       0.003906388 0.07391786 0.114276804 0.04439259
0003a0 0b 32 2e 3d eb ea 09 3d bf 60 40 3d 29 a5 c4 bd
       0.042528193 0.0336713 0.046967264 -0.09601814
0003b0 a8 05 6a 3d 16 0a 6a 3d 0e 39 3c bd 84 94 c0 bc
       0.0571343 0.057138525 -0.04595285 -0.023508318
0003c0 98 8d 4e 3c 18 cc 0d 3d 50 70 38 bd d5 05 8d bd
       0.012607001 0.034618467 -0.045028985 -0.06885878
0003d0 c5 1f cf bb d1 74 11 bd 34 1e 8d 3d 93 9f d4 bd
       -0.006320926 -0.035511795 0.068905264 -0.10381999
0003e0 48 f5 2b bd 0a e2 93 3d b9 98 8c bd 8b 2a d6 bc
       -0.041981965 0.07220848 -0.06865067 -0.026143333
0003f0 8e d7 bf bc c0 5b 0d bd e2 54 01 3d 25 69 2d 3d
       -0.023418214 -0.034511328 0.03157509 0.0423366

actor_mean.4.bias f4 [8]
000000 69 8d ee bc c3 46 18 3c bb 9c ba bd 08 ac e7 bc
       -0.029120164 0.009294215 -0.09111925 -0.028280273
000010 86 12 bf 3d 62 19 e8 3c a3 5b cb bc 18 be 56 bd
       0.09329705 0.028332416 -0.02482397 -0.05242738
