DATA403_final/checkpoints/Ant-v4/PPO_7812.pt (torch, 54349 bytes, 12 tensors)

actor_logstd f4 [1, 8]
000000 3d 91 ab bf 22 ad af bf ca 58 9d bf 12 bd f4 bf
       -1.3403698 -1.3724711 -1.2292721 -1.91202
000010 27 ed a4 bf 49 36 da c0 20 93 e1 bf ce 94 cf bf
       -1.2884873 -6.8191266 -1.7623024 -1.6217287

critic.0.weight f4 [64, 27]
000000 41 1b 2f be 9e 24 a1 be fe 3a 23 3f 17 49 31 c0
       -0.1710024 -0.3147325 0.6376189 -2.770086
000010 dd 37 78 3e 4e 99 05 be 60 ec 3a be ae 87 5a 3d
       0.2424006 -0.13046762 -0.18254232 0.05335205
000020 d9 c7 09 be b1 77 1e be d3 09 de 3e 93 f8 5d 3c
       -0.13455142 -0.15475346 0.4336687 0.013548034
000030 b9 25 e4 bd 67 61 87 be 01 be 18 3e 62 dd c0 3e
       -0.111400075 -0.264415 0.1491623 0.37668902
000040 52 05 f3 3d 45 78 7b be a3 46 69 bd fe c0 85 bc
       0.11866249 -0.24557598 -0.05695213 -0.016327377
000050 ef fa 57 bd 69 a6 97 bd a9 18 0f 3b e5 39 da bb
       -0.052729543 -0.07404787 0.0021834767 -0.0066597336
000060 8c 15 ff bc dc c5 89 3c 55 c1 98 3c 2a f2 40 3e
       -0.031138204 0.01681798 0.018646875 0.18842378
000070 27 45 b9 3f 18 bf d1 3d 3e fc 53 3f 0b 03 63 3f
       1.4474229 0.10241526 0.82806766 0.8867652
000080 91 ab d8 3e d3 5f 23 be 27 33 cc 3c 9d 70 74 3e
       0.42318395 -0.15954523 0.024926735 0.23871084
000090 19 61 ad 3e 14 66 0f 3e 35 e1 66 3e 3d e0 80 3d
       0.33863142 0.14003783 0.22546847 0.0629277
0000a0 7c 0d 99 3c 1a 70 68 bc d9 d8 34 3e 6a 05 de 3d
       0.018683188 -0.014186883 0.17660846 0.108408764
0000b0 4a 0c 54 3d ec 08 c4 3d 5e 62 06 3d 63 d2 05 ba
       0.051769532 0.09572014 0.032808654 -0.00051048974
0000c0 8c ce 5c 3c aa 3e 92 3c f9 0f aa 3c 39 a8 69 3c
       0.013476979 0.017852146 0.02075957 0.014261299
0000d0 c9 c1 49 3c 56 b1 7b 3c a1 4e ca be 95 12 e7 3e
       0.012314268 0.015362104 -0.39513114 0.45131364
0000e0 ab ab 60 be b0 9b 1a 3e 06 95 b2 bf 52 7d 6c 3e
       -0.21940486 0.15098453 -1.3951728 0.23094681
0000f0 e3 34 13 be 6d 92 ab be 63 df 00 bd 12 e2 cc bd
       -0.14375643 -0.33510152 -0.03146304 -0.10004057
000100 d7 09 2e 3d 2e fa 84 be 70 9f d4 be 74 97 1d 3d
       0.042489853 -0.25972122 -0.4152789 0.038474515
000110 08 8e ca 3b 99 45 8d bd 3d 69 90 3e 5f fe b1 bd
       0.006181482 -0.0689804 0.2820529 -0.086910956
000120 59 61 d7 3d fc 70 f6 3c 25 59 9b bc 01 52 36 bd
       0.105166145 0.030083172 -0.018963406 -0.0445118
000130 9f 56 56 3d bc 17 7f 3b c7 65 e9 bc 8d 6c 14 3d
       0.052328702 0.003892406 -0.028490914 0.036236335
000140 99 29 25 3d 35 f8 8d be af f8 d0 3e da 39 6f bf
       0.040322874 -0.2772843 0.4081473 -0.9344765
000150 6a 4f 4b bf 8e 88 c3 3f e4 a5 29 be f8 63 28 3e
       -0.7941805 1.5276048 -0.16567189 0.16444385
000160 39 62 b6 bd 49 f9 1f 3e 8e 7e 3f 3e 57 94 f2 ba
       -0.08905453 0.15622438 0.1870062 -0.0018507343
000170 e0 b4 74 be 85 74 f2 bc f2 c6 58 bb b6 2c e2 bc
       -0.23897123 -0.029596576 -0.0033077565 -0.02760921
000180 9c e1 1a 3d 15 84 9b bd 8a a4 0c be 58 9b bd 3d
       0.037812814 -0.07593552 -0.13734642 0.09258145
000190 f8 f6 32 3c 76 24 2d bc 93 10 ef 3b 4b 05 7b bc
       0.01092314 -0.010567775 0.007295677 -0.015321086
0001a0 b4 67 17 3c 39 0c 15 bc 35 82 ec 3c 5e ad 37 bc
       0.009241033 -0.009097152 0.028870681 -0.011210768
0001b0 1f 8b 51 bf 4a 8c 8c 3e 2a a6 e5 3f 75 17 46 bf
       -0.81852907 0.27450782 1.7941334 -0.7737954
0001c0 e6 d6 a9 3f b0 df 3b bd 85 e2 f3 bd af 4e b1 3c
       1.3268707 -0.045867622 -0.119084395 0.021643965
0001d0 6b 5f 6c bd 0d 83 b6 be 24 92 95 be 12 52 f7 3e
       -0.057708185 -0.3564686 -0.2921306 0.48304802
0001e0 5d dc 7b bd f9 ee 9e 3d 57 c2 35 be a4 25 3f be
       -0.06148945 0.07760424 -0.17749916 -0.18666703
0001f0 ac 98 ea 3d 62 10 98 be b7 95 dd 3d 4f 1b 96 3b
       0.11454901 -0.297 0.108195715 0.004580892
000200 8a 72 1d bd 16 b9 c9 3b 0c 4c bb bb 9b b9 04 3c
       -0.03843931 0.006156097 -0.0057158526 0.008100892
000210 a1 b3 3a bd 25 25 2c 3d 65 51 8c bb 5a 2e 86 be
       -0.045581464 0.04202761 -0.004282164 -0.26207238
000220 65 b1 28 be cc bb 60 3f ed 62 a6 bf a5 ac c0 3e
       -0.1647392 0.87786555 -1.299894 0.37631717
000230 6a 33 cb 3e 67 25 8d bf 84 7f f2 3b 72 10 e7 3e
       0.39687663 -1.1027039 0.007400455 0.45129734
000240 94 ef 55 3d ab 10 cc 3e ce 1f 93 3d 42 63 14 be
       0.052230433 0.39856467 0.07183801 -0.14490989
000250 f3 c1 d8 3d fa c5 06 3e e7 7e f3 be 13 ae d4 bc
       0.10583868 0.1316146 -0.47557756 -0.025961911
000260 59 f5 47 bd 9f 1f b0 bc 79 12 45 3d e9 72 98 bd
       -0.048817966 -0.021499453 0.04811332 -0.074437924
000270 40 a5 0c 3d 6b c7 79 3d 62 7d 58 bd 2a a2 50 3d
       0.034337282 0.060981195 -0.05285395 0.0509359
000280 1c 76 24 bd 6d 0b 1b 3d d0 a4 a7 3e cd 3d 00 3f
       -0.0401517 0.037852693 0.3274293 0.500943
000290 9d cf 93 3e d4 00 43 40 5c 23 c2 3e 46 ad 49 bd
       0.28869334 3.0469255 0.37917602 -0.049237512
0002a0 bb d3 2d 3e ca aa b0 3d 3e 53 c6 3c f2 06 2c 3e
       0.169753 0.086263254 0.024209615 0.16799524
0002b0 d4 3a 8f bd 1b 04 a3 bd 95 8c fb 3e 02 2a 5a 3d
       -0.069936424 -0.079597674 0.49130693 0.053262718
0002c0 bf df 38 3e 94 2c 4e be dc 66 0c 3d a6 ce 51 3e
       0.18054102 -0.20134193 0.03427778 0.20488986
0002d0 00 20 2c 3e b5 58 c6 3c 53 94 b9 3c 7b 96 13 3d
       0.16809082 0.02421222 0.022653734 0.03603218
0002e0 c4 2f c3 3c ca 2f 1c bc 25 ae 12 bc db 14 03 3d
       0.023826487 -0.009532878 -0.008952652 0.03200231
0002f0 29 f0 6a 3d 56 08 2b be 8c 73 bc 3d f7 7d 1e 3e
       0.05735794 -0.16702399 0.09201726 0.1547774
000300 4f ca 88 3e ac 2b d8 bd 8f 04 e9 3d 53 61 c8 3e
       0.2671685 -0.10555205 0.113778226 0.39136752
000310 54 4f 9f be 8d 0f 9e bf 5d c9 87 3d f0 f0 d3 be
       -0.3111521 -1.2348496 0.06630204 -0.41394758
000320 0e dd bb be 07 87 c7 3e 20 b6 82 bb f6 cd fa bd
       -0.3669209 0.38970205 -0.003988996 -0.12246315
000330 ec 5d 89 bf 19 af 3e be 6e d7 3c be 8e d1 94 be
       -1.0731788 -0.18621482 -0.18441555 -0.29066128
000340 4a d1 00 bd 1d b8 76 3d 62 dc e0 bc 62 21 6f bd
       -0.031449594 0.060234178 -0.027448837 -0.058381446
000350 01 a9 3c bd d0 76 59 3b a0 b8 03 bd 98 35 42 bc
       -0.046059612 0.003318239 -0.032158494 -0.011853598
000360 58 4e d7 3e c3 1f d3 3e 3b 06 39 3f a9 89 19 c0
       0.4205196 0.4123517 0.7227513 -2.399027
000370 95 f1 79 3f ad c7 8c be 31 41 cb 3d f4 68 75 bd
       0.9763425 -0.2749609 0.09924544 -0.059914544
000380 c2 1c 26 be 8c 0c 8e 3e 00 9a b9 bd 23 4a c7 3e
       -0.16221908 0.27743948 -0.09062576 0.3892375
000390 4c 26 f9 3c 1a 52 dc 3c d2 59 f8 bd 01 b2 37 3d
       0.03041377 0.026894618 -0.12126507 0.044847492
0003a0 fa c7 a9 bc b8 3c 84 3d 35 23 dc 3a 4d 9d 22 bc
       -0.020725239 0.06456894 0.001679516 -0.009925199
0003b0 62 e4 9e 3c 9f e9 30 bc 7a 77 b6 bb c2 18 8a 3b
       0.01939601 -0.010797887 -0.005568442 0.004214377
0003c0 e8 e6 5e 3c 38 69 89 3c 68 c1 f6 3c eb fb 22 3f
       0.013604857 0.016773805 0.03012152 0.63665646
0003d0 ee 33 4f bf 44 f1 a5 3d ea 26 1b 3d 59 eb 6c 3f
       -0.80938613 0.081026584 0.03787891 0.9254661
0003e0 1d 25 da 3e 94 74 2c 3e 6a 84 26 be 64 1c 80 bd
       0.4260644 0.16841346 -0.1626145 -0.06255415
0003f0 38 07 ac be 1a 40 36 bd 1e 90 dd bd 97 35 5b 3e
       -0.33599257 -0.044494726 -0.10818504 0.21407162

critic.0.bias f4 [64]
000000 d0 a5 84 bc f0 1e 65 be 29 aa 08 bf 0b ef 25 bf
       -0.016192347 -0.22375083 -0.53384644 -0.64817876
000010 e9 f0 27 3e af c1 21 bf 83 97 29 3e ca 24 b8 3f
       0.16400494 -0.6318616 0.16561703 1.4386227
000020 3b 80 bd be 35 6c 41 3e b6 8f f8 be 8f 36 ca 3e
       -0.37011895 0.18888934 -0.48547143 0.3949475
000030 45 42 81 3f 74 0c 97 3e de 12 7b be da 20 3f bf
       1.0098349 0.29501688 -0.24518916 -0.746595
000040 33 f4 4e bf c8 64 59 bf 4a 75 95 3e b7 70 2d be
       -0.8084137 -0.84919405 0.29191047 -0.16937529
000050 4d 2a c8 3d 39 c0 19 3d 8d 4e 72 3e 3b 5d 4d 3f
       0.09773693 0.037536833 0.23662777 0.80220383
000060 56 26 b5 bd 17 6f 1a bf 53 e3 12 3e 15 d6 a1 3e
       -0.088452026 -0.6032576 0.1434453 0.31608644
000070 25 74 c7 3e b9 0a 9d 3f 1c 31 d8 be 52 ab 47 bf
       0.389558 1.2268897 -0.42224967 -0.7799579
000080 7b ee 75 bd 07 34 5b 3d dd 66 0f 3e 98 c0 a2 bf
       -0.060041886 0.053516414 0.14004083 -1.2715025
000090 7e 72 9e be 83 fb 02 3e a6 85 aa 3d 9d 9b 28 3f
       -0.30946726 0.12791257 0.08326273 0.6586245
0000a0 d2 1e e0 be 39 21 14 bf ed 4a 99 be d1 0a 9b bf
       -0.43773514 -0.57863194 -0.29939976 -1.2112676
0000b0 2a 1d 15 3e f4 d1 46 bf 1b 47 f6 3e 4b b9 12 3f
       0.14561906 -0.77664113 0.48101124 0.57313985
0000c0 0b 97 a8 bf ef 88 87 3e b7 21 3b bf a2 38 f8 bd
       -1.3171095 0.2647166 -0.7309832 -0.12120177
0000d0 98 ad 5a be ea e0 49 be fd a7 b9 3e 22 8b 9e 3e
       -0.21355283 -0.19714704 0.36260977 0.30965525
0000e0 87 67 87 bf 28 6b 89 be 60 a1 8c 3e 96 28 cb bd
       -1.0578469 -0.26839566 0.2746687 -0.099198505
0000f0 71 f4 5c 3f 8c 63 ee 3e e3 16 19 3f 75 d8 74 bf
       0.8631049 0.46560323 0.5980055 -0.9564279

critic.2.weight f4 [64, 64]
000000 4c b4 12 be e1 11 d8 be 23 5c 81 3d ae 96 9c be
       -0.1432659 -0.4220114 0.06316402 -0.3058371
000010 2a 05 d6 be d7 0a ac 3c 0c a0 5e 3e 6a 0e 78 be
       -0.41800815 0.021001263 0.2174074 -0.24224249
000020 60 53 af be 54 ba 19 3d fd d3 b2 3e 90 eb 58 be
       -0.34243298 0.037531212 0.3492736 -0.2118361
000030 81 0b 94 be 3c 19 a9 bd a1 75 99 3e d6 a2 ff be
       -0.28915027 -0.08256766 0.29972556 -0.4992892
000040 69 f3 0f 3e 43 b9 7e be 53 9e 90 be 04 63 8c be
       0.14057697 -0.24875359 -0.28245792 -0.27419293
000050 5c a4 3a bc 16 9a c5 be f1 13 c0 3e 76 a7 03 3d
       -0.011391725 -0.3859412 0.37515214 0.032142125
000060 73 d4 19 be ec 2f 09 be 7c 86 66 3e 0c 50 0d bf
       -0.15022449 -0.13397187 0.22512239 -0.55200267
000070 e6 58 a8 3d 26 77 a8 be 04 b8 ac 3e 0f f8 b0 3e
       0.08220081 -0.32903403 0.33734143 0.34564254
000080 44 25 c4 3d df 6c f7 be ec df b9 be b0 8f 98 3d
       0.0957742 -0.4832525 -0.3630365 0.07449281
000090 20 e7 0c bf e4 76 9e be cb 31 ac 3e 66 84 91 3e
       -0.5504017 -0.3095008 0.3363174 0.28421324
0000a0 3e c7 0c 3f a4 36 00 be b5 05 03 bf 6c cc b7 3e
       0.5499152 -0.12520844 -0.51180583 0.3589815
0000b0 ba 95 fa bc 3a 0f 9f be 07 84 d5 3d 87 0d 65 3e
       -0.030588973 -0.31066304 0.10425573 0.22368442
0000c0 e1 77 ae 3e 33 6e 80 be 36 7b cb bd 75 52 44 be
       0.34075835 -0.25084075 -0.0993561 -0.1917208
0000d0 4d ea 90 be 2c 9d 39 be db 39 b1 be f2 4a 6b be
       -0.28303757 -0.18126363 -0.34614453 -0.22977808
0000e0 50 fe 0b 3f 0b b6 f7 bd f4 a5 63 3e 83 53 16 be
       0.54684925 -0.12095269 0.22231275 -0.14680295
0000f0 90 cf 97 bd 01 6f cb be 98 5b 59 be 8f fa cd 3e
       -0.07412636 -0.39733127 -0.21226346 0.40230224
000100 02 46 05 bf 03 77 a5 3e 2e 0b ab 3e 8f 54 4a be
       -0.5205995 0.3231736 0.33406967 -0.19758819
000110 6e da 4f 3e 73 e4 16 be 0d 6e 5a 3f 67 95 7e 3c
       0.20298168 -0.14735584 0.85324174 0.01553855
000120 b2 bf bf be 8c e3 39 3e 14 58 0e 3e ff 19 af be
       -0.3745094 0.18153208 0.13900787 -0.3419952
000130 95 f6 ff 3d 75 d6 72 3e 01 63 47 3d 6d d0 c7 be
       0.12498204 0.23714621 0.0486784 -0.39026204
000140 40 c2 22 be 90 c5 f7 bd 01 30 91 3e f5 ef f9 3e
       -0.15894413 -0.12098229 0.28356937 0.48815885
000150 46 d8 ca bd 4f e4 85 be df 7b 07 3f 1b 32 c5 3d
       -0.09904532 -0.26150748 0.5292339 0.096286975
000160 41 1f 0a 3f 57 4f d7 bd ed 42 1a be be ed 1d 3f
       0.5395394 -0.1051318 -0.15064593 0.6169089
000170 5c 62 a2 3e ce 50 20 3e 2d 53 2a 3d 56 53 3b 3d
       0.31715667 0.15655825 0.04158323 0.045733772
000180 a8 19 16 be 7f 25 68 bc 5c 2c ad 3e 04 c0 5b be
       -0.14658225 -0.014169096 0.33822906 -0.21459967
000190 b0 52 fa 3d f8 f2 dc be e7 dd bf be ba 0b 1d 3e
       0.12222803 -0.4315412 -0.37473986 0.15336505
0001a0 1f 3e 3f 3e 0e 30 94 be ac d9 0a bf 0d 33 89 be
       0.18676041 -0.28942913 -0.5423839 -0.2679676
0001b0 85 0e d1 bc bc 40 bb be ba 76 ed 3d be a6 7f bd
       -0.025519619 -0.36572826 0.11594911 -0.062414877
0001c0 03 1d 73 be 47 6f b3 3e 2e 29 39 3e a8 f2 c3 bd
       -0.23741536 0.35045835 0.18082115 -0.095677674
0001d0 ff 4f a9 be 0f f6 1e bf 70 c5 df 3e cc 87 0f bb
       -0.33068845 -0.62094206 0.4370532 -0.002190101
0001e0 fa 0a f6 be 4a a9 c3 bc ea 49 55 3e 0d 5a b5 3a
       -0.4805525 -0.023884434 0.20828977 0.0013836041
0001f0 cb 26 81 3e c2 b8 f3 3e 0b 8a 53 3d d5 5c af be
       0.2522491 0.47601897 0.05164532 -0.34250513
000200 cb b0 46 be c1 ac b4 3e b7 30 70 be 74 79 c1 be
       -0.19403379 0.3528805 -0.23456083 -0.37787974
000210 1b 6d 03 3e 73 0b 95 be 37 62 4d 3e a9 9d 5f 3f
       0.12834589 -0.29110298 0.20056997 0.87349945
000220 60 b8 26 bf ec 2c a2 bd 9e 4a 3c 3d 30 06 2a 3e
       -0.65125084 -0.079187244 0.045969598 0.16603923
000230 f5 00 dc 3e b6 d0 aa bd d2 62 51 3d 55 43 96 be
       0.4296948 -0.0834059 0.051119633 -0.29348245
000240 08 a4 9d bc af 64 51 be 83 5b a4 3d 2f 4f ec 3e
       -0.019243255 -0.20448564 0.08025267 0.46154162
000250 b3 b8 ff 3a bd 57 65 3e 6f 61 03 3e 8f a7 3c 3e
       0.0019510001 0.22396751 0.12830137 0.18423294
000260 3b ad 8a be ac 8b 1d bf 1c d1 a4 3e cd ac e4 bd
       -0.2708529 -0.6154125 0.32190788 -0.11165772
000270 e1 a6 d8 3d 81 ec 09 3f ae 4b cf bd 27 f4 7b be
       0.105787046 0.538765 -0.10121857 -0.24604855
000280 87 fb 31 bc cd 6f af bb 7e 26 b4 3e 4c 36 77 be
       -0.010863191 -0.005353904 0.35185617 -0.24141806
000290 fb 79 71 3e a5 3d b5 bd 43 e5 91 be 85 0f 61 3e
       0.23581688 -0.088496484 -0.28495225 0.21978576
0002a0 9e c9 99 be 19 f2 91 be 15 12 84 bb 4c a6 00 be
       -0.30036634 -0.28505018 -0.004030476 -0.12563437
0002b0 07 76 fc bd 2c b5 16 bf 7d a4 9e 3e 3c 67 27 bc
       -0.123271994 -0.58870196 0.3098487 -0.010217484
0002c0 1d 9f 9b be 40 49 b4 3c b4 36 c8 be d6 61 c9 3d
       -0.3039483 0.022007585 -0.39104235 0.09833114
0002d0 d7 42 95 be a9 51 ac be 8e 64 18 3e 98 3e 90 3e
       -0.29152557 -0.33656052 0.14882109 0.28172755
0002e0 87 61 62 be d9 33 6e 3c 01 52 a2 3b a9 65 a9 bc
       -0.22107516 0.014538729 0.0049536233 -0.020678358
0002f0 a2 61 de bd 39 d2 5e 3f 79 84 ab 3e a3 80 dd be
       -0.10858466 0.87039524 0.33499506 -0.43262205
000300 68 94 18 3e 98 f2 5d bf 17 17 e1 bd f1 2c 50 bf
       0.14900362 -0.86698294 -0.10990732 -0.81318575
000310 c1 9d 51 bf 3e de 91 3d d0 82 f6 be 47 1e a2 3d
       -0.8188134 0.071224675 -0.48146677 0.07915931
000320 59 ed 0d bf d2 fc ee 3e ee 7e a7 be 3a a5 aa 3e
       -0.5544029 0.46677262 -0.32714027 0.33329183
000330 5f 3e a6 3c 8c 10 b6 3d 1e 06 0f 3e 20 78 65 3d
       0.020293413 0.08889875 0.13967177 0.056022763
000340 15 16 e2 3d 05 5b b8 be 24 b3 5e 3e 0b 54 1e 3e
       0.11039368 -0.36006942 0.21748024 0.15461747
000350 1a 86 9e 3d 59 e4 5f bf ab fa db 3e 11 bf f7 bb
       0.077404216 -0.87457806 0.42964682 -0.0075606187
000360 cd e5 31 bf 47 8e 01 bf 2d f3 fb be f9 b1 b4 3c
       -0.69491273 -0.50607723 -0.49208966 0.02205752
000370 ff b7 17 3f 78 eb 04 3d 2a 3a 6a 3e 01 c9 5f 3e
       0.5926513 0.032451123 0.2287375 0.2185402
000380 12 55 66 be 66 a8 06 3f 20 e8 85 be 63 63 83 be
       -0.22493389 0.52600706 -0.2615366 -0.25661764
000390 4c d8 0e bf 9b f0 21 bf 08 e3 ac 3e 0a 45 30 bd
       -0.5579879 -0.6325776 0.3376696 -0.04303459
0003a0 24 00 93 3d a8 d4 df 3d 3f 54 a8 3e 57 af c4 3d
       0.07177761 0.10929233 0.32876775 0.09603756
0003b0 7e 33 f0 bd c8 e9 25 be 47 e7 36 3e e5 10 4e 3e
       -0.11728571 -0.16202462 0.17861663 0.20123632
0003c0 7c 80 ad be 92 1b d5 be b2 6b 73 be 89 2d d8 be
       -0.33887088 -0.41622597 -0.23771551 -0.4222224
0003d0 8f 3b 82 3e fc fb 21 3e 5a 86 2e 3f 6a 6b 59 be
       0.25436065 0.1581878 0.68173754 -0.21232381
0003e0 98 44 3f be 02 47 1c 3e 64 e9 ff 3e 4a e3 94 be
       -0.1867851 0.15261462 0.4998275 -0.29079658
0003f0 77 34 07 3e 5f 33 db bd 67 19 a6 3d 2f f0 78 be
       0.13203607 -0.10703158 0.08110314 -0.24310373

critic.2.bias f4 [64]
000000 90 05 a0 bd 58 ac 5f 3d f6 f4 66 3d 67 bf 8c 3e
       -0.07813561 0.05460772 0.056385957 0.27489778
000010 70 29 8a be 2b 2a e3 3d e9 0f b9 bd 67 72 ac 3d
       -0.2698474 0.11092027 -0.09036238 0.08420258
000020 3a 03 e1 bd f9 87 1a 3e f1 de dc 3d 3d 81 99 3d
       -0.109869435 0.15090932 0.1078471 0.07495353
000030 59 93 22 3e af 88 17 3e 6b 43 6d be 42 4a 80 be
       0.15876521 0.14798234 -0.23170249 -0.25056654
000040 f3 06 1a 3d b6 8a 96 3d ef db 42 be 60 d5 60 be
       0.037604284 0.07350676 -0.1902921 -0.21956396
000050 b7 fd b3 bd 8e a2 78 be fb bb 88 bc 24 43 50 3d
       -0.08788627 -0.2428076 -0.016691199 0.05084528
000060 1c f3 8e 3e e2 53 39 3e f4 44 4d 3e e1 35 56 be
       0.27919853 0.18098405 0.20045835 -0.2091899
000070 82 6c f3 3d 8d e3 73 be 35 cb e4 bc 92 d9 6d 3d
       0.118859306 -0.23817272 -0.027928928 0.05806882
000080 17 26 ca be 28 47 0e 3d f0 70 f3 3d 24 f5 3b 3e
       -0.39482185 0.03473583 0.118867755 0.18355232
000090 c9 cc 12 3e 9b 94 60 3e 67 87 7c be 56 db a1 3d
       0.14335932 0.21931688 -0.24661027 0.07903163
0000a0 19 8c ed be f2 9d 86 be cc 7b 66 3c a4 37 a6 be
       -0.4639595 -0.26292378 0.014067601 -0.32464325
0000b0 91 66 a8 3d d9 77 54 be 43 27 6b 3e 49 8d a6 be
       0.08222688 -0.20748843 0.22964196 -0.32529667
0000c0 86 95 cd 3d d2 09 2a be 4c d1 89 3e 21 17 0f ba
       0.10038285 -0.16605309 0.26917493 -0.00054584636
0000d0 80 ac 90 bd 0e b0 da 3b 91 52 21 be bf 8a 83 3e
       -0.07064152 0.0066738194 -0.15754153 0.25691792
0000e0 fb af e4 3d a1 9d 29 bf d8 49 18 be dc 9b f8 3d
       0.11166378 -0.6625615 -0.14871919 0.12139103
0000f0 eb af dd 3d 6a ac 7c be 10 7b 3b 3c 10 71 6a 3d
       0.10824569 -0.24675146 0.011442915 0.05723673

critic.4.weight f4 [1, 64]
000000 26 b6 82 c0 a7 5a 68 40 2b d5 77 40 68 72 9e c0
       -4.084735 3.630533 3.8723857 -4.9514656
000010 fd 85 a5 40 39 cf 53 40 ec 53 3d c0 91 42 47 40
       5.172606 3.3095229 -2.9582472 3.113438
000020 e9 26 6f c0 1b 38 64 40 a7 ab 5d c0 df 33 44 40
       -3.73675 3.5659244 -3.4636018 3.065666
000030 59 28 55 40 87 24 4b 40 42 56 a1 40 77 a9 58 c0
       3.3305876 3.1741045 5.0417795 -3.3853433
000040 49 a8 5f c0 8d 07 7a 40 8d dd 43 c0 51 28 a8 40
       -3.4946463 3.9067109 -3.0603974 5.2549214
000050 8e d5 51 c0 d6 06 3c c0 fb 17 5c c0 3f e9 50 c0
       -3.2786593 -2.9379172 -3.4389637 -3.2642362
000060 a0 4a 75 40 21 0c a4 c0 17 02 4d 40 08 49 65 40
       3.8326797 -5.1264806 3.2032526 3.5825825
000070 80 ec 53 40 32 3b 34 c0 e4 88 75 40 d0 52 66 40
       3.3113098 -2.816113 3.8364801 3.5988045
000080 aa bc 9f 40 0a 85 6a 40 4a 9c 46 40 da 75 55 40
       4.9917803 3.66437 3.1032891 3.335318
000090 5a 9e 80 40 bd 21 8a 40 7d c9 a5 40 5b 5a 5f 40
       4.01933 4.3166184 5.1808457 3.4898899
0000a0 69 a4 ba 40 e7 9c 4c c0 8a b9 7a 40 4d 53 9b 40
       5.8325696 -3.1970766 3.9175744 4.8539186
0000b0 26 5a 50 40 40 e3 84 40 3e 0e 94 c0 cc df 9b 40
       3.2555022 4.1527405 -4.6267385 4.871069
0000c0 58 7f 55 40 39 79 a0 40 c9 34 58 40 74 4a 59 c0
       3.3358974 5.0147977 3.3782218 -3.3951693
0000d0 9e 46 77 40 6d a1 81 40 d3 c6 6e c0 2a 00 a9 c0
       3.8636851 4.0509553 -3.7308853 -5.28127
0000e0 14 35 66 c0 59 73 3c c0 f1 84 8c 40 fd a9 4a 40
       -3.5969896 -2.9445403 4.391228 3.1666253
0000f0 c4 b7 5f 40 f6 59 9b 40 3f 6a 5c c0 a5 94 8d c0
       3.4955912 4.8547316 -3.4439847 -4.424395

actor_mean.0.weight f4 [64, 27]
000000 a3 f8 d4 bd f7 8c aa be 86 8f 0b 3e a0 bb c6 be
       -0.10398986 -0.33310673 0.13628969 -0.38815022
000010 31 f9 b6 bc ee 1c a2 be b4 e7 0b 3e d6 1d 97 3e
       -0.02233562 -0.31662697 0.13662606 0.2951495
000020 a3 dd 2b bd ab 7e 14 3e 43 99 60 3e 34 5d f7 3e
       -0.041959416 0.14501445 0.21933465 0.48313296
000030 55 57 1e bb 5e 2c 3d bd 95 e0 bd bd 44 8b f3 be
       -0.002416094 -0.04618489 -0.09271351 -0.4756719
000040 36 a6 0a 3f e9 1a 10 be b1 d5 8f 3d d8 38 4e bd
       0.5415987 -0.14072765 0.0702318 -0.05034718
000050 85 46 6c 3e 9b 74 57 3e 53 b5 b5 bd 25 4e d8 3e
       0.23073776 0.21040575 -0.088724755 0.4224712
000060 f6 1b 15 3d 33 7d 1c 3b 6e 16 ea bd 42 8a b3 be
       0.03640362 0.0023878335 -0.114300594 -0.3506642
000070 ec ee b2 bd 3e aa 34 3e e8 95 de 3e 40 84 8f be
       -0.08736977 0.17643067 0.43473744 -0.28030586
000080 c9 58 ea 3d 87 6f 4b 3e 84 2a 08 bd 49 55 6f 3d
       0.11442716 0.19866763 -0.03324367 0.058430944
000090 41 02 42 3b 29 82 86 be f6 ca 56 3e fb 9f c9 3d
       0.0029603394 -0.2627118 0.20975861 0.09844967
0000a0 e7 5e 07 be 5c 38 36 be a9 b2 03 bd cb 1e ce 3e
       -0.13219796 -0.17794937 -0.032152805 0.40257868
0000b0 6c ff 8d 3e 4d 4f b5 be 36 25 be bb 1e a0 68 3a
       0.27733934 -0.35412064 -0.0058027757 0.0008873957
0000c0 0b 6b da bc 21 e7 70 be 3f 10 fa bd 1c 04 92 3e
       -0.02666237 -0.23525669 -0.1221013 0.2851876
0000d0 03 01 39 be d5 ea c6 be 09 0e 8c be e9 22 c6 3d
       -0.18066792 -0.38851038 -0.27354458 0.09674627
0000e0 da d8 d9 3e 47 8d 58 bb dc c5 b4 3d 10 73 4c 3e
       0.42548257 -0.0033043192 0.08826801 0.19965768
0000f0 0b 1b 96 bc 07 dd 5c 3e 58 ec ff bc 03 96 0f bf
       -0.018323442 0.2156869 -0.031240627 -0.56088275
000100 77 2c 37 3d 58 4e 6f 3e 21 d5 7a bb 90 67 7b 3d
       0.04472014 0.2336973 -0.0038274007 0.06137806
000110 cf 65 91 be 67 f2 f0 3d 3d 6d ca 3d 48 f0 ce be
       -0.28397986 0.117649846 0.09884117 -0.40417695
000120 bf 58 8a be 49 9c 69 bd 21 75 cb be 5c 73 d9 3d
       -0.27020833 -0.05703381 -0.397378 0.10617706
000130 a3 9d a6 3d 98 ba 09 bf 2f 37 8c 3e 3e c5 e3 3d
       0.081355356 -0.53800344 0.27385852 0.11121605
000140 0b 87 89 3d bd b7 5b 3e 38 eb a1 3e 7a 10 b8 3e
       0.067152105 0.2145681 0.3162477 0.3595007
000150 2b bb 17 be e9 05 42 bc ae bf ce 3e 24 f0 8e 3e
       -0.14817493 -0.011842229 0.40380615 0.27917588
000160 4f da 00 3f 3b 2c 7c 3e 22 3c 82 3e 71 b7 84 be
       0.5033311 0.24626248 0.25436503 -0.25921205
000170 c7 e1 4a be 9c f1 85 3e aa 80 0d be c1 89 9b be
       -0.1981269 0.26160896 -0.13818613 -0.30378535
000180 0a 97 22 be 3f a0 ea be 45 f4 88 be 0e c8 16 be
       -0.1587793 -0.45825383 -0.26748863 -0.14724752
000190 86 f9 22 bd 76 ed a8 3e 68 5b 61 3d b7 76 cb 3e
       -0.039788745 0.32993668 0.055018812 0.3973901
0001a0 42 9b a2 3e 2b 73 a6 be 92 71 83 be df e5 0a be
       0.31759077 -0.3250974 -0.25672585 -0.13564251
0001b0 e0 69 5d 3e 21 0c a7 3e fe 84 bf be ed 04 c3 bd
       0.2162242 0.3262644 -0.37406152 -0.09522424
0001c0 09 08 3f 3e 0b 39 1d be 72 e5 31 be 99 ae f2 3d
       0.18655409 -0.15353791 -0.17372683 0.11849708
0001d0 11 e4 48 3e d1 d9 49 be 2c b6 3a be 25 0f 0c 3e
       0.1961825 -0.19711997 -0.18233556 0.13677652
0001e0 de c0 fa bd 0e 55 22 3e b2 08 41 be e8 9b cd bd
       -0.12243818 0.15852758 -0.18850973 -0.100395024
0001f0 a8 c1 a9 bd 86 b6 21 be 48 d4 72 bd b7 95 a7 be
       -0.0828889 -0.15792283 -0.05928448 -0.3273141
000200 dd 2d ee 3e 04 4f c9 3d 70 24 0c 3c a5 4d 4f 3d
       0.46519366 0.09829524 0.008553609 0.050611157
000210 64 d5 e4 3d dc 24 f0 3e 78 51 6f 3e 6c b1 d9 3e
       0.111735135 0.4690312 0.23370922 0.42518175
000220 dc 0d 1f be 6e 4f 02 3f f7 ec 2a 3f 08 e2 9d be
       -0.1553263 0.5090245 0.6676783 -0.3083651
000230 ff 82 8b 3e 2d 89 0b 3f 46 81 24 3d 62 4e ee be
       0.2724838 0.5450619 0.040162347 -0.46544176
000240 94 e7 a0 be fa 1e 24 be dd 5c c0 3d 1b cc b0 3e
       -0.3142668 -0.16027442 0.09392712 0.3453072
000250 ff 1c 46 be 01 68 d9 bd 0e e0 56 3e 20 ad ca 3e
       -0.19346999 -0.1061554 0.20983908 0.3958521
000260 21 36 0c 3e 2f d5 78 3d 55 a0 a7 bd f2 39 29 3e
       0.13692524 0.060750183 -0.08184878 0.1652601
000270 51 65 8c 3d 8e 88 43 3e f9 95 8c 3c 73 64 3e bb
       0.06855262 0.1909506 0.017161356 -0.0029051572
000280 29 71 d2 3a 83 eb 7f be a8 07 f0 bb 73 cf 0f be
       0.0016055453 -0.24992184 -0.0073251314 -0.1404398
000290 33 1e ac 3e 4d 0a 64 3e fc ef d9 be 04 91 a6 3d
       0.3361679 0.22269554 -0.42565906 0.08133128
0002a0 19 1d e8 bd f6 fc 8e 3d 68 76 ef 3e b6 86 3b bc
       -0.11333675 0.06981842 0.46770024 -0.011445692
0002b0 9c 21 4c be d5 75 01 be 51 e9 bd bd 60 f4 b5 3e
       -0.19934696 -0.12642606 -0.09273017 0.35538006
0002c0 da 0d 72 3e 19 0a 52 be cd 55 be bd b1 77 8a bd
       0.23638096 -0.20511664 -0.09293709 -0.067611106
0002d0 67 79 c1 be e5 aa 5c be e0 0a 6e be e6 8b bc 3e
       -0.37787935 -0.21549566 -0.23246336 0.36825484
0002e0 65 33 b6 3d a4 d6 ab bb 9c 16 e9 be 30 cb 79 3e
       0.088965215 -0.005244093 -0.45525062 0.24393916
0002f0 e6 de c5 bd 77 6e b8 be f4 0b c5 3e 92 a1 f6 bc
       -0.09661655 -0.36021778 0.38485682 -0.03010634
000300 7b bb 92 bc a1 2a 27 3e d4 d7 9a be 51 61 1e 3e
       -0.017911663 0.16324855 -0.3024279 0.15466811
000310 bb 2d 0d 3e 27 05 b1 3d 71 4e da bd 05 4e 92 3b
       0.13786976 0.08643561 -0.10659493 0.004464867
000320 77 5e 22 be f9 70 b9 be 7a 6b 5f be 28 14 16 3d
       -0.15856348 -0.36219004 -0.21818343 0.036640316
000330 60 c9 a5 3d 98 e7 1b bf c9 5b e6 3e d9 5b 93 3e
       0.0809505 -0.6090026 0.44991902 0.28781012
000340 ae 5f c2 be 1a fb e7 bd e2 57 96 bc 28 f0 b3 3e
       -0.37963623 -0.11327191 -0.018352453 0.35144162
000350 13 c1 cc 3c 3d ec c3 bd d8 b4 e8 3d bc 37 09 3e
       0.024994409 -0.09566543 0.11362618 0.13400167
000360 34 ff 41 3d d6 eb 45 be 53 88 ba 3e ec 18 23 bd
       0.04736252 -0.19328246 0.36432132 -0.03981869
000370 c4 8f d9 bd 3d c3 22 3f a1 17 21 3e f8 ce 53 be
       -0.10623124 0.6357916 0.1573167 -0.20684421
000380 ee 0b c2 be 06 68 3b 3e 61 86 e2 bd 04 e0 0c be
       -0.37899727 0.183014 -0.11060787 -0.1375733
000390 c7 8b 98 3d c1 dd 63 3e f3 b9 1d bd da 7a a9 be
       0.074485354 0.22252561 -0.038507413 -0.3310154
0003a0 4b 63 09 3e d9 23 19 3f 88 4c 4f be b9 c4 bd 3e
       0.13416784 0.59820324 -0.20244038 0.3706415
0003b0 db 76 b0 3e b0 37 18 be e2 ae be be ef 86 21 be
       0.3446568 -0.14864993 -0.372428 -0.1577413
0003c0 9e fe 7d be 5a df a6 bc 0c 2d 94 ba 64 af 0f be
       -0.2480416 -0.020370174 -0.0011304929 -0.1403175
0003d0 84 72 fb bd fb 93 57 3e bc 27 07 3f 40 af 55 be
       -0.122777015 0.21052544 0.52795005 -0.20867634
0003e0 b4 1f 8c be b7 6c c0 3e 37 a5 29 be 71 9d 4e 3d
       -0.27367938 0.37582943 -0.1656693 0.050443117
0003f0 74 42 2d be 02 9d 33 3d 5e bb 47 bf ca 9f 34 bb
       -0.16919881 0.043850906 -0.78020275 -0.0027561062

actor_mean.0.bias f4 [64]
000000 d8 e7 42 be fc f2 15 3e 39 38 f2 bd 38 a7 75 3e
       -0.19033754 0.14643472 -0.1182713 0.2398957
000010 af f4 6c 3d 67 b4 77 3e 9b 85 82 be 13 a9 0d be
       0.057850536 0.24189912 -0.25492558 -0.13834028
000020 74 20 a3 3c f9 0c 97 3d fb 46 f4 3c ab 3d b1 3d
       0.019912936 0.07375521 0.029819002 0.0865434
000030 14 d1 cb 3c f3 d4 f3 3b 7a b2 25 3d 41 43 53 bd
       0.02487997 0.007441157 0.04045341 -0.05157781
000040 e0 f8 9e be ad a0 68 3e 80 09 b3 bc 0a 0f 02 3e
       -0.31049252 0.22717543 -0.021855116 0.1270105
000050 12 27 19 3e e7 9d 87 bd bf c0 18 3e 1f 7b 8e 3d
       0.1495631 -0.06621914 0.14917277 0.06957077
000060 02 e5 d8 3d e0 7a 03 be 86 dc 33 3e 68 d5 99 be
       0.10590555 -0.12839842 0.17564592 -0.3004563
000070 87 f6 24 3d a1 5f c4 bd 92 24 8b be 2d 21 12 be
       0.04027417 -0.09588552 -0.27176338 -0.14270468
000080 98 b7 49 be f3 7e 37 3e 84 95 4e 3d 05 a0 68 be
       -0.19698942 0.17919521 0.050435558 -0.22717293
000090 67 2e 68 3e a7 81 ed 3d 95 d9 26 3e 65 cd 55 3e
       0.22673951 0.11596995 0.16293938 0.20879133
0000a0 c9 98 92 bd 48 90 4c be c6 9d 10 bd 24 4a 22 3d
       -0.07158048 -0.19976914 -0.035306714 0.039621487
0000b0 e5 2a 4c be f4 32 92 3d cb f2 84 3e 94 7d 3d be
       -0.19938238 0.07138625 0.25966486 -0.18504936
0000c0 19 94 bb bd f9 06 6b 3d 51 6c d2 bc cb 31 6d 3e
       -0.09159107 0.057379697 -0.025686415 0.23163526
0000d0 0e 85 24 3d 86 68 38 be 68 50 15 be 07 62 4c be
       0.040165953 -0.18008623 -0.14581454 -0.1995927
0000e0 33 ac 6d bd 16 52 04 3d d9 9d 08 be f8 6a 40 be
       -0.05802555 0.032304846 -0.13341464 -0.18790805
0000f0 fd 03 d4 3c cd 78 0c 3e 27 f4 b3 3b 27 dc 35 be
       0.025880808 0.13717957 0.0054917517 -0.17759763

actor_mean.2.weight f4 [64, 64]
000000 87 71 e5 be 44 2a 19 3e 42 a7 32 3d 4a 5c 70 bd
       -0.44813177 0.1495753 0.04361654 -0.058681764
000010 03 3a 84 3e 7f da 23 be 7a ab 65 3d d0 64 6f 3e
       0.2582551 -0.16001318 0.056071736 0.233783
000020 74 a7 a7 3c 26 8b 12 be 5c 16 96 3d 0d 7c 66 be
       0.02046559 -0.14310893 0.073284835 -0.22508259
000030 75 ec 74 3d 1b 07 93 bc 3a 66 5e 3d 58 46 5e 3e
       0.059795815 -0.017947724 0.05429671 0.21706522
000040 2d 58 8a 3e 80 47 de be 25 46 d1 bd b8 a5 4f be
       0.27020398 -0.43413925 -0.10218457 -0.2027806
000050 05 35 7a bd 67 09 9a 3e 26 34 94 bd 5b c3 13 be
       -0.06108572 0.30085298 -0.07236509 -0.14429991
000060 86 47 9d bd 05 f4 80 3e 27 89 17 3e 81 08 a0 3d
       -0.07679658 0.25186172 0.14798413 0.07814122
000070 39 87 07 3e 16 cb c0 bc 87 cd bd bd d6 0f d2 3d
       0.13235177 -0.023534339 -0.09267717 0.10256927
000080 5c bc 4d be 39 81 45 3e 3a d7 aa be a8 e6 f0 3b
       -0.20091385 0.19287576 -0.3336733 0.007351715
000090 4a 16 51 3e de af 35 3e ab 89 7b 3e 7b a4 b5 3d
       0.20418659 0.1774287 0.24564235 0.08869263
0000a0 74 84 a8 bd 6c 4f 70 be 87 b5 29 3f c1 f8 99 be
       -0.082283884 -0.23467797 0.66292614 -0.30072597
0000b0 89 ab e3 3e b8 da 5c be 6f fb 98 3e 85 2b 98 be
       0.44466808 -0.2156781 0.2987933 -0.29720703
0000c0 8b f1 0d 3e 10 be 41 3e 0d 03 02 bf 91 d8 c8 3e
       0.13861673 0.1892016 -0.50785905 0.39227727
0000d0 bb 4f cf bd 1c d7 f5 be 7c 5f 7b be 18 0f 7d bd
       -0.10122629 -0.48015678 -0.24548143 -0.061781973
0000e0 89 94 7e 3e b8 e5 9b 3e 64 7c 9d 3d 9e 01 d5 bd
       0.24861349 0.304487 0.07689741 -0.10400699
0000f0 68 83 d2 be 0b 26 b1 be 27 6f f1 bb 6f 1e a8 be
       -0.4111588 -0.34599337 -0.0073679867 -0.3283572
000100 b2 f5 ab be 18 17 23 be 90 d1 27 3e 62 13 25 3e
       -0.33585888 -0.15926778 0.16388535 0.16120675
000110 86 30 80 3e 50 5f 4d 3e 69 e3 e9 3d 8e a4 c6 bd
       0.2503702 0.2005589 0.11420328 -0.09699355
000120 33 b8 63 3e 38 ef 91 be 8f 41 d4 bc c2 f9 23 3d
       0.22238235 -0.28502822 -0.025910167 0.04003311
000130 21 3c 3c 3e 4e 32 64 3e 24 7c d0 3e 20 ee fb 3e
       0.18382312 0.22284815 0.40719712 0.49205112
000140 de 63 e6 be ba b9 c8 39 43 6a f6 bd c2 b2 0b 3f
       -0.44998068 0.0003828535 -0.120319866 0.5456964
000150 df bc e0 be de 38 2b bc 43 3b 21 3d 72 dd 73 bd
       -0.43894097 -0.01045057 0.039363157 -0.05953736
000160 9b 5a 6a 3d 2a 02 85 bd e0 ca df bd 2f a5 64 be
       0.057215314 -0.064945534 -0.10927367 -0.22328638
000170 1a 95 09 be 64 cd c6 bd ff 8c 32 3e 11 18 7a 3d
       -0.13435784 -0.09707144 0.17436598 0.061058108
000180 eb 99 08 bd d4 95 39 be ac c5 13 bf 9c 08 9a be
       -0.033349913 -0.18123561 -0.577235 -0.30084693
000190 df 73 81 3e fe 12 dc bc f3 b0 32 3e a4 15 3f 3c
       0.25283715 -0.026864525 0.17450313 0.011662874
0001a0 56 fa 47 3e 1a 4a c3 bd f0 a7 3c be 9e a1 2a 3e
       0.1952909 -0.09535618 -0.18423438 0.16663215
0001b0 9b 25 14 3e 73 39 3b 3e 06 bb c1 3e 50 11 df be
       0.1446747 0.18283634 0.37838 -0.43567896
0001c0 a3 5d 8c be 9e 35 8f 3e 46 b2 15 3f 30 87 24 be
       -0.2741519 0.27970594 0.5847515 -0.16067195
0001d0 9d a6 c1 3d b6 e1 82 3e d4 dc 82 3e 79 24 ad bd
       0.09455607 0.2556283 0.25559103 -0.08454222
0001e0 d8 ec 44 3e 34 b0 6f be 22 73 14 3e b3 bf 08 3e
       0.19230974 -0.2340706 0.14497045 0.13354377
0001f0 27 fa ed 3d e5 4f 04 3e 52 b2 b4 3d ac a9 30 bf
       0.116199784 0.12921102 0.088230744 -0.690089
000200 44 3a 0c be 1b 34 17 3e 9b 8a 33 3e df 60 c3 be
       -0.13694102 0.1476597 0.17533343 -0.38159844
000210 a8 6b a2 bd 18 e7 96 bc 57 44 0c be bc c3 09 3e
       -0.0793069 -0.018420741 -0.13697945 0.13453573
000220 cd 40 4e be 1d 4e 78 3e 37 b3 db be 9b 3a ab bc
       -0.20141907 0.24248548 -0.42910168 -0.020901969
000230 e1 d3 a4 3e c1 89 5b be 07 38 c9 3c 8a d7 ad be
       0.321929 -0.21439268 0.024562849 -0.33953506
000240 53 b6 97 3e 8f 1b d4 3e 83 e1 e1 bd dd a9 84 3d
       0.2963129 0.41427276 -0.11029341 0.06477711
000250 8c b7 3d 3d cb 8a 7b bc 55 8e 2d be ac 34 d3 be
       0.046317622 -0.015352915 -0.16948827 -0.41251123
000260 36 22 9f bd 3b 6b 0a bf 57 7f d9 be 43 d2 bc 3e
       -0.07770197 -0.5406987 -0.42479965 0.36879167
000270 60 b9 0b 3c b9 d7 0d 3f 67 c6 34 bd 63 de ad 3e
       0.008528084 0.5540729 -0.044134524 0.3395873
000280 15 b0 df 3e 91 b4 71 be 00 e2 33 be 42 12 7e bd
       0.43689027 -0.23604037 -0.17566681 -0.06202913
000290 2a 2f 93 3e e5 08 a8 bd d9 14 b4 bc 93 89 41 be
       0.2874692 -0.082048215 -0.021982597 -0.18900137
0002a0 34 c1 8c 3e c7 6f ec 3d b4 58 28 3e 41 56 06 be
       0.27491152 0.11544757 0.16440088 -0.13118841
0002b0 a5 e3 c2 bc d4 b4 e2 bc 63 ba 3e 3e 52 a3 08 3d
       -0.02379019 -0.027674116 0.18625788 0.03335888
0002c0 d9 1e 6a 3d 48 4a d0 3e a7 a9 ca bb 42 0c 25 3e
       0.057158325 0.40681672 -0.006184775 0.16117957
0002d0 27 f0 17 be 83 a7 52 be f9 43 4c be f3 63 17 be
       -0.14837705 -0.20571713 -0.19947805 -0.14784221
0002e0 59 be 6e 3e e7 06 de bc 77 bd b6 bd 6f 2d 89 bd
       0.233148 -0.0271029 -0.08922856 -0.06698119
0002f0 b8 fe 7b 3e 0f d8 43 3e 5c 88 b4 3d 2b 68 c8 3e
       0.24608886 0.19125389 0.08815071 0.39141974
000300 1f c9 84 3e 1e e4 2e be 67 54 dc be cd 40 c4 3d
       0.25934693 -0.17079207 -0.43033144 0.09582672
000310 e4 af b8 3e 07 51 f7 bd 75 c6 e9 3d 5f b2 f2 3d
       0.36071694 -0.120760016 0.11414806 0.11850428
000320 06 00 06 3e 1f b2 57 3d 45 13 c1 be ce 99 81 be
       0.13085946 0.052660104 -0.37710014 -0.25312656
000330 18 1b 5c 3e ec 10 26 be 46 ef 99 bd 7e 4e 24 be
       0.2149471 -0.16217393 -0.07516341 -0.16045567
000340 05 dd f5 bd 3b 40 60 be 2c 2d 57 3e 97 b4 cd be
       -0.12005047 -0.21899502 0.21013325 -0.40176842
000350 2b 82 0e 3e d5 cd 04 be b5 8f 9d bd ae b1 4e be
       0.13916843 -0.12969144 -0.076934256 -0.20184967
000360 34 bb 00 bf e7 2f 08 3d 57 fa 27 3b 43 03 1c 3d
       -0.5028565 0.03324881 0.0025631392 0.038089048
000370 4b ac cd be 4a ed d7 be 6d f5 b5 be d3 e3 2a bd
       -0.40170512 -0.42173225 -0.35538808 -0.041721176
000380 d5 05 1d be 6c d6 08 be 59 35 d9 3e c9 48 d6 3d
       -0.15334256 -0.13363045 0.42423514 0.104631014
000390 6c 88 17 be 54 35 4d 3e 72 82 fe bd 64 06 16 bd
       -0.14798135 0.20039874 -0.12427224 -0.03662719
0003a0 cd 0a 86 3d 4b 34 3a 3a 05 09 c7 be aa 8f 2f bc
       0.06545029 0.0007103129 -0.3887407 -0.0107154045
0003b0 12 5c 1c 3f 91 fd 92 be 51 63 15 3e c0 00 67 be
       0.6107799 -0.2870908 0.14588667 -0.2255888
0003c0 4f d3 8a 3d b2 b3 a2 be af a6 4c be 76 d5 0a be
       0.06778585 -0.31777722 -0.1998546 -0.13557991
0003d0 fb c8 47 be 78 bf fd 3e a7 b0 89 3e 88 47 95 bc
       -0.19510262 0.49560142 0.26892588 -0.018222585
0003e0 f0 86 d9 3d 9b 14 a6 3e e8 3e 5a be b9 18 73 3a
       0.106214404 0.32437596 -0.2131306 0.00092733983
0003f0 6c 3d bc bd 49 3b 29 3e 3b c9 4e be af a9 44 3c
       -0.09191403 0.16526522 -0.20193951 0.012003346

actor_mean.2.bias f4 [64]
000000 c7 df 73 bd 1c 76 d9 3d 07 df 84 3c bb 5c 66 bd
       -0.059539583 0.10618231 0.016219629 -0.05624078
000010 16 30 ec bb b0 8f c5 bd d8 53 6b be 56 51 a2 bd
       -0.0072078807 -0.09646547 -0.22981203 -0.0792567
000020 ae 50 e0 3c 95 d1 16 bd c9 6c c7 3d 56 90 03 3e
       0.027382221 -0.036820967 0.09737546 0.12848029
000030 4d 9f 58 be a3 00 07 3b e6 bf 5b 3e 74 1e a3 3e
       -0.21154518 0.0020599745 0.21459922 0.3185917
000040 88 c5 cb 3d 11 d1 55 bd 7a a6 bf 3e a4 00 41 be
       0.099497855 -0.052201334 0.374317 -0.188479
000050 37 35 2c be 16 89 c6 bd 5c 79 cc 3c 5d 4f 62 3d
       -0.16817175 -0.09694116 0.024960212 0.055251468
000060 a4 bb ad bd 42 e8 70 3d dc 85 07 3d 48 bd aa bd
       -0.08483055 0.05881525 0.033086643 -0.08336884
000070 8a a4 0d be ca 62 ce 3d d2 d9 43 3d d8 cb b7 3b
       -0.13832298 0.10077436 0.04781515 0.005609017
000080 8c e2 c7 bc 1b 31 da 3d 2d 9a 09 3e b5 23 d9 3c
       -0.024400018 0.106538974 0.1343772 0.026506284
000090 5f f9 3e 3c ec 78 14 be e0 3e 58 3d cb 88 a2 3b
       0.011656134 -0.14499253 0.052794337 0.0049601546
0000a0 d7 b5 5f be f3 e5 8e 3c 7a e8 74 3e 86 c3 c9 bc
       -0.2184671 0.017443633 0.23916808 -0.024629366
0000b0 d0 4e 30 3e 1d a7 2a 3e 51 8d 47 be 11 4c ee 3c
       0.17217565 0.16665311 -0.19487502 0.029089006
0000c0 79 cc 4e 3e 65 8b e1 3d db 1a 44 3d 6c ab 77 3d
       0.20195188 0.110129155 0.047877174 0.060466215
0000d0 51 c3 46 3e ad bd 71 3e 01 7d 05 3e 79 0f 87 3e
       0.19410445 0.23607512 0.13035966 0.26378992
0000e0 4a c5 23 bd 1e 44 df ba 53 54 0d bd d6 c9 83 be
       -0.03998307 -0.001703385 -0.034504246 -0.25739926
0000f0 78 b9 d9 bd a1 eb 13 3e 17 e4 15 3e 1f 21 b3 3d
       -0.106310785 0.14445354 0.1463779 0.08746552

actor_mean.4.weight f4 [8, 64]
000000 5d 71 6f 3d 81 de e9 bc 07 a3 dd 3c 8d 60 cb bc
       0.05845772 -0.028548481 0.027055277 -0.024826312
000010 c1 f8 88 3d af cf 4c bd fc df 59 3c a3 08 82 3d
       0.06688071 -0.05000275 0.013298031 0.063493036
000020 24 7f 0d 3d c0 9a 50 bc 6e e9 6a bc 0c 05 4e bd
       0.03454508 -0.012732208 -0.014337881 -0.05029778
000030 12 2d 77 bd 2c 7c 89 b9 33 99 83 bc 19 35 c4 bc
       -0.060345717 -0.00026223192 -0.016064262 -0.0239511
000040 7b fc 93 bc e2 74 1a bd 25 c1 9b bd 5b 24 00 3e
       -0.018064728 -0.037709124 -0.07605199 0.12513869
000050 5f d7 91 3c b0 82 a4 bb 2f 85 1a bc 42 45 63 bc
       0.017802892 -0.005020462 -0.0094311675 -0.013871493
000060 eb e5 88 3b 95 f3 17 3d e4 7a d1 3b 92 c5 9b bc
       0.004177799 0.037097532 0.0063928235 -0.019015107
000070 99 0f ae 3d 00 af d8 3c 4b 48 1d 3d df d3 84 bc
       0.08499069 0.026450634 0.038399022 -0.01621431
000080 55 2c e1 bc c7 aa 08 bd f9 6b 1b 3d b6 85 c4 3d
       -0.02748696 -0.03336599 0.037944768 0.09595816
000090 61 da b6 3c 4a eb bd 3d c9 50 4d 3c 55 0f c9 3c
       0.022320928 0.092733935 0.012531468 0.024543444
0000a0 ce b7 3d bc 81 c9 c4 3d b8 fa aa 3c 2d f8 cc 3d
       -0.011579467 0.09608746 0.020871505 0.10008273
0000b0 af e7 12 bd 91 d0 1d bb 99 6a 78 3d 2c 60 38 3d
       -0.035865482 -0.0024080614 0.060648534 0.04501359
0000c0 1e 9b 78 bc 09 cb 15 bd b9 41 99 bc 73 40 86 3d
       -0.015173702 -0.036570583 -0.018708097 0.065552615
0000d0 6d 5d 43 3d 22 f7 89 3d 85 7e 4e bd 4b bb 5f bd
       0.04769652 0.0673659 -0.050413627 -0.054621976
0000e0 93 ca 17 bc fa 13 53 3d 85 9d 39 bc 89 d0 65 3d
       -0.009264606 0.051532723 -0.0113290595 0.056107078
0000f0 17 5f d9 3d 6d 2e e8 bb 3e 76 02 3d 45 ee 97 bb
       0.1061384 -0.0070856125 0.031851046 -0.0046365582
000100 c4 5c 92 3d f3 ff db 3c 00 d9 ba bc b7 c7 48 bd
       0.071466 0.026855445 -0.022808552 -0.049018588
000110 54 a4 dd bb 77 b2 21 3e 16 7a 41 3d 66 b3 01 3b
       -0.006763974 0.15790735 0.04723557 0.0019790768
000120 21 fe e0 3d 97 5a 4a bd aa 2a 41 3c 51 d8 e8 bc
       0.10985971 -0.0494028 0.011789957 -0.02842346
000130 b1 6e 31 be 12 4c 2d 3e 2e 2e a4 bd 43 6d 9a bd
       -0.17327382 0.1692355 -0.080166206 -0.07540371
000140 c0 0a 39 bb d7 96 8f bd 1e ed 56 3d 2e 80 32 bd
       -0.0028235167 -0.07011192 0.052472226 -0.043579273
000150 9f 7a 26 3d 3d 2d 0b 3d 7d b8 b6 3d 37 6d 24 bd
       0.040644284 0.03397869 0.08921907 -0.040143218
000160 fb 65 30 bd 3f 9a b3 bd a9 56 b1 3d d5 bd 9b 3d
       -0.043066006 -0.087696545 0.08659107 0.07604567
000170 db 37 05 3d af fd 16 3c 59 89 3f 3d 1c 49 cf 3d
       0.03252397 0.009215756 0.046761844 0.101213664
000180 d8 81 a5 bd 29 2d f7 bd 01 f1 dd 3d 26 33 23 3b
       -0.08081406 -0.120691605 0.108369835 0.0024902313
000190 33 43 d3 bb 0f 5b 56 bd 29 b3 02 bd 08 2f 3b 3c
       -0.0064472198 -0.052332934 -0.03190914 0.011424787
0001a0 5b f5 99 bd ca c1 b4 bc 89 26 02 3d 14 8f 03 be
       -0.07517501 -0.022065062 0.03177503 -0.12847549
0001b0 36 c9 74 bc 48 e5 69 bb ff a9 49 bd 9b 3c 82 3d
       -0.014940551 -0.003568964 -0.049234387 0.06359216
0001c0 1b 64 28 bd 48 68 29 be bb ff d4 bc 59 ca c8 3d
       -0.041111093 -0.16543686 -0.026000848 0.0980422
0001d0 06 aa 00 be 70 0c 6b b9 1f ce 8b bc 3f c9 25 3d
       -0.12564859 -0.0002241598 -0.01706606 0.040475126
0001e0 3c bc 1a 3d 20 81 cb bd 02 0a 1e bb 43 b6 2c 3d
       0.03777717 -0.09936738 -0.0024114852 0.042166006
0001f0 21 6c 95 3d 55 14 71 3c b9 e6 69 3c c2 41 88 3d
       0.072960146 0.01471432 0.0142762 0.06653167
000200 b7 c2 21 bb 76 17 6c 3d a1 4a d6 3d ae 2a f8 3d
       -0.002468271 0.05763956 0.10463453 0.121175155
000210 2f ba 30 bd 65 b3 d3 3d e8 8c 92 bd a2 3c bb 3d
       -0.04314631 0.10336951 -0.07155782 0.09142424
000220 08 d8 85 bd 1e 70 d1 bc 45 1f 11 bd 4b 88 56 bd
       -0.06535345 -0.025566157 -0.03543021 -0.052376073
000230 e9 fa 0f 3e d2 10 34 3d d7 ad 57 3d 83 c2 82 bd
       0.14060558 0.043961354 0.05265602 -0.063847564
000240 36 1b 0d bc 84 ea 50 3b 9e 89 4c bc a1 cb 0b bd
       -0.008612445 0.0031878063 -0.012483982 -0.034129743
000250 51 1b 21 bd 05 cf 67 bd a0 78 79 3c 4b 09 14 3e
       -0.03933269 -0.056593914 0.015226513 0.1445667
000260 e6 d3 0d 3d 78 6c 13 3d 29 0d 9b 3d 5e 10 aa bd
       0.03462591 0.035992116 0.075708695 -0.08303903
000270 44 f0 fa bc 89 dc e1 bd b5 65 92 3d f8 85 88 bc
       -0.030632146 -0.11028392 0.07148305 -0.016665444
000280 41 31 34 be 43 ae 12 be 3e 54 54 bd 80 9c ff 3c
       -0.17596914 -0.14324288 -0.051838152 0.031202555
000290 b7 56 a4 3a 6c a5 19 3e 1b 9a ac 3d 02 c5 39 bd
       0.001253805 0.1500451 0.08427831 -0.045353897
0002a0 5b ef c4 bd 19 62 40 3d 04 23 83 bd db ec 21 bb
       -0.09615966 0.046968553 -0.06403163 -0.0024707827
0002b0 4a 77 33 3d db 36 55 3d 65 33 6a bd 6a f5 6b bd
       0.043814935 0.052054267 -0.05717792 -0.057607092
0002c0 ca f3 e7 3d f9 52 b6 bb 51 d4 25 bd f2 be 52 bd
       0.11325796 -0.0055640903 -0.040485684 -0.05145163
0002d0 20 5a 42 3c 37 e8 83 bc f4 d4 2b bd 3f c3 79 bd
       0.011862308 -0.01610194 -0.041951135 -0.060977217
0002e0 80 87 bc bd 07 81 51 bb 0d 51 d8 bc 09 00 e8 ba
       -0.09205532 -0.0031967775 -0.026405836 -0.0017700206
0002f0 3a 9f a5 3c 59 7d 56 3d bf d2 09 3d 7c 42 a7 3b
       0.020217527 0.052365635 0.03364825 0.005104361
000300 d5 24 e6 3c cb ea 99 bd 86 dd 89 3d 34 0f 23 3e
       0.028093735 -0.07515486 0.06731705 0.15923768
000310 ee 6b 30 be 34 3c 89 bc 65 fb da bd fe 77 4e bd
       -0.17228672 -0.01675234 -0.10692481 -0.050407402
000320 41 43 16 bd 35 67 da bc ea 96 86 3d 39 f3 06 be
       -0.036685232 -0.026660541 0.06571753 -0.1317872
000330 f4 d2 c7 3d 10 7f 41 3d dc 56 b7 3d 3c 41 d3 bd
       0.09757033 0.047240317 0.08952114 -0.10315177
000340 f8 80 58 3d 21 53 23 3d e4 c2 3c bd e8 af 2a 3c
       0.05285737 0.0398742 -0.0460843 0.010417916
000350 e9 e9 02 3d 10 04 34 3c 13 9a c5 bc 11 2a 12 bc
       0.031961355 0.010987297 -0.02412132 -0.008921162
000360 59 7e 12 3d 9d f3 94 bb 1a 6e 05 3d a1 1b 46 3d
       0.035765026 -0.0045456425 0.032575704 0.048366193
000370 36 9c 0b bd 2f e1 d1 bb d1 df 82 3d 23 f9 61 bc
       -0.03408452 -0.006405018 0.06390346 -0.013792309
000380 3f 00 e1 3a 97 e4 87 3d d6 42 71 bd 40 e4 d6 3c
       0.0017166211 0.06635397 -0.05890163 0.026231885
000390 57 59 8e bd 67 09 32 3d f9 ee be 3d e9 eb 2c 3d
       -0.06950634 0.043465998 0.09322924 0.04221717
0003a0 c4 56 bc bd 13 dd 76 3d d4 cf 86 bc 60 61 eb bc
       -0.09196237 0.060269427 -0.016456522 -0.028732955
0003b0 ff 21 70 3d 20 cd e0 3c 5e 0a 5b 3d a0 15 bb 3d
       0.05862617 0.027441561 0.053476684 0.09134984
0003c0 da 22 28 3c ce 07 42 bd fd 68 d0 3c 5a 23 a3 bd
       0.0102622155 -0.047370724 0.025440687 -0.07965727
0003d0 8f 1f e2 3c 1f f7 56 3d 52 95 b1 bc 80 e1 e5 3b
       0.027602939 0.052481767 -0.021677647 0.007015407
0003e0 e7 d1 56 bd 80 98 ec 3b 4a c1 be 3c de e4 30 3d
       -0.052446272 0.007220328 0.023285527 0.043187015
0003f0 2b dd 47 3a 9a 23 af 3c fd 2c 03 3d a8 e2 84 3b
       0.0007624204 0.02137928 0.032025326 0.00405534

actor_mean.4.bias f4 [8]
000000 bb ac a3 bd 15 00 2e bd 1a 67 17 3e 9f 70 bb bd
       -0.0799193 -0.042480547 0.14785424 -0.0915234
000010 1e 50 ab 3b 73 50 14 3e d1 bb 49 bc d3 c2 9b 3d
       0.0052280566 0.14483814 -0.012312845 0.07605519
