DATA403_final/checkpoints/Ant-v4/PPO_6248.pt (torch, 54349 bytes, 12 tensors)

actor_logstd f4 [1, 8]
0	0xbfac47ad	-1.3459374
1	0xbfb39db3	-1.4032501
2	0xbf9e2ed2	-1.2358038
3	0xbfef95f5	-1.8717638
4	0xbfa928a2	-1.3215525
5	0xc0bf4b12	-5.977914
6	0xbfe985e2	-1.8243983
7	0xbfda13ce	-1.7037294

critic.0.weight f4 [64, 27]
0	0xbe1729e5	-0.14762075
1	0xbe9771d3	-0.29579028
2	0x3f280212	0.6562816
3	0xc031a03b	-2.7754047
4	0x3e73055b	0.23732512
5	0xbe0b9e76	-0.13634667
6	0xbe2c8b27	-0.16849957
7	0x3d2b5212	0.041826315
8	0xbe13aea7	-0.14422093
9	0xbe0fc9c0	-0.14041805
10	0x3ed70d7a	0.4200247
11	0x3c4a831b	0.01236036
12	0xbdc4fda8	-0.096186936
13	0xbe844122	-0.25830942
14	0x3e221770	0.15829253
15	0x3ec404e1	0.38284972
16	0x3dfcc02e	0.12341343
17	0xbe8275a5	-0.2548038
18	0xbd535422	-0.051593907
19	0xbc91012e	-0.017700758
20	0xbd6433ca	-0.055713452
21	0xbda820fc	-0.08209416
22	0xbabd93d9	-0.0014463618
23	0xbaed1fb5	-0.0018091114
24	0xbccb0cd4	-0.02478639
25	0x3b9aeaa5	0.004727679
26	0x3c120a32	0.008913564
27	0x3e2b3c51	0.16722228
28	0x3fb84579	1.4396201
29	0x3dd4d8f6	0.103929445
30	0x3f537b8d	0.826104
31	0x3f632b6a	0.8873812
32	0x3ee4f9da	0.44721872
33	0xbe1c3ca7	-0.15257512
34	0xbc47c28f	-0.0121923825
35	0x3e6d0248	0.23145401
36	0x3eb3191b	0.3498009
37	0x3e07026b	0.13184516
38	0x3e647f0e	0.22314093
39	0x3d9a3500	0.0752964
40	0x3c84e883	0.016224151
41	0xbcc2b57b	-0.023768177
42	0x3e3f21d9	0.18665256
43	0x3dd454a8	0.103677094
44	0x3d5e3c95	0.054256994
45	0x3dd81073	0.105500124
46	0x3d04ec7a	0.032452084
47	0xbbae4d19	-0.0053192494
48	0x3c6a4438	0.014298491
49	0x3c937ca5	0.018003771
50	0x3cfbf86c	0.030758105
51	0x3cace873	0.021106934
52	0x3c2f9a10	0.010717884
53	0x3ca6a291	0.02034119
54	0xbebfe3a6	-0.3747837
55	0x3ee54991	0.4478269
56	0xbe4babd5	-0.19889767
57	0x3e150657	0.145532
58	0xbfaf43d0	-1.369257
59	0x3e77942f	0.24177621
60	0xbe14a26c	-0.14515084
61	0xbeaa2431	-0.33230737
62	0xbd093329	-0.033496056
63	0xbdd3908a	-0.10330303
64	0x3d224f51	0.039626423
65	0xbe85f594	-0.26163924
66	0xbed7cfd8	-0.4215076
67	0x3d01ffce	0.031738095
68	0x3c8e5522	0.017374579
69	0xbdba38ba	-0.09092851
70	0x3e939f18	0.28832316
71	0xbd9a8c53	-0.07546296
72	0x3dd4f14f	0.103975885
73	0x3ceb2e22	0.028708521
74	0xbcc4b7cf	-0.024013428
75	0xbd712f2a	-0.05888287
76	0x3d1daf05	0.03849699
77	0x3c0a3d72	0.008437501
78	0xbcb93e94	-0.022612847
79	0x3d5f758c	0.05455546
80	0x3d22ac95	0.03971537
81	0xbe8e76f5	-0.27825132
82	0x3ed33de4	0.41258156
83	0xbf6718ce	-0.90272224
84	0xbf4fc715	-0.8116315
85	0x3fc2ddd8	1.5223951
86	0xbe1fde61	-0.15612175
87	0x3e30a589	0.17250647
88	0xbd9eb4b1	-0.07749308
89	0x3e1c5587	0.15267001
90	0x3e51437e	0.20435902
91	0xbc369102	-0.011142971
92	0xbe7f1fb9	-0.24914445
93	0xbc85994d	-0.016308451
94	0x3b72fb35	0.0037076
95	0xbc9422a7	-0.01808293
96	0x3d4c0d5c	0.049817428
97	0xbd837508	-0.06418806
98	0xbe0e41de	-0.13892314
99	0x3da9d81e	0.08293174
100	0x3bf8f761	0.0075978492
101	0xbc394e35	-0.01131015
102	0x3c26f737	0.010190777
103	0xbc918dde	-0.017767843
104	0x3c400a3c	0.01172119
105	0xb8a95eb0	-8.076185e-05
106	0x3ce75cd0	0.028242499
107	0xbc959cc4	-0.018263228
108	0xbf4ff333	-0.8123047
109	0x3e89f8be	0.26947588
110	0x3fde768a	1.7379925
111	0xbf3f11ca	-0.7463652
112	0x3fa6acff	1.3021544
113	0xbcaf5dc3	-0.021407014
114	0xbdd46654	-0.1037108
115	0x3b842cf6	0.00403368
116	0xbd716439	-0.05893347
117	0xbebc04c8	-0.36722398
118	0xbe95540d	-0.29165688
119	0x3ef0aaa7	0.47005197
120	0xbd54da40	-0.051965952
121	0x3d9b1851	0.07572997
122	0xbe4745cb	-0.19460218
123	0xbe4708b0	-0.19436908
124	0x3dd7d232	0.105381384
125	0xbe986a98	-0.29768825
126	0x3e0ccd55	0.13750203
127	0x3b9c0902	0.004761816
128	0xbd243456	-0.040088974
129	0x3c8c213d	0.017105693
130	0xbb5b04ee	-0.0033419686
131	0x3c3083d1	0.010773615
132	0xbd40237e	-0.046908848
133	0x3d248aee	0.040171556
134	0x39a75baa	0.00031921017
135	0xbe910bbf	-0.28329274
136	0xbe2c765e	-0.16842028
137	0x3f6b58b7	0.91932243
138	0xbfa46e99	-1.2846252
139	0x3ebfbddb	0.37449536
140	0x3ed8f2f8	0.4237287
141	0xbf8abb56	-1.083842
142	0x3d16ab47	0.036784437
143	0x3ee68fd5	0.4503161
144	0x3be74a4f	0.007058419
145	0x3eca853a	0.3955477
146	0x3d9fae14	0.07796875
147	0xbe16889f	-0.14700554
148	0x3de94728	0.11390525
149	0x3e086320	0.13319063
150	0xbef3bf05	-0.47606674
151	0xbcd88d10	-0.026434451
152	0xbd241752	-0.040061302
153	0xbca06ccd	-0.01958313
154	0x3d4e44e0	0.050358653
155	0xbd984164	-0.07434347
156	0x3d36c49f	0.044621106
157	0x3d8c2268	0.068425
158	0xbd48d0c5	-0.049027223
159	0x3d3a1b09	0.04543594
160	0xbd341e99	-0.043974493
161	0x3d3ddb5a	0.046351768
162	0x3e9b72ce	0.30361027
163	0x3ef4cf74	0.47814524
164	0x3e8791ac	0.26478326
165	0x4042865e	3.0394511
166	0x3ecb332d	0.39687482
167	0xbc6a5fc6	-0.014305061
168	0x3e24bba6	0.16087207
169	0x3da135cb	0.07871588
170	0x3d07a7f8	0.03311917
171	0x3e20adeb	0.15691344
172	0xbd668a7f	-0.056284424
173	0xbda8757d	-0.08225534
174	0x3ef521e8	0.4787743
175	0x3d870874	0.06593409
176	0x3e43331d	0.19062467
177	0xbe44fc9b	-0.19236986
178	0x3ccb12a0	0.024789155
179	0x3e65d5dc	0.22444862
180	0x3e45180e	0.19247457
181	0x3d17638a	0.036960162
182	0x3d098f08	0.03358367
183	0x3d6140c4	0.054993406
184	0x3c34774f	0.0110147735
185	0xbc875833	-0.016521549
186	0x3be1db43	0.006892593
187	0x3d1ead92	0.03873975
188	0x3d7f7744	0.0623696
189	0xbe2b66d1	-0.1673844
190	0x3da39461	0.079872854
191	0x3e1f63e6	0.15565452
192	0x3e8a6a91	0.2703443
193	0xbdec2e25	-0.11532239
194	0x3da2c7f2	0.07948293
195	0x3ec38b03	0.38191995
196	0xbe96fadd	-0.29488268
197	0xbf9b7d3a	-1.2147591
198	0x3dc70047	0.0971685
199	0xbeca8762	-0.39556414
200	0xbeb55769	-0.3541825
201	0x3ec12d0d	0.37729684
202	0xbc4cafe2	-0.012493106
203	0xbdfc62bc	-0.123235196
204	0xbf8aa67d	-1.0832058
205	0xbe41b2a4	-0.18915802
206	0xbe529222	-0.20563558
207	0xbe95e0c5	-0.29273048
208	0xbd0176dd	-0.031607497
209	0x3d846bef	0.06465899
210	0xbd4f5077	-0.050613847
211	0xbd8840f3	-0.06653013
212	0xbd63f3aa	-0.055652298
213	0xbc2ee1d4	-0.010673959
214	0xbd0bf0a0	-0.034165025
215	0xbd094577	-0.033513512
216	0x3ecd43e3	0.40090856
217	0x3ed6063b	0.41801628
218	0x3f44b480	0.7683792
219	0xc016d45f	-2.356712
220	0x3f77da1c	0.96817183
221	0xbe8ce030	-0.2751479
222	0x3dd40951	0.103533395
223	0xbd667fa9	-0.05627409
224	0xbe276e36	-0.16350636
225	0x3e9fba6b	0.31196913
226	0xbdbd2d13	-0.09237113
227	0x3ec468b4	0.38361132
228	0x3d353b00	0.04424572
229	0x3cfa216b	0.030533513
230	0xbded5820	-0.11589074
231	0x3d696982	0.056985386
232	0xbbf22cc1	-0.007390589
233	0x3da58daa	0.08083661
234	0xbc07f697	-0.008298538
235	0xbc32150d	-0.010869277
236	0x3c940d35	0.018072704
237	0xbad73155	-0.00164179
238	0xbc0d6008	-0.008628853
239	0x3b4e646c	0.0031492962
240	0x3cf26b71	0.029592248
241	0x3c964a44	0.01834596
242	0x3d2cf0af	0.04222172
243	0x3f1e01d4	0.6172154
244	0xbf4c351f	-0.79768556
245	0x3d6e88da	0.05823598
246	0xbb683fcd	-0.003543842
247	0x3f6c0e7b	0.92209595
248	0x3ede9d48	0.4347937
249	0x3e2c1982	0.16806605
250	0xbe113d2c	-0.14183491
251	0xbd762a64	-0.06009902
252	0xbea79677	-0.32731983
253	0xbd2f8159	-0.042847965
254	0xbde258a0	-0.1105206
255	0x3e55d2ef	0.20881246

critic.0.bias f4 [64]
0	0x3933dd8b	0.00017153301
1	0xbe61b39d	-0.22041173
2	0xbf07d27c	-0.5305555
3	0xbf23f547	-0.6404614
4	0x3e22dae7	0.15903817
5	0xbf1f1726	-0.62144697
6	0x3e194c39	0.14970483
7	0x3fb4c174	1.4121537
8	0xbebcef15	-0.36901155
9	0x3e42f169	0.19037403
10	0xbef22565	-0.47294155
11	0x3ec92301	0.39284518
12	0x3f823ec7	1.0175408
13	0x3e9912ac	0.29897058
14	0xbe72d4b8	-0.23713958
15	0xbf3cef48	-0.73802614
16	0xbf4e7a57	-0.80655426
17	0xbf559bb9	-0.8344074
18	0x3e90173c	0.28142726
19	0xbe29881a	-0.16555825
20	0x3dc40ac4	0.09572366
21	0x3d0eef0f	0.034895953
22	0x3e7fdad2	0.24985817
23	0x3f4ab796	0.7918638
24	0xbdaff38e	-0.08591376
25	0xbf1ad1e2	-0.60476506
26	0x3e0e2402	0.13880923
27	0x3ea3ae8b	0.31969103
28	0x3ec0138a	0.37514907
29	0x3f9a726b	1.2066168
30	0xbed47449	-0.4149497
31	0xbf43511d	-0.76295644
32	0xbd8233a8	-0.06357509
33	0x3d89058a	0.066905096
34	0x3e030d11	0.12797953
35	0xbfa6fc80	-1.3045807
36	0xbea20d59	-0.31650808
37	0x3de750cc	0.11294708
38	0x3da81e7c	0.082089394
39	0x3f23ace4	0.63935685
40	0xbedf0237	-0.43556377
41	0xbf121340	-0.57060623
42	0xbe9a123e	-0.30092043
43	0xbf97d9f1	-1.1863385
44	0x3e0ce062	0.1375747
45	0xbf3fd9b0	-0.7494154
46	0x3ef74a46	0.48298854
47	0x3f121033	0.5705597
48	0xbfa95340	-1.3228531
49	0x3e87bbe0	0.26510525
50	0xbf37f23c	-0.71853995
51	0xbe0224ae	-0.12709305
52	0xbe5f68af	-0.21817277
53	0xbe54b22e	-0.20771095
54	0x3eb3be2f	0.35106036
55	0x3e975062	0.29553515
56	0xbf86e8ea	-1.053983
57	0xbe924c5f	-0.28573892
58	0x3e937cad	0.28806058
59	0xbddd23d2	-0.10797848
60	0x3f59c701	0.8506928
61	0x3ef1cc82	0.4722634
62	0x3f19f961	0.60146147
63	0xbf6fe0f8	-0.9370265

critic.2.weight f4 [64, 64]
0	0xbe18a4b2	-0.14906576
1	0xbee6ff3b	-0.451166
2	0x3d70abb2	0.05875749
3	0xbea6062f	-0.32426593
4	0xbed51357	-0.41616318
5	0x3c81fe7d	0.01586842
6	0x3e6da181	0.2320614
7	0xbe70a0f2	-0.23498896
8	0xbeab6679	-0.33476618
9	0x3c204131	0.009781168
10	0x3ea356ec	0.31902254
11	0xbe56c48b	-0.20973413
12	0xbe8d1499	-0.27554777
13	0xbde0215d	-0.109438635
14	0x3eae2dfd	0.3401946
15	0xbefc1356	-0.49233502
16	0x3db33b74	0.08751574
17	0xbe7e678a	-0.24844185
18	0xbea11d1f	-0.3146753
19	0xbe6e7cce	-0.23289797
20	0xbcad764b	-0.02117457
21	0xbec637cb	-0.38714442
22	0x3ea9e5ec	0.3318323
23	0x3ceeb279	0.029137837
24	0xbe1fb1c5	-0.15595157
25	0xbe16d2aa	-0.147288
26	0x3e79c3b3	0.2439106
27	0xbf0bd018	-0.546144
28	0x3dcf639c	0.10126421
29	0xbea17998	-0.3153808
30	0x3eb7f4dc	0.35929
31	0x3eb9fcb6	0.36325616
32	0x3d9c3ad0	0.07628405
33	0xbeec6606	-0.46171588
34	0xbebe8eb9	-0.37218264
35	0x3d7b9508	0.061421424
36	0xbf0a81b5	-0.5410417
37	0xbe8c3451	-0.27383664
38	0x3eaea599	0.34110716
39	0x3e8b0f9e	0.27160352
40	0x3f12f8da	0.5741097
41	0xbe080b49	-0.13285555
42	0xbef1d3dc	-0.47231948
43	0x3eb18cfe	0.3467788
44	0xbd2edb14	-0.042689398
45	0xbe9e27fd	-0.30889884
46	0x3de493f8	0.11161035
47	0x3e5dd66d	0.21663828
48	0x3ea8a94f	0.32941672
49	0xbe79cb66	-0.24393997
50	0xbde3efdd	-0.11129735
51	0xbe4beaee	-0.19913837
52	0xbe8ef579	-0.27921656
53	0xbe281fea	-0.16418424
54	0xbeb04bab	-0.3443273
55	0xbe509e9f	-0.20373009
56	0x3f0b4451	0.5440112
57	0xbddd04c7	-0.10791927
58	0x3e73bba8	0.23802054
59	0xbe0f6468	-0.14003146
60	0xbe080a1d	-0.13285108
61	0xbed261dc	-0.41090286
62	0xbe50f625	-0.20406397
63	0x3ed27832	0.41107327
64	0xbf08635a	-0.532766
65	0x3ea68c91	0.3252912
66	0x3eacc200	0.3374176
67	0xbe4bb3b1	-0.19892766
68	0x3e473b0a	0.19456115
69	0xbe125fcb	-0.14294355
70	0x3f5cc211	0.8623362
71	0x3c6a7b56	0.014311632
72	0xbec50605	-0.38481155
73	0x3e2b2c06	0.16716012
74	0x3e435e97	0.19079052
75	0xbeb18870	-0.34674406
76	0x3df6b127	0.12045508
77	0x3e63b24e	0.22235987
78	0x3c9621ff	0.018326757
79	0xbebb9528	-0.36637235
80	0xbe1d6a31	-0.1537254
81	0xbdeb064e	-0.11475812
82	0x3e9f24e7	0.31082842
83	0x3f02e8a1	0.51136214
84	0xbdb3e167	-0.087832265
85	0xbe83f46f	-0.25772426
86	0x3f0704a0	0.5274143
87	0x3dc86e7d	0.09786699
88	0x3f0d0fbd	0.5510214
89	0xbde3e7ad	-0.11128173
90	0xbe2cd84f	-0.1687939
91	0x3f23ecb0	0.6403303
92	0x3e94073e	0.28911775
93	0x3e16d20b	0.14728563
94	0x3cf625de	0.030047353
95	0x3d70c42d	0.058780838
96	0xbe0fdab5	-0.14048274
97	0xbc487ace	-0.01223631
98	0x3eb49714	0.35271513
99	0xbe57caa0	-0.21073389
100	0x3df8a43a	0.12140699
101	0xbedfd79e	-0.4371919
102	0xbec0336d	-0.37539235
103	0x3def70df	0.1169145
104	0x3e3a76a0	0.18209314
105	0xbe8fbd67	-0.2807419
106	0xbf0ca3a4	-0.54937196
107	0xbe86afb5	-0.2630593
108	0xbd19b19e	-0.037522905
109	0xbec01afe	-0.37520593
110	0x3df0eded	0.11764131
111	0xbd689951	-0.05678684
112	0xbe6eb949	-0.23312868
113	0x3eb4d3d1	0.35317853
114	0x3e40c49c	0.18825
115	0xbde2fca7	-0.11083346
116	0xbeb89a6c	-0.36055315
117	0xbf21fec1	-0.6327935
118	0x3eded08d	0.43518487
119	0xbca23551	-0.019800814
120	0xbef53326	-0.47890586
121	0xbd1b7e4d	-0.037962247
122	0x3e716fc1	0.23577787
123	0x3b88837b	0.0041660643
124	0x3e86fa2c	0.2636274
125	0x3f0958fa	0.5365139
126	0x3d439379	0.047748063
127	0xbeafcabb	-0.3433436
128	0xbe281a37	-0.1641625
129	0x3eb10b8f	0.3457913
130	0xbe83deaa	-0.25755817
131	0xbeb4b5bf	-0.3529491
132	0x3dc547d4	0.09632841
133	0xbe91f46a	-0.28506786
134	0x3e4f15e1	0.2022319
135	0x3f53c14b	0.82716817
136	0xbf271753	-0.65269965
137	0xbd948bc5	-0.072532214
138	0x3cf1c5c4	0.029513247
139	0x3e2220d2	0.15832832
140	0x3ed73047	0.4202902
141	0xbdb8eecb	-0.09029921
142	0x3db878c0	0.09007406
143	0xbe922363	-0.28542623
144	0xbcb470a4	-0.022026367
145	0xbe458523	-0.19289069
146	0x3d8f671b	0.07002088
147	0x3edd147a	0.43179685
148	0xbc0d71d7	-0.008633099
149	0x3e3c9468	0.18415987
150	0x3e167b64	0.14695507
151	0x3e4db914	0.20090133
152	0xbe8b6bf9	-0.27230814
153	0xbf1c7073	-0.61109084
154	0x3e9f0fc4	0.31066716
155	0xbdcc98cb	-0.099900804
156	0x3dc2f9bc	0.09520289
157	0x3f0650d7	0.524671
158	0xbdd70d00	-0.105005264
159	0xbe721c37	-0.23643576
160	0xbc97b082	-0.018516783
161	0xbaaf3014	-0.0013365769
162	0x3ebe9655	0.3722407
163	0xbe6d80e2	-0.23193696
164	0x3e69f0d2	0.22845772
165	0xbdb46148	-0.088076174
166	0xbe929dcf	-0.28636023
167	0x3e4cd41f	0.20002793
168	0xbe9852d9	-0.29750708
169	0xbe8d758d	-0.27628747
170	0xbb90117a	-0.0043966146
171	0xbdee489d	-0.11634944
172	0xbe031606	-0.1280137
173	0xbf155a0f	-0.58340544
174	0x3ea792b7	0.32729122
175	0x3c024e63	0.007953259
176	0xbe979ac9	-0.2961028
177	0x3c73c9d6	0.014879664
178	0xbebabd48	-0.36472535
179	0x3db38707	0.08765989
180	0xbe8c6af4	-0.2742535
181	0xbeadb8ed	-0.3393015
182	0x3e0e24f2	0.13881281
183	0x3e87018d	0.2636837
184	0xbe4fd620	-0.20296526
185	0x3c6cad38	0.014445595
186	0x3c87f31a	0.016595412
187	0xbba27903	-0.0049582734
188	0xbdebb0f4	-0.115083605
189	0x3f5d70e9	0.8650041
190	0x3ea978b2	0.33099896
191	0xbedca72d	-0.43096295
192	0x3e0b042a	0.13575807
193	0xbf5d55f0	-0.86459255
194	0xbe123ed9	-0.14281787
195	0xbf5b4100	-0.8564606
196	0xbf4e3c9b	-0.80561227
197	0x3d868c38	0.06569713
198	0xbeea21f0	-0.45729017
199	0x3db915c2	0.09037353
200	0xbf0a1b66	-0.53948057
201	0x3ee31d6a	0.4435838
202	0xbe9d2b18	-0.3069694
203	0x3eaafacd	0.3339447
204	0x3cdc3605	0.026881227
205	0x3d820eaf	0.06350457
206	0x3e20463d	0.15651794
207	0x3ce517ad	0.027965391
208	0x3dbfe5d1	0.09370006
209	0xbeb8ecd9	-0.361182
210	0x3e484bd6	0.19560179
211	0x3e1f9a0d	0.1558611
212	0x3d946b7c	0.072470635
213	0xbf59e8cf	-0.8512086
214	0x3ed13705	0.4086229
215	0xbc381bfd	-0.011237142
216	0xbf33666b	-0.7007815
217	0xbf03971e	-0.5140246
218	0xbeefc585	-0.46830383
219	0x3cb5fd5f	0.022215543
220	0x3f1d34e4	0.6140883
221	0x3d20ddd4	0.03927405
222	0x3e80c1ff	0.25148007
223	0x3e5f34c7	0.21797477
224	0xbe6f8cfd	-0.23393627
225	0x3f04c5e0	0.51864433
226	0xbe7afaa9	-0.24509682
227	0xbe85d2c5	-0.26137367
228	0xbf14b874	-0.58093953
229	0xbf1f0275	-0.62113124
230	0x3eaf95eb	0.34294066
231	0xbd5d0b7d	-0.053966034
232	0x3da08a96	0.07838933
233	0x3dbca71c	0.09211561
234	0x3ead94bf	0.33902547
235	0x3db8ec87	0.09029489
236	0xbdf30ef9	-0.1186809
237	0xbe2567b1	-0.16152836
238	0x3e320933	0.17386322
239	0x3e38b4e3	0.18037753
240	0xbeafa3fb	-0.34304795
241	0xbed51f1f	-0.41625306
242	0xbe817bab	-0.25289664
243	0xbedbbd96	-0.4291808
244	0x3e8446c3	0.25835237
245	0x3e27a6eb	0.16372268
246	0x3f2c71ca	0.6736113
247	0xbe3c9cd3	-0.18419199
248	0xbe4591d3	-0.19293909
249	0x3e0b7b7c	0.13621324
250	0x3ef88268	0.48536992
251	0xbe98bf75	-0.2983357
252	0x3ddab4dd	0.10679028
253	0xbde31c96	-0.11089437
254	0x3dad6488	0.084664404
255	0xbe77cb1d	-0.24198575

critic.2.bias f4 [64]
0	0xbd868f63	-0.065703176
1	0x3d4df2e2	0.05028046
2	0x3d3ff52e	0.04686468
3	0x3e8f6353	0.28005466
4	0xbe8c60d3	-0.2741762
5	0x3dbd2935	0.09236375
6	0xbd9a1907	-0.07524305
7	0x3dab1ad8	0.083547294
8	0xbdd1e419	-0.10248584
9	0x3e0b16e5	0.13582952
10	0x3de2a7a1	0.11067129
11	0x3d8d0b99	0.06886978
12	0x3e093ae5	0.13401373
13	0x3e1730b7	0.14764677
14	0xbe6c7a0e	-0.23093435
15	0xbe7f5123	-0.24933295
16	0x3d41d611	0.04732329
17	0x3d980f17	0.07424753
18	0xbe402439	-0.18763818
19	0xbe5addfb	-0.21373741
20	0xbd9aaced	-0.07552514
21	0xbe762a7c	-0.24039644
22	0xbc986e2c	-0.018607222
23	0x3d9a016b	0.07519802
24	0x3e8e111c	0.27747428
25	0x3e3c85bb	0.18410389
26	0x3e346b18	0.17618978
27	0xbe4dae5e	-0.20086047
28	0x3ddd926c	0.108189434
29	0xbe71880a	-0.23587051
30	0xbce14e0b	-0.027503034
31	0x3d39b89a	0.045342065
32	0xbec5c0a8	-0.38623548
33	0x3cc8e729	0.024524288
34	0x3e13b572	0.14424685
35	0x3e3bc965	0.18338545
36	0x3e01d3b4	0.12678415
37	0x3e5c4100	0.2150917
38	0xbe746cfb	-0.23869698
39	0x3d9dd71c	0.077070445
40	0xbeeddaf9	-0.46456125
41	0xbe828acf	-0.25496528
42	0x3af9bf3a	0.0019054182
43	0xbea6e2ec	-0.32595003
44	0x3dae2d07	0.08504682
45	0xbe5eb987	-0.2175046
46	0x3e6cf826	0.23141536
47	0xbeab4ce6	-0.33457106
48	0x3dd6cd18	0.10488337
49	0xbe320712	-0.1738551
50	0x3e88be1a	0.26707536
51	0xbb3e1e69	-0.0029009825
52	0xbd82663c	-0.06367156
53	0xb8fa3c2a	-0.000119321354
54	0xbe104d7b	-0.14092056
55	0x3e80f42f	0.25186297
56	0x3dee4edd	0.11636136
57	0xbf29720c	-0.66189647
58	0xbe1522dd	-0.1456408
59	0x3df2093e	0.11818169
60	0x3da5c8c2	0.08094932
61	0xbe811ca5	-0.25217167
62	0x3bce5227	0.0062964144
63	0x3d55d94b	0.05220918

critic.4.weight f4 [1, 64]
0	0xc07c427e	-3.9415584
1	0x40612341	3.5177767
2	0x40707853	3.757344
3	0xc098e8b1	-4.7784047
4	0x409ff01a	4.9980593
5	0x404c4439	3.191664
6	0xc035f40f	-2.8430212
7	0x403fb1e9	2.9952338
8	0xc067440d	-3.6135285
9	0x405c6d14	3.4441576
10	0xc053a37c	-3.3068533
11	0x403cc268	2.9493656
12	0x404db7ce	3.2143435
13	0x4043d231	3.059704
14	0x409b95d2	4.8620386
15	0xc0515721	-3.270943
16	0xc0570254	-3.359517
17	0x40721828	3.7827244
18	0xc03c8b3f	-2.945999
19	0x40a2645f	5.0747523
20	0xc04a2a43	-3.1588295
21	0xc034b47f	-2.8235166
22	0xc0546b4c	-3.319049
23	0xc046c07f	-3.105499
24	0x406df84a	3.7182794
25	0xc09e4bf3	-4.946771
26	0x40458bbe	3.0866542
27	0x405ccbcf	3.4499395
28	0x404c953b	3.1966083
29	0xc02ce8eb	-2.7017162
30	0x406b8641	3.6800692
31	0x405de6d5	3.4672139
32	0x409a2e05	4.8181176
33	0x40619cb9	3.5251906
34	0x403f47e3	2.9887626
35	0x404d95c8	3.212267
36	0x4079c325	3.9025357
37	0x4086643a	4.1997347
38	0x40a04e3e	5.009551
39	0x4056e3ba	3.3576493
40	0x40b45feb	5.6367087
41	0xc04415c4	-3.0638285
42	0x40719fa5	3.775369
43	0x409590b9	4.6739163
44	0x4048c9e6	3.137323
45	0x40802472	4.004449
46	0xc08e7b9b	-4.4525886
47	0x409632e8	4.693714
48	0x404cf0a0	3.2021866
49	0x409a84fd	4.828734
50	0x4050e286	3.263826
51	0xc04eed39	-3.233229
52	0x406e6b01	3.725281
53	0x407a0412	3.9064984
54	0xc06736cd	-3.6127198
55	0xc0a346da	-5.102399
56	0xc05df41a	-3.4680238
57	0xc03520fd	-2.8301384
58	0x4087f02d	4.2480683
59	0x404357ba	3.0522294
60	0x40583c6e	3.3786883
61	0x4095a021	4.675797
62	0xc05351fe	-3.3018794
63	0xc08882a5	-4.265948

actor_mean.0.weight f4 [64, 27]
0	0xbdcad637	-0.099041395
1	0xbeab2bf8	-0.33431983
2	0x3df609df	0.120136015
3	0xbec05502	-0.37564856
4	0xbcbf4a43	-0.02335084
5	0xbe9bd8fd	-0.30438986
6	0x3e11ac95	0.14225991
7	0x3e8e0ab2	0.27742535
8	0xbd3c1800	-0.045921326
9	0x3e0ac312	0.13550976
10	0x3e5bc117	0.21460377
11	0x3ef6f009	0.48230007
12	0xb8abcd74	-8.192184e-05
13	0xbd2463bc	-0.040134177
14	0xbdad7964	-0.08470419
15	0xbef16152	-0.47144562
16	0x3f0b43fe	0.5440062
17	0xbe176b69	-0.14787067
18	0x3d7eacd9	0.06217656
19	0xbd6c712c	-0.057725117
20	0x3e6ebc6b	0.23314063
21	0x3e535917	0.20639454
22	0xbdac71bc	-0.084201306
23	0x3ed79c9e	0.42111677
24	0x3d27e49c	0.040989503
25	0x3be779c5	0.0070640766
26	0xbdd9f57e	-0.10642527
27	0xbeb13ef7	-0.3461835
28	0xbda78dab	-0.08181318
29	0x3e366ed2	0.17815712
30	0x3ed39fcc	0.41332853
31	0xbe979ea2	-0.29613215
32	0x3e1460e3	0.14490084
33	0x3e52cb84	0.20585448
34	0xbd6f9acb	-0.05849723
35	0x3d5764d1	0.05258638
36	0xbca702bb	-0.020387044
37	0xbe8a07c9	-0.26959065
38	0x3e5141dd	0.20435281
39	0x3dcb806e	0.099366054
40	0xbe03e122	-0.1287885
41	0xbe3249e0	-0.17410994
42	0xbc142795	-0.00904264
43	0x3ecea847	0.4036276
44	0x3e8741ed	0.26417485
45	0xbec09124	-0.37610734
46	0x3c86a584	0.016436346
47	0x3c4c3c1c	0.012465503
48	0xbb6d25db	-0.0036185894
49	0xbe6ac808	-0.22927868
50	0xbe0493d4	-0.12947017
51	0x3e968555	0.293986
52	0xbe335eaf	-0.17516588
53	0xbeb999c5	-0.3625013
54	0xbe8c77cf	-0.27435157
55	0x3dd2f4f6	0.10300629
56	0x3ed883aa	0.42287952
57	0xbc83317f	-0.016014813
58	0x3da82121	0.08209444
59	0x3e4a2d8f	0.19743942
60	0xbcafa19f	-0.021439372
61	0x3e61baa0	0.22043848
62	0xbcf1ef63	-0.029533094
63	0xbf0e9cee	-0.55708206
64	0x3d3f591f	0.046715852
65	0x3e756c7c	0.23967165
66	0xbc18aa7d	-0.009317991
67	0x3d92326b	0.07138523
68	0xbe8ef34e	-0.27920002
69	0x3ddf0546	0.10889678
70	0x3dbe2fd5	0.09286467
71	0xbec618b8	-0.38690734
72	0xbe848216	-0.25880498
73	0xbd55310c	-0.052048728
74	0xbec4970c	-0.3839649
75	0x3dde0204	0.10840228
76	0x3d904163	0.070437215
77	0xbf0e24b3	-0.5552475
78	0x3e8420fa	0.2580641
79	0x3df8ea84	0.12154105
80	0x3d8ae31a	0.067815974
81	0x3e5a5fb3	0.21325569
82	0x3ea377fa	0.31927472
83	0x3ec468a1	0.38361076
84	0xbe1cbdf6	-0.1530684
85	0xbb6d0698	-0.003616726
86	0x3ecc4390	0.39895296
87	0x3e8e51d7	0.27796814
88	0x3efd1281	0.4942818
89	0x3e7a3e86	0.24437913
90	0x3e81a09c	0.25317848
91	0xbe850648	-0.25981355
92	0xbe47c46d	-0.19508524
93	0x3e81fd8f	0.25388762
94	0xbe0c4dc8	-0.13701546
95	0xbe9f36ba	-0.3109644
96	0xbe2c65bf	-0.16835688
97	0xbef1906c	-0.47180498
98	0xbe8a829f	-0.2705278
99	0xbe0f6dec	-0.14006776
100	0xbd14ad3e	-0.03629803
101	0x3ea5d830	0.323915
102	0x3cb20140	0.021729112
103	0x3ebeb040	0.37243843
104	0x3ea081c8	0.31349015
105	0xbeadff28	-0.3398373
106	0xbe810173	-0.25196418
107	0xbe0a1a7f	-0.1348667
108	0x3e5e6677	0.21718775
109	0x3ea60912	0.32428795
110	0xbeb18afc	-0.3467635
111	0xbd9cb5fd	-0.07651899
112	0x3e2cfa26	0.16892299
113	0xbe259c25	-0.16172846
114	0xbe2f9cc8	-0.17149651
115	0x3dde6dc5	0.108607806
116	0x3e46847f	0.19386481
117	0xbe4beacb	-0.19913785
118	0xbe3ff279	-0.1874484
119	0x3e0b8647	0.13625441
120	0xbe016ef5	-0.12639983
121	0x3e1aa8ed	0.15103503
122	0xbe5a059c	-0.21291202
123	0xbdf96f07	-0.1217938
124	0xbdc634d1	-0.09678043
125	0xbe221275	-0.15827353
126	0xbd954fb8	-0.07290596
127	0xbea1bc72	-0.31589085
128	0x3ef5ceb3	0.4800926
129	0x3dae8d0d	0.08522997
130	0xba3e7779	-0.00072657276
131	0x3d3983e4	0.045291796
132	0x3da72c19	0.08162708
133	0x3eeb403e	0.4594745
134	0x3e718dac	0.235892
135	0x3ee04e08	0.43809533
136	0xbe0ff883	-0.14059643
137	0x3f0362b6	0.51322496
138	0x3f2b5744	0.6693003
139	0xbe996e3e	-0.2996692
140	0x3e82e2b3	0.25563583
141	0x3f0db734	0.5535767
142	0x3d38ce79	0.045118783
143	0xbef5c6d2	-0.4800325
144	0xbe993f72	-0.29931217
145	0xbe369cb8	-0.17833221
146	0x3da8d9cf	0.08244669
147	0x3ebbdc50	0.36691523
148	0xbe442744	-0.19155604
149	0xbdcde931	-0.10054243
150	0x3e59a047	0.21252547
151	0x3ec325de	0.38114828
152	0x3e0599e8	0.13046992
153	0x3d18faa3	0.0373484
154	0xbdc571a6	-0.09640817
155	0x3e14f24f	0.14545558
156	0x3daf4a38	0.08559078
157	0x3e3642e4	0.17798954
158	0x3cf3c85c	0.029758625
159	0xbc0b3e81	-0.008498789
160	0x3ca06700	0.019580364
161	0xbe818866	-0.25299376
162	0xbc1ebf59	-0.0096891755
163	0xbe131ffb	-0.14367668
164	0x3ea4a357	0.32155868
165	0x3e5a2135	0.2130173
166	0xbedeba5d	-0.4350156
167	0x3d9ec015	0.077514805
168	0xbdf53e4f	-0.11974775
169	0x3dad3d45	0.08458952
170	0x3ef13bc8	0.47115922
171	0xba957434	-0.0011402429
172	0xbe4619e3	-0.19345812
173	0xbdf32bca	-0.118735865
174	0xbdc43f17	-0.09582346
175	0x3eb63c31	0.35592797
176	0x3e7d00e6	0.24707374
177	0xbe40658a	-0.18788734
178	0xbd8b9018	-0.06814593
179	0xbd910947	-0.07081848
180	0xbec86495	-0.39139238
181	0xbe5742ec	-0.21021622
182	0xbe741c71	-0.23838975
183	0x3eb75a8b	0.35811266
184	0x3db94502	0.09046365
185	0xbb42437e	-0.002964228
186	0xbee77e62	-0.4521361
187	0x3e720dc7	0.23638068
188	0xbdc218a6	-0.094773576
189	0xbeb06a51	-0.34456113
190	0x3ecd936e	0.40151542
191	0xbd4fbdda	-0.050718166
192	0xbc430bb9	-0.01190465
193	0x3e387aab	0.18015544
194	0xbe9b577d	-0.30340186
195	0x3e2b6f86	0.16741762
196	0x3e061bff	0.13096617
197	0x3d908ef5	0.07058517
198	0xbdd2d0b1	-0.10293711
199	0xbc568bd4	-0.013094861
200	0xbe2756e4	-0.1634174
201	0xbeb0fb15	-0.3456656
202	0xbe4e617b	-0.20154373
203	0x3d4fec1b	0.050762277
204	0x3dd58e2e	0.10427509
205	0xbf1815f0	-0.59408474
206	0x3eec92b2	0.4620567
207	0x3e924136	0.28565377
208	0xbec60928	-0.3867886
209	0xbdcb588c	-0.09928998
210	0xbc847959	-0.016171144
211	0x3eb2e11e	0.34937376
212	0x3d16a5cd	0.036779214
213	0xbda9aa52	-0.08284439
214	0x3dd80749	0.105482645
215	0x3e0ad2e4	0.13557011
216	0x3d4f1b24	0.050562993
217	0xbe4481ed	-0.19190188
218	0x3eb18ad4	0.3467623
219	0xbd6a1407	-0.057148006
220	0xbde797c2	-0.113082424
221	0x3f21402c	0.62988544
222	0x3e208023	0.1567388
223	0xbe5b654a	-0.21425357
224	0xbec249a4	-0.37946808
225	0x3e41d3fc	0.18928522
226	0xbddffd09	-0.109369345
227	0xbe110a36	-0.14164051
228	0x3da42d4c	0.08016452
229	0x3e6098bf	0.21933268
230	0xbd1467c6	-0.03623178
231	0xbeac751f	-0.33683106
232	0x3e02aecb	0.1276199
233	0x3f18d5f9	0.59701496
234	0xbe4caef3	-0.19988613
235	0x3ebee694	0.37285292
236	0x3eb18c06	0.34677142
237	0xbe1c9127	-0.15289746
238	0xbebc206d	-0.3674349
239	0xbe2a1fe7	-0.16613732
240	0xbe82bdad	-0.25535336
241	0xbd032f90	-0.03202778
242	0xbafc423a	-0.0019245811
243	0xbe1142c7	-0.1418563
244	0xbe026247	-0.12732802
245	0x3e5ec20d	0.21753712
246	0x3f0d0731	0.550891
247	0xbe520eb7	-0.20513426
248	0xbe8e30b3	-0.2777153
249	0x3ebcdced	0.36887303
250	0xbe285a47	-0.16440688
251	0x3d5e9e2c	0.054350063
252	0xbe2adc21	-0.16685535
253	0x3d3c34ae	0.045948677
254	0xbf4776cf	-0.7791566
255	0xbba4e532	-0.005032205

actor_mean.0.bias f4 [64]
0	0xbe3ee009	-0.1864015
1	0x3e19e0c0	0.15027142
2	0xbdf604f8	-0.120126665
3	0x3e75a380	0.23988152
4	0x3d755741	0.059897665
5	0x3e829689	0.25505474
6	0xbe84edb6	-0.2596261
7	0xbdff4bc1	-0.12465621
8	0x3cb11532	0.021616552
9	0x3d911725	0.070844926
10	0x3d307611	0.043081347
11	0x3db7d99a	0.08977051
12	0x3c7de0ef	0.015495523
13	0x3c8e73b0	0.017389148
14	0x3d3bdc6a	0.0458645
15	0xbd72f9d1	-0.059320275
16	0xbe9f3ce1	-0.31101134
17	0x3e7173aa	0.23579279
18	0xbca560be	-0.020187732
19	0x3e02e558	0.127828
20	0x3e1f10a6	0.15533695
21	0xbd8c2ac9	-0.06844098
22	0x3e1c9b96	0.15293726
23	0x3d687157	0.056748714
24	0x3dd92f21	0.10604692
25	0xbdfa9221	-0.12234903
26	0x3e37d395	0.17951806
27	0xbe9596c2	-0.29216582
28	0x3d4f7224	0.050645962
29	0xbdb5e972	-0.08882417
30	0xbe8d5236	-0.27601784
31	0xbe253b63	-0.16135935
32	0xbe425143	-0.18976311
33	0x3e3bf2a0	0.18354273
34	0x3d11be3a	0.035581805
35	0xbe722c47	-0.23649703
36	0x3e657efe	0.22411725
37	0x3dd446cb	0.10365065
38	0x3e1ddf44	0.154172
39	0x3e4a9558	0.19783533
40	0xbd9c7195	-0.076388516
41	0xbe49b419	-0.19697608
42	0xbd01a51b	-0.031651597
43	0x3d14b04c	0.036300942
44	0xbe469945	-0.19394405
45	0x3d8cc15d	0.068728186
46	0x3e84182b	0.2579969
47	0xbe426f0a	-0.1898767
48	0xbdb8a400	-0.090156555
49	0x3d3e6fe4	0.046493426
50	0xbcff4ce0	-0.031164587
51	0x3e727d22	0.23680547
52	0x3d3afbb4	0.0456502
53	0xbe37ef72	-0.17962435
54	0xbe0c58c1	-0.13705732
55	0xbe4b0a31	-0.19828106
56	0xbd656d4f	-0.056012448
57	0x3cecaa5b	0.028889826
58	0xbe13db2c	-0.14439076
59	0xbe419e25	-0.18907984
60	0x3d000276	0.031252347
61	0x3e1304c6	0.1435729
62	0x3beaa80f	0.0071611474
63	0xbe3678b9	-0.1781949

actor_mean.2.weight f4 [64, 64]
0	0xbedf05cc	-0.4355911
1	0x3e214923	0.15750556
2	0x3cf428c0	0.029804587
3	0xbd30466b	-0.043035906
4	0x3e82dbea	0.25558406
5	0xbe230e69	-0.15923466
6	0x3d851a07	0.06499105
7	0x3e70ce4d	0.23516198
8	0x3cd548b1	0.026035639
9	0xbe042f12	-0.12908581
10	0x3d7f66d4	0.062353924
11	0xbe601d04	-0.21886069
12	0x3d720f60	0.059096694
13	0xbce6cddb	-0.028174331
14	0x3d5a2c30	0.053264797
15	0x3e52bc5c	0.20579666
16	0x3e8f7f11	0.2802663
17	0xbedd7243	-0.43251237
18	0xbdf211fb	-0.11819836
19	0xbe5e8251	-0.217294
20	0xbd5b59d2	-0.053552456
21	0x3e97a751	0.2961984
22	0xbd881c1e	-0.06645988
23	0xbe12e87d	-0.143465
24	0xbdbc1dc6	-0.09185366
25	0x3e7b88db	0.24563925
26	0x3e18f4e4	0.14937168
27	0x3d97d362	0.07413365
28	0x3e084fa6	0.13311633
29	0xbc8eeb1d	-0.017446095
30	0xbdd33f2b	-0.10314783
31	0x3dc91f97	0.098204784
32	0xbe42dd1c	-0.19029659
33	0x3e53b222	0.20673421
34	0xbea723a0	-0.32644367
35	0x3c1e25b9	0.0096525485
36	0x3e50f635	0.2040642
37	0x3e3b2951	0.1827748
38	0x3e6bc7ea	0.2302548
39	0x3db112b5	0.08646146
40	0xbda89a48	-0.08232552
41	0xbe7a8954	-0.24466449
42	0x3f29cbad	0.6632641
43	0xbe94bdf2	-0.29051167
44	0x3ee1c9c4	0.44099247
45	0xbe6073f5	-0.21919234
46	0x3e9b657f	0.30350873
47	0xbe936f65	-0.28795925
48	0x3e0866c1	0.13320448
49	0x3e414cfd	0.18877025
50	0xbf03db7f	-0.515068
51	0x3eca9b62	0.39571673
52	0xbdd1c324	-0.10242298
53	0xbef4550f	-0.47721145
54	0xbe76e70f	-0.2411158
55	0xbd8b3bb4	-0.06798497
56	0x3e7b0611	0.24514033
57	0x3e99f64e	0.30070728
58	0x3d9dc40c	0.077034086
59	0xbdd0a97d	-0.10188577
60	0xbed3ae39	-0.4134386
61	0xbeb16d93	-0.3465391
62	0xbc2c5ffb	-0.01052093
63	0xbea39739	-0.3195131
64	0xbea5dc4b	-0.32394633
65	0xbe279c0c	-0.16368121
66	0x3e2fc2a3	0.17164092
67	0x3e1ef431	0.15522839
68	0x3e7f6777	0.24941812
69	0x3e44f3c1	0.1923361
70	0x3df6dc74	0.12053767
71	0xbdb994e4	-0.09061602
72	0x3e611c00	0.21983337
73	0xbe91b742	-0.28460127
74	0xbd136b48	-0.035990983
75	0x3d035dfb	0.03207205
76	0x3e454276	0.19263634
77	0x3e5eb3e6	0.21748313
78	0x3ed6205c	0.41821563
79	0x3effe624	0.4998027
80	0xbee2e8f9	-0.4431837
81	0xbb2e9fa7	-0.0026645453
82	0xbdede6ef	-0.11616313
83	0x3f08b510	0.5340128
84	0xbeddd44e	-0.43326038
85	0xbbb70c20	-0.005586162
86	0x3d0874fe	0.033314697
87	0xbd8aa8df	-0.06770491
88	0x3d566f55	0.05235227
89	0xbd60bc6e	-0.0548672
90	0xbddc799a	-0.10765381
91	0xbe6defc2	-0.23235992
92	0xbe1021dc	-0.14075416
93	0xbddcbe95	-0.10778538
94	0x3e2f4586	0.17116365
95	0x3d84cdd8	0.06484574
96	0xbce01bca	-0.027357
97	0xbe39cde8	-0.18144953
98	0xbf126996	-0.5719236
99	0xbe9c2e92	-0.3050428
100	0x3e80cd93	0.2515684
101	0xbd050f69	-0.0324854
102	0x3e257c9b	0.16160814
103	0x3bcf91ba	0.0063345106
104	0x3e47c569	0.195089
105	0xbdb76f5e	-0.089567885
106	0xbe3aa7b2	-0.18228033
107	0x3e377efe	0.17919537
108	0x3e14f9b0	0.14548373
109	0x3e42e281	0.19031717
110	0x3ec1b691	0.378346
111	0xbee32d55	-0.44370523
112	0xbe8a785f	-0.2704496
113	0x3e9057b2	0.28191906
114	0x3f1645bd	0.5870016
115	0xbe29a511	-0.16566874
116	0x3dbd9a67	0.092579655
117	0x3e86f021	0.2635508
118	0x3e81d41e	0.25357145
119	0xbda3209d	-0.07965205
120	0x3e45e60b	0.19326036
121	0xbe7340a5	-0.23755129
122	0x3e1d4b4c	0.15360755
123	0x3e03a197	0.1285461
124	0x3e00524f	0.12531398
125	0x3e0b455f	0.13600682
126	0x3db4eacf	0.08833849
127	0xbf306b74	-0.6891396
128	0xbe0db231	-0.13837506
129	0x3e1707bd	0.14749046
130	0x3e262564	0.16225201
131	0xbec552fd	-0.38539878
132	0xbdb3be5f	-0.08776545
133	0xbcbf4b54	-0.023351349
134	0xbe118e37	-0.14214407
135	0x3e096d45	0.1342059
136	0xbe4abd1f	-0.19798706
137	0x3e739fab	0.23791377
138	0xbedd8cd7	-0.43271515
139	0xbd1e0b06	-0.03858473
140	0x3ea260f7	0.31714603
141	0xbe5407d8	-0.20706117
142	0x3cde6cbf	0.027151464
143	0xbea8eb5a	-0.3299206
144	0x3e970bbf	0.2950115
145	0x3ed2cc38	0.41171432
146	0xbde379a5	-0.11107186
147	0x3d6976c1	0.05699802
148	0x3d1195e8	0.035543352
149	0xbc0a3773	-0.008436072
150	0xbe2ee97d	-0.17081256
151	0xbed2626f	-0.41090724
152	0xbd9facb5	-0.07796613
153	0xbf07f8a4	-0.5311377
154	0xbedb4e26	-0.4283306
155	0x3ebb488f	0.36578795
156	0x3c33e663	0.010980221
157	0x3f0c7026	0.54858625
158	0xbd45ff36	-0.04833909
159	0x3eb3d84b	0.35125956
160	0x3ee20d3b	0.4415072
161	0xbe7e0676	-0.24807152
162	0xbe3afe18	-0.18260992
163	0xbd7f62f0	-0.062350214
164	0x3e9515ed	0.2911829
165	0xbdab745c	-0.08371803
166	0xbca7f0a6	-0.020500492
167	0xbe3e4a24	-0.1858297
168	0x3e8ef2d7	0.27919647
169	0x3de898d6	0.11357276
170	0x3e182017	0.14855991
171	0xbe0ec23f	-0.13941287
172	0xbcff1e7e	-0.03114247
173	0xbd1bd9c0	-0.03804946
174	0x3e3c3efe	0.18383405
175	0x3cd88ac5	0.026433358
176	0x3d7aa9fd	0.06119727
177	0x3ed2507d	0.41077033
178	0xbbfa9b6f	-0.0076479237
179	0x3e2d0776	0.16897377
180	0xbe198a8b	-0.14994256
181	0xbe4c0aac	-0.19925946
182	0xbe4e48e0	-0.20144987
183	0xbe128792	-0.14309528
184	0x3e725348	0.23664582
185	0xbcf4f377	-0.02990125
186	0xbdb2bf00	-0.087278366
187	0xbd88e688	-0.06684595
188	0x3e8076bd	0.2509059
189	0x3e428167	0.18994676
190	0x3da88660	0.08228755
191	0x3ec505d2	0.38481003
192	0x3e7d0484	0.24708754
193	0xbe2efe78	-0.1708926
194	0xbed2f672	-0.41203648
195	0x3db46e34	0.08810082
196	0x3eadaa7c	0.33919132
197	0xbe102d52	-0.14079788
198	0x3dd31292	0.103062764
199	0x3ddc5e78	0.10760206
200	0x3e0f39a6	0.13986835
201	0x3d48f93f	0.049065825
202	0xbec9d84d	-0.39422837
203	0xbe83904b	-0.25696024
204	0x3e53e891	0.20694186
205	0xbe30f7cd	-0.17282028
206	0xbd9a692e	-0.07539593
207	0xbe218cd9	-0.15776385
208	0xbddbed37	-0.107386045
209	0xbe724b20	-0.2366147
210	0x3e45e44d	0.19325371
211	0xbed90e68	-0.42393804
212	0x3e08947a	0.1333789
213	0xbe0077dd	-0.12545724
214	0xbda43598	-0.08018035
215	0xbe4b9b02	-0.1988335
216	0xbef163e7	-0.47146532
217	0x3cc7f7e2	0.024410192
218	0xbb1e25ca	-0.002413141
219	0x3d2e3ddc	0.042539462
220	0xbecb5d8e	-0.39719814
221	0xbed9fe12	-0.42576653
222	0xbeb9a9a8	-0.3626225
223	0xbd068cb1	-0.032849018
224	0xbe1d250d	-0.15346165
225	0xbe136e67	-0.14397584
226	0x3ed9360c	0.42424047
227	0x3df104e1	0.11768509
228	0xbe10f0af	-0.14154314
229	0x3e346e4f	0.17620204
230	0xbe0fa10c	-0.14026278
231	0xbd050199	-0.032472227
232	0x3d431e43	0.04763628
233	0x3c17aa75	0.009256949
234	0xbec96b47	-0.3933966
235	0xbc892857	-0.016742868
236	0x3f1dcfd5	0.6164525
237	0xbe914b2e	-0.2837767
238	0x3dfc8ac1	0.12331153
239	0xbe686509	-0.22694792
240	0x3d82676f	0.06367385
241	0xbea7d87b	-0.3278235
242	0xbe542889	-0.20718588
243	0xbe025ab6	-0.12729916
244	0xbe4c73d6	-0.19966063
245	0x3efbae62	0.4915648
246	0x3e834207	0.25636312
247	0xbc9f6505	-0.01945735
248	0x3de6cb08	0.11269194
249	0x3eb10b1d	0.3457879
250	0xbe3d2963	-0.18472819
251	0x3c556f79	0.013027065
252	0xbdadb683	-0.08482077
253	0x3e3985e0	0.18117476
254	0xbe5a5529	-0.21321549
255	0x3bc82e46	0.006109032

actor_mean.2.bias f4 [64]
0	0xbd869031	-0.06570471
1	0x3dca6e7d	0.09884355
2	0x3c4712fa	0.01215052
3	0xbd969fd9	-0.07354707
4	0xb9ea4547	-0.00044683574
5	0xbdd33dda	-0.103145316
6	0xbe6a1375	-0.22858985
7	0xbd9cba57	-0.07652729
8	0x3d076b43	0.033061277
9	0xbd0add49	-0.03390244
10	0x3da8a0b6	0.08233778
11	0x3e0dd5be	0.13851067
12	0xbe5e05f0	-0.21681952
13	0x3c634e0f	0.013873591
14	0x3e5922cd	0.21204682
15	0x3ea3bf40	0.3198185
16	0x3dcf9f29	0.10137779
17	0xbd88abe2	-0.06673409
18	0x3ec1579f	0.37762162
19	0xbe3bfb77	-0.18357645
20	0xbe32612c	-0.1741988
21	0xbde510b2	-0.11184825
22	0x3c8cdac2	0.017194156
23	0x3d3b8d69	0.045789156
24	0xbd8e6d0c	-0.06954393
25	0x3d7ed21b	0.06221209
26	0x3d1822a2	0.037142403
27	0xbda54924	-0.08070591
28	0xbe10a2cf	-0.14124607
29	0x3dc451d4	0.0958592
30	0x3d3dced1	0.046339814
31	0x3b31d35d	0.002713404
32	0xbce7e30c	-0.028306507
33	0x3dddaeb9	0.10824341
34	0x3e00eaae	0.12589523
35	0x3cf57627	0.029963566
36	0x3b68d0ef	0.0035524925
37	0xbe1c426e	-0.15259716
38	0x3d286c79	0.041119073
39	0x3c6722d5	0.014107426
40	0xbe576420	-0.21034288
41	0x3c0c2067	0.008552647
42	0x3e72f31a	0.23725548
43	0xbc9ed91e	-0.019390639
44	0x3e2be6d7	0.16787277
45	0x3e2a4901	0.16629411
46	0xbe4b46eb	-0.19851272
47	0x3c87f890	0.016598016
48	0x3e4da334	0.20081788
49	0x3df5b7b5	0.1199793
50	0x3d5b49b7	0.053537097
51	0x3d724c87	0.059155013
52	0x3e3fc3da	0.18727055
53	0x3e6be6c6	0.23037252
54	0x3e035f36	0.12829289
55	0x3e88cb37	0.2671754
56	0xbcc962a4	-0.024583168
57	0xbb4bc0fe	-0.0031090374
58	0xbd13bbad	-0.036067653
59	0xbe84fcf7	-0.25974247
60	0xbdd1b485	-0.102395095
61	0x3e0b2ef6	0.13592133
62	0x3e185a1a	0.14878121
63	0x3daed76f	0.085371844

actor_mean.4.weight f4 [8, 64]
0	0x3d50901d	0.050918687
1	0xbc2451e1	-0.010029287
2	0x3d0853be	0.033282988
3	0xbd2ca982	-0.042153843
4	0x3da7103f	0.081573956
5	0xbd5b8857	-0.05359682
6	0x3ca4438c	0.02005174
7	0x3da42849	0.08015496
8	0x3d446167	0.047944453
9	0x3aaff9be	0.0013425869
10	0xbc0c4ea7	-0.008563674
11	0xbd5517d2	-0.05202467
12	0xbd8540d1	-0.065065034
13	0x3b732f8f	0.0037107205
14	0x3c15aead	0.009135884
15	0xbccf82d9	-0.025330948
16	0xbcf50abc	-0.029912345
17	0xbd13a282	-0.03604365
18	0xbd7c6150	-0.061616242
19	0x3e137df7	0.1440352
20	0x3ca7d407	0.020486845
21	0x3bfc96a5	0.007708388
22	0xbc88939e	-0.016671952
23	0xbc56e75f	-0.013116687
24	0xb9b752ff	-0.00034966317
25	0x3d29ee03	0.04148675
26	0x3cb1f9de	0.021725591
27	0xbc2cdb82	-0.010550382
28	0x3db3e242	0.0878339
29	0x3c7e5913	0.015524167
30	0x3d338a48	0.043833047
31	0x3b647997	0.0034862512
32	0xbce34754	-0.027743973
33	0xbcb5f254	-0.022210278
34	0x3d87c91e	0.06630157
35	0x3dbf9e97	0.093564205
36	0x3cd38c48	0.025823727
37	0x3dc16366	0.09442787
38	0x3c9d2ab4	0.019185401
39	0x3cc4a70b	0.024005434
40	0x3b94efa6	0.00454517
41	0x3dcdef3d	0.10055397
42	0x3cbbe6a5	0.022937128
43	0x3db13c6f	0.08654105
44	0xbd6eda84	-0.05831386
45	0xbca19ec6	-0.01972903
46	0x3d8dabce	0.06917535
47	0x3d204a91	0.039133612
48	0xbcd7d111	-0.026344808
49	0xbcf97826	-0.030452799
50	0xbcff39d8	-0.031155512
51	0x3d985ed0	0.07439959
52	0x3d16f9ee	0.036859445
53	0x3d8b6c1a	0.06807728
54	0xbd1f75a0	-0.038930535
55	0xbd7c0d8d	-0.06153636
56	0xbcb0b690	-0.021571428
57	0x3d4b286b	0.049599092
58	0xbc84a0fc	-0.016190045
59	0x3d31cf88	0.043410808
60	0x3df44e17	0.11928957
61	0xba0ad485	-0.000529595
62	0x3d3dc5d7	0.046331253
63	0xbd0fb474	-0.035084203
64	0x3d91464c	0.07093486
65	0x3be378af	0.006941877
66	0xbc917b68	-0.01775904
67	0xbd94681c	-0.0724642
68	0x3ba87581	0.0051409607
69	0x3e2ceeaa	0.16887918
70	0x3ccb66fc	0.02482938
71	0x3c807f27	0.015685631
72	0x3dd5842f	0.10425603
73	0xbd0fef27	-0.035140183
74	0x3caf4b20	0.021398127
75	0xbcafe269	-0.021470265
76	0xbe350c46	-0.17680463
77	0x3e2695cf	0.16268085
78	0xbd9409f8	-0.07228464
79	0xbd74a1b2	-0.059724517
80	0xbc6f5dc2	-0.014609756
81	0xbd805fc9	-0.062682696
82	0x3d9576ff	0.07298087
83	0xbd738400	-0.059452057
84	0x3d83ba1f	0.06431984
85	0x3d4ef345	0.05052497
86	0x3db5ff26	0.08886556
87	0xbd1d09e1	-0.0383395
88	0xbd0162a2	-0.031588204
89	0xbdbb9624	-0.091594964
90	0x3dc55aef	0.09636485
91	0x3d5875cc	0.052846715
92	0x3d1bee96	0.03806933
93	0xbb6fa309	-0.0036565682
94	0x3d5da55a	0.05411277
95	0x3ddccebe	0.107816204
96	0xbe05755c	-0.1303305
97	0xbe070d3c	-0.13188642
98	0x3dd7738f	0.10520088
99	0xbb86380d	-0.0040960372
100	0xbb2e1745	-0.0026564163
101	0xbd4ca4f1	-0.049961988
102	0xbce0a5d2	-0.02742282
103	0x3c099962	0.008398386
104	0xbda9edac	-0.082972854
105	0xbcc29786	-0.023753893
106	0x3cfb80fa	0.03070115
107	0xbdef925a	-0.11697836
108	0xbcef67b8	-0.029224262
109	0xbad0d882	-0.0015933665
110	0xbcef8ae4	-0.029241033
111	0x3d56ca04	0.05243875
112	0xbce70614	-0.02820114
113	0xbe2e7135	-0.17035373
114	0xbd098c89	-0.03358129
115	0x3dd012dc	0.10159847
116	0xbe088238	-0.13330925
117	0x3c62ae9c	0.013835575
118	0xbbf1d977	-0.00738066
119	0x3d06a297	0.0328699
120	0x3d0e6e4a	0.03477315
121	0xbdf4541a	-0.119301036
122	0x3c45aa47	0.012064523
123	0x3d1b538e	0.03792148
124	0x3d7ce671	0.061743204
125	0x3cce8ea9	0.02521451
126	0x3c6e8227	0.014557398
127	0x3d201903	0.039086353
128	0xbb0846da	-0.0020794184
129	0x3d8e2e5d	0.06942437
130	0x3df093d6	0.117469475
131	0x3ddb06d6	0.10694663
132	0xbd138384	-0.036014095
133	0x3dbbec68	0.0917595
134	0xbd92614f	-0.071474664
135	0x3dd9eeb8	0.10641235
136	0xbda1773d	-0.07884071
137	0xbcbe1301	-0.023202421
138	0xbd380390	-0.044925272
139	0xbd9cf3ff	-0.07663726
140	0x3dfd52e5	0.123693265
141	0x3d224b39	0.03962252
142	0x3d56a06b	0.05239908
143	0xbda6f1a6	-0.081515595
144	0xbc6031fa	-0.01368379
145	0xbc139f04	-0.00901008
146	0xbbfb8e6d	-0.0076768906
147	0xbcdd1270	-0.02698633
148	0xbd6100c6	-0.05493238
149	0xbd479a6c	-0.048731253
150	0x3b90668e	0.0044067567
151	0x3dfa4794	0.12220684
152	0x3d352add	0.04423033
153	0x3d1e706b	0.03868143
154	0x3d8a801d	0.06762717
155	0xbdd50c22	-0.10402705
156	0xbd1b59da	-0.037927486
157	0xbdd5eaa1	-0.104451425
158	0x3d622f0b	0.055220645
159	0xbbfabe13	-0.007652053
160	0xbe209c92	-0.15684727
161	0xbe1bcad8	-0.15214097
162	0xbd1e160f	-0.038595255
163	0x3ccb96a1	0.024852099
164	0x3bd9dd3e	0.0066486886
165	0x3e0e959d	0.1392426
166	0x3db4be84	0.088254005
167	0xbd1efe6b	-0.03881685
168	0xbdafed75	-0.08590213
169	0x3d584da2	0.05280841
170	0xbd7c8ce2	-0.061657794
171	0x3bd2d0a5	0.006433564
172	0x3ce76596	0.028246682
173	0x3d6b1183	0.057389747
174	0xbd88bf14	-0.0667707
175	0xbd6755b2	-0.05647821
176	0x3dfe9672	0.12431039
177	0xbc3c1fd8	-0.0114822015
178	0xbd4c1b5c	-0.04983078
179	0xbd6ffdaa	-0.058591522
180	0x3c2cdc76	0.010550609
181	0xbc8d8811	-0.017276796
182	0xbd3f7d90	-0.046750605
183	0xbd8f5217	-0.06998079
184	0xbd9f4200	-0.077762604
185	0xbca01e64	-0.019545741
186	0xbcf154db	-0.029459408
187	0x3bbdbb60	0.005790159
188	0x3c9e614e	0.019333508
189	0x3d32691b	0.043557268
190	0x3cd1d182	0.025612596
191	0x3cb6f047	0.02233137
192	0x3cbffb5e	0.02343529
193	0xbdae4019	-0.085083194
194	0x3d697e5b	0.057005268
195	0x3e106a0b	0.14102952
196	0xbe36d7e1	-0.17855789
197	0xbcb999ff	-0.022656439
198	0xbde0b0ce	-0.10971223
199	0xbd94f2cf	-0.072728746
200	0xbd3fe4d3	-0.046849083
201	0xbcf22ef8	-0.029563412
202	0x3d1c31ac	0.03813331
203	0xbe058b92	-0.13041523
204	0x3dc135bb	0.094340764
205	0x3d74f730	0.05980605
206	0x3d8736cf	0.06602251
207	0xbdd56f2b	-0.10421594
208	0x3d913a20	0.070911646
209	0x3d09f9de	0.033685558
210	0xbd577da4	-0.052610055
211	0x3c90828e	0.017640378
212	0x3c7d4413	0.015458125
213	0x3c997905	0.018734464
214	0xbc39f834	-0.01135068
215	0xbd45322b	-0.048143547
216	0x3d01b6ee	0.031668596
217	0xbb9d9739	-0.004809287
218	0x3d3eee51	0.046613995
219	0x3d819639	0.06327481
220	0xbd225791	-0.03963429
221	0xbb6cecf3	-0.0036151975
222	0x3d9649a4	0.073382646
223	0xbcd5a7f6	-0.026081067
224	0x3c704acf	0.014666273
225	0x3d8cb266	0.06869964
226	0xbd8ae0d3	-0.06781163
227	0x3bd6c876	0.0065546585
228	0xbd705750	-0.058677018
229	0x3d0ba705	0.03409483
230	0x3dc3c1c6	0.09558444
231	0x3d36750d	0.044545222
232	0xbd94162d	-0.07230792
233	0x3d932433	0.07184639
234	0x3a802254	0.0009775856
235	0xbd43edfa	-0.047834374
236	0x3d8f4410	0.06995404
237	0x3cbc6101	0.022995474
238	0x3d9f6268	0.077824414
239	0x3de57409	0.112037726
240	0x3cb9b64b	0.022669932
241	0xbdab5fff	-0.08367919
242	0x3d582422	0.052768834
243	0xbd93da86	-0.072194144
244	0x3d702744	0.058631197
245	0x3d61a1cb	0.05508594
246	0xbbe95c91	-0.0071216305
247	0x3c8535e7	0.016261054
248	0xbd17645f	-0.036960956
249	0xb945663b	-0.00018825468
250	0x3c6a03c7	0.014283127
251	0x3d0bfdc9	0.034177575
252	0x3c157d7d	0.009124157
253	0x3d0afb4c	0.03393106
254	0x3ce684e7	0.028139545
255	0x3c0711cb	0.008243988

actor_mean.4.bias f4 [8]
0	0xbd92a403	-0.07160189
1	0xbd546948	-0.051858217
2	0x3e0d93c9	0.13825907
3	0xbdc00bf1	-0.09377278
4	0xbc162df9	-0.009166234
5	0x3e152ebd	0.1456861
6	0xbc7c2156	-0.015388807
7	0x3dac2582	0.084055915
